Homework8/8_gym-PPO/results/PPO_LunarLander-v3_500-eps0.0.pth (torch, 44178 bytes, 11 tensors)

action_layer.0.weight f4 [64, 8]
0.32704508 -0.2065613 0.28678244 -0.004879841 0.12735407 0.2515235 -0.28011405 -0.30916816
-0.23240258 0.053940605 0.07095905 0.23588035 -0.03311072 -0.30533534 -0.0058412123 0.030330444
-0.23577824 -0.05648847 0.20839879 0.07332879 -0.07000898 -0.0419912 0.20418365 -0.09317905
-0.02463449 -0.07897892 0.2852975 0.16943137 0.08701733 -0.14383823 -0.28958952 -0.04361921
0.17173558 -0.12586616 0.06093249 0.18690531 0.27222675 -0.054056585 -0.07558959 0.09575926
0.34492546 0.017137209 0.0111420145 0.005570348 0.08647925 -0.14251952 -0.21499982 0.07888816
-0.347304 0.05248946 -0.25742576 0.28032842 0.2873185 0.17909369 -0.0838 0.040881783
0.19024606 0.24820252 0.13983361 -0.131694 -0.21926062 -0.32330316 -0.27319366 0.2717427
0.2956662 -0.027313491 -0.08334469 0.04493268 -0.13848376 0.04774598 0.012077524 -0.088877365
0.23095965 0.15522212 -0.31647006 0.2862467 0.09302458 0.31100205 -0.04882394 0.09117414
-0.0602708 -0.10585781 0.3016927 -0.03173445 -0.19901684 0.3294082 0.330483 -0.031900536
0.1646002 -0.27750212 -0.33664358 0.049574 0.24382941 0.04832511 0.20033686 0.20464458
-0.2023343 -0.15399559 -0.10464338 -0.062271867 0.08388239 0.07915723 -0.108722575 -0.005241313
0.21502188 -0.31481478 0.054979835 -0.26437038 0.11115229 0.10400908 -0.02396828 -0.01463822
-0.109326094 -0.25241932 0.102777235 -0.16480435 -0.1979764 -0.2952158 -0.25220737 0.06918687
0.0813678 0.087640636 0.16227186 -0.34067202 -0.23506217 0.00077998085 0.2929172 -0.15015563
-0.29569492 0.19529174 0.036959354 -0.070600115 -0.019042116 -0.11586798 0.1915242 0.0595694
0.34896252 0.014283426 -0.26434067 0.26291367 0.22350496 -0.31666002 0.027204558 0.030229298
-0.31540892 -0.04107579 -0.27046174 0.013160937 -0.08513063 0.13865511 0.15251018 0.24795361
0.24689485 -0.14737837 0.19200225 0.0028253563 -0.22549391 -0.110352665 -0.18931295 0.22859475
0.345549 -0.2262635 0.32804418 0.22157106 0.090276346 -0.035329133 -0.1270507 0.09632705
-0.1618495 -0.26265502 0.20019504 0.2970453 -0.1549284 -0.20223445 -0.2980961 -0.021109618
0.027793707 0.11131033 -0.29334503 -0.077647656 0.336582 0.3196373 -0.18197235 -0.20803751
0.336522 -0.23087056 0.06111892 -0.13262999 -0.23370048 -0.012118086 0.137731 0.21389878
0.018167347 -0.052577022 0.050897155 0.098914616 -0.2556848 -0.038805027 0.33177403 -0.026058353
0.13377567 -0.17946176 -0.17474984 0.29357705 0.2751471 0.22841012 0.16868727 -0.20066175
-0.24235669 -0.044618256 0.11161672 0.28893155 0.19437534 -0.32673582 0.10420271 -0.17805073
0.15693143 0.31214926 -0.013874226 0.3083551 -0.22176664 0.35628977 -0.07961564 0.2978455
0.14255084 -0.17188577 0.20684269 -0.087413244 0.03189042 0.095339715 0.22630401 -0.108417094
0.3642095 0.31328943 0.3363231 -0.0110959895 -0.048642725 0.2509781 0.0111822765 -0.100922115
-0.057577975 0.252608 -0.17173025 -0.26851848 -0.26608738 0.31885692 -0.35790062 -0.051537085
0.029634949 0.051594958 -0.16178988 0.0045955013 -0.03866884 -0.110694855 0.08219777 -0.0019068872
00000000: 7472 a73e ce84 53be 26d5 923e 13e7 9fbb
00000010: 1b69 023e b0c7 803e 1c6b 8fbe 4a4b 9ebe
00000020: f1fa 6dbe d3f0 5c3d fa52 913d 9e8a 713e
00000030: 1b9f 07bd ea54 9cbe a467 bfbb 8d77 f83c
00000040: da6f 71be 7460 67bd 7e66 553e 682d 963d
00000050: de60 8fbd f7fe 2bbd 8515 513e a8d4 bebd
00000060: 45ce c9bc b3bf a1bd 8412 923e 6b7f 2d3e
00000070: 2436 b23d 544a 13be 1445 94be 0faa 32bd
00000080: 74db 2f3e 0fe3 00be 5994 793d 1b64 3f3e
00000090: 4e61 8b3e 706a 5dbd b7ce 9abd 6e1d c43d
000000a0: 129a b03e 5563 8c3c ff8c 363c 7787 b63b
000000b0: 081c b13d a3f0 11be ea28 5cbe 1e90 a13d
000000c0: d4d1 b1be 30ff 563d 4fcd 83be 3587 8f3e
000000d0: 691b 933e 5664 373e 569f abbd a873 273d
000000e0: ddcf 423e cd28 7e3e 8b30 0f3e cbda 06be
000000f0: db85 60be fe87 a5be 0ae0 8bbe dc21 8b3e
00000100: 8f61 973e 8bc0 dfbc 9fb0 aabd 540b 383d
00000110: b0ce 0dbe 4a91 433d cfe0 453c 5605 b6bd
00000120: b080 6c3e 8cf2 1e3e 5d08 a2be ed8e 923e
00000130: ac83 be3d a93b 9f3e 9dfb 47bd 82b9 ba3d
00000140: 84de 76bd fbcb d8bd 7777 9a3e fcfb 01bd
00000150: 12cb 4bbe 31a8 a83e 1135 a93e 23aa 02bd
00000160: f48c 283e c214 8ebe 8c5c acbe 1b0e 4b3d
00000170: 6bae 793e 8df0 453d 1b25 4d3e 598e 513e
00000180: b930 4fbe 05b1 1dbe 454f d6bd c910 7fbd
00000190: 88ca ab3d 301d a23d f1a9 debd 52bf abbb
000001a0: b22e 5c3e 672f a1be 8932 613d 8e5b 87be
000001b0: d0a3 e33d b602 d53d 2059 c4bc 25d5 6fbc
000001c0: 5ce6 dfbd 1b3d 81be df7c d23d 79c2 28be
000001d0: 53ba 4abe 8626 97be 5321 81be d8b1 8d3d
000001e0: 29a4 a63d ef7c b33d 982a 263e 906c aebe
000001f0: 23b4 70be a177 4c3a 3ef9 953e 66c2 19be
00000200: 5365 97be 8ffa 473e b162 173d cb96 90bd
00000210: 36fe 9bbc 314c edbd eb1e 443e 0bff 733d
00000220: 37ab b23e 0805 6a3c a957 87be 9f9c 863e
00000230: 7cde 643e 4321 a2be 18dc de3c 6fa3 f73c
00000240: 477d a1be 163f 28bd f679 8abe f8a0 573c
00000250: f858 aebd 9bfb 0d3e a12b 1c3e 8de7 7d3e
00000260: 01d2 7c3e 5bea 16be 3d9c 443e 9d29 393b
00000270: e0e7 66be 9400 e2bd 41db 41be be14 6a3e
00000280: cceb b03e 9eb1 67be 68f5 a73e 86e3 623e
00000290: cee2 b83d 48b5 10bd 9419 02be 1e47 c53d
000002a0: e0bb 25be b87a 86be eeff 4c3e 5216 983e
000002b0: 8da5 1ebe 8c16 4fbe 0da0 98be 14ee acbc
000002c0: a1af e33c acf6 e33d 5231 96be bc05 9fbd
000002d0: 7a54 ac3e 80a7 a33e f656 3abe c907 55be
000002e0: 9d4c ac3e 5569 6cbe d557 7a3d 28d0 07be
000002f0: 2e4f 6fbe f08a 46bc 5b09 0d3e 4808 5b3e
00000300: b0d3 943c 015b 57bd 8979 503d bf93 ca3d
00000310: 1ee9 82be 05f2 1ebd 49de a93e 5478 d5bc
00000320: 7dfc 083e d3c4 37be 9ff1 32be bb4f 963e
00000330: 15e0 8c3e 58e4 693e 5bbc 2c3e 467a 4dbe
00000340: 5a2c 78be a2c1 36bd 4f97 e43d d6ee 933e
00000350: 540a 473e eb49 a7be 3b68 d53d ee52 36be
00000360: a2b2 203e 07d2 9f3e b950 63bc b8e0 9d3e
00000370: cb16 63be 9d6b b63e 860d a3bd 357f 983e
00000380: d9f8 113e d302 30be 92ce 533e b705 b3bd
00000390: 879f 023d 7841 c33d 3dbc 673e c809 debd
000003a0: ab79 ba3e 7967 a03e 8b32 ac3e f4cb 35bc
000003b0: 983d 47bd 3480 803e de35 373c 41b0 cebd
000003c0: e2d6 6bbd d655 813e 0eda 2fbe 417b 89be
000003d0: 9b3c 88be 3741 a33e c03e b7be 8d18 53bd
000003e0: fec4 f23c 3c55 533d 3fac 25be dc95 963b
000003f0: 3863 1ebd fcb3 e2bd 4e57 a83d 84f0 f9ba

action_layer.0.bias f4 [64]
0.21314074 0.2308206 0.16191965 -0.27848336 0.088771634 -0.29041436 0.1550166 0.33257502
-0.101432346 0.059007544 0.029196063 0.03270395 0.14651269 0.1692558 0.21831144 0.16542467
-0.023006158 0.27329776 -0.12508439 0.2034415 -0.2370374 0.2840807 0.1246796 -0.053070605
0.32538185 0.13223617 -0.0002004765 0.32183608 0.09258582 0.17011234 -0.30546913 -0.0077890516
0.16718794 0.106571205 0.090041436 -0.19599451 -0.11458942 -0.053044382 -0.12237965 0.08169901
-0.08277398 -0.06997055 0.08631977 0.031919405 0.058848917 0.15353076 0.25191978 -0.1499806
0.16650957 -0.31096768 -0.16011861 -0.3387295 -0.25074357 0.17536381 -0.28135002 0.17918131
0.24176106 -0.20881304 0.3274862 -0.03840853 0.19696598 -0.3073557 0.21869752 0.19283468
00000000: 9141 5a3e 3c5c 6c3e 44ce 253e 5f95 8ebe
00000010: e7cd b53d 31b1 94be acbc 1e3e 4647 aa3e
00000020: c3bb cfbd e5b1 713d 952c ef3c 94f4 053d
00000030: 6c07 163e 6451 2d3e 098d 5f3e 1665 293e
00000040: 6977 bcbc afed 8b3e 1f16 00be f852 503e
00000050: efb9 72be 0773 913e 0558 ff3d 9060 59bd
00000060: 7398 a63e eb68 073e 0037 52b9 b3c7 a43e
00000070: a29d bd3d ee31 2e3e 7366 9cbe 4d3b ffbb
00000080: 5133 2b3e 0142 da3d a567 b83d c9b2 48be
00000090: dcad eabd 1145 59bd 2fa2 fabd d051 a73d
000000a0: 6885 a9bd b84c 8fbd 6bc8 b03d ecbd 023d
000000b0: 900b 713d 2b37 1d3e a1fb 803e 8494 19be
000000c0: 7c81 2a3e 2837 9fbe 22f6 23be f46d adbe
000000d0: 7661 80be 9292 333e 1c0d 90be 4e7b 373e
000000e0: 3690 773e 16d3 55be 45ac a73e 4352 1dbd
000000f0: 73b1 493e ba5d 9dbe 3ef2 5f3e 7476 453e

action_layer.2.weight f4 [64, 64]
0.07334701 0.1236859 0.03391275 -0.081377015 -0.018610226 -0.10330178 0.045347605 -0.12071335
-0.119972534 -0.014822032 -0.039082643 0.031259235 -0.09796697 -0.07293433 0.08436324 0.020048179
-0.11006079 -0.04050518 -0.118721224 0.108609796 -0.008824981 -0.051592816 0.03512014 -0.0012221752
0.124467686 -0.1274431 -0.08140015 0.080185965 0.109112754 0.106471166 0.097374775 -0.05402681
-0.09506893 0.11739453 0.054975554 0.026888046 -0.11942831 -0.06922415 -0.0037502896 0.10796536
-0.009792229 -0.024557024 0.02580359 -0.09782623 0.015337253 -0.08363562 0.011921003 -0.012563078
0.118252754 0.066821545 -0.08410337 -0.02440207 -0.030692723 -0.015663723 -0.0938471 -0.10654869
-0.05339812 0.100482814 -0.09946424 -0.0013929158 0.016310947 0.04935364 -0.06465081 -0.067879915
0.11505505 0.01690524 0.038843367 -0.036168087 -0.06596157 0.104571156 0.07647313 0.025184594
-0.08586232 0.09587981 -0.006873561 0.017667988 -0.12337214 -0.07593946 0.035102382 0.020070182
0.043288197 0.12037333 -0.008811766 0.060241718 -0.10421098 -0.08550595 -0.05955649 0.030646961
0.08983539 0.026926983 0.104906045 0.09283966 -0.11082005 0.06363316 0.025103461 0.09097992
-0.06908758 0.05521473 0.018199736 0.019889139 -0.0692813 -0.0055120606 -0.041621733 0.03730628
-0.05415622 0.09296184 0.032294676 0.020407295 0.10330846 0.11866406 0.023960344 0.030690698
-0.07192924 0.09531943 0.09888987 -0.012737019 -0.0033479168 -0.11801606 0.017072514 0.060453374
0.015651163 0.09831811 0.0464349 -0.02439974 -0.0764585 0.074657105 -0.08564821 -0.089808464
-0.08212158 0.09933382 0.07372302 0.075402185 0.096950136 0.12533632 0.074290775 0.0014165728
0.06414369 -0.008037326 -0.009030829 -0.118573606 0.1110555 0.0426777 -0.013778303 0.036878698
0.0822848 0.10003245 0.09491768 0.02874334 0.031463996 0.09539284 -0.100728616 -0.11084977
-0.034786902 -0.08145176 -0.058629937 0.10553087 0.11799462 -0.076632835 -0.041325334 -0.096061245
0.012885235 0.04769618 0.012407638 0.03981691 -0.022125756 -0.12247843 -0.040912382 0.05786661
0.08452526 -0.06213494 -0.053257957 0.048153244 -0.116122074 0.07742036 -0.10851586 -0.0186478
-0.0888721 0.09463968 0.11936989 0.078776576 0.0434797 0.1199152 0.0224061 0.052892037
-0.09383403 -0.07572518 -0.11507042 0.07000967 -0.014180377 0.0661948 0.049029294 0.009642106
-0.013192141 -0.011204502 -0.031702418 -0.014093541 -0.06834999 0.013765464 -0.09672597 -0.012109279
0.08809351 0.06362731 0.0011084183 -0.11053755 0.12162599 -0.11454089 -0.034076814 -0.03254744
-0.11332225 0.032384455 0.009484563 -0.034170426 -0.034663353 0.06886347 0.0013141198 -0.07121248
0.04614145 -0.082966216 -0.023901591 0.087767385 0.08600967 0.118627794 0.042435907 -0.08444255
0.084835224 0.0668389 -0.07734505 -0.014990399 0.044591535 -0.11416894 0.09161124 0.11319385
-0.12092611 0.014415456 0.08048381 -0.026925964 -0.0748722 -0.014393841 -0.008817033 0.10721824
0.04110376 -0.04691393 0.115891516 -0.010445753 -0.057591803 -0.095679015 0.053689327 0.027337478
-0.029492412 0.038354352 0.08239192 0.05577461 -0.083697185 -0.09718288 -0.112619296 0.065926105
00000000: f536 963d 084f fd3d 19e8 0a3d fea8 a6bd
00000010: 7974 98bc e28f d3bd 69be 393d 9038 f7bd
00000020: 29b4 f5bd 1cd8 72bc 1f15 20bd af09 003d
00000030: e8a2 c8bd 985e 95bd a2c6 ac3d 143c a43c
00000040: 8d67 e1bd c2e8 25bd 1d24 f3bd d06e de3d
00000050: a796 10bc fd52 53bd 23da 0f3d 6531 a0ba
00000060: eae8 fe3d 7280 02be 1fb5 a6bd 8a38 a43d
00000070: 8276 df3d 8e0d da3d 6d6c c73d 374b 5dbd
00000080: 80b3 c2bd 8b6c f03d 0c2e 613d 5244 dc3c
00000090: d496 f4bd 64c5 8dbd 6bc7 75bb f11c dd3d
000000a0: 966f 20bc d02b c9bc 0d62 d33c 1e59 c8bd
000000b0: 1a49 7b3c 2749 abbd 5050 433c 5ed5 4dbc
000000c0: 802e f23d bcd9 883d 633e acbd dae6 c7bc
000000d0: 4e6f fbbc 3551 80bc e932 c0bd 3336 dabd
000000e0: fdb7 5abd efc9 cd3d e8b3 cbbd 8092 b6ba
000000f0: 899e 853c 0b27 4a3d a567 84bd a004 8bbd
00000100: fba1 eb3d dc7c 8a3c 391a 1f3d fd24 14bd
00000110: dc16 87bd 6729 d63d f29d 9c3d ec4f ce3c
00000120: 96d8 afbd a25c c43d 9c3b e1bb 75bc 903c
00000130: 88aa fcbd 2686 9bbd 84c7 0f3d 396a a43c
00000140: f74e 313d 4b86 f63d 3a5f 10bc 05c0 763d
00000150: 916c d5bd be1d afbd 82f1 73bd 560f fb3c
00000160: 9efb b73d fa95 dc3c fbd8 d63d b822 be3d
00000170: 9ff5 e2bd 1a52 823d c6a5 cd3c ae53 ba3d
00000180: ca7d 8dbd d728 623d 9d17 953c 8cee a23c
00000190: 5be3 8dbd 849e b4bb 8d7b 2abd 78ce 183d
000001a0: ead2 5dbd c762 be3d 6c47 043d 332d a73c
000001b0: 6393 d33d 2506 f33d 7c48 c43c 0f6b fb3c
000001c0: a34f 93bd d536 c33d c686 ca3d eeae 50bc
000001d0: b968 5bbb 67b2 f1bd a8db 8b3c f59d 773d
000001e0: de36 803c 015b c93d 8632 3e3d f7e1 c7bc
000001f0: 4696 9cbd d3e5 983d 5468 afbd 80ed b7bd
00000200: 5c2f a8bd 886f cb3d 18fc 963d 766c 9a3d
00000210: cb8d c63d 2a58 003e c325 983d 4cac b93a
00000220: c45d 833d fdae 03bc 0bf6 13bc b8d6 f2bd
00000230: 1171 e33d d0ce 2e3d 64be 61bc 1e0e 173d
00000240: ef84 a83d d0dd cc3d 3364 c23d 2777 eb3c
00000250: 64e0 003d 525d c33d ce4a cebd 3405 e3bd
00000260: b67c 0ebd 2ed0 a6bd f225 70bd 9220 d83d
00000270: 2aa7 f13d adf1 9cbd c144 29bd c2bb c4bd
00000280: 981c 533c 125d 433d 6849 4b3c 0e17 233d
00000290: 1341 b5bc f9d5 fabd be93 27bd 8a05 6d3d
000002a0: 941b ad3d 3581 7ebd 0425 5abd 563c 453d
000002b0: 69d1 edbd 918e 9e3d 903d debd 45c3 98bc
000002c0: 9302 b6bd 73d2 c13d 3378 f43d 9d55 a13d
000002d0: c517 323d 1a96 f53d ff8c b73c 52a5 583d
000002e0: 0e2c c0bd ce15 9bbd 0aaa ebbd 3b61 8f3d
000002f0: d054 68bc 2491 873d f1d2 483d ecf9 1d3c
00000300: da23 58bc 1693 37bc 65da 01bd 98e8 66bc
00000310: 14fb 8bbd 8a88 613c 4418 c6bd ff65 46bc
00000320: 5f6a b43d 094f 823d 5948 913a 8361 e2bd
00000330: 0c17 f93d 6a94 eabd 2194 0bbd 7750 05bd
00000340: 7f15 e8bd 90a5 043d 2465 1b3c 4af6 0bbd
00000350: 29fb 0dbd 4a08 8d3d 8b3e ac3a d9d7 91bd
00000360: d1fe 3c3d 31ea a9bd 45cd c3bc 63bf b33d
00000370: d625 b03d 21f3 f23d 46d1 2d3d 37f0 acbd
00000380: 17be ad3d d5e2 883d 1567 9ebd 4a9a 75bc
00000390: 9da5 363d 68d1 e9bd ac9e bb3d 2dd2 e73d
000003a0: 1ca8 f7bd ce2e 6c3c b2d4 a43d d793 dcbc
000003b0: 9956 99bd 25d4 6bbc 5175 10bc 3d95 db3d
000003c0: 6b5c 283d d228 40bd 8858 ed3d aa24 2bbc
000003d0: 62e5 6bbd 5cf3 c3bd 57e9 5b3d d9f2 df3c
000003e0: 129a f1bc 7419 1d3d 18bd a83d eb73 643d
000003f0: 6e69 abbd d107 c7bd f2a4 e6bd 4404 873d

action_layer.2.bias f4 [64]
-0.07938194 -0.00075389823 0.09072845 -0.09210559 -0.04418262 0.0057622716 0.011862103 -0.08071398
-0.051348113 0.016634423 0.07210524 0.047801934 -0.062317614 0.06294793 -0.0684947 0.07434247
0.05884742 0.046636175 0.09890951 0.09877302 -0.073453195 0.02721655 0.09435792 -0.0009969046
0.0856416 0.086615205 0.03451239 0.10079547 -0.06836346 0.030647272 -0.011042029 -0.07442538
-0.08625703 0.0146807525 -0.08999109 0.11469519 -0.10656714 0.03974789 -0.11260322 0.0069155656
-0.06825163 0.08022935 -0.025487272 0.06375995 0.01911067 0.01745642 0.032867108 0.007606989
0.10093777 0.094264984 -0.025667088 0.10211934 -0.033047546 -0.06794089 -0.11245217 0.074262306
0.028545542 0.12005609 0.07960053 -0.10971045 0.12105868 -0.0068792556 -0.009349529 0.04888667
00000000: 0093 a2bd 41a1 45ba d6cf b93d dba1 bcbd
00000010: d6f8 34bd 70d1 bc3b 4459 423c 5f4d a5bd
00000020: 6652 52bd ea44 883c e9ab 933d f6cb 433d
00000030: c140 7fbd d8ea 803d f346 8cbd dd40 983d
00000040: fe09 713d 9305 3f3d 1291 ca3d 8249 ca3d
00000050: a16e 96bd 3ef5 de3c ba3e c13d 91aa 82ba
00000060: dd64 af3d 5063 b13d dd5c 0d3d db6d ce3d
00000070: 2402 8cbd fd0f fb3c a0e9 34bc 556c 98bd
00000080: 87a7 b0bd 8a87 703c 404d b8bd 50e5 ea3d
00000090: df3f dabd afce 223d 849c e6bd f89b e23b
000000a0: 83c7 8bbd 494f a43d afca d0bc 9494 823d
000000b0: fb8d 9c3c c400 8f3c a99f 063d 0c44 f93b
000000c0: 76b8 ce3d 000e c13d c943 d2bc f223 d13d
000000d0: dd5c 07bd 9824 8bbd 534d e6bd d616 983d
000000e0: 57d8 e93c f8df f53d 9a05 a33d dfaf e0bd
000000f0: 9ded f73d 616b e1bb c42e 19bc 643d 483d

action_layer.4.weight f4 [4, 64]
-0.044829354 0.088279486 -0.036490895 0.009141145 0.0071105966 0.015026959 0.06556062 0.049561992
-0.011466909 0.06846022 0.051294517 -0.08229444 0.03757386 0.019718366 0.0039760377 0.04445391
-0.016975282 -0.054930136 -0.06714047 -0.001559153 -0.03659357 0.05635036 -0.049496293 0.10166005
-0.002534372 0.09978448 -0.0473054 -0.020728637 0.0027850494 -0.06944233 0.02876744 -0.027230924
0.03260706 -0.066905595 -0.09281865 0.040888287 0.028895726 0.08836912 0.04492388 -0.02675409
-0.00045419662 -0.102867864 0.12190938 0.031532176 -0.0641708 0.0026226868 -0.025167814 0.0341542
0.110170305 -0.101567954 0.0047613066 0.088194355 0.0018082466 0.06457321 0.09046416 0.033495903
-0.024651319 0.08534364 0.07386826 0.12096213 -0.0036723914 -0.10207856 0.10142592 0.045926724
0.06407472 0.02054261 0.09383108 0.06731842 0.017789096 0.06691208 0.02419536 -0.07043787
-0.01999844 0.0020235453 0.054502357 -0.016739734 0.04057053 0.09965834 -0.108516924 -0.12085579
0.06404823 0.0462498 -0.05585812 -0.086366974 0.0353373 0.052644692 -0.10737741 0.058840908
0.081995785 0.018717524 -0.056142192 -0.05191877 -0.061488014 -0.077834785 0.100921474 0.07151366
-0.07164687 0.08956417 0.069197305 -0.06346442 -0.067520246 -0.049951132 -0.034213163 -0.06820213
-0.08261352 -0.05250403 -0.023019724 0.07155484 -0.056861583 -0.111217126 -0.0040717893 0.09712
-0.019467527 0.06044998 0.0061305976 0.10164842 0.05399005 -0.03268583 -0.004450965 0.010002357
-0.046113607 0.09632587 0.030769171 -0.038757183 -0.08655037 0.04962034 0.063046925 0.07722133
0.06108982 0.0149045205 -0.10727628 0.06936819 0.10154054 -0.11454324 0.0051867114 0.09822743
0.010291988 -0.10325406 0.050484784 0.07287587 -0.08929909 -0.058124717 -0.019393153 0.0981207
0.006578504 -0.03527475 -0.08262773 -0.10471713 0.009959304 0.05143099 -0.10065231 0.01856123
0.10341383 -0.05974768 -0.0876825 -0.0692675 -0.03223203 0.0009939015 0.0531857 -0.005623814
0.005554781 -0.034164004 -0.008435411 0.10704645 0.11469117 -0.07290552 -0.019001793 -0.07509086
-0.0774133 0.08001522 0.0012634675 0.07865324 -0.098454714 0.0010382945 -0.001269688 0.018009428
-0.102018036 -0.03431684 -0.08381501 0.042298485 -0.113514595 -0.08078082 0.103179775 -0.05610248
-0.046383336 -0.10031097 0.07141924 0.120559834 -0.11512964 0.08926853 -0.052190248 -0.054287106
0.04240354 0.09066366 0.04093192 0.03502826 0.038578454 -0.094710834 -0.07708465 0.023887755
0.023877077 0.01929863 0.100113556 -0.053930074 0.021359213 -0.11502494 0.046728976 0.056824297
0.07550665 0.042428013 -0.016285703 0.010067935 0.070090234 0.0644172 -0.091254175 0.049800903
-0.010404995 -0.049688827 -0.029779755 -0.04585292 -0.09450686 -0.021179749 0.073407546 -0.04593096
0.06033777 -0.097887374 0.10275736 0.0061124545 0.1107192 -0.018782444 0.040608793 -0.039261453
-0.0186427 -0.11228087 0.11093923 0.036727577 0.0063273706 -0.067890644 0.079751834 0.027986946
0.082318574 0.025257891 -0.061684046 -0.029295152 0.036071677 -0.03572241 0.017294224 0.07844437
0.047121506 -0.11298518 0.11972187 -0.08059599 0.101074554 -0.107387625 -0.06677529 -0.047836587
00000000: fc9e 37bd e0cb b43d 7a77 15bd bec4 153c
00000010: 0200 e93b a233 763c a544 863d 8401 4b3d
00000020: b4df 3bbc df34 8c3d 331a 523d fd89 a8bd
00000030: 0ce7 193d 6988 a13c 6c49 823b 4e15 363d
00000040: bf0f 8bbc 6cfe 60bd f180 89bd 7e5c ccba
00000050: 24e3 15bd a3cf 663d a0bc 4abd 2533 d03d
00000060: b517 26bb ce5b cc3d 4fc3 41bd 1acf a9bc
00000070: 6085 363b c837 8ebd b2a9 eb3c 6313 dfbc
00000080: fb8e 053d cd05 89bd b417 bebd 7a7a 273d
00000090: bbb6 ec3c dffa b43d 1a02 383d 652b dbbc
000000a0: 3d21 eeb9 63ac d2bd a0ab f93d e227 013d
000000b0: fb6b 83bd 62e1 2b3b bb2c cebc 46e5 0b3d
000000c0: f8a0 e13d dc02 d0bd bc04 9c3b 3e9f b43d
000000d0: b002 ed3a f63e 843d 4645 b93d 0033 093d
000000e0: 90f1 c9bc a5c8 ae3d 3e48 973d feba f73d
000000f0: 81ac 70bb 900e d1bd 65b8 cf3d a91d 3c3d
00000100: 9b39 833d fa48 a83c 822a c03d 3dde 893d
00000110: 70ba 913c 3309 893d 5935 c63c bb41 90bd
00000120: c5d3 a3bc 759d 043b dd3d 5f3d c421 89bc
00000130: 492d 263d ac19 cc3d 1f3e debd 3e83 f7bd
00000140: b82b 833d 6e70 3d3d 7ccb 64bd 2be1 b0bd
00000150: d8bd 103d f6a1 573d b0e8 dbbd 2a03 713d
00000160: 68ed a73d 7e55 993c 5bf5 65bd c7a8 54bd
00000170: dbda 7bbd d867 9fbd ebaf ce3d c175 923d
00000180: 98bb 92bd 6b6d b73d 51b7 8d3d a2f9 81bd
00000190: 0e48 8abd 8f99 4cbd 1a23 0cbd 8fad 8bbd
000001a0: 4731 a9bd 770e 57bd dc93 bcbc 588b 923d
000001b0: b1e7 68bd cec5 e3bd a56c 85bb dae6 c63d
000001c0: 5d7a 9fbc 669a 773d 2ee3 c83b 0c2d d03d
000001d0: ac24 5d3d 94e1 05bd 67d9 91bb ede0 233c
000001e0: 9fe1 3cbd 7f46 c53d a10f fc3c dabf 1ebd
000001f0: 5241 b1bd b33e 4b3d bf1e 813d 3726 9e3d
00000200: 5239 7a3d 1732 743c abb3 dbbd e910 8e3d
00000210: 7df4 cf3d a595 eabd 4af5 a93b 762b c93d
00000220: ba9f 283c dd76 d3bd 22c9 4e3d f23f 953d
00000230: 71e2 b6bd 2f14 6ebd 64de 9ebc 81f3 c83d
00000240: 7e90 d73b 427c 10bd ba38 a9bd ef75 d6bd
00000250: 592c 233c 4da9 523d cc22 cebd b80d 983c
00000260: a1ca d33d fcb9 74bd e292 b3bd 1edc 8dbd
00000270: bc05 04bd cd45 823a 40d9 593d f947 b8bb
00000280: e104 b63b 8eef 0bbd ae34 0abc 2b3b db3d
00000290: 34e3 ea3d 7d4f 95bd a6a9 9bbc 3dc9 99bd
000002a0: dd8a 9ebd 05df a33d ef9a a53a f314 a13d
000002b0: a0a2 c9bd 6217 883a a96b a6ba 8288 933c
000002c0: d5ee d0bd d18f 0cbd 34a7 abbd 2d41 2d3d
000002d0: 577a e8bd 6a70 a5bd eb4f d33d b7cb 65bd
000002e0: 74fc 3dbd d66f cdbd 4044 923d 13e8 f63d
000002f0: 17c9 ebbd 6bd2 b63d 71c5 55bd 285c 5ebd
00000300: 56af 2d3d dead b93d 3ba8 273d cb79 0f3d
00000310: 7104 1e3d c1f7 c1bd 8fde 9dbd 41b0 c33c
00000320: dc99 c33c 2918 9e3c 5608 cd3d c8e5 5cbd
00000330: 84f9 ae3c 3292 ebbd e266 3f3d 98c0 683d
00000340: 3ba3 9a3d ffc8 2d3d 9869 85bc fbf3 243c
00000350: 788b 8f3d 2aed 833d 78e3 babd 08fc 4b3d
00000360: b679 2abc 8386 4bbd acf4 f3bc 45d0 3bbd
00000370: d08c c1bd 2781 adbc b256 963d 1a22 3cbd
00000380: bd24 773d 2d79 c8bd 7372 d23d fc4a c83b
00000390: bfc0 e23d a4dd 99bc 6855 263d 9ed0 20bd
000003a0: 93b8 98bc 83f3 e5bd 1b34 e33d a86f 163d
000003b0: d555 cf3b 400a 8bbd ee54 a33d e144 e53c
000003c0: a496 a83d a3e9 ce3c 69a8 7cbd 63fc efbc
000003d0: e5bf 133d a951 12bd 9eac 8d3c 71a7 a03d
000003e0: 7b02 413d c664 e7bd bd30 f53d 830f a5bd
000003f0: 2d00 cf3d 0bee dbbd 7cc1 88bd 4cf0 43bd

action_layer.4.bias f4 [4]
0.014361115 -0.015300184 -0.06305208 0.114186026
00000000: e24a 6b3c 9fad 7abc 7321 81bd 5dda e93d

value_layer.0.weight f4 [64, 8]
0.17135006 0.16292048 -0.03867726 -0.06375789 -0.25400087 0.3419248 -0.18827939 0.025857603
0.18189137 0.28292722 0.30800974 -0.15898706 0.0023734546 0.23057035 -0.022162966 -0.07821126
0.0948198 -0.0363049 0.13938363 0.17066287 -0.0076419655 0.21786076 0.20251507 -0.51439893
0.061824065 0.0111138895 0.3369312 0.37303585 0.094209835 -0.16319391 -0.0636501 0.4426493
0.19099231 -0.022867126 -0.10909343 -0.13438231 -0.087657765 0.31226668 -0.028471244 0.42540407
-0.0030997163 -0.05617569 -0.04949141 -0.050303563 -0.28384587 -0.3006069 -0.3805352 -0.13468656
-0.14444003 -0.091482125 -0.09882932 -0.022200571 -0.02911357 -0.061984494 0.28817222 -0.026003737
0.14372349 0.110392764 -0.26502195 0.091192044 -0.019716345 -0.2100251 -0.16960946 0.47456005
0.2799905 0.09472816 -0.013607858 0.0846213 0.0038893195 -0.009228144 -0.1098646 -0.2286601
0.037652522 -0.29012755 0.06009889 0.013290618 0.17715612 -0.24432863 -0.1932563 -0.10601557
0.07837983 0.28150618 -0.15945306 -0.19506401 -0.17359455 0.21202764 -0.124661885 -0.28597528
-0.17595078 -0.28195614 0.12509571 -0.0630175 0.27241343 -0.26658282 0.35352552 -0.037339337
0.3048319 -0.2775113 -0.119134516 0.16821103 0.08801718 -0.24500945 0.22221416 -0.4437102
-0.31984362 0.19410986 0.11392164 -0.23946424 0.0761066 -0.23017041 0.34887952 0.4980719
0.20720303 -0.3262385 -0.09650193 -0.10669851 -0.1323317 0.11809769 -0.2957018 0.14110515
-0.16058585 0.21699357 -0.07178611 0.21313329 -0.32295924 0.07431652 0.20184083 0.50307375
-0.17889388 -0.07059896 0.30614576 -0.07459857 -0.44796386 -0.45596015 -0.19060822 -0.3733548
-0.10848534 -0.1707953 -0.09559199 -0.27371854 0.31328177 -0.20563586 0.1680346 0.3072672
-0.40446457 0.25482515 0.07961438 0.14243346 0.09018603 -0.261008 -0.08439542 0.110671565
-0.31393844 0.14656456 0.30352825 0.10970235 0.08752387 -0.024959244 -0.24225973 0.12621203
0.17940484 0.3087574 -0.21049273 -0.09906519 -0.26938298 -0.17642447 -0.17491075 -0.03735815
-0.3122578 0.28865647 -0.08761574 -0.0778048 0.08358007 -0.11899666 -0.07609115 0.5146207
-0.02684599 -0.12571886 0.113435686 -0.03528116 -0.20049135 0.033428404 0.035853542 0.45910746
0.104096845 -0.28392887 0.22904748 0.15295258 0.018254945 0.115692735 0.0149216745 0.06144894
0.12741733 0.21546213 0.036882855 -0.14354101 -0.067721784 -0.07675981 0.27367666 0.4376139
-0.08231146 -0.02929845 0.31207877 -0.13706718 0.24904597 0.3528813 -0.03123093 0.028639466
0.17289385 -0.29520914 -0.19642161 0.21087745 0.05849055 -0.3794862 -0.011666107 0.036950234
0.1095684 0.12977467 -0.06819213 0.10649243 -0.269314 0.11857584 0.27314758 0.44917816
-0.32168773 0.23196729 -0.0932373 -0.21509667 -0.10617942 -0.25076553 0.22590078 0.036674816
0.16383368 0.18699585 0.18123323 0.15262835 0.113102295 0.19677414 0.10313581 0.4057751
-0.16074446 0.2513949 0.17013502 0.07338358 0.23180524 0.043849822 -0.2274141 0.20504192
-0.25858715 -0.05101398 0.07605021 -0.2930964 0.053264547 -0.09761121 0.26415172 0.2601062
00000000: 6476 2f3e a0d4 263e 0c6c 1ebd 7f93 82bd
00000010: 670c 82be c410 af3e 50cc 40be 53d3 d33c
00000020: bb41 3a3e d6db 903e 74b3 9d3e 81cd 22be
00000030: f68b 1b3b a21a 6c3e 1c8f b5bc 3a2d a0bd
00000040: e230 c23d 72b4 14bd 95ba 0e3e 3fc2 2e3e
00000050: 7469 fabb e416 5f3e 1c60 4f3e a6af 03bf
00000060: 3b3b 7d3d 0817 363c 3f82 ac3e 8efe be3e
00000070: 16f1 c03d 4e1c 27be fc5a 82bd eea2 e23e
00000080: 7d93 433e d753 bbbc 606c dfbd 849b 09be
00000090: ea85 b3bd 6be1 9f3e 873c e9bc 90ce d93e
000000a0: 9c24 4bbb 7b18 66bd 81b7 4abd 1c0b 4ebd
000000b0: 3f54 91be 26e9 99be 82d5 c2be 46eb 09be
000000c0: 16e8 13be fb5a bbbd 0767 cabd f9dd b5bc
000000d0: 957f eebc 74e3 7dbd 4f8b 933e ca05 d5bc
000000e0: 402c 133e 9a15 e23d f5b0 87be e5c2 ba3d
000000f0: 2c84 a1bc d210 57be 1aae 2dbe 89f9 f23e
00000100: ea5a 8f3e d600 c23d 7ef3 5ebc ef4d ad3d
00000110: f4e3 7e3b a431 17bc b100 e1bd e025 6abe
00000120: 8839 1a3d 998b 94be 412a 763d e4c0 593c
00000130: 6a68 353e 4931 7abe fbe4 45be b11e d9bd
00000140: 9b85 a03d 9421 903e aa47 23be dcbe 47be
00000150: c5c2 31be c61d 593e bb4e ffbd 5a6b 92be
00000160: 712c 34be 8e5c 90be 1719 003e 520f 81bd
00000170: c679 8b3e 8b7d 88be 4c01 b53e 22f1 18bd
00000180: ed12 9c3e f615 8ebe ccfc f3bd 833f 2c3e
00000190: 5a42 b43d c2e3 7abe 1c8c 633e fc2d e3be
000001a0: 8bc2 a3be bcc4 463e c04f e93d 1d36 75be
000001b0: c7dd 9b3d cbb1 6bbe 56a0 b23e 4803 ff3e
000001c0: 082d 543e bc08 a7be cea2 c5bd c084 dabd
000001d0: f681 07be 34dd f13d 3a66 97be de7d 103e
000001e0: 9e70 24be 9033 5e3e 9904 93bd 9d3f 5a3e
000001f0: ea5a a5be 4233 983d 5daf 4e3e 71c9 003f
00000200: f52f 37be 3096 90bd 23bf 9c3e 23c7 98bd
00000210: 855b e5be 9c73 e9be cd2e 43be 5c28 bfbe
00000220: 902d debd f7e4 2ebe bcc5 c3bd d624 8cbe
00000230: 7866 a03e 3592 52be 4311 2c3e 2052 9d3e
00000240: fb15 cfbe 7178 823e dd0c a33d 14da 113e
00000250: 74b3 b83d d7a2 85be 82d7 acbd c6a7 e23d
00000260: 8abc a0be 0515 163e 0e68 9b3e a0ab e03d
00000270: b73f b33d 5477 ccbc ef12 78be ba3d 013e
00000280: e7b5 373e 7315 9e3e 688b 57be b1e2 cabd
00000290: 91ec 89be 9ea8 34be ce1b 33be dc04 19bd
000002a0: 41e0 9fbe c8ca 933e e26f b3bd 1f58 9fbd
000002b0: 072c ab3d 85b4 f3bd add5 9bbd 2fbe 033f
000002c0: 1fec dbbc 72bc 00be f850 e83d fa82 10bd
000002d0: 9b4d 4dbe 39ec 083d 2adb 123d 2210 eb3e
000002e0: ba30 d53d 205f 91be 6c8b 6a3e 9a9f 1c3e
000002f0: 658b 953c 50f0 ec3d 0a7a 743c e2b1 7b3d
00000300: b079 023e 1ba2 5c3e 7a12 173d 6afc 12be
00000310: b8b1 8abd 3f34 9dbd 591f 8c3e ee0e e03e
00000320: e992 a8bd 4e03 f0bc cac8 9f3e 575b 0cbe
00000330: e805 7f3e dcac b43e 02d8 ffbc 509d ea3c
00000340: 160b 313e a725 97be bf22 49be 42f0 573e
00000350: c993 6f3d 044c c2be 3323 3fbc 2159 173d
00000360: 6665 e03d a7e3 043e 51a8 8bbd b418 da3d
00000370: 86e3 89be e4d7 f23d 00da 8b3e aefa e53e
00000380: 41b4 a4be d588 6d3e 33f3 bebd 4d42 5cbe
00000390: 9974 d9bd 5764 80be 8952 673e 5538 163d
000003a0: 04c4 273e d77b 3f3e 3495 393e 9b4a 1c3e
000003b0: 2da2 e73d 297f 493e de38 d33d c1c1 cf3e
000003c0: 329a 24be d5b6 803e e037 2e3e 214a 963d
000003d0: 5a5e 6d3e df9b 333d 3edf 68be 82f6 513e
000003e0: 8965 84be 09f4 50bd 36c0 9b3d bb10 96be
000003f0: ed2b 5a3d 63e8 c7bd e53e 873e a42c 853e

value_layer.0.bias f4 [64]
0.25887817 -0.32640007 -0.21000466 0.057026822 0.08976988 0.033011176 0.11816056 0.3204774
-0.15088294 -0.41895324 -0.25986245 0.3211279 0.06373078 -0.26840824 0.0679372 0.11153763
-0.31581372 0.27661642 0.13774306 0.06662421 -0.017336365 0.26561326 -0.023293424 -0.25621632
-0.3379478 -0.1515128 -0.041376702 0.048986763 -0.39373043 -0.09452904 0.38423124 0.25876915
-0.2795256 0.25372872 0.31790212 0.056457743 -0.29694393 -0.23978812 0.19061954 -0.014552168
-0.38608566 0.43609184 0.30455923 0.09382874 0.24447821 0.20339799 -0.22120881 0.32847005
-0.34056842 -0.2606093 0.27802584 0.16549952 -0.37063485 0.22798413 -0.08959498 0.3941073
-0.081988364 0.19552854 -0.1988803 0.2982484 -0.3627955 -0.008102913 -0.20326734 0.3971169
00000000: ae8b 843e e91d a7be 760b 57be f594 693d
00000010: 45d9 b73d ba36 073d 2afe f13d 9d15 a43e
00000020: 0f81 1abe 0a81 d6be b10c 85be e06a a43e
00000030: 4885 823d ce6c 89be a922 8b3d d76d e43d
00000040: 56b2 a1be aba0 8d3e 840c 0d3e 4672 883d
00000050: fe04 8ebc 76fe 873e dad1 bebc c92e 83be
00000060: 7e07 adbe 2c26 1bbe 9e7a 29bd 58a6 483d
00000070: 0997 c9be 7198 c1bd f5b9 c43e 647d 843e
00000080: fb1d 8fbe bbe8 813e 11c4 a23e 3c40 673d
00000090: 0909 98be 048b 75be c531 433e 376c 6ebc
000000a0: 05ad c5be 6e47 df3e 30ef 9b3e 4829 c03d
000000b0: 7f58 7a3e 9047 503e 9084 62be 3a2d a83e
000000c0: fc5e aebe 956e 85be 6759 8e3e b578 293e
000000d0: dac3 bdbe ac74 693e 937d b7bd 6fc8 c93e
000000e0: 84e9 a7bd a238 483e 47a7 4bbe 04b4 983e
000000f0: 55c0 b9be 15c2 04bc 5025 50be e852 cb3e

value_layer.2.weight f4 [64, 64]
0.014711277 0.10140765 -0.086676426 0.04495005 0.12577847 0.026422909 -0.052194353 -0.119710445
-0.0517942 0.012906545 -0.0064479373 -0.07015337 0.07735762 0.0021246425 0.14103065 -0.029505929
-0.10498208 0.008629873 -0.01643567 -0.047924113 0.11273605 -0.08700484 -0.019981328 -0.06895125
0.09386528 0.01102052 0.015046309 0.13735813 -0.08645436 0.010493741 -0.061491117 0.09277055
0.057568274 -0.13858777 -0.07737832 0.026524903 0.0010107749 0.15881142 0.062266562 -0.01956326
-0.103575565 -0.05993139 0.0119391065 0.07674257 -0.11152997 0.1954238 0.062833585 -0.14104366
0.09515851 0.02140253 0.033844456 0.048919406 -0.0263914 0.14254683 -0.12326318 -0.03977212
0.059621945 -0.020201327 -0.12821804 -0.11388187 -0.0105871 -0.098867625 -0.04480148 0.086747
0.064584844 0.10465085 -0.0066194995 0.016027234 0.05944289 -0.043605294 -0.10181018 0.004617474
-0.027000163 -0.066811025 -0.068546414 0.06225975 0.0052991137 0.06021122 0.046479978 0.09356717
-0.059405554 0.030693974 0.024369106 0.00491653 -0.117668696 0.0873502 -0.12795466 -0.0027149338
0.011993947 0.11282717 -0.105778374 0.035461083 -0.11690809 -0.07953741 -0.057916928 0.13449068
-0.031031061 -0.100979224 0.09712173 0.057761416 0.109190464 -0.10813644 -0.08125433 -0.07680202
-0.073560074 -0.12929663 0.050622907 0.046153504 -0.0038507008 -0.14321549 0.026627675 -0.019603888
0.07546076 -0.097355865 0.13376051 -0.046544243 0.07943355 -0.0766497 -0.013779905 -0.008219675
-0.0018321313 0.103755705 -0.110062666 -0.06589422 0.00040877034 -0.008105556 -0.13216732 0.13956511
-0.056137953 -0.042730346 -0.04442747 0.026047291 -0.011648128 -0.046324056 -0.06584937 -0.07504567
-0.00084308046 0.005668245 -0.027836174 -0.14041351 0.0292163 -0.13136104 -0.05407836 0.09354396
0.04394537 0.032454967 0.045365516 0.07170299 -0.07408962 -0.061743297 0.10198749 -0.011995236
0.09182609 -0.011449138 0.08143074 -0.10595481 -0.06468888 0.097515844 0.028844874 -0.011247233
-0.06553979 0.10435619 -0.07623415 0.0906912 -0.14016436 -0.062303245 -0.02490047 0.04716925
0.070978075 -0.09640587 0.019433241 -0.10803405 -0.13189943 0.08738165 -0.04252307 -0.0625293
-0.034183662 -0.017251883 0.036548585 -0.07254248 -0.013442705 -0.09887264 -0.027968632 0.08291661
0.1326939 -0.030304901 0.06416987 0.09566048 -0.05792073 0.059083425 -0.04514014 -0.067797765
-0.045347236 0.051688958 0.09054259 -0.04043402 0.022336172 0.11284311 -0.06093859 -0.079234704
-0.052447386 0.033636797 -0.12048309 -0.05712547 0.13315701 0.009530772 0.01838217 0.059777036
-0.062486537 0.035625376 0.051629275 0.0584351 -0.09194058 -0.07254273 -0.03469127 0.15290287
0.06373701 0.074257754 0.028227992 -0.007852585 0.12400544 -0.114888705 0.04931141 0.022421237
0.012526614 0.04178347 -0.03176642 -0.067122415 -0.053797886 -0.059371114 -0.15734799 0.03748915
0.038932454 -0.091007985 -0.117682144 0.081701785 -0.020479493 -0.0323236 0.13022047 -0.123790786
-0.009330593 -0.07196127 -0.03642054 0.056718145 -0.018252805 0.059601147 0.0018433651 -0.04137289
-0.028739678 -0.079568565 -0.024502281 0.07221437 -0.018271906 -0.031066192 -0.07811552 -0.089485385
00000000: 9107 713c d0ae cf3d 6983 b1bd 8b1d 383d
00000010: 12cc 003e db74 d83c bfc9 55bd c02a f5bd
00000020: 2826 54bd f975 533c 3849 d3bb 92ac 8fbd
00000030: ac6d 9e3d 963d 0b3b 576a 103e 6bb6 f1bc
00000040: d800 d7bd 5064 0d3c 19a4 86bc 134c 44bd
00000050: 28e2 e63d 982f b2bd e2af a3bc 5036 8dbd
00000060: 713c c03d 698f 343c cb84 763c 9ca7 0c3e
00000070: fc0e b1bd f1ed 2b3c 1cde 7bbd 7cfe bd3d
00000080: b6cc 6b3d f4e9 0dbe 8678 9ebd c14a d93c
00000090: fa7b 843a 769f 223e 390b 7f3d 2143 a0bc
000000a0: 6d1f d4bd 9e7a 75bd 3e9c 433c 352b 9d3d
000000b0: d369 e4bd 2d1d 483e e5ae 803d c06d 10be
000000c0: 77e2 c23d 5c54 af3c 7ca0 0a3d b75f 483d
000000d0: c732 d8bc ccf7 113e 6871 fcbd 17e8 22bd
000000e0: 2436 743d 417d a5bc 974b 03be e63a e9bd
000000f0: 8475 2dbc 1c7b cabd c281 37bd 69a8 b13d
00000100: 0f45 843d 2f53 d63d 63e8 d8bb 8c4b 833c
00000110: 637a 733d 779b 32bd db81 d0bd 2e4e 973b
00000120: 722f ddbc 38d4 88bd 1062 8cbd 1404 7f3d
00000130: 30a4 ad3b 0aa0 763d ca61 3e3d 25a0 bf3d
00000140: 3d53 73bd ee71 fb3c b8a1 c73c d81a a13b
00000150: 49fc f0bd a9e4 b23d 8c06 03be 08ed 31bb
00000160: 4382 443c ee11 e73d 55a2 d8bd a43f 113d
00000170: 826d efbd 82e4 a2bd 4d3a 6dbd edb7 093e
00000180: da34 febc 32ce cebd c2e7 c63d 3c97 6c3d
00000190: 409f df3d a376 ddbd ac68 a6bd 614a 9dbd
000001a0: aaa6 96bd 5666 04be f759 4f3d 750b 3d3d
000001b0: 0a5c 7cbb 15a7 12be 4822 da3c 5598 a0bc
000001c0: 2c8b 9a3d 8362 c7bd 84f8 083e 2da5 3ebd
000001d0: 0fae a23d 85fa 9cbd 1cc5 61bc d1ab 06bc
000001e0: 2024 f0ba df7d d43d 8968 e1bd 8cf3 86bd
000001f0: 3a50 d639 2acd 04bc df56 07be 28ea 0e3e
00000200: e9f0 65bd 0406 2fbd 94f9 35bd 2161 d53c
00000210: cad7 3ebc 4bbe 3dbd 09dc 86bd 8bb1 99bd
00000220: 2c02 5dba afbc b93b b008 e4bc 8fc8 0fbe
00000230: 0657 ef3c 8283 06be 4581 5dbd fa93 bf3d
00000240: 0f00 343d 80ef 043d 31d1 393d 04d9 923d
00000250: 4cbc 97bd 8ae6 7cbd d1de d03d ab87 44bc
00000260: 510f bc3d 2a95 3bbc 29c5 a63d d6fe d8bd
00000270: 9b7b 84bd 63b6 c73d 164c ec3c 5046 38bc
00000280: ba39 86bd b3b8 d53d a620 9cbd 4fbc b93d
00000290: 3f87 0fbe b031 7fbd 12fc cbbc 8b34 413d
000002a0: f45c 913d 7170 c5bd 7632 9f3c f540 ddbd
000002b0: a510 07be 27f5 b23d ac2c 2ebd 5d0f 80bd
000002c0: 2b04 0cbd d253 8dbc f8b3 153d 2791 94bd
000002d0: cb3e 5cbc bd7d cabd 791e e5bc 2fd0 a93d
000002e0: e9e0 073e fc41 f8bc 7e6b 833d a4e9 c33d
000002f0: 4a3e 6dbd 7601 723d dee4 38bd 8ed9 8abd
00000300: 06be 39bd cdb7 533d 656e b93d 259e 25bd
00000310: 59fa b63c 4a1a e73d be9a 79bd ce45 a2bd
00000320: 12d3 56bd bdc6 093d d7bf f6bd 66fc 69bd
00000330: 505a 083e f526 1c3c 3496 963c c4d8 743d
00000340: e2f1 7fbd eaeb 113d 3879 533d a559 6f3d
00000350: 584b bcbd 4891 94bd 6f18 0ebd 9292 1c3e
00000360: 8d88 823d 7314 983d 643e e73c 21a8 00bc
00000370: 90f6 fd3d c54a ebbd c3fa 493d beac b73c
00000380: 6d3c 4d3c 2525 2b3d 811d 02bd 7a77 89bd
00000390: 2c5b 5cbd 202f 73bd d51f 21be 398e 193d
000003a0: a377 1f3d 6562 babd 5603 f1bd 4453 a73d
000003b0: 9cc4 a7bc c065 04bd 8458 053e 0686 fdbd
000003c0: 58df 18bc 6e60 93bd b42d 15bd 4951 683d
000003d0: e886 95bc 5520 743d 129d f13a 9f76 29bd
000003e0: 796f ebbc d8f4 a2bd 02b9 c8bc 21e5 933d
000003f0: f7ae 95bc 877e febc 08fb 9fbd 1d44 b7bd

value_layer.2.bias f4 [64]
-0.09990596 0.043518707 0.010098258 -0.07979344 -0.10812104 -0.02238398 0.13652487 0.10751262
-0.09666634 0.07462816 -0.07830694 0.13707733 -0.062493574 -0.12903531 -0.061984118 -0.18072481
0.01810775 0.01724303 0.16312605 0.059233885 -0.048090346 0.16141532 -0.05359445 -0.04028375
-0.02736229 0.0006757738 -0.15807402 -0.14669716 -0.16007936 -0.17665623 0.013447875 -0.08623734
-0.039057583 -0.08803434 -0.15158284 0.14112632 -0.071413286 0.029596014 0.03406686 0.12010025
-0.20878278 -0.06346172 0.034779195 0.020814978 -0.0070205666 -0.016315483 0.0007127554 0.094340496
0.039235946 0.11422007 0.13799213 -0.08932014 0.005611949 -0.031819828 0.012368038 0.11489459
0.019357383 -0.004347861 0.124896646 0.0042763506 0.045862578 0.19820529 0.1581294 -0.16586488
00000000: 7f9b ccbd ac40 323d 2a73 253c be6a a3bd
00000010: 906e ddbd 9c5e b7bc 2dcd 0b3e 942f dc3d
00000020: 01f9 c5bd a6d6 983d 645f a0bd 005e 0c3e
00000030: 43f9 7fbd d521 04be 0fe3 7dbd ed0f 39be
00000040: b456 943c 4141 8d3c 840a 273e 3b9f 723d
00000050: 62fa 44bd 0f4a 253e db85 5bbd 9300 25bd
00000060: e226 e0bc 6926 313a 28de 21be c837 16be
00000070: d8eb 23be 5fe5 34be 7a54 5c3c 349d b0bd
00000080: d8fa 1fbd 594b b4bd 8838 1bbe 6b83 103e
00000090: 2141 92bd 5773 f23c b189 0b3d 1ff7 f53d
000000a0: 27cb 55be 38f8 81bd a174 0e3d 2c84 aa3c
000000b0: c80c e6bb 0ca8 85bc 35d8 3a3a 9735 c13d
000000c0: dfb5 203d 36ec e93d cf4d 0d3e 7aed b6bd
000000d0: 71e4 b73b 8255 02bd 50a3 4a3c db4d eb3d
000000e0: 6093 9e3c 8078 8ebb d0c9 ff3d a120 8c3b
000000f0: 66da 3b3d 54f6 4a3e acec 213e 7cd8 29be

value_layer.4.weight f4 [1, 64]
0.016752755 -0.07327191 0.012900886 0.034123126 0.061538037 0.034470893 -0.11090238 -0.110677734
0.07641008 0.080389105 -0.02867427 -0.1608722 0.048719313 0.036645975 -0.06700517 0.13651705
0.001820002 -0.112400055 -0.02862998 -0.043854546 -0.038544584 -0.010172199 0.0036675166 0.12496848
0.09830546 -0.014487012 0.09323645 0.022517629 0.014902956 0.009056521 -0.11062152 0.018806888
0.00873878 -0.025966479 0.103362754 -0.08326687 -0.06705456 0.038679156 0.009071597 -0.098672375
0.088869825 -0.034675032 0.06722155 0.0050376784 -0.077570885 0.018667547 0.04911421 -0.06024806
-0.057959817 -0.024755694 -0.03045354 0.0075377263 0.04046242 -0.073219925 0.043357234 -0.23145384
-0.079140246 -0.06256976 -0.078034125 -0.03338939 -0.07737985 -0.038082726 -0.085605085 0.04414778
00000000: 133d 893c 950f 96bd 3d5e 533c b1c4 0b3d
00000010: 4f0f 7c3d 5a31 0d3d c920 e3bd 02ab e2bd
00000020: e37c 9c3d 0ba3 a43d 4de6 eabc afbb 24be
00000030: e78d 473d 171a 163d 023a 89bd 20cb 0b3e
00000040: 228d ee3a 0032 e6bd 6b89 eabc d3a0 33bd
00000050: ede0 1dbd 4ca9 26bc b85a 703b 79ef ff3d
00000060: 5f54 c93d ef5a 6dbc c0f2 be3d e476 b83c
00000070: 872b 743c cd61 143c 898d e2bd e710 9a3c
00000080: 1a2d 0f3c a7b7 d4bc daaf d33d d287 aabd
00000090: e753 89bd 096e 1e3d 09a1 143c be14 cabd
000000a0: 6201 b63d 6807 0ebd 74ab 893d 1c13 a53b
000000b0: 7cdd 9ebd afec 983c fb2b 493d abc6 76bd
000000c0: 4667 6dbd 74cc cabc b479 f9bc 08ff f63b
000000d0: ecbb 253d 54f4 95bd 5b97 313d 3c02 6dbe
000000e0: 4814 a2bd 9324 80bd 5bd0 9fbd 50c3 08bd
000000f0: 5479 9ebd a2fc 1bbd b851 afbd 4dd4 343d
