Homework8/8_gym-PPO/results/PPO_LunarLander-v3_2000-eps0.5-seed7.pth (torch, 44290 bytes, 11 tensors)

action_layer.0.weight f4 [64, 8]
0.0059019476 -0.18698853 0.23728357 0.22609927 -0.77671593 -0.45372257 -0.067368016 0.10348609
-0.009373936 0.18824713 0.44730118 0.4457509 -0.7118382 -0.77694976 0.037612606 -0.09400626
0.06160006 -0.2677966 0.32374656 -1.0575922 -0.16418801 -0.1659434 0.2613004 0.08080461
0.0077347993 -0.0048331297 0.38399926 -0.13842468 -0.361195 -0.60913295 0.2939846 0.08083734
0.17223258 0.07430242 0.28858745 1.2716545 -0.15633234 -0.61165583 -0.090146214 -0.12758204
0.11785052 -0.07837704 -0.3549239 0.81427616 0.8780877 0.33229163 -0.15013298 0.0028029056
0.13074759 -0.20643 -0.41178912 0.78118354 0.9195225 0.26898912 -0.3758324 0.033636123
-0.0416265 0.020366326 0.24472077 1.0983834 0.0024938402 -0.30681452 0.07660752 -0.18348879
-0.17331608 0.07358291 -0.4035457 -0.3600392 0.75272375 0.7333266 -0.07617271 -0.12666464
0.18535414 -0.18541375 -0.18724191 0.94930416 0.62371147 0.29023457 0.0008588836 -0.012342975
0.17002986 -0.19503672 -0.0523909 -0.41699418 -0.66787773 -0.37368348 0.34324807 0.19792348
-0.05953232 0.24156134 -0.43079254 -0.58558017 0.70484453 0.47756496 -0.37359905 -0.24493338
-0.090478286 0.17244233 0.37757963 0.79654235 -0.7106232 -0.88615847 -0.19399267 0.043725885
-0.1995887 -0.18079545 0.1574519 -0.92209244 -0.5679364 0.1747063 0.044499762 0.26263648
0.08615375 -0.0022155389 0.20609552 -0.6903745 -0.84261954 -0.5146853 -0.07086009 0.09262106
0.029954577 -0.09890787 0.280837 -0.5094506 -0.47646213 -0.36305282 -0.1809875 -0.2038596
0.103377424 0.043550294 -0.10817177 -0.91679394 -0.6621879 0.1530675 0.31798118 0.044452436
-0.27711084 0.08655718 0.28100595 -0.9327208 -0.4563091 0.057159342 0.05987717 -0.19057424
-0.34393996 -0.14867355 -0.21681361 -0.33522493 0.83909017 0.5221355 -0.14100516 -0.34057727
-0.27791837 0.07416435 0.44676352 -0.3899511 -0.8679642 -0.20722382 0.36243907 -0.28989738
-0.1329343 0.06372977 -0.24769871 -1.2769828 0.039981946 0.021696476 -0.05206235 -0.31514922
0.16079126 0.12158539 -0.1295818 -0.47867674 0.84920436 0.59737414 -0.28488532 -0.032839946
-0.2936686 -0.05610659 -0.06759731 -0.86183697 0.6135937 0.5909671 -0.091421895 0.06741624
-0.06659174 -0.10742249 -0.3329005 0.63031024 0.8289302 0.46207145 0.07950956 0.4028657
0.1896667 -0.20575206 0.07295047 -0.574889 -0.25809154 -0.08645457 0.13159117 -0.39064413
0.19645542 0.27684006 0.13995685 -0.44111633 -0.92171985 -0.5009813 0.13251686 -0.0046001477
-0.15012875 0.115516536 -0.15646084 -0.62259597 -0.1420593 0.5771299 0.14304401 -0.06265956
0.20724311 0.05318043 0.18629122 -0.32590917 -0.5682826 -0.2991156 -0.10265062 -0.03013557
0.013748941 -0.114887476 0.09970362 -0.34927216 -0.8882209 -0.62128645 -0.19375104 0.10562219
0.25968903 0.27897587 0.45924306 0.9819106 0.105688944 -0.43056852 0.2548981 -0.048146144
-0.12428666 -0.018850226 -0.4112523 -0.5991031 0.3582829 0.7468874 -0.21402285 -0.26368457
-0.27432206 0.20680158 -0.044793844 -0.8813276 -0.18186356 0.56738526 -0.29760566 0.14960325
00000000: 2065 c13b ec79 3fbe 77fa 723e 9186 673e
00000010: dbd6 46bf 534e e8be 3ef8 89bd 84f0 d33d
00000020: 2395 19bc dbc3 403e a904 e53e 7639 e43e
00000030: 073b 36bf 2ee6 46bf ad0f 1a3d 5b86 c0bd
00000040: 5850 7c3d a31c 89be 1cc2 a53e 2e5f 87bf
00000050: e720 28be 11ed 29be 2bc9 853e e37c a53d
00000060: 3374 fd3b 3b5f 9ebb 8d9b c43e 33bf 0dbe
00000070: 8dee b8be 23f0 1bbf 2685 963e 0c8e a53d
00000080: bd5d 303e de2b 983d bcc1 933e 93c5 a23f
00000090: 9615 20be 7a95 1cbf 949e b8bd dea4 02be
000000a0: 9d5b f13d 2484 a0bd 96b8 b5be 6774 503f
000000b0: 5bca 603f 2122 aa3e 76bc 19be f4b0 373b
000000c0: b2e2 053e 6362 53be 06d6 d2be a5fb 473f
000000d0: d465 6b3f f1b8 893e 1b6d c0be 08c6 093d
000000e0: 8d80 2abd 48d7 a63c 1598 7a3e d497 8c3f
000000f0: b26f 233b cb16 9dbe 67e4 9c3d 7ce4 3bbe
00000100: c579 31be a3b2 963d 8b9d cebe 0f57 b8be
00000110: 81b2 403f 4bbb 3b3f 7000 9cbd 60b4 01be
00000120: 7acd 3d3e 1add 3dbe 58bc 3fbe 9905 733f
00000130: 8eab 1f3f a099 943e b426 613a 303a 4abc
00000140: 4f1c 2e3e b5b7 47be d797 56bd 4380 d5be
00000150: 09fa 2abf 7153 bfbe 36be af3e 74ac 4a3e
00000160: 29d8 73bd db5b 773e d790 dcbe 95e8 15bf
00000170: b170 343f 6583 f43e 6048 bfbe d1cf 7abe
00000180: ae4c b9bd b994 303e 1e52 c13e 33ea 4b3f
00000190: 67eb 35bf 48db 62bf 04a6 46be ea19 333d
000001a0: fb60 4cbe 7122 39be 123b 213e 400e 6cbf
000001b0: 4864 11bf 35e6 323e 6245 363d 4a78 863e
000001c0: 6171 b03d 9332 11bb b40a 533e 62bc 30bf
000001d0: eab5 57bf 6ac2 03bf 181f 91bd 1cb0 bd3d
000001e0: 4d63 f53c 3690 cabd dec9 8f3e 5b6b 02bf
000001f0: d8f2 f3be 0fe2 b9be ca54 39be 92c0 50be
00000200: 8bb7 d33d cb61 323d 2989 ddbd 02b3 6abf
00000210: 2585 29bf babd 1c3e 6ece a23e c213 363d
00000220: 79e1 8dbe e444 b13d 03e0 8f3e cac6 6ebf
00000230: 59a1 e9be ea1f 6a3d c341 753d e525 43be
00000240: e618 b0be e13d 18be 6304 5ebe 9aa2 abbe
00000250: 9dce 563f acaa 053f a863 10be 2560 aebe
00000260: 514b 8ebe 7be3 973d 30be e43e aca7 c7be
00000270: e732 5ebf 7b32 54be 9d91 b93e 6e6d 94be
00000280: ee1f 08be c184 823d bba4 7dbe 2c74 a3bf
00000290: 1cc4 233d cfbc b13c 553f 55bd 3d5b a1be
000002a0: 77a6 243e c301 f93d 17b1 04be 1e15 f5be
000002b0: 7565 593f 83ed 183f 7ddc 91be 2e83 06bd
000002c0: bb5b 96be 06d0 65bd 7570 8abd 59a1 5cbf
000002d0: 7a14 1d3f 9f49 173f 673b bbbd 8711 8a3d
000002e0: 4061 88bd 5300 dcbd ef71 aabe 035c 213f
000002f0: c534 543f a194 ec3e e8d5 a23d 6a44 ce3e
00000300: fd37 423e abb0 52be 0e67 953d ed2b 13bf
00000310: 9324 84be 180f b1bd d6bf 063e 8202 c8be
00000320: 9c2b 493e fbbd 8d3e d950 0f3e 00da e1be
00000330: d5f5 6bbf 4f40 00bf 80b2 073e d6bc 96bb
00000340: 5abb 19be ef93 ec3d 4537 20be 7362 1fbf
00000350: fe77 11be c9be 133f 217a 123e a853 80bd
00000360: 8a37 543e b9d3 593d 20c3 3e3e 91dd a6be
00000370: f87a 11bf ae25 99be 7d3a d2bd dfde f6bc
00000380: 3d43 613c 204a ebbd 6931 cc3d cdd3 b2be
00000390: 7262 63bf a10c 1fbf ac66 46be 7250 d83d
000003a0: f6f5 843e edd5 8e3e e821 eb3e 7e5e 7b3f
000003b0: 7273 d83d 7a73 dcbe 0182 823e e434 45bd
000003c0: 018a febd ca6b 9abc a98f d2be d25e 19bf
000003d0: db70 b73e 0334 3f3f ce28 5bbe aa01 87be
000003e0: f173 8cbe cbc3 533e c079 37bd b09e 61bf
000003f0: 713a 3abe 2940 113f c55f 98be 9831 193e

action_layer.0.bias f4 [64]
0.23448195 -0.28491578 0.37804502 0.16867627 -0.27158 -0.23786005 -0.080606766 -0.20257424
-0.15675108 0.21685076 0.20273493 -0.09413623 -0.15095463 0.2485342 0.063488014 0.04023942
0.29325357 0.23481391 0.11229449 0.20380491 0.013409638 -0.19543952 0.204045 0.115261145
0.24466771 -0.3215709 0.16306435 0.005675613 -0.053041037 -0.4016325 -0.09291883 0.30580288
0.14614034 -0.05091591 0.26375467 0.15136826 0.2466138 -0.16828912 0.36259323 -0.17778839
-0.067233644 0.21153261 -0.044766624 0.2105789 -0.16703165 0.07347411 -0.22650471 -0.37628394
-0.058219705 0.32847843 -0.17975695 -0.04819892 0.22035033 0.05680162 -0.28779063 0.08379132
-0.20248802 -0.013655267 0.12161959 -0.13582678 -0.12237934 0.20380433 -0.30750984 0.118346505
00000000: 091c 703e 7be0 91be 1e8f c13e 79b9 2c3e
00000010: 890c 8bbe 9691 73be 2915 a5bd 9f6f 4fbe
00000020: 5b83 20be 200e 5e3e bf99 4f3e 7fca c0bd
00000030: da93 1abe c07f 7e3e 0106 823d 17d2 243d
00000040: 5525 963e 0f73 703e a7fa e53d 3cb2 503e
00000050: 19b4 5b3c 4c21 48be 2cf1 503e 090e ec3d
00000060: 2c8a 7a3e f1a4 a4be 57fa 263e 7efa b93b
00000070: 8f41 59bd c6a2 cdbe 3a4c bebd 3292 9c3e
00000080: d0a5 153e 348d 50bd da0a 873e 4800 1b3e
00000090: 5488 7c3e fc53 2cbe d2a5 b93e 290e 36be
000000a0: cbb1 89bd 019c 583e 355d 37bd ffa1 573e
000000b0: 580a 2bbe 9879 963d daf0 67be 4aa8 c0be
000000c0: c977 6ebd 532e a83e 3512 38be 3b6c 45bd
000000d0: 84a3 613e d1a8 683d 4b59 93be c99a ab3d
000000e0: 0559 4fbe 57ba 5fbc b113 f93d 2d16 0bbe
000000f0: 05a2 fabd 15b2 503e ee71 9dbe a75f f23d

action_layer.2.weight f4 [64, 64]
0.16139834 0.36672118 -0.34219265 0.092877075 0.50230926 0.17723016 0.03163242 0.36749974
-0.26543394 0.4832739 -0.16322367 -0.17268294 0.33092496 -0.2560536 -0.36648124 -0.118031085
-0.22504476 -0.13243577 -0.1967738 0.001032608 -0.8732505 -0.20207183 -0.38477552 0.17431343
-0.10528986 -0.053890005 -0.14086138 0.06076739 -0.0070528383 0.40952834 -0.11736083 -0.19063349
-0.24287927 -0.40422884 -0.10013897 -0.05021918 -0.09128132 0.17354445 -0.6196106 0.3934252
-0.0012505981 0.16623841 -0.66933465 -0.13163336 -0.6130057 0.13557833 0.12397253 0.29930398
0.106644854 -0.04778638 -0.6804851 -0.31348678 0.017720098 0.13859543 0.2889415 -0.20512919
-0.118670344 0.23283778 -0.22955136 0.10504203 -0.1004462 0.2697759 0.019509995 0.106368996
0.23829883 0.32566705 0.16814326 0.09224707 -0.012800152 -0.30614796 -0.18452755 -0.024196409
-0.35219932 -0.66922075 -0.02467144 -0.1379023 0.118187524 0.12901103 1.0305649 0.19070125
0.104873076 0.04701887 -0.04569604 0.06421977 0.26721224 -0.2221997 -0.080287404 -0.7430054
0.14987445 0.33733606 -0.061014365 0.17865342 0.03983386 -0.13597281 -0.020429837 0.115754776
0.0131064365 0.8249119 0.111160524 0.09016559 0.5375442 -0.24092078 0.4297218 -0.036074862
0.26983973 0.40636092 -0.14282513 0.16812561 -0.17620829 -0.22178902 -0.064289205 -0.011056002
-0.31612268 0.3362874 0.18227711 0.3999341 0.23412149 0.021941876 0.000261279 -0.09688219
-0.3162803 -0.30261752 -0.17588961 -0.3977759 0.2978619 -0.23529485 -0.11903186 0.11186157
-0.07071253 -0.13694571 -0.0089858575 -0.121547736 0.014812453 0.08431702 0.238542 0.16614187
0.07014755 0.38552037 0.11876655 -0.15436096 -0.024741966 -0.12534283 -0.56376857 0.10410037
-0.22065824 -0.047071524 0.19119187 -0.1505306 -0.077295326 0.1214521 0.02180851 0.42759246
-0.065149724 -0.30259076 -0.08723189 -0.01660551 -0.0309021 0.063308485 0.075750954 -0.09605531
-0.21787353 -0.38065675 -0.17422554 -0.070965186 -0.30573338 0.075445995 -0.117269106 0.09306508
-0.09135718 -0.033572238 -0.054505277 -0.074255906 0.009807223 0.20874941 0.14312316 -0.15430702
-0.01107629 -0.39526772 -0.09269716 -0.15554024 0.050109185 0.03977529 -0.00017588283 0.025951508
0.23898001 0.0012043634 -0.117328085 0.2302316 -0.099641845 0.13755378 0.030172333 -0.26734456
0.24236578 0.25775832 0.0686997 0.14331123 0.02416578 -0.0104777375 -0.16682035 0.14362034
-0.33811793 -0.29467928 0.031799123 -0.1276576 0.13240173 0.25119174 0.561196 0.1832542
0.044808928 -0.022398334 -0.19234478 0.1439817 -0.17294067 -0.3144533 -0.18094982 -0.50465345
0.078285724 0.29042593 0.081327535 0.056671716 0.22060765 0.071844496 -0.18272884 0.07471487
0.00045888615 0.52628314 -0.10760672 0.030764947 0.30054158 -0.18438606 0.06376331 0.00483891
0.07037536 0.45896825 -0.23929206 0.144999 -0.2515515 -0.14945185 -0.014278119 0.008614073
-0.21999133 0.39602163 -0.20851308 0.18709026 0.228948 0.11864929 0.034844894 -0.1459356
-0.43330213 -0.14157408 -0.113422096 -0.4453186 0.32220748 -0.15495567 -0.049313284 0.3112581
00000000: 9b45 253e e1c2 bb3e e033 afbe 5636 be3d
00000010: 5797 003f d37b 353e ff90 013d ed28 bc3e
00000020: f5e6 87be ad6f f73e 1b24 27be ccd3 30be
00000030: ff6e a93e 7519 83be 6ea3 bbbe 48ba f1bd
00000040: 2272 66be 3e9d 07be 127f 49be 9358 873a
00000050: 588d 5fbf ebeb 4ebe 4c01 c5be 387f 323e
00000060: 36a2 d7bd c4bb 5cbd f73d 10be 3ae7 783d
00000070: 7f1b e7bb b3ad d13e e05a f0bd 6d35 43be
00000080: 58b5 78be 15f7 cebe a915 cdbd a0b2 4dbd
00000090: b3f1 babd a3b5 313e cd9e 1ebf 076f c93e
000000a0: 1ceb a3ba 673a 2a3e 8459 2bbf e5ca 06be
000000b0: f1ed 1cbf 0cd5 0a3e 4fe5 fd3d 5f3e 993e
000000c0: 9e68 da3d a7bb 43bd 4634 2ebf 5781 a0be
000000d0: bd29 913c f6eb 0d3e 24f0 933e 630d 52be
000000e0: 7009 f3bd 076d 6e3e 830f 6bbe 4720 d73d
000000f0: bdb6 cdbd 1120 8a3e 6dd3 9f3c fdd7 d93d
00000100: 9c04 743e d5bd a63e bf2d 2c3e 08ec bc3d
00000110: bbb7 51bc 6dbf 9cbe caf4 3cbe 8c37 c6bc
00000120: 7853 b4be 0d52 2bbf c21b cabc 4336 0dbe
00000130: 4d0c f23d 781b 043e 8de9 833f 3047 433e
00000140: b2c7 d63d dc96 403d c52b 3bbd a885 833d
00000150: 0bd0 883e 5188 63be b96d a4bd 9a35 3ebf
00000160: b078 193e 50b7 ac3e 33ea 79bd ecf0 363e
00000170: d428 233d 753c 0bbe 795c a7bc d710 ed3d
00000180: 61bc 563c 6d2d 533f 21a8 e33d bda8 b83d
00000190: 7f9c 093f f0b3 76be 7f04 dc3e 3cc3 13bd
000001a0: 6f28 8a3e 8a0e d03e c040 12be 1f29 2c3e
000001b0: f26f 34be a91c 63be 0faa 83bd 3c24 35bc
000001c0: d5da a1be dd2d ac3e daa6 3a3e 2ac4 cc3e
000001d0: 8bbd 6f3e 73bf b33c 46fc 8839 2b6a c6bd
000001e0: 7eef a1be aff0 9abe 681c 34be 48a9 cbbe
000001f0: 5b81 983e 22f1 70be fac6 f3bd ae17 e53d
00000200: bbd1 90bd 7f3b 0cbe 6b39 13bc 05ee f8bd
00000210: eeaf 723c 67ae ac3d 5b44 743e 1821 2a3e
00000220: 85a9 8f3d ed62 c53e e13b f33d cd10 1ebe
00000230: aaaf cabc df59 00be 2353 10bf 9332 d53d
00000240: 3cf4 61be 12ce 40bd cdc7 433e b224 1abe
00000250: 034d 9ebd e1bb f83d c3a7 b23c 66ed da3e
00000260: 386d 85bd 2ded 9abe a2a6 b2bd 4708 88bc
00000270: 6726 fdbc e1a7 813d 5123 9b3d a5b8 c4bd
00000280: 3d1a 5fbe 71e5 c2be 2e68 32be 3256 91bd
00000290: 1689 9cbe 6e83 9a3d c92a f0bd e898 be3d
000002a0: 7919 bbbd 0b83 09bd ed40 5fbd 7b13 98bd
000002b0: 7aae 203c 68c2 553e e18e 123e a902 1ebe
000002c0: 5479 35bc 8860 cabe 02d8 bdbd f145 1fbe
000002d0: 4a3f 4d3d 6aeb 223d 306d 38b9 4298 d43c
000002e0: 2db7 743e bbdb 9d3a b549 f0bd d5c1 6b3e
000002f0: 0611 ccbd e6da 0c3e f82b f73c 63e1 88be
00000300: bc2e 783e e6f8 833e 6eb2 8c3d 2ec0 123e
00000310: 50f7 c53c d1aa 2bbc f4d2 2abe 3611 133e
00000320: cb1d adbe 34e0 96be cc3f 023d adb8 02be
00000330: 5294 073e 349c 803e 8baa 0f3f fda6 3b3e
00000340: 9189 373d b67c b7bc 08f6 44be f06f 133e
00000350: 5c17 31be 0600 a1be e94a 39be f830 01bf
00000360: 4454 a03d b5b2 943e 0d8f a63d 9a20 683d
00000370: f9e6 613e 3523 933d 451d 3bbe 1c04 993d
00000380: a896 f039 7eba 063f e960 dcbd c506 fc3c
00000390: 96e0 993e b3cf 3cbe 5796 823d b88f 9e3b
000003a0: f520 903d e3fd ea3e fa08 75be 9e7a 143e
000003b0: 5ccb 80be e809 19be c6ee 69bc 0a22 0d3c
000003c0: 6845 61be 59c3 ca3e 7484 55be 9794 3f3e
000003d0: 5871 6a3e 66fe f23d 85b9 0e3d 2470 15be
000003e0: c7d9 ddbe ccf8 10be d849 e8bd cd00 e4be
000003f0: 61f8 a43e b3ac 1ebe bafc 49bd 395d 9f3e

action_layer.2.bias f4 [64]
-0.14540352 0.15620737 0.003735083 -0.057340454 -0.064953566 -0.17768888 -0.015168834 -0.027659042
0.09230343 -0.031214755 -0.119653046 0.021582127 -0.011292432 0.09112044 -0.11561565 -0.014620433
0.09572222 -0.01815737 -0.08125405 -0.028868347 -0.038699698 0.16767475 -0.097218014 0.043985166
0.0050763655 -0.16357486 -0.031017916 -0.0011663034 0.06611798 0.16543184 -0.05711016 0.089979604
-0.03371727 0.024130832 0.06692981 -0.08730945 -0.12326378 0.06844694 0.116954625 -0.05418431
-0.045690864 0.0041997586 0.009089088 -0.037803322 0.12354943 -0.026675655 -0.10111173 0.062079463
-0.07371389 -0.0152814565 -0.074066214 0.025241684 0.06282911 -0.14123707 0.006847589 -0.02562071
-0.06781385 -0.043999277 0.013115168 -0.1696186 -0.16895083 -0.21963483 0.023769584 0.114884704
00000000: a9e4 14be d3f4 1f3e 4bc8 743b d3dd 6abd
00000010: 6006 85bd 13f4 35be b386 78bc 3795 e2bc
00000020: 9509 bd3d 16b6 ffbc a80c f5bd 00cd b03c
00000030: e503 39bc 5a9d ba3d e6c7 ecbd 8a8a 6fbc
00000040: 030a c43d c4be 94bc 8668 a6bd 507d ecbc
00000050: 9383 1ebd eeb2 2b3e 3d1a c7bd ca29 343d
00000060: a457 a63b 2b80 27be 4919 febc a6de 98ba
00000070: dd68 873d f766 293e 58ec 69bd 3a47 b83d
00000080: 1f1b 0abd 06ae c53c 7f12 893d 4ccf b2bd
00000090: b871 fcbd e92d 8c3d e885 ef3d 5ef0 5dbd
000000a0: 5826 3bbd 219e 893b 66ea 143c a8d7 1abd
000000b0: 7c07 fd3d e786 dabc ab13 cfbd 0947 7e3d
000000c0: 4ff7 96bd 135f 7abc 07b0 97bd a6c7 ce3c
000000d0: 8cac 803d 73a0 10be bd61 e03b 86e2 d1bc
000000e0: fde1 8abd 9638 34bd 00e1 563c 80b0 2dbe
000000f0: 7201 2dbe f4e7 60be 6eb8 c23c ac48 eb3d

action_layer.4.weight f4 [4, 64]
0.68390477 -1.0048641 0.62246215 -0.15884899 0.7956231 0.7266676 -0.26325732 -0.2579738
-0.53467613 0.7310728 0.6887062 -0.8394718 0.01180112 -0.37337774 0.38695887 0.967624
-0.885306 0.4161563 0.2947912 0.4761347 -0.3806751 -1.0021564 0.8682891 -0.31953475
-0.74946433 0.7033041 -0.3520963 -0.53901947 -0.3276941 -0.26988256 0.8403038 -0.5241444
0.12421422 -0.9162757 0.7702985 -0.78903526 0.7762646 -0.14590448 -0.972435 0.3561661
-0.63520324 -0.6615089 0.42781457 0.6301874 -0.6102241 0.045880873 0.77832854 -0.48216268
-0.22334695 0.10608926 -0.65905535 -0.15146282 0.35167402 0.5727479 -0.62137175 0.13084738
0.807013 0.38774446 0.53636134 0.23025416 0.7693186 0.75380677 0.15554945 -0.8995135
0.7560205 0.042724177 -0.1536289 0.19574514 -0.22241193 -0.10179457 -0.96689606 -0.9892872
-1.1120183 -0.15573262 0.2625521 -0.030805584 0.2779143 -0.5886664 0.3772271 0.12901753
0.06702954 -0.17655528 -0.43608475 0.5431657 -0.4291766 -0.16373743 -0.08110005 0.27822286
0.16141523 -0.13285846 -1.1601201 0.29774034 -1.1225821 0.081958175 -0.20033562 0.00044137222
1.0952123 0.16311198 -0.011693084 0.17177716 0.42275506 -0.8977261 -0.042310406 0.5666605
-0.19373947 0.19881693 0.4305649 0.5526768 -0.6739617 -0.16877961 0.2667011 -0.6179657
0.38951832 -0.5682325 0.060819123 -0.13953167 0.3004452 0.3603485 -1.1422116 -0.37518522
-0.25910133 -0.23514526 -0.2741026 0.112792216 0.34023833 -0.004972555 0.9282582 -0.08174879
-0.4789884 0.40320206 -0.12095204 0.41120076 -0.41037658 -0.3262995 0.58918506 0.15988615
0.73948884 -0.47392192 -0.3379494 0.49864924 -0.22175251 0.13195373 -0.08488477 -0.6849984
0.30447432 -0.014625517 -0.38981616 -0.27126005 0.25368345 0.37967032 -0.42758805 0.46938318
0.572076 -0.55427665 0.62555057 0.6519652 0.619109 -0.20078921 -0.438071 0.7753451
-0.29323375 0.5551048 -0.59176767 0.6024914 -0.50786406 0.19968967 0.52384436 -0.15920067
0.7812981 0.5911483 -0.6953266 -0.3384401 0.4346615 0.223398 -0.31954175 0.6336083
0.22527677 -0.23122944 0.7782617 0.521299 -0.61134416 -0.40858096 0.5529033 -0.4069695
-0.36188346 -0.45536795 -0.4811862 -0.07052626 -0.5128796 -0.28555197 -0.3861649 0.3451245
-0.3401463 -0.510801 0.09071994 -0.50861037 0.46314165 0.05114348 0.4967655 0.69390213
0.44205448 0.6054395 -0.14340974 -0.56059307 0.06117612 0.43844837 -0.39039302 0.673272
-0.18979986 0.04028239 0.7762556 -0.38653997 0.42079705 -0.16361454 0.49655607 -0.52594215
-0.59158826 0.5192163 0.5193351 -0.8194215 0.46881872 0.19028634 0.33417997 -0.7576718
-0.7026378 -0.5269786 0.6313199 -0.7087665 -0.06873232 0.68739676 -0.31258938 -0.41037416
-0.4177077 -0.73266196 0.24098726 -0.3392286 0.36362278 -0.163295 -0.18283072 0.036446963
-0.9397297 0.9175683 -0.7755077 -0.40542388 0.36230165 -0.11668449 0.4147112 0.5927393
0.5073693 0.9262173 0.77095824 -0.2884093 -0.18765885 -0.00975476 -0.7772999 -0.03929634
00000000: 6214 2f3f 639f 80bf ae59 1f3f 4fa9 22be
00000010: f5ad 4b3f e306 3a3f aac9 86be 2415 84be
00000020: 89e0 08bf 9627 3b3f 0d4f 303f a0e7 56bf
00000030: 7c59 413c 5e2b bfbe 791f c63e 35b6 773f
00000040: 6aa3 62bf 7012 d53e dfee 963e edc7 f33e
00000050: d9e7 c2be a946 80bf 3248 5e3f 0f9a a3be
00000060: e5dc 3fbf bd0b 343f f745 b4be 2efd 09bf
00000070: 85c7 a7be 0c2e 8abe 261e 573f 542e 06bf
00000080: 0664 fe3d 0b91 6abf 4832 453f 37fe 49bf
00000090: 47b9 463f fc67 15be 80f1 78bf 675b b63e
000000a0: ae9c 22bf a658 29bf 830a db3e f653 213f
000000b0: a637 1cbf 95ed 3b3d 8a40 473f 07de f6be
000000c0: 10b5 64be 5345 d93d dab7 28bf 1219 1bbe
000000d0: 9e0e b43e 9b9f 123f 3812 1fbf dbfc 053e
000000e0: 6798 4e3f 7186 c63e fa4e 093f bfc7 6b3e
000000f0: 10f2 443f 7bf9 403f 5b48 1f3e 8446 66bf
00000100: 8f8a 413f 8cff 2e3d e550 1dbe 6a71 483e
00000110: f4bf 63be ac79 d0bd 8086 77bf ed41 7dbf
00000120: 9e56 8ebf 5f78 1fbe 3b6d 863e fe5b fcbc
00000130: c84a 8e3e d7b2 16bf e923 c13e 2c1d 043e
00000140: c946 893d e8ca 34be 8046 dfbe e80c 0b3f
00000150: 09bd dbbe c9aa 27be c817 a6bd 3a73 8e3e
00000160: 094a 253e 0c0c 08be d17e 94bf 6c71 983e
00000170: c5b0 8fbf b0d9 a73d c824 4dbe fa67 e739
00000180: eb2f 8c3f d406 273e 5994 3fbc 5ae6 2f3e
00000190: 5a73 d83e 61d1 65bf ad4d 2dbd aa10 113f
000001a0: a463 46be aa96 4b3e 0173 dc3e 3a7c 0d3f
000001b0: c188 2cbf 90d4 2cbe 0c8d 883e 0033 1ebf
000001c0: f26e c73e af77 11bf 791d 793d 64e1 0ebe
000001d0: f4d3 993e 997f b83e fd33 92bf 4718 c0be
000001e0: eea8 84be ebc9 70be 2d57 8cbe 9bff e63d
000001f0: b833 ae3e d1f0 a2bb 54a2 6d3f e96b a7bd
00000200: f83d f5be 8070 ce3e b4b5 f7bd e888 d23e
00000210: e11c d2be ba10 a7be d5d4 163f 32b9 233e
00000220: 244f 3d3f e5a5 f2be b407 adbe f44e ff3e
00000230: 1713 63be e11e 073e 11d8 adbd 0e5c 2fbf
00000240: 0fe4 9b3e dd9f 6fbc fc95 c7be 99e2 8abe
00000250: cce2 813e 2664 c23e d2ec dabe fe52 f03e
00000260: 9373 123f 13e5 0dbf 1524 203f 31e7 263f
00000270: ed7d 1e3f b09b 4dbe d84a e0be 047d 463f
00000280: bc22 96be 591b 0e3f 167e 17bf e03c 1a3f
00000290: 6103 02bf 737b 4c3e aa1a 063f 8005 23be
000002a0: 2703 483f 7f55 173f ed00 32bf 0548 adbe
000002b0: f48b de3e 72c2 643e fa9a a3be 2734 223f
000002c0: f4ae 663e 69c7 6cbe 293c 473f da73 053f
000002d0: 0d81 1cbf 8631 d1be 128b 0d3f 4e5e d0be
000002e0: ca48 b9be fd25 e9be 0a5e f6be 1270 90bd
000002f0: 144c 03bf de33 92be 68b7 c5be 29b4 b03e
00000300: a827 aebe dbc3 02bf 60cb b93d 4a34 02bf
00000310: e720 ed3e d37b 513d 0c58 fe3e 92a3 313f
00000320: f754 e23e 15fe 1a3f 01da 12be 0783 0fbf
00000330: d093 7a3d 4e7c e03e 98e1 c7be 8e5b 2c3f
00000340: e55a 42be 26ff 243d b0b8 463f 91e8 c5be
00000350: b672 d73e 928a 27be 993c fe3e 25a4 06bf
00000360: 5472 17bf 5ceb 043f 25f3 043f 9cc5 51bf
00000370: 0209 f03e 6cda 423e a319 ab3e c7f6 41bf
00000380: 12e0 33bf 12e8 06bf 2e9e 213f b971 35bf
00000390: 88c3 8cbd 3cf9 2f3f b70b a0be 901c d2be
000003a0: c9dd d5be bc8f 3bbf 5dc5 763e 5faf adbe
000003b0: c42c ba3e ce36 27be fa37 3bbe 6949 153d
000003c0: 2092 70bf c2e5 6a3f ac87 46bf b893 cfbe
000003d0: 9a7f b93e 47f8 eebd 0755 d43e c3bd 173f
000003e0: f4e2 013f 941c 6d3f 855d 453f 62aa 93be
000003f0: a429 40be 6ed2 1fbc 20fd 46bf 33f5 20bd

action_layer.4.bias f4 [4]
-0.3232459 -0.01009933 -0.06888893 0.09712732
00000000: 7d80 a5be a977 25bc a415 8dbd b0ea c63d

value_layer.0.weight f4 [64, 8]
-0.26930374 -0.102251254 -0.26863414 0.22236691 0.836345 0.13768676 0.09831706 0.083036944
0.13935673 -0.11822878 0.03905059 0.36597592 0.24904357 0.17013307 0.09559394 0.07885668
-0.09844746 -0.046277296 -0.07952629 -0.09941446 -0.29357913 -0.34805268 -0.024877027 0.17164351
0.17212489 -0.08096073 -0.72727746 0.34819615 -0.49379724 1.1028517 -0.34430707 -0.34816632
0.004031608 0.024353271 0.6766985 0.35808793 0.92297846 0.16972856 -0.055755895 0.20622051
0.46442068 -0.09854189 -0.41869426 -0.07944484 -0.5899757 0.8298545 -0.56447375 -0.025669103
0.07140692 0.14971428 0.24183752 0.41391072 0.95590264 -0.62589437 0.35554966 -0.1964517
-0.34882432 -0.05775698 0.34559122 0.39712176 0.83756053 -0.24329649 0.07814012 0.21686845
0.018236512 0.011765716 -0.038135726 -0.39962366 0.5769849 -0.06927085 0.419283 -0.027921023
-0.13981523 0.030080182 0.12103165 0.1707299 -0.10829155 0.4571626 -0.13635038 0.23920351
-0.3419258 -0.058395326 0.4364272 0.20601064 1.1543311 -0.50658506 0.1424592 0.099344164
-0.0911975 -0.1383207 -0.31822044 -0.39269033 -0.7203767 -0.025402445 0.32290915 -0.013709547
0.23649472 0.10696289 -0.16310704 -0.15253139 -0.42543578 0.14574417 0.26558647 0.44099152
0.076586574 0.029317362 -0.13106276 0.56391746 0.43009403 -0.09363805 -0.115852594 0.16957092
0.03724951 0.06981673 -0.34203365 0.27635863 0.0050842753 -0.08769151 0.04574605 -0.34852144
-0.22056217 0.09950915 -0.18482684 -0.42733368 -0.23339535 -0.026200904 -0.21510683 -0.33239523
0.20872508 0.060086045 -0.28535172 0.018409126 -0.46480098 0.47715083 -0.19010574 -0.44479284
0.2368747 0.010537375 -0.4948757 0.18033025 -0.7976582 0.9563706 -0.33334398 -0.321406
0.20173584 0.062614 0.033610296 0.089830846 -0.96647185 0.11935642 -0.27499297 -0.44110718
0.1306576 -0.045386467 0.17199716 -0.5329209 -0.50458777 -0.031177666 0.30340615 -0.16530854
-0.17597897 -0.22016564 -0.15513039 -0.18668425 0.31829718 -0.48083746 -0.12716523 0.07965682
0.18536651 0.14306521 -0.2767463 -0.25489718 0.004089486 -0.051676225 -0.17633548 -0.39170703
0.18875171 -0.1411311 -0.27802157 -0.35357812 -0.87651503 0.48784795 -0.08779437 0.47839728
-0.22972758 -0.061404046 -0.5692281 -0.4295249 -0.42562446 0.40698108 -0.070085466 -0.10681763
-0.2406585 -0.27784222 -0.10815636 -0.08743207 -0.12043322 0.0666823 0.19373037 -0.07043332
-0.05693317 -0.11454566 -0.46101242 0.45392287 0.8326342 0.22148639 -0.43618625 -0.42629325
-0.27047002 -0.20340952 0.30515477 0.16525987 0.35048214 0.01223596 0.2501513 0.286301
-0.09109119 -0.13226108 0.43429163 0.22641322 1.0834005 -0.5203523 -0.0026685044 -0.104379795
0.19196838 -0.11652144 0.060074266 0.0071868976 -0.15470274 0.33259374 0.1589583 0.3886138
0.24659187 0.22895671 0.7923964 -0.21858694 0.67761314 0.7117593 -0.21753918 -0.09439778
0.018592626 0.21130385 0.10197669 -0.17709441 -1.0193503 0.55194485 -0.24445578 0.07158264
-0.35548726 -0.09469823 0.15759659 0.6677791 1.6920154 -0.44874322 -0.10075102 -0.19416374
00000000: 2ee2 89be 1b69 d1bd 6a8a 89be 27b4 633e
00000010: b51a 563f c2fd 0c3e 745a c93d 460f aa3d
00000020: 88b3 0e3e ee21 f2bd 83f3 1f3d 3261 bb3e
00000030: 4705 7f3e 5d37 2e3e c1c6 c33d 9c7f a13d
00000040: d29e c9bd 438d 3dbd aede a2bd cf99 cbbd
00000050: 0150 96be f633 b2be e8ca cbbc 51c3 2f3e
00000060: 8241 303e bdce a5bd db2e 3abf c446 b23e
00000070: fed2 fcbe 3f2a 8d3f 0449 b0be db42 b2be
00000080: 941b 843b 8380 c73c 1d3c 2d3f 4d57 b73e
00000090: 5148 6c3f 53cd 2d3e 4b60 64bd 782b 533e
000000a0: 8cc8 ed3e 55d0 c9bd 185f d6be fab3 a2bd
000000b0: a608 17bf 5871 543f 5a81 10bf 0348 d2bc
000000c0: cb3d 923d b34e 193e 41a4 773e 1bec d33e
000000d0: 09b6 743f 9d3a 20bf 9b0a b63e a22a 49be
000000e0: 1a99 b2be 9592 6cbd 55f1 b03e 8b53 cb3e
000000f0: 5e6a 563f b722 79be ed07 a03d c312 5e3e
00000100: bd64 953c fdc4 403c 3534 1cbd 799b ccbe
00000110: 48b5 133f e0dd 8dbd 43ac d63e a1ba e4bc
00000120: b92b 0fbe b76a f63c 71df f73d d2d3 2e3e
00000130: f6c7 ddbd 3711 ea3e 6f9f 0bbe c4f1 743e
00000140: e610 afbe f02f 6fbd 6373 df3e 74f4 523e
00000150: 1fc1 933f 8faf 01bf d3e0 113e f474 cb3d
00000160: c1c5 babd f1a3 0dbe caed a2be b50e c9be
00000170: 9b6a 38bf ca18 d0bc 5954 a53e 029e 60bc
00000180: ac2b 723e 5c0f db3d 8805 27be 3031 1cbe
00000190: b8d2 d9be f63d 153e f3fa 873e a4c9 e13e
000001a0: 6cd9 9c3d f72a f03c 5135 06be e55c 103f
000001b0: 4935 dc3e 4ec5 bfbd 2044 edbd 00a4 2d3e
000001c0: f192 183d 13fc 8e3d 091f afbe e17e 8d3e
000001d0: fe99 a63b 9b97 b3bd 3660 3b3d 6771 b2be
000001e0: 0ddb 61be 74cb cb3d 3f43 3dbe 7bcb dabe
000001f0: 31ff 6ebe 47a3 d6bc f744 5cbe b52f aabe
00000200: 07bc 553e c91c 763d 9f19 92be bcce 963c
00000210: 65fa edbe 1d4d f43e 14ab 42be e3bb e3be
00000220: 488f 723e f4a4 2c3c 5960 fdbe 7ea8 383e
00000230: 5433 4cbf b4d4 743f 10ac aabe 548f a4be
00000240: d793 4e3e c53b 803d f3aa 093d 3cf9 b73d
00000250: b36a 77bf 2471 f43d e1cb 8cbe cdd8 e1be
00000260: 1bcb 053e 29e7 39bd 0620 303e 816d 08bf
00000270: aa2c 01bf 4e68 ffbc 0d58 9b3e a446 29be
00000280: d533 34be 1a73 61be 80da 1ebe 282a 3fbe
00000290: d9f7 a23e 5430 f6be 9a37 02be 1d23 a33d
000002a0: b8d0 3d3e b07f 123e b1b1 8dbe e281 82be
000002b0: 1801 863b 73aa 53bd 4a91 34be d38d c8be
000002c0: 2148 413e ac84 10be d858 8ebe 3108 b5be
000002d0: 4a63 60bf 35c7 f93e 89cd b3bd 7df0 f43e
000002e0: b53d 6bbe cf82 7bbd efb8 11bf b0ea dbbe
000002f0: 73eb d9be d35f d03e f888 8fbd 34c3 dabd
00000300: 2f6f 76be 5641 8ebe 1581 ddbd 960f b3bd
00000310: b1a5 f6bd bb90 883d 4161 463e 583f 90bd
00000320: c132 69bd ea96 eabd d209 ecbe 9468 e83e
00000330: 8427 553f 54cd 623e ce53 dfbe 1c43 dabe
00000340: 0c7b 8abe 964a 50be 3f3d 9c3e e239 293e
00000350: 6572 b33e 5679 483c d513 803e 0b96 923e
00000360: 058e babd 736f 07be 795b de3e ded8 673e
00000370: deac 8a3f cf35 05bf 13e2 2ebb 13c5 d5bd
00000380: 5c93 443e cba2 eebd 6f10 763d 1180 eb3b
00000390: 656a 1ebe ba49 aa3e f7c5 223e 63f8 c63e
000003a0: 9482 7c3e a173 6a3e 7eda 4a3f 41d5 5fbe
000003b0: 0e78 2d3f dc35 363f 97c2 5ebe a053 c1bd
000003c0: 904f 983c 0960 583e 28d9 d03d 3d58 35be
000003d0: 127a 82bf 424c 0d3f 9e52 7abe eb99 923d
000003e0: 6d02 b6be 25f1 c1bd 0061 213e 92f3 2a3f
000003f0: f693 d83f acc1 e5be 8d56 cebd dcd2 46be

value_layer.0.bias f4 [64]
0.16117443 0.25831327 0.046823736 0.044510983 -0.13509046 -0.23539677 -0.30129632 0.33079785
0.33817378 0.07968974 0.06588307 0.33981684 0.26822653 -0.15339497 -0.115139075 0.02949709
-0.16134271 -0.19008142 -0.12762287 0.20566948 0.41434652 -0.34375384 0.31792343 0.17867115
0.5152473 0.13215634 0.40109986 0.38375887 0.23566027 -0.48797026 -0.35051087 0.0014780774
-0.36092225 0.29743958 0.041768387 0.0012517369 -0.13652422 -0.18811621 -0.3711544 0.004359405
0.18076238 -0.45447743 0.01929798 -0.23830806 -0.3872667 -0.14382733 0.24716271 0.056439113
0.06889545 -0.16003303 -0.5268624 -0.36284995 -0.33008537 -0.3088999 0.07511742 -0.4608946
-0.16248235 0.12718146 -0.23464891 0.31684354 -0.26136965 -0.43190357 0.41419557 0.18933782
00000000: e90a 253e a341 843e 3fca 3f3d 2651 363d
00000010: 2755 0abe da0b 71be 8343 9abe 565e a93e
00000020: 1d25 ad3e 6034 a33d b4ed 863d 79fc ad3e
00000030: fd54 893e 9213 1dbe 09ce ebbd e2a3 f13c
00000040: 0637 25be b4a4 42be 92af 02be 059b 523e
00000050: 3a25 d43e 8100 b0be dcc6 a23e 92f5 363e
00000060: 3fe7 033f fe53 073e f65c cd3e 0b7c c43e
00000070: ed50 713e 3dd7 f9be 2976 b3be 0cbc c13a
00000080: cdca b8be 004a 983e 5415 2b3d 5211 a43a
00000090: 01cd 0bbe 89a1 40be f307 bebe 57d9 8e3b
000000a0: c619 393e 44b1 e8be cc16 9e3c 0707 74be
000000b0: d247 c6be 7947 13be 3918 7d3e b32c 673d
000000c0: 0f19 8d3d b3df 23be 74e0 06bf 78c7 b9be
000000d0: f300 a9be 2128 9ebe 29d7 993d 61fa ebbe
000000e0: c661 26be db3b 023e ce47 70be 5139 a23e
000000f0: 3ed2 85be 7722 ddbe 7111 d43e c6e1 413e

value_layer.2.weight f4 [64, 64]
0.0073849116 -0.1335623 -0.053088054 -0.0793174 0.109375246 0.042421494 -0.026372768 -0.073971115
-0.11536255 0.007908069 0.021500701 -0.06750541 -0.044306614 0.04864829 -0.05875518 0.030099917
-0.09499908 -0.09952912 -0.07214128 0.036561716 -0.12759115 0.15437174 0.033532318 0.08796181
-0.040603176 -0.06976503 -0.14067662 -0.018482983 0.02814842 -0.104195334 0.04123435 0.032100014
0.080414705 0.15541902 -0.040948853 -0.0009284484 -0.10384523 0.1164528 0.061013192 -0.03748234
-0.18038294 -0.10785143 -0.16385125 -0.05416318 -0.032390874 -0.046657063 -0.12036153 -0.033746213
-0.00821171 0.081752405 0.12151522 -0.08031119 -0.03779688 -0.084153295 0.09712235 0.03431728
-0.078092135 -0.04226811 -0.019284196 0.014714235 0.14441943 0.049683742 0.10646418 0.010607205
-0.30821344 0.36595255 -0.25296813 -0.28285208 0.25346386 -0.4775156 0.5012442 0.76915205
0.5268366 0.06453416 0.31571135 -0.10295388 0.31727886 -0.12857695 0.115347 0.06738352
-0.34982547 -0.6535414 -0.115696095 0.18203689 0.19677618 -0.27739376 0.009193422 -0.27790955
-0.17608446 -0.07477698 0.11177402 1.1054087 0.3405669 -0.0032473744 -0.5859887 0.13380122
-0.21179835 -0.27613655 0.015374603 -0.33748558 -0.60863 -0.23423961 -0.33519974 0.33519724
0.08045327 0.08364684 -0.46768662 0.072949685 0.013603128 -0.052199084 0.22554721 0.17046948
0.59843487 0.17854264 -0.4209162 -0.1133796 -0.3503047 -0.49007356 0.30141354 -0.6550193
0.20033383 0.033891346 -0.0060587074 0.2699623 -0.29572353 -0.024539223 0.22732382 0.09280989
-0.018570697 -0.2869272 0.0696323 0.38311642 -0.3981783 0.38378155 -0.09161477 -0.7386535
-0.24978021 -0.20803145 -0.5295298 -0.069106236 -0.082587875 0.096514225 0.12500955 -0.0488264
0.34237924 0.42248052 0.22490786 -0.054487422 -0.3646934 0.28202757 0.21840166 0.056243684
-0.3653669 0.11686174 -0.5256187 -1.0596433 -0.081774786 0.24010333 0.4492666 -0.48071072
0.25060356 0.15729289 0.19364107 0.21575059 0.33629507 -0.057810746 0.16246347 -0.7058951
-0.14046864 0.33799633 0.6969553 -0.14084645 0.18088552 0.101949066 -0.18377058 0.1356472
-0.7233021 -0.07395921 0.665133 -0.0122218 0.46609196 0.22787072 -0.68272644 0.71123666
-0.08400591 -0.4334422 0.19407782 -0.4893091 0.18217434 -0.011680529 -0.62306815 -0.5093508
0.0018720211 -0.09936684 0.10022122 0.015091869 -0.16351703 0.18329214 -0.035245873 -0.3074028
-0.16827665 -0.06849952 -0.0966907 0.14694189 0.03189154 0.11349221 0.14065069 0.1559062
0.22465035 -0.009495605 0.10475713 -0.0031657075 0.028817184 0.24376066 -0.005443794 0.08169851
-0.17705578 -0.048034005 -0.2691916 -0.35167375 -0.09125696 0.03343981 0.192854 -0.3137785
0.082572594 0.06899235 -0.04835969 0.045295276 0.019052498 0.029665357 0.08572691 -0.36389038
0.06320449 0.2494296 0.22549851 0.034662966 0.06008011 0.057218064 0.09271715 -0.022079563
-0.3249027 0.07158954 0.19589442 0.109563164 0.2398072 0.07588858 -0.15471558 0.29933843
0.028345322 -0.29946274 -0.05654752 -0.16426338 0.113134235 -0.13608827 -0.14915694 -0.1584103
00000000: 21fd f13b 8ec4 08be dc72 59bd 2971 a2bd
00000010: 2100 e03d 29c2 2d3d b40b d8bc 2b7e 97bd
00000020: 3343 ecbd d890 013c 3d22 b03c 4740 8abd
00000030: da7a 35bd 6e43 473d 46a9 70bd 1a94 f63c
00000040: e18e c2bd ecd5 cbbd cfbe 93bd bdc1 153d
00000050: 41a7 02be a013 1e3e 2f59 093d 5225 b43d
00000060: 844f 26bd f8e0 8ebd 880d 10be a069 97bc
00000070: 8497 e63c 5d64 d5bd 5ae5 283d 4e7b 033d
00000080: 77b0 a43d 2a26 1f3e fcb9 27bd 1e63 73ba
00000090: cfac d4bd ce7e ee3d f8e8 793d 1587 19bd
000000a0: 4eb6 38be 36e1 dcbd 9fc8 27be 36da 5dbd
000000b0: 4bac 04bd 7a1b 3fbd 1b80 f6bd 7839 0abd
000000c0: 688a 06bc ce6d a73d f9dc f83d 317a a4bd
000000d0: e7d0 1abd 9058 acbd 15e8 c63d 4790 0c3d
000000e0: c5ee 9fbd 5321 2dbd e4f9 9dbc fa13 713c
000000f0: b0e2 133e 2e81 4b3d e409 da3d d8c9 2d3c
00000100: 27ce 9dbe 225e bb3e 0a85 81be fdd1 90be
00000110: 04c6 813e ed7c f4be 8a51 003f 26e7 443f
00000120: c3de 063f 7c2a 843d eba4 a13e 7cd9 d2bd
00000130: 6072 a23e ada9 03be 0c3b ec3d 5f00 8a3d
00000140: 531c b3be 7d4e 27bf 13f2 ecbd e167 3a3e
00000150: b27f 493e 8e06 8ebe 02a0 163c 294a 8ebe
00000160: 7c4f 34be ac24 99bd c7e9 e43d 087e 8d3f
00000170: c95e ae3e e7d1 54bb 5b03 16bf 3003 093e
00000180: abe1 58be c561 8dbe c2e5 7b3c e9ca acbe
00000190: 2dcf 1bbf 82dc 6fbe 4d9f abbe f99e ab3e
000001a0: afc4 a43d 094f ab3d 9f74 efbe a566 953d
000001b0: a7df 5e3c b5ce 55bd d9f5 663e 8d8f 2e3e
000001c0: 0733 193f e2d3 363e 5482 d7be 9033 e8bd
000001d0: 235b b3be ecea fabe e052 9a3e 58af 27bf
000001e0: 5024 4d3e a7d1 0a3d 1f88 c6bb 8038 8a3e
000001f0: 1369 97be 7b06 c9bc 93c7 683e 1d13 be3d
00000200: 9321 98bc 1fe8 92be 619b 8e3d d627 c43e
00000210: 07de cbbe 047f c43e 86a0 bbbd 6518 3dbf
00000220: 62c6 7fbe 3206 55be 448f 07bf 9287 8dbd
00000230: d523 a9bd 40a9 c53d 8102 003e 31fe 47bd
00000240: 554c af3e 5e4f d83e 3f4e 663e 342e 5fbd
00000250: 18b9 babe eb65 903e afa4 5f3e c75f 663d
00000260: 5f11 bbbe 3555 ef3d f28e 06bf 64a2 87bf
00000270: 8a79 a7bd a6dd 753e 4606 e63e b71f f6be
00000280: 1c4f 803e 6311 213e d849 463e b9ed 5c3e
00000290: de2e ac3e f6ca 6cbd d35c 263e 8bb5 34bf
000002a0: 03d7 0fbe db0d ad3e aa6b 323f 0d3a 10be
000002b0: 0e3a 393e acca d03d 5b2e 3cbe 19e7 0a3e
000002c0: 542a 39bf ed77 97bd 2846 2a3f f23d 48bc
000002d0: 9ba3 ee3e f156 693e 29c7 2ebf 9b13 363f
000002e0: 4a0b acbd 23ec ddbe 56bc 463e b986 fabe
000002f0: e98b 3a3e b15f 3fbc 6581 1fbf d064 02bf
00000300: 9b5e f53a d880 cbbd c840 cd3d e343 773c
00000310: 0271 27be efb0 3b3e fa5d 10bd e663 9dbe
00000320: b750 2cbe 7a49 8cbd c605 c6bd ef77 163e
00000330: b4a0 023d 9b6e e83d bc06 103e e0a5 1f3e
00000340: be0a 663e 7493 1bbc e88a d63d c277 4fbb
00000350: 0412 ec3c 659c 793e db61 b2bb 8c51 a73d
00000360: 1c4e 35be 4ebf 44bd 7bd3 89be 950e b4be
00000370: eee4 babd 2ff8 083d 857b 453e 93a7 a0be
00000380: d21b a93d dc4b 8d3d cf14 46bd 8a87 393d
00000390: fc13 9c3c c304 f33c 9791 af3d d74f babe
000003a0: 5b71 813d 796a 7f3e 15e9 663e c1fa 0d3d
000003b0: 9016 763d 7d5d 6a3d 7de2 bd3d 33e0 b4bc
000003c0: a659 a6be 899d 923d 8c98 483e a762 e03d
000003d0: 0590 753e 796b 9b3d c36d 1ebe e342 993e
000003e0: 7334 e83c 2e53 99be 5f9e 67bd a934 28be
000003f0: ecb2 e73d b95a 0bbe 99bc 18be 4f36 22be

value_layer.2.bias f4 [64]
0.11000692 0.30867296 -0.24425516 -0.13414739 -0.18731552 -0.07569485 0.30108574 -0.4510314
-0.102138504 0.1087378 0.03213656 -0.029743155 -0.4638304 -0.0866198 -0.064400315 0.0031310534
0.07707575 -0.1659617 0.19993255 0.22873838 0.27692977 0.04458449 -0.09060839 -0.080225505
0.063127615 0.052408062 0.067017175 -0.07490733 0.019852273 -0.037708655 -0.029165765 0.01434681
-0.061076846 -0.38212368 -0.0329847 0.18258917 -0.17666802 0.10429924 -0.010321828 -0.05162728
-0.07414163 0.098730944 0.04378011 0.035513926 -0.069088124 0.09509039 0.056838028 0.037752565
-0.08600409 -0.006246882 -0.16839598 0.06664979 -0.28679934 -0.023636423 0.031287856 -0.02619231
0.12783773 0.016881675 0.23035659 -0.0034370958 -0.014431351 -0.3092881 0.051935524 -0.0072576255
00000000: 4f4b e13d 620a 9e3e 061e 7abe ef5d 09be
00000010: a4cf 3fbe e705 9bbd e927 9a3e 96ed e6be
00000020: fe2d d1bd ecb1 de3d a0a1 033d eba7 f3bc
00000030: 2e7b edbe b965 b1bd 50e4 83bd 5c32 4d3b
00000040: e4d9 9d3d ddf1 29be 1ebb 4c3e 653a 6a3e
00000050: bdc9 8d3e 3a9e 363d e490 b9bd 454d a4bd
00000060: 0d49 813d d6a9 563d 4d40 893d 0469 99bd
00000070: 3ca1 a23c 6474 1abd 0bed eebc e20e 6b3c
00000080: b72b 7abd b7a5 c3be f71a 07bd a8f8 3a3e
00000090: 76e8 34be d79a d53d e21c 29bc 2077 53bd
000000a0: 91d7 97bd 7333 ca3d c652 333d 0d77 113d
000000b0: 137e 8dbd c0be c23d fece 683d 6fa2 1a3d
000000c0: ea22 b0bd a5b2 ccbb ff6f 2cbe af7f 883d
000000d0: 5dd7 92be 2ca1 c1bc b227 003d 4191 d6bc
000000e0: e5e7 023e 704b 8a3c 99e2 6b3e e640 61bb
000000f0: 7971 6cbc 035b 9ebe 58ba 543d 60d1 edbb

value_layer.4.weight f4 [1, 64]
-0.014102024 -0.24987252 0.43783903 0.02299035 -0.1554929 0.014071929 -0.11380592 0.38180783
0.016574016 -0.031361304 -0.006619865 -0.020834342 0.3824499 -0.006926303 0.013907221 0.018643895
-0.020427354 0.10733581 0.13540214 -0.05589887 -0.21087924 0.012186128 0.053195212 0.033627223
-0.05245295 0.004122716 -0.07792261 -0.0012133346 -0.0015216109 0.002824145 0.010323934 -0.029753342
0.0032785637 0.09001801 -0.008498388 -0.18088664 0.080800496 -0.004355109 -0.0065976153 0.034193806
0.014102119 -0.031390414 0.031353302 0.02880392 0.0010367152 -0.016169498 -0.0012717582 -0.0019994911
-0.022713127 -0.0022860228 -0.13890445 -0.019899994 0.18140753 0.0779132 0.003888362 -0.013094923
0.09804634 -0.012701205 -0.052525394 -0.01238027 0.014974218 0.11829751 0.009129563 0.003095425
00000000: 2d0c 67bc 95de 7fbe 702c e03e 4256 bc3c
00000010: 8839 1fbe f38d 663c 1413 e9bd 517c c33e
00000020: 3bc6 873c b674 00bd 74eb d8bb c8ac aabc
00000030: 79d0 c33e 0af6 e2bb 1ddb 633c 15bb 983c
00000040: 4457 a7bc e1d2 db3d dca6 0a3e 37f6 64bd
00000050: baf0 57be 53a8 473c 39e3 593d b3bc 093d
00000060: e8d8 56bd d917 873b e495 9fbd c108 9fba
00000070: ca70 c7ba 4a15 393b b825 293c 48bd f3bc
00000080: 2cdd 563b 5d5b b83d d33c 0bbc 593a 39be
00000090: bb7a a53d 4db5 8ebb cf30 d8bb ce0e 0c3d
000000a0: 930c 673c 3c93 00bd 526c 003d 33f6 eb3c
000000b0: 64e2 873a e575 84bc 20b1 a6ba e509 03bb
000000c0: e110 babc 19d1 15bb f83c 0ebe 5005 a3bc
000000d0: e5c2 393e f590 9f3d e4d3 7e3b 178c 56bc
000000e0: 85cc c83d b718 50bc de24 57bd 9ed6 4abc
000000f0: 6c56 753c f745 f23d 2a94 153c 9ddc 4a3b
