Homework8/8_gym-PPO/results/PPO_LunarLander-v3-eps0.2-k10-solved.pth (torch, 44290 bytes, 11 tensors)

action_layer.0.weight f4 [64, 8]
00000000: e45f 99bd ff61 50be 5194 89be 5d97 f0be
00000010: 6590 1e3f c5a5 2a3e f1f6 733d 7f71 8ebd
00000020: 1a5e 54be 85af 7ebd 2667 c23e 973e 15bf
00000030: 8bca 0dbd 6d70 4a3e b4f2 5b3e 09fd 9cbe
00000040: bc2d 92bc a3f4 6a3e 954d ee3e 2bc7 82bd
00000050: da7a 88be 4b83 ae3d e294 673e 27dd f03d
00000060: d55c 6bbe e385 a1be 8549 b13e 6fcd c0be
00000070: 5563 3cbc 4759 d23d d20a 473e 7a44 5c3d
00000080: 929a 8cbc a1b8 863d 959a a43e c3d6 fb3e
00000090: b9c0 a6be d8d9 e4be 63a2 50be 2293 c3bd
000000a0: 78cd 82ba 5966 72bd f604 6b3c d33e 89bd
000000b0: 9877 42be 97cc 37be d52f 26bf d4bb d1be
000000c0: 4f88 a9be 9405 f13c 873e 23bf 8eea 9b3e
000000d0: eb67 4a3f 4def 513f 5584 ec3e 67d5 a8be
000000e0: 86a4 0cbe e4f2 60bd 9f3d 7e3e bcae 1abe
000000f0: 9ea7 d4be f810 8cbe 133e 73bb 3ba4 5bbe
00000100: ae73 80be a2c6 643d 7499 96bd de90 16bf
00000110: 6c8b f83d e66f 89be 1a33 3d3e dc62 96be
00000120: 6d6e e3be 61a3 bd3e a7b1 8dbe dd9e d83e
00000130: 637f 1e3f 0ae3 cfbc b233 523e cd6b 33be
00000140: 5e1f cebe c3f3 3d3d 48d9 8fbe c1b0 b23e
00000150: 9c77 4abe 30da 2a3e 6b53 86bd 03b9 0ebf
00000160: 9bcf e9bd deee 86bd ece6 aabe bfcf dc3c
00000170: 1a57 b83e d61f 92be c4c9 92be c4e2 cdbe
00000180: a681 873e 6be1 b0bd c689 293f 9c85 aebd
00000190: 214f 68bf 47f9 2ebf 966d 483e 6ea7 15be
000001a0: e0b4 a9bc cefc 03be 5d5c c43e 8678 0fbd
000001b0: ee52 76bc 4d4d 06bf faba 0e3d 1fe1 883e
000001c0: 9c10 c4bd 4ba8 6bbe a1fe 293e f550 18be
000001d0: 6f72 30be 2540 5dbe f5f0 88bd 7ec6 bfbe
000001e0: dc18 dfbe 4a40 c6bd 40b6 133e cae8 7ebe
000001f0: 1c07 2c3e 3fd9 fbbe b4bc e1be 1c8e 22be
00000200: 1491 493d 976b ecbd 0d60 80be 6169 c3bc
00000210: 3f29 0d3f e19b 423f a67a a73e 05a1 a33d
00000220: 804c 54bd c0b7 8dbe f695 313e 9672 ebbe
00000230: d2fb 80be d462 c63d 346b 833e 99b8 9ebd
00000240: 68f2 73be 0bc8 0e3e ae5b adbe adfd b8be
00000250: e367 bb3e 4c9e b33c 78ad eb3e 56a6 263d
00000260: bb6e 0cbe 7f7f 3abd 8916 9fbb d392 0c3f
00000270: cc1f 8f3e 123b 243e c3a7 37be cb5d a2be
00000280: 46c0 a6bd 9f55 1bbe c26b 89be b665 bbbe
00000290: 8f7c 693d 85f3 d43e 5586 21be d701 333e
000002a0: 78c8 5b3d afec fc3d 0c54 9bbe d7ca 71be
000002b0: ffbf 563f 770e 9d3f 832c 60bd 58e9 b53d
000002c0: 3cb9 15be 0013 e7bd 0e3d a63e 1c8c 75be
000002d0: 645b 5fbe 2618 203e 67e8 cc3d 863c edbd
000002e0: 4017 983e 533a 753d 80de 223e ef4c b93e
000002f0: b3af 07bf 5fdd 12bf 323f 1d3e ec83 a33e
00000300: 4e8d d13e 487d 70be 3553 353d 100e 87be
00000310: 7cb4 7cbd e0fa 393e 7a22 1a3f 51c6 343f
00000320: 39dc 3dbd d71a 6c3e a01b 3ebe 01f3 c73e
00000330: 4efd ac3e 5d20 41be d5f4 96bd 8cea c03e
00000340: 6046 f33e e1b2 1a3e c9d7 e33e 7085 cdbd
00000350: aeba 8ebe cf8a e0bd 490b b7bd 755d b33e
00000360: 5fc1 dcbc 2467 aabc cf6e e5bc 0a2e e53e
00000370: c8d1 50bd 55b8 dabe 098a 96be 4909 c43e
00000380: cc61 89be 10ec 1abd a24b 17be b06f 8c3e
00000390: 316d cd3e 888f 8dbd 8a75 223f 8e64 99bd
000003a0: 0fbd 053d c729 08be 303d 303e b057 b0bd
000003b0: 25ce 59be b874 09bf cb7d afbb 7041 85be
000003c0: 8cfe ab3e 0378 913d 18f2 30be 17e2 813e
000003d0: 44d5 093d 6131 babe 6ee0 8c3d 61ce d53d
000003e0: b7c6 77be 6461 95bd 00a7 16be 0c77 eebe
000003f0: e831 2e3f 7d9f e23e 0302 813e 8cd0 90be
-0.07488993 -0.20349883 -0.2687097 -0.4699048 0.6193908 0.16664799 0.059561674 -0.069552414
-0.20739022 -0.062179107 0.3796932 -0.5829863 -0.03461699 0.1976945 0.21479303 -0.306618
-0.017844073 0.22944884 0.46543565 -0.063856445 -0.26656228 0.08521136 0.22615388 0.117609315
-0.22984631 -0.3154746 0.34626403 -0.37656733 -0.011498292 0.102709346 0.19437721 0.05377624
-0.017163549 0.06578184 0.32149187 0.49187288 -0.3256891 -0.44697452 -0.20374446 -0.09549548
-0.0009979447 -0.059179638 0.0143444445 -0.06701436 -0.18990934 -0.17949139 -0.64916736 -0.40963614
-0.33111808 0.029421605 -0.63767284 0.3045239 0.79064816 0.8200577 0.4619471 -0.32975313
-0.13734636 -0.05491914 0.24828194 -0.15105718 -0.41534132 -0.27356696 -0.0037115857 -0.21449368
-0.25088257 0.055853494 -0.073534876 -0.588148 0.121359676 -0.26843184 0.18476525 -0.293723
-0.44420186 0.3703871 -0.276746 0.42308703 0.61913127 -0.025376815 0.20527533 -0.17521591
-0.40258306 0.046375047 -0.2809546 0.34900478 -0.1977219 0.16684794 -0.065588795 -0.55751055
-0.11416551 -0.06588529 -0.33379304 0.02695453 0.36003953 -0.28539914 -0.2866956 -0.4021207
0.264661 -0.08636745 0.6622585 -0.08521578 -0.9074574 -0.6834912 0.19573054 -0.1461465
-0.02071613 -0.12889406 0.38351718 -0.03502705 -0.01503442 -0.524617 0.034846283 0.26734254
-0.095734805 -0.23013417 0.1660104 -0.14874633 -0.17231153 -0.216065 -0.06686584 -0.37456125
-0.43573654 -0.09680231 0.14424992 -0.2489349 0.16799587 -0.49189183 -0.44089282 -0.15874523
0.049210623 -0.11543959 -0.2507328 -0.02385396 0.5514106 0.760191 0.3271076 0.079896964
-0.05183077 -0.27679253 0.17342362 -0.4598586 -0.25192124 0.09686819 0.25667727 -0.07750053
-0.2382294 0.13943498 -0.3385901 -0.3613104 0.36602697 0.021926068 0.46030784 0.040685974
-0.13714115 -0.045531746 -0.0048549813 0.54911536 0.27953947 0.16038159 -0.1793509 -0.31712183
-0.08142142 -0.1516938 -0.26840025 -0.36601037 0.057003554 0.4159204 -0.157739 0.1748117
0.05365798 0.12349831 -0.3033756 -0.23612534 0.8388671 1.2270039 -0.05472995 0.088823974
-0.14621443 -0.11282921 0.32468456 -0.23979229 -0.21812207 0.15634212 0.10005265 -0.115838096
0.29705238 0.059870075 0.1590519 0.36191508 -0.5300247 -0.57369035 0.15356138 0.31936586
0.4092812 -0.23485291 0.044268806 -0.26377916 -0.06169556 0.18162107 0.6020886 0.70615107
-0.0463526 0.23057114 -0.18565226 0.39052585 0.33787006 -0.18860002 -0.07370917 0.37678945
0.4751463 0.151073 0.44500569 -0.10035217 -0.278768 -0.10963976 -0.08937699 0.3503224
-0.026947675 -0.020801134 -0.02800694 0.44761688 -0.050981313 -0.4271876 -0.29402187 0.38288334
-0.26832426 -0.037822783 -0.14774945 0.2742896 0.4012237 -0.06912142 0.634606 -0.074898824
0.032651003 -0.13297187 0.17210841 -0.08610475 -0.21270044 -0.53693724 -0.005355572 -0.26026487
0.3359264 0.071029685 -0.17279851 0.25367805 0.03365065 -0.36365798 0.06878744 0.10439754
-0.24196897 -0.072939664 -0.14712143 -0.465752 0.680449 0.44262305 0.25196847 -0.2828411

action_layer.0.bias f4 [64]
00000000: f56c 7c3d 1e44 08be f64d 88be 8a50 1b3e
00000010: 354d 6b3e 4f9a 29bd c5a7 523e 69a7 7dbd
00000020: 54ae 5fbe 9859 64be 8a22 ff3d 4b59 dd3d
00000030: 817e ccbd c6c8 67bc e9e6 663e 1053 a3bb
00000040: 400e 353d 2b4d 073e 1f52 41be d343 bc3e
00000050: db80 a23c 7a72 9abe 80d1 0d3e 38bf 603d
00000060: 79b0 e83d 8cc3 40be 4c68 febd fd71 e43d
00000070: 7832 053e a2e4 a93d 8b14 31bd f720 0bbd
00000080: eb59 1ebd 933f f5bd 3f1f 70be 9ee4 26be
00000090: 7da7 a93d 739c e33d 1278 0f3e 3a63 3ebb
000000a0: a3df d4bd 0543 f6bc 2cd0 6d3d e369 853d
000000b0: f7bd 46be fdb6 5f3e 2ff2 bbbc 9235 c63d
000000c0: 34b4 3e3e cee4 8b3d cebb 9dbd 5bce 923d
000000d0: 0567 81be d4b3 903c 09f3 1dbe d1b0 653d
000000e0: 10b1 203e 51e1 423c 49f1 04be 9f94 063e
000000f0: 3973 563e 2ae1 cd3d e8b1 c9bd 7d7a 68be
0.061627347 -0.13307235 -0.2662198 0.15167442 0.22978671 -0.041406926 0.20571811 -0.061927233
-0.21843845 -0.22299802 0.1245776 0.10808047 -0.09985066 -0.014146989 0.22549023 -0.004984267
0.044203043 0.13213031 -0.18878983 0.36770496 0.019836834 -0.30165464 0.13849449 0.05486986
0.113617845 -0.18824595 -0.12422237 0.11154554 0.13007534 0.082955614 -0.043232482 -0.033966985
-0.03865997 -0.119750164 -0.2344942 -0.16298148 0.08283899 0.11113825 0.14010647 -0.0029050843
-0.10394218 -0.030061254 0.058059856 0.06514337 -0.19408403 0.21847148 -0.02294263 0.096781865
0.1862343 0.068307504 -0.077018365 0.071682654 -0.2527391 0.017663874 -0.15424742 0.05607683
0.15692544 0.01189454 -0.12982668 0.13142632 0.20942391 0.10052712 -0.09848386 -0.22702976

action_layer.2.weight f4 [64, 64]
00000000: be81 ee3c 9bdd fabd a38c 24bd 999a 023b
00000010: 4491 b4bd e9ed 02be 6058 8a3d 07c8 94bd
00000020: f348 52be 4e3b 49ba dadf 463c 98f2 f73c
00000030: d87d 983a 0c03 a6bd 4687 b6bd f71a 10bb
00000040: db80 483e a98b 6abc bbba 833d a628 ab3d
00000050: 3d8f aabc e64a 6b3d b234 dc3d e2af 283e
00000060: 028e a33d b595 ae3d af17 89bd b9c3 e4bd
00000070: b912 a1bd f51b 7ebd f410 d13c 8cda bfbd
00000080: f7bd d1bb af98 0cbd 7f23 493d 3fb1 9f3d
00000090: ee1a 1e39 9917 8dbc 4f03 24be 42c3 35bd
000000a0: c268 b43d 8d28 03be 11a6 183e 9db0 033d
000000b0: 168e 5e3d e613 843d 8703 91bd 4f35 193d
000000c0: e786 553e 0b5f 1e3d f534 333d dd2a 58bb
000000d0: 1a05 61bd a3fb f9bb db05 aebd 9f4a b8bb
000000e0: 2a03 3e3d c19e c8bd 6019 e2bd 5721 293e
000000f0: a81e 213e 7f15 03bd 93ad a83d 6fe1 95bd
00000100: a84c 913d e511 4a3e 6b3d 6a3d 820c a7bc
00000110: ee2e 51be a18a a53d f412 31bc a8aa 95bc
00000120: 3340 c23d 433c 0fbe 2bb3 64bd 5d69 8b3d
00000130: ae99 323d d0e2 b03d 6a9d b9bd 6852 32bd
00000140: c3ba 843a 4ef0 52bc 110a 663a f1b0 edbd
00000150: 025b 02bd 70d1 543e d52f d1bd 7f20 80bd
00000160: 569e 363e 9739 28be 7a33 103e 59eb 963c
00000170: 62a5 873c 0576 553d 290d c8bc 613f c73d
00000180: b919 3cbd 226a 2abe 0546 bdbd 6f75 313e
00000190: 91f8 a1bd 598d 273d 2caa c93d eac0 4e3d
000001a0: 90a3 e23d 57b0 0c3e 07b8 9c3d ff8f 353e
000001b0: a343 6a3e e976 433e 1c7c a83d 53cf 203d
000001c0: 58b9 a5bd 0c0f 943c 47d1 f63d bed1 86bd
000001d0: c753 4c3e 6ebe e03c c269 9a3d 1b68 d83d
000001e0: 9d89 84bd 6255 78bd 34eb 6a3d 2544 903d
000001f0: ada8 32be 42b3 3cbe 0d63 9abd e886 9abd
00000200: 0053 65be e2d1 55be 409e 8d3c 8c90 08be
00000210: 2aae 2e3e e4e2 6ebd d15e 003c 0a13 ea3d
00000220: eb61 16be 0aa0 0a3e 1c8a 9c3d ac09 8e3d
00000230: 06f4 133e b228 cb3c c0d3 45bd 09b7 b0bd
00000240: 6dc2 85bc 92d0 8bbd 3692 17be eb16 dd3d
00000250: c7c7 95bd 32de 26be e286 b63c 7b45 893e
00000260: 52dd 433d 3273 943d f413 a1bc 6071 073e
00000270: c93d 65bc 50ba 9f3a dd49 503e 1402 84bd
00000280: 219a 06be a6ba b6bb 4dd0 e23d c298 47be
00000290: c892 3d3e 7ac9 253c 04c9 b0bd cb78 0cbd
000002a0: 3c56 f7bc 13d3 cabd af7b 89bd d94f fcbd
000002b0: e9b0 0dbe 7dca 53be 3734 bbbc 36cc 2d3e
000002c0: 1c02 113e 61f0 c2bc b61e 51bd 3939 1dbd
000002d0: b114 f6bc 29a5 a63d 1b53 92bd d59a 733d
000002e0: bfbb 2ebd 1477 c7bd a1b1 9a3d b787 b13d
000002f0: a140 263e a13b 923e 729b 453d d964 df3c
00000300: 6655 82be f08a 373e d95c e13d fbb5 953d
00000310: c9cf ca3d 8fa7 1b3e a762 53be 402e a63d
00000320: 0351 cb3d 0bdc 26be 9421 d0bb 289a 693d
00000330: 3a7f b63e ad50 7b3d 836f 1b3e 3c67 b8bd
00000340: 080b 92be 61c1 a43c 8992 d6bd fd16 17be
00000350: aa53 4cbc dfb8 acbe 9039 e83c cd5c 813e
00000360: b985 bc3d 62de 01bc 3764 a73d 8728 9bbc
00000370: 9002 61be 19cb a3bc cf7e 093e 6f68 20be
00000380: 4a33 ae3d ffef e2bd d918 39be dc78 55ba
00000390: bbff 293e a596 adbc 645a a23d 031a 5e3e
000003a0: ed30 f53d a86f dbbc 5ef0 adbc 56e6 18bd
000003b0: 6a90 ea3d 0098 21be a61f 2ebe 6dd8 633e
000003c0: e7b2 94be 612b cd3c cec7 e03c 3172 5fbe
000003d0: c83d 913e c571 5fbd 5868 6abd 73ff 753e
000003e0: c05e d33d afd4 d13d 4793 e83d d0c2 85be
000003f0: 1f84 9ebe 3bfb 4c3d ca47 16bd 3b58 3fbe
0.0291146 -0.12249299 -0.040173184 0.0019928573 -0.0881677 -0.12786068 0.067551374 -0.07264715
-0.2053564 -0.00076763786 0.012138331 0.030267045 0.0011634184 -0.0810605 -0.0891252 -0.0021988729
0.19580404 -0.014315524 0.064321004 0.083573624 -0.020820254 0.057444476 0.10752238 0.16473344
0.0798607 0.08524648 -0.066939704 -0.11170144 -0.07864899 -0.06203838 0.02552078 -0.093678564
-0.0064008194 -0.034325298 0.049106117 0.07797479 0.00015078086 -0.017223166 -0.16016887 -0.044375665
0.088090435 -0.12808438 0.149071 0.032150853 0.054334722 0.06449108 -0.07080751 0.037404355
0.20852242 0.03866486 0.043751676 -0.0032984533 -0.054936506 -0.0076288744 -0.084972106 -0.00562413
0.046389736 -0.09795905 -0.11039996 0.16516624 0.1573435 -0.032002922 0.08236232 -0.07318389
0.07094699 0.19733389 0.05718748 -0.020391706 -0.20428059 0.08083082 -0.010807741 -0.018269852
0.09484901 -0.13987832 -0.05583493 0.06807206 0.04360359 0.08637011 -0.090632275 -0.04353562
0.001012646 -0.012874676 0.0008775304 -0.116060145 -0.031825073 0.20783019 -0.10214201 -0.06256198
0.17833838 -0.16428219 0.14082137 0.01842277 0.016558353 0.052114505 -0.024420338 0.097288854
-0.04592297 -0.16642049 -0.09241871 0.17329954 -0.079087384 0.040906284 0.09846911 0.050476946
0.11066353 0.13739143 0.07652288 0.17730711 0.22877364 0.1908833 0.08226797 0.03926022
-0.08091992 0.018073581 0.12051635 -0.06582974 0.19953834 0.027434554 0.07539703 0.105667315
-0.0647156 -0.060628302 0.057353213 0.070442475 -0.17447157 -0.18427756 -0.07538424 -0.075452626
-0.22394943 -0.20880845 0.017287374 -0.1333639 0.17058626 -0.05832185 0.007835106 0.11429413
-0.1468579 0.13537613 0.0764353 0.069354385 0.14448556 0.024799678 -0.048297644 -0.08628661
-0.016328061 -0.06826891 -0.14801869 0.10795387 -0.07313495 -0.16295698 0.022281114 0.26810822
0.04781849 0.07248534 -0.019662835 0.13226843 -0.0139917815 0.0012186263 0.20340677 -0.06445709
-0.13144733 -0.0055764494 0.110748865 -0.19491866 0.18513024 0.010118837 -0.08632091 -0.034294885
-0.030192487 -0.099035405 -0.06713044 -0.12319917 -0.13837017 -0.20682712 -0.022852046 0.16972432
0.14160961 -0.023796262 -0.05105468 -0.03838465 -0.030039163 0.081369705 -0.07144757 0.05947383
-0.042659517 -0.09739509 0.07553411 0.08668464 0.16235591 0.28561118 0.048243947 0.027269768
-0.2545578 0.17924094 0.110040374 0.07310101 0.09902913 0.15200637 -0.20643102 0.0811429
0.09927561 -0.16294877 -0.006351659 0.05703178 0.3564394 0.061356235 0.15179257 -0.090040654
-0.2852404 0.020111741 -0.10477168 -0.14754863 -0.012471119 -0.33734795 0.02834776 0.25266114
0.09205193 -0.007926555 0.08173411 -0.018940223 -0.21973634 -0.019994305 0.1342728 -0.15664838
0.08505876 -0.11080932 -0.18075885 -0.00081433146 0.1660146 -0.021189997 0.07927397 0.2168961
0.119722225 -0.02678664 -0.02123278 -0.03732904 0.11453326 -0.1578064 -0.1700426 0.22250529
-0.29042742 0.025045099 0.027439024 -0.21820904 0.28367448 -0.05455186 -0.057228416 0.24023227
0.103208065 0.10245644 0.11356216 -0.26125193 -0.30960175 0.05004428 -0.036689557 -0.18686001

action_layer.2.bias f4 [64]
00000000: bc01 9abd 2c7b 893d d0bb 263d 42bd ccbd
00000010: 4cf5 b3bd 4b88 8fbd 0b75 753d 89e5 7d3d
00000020: 973d 85bd 90f7 a3bd d401 36bb dc2c d23d
00000030: 39b6 7dbd 6192 81bc d566 84bb 5f6f 1abd
00000040: e59a 5abd 2ef9 843d 0403 6ebd f05b dfbd
00000050: dc8c 98bd 2849 33bd bafe 133d 4e0b f0bb
00000060: 9118 d1bd efda d7bc 5025 a43d 64b3 cc3c
00000070: ebbe 713c 4d65 81bd 40e4 973d 9563 c8bd
00000080: 17bf c73c be7c acbd 5af5 883d c2e3 a6bd
00000090: 8520 07bd 6031 5dbd 99bd 303e c1e5 a7bb
000000a0: d7de f2bd 4b45 22bd 5e48 9abd fdf7 bbbb
000000b0: 9490 6abd 49d3 183d 014b 79bc 0fb3 a4bd
000000c0: 76dc 543d 2b4f 38bc 7319 4abd 2c7d cabd
000000d0: 3ee4 aa3d 32c5 863d 1785 963d b3cf efbd
000000e0: 5d9c 923c c4dd a03d db14 84bd 8bd9 17bd
000000f0: db14 2abd 88d6 65bd 8dce ec3d 2e68 c93d
-0.07519862 0.06712946 0.040706456 -0.099970356 -0.08787021 -0.07008418 0.059926074 0.06198648
-0.06505888 -0.08006203 -0.0027772086 0.102624625 -0.06194136 -0.01581687 -0.004040579 -0.037703868
-0.053370375 0.0649284 -0.058108345 -0.109062076 -0.07448742 -0.04377094 0.036131598 -0.0073255664
-0.10209764 -0.026349513 0.08014929 0.024987884 0.014754991 -0.0631815 0.07416582 -0.09784619
0.02438311 -0.0842223 0.06687422 -0.0814891 -0.032989997 -0.054002166 0.17259826 -0.0051238243
-0.118589096 -0.039616864 -0.07533334 -0.0057363496 -0.057266787 0.037310872 -0.015215636 -0.08041965
0.05196806 -0.011249344 -0.049340677 -0.09887156 0.08344315 0.06580581 0.073496036 -0.11709537
0.017896825 0.078547984 -0.0644929 -0.0370727 -0.041523796 -0.056112796 0.11562834 0.09834324

action_layer.4.weight f4 [4, 64]
00000000: f61d 203d bd49 8abd a7f9 1f3e ca93 073c
00000010: 00e0 d1bd e962 893e 4652 8cbe 3298 603e
00000020: 6a39 adbd 595a 713e d6d9 7fbe 7371 ef3d
00000030: e15c 93bc 368e 87bc b033 6a3e 8894 2c3e
00000040: c8a1 17be 0ce5 83bd 0463 1abd 8131 7d3d
00000050: a224 103e a34c ad3e fb3c 203e 4697 343d
00000060: 7434 0dbb 7846 6fbc 8410 45be f988 ea3d
00000070: cbb9 2f3d bece b0bc 41ea 1fbe 4e58 043e
00000080: a231 5f3d 592c c6bc 4ac8 84be 0418 20be
00000090: 7944 38be 0f20 7a3d 5201 89be 3feb 833e
000000a0: c750 913d 7161 8fbe 2245 703e 322c c4bd
000000b0: 1733 763d d753 2d3e 847c 793e 9a99 a1bc
000000c0: f240 183e c609 6d3e 073c adbd 3a11 0b3e
000000d0: c7a7 b13e 0d05 87be ee85 23bd 2198 033e
000000e0: 5dcd 063e 4aae 94be 416a c43c 6604 eabd
000000f0: e8c0 80bd 8168 4d3b 4896 ffbd fa3d 91be
00000100: e9e1 e4bd 13e4 92bc af25 ae3c 6a6b 583e
00000110: c5ed 4abc bf90 1e3d 5811 ed3c d5b0 723e
00000120: 76e2 223d 7919 b9bb bad1 8f3e b0c5 0e3c
00000130: cb8d 6b3e 1968 ac3d 172d 6fbe f2d0 073d
00000140: a272 56bd f78d 48bd ba83 b93d 211e 1abc
00000150: 1a0c e03d e787 83be 0940 8abe 07af a9bd
00000160: abee 9c3d 1fc7 a53d 51e6 7a3e bdb6 613d
00000170: 5b73 5bbe d95c ca3d 042b 6bbd 4ffe 95bd
00000180: a646 8bbb f3ac 1c3e 27d5 ddbd 1b8e 11be
00000190: 7127 86bd a2b6 943a 174b c33d 1ea2 363d
000001a0: 5876 c13b 214f c83c cf33 75be 8010 2dbc
000001b0: 2b5d a2bd 936f cf3c ac73 8f3c c419 0b3e
000001c0: 5fc4 9ebb 7623 febd d6f1 40bd 62f0 153e
000001d0: 76af 823e 0e99 f4bd 56fb 463d 9ef7 8ebd
000001e0: ba6b acbd 4c49 d1bd 88d3 8b3d e956 cfbc
000001f0: 667c 903d 8da0 f9bb 9017 f53d 42d5 8b3d
00000200: 831a 01bd d447 313e 757c b5bd 18e5 4f3e
00000210: 35ba e3bd b833 1cbe 5cc4 563e ff1e 85be
00000220: 24b4 4cbe d66b 0dbe 61d9 c53c 065c 2cbd
00000230: a6b3 4dbe d4c4 b13d f8dc 86be f0f0 cdbd
00000240: 976a 2fbc 5745 cd3d 68b4 22be d479 683e
00000250: 99e3 33be 4174 ffbd 623f e73d ded2 3c3d
00000260: 4871 7a3d 2174 cdbd 4652 523e 0c6d 143d
00000270: ad74 e33d 7b1f 09be 9987 863c 7747 1dbe
00000280: ece4 8e3c f6e0 bfbd 5342 913e 2823 b03d
00000290: 1a6d f43d 1a2d 4fbe f8c6 a6bb 8fa6 4ebe
000002a0: b0eb 093e de9b aa3e 0b67 99bd fa85 b83d
000002b0: affe 1c3e 3ca6 00be 75e3 2bbe fb6c 3fbe
000002c0: d040 8cbe 2a06 7f3d 4f35 12be 418e 7bbe
000002d0: 83c2 c1bd 715e 123e 68cd 8fbd 8e0d a3bd
000002e0: 8017 26be 5cb2 353e eb88 173d 236e 153e
000002f0: 92c9 863e 8914 d9bd 21e2 9a3d 6476 893e
00000300: 475f adbd f639 a83d 7d95 10bd c235 90be
00000310: a9e9 a4bc e3d3 88bb 12dd c4bc 052e 473d
00000320: aa61 903c 049a e1bd 7434 e2bd 7daa f2bc
00000330: 18b7 483d 1f49 6bbe 54c1 8e3e d8d4 70bd
00000340: 5ab9 29bd a05f 19be 0093 093d 7850 1bbe
00000350: 0d71 8c3c 614e 833d f60b 133e 6a29 5dbd
00000360: f847 993d 3323 343c 81d1 29be 3b08 583d
00000370: 8a42 ab3c 905d 1bbc 5a16 f33c 2614 673e
00000380: a34b a53c 8eb3 fb3d d397 b2bd 01d5 87bd
00000390: a1b7 f03d 64b1 5d3d ed32 07bc d0fc 023c
000003a0: aaf8 99bd 41ba 2c3d bbb3 313e cfe6 6f3d
000003b0: 83ba 68bd 4916 1dbe af04 62bc 5a1d 673d
000003c0: 5864 de3d c6c0 e93d dba7 99bc a5cc fdbd
000003d0: 6a0c 65be 6151 c13e d5af ad3d 49c1 b9bd
000003e0: 479b 19be ca78 c73d c8bb b1bd f50e 603e
000003f0: 4220 ab3c cd9a 413d 70c8 f1bd fff3 f43d
0.039091073 -0.06752346 0.15622579 0.008274982 -0.10247803 0.26833275 -0.2740652 0.21933058
-0.084582165 0.23569621 -0.24985442 0.116915606 -0.017988624 -0.016547304 0.2287128 0.16853535
-0.14807808 -0.064401716 -0.037692085 0.06181479 0.14076474 0.33847532 0.15648262 0.044089578
-0.0021546157 -0.014604203 -0.19244581 0.11451907 0.042901795 -0.021582957 -0.15616705 0.1292431
0.054490693 -0.024191068 -0.25934058 -0.15634161 -0.1799487 0.06106573 -0.2675882 0.25765416
0.07095485 -0.2800403 0.23463872 -0.09578742 0.060107317 0.16926514 0.24363905 -0.019726563
0.14868525 0.2314826 -0.08458715 0.1358079 0.34698316 -0.2637104 -0.039922647 0.12851001
0.13164277 -0.29039222 0.023976447 -0.1142662 -0.06286794 0.0031342807 -0.12479836 -0.28367597
-0.111759014 -0.01793102 0.021258203 0.21134725 -0.01238579 0.03871226 0.028938934 0.23700269
0.03976675 -0.0056487885 0.28089696 0.008714125 0.23003308 0.084182926 -0.23357044 0.03315825
-0.052355416 -0.048963513 0.09058328 -0.009406597 0.10939808 -0.25689623 -0.2700198 -0.08285337
0.0766271 0.0809462 0.24501921 0.055105913 -0.21430723 0.098809905 -0.05741407 -0.07323896
-0.0042503653 0.1530035 -0.10831671 -0.14214365 -0.065504916 0.0011345933 0.095358066 0.0445882
0.0059040003 0.024451794 -0.23945545 -0.010563016 -0.07927927 0.025321757 0.017511211 0.13584048
-0.0048451866 -0.124091074 -0.047105633 0.1464248 0.2552449 -0.11943255 0.048579536 -0.06980823
-0.08418985 -0.102190584 0.06827456 -0.025309997 0.07054977 -0.007618016 0.11967385 0.06827785
-0.031519424 0.17312557 -0.08861629 0.20302236 -0.111195005 -0.15254104 0.20973343 -0.2600021
-0.19990593 -0.13810667 0.024151506 -0.042079948 -0.20088062 0.0868012 -0.2634046 -0.10055721
-0.010706565 0.10022991 -0.15889132 0.22702724 -0.1756729 -0.124733455 0.11291386 0.046099536
0.06114319 -0.100319155 0.20539197 0.036236808 0.111062385 -0.13390915 0.01642208 -0.15359293
0.017443143 -0.0936908 0.28370914 0.086004555 0.11934872 -0.20232049 -0.005089637 -0.20180725
0.13468814 0.33322042 -0.07490357 0.09009929 0.15331529 -0.12563413 -0.16785987 -0.18693916
-0.27393198 0.062261738 -0.14278148 -0.24565984 -0.09460928 0.14293839 -0.070216 -0.0796157
-0.16219902 0.1774382 0.03699581 0.14592795 0.2632566 -0.1059962 0.07562662 0.26848137
-0.08465438 0.0821418 -0.035298813 -0.28166014 -0.02013095 -0.0041756495 -0.024031196 0.048627872
0.017624695 -0.11015704 -0.11045161 -0.02962231 0.049002737 -0.22977112 0.27881873 -0.058796734
-0.04143653 -0.14977884 0.033587456 -0.15167415 0.01714375 0.06411434 0.14360031 -0.053994574
0.0748443 0.01099472 -0.16583826 0.052742224 0.020905752 -0.009482756 0.029673744 0.2256628
0.020177668 0.12290107 -0.087203644 -0.06632424 0.117537744 0.05412425 -0.008251888 0.0079948455
-0.07518132 0.042169813 0.17353718 0.058569726 -0.056818496 -0.15340532 -0.013795062 0.056424476
0.10858983 0.11413722 -0.018756798 -0.123925485 -0.22368017 0.377574 0.08480803 -0.09070069
-0.1500064 0.097398356 -0.086783946 0.21880706 0.020889405 0.04726677 -0.118058085 0.11960601

action_layer.4.bias f4 [4]
00000000: e75a d93d b000 b33c cf0d 50bb 21ce 91bd
0.10613041 0.021850914 -0.0031746512 -0.07119394

value_layer.0.weight f4 [64, 8]
00000000: e565 d8be 88d2 93bd f481 41ba 5f32 363f
00000010: 57d5 ba3d e8f1 bbbd 9f96 043e 2518 3ebe
00000020: 66a3 b03e 524e fcbc 18d6 71bd 0595 1d3f
00000030: 7761 f7bd 1394 76be 50e1 e43d f036 103e
00000040: 1f5e c03e 30dc d039 76ad c13e 35e0 53bf
00000050: 4d63 22bd 1add 24bd a8c9 ce3d c8c9 3c3e
00000060: 37da 64be cf71 7cbe 2575 7e3d c17d 173f
00000070: 2fe9 76be 0683 7c3e b1a7 14be a3a7 e5bd
00000080: d46e 533f 5705 d73c f6cd a93e 0060 d1bc
00000090: ee6a 16bf d46d 22be 9acb 3d3e 1092 46bd
000000a0: bd10 ca3e ff63 26bd 2dca 26be be71 f1bd
000000b0: d187 dcbe 4331 513e 641b 6c3e 8379 52bd
000000c0: b8f2 f7bc dca0 bbbe 5662 aa3e d338 ca3e
000000d0: c103 4bbe 3b51 eebe eb52 493e 0329 cebe
000000e0: 2141 703f 5d7d c4bd 1075 dbbd 246d b33c
000000f0: f586 17bf fe91 10be 2f85 8e3c e4f4 fd3b
00000100: 1a2f 0cbf b274 173e fe61 cebe 5ede 7f3d
00000110: 3c10 49be 6d3f f63e 84d0 203e 6eb0 343e
00000120: 445b 4a3f 330d 1dbe 2c63 5d3e 98be 10bf
00000130: 85dd 7fbe 730e 18be 427a 223d a251 423e
00000140: a022 a8bc 8630 263e 2a33 71be 7d36 f53e
00000150: bdd4 c9be 2bd7 82bd e61a 293e a984 823e
00000160: 72f6 643f 6136 ddbe 649d e63e 6757 e2be
00000170: 2e1a bfbe a894 49be e7a5 9a3d 230f de3d
00000180: a857 aa3b 7563 dfbe 0640 c7bd 3c0b e0be
00000190: f1e3 023e ebe6 f53d 7b89 573e 34f9 383e
000001a0: c1d3 34be f6bf 23be 6e41 a43e c293 263f
000001b0: 4d33 00be fbb5 00be 7921 343e 11af d23e
000001c0: 069f 55bd b5fd 2bbc f0c7 b5bd dccc ab3c
000001d0: 5dc0 97bd 8897 1d3e 386a 993e 9d23 833d
000001e0: b2fe 85be d20e 3c3d 746d 2a3b f160 153f
000001f0: 24ea 913e 40f0 0dbf 61e0 dbbd 13f7 d83d
00000200: 22d9 843d 5080 48bd 72b8 063e f342 8d3e
00000210: 83d0 c73e 4f3d 15be d762 90be d475 7bbd
00000220: 1cc1 303f 632c 90be 607e 9d3e f289 5bbe
00000230: 93ba 39bf 5023 413e e290 973d b59f d3bd
00000240: d1c3 0cbf 5d2d d63e 3ad4 00bf 9376 813c
00000250: 4c62 ad3e c7ab 1bbe 7e42 fbbd b7eb 04be
00000260: e5f1 b63d 9d2d 45be d39d 8d3e e0a1 183f
00000270: c0ad 46be a281 2dbe da3e 73be 038f 92be
00000280: 749f 233f 9bef babe 3041 733d 21d9 613e
00000290: 387a f6be e39c 7abd 78d6 21be 61b7 683d
000002a0: db8a 743f 45c7 8fbe 728a 483e cc88 a3bd
000002b0: 7023 febe 1ddf 973e 0e4d ad3d cfd6 cd3d
000002c0: b9d4 113f f89c d5bc 5fa2 773e 8374 413e
000002d0: 3819 68bc e492 4cbe 9893 473e 4133 86be
000002e0: 3314 203f 6245 1abe a6ee 893d 82aa 353e
000002f0: 3954 97be c765 50bd 7d38 c13d 326d 57be
00000300: a22a 1f3f 693a 45be 9f90 0f3f d626 8e3d
00000310: b994 abbe 67d9 26be cfe2 4f3e 41a7 58be
00000320: 663c 46bf 87a9 313d 6461 d3be ecef ca3d
00000330: c753 fb3e 069c c13e 038c 313c 6f61 383e
00000340: a853 30bf 9931 203e 1a03 f1be d9b5 323f
00000350: 82b7 9e3e ae1a 013d f87c 02bb e294 ed3d
00000360: 345e 093e 5a65 303e ed0b a83d e3b5 c03d
00000370: 1277 f03e 8a19 01be c6b3 2f3d 6dcc 1abe
00000380: 9323 67be 1228 94be 7fcc 9dbe 0688 9ebe
00000390: c7fa 803e d4b3 cd3e 19ce e0bd 84f1 593d
000003a0: 4df4 c13e 5e68 36be 5a24 97be 9c43 2f3f
000003b0: 1a4b 453d db77 a3be 7510 2a3e 2a32 413d
000003c0: 7524 d83e c907 cdbc 8fc8 123f b94d 67be
000003d0: 3805 55bd c765 d0be d770 64bd a992 bcbd
000003e0: 0c11 623e 3c43 93be 3a62 883d 3318 09bf
000003f0: d3d6 57be 8fa6 eabe 41ed 85be e25e 1d3e
-0.4226524 -0.0721789 -0.000738173 0.7117061 0.091227226 -0.09176999 0.12948082 -0.18563898
0.34499663 -0.030799065 -0.059042066 0.6155551 -0.12079137 -0.24079923 0.111757874 0.14083457
0.3757181 0.00039836904 0.37827653 -0.8276399 -0.03964548 -0.04024992 0.100970566 0.18436348
-0.22348867 -0.2465279 0.062123436 0.5917626 -0.2411239 0.24659356 -0.14517094 -0.11213615
0.82590985 0.026247663 0.33164948 -0.025558472 -0.5875691 -0.15862209 0.18534699 -0.04847914
0.39465895 -0.040622707 -0.16288061 -0.11789273 -0.4307237 0.20428948 0.23057324 -0.051385414
-0.030267105 -0.36646163 0.3327815 0.39496478 -0.19825651 -0.4654635 0.19660537 -0.40265664
0.9384938 -0.09594224 -0.10715687 0.021902628 -0.59190303 -0.14118192 0.017397491 0.0077501405
-0.5475937 0.1479061 -0.40309137 0.062467925 -0.19635099 0.48095265 0.15704542 0.17645428
0.7904551 -0.15337066 0.21619862 -0.56540823 -0.24986847 -0.14849262 0.039667375 0.18976453
-0.020524323 0.16229448 -0.23554674 0.47893134 -0.3942012 -0.06388696 0.16514167 0.25491837
0.89438546 -0.4320555 0.45041955 -0.44207308 -0.3732466 -0.19685614 0.075511746 0.10842731
0.0051984377 -0.43630567 -0.097290084 -0.4375857 0.12782265 0.12006935 0.21048538 0.18063813
-0.17658903 -0.15991196 0.3208117 0.6506921 -0.1251957 -0.1256942 0.17590894 0.4114919
-0.05215361 -0.0104975 -0.08876026 0.020971708 -0.07409737 0.15389836 0.2996385 0.06403277
-0.2617088 0.04591257 0.002600518 0.58351046 0.28498948 -0.5544472 -0.10736156 0.10594001
0.06486727 -0.048950493 0.13156298 0.2759014 0.3902627 -0.14574169 -0.2820041 -0.061391667
0.6904466 -0.28158864 0.3076048 -0.2143934 -0.72550315 0.18861127 0.07400681 -0.10333196
-0.5498629 0.41831484 -0.5032383 0.01580361 0.33864057 -0.15202247 -0.12268542 -0.12980543
0.089328565 -0.19255681 0.27659473 0.59622 -0.19402218 -0.16943982 -0.23754445 -0.28624734
0.6391518 -0.3651093 0.05938834 0.22055484 -0.4814012 -0.061184775 -0.1580447 0.05681551
0.95524377 -0.28081718 0.19584063 -0.07985076 -0.49636412 0.2966241 0.08461963 0.10050737
0.56965214 -0.026075825 0.24183033 0.18892102 -0.014166169 -0.1997791 0.19489896 -0.2621098
0.6253082 -0.1506553 0.06734972 0.17740825 -0.29556444 -0.050878312 0.094346024 -0.21037748
0.6217443 -0.19260563 0.5608005 0.06941001 -0.33511904 -0.1629387 0.20301364 -0.21157552
-0.7743591 0.043374564 -0.4128524 0.09909043 0.49087355 0.3781435 0.010836604 0.18005918
-0.6887765 0.1564392 -0.4707268 0.6980873 0.3099938 0.031519584 -0.0019910913 0.11600663
0.13414842 0.17226163 0.082054 0.09409692 0.46965843 -0.12607399 0.042896055 -0.15117045
-0.22572164 -0.2893682 -0.3082008 -0.30963153 0.25191328 0.4017626 -0.1097681 0.053208843
0.378817 -0.1781325 -0.29519922 0.6846254 0.048167326 -0.3192738 0.1660784 0.04716698
0.42215315 -0.025028126 0.5733728 -0.22588243 -0.05200693 -0.4070265 -0.055771675 -0.09207661
0.22076815 -0.28762233 0.0665936 -0.5355255 -0.21078043 -0.458302 -0.26157573 0.15368226

value_layer.0.bias f4 [64]
00000000: f3cd 9f3e 3353 9c3e b530 a2be 0784 8a3e
00000010: ce18 37be 3351 f0bd efbd b43e c463 3e3e
00000020: 4ef1 6dbe e551 72be 0e9d 4d3e 9a8f 82be
00000030: 37cf 82be c858 ca3e bfdc d6bc 6eb8 aa3e
00000040: 6684 9e3e 986b 35bd 765a 80bd e694 b53e
00000050: 5f1e b93e 4d23 23be 3cde 793c bfe1 813e
00000060: 8794 86be 48a9 c03e b572 4c3e 8f70 853d
00000070: 15a9 c3bd 872d c23e 91b1 d13c 04e0 ffbc
00000080: fe3b 14be f29f 873e 6080 063e 62da e7bd
00000090: cae7 1bbe 266e 4e3e 3056 cfbe 26ee afbe
000000a0: 4c99 3abe cf21 be3e da46 e0be f957 01be
000000b0: 21aa a33d 1861 81bc e1eb ddbe d625 673e
000000c0: 0288 a83e 4ef5 b2be 342b babe 42fd 84bd
000000d0: 2799 133d 002c a83e c85f a33e be2e d2be
000000e0: 343a 833d 6aba 3fbe da93 8a3d 43f2 cbbd
000000f0: 0bf0 41be ad78 a8be ea24 a5be 2c63 a4bd
0.31211814 0.30532226 -0.31677786 0.27053854 -0.17880556 -0.117342375 0.35301158 0.18592745
-0.23236582 -0.23664053 0.20079443 -0.25500184 -0.25548717 0.3952086 -0.026228307 0.33343834
0.30960387 -0.044292063 -0.06267254 0.35465163 0.36155984 -0.15931435 0.015250739 0.25367543
-0.26285192 0.3762915 0.19965632 0.065156095 -0.09553734 0.3792536 0.025597366 -0.031234749
-0.1447601 0.26489216 0.13134909 -0.1132095 -0.1522514 0.20159206 -0.40495443 -0.3436138
-0.1822254 0.3713517 -0.43804055 -0.12631215 0.07991434 -0.015793368 -0.43344024 0.22573027
0.32916266 -0.34952778 -0.36361086 -0.064936176 0.03603473 0.3284607 0.31909013 -0.41051286
0.06407586 -0.18723455 0.06766482 -0.09958317 -0.18939225 -0.32904568 -0.32254726 -0.08026728

value_layer.2.weight f4 [64, 64]
00000000: c628 8bbe 20e0 28bf a12b 813e 59ea 4bbe
00000010: 4dfb e4bd cea8 473e 3e65 1bbe 23c7 eebd
00000020: fbda 153e 4b7c 3e3e 9a82 8bbe 6174 1d3e
00000030: d2b1 ff3d 8981 28bf c73a f9bd 056c dabe
00000040: 2668 96be e100 6f3d b9b8 b3bc dd0f 0dbe
00000050: 42fb 18be 6a67 553c ccca fbbd d0f8 86bd
00000060: 5a60 6dbd f6c2 4abe 048b 9abe e6cd 35bd
00000070: b03c 323d 50a8 04bf 0035 42bd fba1 803e
00000080: 6390 9b3e 02e8 c0bd e324 a6bd a579 3f3e
00000090: 5d37 d33c 7a43 1ebe 0c6d a13e 674c 953e
000000a0: 7fe2 0dbc aecf 8ebe f925 b43e 91ee 313d
000000b0: 74c1 27be cd86 523d 788a cd3e 8b59 35be
000000c0: 6d82 8abe 7081 433e 9805 533e 1ed4 913d
000000d0: 8814 1cbc ab62 c4be a913 c5bd 08d5 b73e
000000e0: 0978 83bd e07c b83c 849c bf3c e692 2e3d
000000f0: 7280 853e 6418 df3e 4589 02bd 2397 893d
00000100: c5d3 d1bd 367c f8bc c373 1c3e 2253 bbbc
00000110: c915 d73c 26b5 62be 4498 9ebd b56e 88bc
00000120: de6a 0dbc bb3d d73d a29f bdbd a61f d03c
00000130: 1278 66bd ef10 3fbd ad4c 37bd 083e 0a3d
00000140: c834 cf3d fd11 13be a075 9e3d 94cb 83bc
00000150: f749 1abe 8e31 84bd 64dd c13d 77b3 15be
00000160: f692 4dbd 4b12 38bd 6e3e c0ba 05e7 203e
00000170: fc45 f73d 4728 e1bd b2b4 2e3d a606 8d3c
00000180: f5bf 9f3d 6ca4 8f3d b5b4 b53d 97e0 d4bc
00000190: fb71 20bd f235 a2bd 4601 84bd ef4a a73d
000001a0: ebeb f4bb de05 80bc 47d0 cbbd 2586 07bd
000001b0: b966 00bd 626f ff3c aa2a 5cbd 010d 1ebe
000001c0: 5584 9bbd 19b1 093b 45a5 ec3c b1bf e23c
000001d0: 5067 4c3d f88c 7b3b 6b03 11be 3139 8d3d
000001e0: 50ab 1a3b 4c9c cbbd db9f f23c 3b51 a3bd
000001f0: 8d58 a4bd cbb8 283e 58da bbbc dbda f6bb
00000200: 48d6 ffbc e402 693d f949 063b af4f 3a3e
00000210: d030 2d38 d1ee ccbd 6964 033d 8ed8 903d
00000220: 35f7 973d 45d9 a33c 5309 e1bc fb9a 4dbd
00000230: 8908 1dbc 8d5b f3bc 2378 983d 7732 01be
00000240: aade b23c 9838 173e 96b0 0e3d f90b ddbd
00000250: b0e4 803d 7efd aa3d 84f7 3ebd d0fe d03d
00000260: 2145 15bd c073 0f3e 36f8 323d fd7e 0b3d
00000270: 72cd edbd 934c 0bbd b907 0fbd 13c4 8dbc
00000280: 6acd 5ebd 23de 99bc 785b 243c ce92 b03d
00000290: 2787 88bb 5014 613d 2fc5 31bd 5463 edbd
000002a0: 5ab4 673d fe84 9d3d 202d bf3a 10f3 353d
000002b0: 8a14 b13b 6453 e53b 9655 ccbd e0b8 ae3d
000002c0: 8460 503d 697c 7e3c db8b 52bd 1d29 52bd
000002d0: 1dcc 753d c86e 18bd 8c6e e4bc 978d 9d3b
000002e0: 758d aabc e16e cc3d 20ae c13d 1dc3 3f3d
000002f0: c5e3 9abd 4142 003a 7e8a 893d 4769 ff3c
00000300: 376e 6f3c ee45 233e 8825 eb3d bbf8 19bd
00000310: 560f a03d 8c93 993d e483 253e 137a a53e
00000320: 1403 33be 67dd 463e 8825 9f3d 6b72 803e
00000330: 7cb4 33bd 9517 303d 13de 5a3d e5e6 be3b
00000340: c4ac 583d c071 7b3e b741 0ebe 3b5a 3fbd
00000350: e67d a63e 0cbf 003e 5f5b 133e bc88 c63b
00000360: a4a1 023e 6246 013e a8bd ccbd 9869 9abd
00000370: 72f3 b03d 3b06 3a3d 5ea9 963e 2991 223e
00000380: 4495 f93d b16c a23d 19a7 3c3e a0dd aabd
00000390: d072 293e 4e8c ea3d bfec 69bb 5828 9ebd
000003a0: 7750 3f3d a3d1 11bd 609a 843d e712 98bd
000003b0: 2a67 22be 41b9 36bc 9a39 1c3d 54d1 223e
000003c0: f071 093c d7ee c43c b575 99bd 97ce 793e
000003d0: 0dfc 5fbe 2f68 20be f652 903e 61c3 4fba
000003e0: a9aa a5be 57fe 943e 84c8 893d 522f 18bd
000003f0: e854 7f3d a922 59bd da4e 30be f00b 28be
-0.27179545 -0.6596699 0.252286 -0.19913615 -0.11180744 0.19497988 -0.1517534 -0.11659076
0.14634316 0.18602102 -0.2724808 0.15376426 0.124850884 -0.65822655 -0.12169414 -0.42660537
-0.29376334 0.058350448 -0.021938669 -0.13775583 -0.14939597 0.013025144 -0.1229454 -0.06590426
-0.057953216 -0.19800934 -0.30184186 -0.044385813 0.043514907 -0.51819324 -0.047413826 0.2512358
0.30383596 -0.09419252 -0.08112504 0.18698747 0.025783235 -0.15455428 0.3152851 0.29159853
-0.008659958 -0.27892822 0.3518522 0.043440405 -0.1638239 0.051398087 0.40144706 -0.17709939
-0.27052632 0.19092345 0.20607603 0.07120536 -0.009526379 -0.38356528 -0.096228905 0.35904717
-0.06419379 0.022520483 0.023390062 0.042620562 0.26074558 0.43573296 -0.03186919 0.0671828
-0.1024547 -0.030332666 0.15278535 -0.02286679 0.026255505 -0.22139415 -0.07743886 -0.016654352
-0.008631436 0.10509821 -0.09258963 0.025405716 -0.05626685 -0.04664701 -0.044750858 0.033750564
0.10117489 -0.1436233 0.07737279 -0.016088285 -0.15067278 -0.06454764 0.09466055 -0.14619242
-0.05018898 -0.04493932 -0.0014667043 0.15713127 0.12073895 -0.109940104 0.042652793 0.017215084
0.07800285 0.07013783 0.08872358 -0.025985999 -0.0391712 -0.079204455 -0.064455554 0.08168589
-0.0074744127 -0.015627798 -0.09951835 -0.033086915 -0.031347964 0.031181041 -0.053751625 -0.15434648
-0.075936 0.00210101 0.0288874 0.027679296 0.049903214 0.0038383584 -0.1416146 0.06895674
0.0023600645 -0.09941921 0.02961724 -0.07974478 -0.08024702 0.16476743 -0.022931263 -0.007533414
-0.031230107 0.056887522 0.0020490868 0.1819446 4.1291874e-05 -0.10006488 0.03207818 0.070725545
0.07420198 0.020001063 -0.027470266 -0.05019663 -0.0095845545 -0.02970674 0.07444789 -0.12616907
0.02183469 0.14767683 0.034836374 -0.10793299 0.06293619 0.08349131 -0.046622768 0.102048516
-0.03644288 0.14008999 0.043693744 0.034056652 -0.11611451 -0.034008574 -0.034919474 -0.01730541
-0.054395117 -0.01878268 0.0100315735 0.08621751 -0.004166502 0.054951012 -0.04340094 -0.11591211
0.05656848 0.07691382 0.0014585592 0.044421256 0.00540406 0.0069984663 -0.09977262 0.08531356
0.050873294 0.015532591 -0.051402908 -0.05130874 0.06000911 -0.037215024 -0.027884744 0.0048081386
-0.020819405 0.09982086 0.0945704 0.046816934 -0.07562975 0.0004892685 0.067158684 0.03117813
0.01461368 0.15944645 0.11481768 -0.037590723 0.07815425 0.074988455 0.16163594 0.32319698
-0.17481643 0.19420396 0.077708304 0.25087294 -0.043873295 0.04299124 0.053434443 0.0058258646
0.052899137 0.24555111 -0.13892256 -0.04671691 0.32517928 0.12572879 0.14390324 0.0060587805
0.12756974 0.12624505 -0.099971116 -0.07539672 0.086401835 0.045416098 0.29426092 0.15875687
0.12186673 0.079308875 0.18423118 -0.08343053 0.16547704 0.11452542 -0.003569409 -0.07722539
0.046707597 -0.035600316 0.06474757 -0.0742548 -0.15859666 -0.011152566 0.03814087 0.15900165
0.008388981 0.024039669 -0.07493154 0.24395214 -0.21873493 -0.15664743 0.28188294 -0.0007925537
-0.32356766 0.29100296 0.067276984 -0.037154503 0.062336832 -0.05301157 -0.1721758 -0.16410804

value_layer.2.bias f4 [64]
00000000: ef8a 19be ddc7 423b 30d1 08be 6d48 343e
00000010: 269a edbd e502 023d b232 7dbd ab15 033c
00000020: 4159 04bd 370b 80be e5ce 52bc 7322 923c
00000030: feb0 af3d c5e9 bc3d bc51 08be 9092 933e
00000040: 08f6 a0be a462 df3d 5dbf 2d3e 0047 873c
00000050: e5a9 0dbe 543e 723d 26d2 ea3d 63dc 963d
00000060: cfbb 28bd 8b90 303d b5da 97bd 0973 3d3c
00000070: 8042 2b3e 4deb 86bd 6adc 093d 320d 69be
00000080: c250 773d 3085 183d 3fdb 53bd 7b4e abbd
00000090: 84c5 1abd 0cf2 373d a370 e8bc 81b3 163d
000000a0: 5577 133e 9ffe d33b bbf4 d43c 66de 2fbd
000000b0: c4ec 013d ec8a e13c a338 1d3e 9b8b 9e3e
000000c0: ba9b 2e3c d47f 3dbe f2ac 4e3c 2ee1 6dbc
000000d0: efec c43d 6f57 3e3e 5b8c 8fbe 9918 d33d
000000e0: 42c0 92bc 4fba 653d 8eda 403e 0a92 203d
000000f0: 219e 38bb fdc2 ddbc 9fd0 81bd 4164 cb3d
-0.14994405 0.0029721179 -0.13361049 0.17605753 -0.11601667 0.03174104 -0.061815925 0.0080007715
-0.03231168 -0.25008556 -0.01286671 0.017838692 0.085786805 0.092242755 -0.13312429 0.28822756
-0.31437707 0.10907486 0.1696753 0.016513348 -0.13834341 0.059141472 0.11465864 0.07366254
-0.041194733 0.043106597 -0.07414762 0.011563071 0.16724586 -0.06587849 0.03365747 -0.2275894
0.06037975 0.037236392 -0.05172276 -0.08364578 -0.03778602 0.04490857 -0.028374022 0.036792282
0.1440099 0.006469562 0.025995603 -0.042936705 0.031719938 0.027532063 0.15353636 0.30965886
0.010657245 -0.18505794 0.012614476 -0.014519019 0.09615504 0.18588041 -0.2803677 0.10307426
-0.017913941 0.05608588 0.18833372 0.039201774 -0.0028170424 -0.027070517 -0.063386194 0.09931231

value_layer.4.weight f4 [1, 64]
00000000: 99b4 053e 9862 8b3c f20e 263c b46a 56ba
00000010: 1a97 993d 45b3 c83c 1279 b4ba 0be3 96bc
00000020: acf4 3cbc a590 ff3d fe0a 12bd 829d 153c
00000030: e847 3abb 92cc e3bc ae95 b83d 9601 003e
00000040: 53c7 633e 3d26 5cbc 9638 b83d 61b8 b4bc
00000050: 151b 8b3d ec0f ac3c b9cb cebc 9a57 453c
00000060: e2e8 813c 2ed7 433c 2e00 663c 3012 ed38
00000070: 52d9 1b3c b15d debb 997d 183c 180c 5dbd
00000080: 92e7 8a3c deb2 843c 3ecb 30bc b6cd 1ebc
00000090: 602f 46bc de82 45bc 9144 afbc 769d 1fbc
000000a0: fab1 c6bd 8b81 d43c 0e8a 193c 3480 c6bb
000000b0: 1970 14bc 27f4 0a3c 4024 6a3e b150 433d
000000c0: ca4b 78bc 5092 4bbe c8a6 d0bb 2cee 10bb
000000d0: f284 c93c d68e dc3d f94c 8c3e d529 48bc
000000e0: e1ce f53b 86ef 9dbc 6658 213e 3921 a13b
000000f0: e1cc 283c c95e bd3b c852 2e3a bbdb c63e
0.13057174 0.017014787 0.010135399 -0.0008179352 0.074995235 0.024499545 -0.0013768992 -0.01841881
-0.011532944 0.12478761 -0.035655014 0.009131791 -0.0028424207 -0.027807508 0.09012924 0.12500605
0.22244005 -0.013436851 0.08995168 -0.022060575 0.06792275 0.021003686 -0.025243627 0.012044812
0.015858117 0.011953158 0.014038129 0.00011304428 0.009512262 -0.006786071 0.009307289 -0.05396661
0.016956124 0.016198572 -0.010790644 -0.0096926 -0.012096256 -0.012055127 -0.021395 -0.009742131
-0.09701915 0.025940677 0.009371294 -0.0060577635 -0.009059929 0.008481062 0.22865391 0.047684375
-0.015154788 -0.19880033 -0.006367538 -0.0022114618 0.024599526 0.10769431 0.27402475 -0.012217005
0.0075014685 -0.019279253 0.15756378 0.0049172905 0.010302753 0.0057791215 0.00066499086 0.38839516
