Homework8/8_gym-PPO/results/PPO_LunarLander-v3_1500-eps0.1.pth (torch, 44194 bytes, 11 tensors)

action_layer.0.weight f4 [64, 8]
0	0x3e030ce2	0.12797883
1	0x3e436ccd	0.19084473
2	0xbeb24635	-0.3481919
3	0x3ed3ee55	0.4139277
4	0x3e24c6fe	0.16091534
5	0xbe6c5921	-0.23080875
6	0x3e9534b9	0.29141787
7	0xbebe0e52	-0.371203
8	0x3e6059ac	0.21909207
9	0xbecf703b	-0.40515313
10	0xbed4e14d	-0.4157814
11	0x3da507b8	0.08058113
12	0x3ef5bf2d	0.47997418
13	0xbd9b9542	-0.07596828
14	0xbe447658	-0.1918577
15	0xbe8cf3e0	-0.27529812
16	0x3e29864e	0.1655514
17	0xbe04dc73	-0.1297472
18	0x3effaeab	0.4993795
19	0xbe82ba02	-0.25532538
20	0xbe28d572	-0.16487673
21	0xbf154bcc	-0.5831878
22	0xbe39ba01	-0.18137361
23	0x3e58a7d5	0.21157773
24	0x3d243ef7	0.04009911
25	0x3e139bf0	0.14414954
26	0x3e9cf809	0.30657986
27	0x3eab6192	0.33472878
28	0x3c147a13	0.009062308
29	0xbed79257	-0.42103836
30	0x3e329452	0.17439392
31	0xbec10fb7	-0.37707302
32	0x3eceeb77	0.4041402
33	0xbe988905	-0.29792038
34	0x3eedea1c	0.46467674
35	0x3d8e6563	0.06952932
36	0xbe9476d3	-0.28996906
37	0x3eb92af2	0.36165577
38	0x3cf078c8	0.029354468
39	0x3e6e2f99	0.23260345
40	0x3dd8e66c	0.105908245
41	0xbea6fa3e	-0.32612795
42	0x3cc16a4c	0.023610257
43	0xbed3834e	-0.41311115
44	0x3e2ea33d	0.17054458
45	0x3e903159	0.2816265
46	0x3ec3158f	0.38102385
47	0x3eb76afd	0.35823813
48	0xbe0a2f6c	-0.13494653
49	0x3e4a4e57	0.19756447
50	0xbe10007c	-0.14062685
51	0x3e8ce403	0.2751771
52	0x3e410ff4	0.18853742
53	0x3dc455a2	0.09586646
54	0xbf1a0408	-0.601624
55	0xbf03a254	-0.5141957
56	0xbe658614	-0.22414428
57	0xbe26aa17	-0.16275822
58	0xbed48688	-0.4150889
59	0x3e645e40	0.22301579
60	0x3ea281ad	0.3173956
61	0xbe7118fc	-0.23544687
62	0xbe657db8	-0.22411239
63	0xbed7eccf	-0.42172858
64	0x3ea4b9c1	0.3217297
65	0xbd750c21	-0.05982602
66	0x3ef0c213	0.47023067
67	0xbdecc4c0	-0.115609646
68	0xbed5116e	-0.4161486
69	0xbeeb3725	-0.4594051
70	0x3ef7321a	0.48280412
71	0x3f072c0e	0.528016
72	0x3de8a517	0.113596134
73	0xbe864329	-0.26223114
74	0x3eec9983	0.4621087
75	0xbe32870a	-0.17434326
76	0xbf36af02	-0.7136079
77	0xbf25f021	-0.6481953
78	0x3f2b89be	0.6700705
79	0x3f1e0d17	0.61738724
80	0xbe4fd586	-0.20296296
81	0x3e142a39	0.14469232
82	0x3e41ccd2	0.18925789
83	0x3e1a7c8e	0.15086576
84	0xbdff6604	-0.1247063
85	0xbca4c330	-0.020112604
86	0x3e1966cf	0.14980625
87	0xbe907fdf	-0.28222558
88	0xbd719b9d	-0.058986295
89	0xbeb25c35	-0.34835973
90	0x3e976726	0.29570884
91	0xbcbf28c9	-0.023334878
92	0x3ca15fc6	0.019698989
93	0xbdeb2181	-0.11481
94	0x3ecaa77c	0.39580905
95	0xbd2222eb	-0.03958408
96	0xbe56dc45	-0.20982464
97	0xbe720be9	-0.23637356
98	0xbddc843c	-0.10767409
99	0x3d6b15bc	0.057393774
100	0x3f03ca53	0.514806
101	0x3f030104	0.51173425
102	0x3ef2845e	0.47366613
103	0xbe05edd4	-0.13079005
104	0xbd13e23d	-0.03610443
105	0xbe1de26f	-0.15418409
106	0xbe09d6da	-0.13460866
107	0x3e166ec7	0.14690696
108	0xbdb460d2	-0.088075295
109	0xbdb3b783	-0.087752365
110	0xbdd008bc	-0.10157916
111	0xbe791659	-0.24324931
112	0x3dfbefdc	0.12301609
113	0x3c3935fe	0.011304377
114	0x3e952475	0.29129377
115	0x3dfcd1fd	0.123447396
116	0xbf406d88	-0.7516713
117	0xbf454847	-0.7706341
118	0x3e919d92	0.2844053
119	0x3d03de04	0.032194152
120	0xbe816996	-0.25275868
121	0xbdccc171	-0.099978335
122	0xbe7d25f1	-0.24721505
123	0x3e859587	0.26090643
124	0xbe0a1571	-0.13484742
125	0xbe9f2ffb	-0.31091294
126	0xbea3e2df	-0.32009026
127	0xbebfca64	-0.374591
128	0xbe10b34d	-0.14130898
129	0x3e8ad38c	0.27114522
130	0xbd1bc04c	-0.038025185
131	0x3eaa1ec2	0.3322659
132	0xbf05317e	-0.52028644
133	0xbebf354b	-0.37345347
134	0xbe1ec38b	-0.15504281
135	0x3cec485e	0.028843101
136	0x3e06dfa6	0.13171253
137	0x3d415b1d	0.047206033
138	0x3e59c4ae	0.21266434
139	0x3e015891	0.12631442
140	0xbf10234f	-0.56303877
141	0xbe81805d	-0.25293246
142	0x3cc7e6c4	0.02440203
143	0xbe7072e1	-0.23481323
144	0xbdbac38b	-0.09119328
145	0x3da78b13	0.08180823
146	0xbea759e2	-0.32685763
147	0x3ed55664	0.41667473
148	0x3eb3bf53	0.35106906
149	0x3f1d8e00	0.615448
150	0xbe7453db	-0.23860113
151	0xbf062080	-0.5239334
152	0x3d96a433	0.07355537
153	0xbe9b1bfd	-0.3029479
154	0xbe844dfb	-0.25840744
155	0x3c7d81a6	0.015472805
156	0x3e7194d5	0.23591931
157	0x3e1056b5	0.14095576
158	0xbe01b534	-0.1266678
159	0x3dce0a3e	0.10060547
160	0xbdc67a4b	-0.09691294
161	0xbea3da2e	-0.32002395
162	0x3ae28674	0.0017282502
163	0xbe4f0d7d	-0.20219989
164	0xbc473156	-0.012157759
165	0x3e20534c	0.15656775
166	0x3edec3f6	0.4350888
167	0x3d7260e3	0.05917443
168	0xbda4935f	-0.08035921
169	0xbe3d9439	-0.18513574
170	0x3e7115fd	0.23543544
171	0xbd9ebe1a	-0.07751103
172	0xbf218334	-0.63090825
173	0xbf1e7ab4	-0.6190598
174	0x3e7178b0	0.23581195
175	0x3e962f58	0.29332995
176	0xbd99750f	-0.0749303
177	0xbc8f7b68	-0.0175149
178	0x3c210da0	0.009829909
179	0xbeaec78e	-0.34136623
180	0x3e8d33d8	0.27578616
181	0x3ee5cd98	0.44883418
182	0xbe591f79	-0.21203412
183	0x3ea234fe	0.31681055
184	0xbe0a1114	-0.13483077
185	0xbcb7241c	-0.022356085
186	0xbe9b3b30	-0.30318594
187	0xbee1420d	-0.43995705
188	0x3ede038e	0.43362087
189	0x3f236ed0	0.6384096
190	0x3ead0bca	0.33798057
191	0x3d747065	0.0596775
192	0xbed02954	-0.4065653
193	0x3e7583da	0.23976079
194	0xbcee3b0c	-0.02908089
195	0x3e47d70e	0.1951563
196	0x3da5de98	0.08099097
197	0xbda41f30	-0.08013761
198	0x3de0348b	0.10947522
199	0xbe19b5b2	-0.15010718
200	0xbdbeecc7	-0.093225054
201	0x3ea9cd97	0.33164665
202	0x3dc031d9	0.09384508
203	0x3e078b29	0.13236679
204	0x3e0b506b	0.13604896
205	0x3eb9faca	0.3632415
206	0x3e1b8b5f	0.15189885
207	0xbef2f300	-0.4745102
208	0x3e9ae279	0.3025091
209	0xbd23daf1	-0.04000372
210	0x3f002e59	0.5007072
211	0xbe97f66a	-0.29680187
212	0xbe2f0c00	-0.17094421
213	0xbe8e0e50	-0.27745295
214	0x3eead55c	0.45865905
215	0x3ef12ddf	0.4710531
216	0x3d0f1114	0.034928396
217	0x3ebe7026	0.37194937
218	0xbe4cdc20	-0.20005846
219	0x3e80fced	0.25192967
220	0x3ee4d5f2	0.44694477
221	0x3d106a39	0.03525755
222	0xbe846caf	-0.2586417
223	0x3df19a73	0.11797037
224	0xbd605f40	-0.054778337
225	0x3e542e34	0.2072075
226	0x3ca83b2a	0.020536024
227	0x3e5bc282	0.21460918
228	0xbdee9909	-0.11650283
229	0xbec5e9b4	-0.38654864
230	0x3e094805	0.1340638
231	0xbe47fd30	-0.19530177
232	0xbeac1d9e	-0.33616346
233	0xbe807f03	-0.25096902
234	0xbe8db63b	-0.27678093
235	0x3eb09c53	0.34494266
236	0x3efa6c3e	0.48910707
237	0xbe4c669b	-0.19961016
238	0xbbcfad14	-0.006337771
239	0xbe9bc483	-0.30423364
240	0xbe0d1b46	-0.13779935
241	0xbe84bd55	-0.259257
242	0x3dc9dd34	0.09856644
243	0xbd4f0064	-0.050537482
244	0xbc9dc9b3	-0.019261217
245	0x3e21a7a2	0.15786603
246	0xbceb6951	-0.028736742
247	0x3cb137b9	0.021633016
248	0x3e90a87b	0.2825354
249	0xbea92e18	-0.3304298
250	0x3ea0156b	0.3126634
251	0xbec4837b	-0.38381562
252	0xbd6472f2	-0.055773683
253	0x3ea78a9c	0.32722938
254	0xbe1604cf	-0.14650272
255	0x3ea0f59a	0.3143738

action_layer.0.bias f4 [64]
0	0x3da5c6a7	0.080945306
1	0xbd9d787d	-0.07688997
2	0x3d8707c7	0.0659328
3	0x3e90d9ca	0.2829116
4	0xb9e9d93b	-0.00044603072
5	0x3b04e872	0.002028015
6	0xbd9b4128	-0.07580787
7	0xbd762af7	-0.06009957
8	0xba334535	-0.0006838621
9	0x3e954ac7	0.29158613
10	0x3ea0fb3d	0.3144168
11	0x3d7b8d11	0.06141383
12	0x3e7e068d	0.24807186
13	0xbd9c46a0	-0.07630658
14	0x3e2eadb2	0.17058447
15	0xbe3a77f4	-0.18209821
16	0xbd6d0a99	-0.057871435
17	0xbe0b0e28	-0.13579619
18	0x3e5e93a9	0.21736015
19	0x3e90ccb3	0.28281173
20	0xbda83547	-0.08213287
21	0x3e9e87cf	0.3096299
22	0xbe0a9d03	-0.13536458
23	0x3c504850	0.012712553
24	0x3ddb68c9	0.107133456
25	0xbcc58872	-0.024112914
26	0x3e0fc921	0.14041568
27	0xbc6eb1fd	-0.014568803
28	0xbd67a6b3	-0.05655546
29	0xbe03c882	-0.12869456
30	0x3e842f50	0.25817347
31	0x3e36f875	0.17868216
32	0xbdf87d52	-0.12133278
33	0xbe17be9e	-0.14818808
34	0xbe92de30	-0.2868514
35	0x3d9086ff	0.070569985
36	0x3d4cfa67	0.05004349
37	0x3dcffe4c	0.10155925
38	0xbe0237a6	-0.1271654
39	0x3eab7ffc	0.33496082
40	0x3dce82af	0.1008352
41	0xbd3c4953	-0.045968365
42	0xbe1d89d6	-0.15384611
43	0xbe8f5efd	-0.28002158
44	0x3e86cdc0	0.2632885
45	0x3e0bdb9f	0.13657998
46	0x3e3c7ff2	0.18408182
47	0xbe1a4767	-0.150663
48	0xbe965864	-0.29364312
49	0x3a0be52d	0.0005336579
50	0x3d213cc5	0.039364595
51	0xbe41e53c	-0.18935102
52	0x3e8bac08	0.27279687
53	0xbccbdf8c	-0.024886869
54	0x3e9b9b52	0.30391937
55	0xbea38a09	-0.3194125
56	0xbe986e5a	-0.29771692
57	0xbdf7a550	-0.12092078
58	0x3e99a198	0.300061
59	0xbca04a4b	-0.019566676
60	0xbe762ff9	-0.24041738
61	0x3e1c6887	0.15274249
62	0xbe424f9d	-0.18975683
63	0xbd11477b	-0.03546856

action_layer.2.weight f4 [64, 64]
0	0x3deaac73	0.11458673
1	0xbdcf685f	-0.10127329
2	0xbe18553b	-0.14876263
3	0x3e043920	0.12912416
4	0x3d9fd547	0.07804351
5	0xbf0dcdaf	-0.55391973
6	0x3e766d71	0.24065186
7	0xbc900f42	-0.0175854
8	0xbe1390c2	-0.1441069
9	0x3c312604	0.010812286
10	0x3d1a6e20	0.03770268
11	0xbdc363da	-0.095405295
12	0xbe1cf2c3	-0.15326981
13	0xbd618161	-0.055055026
14	0x3e1a6249	0.15076555
15	0x3dd9252f	0.10602795
16	0x3e757c98	0.2397331
17	0x3db9d526	0.09073858
18	0x3bb71ca7	0.0055881324
19	0xbdb9a3f5	-0.090644754
20	0xbcbed94a	-0.02329697
21	0x3e05d1c0	0.13068295
22	0xbdc6d0ef	-0.0970782
23	0xbe6aa0dd	-0.22912927
24	0x3dc900a3	0.098145746
25	0xbd39a20b	-0.04532055
26	0x3d8ccb17	0.06874674
27	0x3e2f010f	0.17090248
28	0x3e1d5483	0.1536427
29	0xbc901416	-0.017587703
30	0xbd25df46	-0.040496133
31	0xbe277fe0	-0.16357374
32	0xbe1602a2	-0.14649442
33	0x3e5464ec	0.20741624
34	0xbcf86421	-0.030321183
35	0xbea83d2b	-0.32859167
36	0xbe67ee4f	-0.22649501
37	0xbebaf67f	-0.36516187
38	0xbe889824	-0.26678574
39	0x3e2bfc90	0.16795564
40	0x3db7cabb	0.08974215
41	0x3eb64f1d	0.35607234
42	0x3cb1f4c3	0.021723157
43	0x3cb6f47d	0.022333378
44	0xbd0e6b91	-0.034770552
45	0x3eb3b2ac	0.35097253
46	0xbde68056	-0.11254947
47	0x3d6bb66c	0.057547018
48	0x3e524831	0.20535351
49	0x3cc9c914	0.024632014
50	0xbdf1a234	-0.11798516
51	0x3d5d8ee2	0.05409134
52	0x3dd6363c	0.10459563
53	0xbe1a06d9	-0.15041675
54	0xbd03cf9f	-0.032180425
55	0x3e1fd9a3	0.15610366
56	0x3c28b963	0.010298106
57	0xbd6ed047	-0.058304098
58	0x3dc424fc	0.09577367
59	0x3d8dd19b	0.06924745
60	0xbe83483e	-0.25641054
61	0xbea62311	-0.3244863
62	0xbe907326	-0.2821285
63	0xbced5a1c	-0.028973632
64	0x3e0dcfb7	0.13848768
65	0xbcc82483	-0.024431473
66	0x3dec64a9	0.11542637
67	0x3d8b038f	0.06787788
68	0x3dc6772f	0.09690701
69	0xbeb598f8	-0.35468268
70	0x3d33921d	0.043840516
71	0x3da3d49f	0.07999539
72	0x3ddd0a7d	0.10793016
73	0xbd02374e	-0.031791024
74	0xbd2e758a	-0.042592563
75	0xbd0c9940	-0.034325838
76	0xbdd425db	-0.10358783
77	0x3deba2a6	0.11505632
78	0x3e2b6dcf	0.16741107
79	0x3d594a6d	0.053049494
80	0x3e84fb25	0.25972858
81	0x3e3a771e	0.18209502
82	0x3d49f66e	0.04930728
83	0xbe597399	-0.21235503
84	0xbcb7c2d4	-0.022431768
85	0xbcd16665	-0.02556152
86	0xbdb20224	-0.086918145
87	0xbe34c36d	-0.17652674
88	0xbd665be5	-0.05623998
89	0xbdbc2bbd	-0.0918803
90	0xbd0f6595	-0.035008986
91	0x3dbc7f76	0.09203999
92	0x3e75cf6b	0.24004905
93	0xbde9abf7	-0.11409753
94	0xbcb812df	-0.022469936
95	0xbd08198b	-0.033227485
96	0xbe293428	-0.16523802
97	0x3e42d8bf	0.19027995
98	0x3dc39f77	0.095519
99	0xbe963feb	-0.2934564
100	0x3bd4909f	0.0064869667
101	0xbe98f700	-0.29875946
102	0xbcbcad5c	-0.023031883
103	0x3da0ec18	0.07857531
104	0x3e4977a6	0.19674549
105	0x3e71b2db	0.23603384
106	0xbd8fa58a	-0.07013996
107	0x3d34dac7	0.044153955
108	0xbe7c8ba4	-0.24662644
109	0x3e0b241c	0.13587993
110	0x3c9555a1	0.018229308
111	0xbe44a483	-0.19203381
112	0x3e69161c	0.2276234
113	0x3cfb7d7b	0.030699482
114	0xbde71a0f	-0.11284267
115	0x3e32da0c	0.17465991
116	0xbcfb969b	-0.030711463
117	0x3d908202	0.07056047
118	0x3e505095	0.2034324
119	0x3e1612cb	0.14655606
120	0x3d862723	0.065504335
121	0x3c82a4c2	0.015947703
122	0xbcd29654	-0.025706448
123	0xbe141bae	-0.14463684
124	0xbe5389e1	-0.20658065
125	0xbe8d050c	-0.27542913
126	0xbe290d37	-0.16508947
127	0xbcfb90a4	-0.030708618
128	0xbdb8ceb3	-0.090238
129	0xbc86d720	-0.016460001
130	0x3dba7735	0.09104768
131	0x3d540566	0.05176296
132	0x3e4ea8fc	0.2018165
133	0xbd1c4ee4	-0.038161173
134	0x3df632b0	0.120213866
135	0x3d2160b8	0.03939888
136	0x3ddd074e	0.10792409
137	0x3e4242cb	0.18970792
138	0xbd97d09d	-0.07412837
139	0xbd2d9f5c	-0.042388305
140	0xbea3b8c1	-0.31976894
141	0x3dccfd64	0.10009268
142	0x3e9ee4ac	0.31033838
143	0xbb57d14a	-0.0032931142
144	0x3ebe2c17	0.37143013
145	0x3e8d97a3	0.27654752
146	0xbe59bffa	-0.2126464
147	0xbe28f2c5	-0.16498859
148	0xbd886af7	-0.06661027
149	0x3e3a1b28	0.18174422
150	0x3cd731a3	0.026268786
151	0xbe4c88c5	-0.19974048
152	0xbd4b4fb5	-0.04963656
153	0xbe129c92	-0.1431754
154	0xbdc2e7a8	-0.09516841
155	0xbdcc80f5	-0.09985534
156	0x3dd8ac72	0.10579766
157	0x3d25df2a	0.04049603
158	0xbd3dd191	-0.046342436
159	0x3dd5c8ae	0.10438667
160	0x3ca2683b	0.019825092
161	0xb980083e	-0.00024420203
162	0x3ccdf0da	0.025139261
163	0xbe7ffd82	-0.2499905
164	0xbd683e67	-0.056700137
165	0xbe59491a	-0.21219292
166	0x3d9897b5	0.07450811
167	0xbe115542	-0.1419268
168	0xbcce688e	-0.02519634
169	0x3df1d1c0	0.11807585
170	0xbbc65522	-0.006052629
171	0x3e434d04	0.19072348
172	0xbe8d7cc1	-0.27634242
173	0xbccc0412	-0.024904285
174	0xbc80bac6	-0.01571406
175	0xbcb4fd41	-0.022093417
176	0x3e94e9b6	0.29084557
177	0xbd3fffab	-0.046874683
178	0xbd1137d0	-0.035453618
179	0x3ea35806	0.31903094
180	0xbdca2da2	-0.09871985
181	0xbce4a13e	-0.027908918
182	0x3e52c94d	0.20584603
183	0x3dcdba46	0.100452945
184	0xbd4210b9	-0.04737923
185	0x3dc2e968	0.09517175
186	0x3dec1230	0.115269065
187	0x3d27085c	0.040779456
188	0xbdad2556	-0.08454387
189	0xbc88f067	-0.016716195
190	0xbcff9cb2	-0.031202648
191	0x3de6279f	0.11238026
192	0xbd9ad0ba	-0.07559343
193	0x3dad1578	0.084513605
194	0x3df6319f	0.12021183
195	0xbdc6bf9f	-0.097045176
196	0x3d903d93	0.07042994
197	0x3efc3e5a	0.4926632
198	0xbd3be7ea	-0.045875467
199	0xbce4942a	-0.027902681
200	0xbe18b4e8	-0.1491276
201	0x3d9d12de	0.07669614
202	0x3daf398e	0.085558996
203	0xbcd10892	-0.025516782
204	0x3e916f96	0.28405446
205	0x3cdb2b30	0.026753992
206	0xbda9e9bb	-0.08296534
207	0x3da65815	0.08122269
208	0xbebb551c	-0.3658837
209	0xbdf65d66	-0.12029533
210	0xbdc3369a	-0.09531899
211	0x3e0729be	0.13199517
212	0x3db82094	0.08990589
213	0xbd86a35e	-0.065741286
214	0x3e3ffcf6	0.1874884
215	0x3d483896	0.04888209
216	0x3c3a1e33	0.011359739
217	0x3be30518	0.0069280975
218	0x3df942e8	0.121709645
219	0xbdd2d0a3	-0.102937005
220	0xbe48fb7b	-0.19627182
221	0x3d8016a2	0.06254317
222	0x3cb764de	0.022386964
223	0x3e1fae36	0.155938
224	0x3e84b100	0.2591629
225	0xbde5ec4c	-0.11226711
226	0x3df6d164	0.12051657
227	0x3e83e314	0.25759184
228	0x3df18d43	0.11794522
229	0x3eb82f0a	0.35973388
230	0x3ea0133e	0.3126468
231	0xbd210cd5	-0.03931888
232	0xbdff9f9c	-0.12481615
233	0xbe91bea1	-0.2846575
234	0xbdec3515	-0.11533562
235	0x3d737c95	0.059444983
236	0x3e1cae27	0.15300809
237	0xbedc0b2b	-0.4297727
238	0x3dc7c0ff	0.09753608
239	0x3c31bcf4	0.010848273
240	0xbe2f2e24	-0.17107445
241	0x3e0d8e95	0.13823922
242	0x3da643d0	0.08118403
243	0xbdcda2d3	-0.10040822
244	0x3d0af21f	0.03392231
245	0x3da382e2	0.07983948
246	0xbdc5b2f8	-0.09653276
247	0xbce3ca5a	-0.02780645
248	0xbd04d0d7	-0.032425728
249	0x3e1cc42b	0.15309207
250	0xbd9a55de	-0.07535909
251	0xbc8afddf	-0.016966758
252	0x3e15489f	0.14578484
253	0x3e9f087a	0.31061155
254	0x3e9f21fe	0.3108062
255	0x3c54d6fd	0.01299071

action_layer.2.bias f4 [64]
0	0x3c330a97	0.010927818
1	0xbdecd80a	-0.11564644
2	0xbdfd6df5	-0.12374488
3	0x3dafbe17	0.08581179
4	0xbd689ff1	-0.056793157
5	0x3d6d0a74	0.057871297
6	0xbced884b	-0.028995654
7	0xbd685e28	-0.05673042
8	0x3d059ff6	0.032623254
9	0x3d73bb19	0.059504602
10	0xbd05b1b8	-0.03264019
11	0x3def9426	0.11698179
12	0x3d0024ad	0.031284977
13	0xbcc21c1c	-0.023695044
14	0x3c023c2e	0.007948918
15	0xbcf9f34a	-0.030511517
16	0xbd375b9a	-0.044765092
17	0xbd95d450	-0.07315886
18	0x3d651e1e	0.055936925
19	0x3dd4203c	0.10357711
20	0xbcde76e0	-0.027156293
21	0xbd956485	-0.07294563
22	0xbdc65e18	-0.09685916
23	0x3e164f87	0.14678775
24	0x3c619290	0.013767853
25	0xbdc0e73b	-0.09419104
26	0x3c7486d7	0.014924726
27	0x3bc11119	0.005891931
28	0x3d74369b	0.05962239
29	0xbdc748b4	-0.09730664
30	0x3d8f1da7	0.069880776
31	0xbd28fd31	-0.041257087
32	0xbe34699c	-0.17618412
33	0xbd96f892	-0.0737163
34	0xbda2532e	-0.079260215
35	0xbd46d15d	-0.048539508
36	0x3db2a77d	0.08723352
37	0xbdba24d5	-0.090890564
38	0x3e4b265e	0.19838855
39	0x3c541580	0.012944579
40	0xbcd0243f	-0.025407908
41	0x3d6afefd	0.057372082
42	0xbd49c4e6	-0.049260043
43	0xbde95b32	-0.11394347
44	0xbd8704af	-0.0659269
45	0xbde7cd13	-0.11318412
46	0x3d3067ff	0.04306793
47	0xbd0b7e97	-0.034056272
48	0x3d37cb52	0.044871636
49	0x3b816b9c	0.0039495956
50	0x3d87ee9e	0.066373095
51	0x3ca8d4bf	0.020609258
52	0x3cb043e3	0.021516746
53	0x3d7c3b64	0.061580077
54	0xbc9efd9e	-0.019408043
55	0xbd5c460b	-0.053777736
56	0xbc43ac57	-0.0119429445
57	0xbdbccc41	-0.09218646
58	0xbd63c60b	-0.05560879
59	0xbdae767a	-0.08518691
60	0x3bb5a060	0.0055428
61	0x3d841984	0.06450179
62	0x3d861a06	0.06547932
63	0x3e259981	0.16171838

action_layer.4.weight f4 [4, 64]
0	0x3ed08135	0.40723577
1	0x3dedf464	0.116188794
2	0xbd979a39	-0.074024625
3	0xbea61e91	-0.32445195
4	0x3ebc3734	0.36760867
5	0xbf0618f5	-0.5238183
6	0x3d99f4ae	0.07517372
7	0x3d9f3dac	0.07775435
8	0xbd5d9d36	-0.054105006
9	0x3e5adbf1	0.21372963
10	0xbe1caec6	-0.15301046
11	0x3dd28960	0.102801085
12	0xbd9e7dc6	-0.07738833
13	0xbef07cb4	-0.4697014
14	0x3dfd3262	0.123631254
15	0xbd55a81d	-0.05216228
16	0x3dace0d9	0.08441324
17	0xbebaa02c	-0.36450326
18	0xbd9facb0	-0.077966094
19	0x3e5f6cbe	0.21818826
20	0x3ed02ba7	0.40658304
21	0x3e315b20	0.17319918
22	0x3d883c59	0.066521354
23	0x3e3601d8	0.17774141
24	0x3e1cd186	0.15314302
25	0xbea0f78e	-0.3143887
26	0x3d7e41f0	0.0620746
27	0x3ea69d72	0.32541996
28	0xbd6fd490	-0.058552325
29	0xbe0f7b8e	-0.14011976
30	0x3d708036	0.05871602
31	0xbe9fd059	-0.31213644
32	0xbdccc86f	-0.09999167
33	0xbe190e3d	-0.14946838
34	0xbec27263	-0.37977895
35	0xbe8164aa	-0.25272113
36	0xbe5358a9	-0.2063929
37	0x3f04270a	0.5162207
38	0x3dd09e1c	0.10186407
39	0x3e1119e6	0.14170036
40	0xbd81feb8	-0.06347412
41	0x3ee36971	0.44416383
42	0x3eab66d8	0.334769
43	0x3d6582fe	0.056033127
44	0xbeb284a4	-0.34866822
45	0xbe73a366	-0.237928
46	0x3da898f5	0.08232299
47	0xbef4ea3b	-0.47834954
48	0x3e99abc9	0.30013874
49	0x3ed8e857	0.4236476
50	0xbe0033fa	-0.12519827
51	0xbe930c08	-0.28720117
52	0x3efe743e	0.4969806
53	0xbe96e4d9	-0.29471472
54	0xbe5e8490	-0.21730256
55	0xbe860fb1	-0.26183847
56	0x3e946b42	0.2898808
57	0x3eeea7de	0.46612448
58	0xbe9a01aa	-0.30079395
59	0xbe6bed69	-0.23039784
60	0x3e49477b	0.19656174
61	0x3e661fb2	0.22473028
62	0xbe9c3418	-0.30508494
63	0x3dbcaf5c	0.09213135
64	0x3d6ab6c6	0.057303213
65	0x3e961206	0.29310626
66	0x3e9898e5	0.2980415
67	0xbe842ca7	-0.25815317
68	0xbe21a26d	-0.15784617
69	0xbccfb1f6	-0.025353413
70	0xbe516d89	-0.2045194
71	0x3e1fcbe5	0.15605123
72	0xbddefcb3	-0.10888042
73	0x3e2b6515	0.16737778
74	0xbca4332d	-0.020043934
75	0x3dcffb3e	0.101553425
76	0x3e1cc9cc	0.15311354
77	0xbdfab8fe	-0.12242316
78	0x3d13f98c	0.03612666
79	0xbea85bc2	-0.32882506
80	0x3ed76371	0.42068055
81	0xbd8f09a4	-0.06984261
82	0xbe4c0754	-0.1992467
83	0x3dcd5478	0.10025877
84	0x3e822925	0.25422016
85	0x3ea0f6dc	0.3143834
86	0x3e317743	0.17330651
87	0xbe1b2532	-0.15150908
88	0x3e7cabe4	0.24674946
89	0xbddb14c4	-0.1069732
90	0x3dd91495	0.10599629
91	0xbde8be35	-0.11364404
92	0xbde24b47	-0.11049514
93	0x3e9aeb34	0.3025757
94	0xbe40ed13	-0.18840437
95	0xbe9facfb	-0.3118666
96	0x3e6aa5eb	0.22914855
97	0x3e5836af	0.2111461
98	0x3ea67d35	0.325174
99	0x3e8280b9	0.25488833
100	0xbdc44a7d	-0.0958452
101	0xbe19c08f	-0.15014862
102	0xbe90f3bd	-0.28310958
103	0x3e1292c8	0.14313805
104	0x3d4c070e	0.049811415
105	0x3cf9844e	0.030458596
106	0xbe4f7c1d	-0.20262189
107	0xbdd43e79	-0.10363478
108	0x3e2b7bb2	0.16746405
109	0x3d9f97ef	0.07792651
110	0xbe80c129	-0.2514737
111	0x3c88e4b1	0.016710611
112	0xbe617b69	-0.22019733
113	0xbdf6018f	-0.12012016
114	0xbe892d58	-0.26792407
115	0x3e81270f	0.25225112
116	0x3df96028	0.121765435
117	0x3e825a61	0.2545958
118	0xbe4bca2b	-0.1990134
119	0x3e95fc86	0.29294223
120	0x3e823391	0.25429967
121	0xbc921d81	-0.017836334
122	0x3de63fc1	0.11242629
123	0x3e57e003	0.21081547
124	0xbe76a68e	-0.24086973
125	0xbe31a5bf	-0.17348383
126	0xbcbed677	-0.023295624
127	0xbe6bb37a	-0.23017684
128	0xbeaa0ee0	-0.33214474
129	0xbe6eb57d	-0.2331142
130	0xbe2c81e7	-0.16846429
131	0x3ea0917c	0.31360996
132	0xbeb41c93	-0.3517805
133	0x3f2195dd	0.631193
134	0xbcad9a5a	-0.021191765
135	0x3db9eaab	0.090779625
136	0x3ea1fc54	0.31637824
137	0xbc919021	-0.017768921
138	0xbddc8092	-0.1076671
139	0x3e5aa51a	0.21352044
140	0xbd867073	-0.06564417
141	0x3ee6618d	0.449963
142	0xbe59dde1	-0.21276046
143	0x3e848d2e	0.25888962
144	0xbe75a703	-0.23989491
145	0x3eed4d46	0.46348017
146	0x3e3fe4a7	0.18739568
147	0xbd3f112b	-0.046647232
148	0xbe7b9d7a	-0.24571791
149	0xbd766c29	-0.060161743
150	0xbe73cc67	-0.23808442
151	0x3dde8d88	0.10866839
152	0xbe79044d	-0.24318047
153	0x3eb07aa9	0.34468582
154	0xbe3e8a9c	-0.18607563
155	0xbebb4ce0	-0.36582088
156	0xbdeb94b6	-0.11502974
157	0xbe2afd8b	-0.16698281
158	0x3dca79ca	0.09886511
159	0x3e305951	0.17221572
160	0x3c4d9d5d	0.012549725
161	0x3e189263	0.14899592
162	0x3ee49ccf	0.44650885
163	0x3f16877b	0.58800477
164	0x3c82dd61	0.015974702
165	0xbf313f86	-0.69237554
166	0x3d54d75f	0.051963206
167	0xbe87ab48	-0.26497865
168	0xbe2c1b40	-0.1680727
169	0xbf11234c	-0.56694484
170	0xbe87cc1c	-0.2652291
171	0xbe0a0529	-0.13478531
172	0x3ef17681	0.47160724
173	0x3e2a4796	0.1662887
174	0xbe52e5f8	-0.20595539
175	0x3f1a6bdb	0.60320824
176	0xbe70df4a	-0.23522678
177	0xbef0fa0e	-0.47065777
178	0x3eab3bca	0.33444053
179	0x3e872917	0.26398537
180	0xbee05e6e	-0.43822044
181	0x3eba14df	0.36344048
182	0x3ebd128d	0.36928216
183	0x3e5fce18	0.21855962
184	0xbe95fd2e	-0.29294723
185	0xbf202ecd	-0.6257141
186	0x3e9addbc	0.30247295
187	0x3e727f93	0.23681478
188	0xbe10c074	-0.14135915
189	0xbeed7f2c	-0.46386087
190	0x3e8fa886	0.2805826
191	0x3e1412f7	0.1446036
192	0xbe8d94b0	-0.27652502
193	0xbcf27f7d	-0.029601807
194	0xbe7e1e37	-0.24816214
195	0x3e0e489c	0.13894886
196	0x3dfb1e9c	0.12261698
197	0x3e0b6f39	0.13616647
198	0xbce019db	-0.027356079
199	0xbe92c68d	-0.28667107
200	0xbdde23aa	-0.10846646
201	0xbefb7f47	-0.49120542
202	0x3e9e026e	0.3086123
203	0xbee33054	-0.4437281
204	0x3e648498	0.22316206
205	0x3e4d0ab6	0.20023617
206	0x3f19c3c2	0.6006433
207	0x3c264508	0.010148294
208	0xbe18661d	-0.14882703
209	0x3dfc5a6b	0.12321933
210	0xbdf7524b	-0.12076243
211	0xbeb47f46	-0.35253352
212	0xbe6c1198	-0.23053586
213	0xbe9048ad	-0.28180447
214	0x3e27660c	0.16347522
215	0xbe426dc7	-0.18987189
216	0xbe3dd70e	-0.18539068
217	0x3d693553	0.05693562
218	0x3e6f2684	0.23354536
219	0x3e1ffe27	0.15624295
220	0x3e9219b9	0.2853525
221	0x3d845e13	0.06463256
222	0xbe2b5be2	-0.1673427
223	0x3eac5a2a	0.3366254
224	0x3b7e58dc	0.0038810289
225	0x3d1da889	0.038490806
226	0xbea27186	-0.31727237
227	0xbc159fa2	-0.009132298
228	0x3f0971b0	0.536891
229	0x3d79622f	0.06088465
230	0x3d4e1f5f	0.050322887
231	0xbd9688ca	-0.07350309
232	0x3ea11340	0.3146
233	0x3d4e63a0	0.05038798
234	0x3e8dd0ee	0.27698463
235	0x3eef1797	0.46697685
236	0xbec13312	-0.37734276
237	0x3e1bfd4d	0.15233345
238	0x3e77a667	0.24184571
239	0x3d93ea0b	0.072223745
240	0x3dd5a407	0.10431676
241	0x3e142b07	0.14469539
242	0x3da218f6	0.07914917
243	0xbcc1f467	-0.02367611
244	0xbc921df6	-0.017836552
245	0xbe5f833d	-0.21827407
246	0x3e031b84	0.12803465
247	0xbe3d65c0	-0.18495846
248	0xbe15633d	-0.14588638
249	0xbe2ed3d9	-0.17073001
250	0xbe33ffa6	-0.17577991
251	0xbe9ea721	-0.30986884
252	0x3e586c86	0.21135148
253	0x3ecfbc1e	0.4057321
254	0x3e6b5936	0.2298325
255	0xbdf1d55c	-0.11808273

action_layer.4.bias f4 [4]
0	0x3ddbf813	0.10740676
1	0x3cb27c0e	0.02178767
2	0xbd7276dd	-0.059195388
3	0xbe0131ed	-0.12616701

value_layer.0.weight f4 [64, 8]
0	0x3de1ca74	0.11024943
1	0x3c5808f8	0.013185732
2	0x3e386ecf	0.1801102
3	0xbedbda0a	-0.42939788
4	0x3e8f6287	0.28004858
5	0x3ee6e2e1	0.4509497
6	0xbef37898	-0.47552943
7	0xbebd08c3	-0.36920747
8	0xbe9dcf93	-0.3082243
9	0xbe2b678c	-0.16738719
10	0x3e54ca0c	0.207802
11	0x3ec7a79e	0.3899507
12	0xbe8c6831	-0.27423242
13	0xbe6e7237	-0.23285757
14	0x3eb04af4	0.34432185
15	0xbc3b39aa	-0.011427322
16	0x3d8ffe37	0.070309095
17	0xbed60acb	-0.4180511
18	0xbeb06525	-0.34452167
19	0xbd0b3dbc	-0.03399442
20	0xbe48456b	-0.19557731
21	0xbe2d1796	-0.16903529
22	0x3d31eab5	0.043436725
23	0x3b5b0da3	0.0033424876
24	0xbdf03406	-0.11728673
25	0x3d679387	0.056537177
26	0x3e10a223	0.1412435
27	0x3e098dee	0.13433048
28	0x3dd7392f	0.10508954
29	0xbeea9fc0	-0.45825005
30	0xbe049811	-0.12948634
31	0xbf380757	-0.718862
32	0x3eef394c	0.46723402
33	0x3dc40c22	0.09572627
34	0x3e087d3c	0.13329023
35	0xbe6d2e20	-0.23162127
36	0xbe6580d9	-0.22412433
37	0x3e63e533	0.22255401
38	0x39954be8	0.0002847605
39	0x3e7a6676	0.24453148
40	0xbd78171f	-0.060568925
41	0x3ea4fc7d	0.32223883
42	0xbe5450cc	-0.20733947
43	0x3d907981	0.07054425
44	0xbc102a03	-0.008799079
45	0x3f09f8a5	0.53895026
46	0x3d39271d	0.045203317
47	0xbd2747aa	-0.04083983
48	0x3e92910f	0.28626296
49	0xbe746f45	-0.23870571
50	0x3ebad09d	0.36487284
51	0x3d8d4235	0.068973936
52	0xbe93c5be	-0.28861803
53	0x3cd64890	0.026157647
54	0xbe6c7a03	-0.23093419
55	0xbe09e0ac	-0.13464612
56	0x3e02a9b1	0.12760045
57	0xbe31a0df	-0.17346524
58	0x3e892824	0.26788437
59	0x3e111066	0.14166412
60	0x3db68f91	0.08914102
61	0xbe837a46	-0.25679225
62	0xbf0e6c38	-0.5563388
63	0xbd37641f	-0.044773217
64	0xbe41439f	-0.18873452
65	0x3c344482	0.011002662
66	0xbaab4e66	-0.0013069629
67	0xbec50ec8	-0.3848784
68	0x3e366728	0.17812788
69	0x3e331eed	0.17492266
70	0xbded11bf	-0.115756504
71	0xbde90a88	-0.11378962
72	0xbe4ce5a2	-0.20009473
73	0x3ce84044	0.028350957
74	0xbd796c3a	-0.06089423
75	0xbe88d604	-0.2672578
76	0xbe95dd2f	-0.29270312
77	0x3ed60171	0.41797975
78	0xbe32ac54	-0.1744855
79	0x3eed2171	0.46314576
80	0x3e608e76	0.21929345
81	0xbdd7f5a2	-0.105448976
82	0x3f1b36be	0.60630405
83	0xbee022b4	-0.43776476
84	0xbee6a9c6	-0.45051402
85	0xbd68318e	-0.056687884
86	0x3e7c2c36	0.2462624
87	0x3ee94946	0.45563716
88	0x3f604843	0.8761026
89	0x3eb09eff	0.34496304
90	0x3f7c0321	0.98442274
91	0xbec62d0d	-0.38706246
92	0xbe853691	-0.26018193
93	0x3f007e03	0.5019228
94	0xbb767080	-0.0037603676
95	0xbdd18aa8	-0.10231525
96	0xbe647f71	-0.2231424
97	0x3e3d2501	0.18471147
98	0xbde3e2a9	-0.11127216
99	0xbd419a7c	-0.04726647
100	0xbdd4c1e5	-0.10388545
101	0x3e988094	0.29785597
102	0x3d148dfb	0.036268216
103	0x3de8ce3c	0.11367461
104	0xbe2d5b80	-0.16929436
105	0x3dbd83d3	0.09253659
106	0xbe476d8d	-0.19475384
107	0xbdfa3580	-0.122172356
108	0xbe99352f	-0.29923388
109	0x3e828781	0.25494006
110	0x3e0b33a3	0.13593917
111	0x3ec42e7c	0.38316715
112	0x3e0d7177	0.13812815
113	0xbecae3d5	-0.39626947
114	0xbe044ac4	-0.12919146
115	0x3de159f1	0.11003483
116	0xbd38539c	-0.04500161
117	0xbddafebe	-0.106931195
118	0x3dfc3414	0.123146206
119	0x3eb03134	0.3441254
120	0xbe8bc4f0	-0.2729869
121	0xbd269e29	-0.040678177
122	0xbd69235f	-0.056918498
123	0x3e085485	0.13313492
124	0x3e75cf69	0.24004902
125	0xbf152470	-0.58258724
126	0xbeda0a34	-0.4258591
127	0xbf377bf7	-0.7167353
128	0xbea0519d	-0.31312266
129	0x3d9f9c71	0.07793511
130	0x3ead3a38	0.3383348
131	0xbdfbf89c	-0.12303278
132	0xbdf9b9c2	-0.121936336
133	0x3d11d503	0.035603534
134	0x3c9fc128	0.019501284
135	0x3e67f0ca	0.22650447
136	0x3e0318f4	0.12802488
137	0x3e469ccf	0.19395755
138	0x3dfe1c81	0.124077804
139	0xbea2ce3c	-0.3179797
140	0xbde40215	-0.111332096
141	0x3dacceab	0.08437856
142	0x3ece0ee9	0.4024575
143	0x3f1a9d56	0.60396326
144	0x3df8ad3d	0.121424176
145	0xbc962804	-0.018329628
146	0x3de99b2c	0.1140655
147	0xbdedea94	-0.11617008
148	0xbd3de602	-0.04636193
149	0x3ca097c6	0.019603621
150	0x3e9f9ce0	0.31174374
151	0x3e3bfd94	0.18358451
152	0xbe043f37	-0.1291474
153	0x3e64d1e0	0.22345686
154	0x3e5744df	0.21022366
155	0xbea1dff2	-0.3161617
156	0x3ea8d08c	0.3297161
157	0x3d9b04af	0.07569253
158	0xbe51f952	-0.20505264
159	0xbf13aa88	-0.57682085
160	0xbe74f548	-0.23921692
161	0x3e9f7f3c	0.3115176
162	0xbe5bb6d7	-0.21456467
163	0x3dda4b66	0.10658912
164	0x3dba9e9d	0.09112284
165	0x3dabe74e	0.08393727
166	0xbe84cad7	-0.25936005
167	0xbe9190d9	-0.28430822
168	0xbdd2733f	-0.10275888
169	0x3e983364	0.29726708
170	0xbe40a00c	-0.18811053
171	0x3ef3f15a	0.47645074
172	0xbcfcc12d	-0.030853832
173	0x3e7ecf6d	0.24883814
174	0xbe0f9562	-0.14021829
175	0xbd03afc0	-0.03215003
176	0xbe5d60b6	-0.21618924
177	0x3dc73b77	0.09728139
178	0xbe51348f	-0.20430206
179	0x3f13af58	0.5768943
180	0x3df7a4e9	0.12092001
181	0xbed06c19	-0.40707472
182	0xbd7790b9	-0.060440753
183	0xbbc21863	-0.0059233173
184	0x3d9060f3	0.070497416
185	0x3e32a1d2	0.17444542
186	0xbe1d6e4b	-0.15374105
187	0x3d84fc1c	0.064933985
188	0xbea59374	-0.3233906
189	0xbd0f7719	-0.03502569
190	0x3f28a3ca	0.6587492
191	0x3ee2e8b5	0.44318166
192	0x3dafe710	0.085889935
193	0x3e8152fa	0.2525862
194	0xbe0d0670	-0.13771987
195	0x3ef79e88	0.48363137
196	0x3ece5764	0.4030105
197	0xbe2e77a3	-0.17037825
198	0xbd0eac88	-0.034832507
199	0xbea2c48c	-0.31790578
200	0xbf30ff52	-0.6913959
201	0x3cc1dfbe	0.023666259
202	0xbeb70380	-0.35744858
203	0x3c8ce24c	0.01719775
204	0x3e68630a	0.2269403
205	0x3ee51805	0.44744888
206	0xbd52f14c	-0.05149965
207	0xbef6f32a	-0.48232394
208	0xbe936e70	-0.28795195
209	0x3e579396	0.21052393
210	0xbe9d7945	-0.30756584
211	0xbef6c445	-0.48196617
212	0x3e40bf8b	0.18823068
213	0x3f01c2f1	0.5068808
214	0xbdea5f4b	-0.11443957
215	0xbcc61adb	-0.024182728
216	0x3f16c3a7	0.5889229
217	0xbe4d3e71	-0.20043351
218	0x3ea3c718	0.31987834
219	0x3e616942	0.22012809
220	0x3d289383	0.041156303
221	0xbe9fd04c	-0.31213605
222	0x3e0d0d8c	0.13774699
223	0x3d452ad2	0.04813654
224	0xbca26415	-0.019823113
225	0xbe742d3c	-0.2384538
226	0xbe897b7c	-0.26852024
227	0x3f2efaae	0.68351257
228	0x3edacb32	0.4273315
229	0xbea7c091	-0.32764104
230	0xbdd7b7df	-0.105331175
231	0xbe8c780c	-0.27435338
232	0xbe0e471f	-0.13894318
233	0xbe5c552f	-0.2151687
234	0xbec15a4e	-0.3776421
235	0x3da5ce39	0.080959745
236	0x3dc46a2b	0.095905624
237	0x3e592280	0.21204567
238	0xbee5b019	-0.44860914
239	0xbe67a318	-0.22620809
240	0xbe977777	-0.29583332
241	0x3e9ac73e	0.30230135
242	0xbda23dcf	-0.07921945
243	0x3dfd4432	0.12366523
244	0x3ebe6ff5	0.3719479
245	0xbd9a913c	-0.075472325
246	0xbe685b52	-0.22691086
247	0xbd803a2d	-0.06261096
248	0x3edd75d6	0.43253964
249	0xbe8423dc	-0.2580861
250	0x3e584a3a	0.21122065
251	0x3ed5b7a9	0.41741684
252	0x3ebd6367	0.369899
253	0xbea2fdb3	-0.31834182
254	0x3d8e6cba	0.06954332
255	0xbe686598	-0.22695005

value_layer.0.bias f4 [64]
0	0xbeab9094	-0.33508742
1	0x3eeb3fec	0.45947206
2	0x3cf3dc32	0.029768083
3	0x3e17e9d7	0.14835297
4	0xbec95298	-0.39320827
5	0x3df47848	0.11937004
6	0x3dce58a7	0.10075503
7	0xbd2e5ad3	-0.042567085
8	0xbe4b6adb	-0.19864981
9	0x3dfa46db	0.12220546
10	0xbeb40020	-0.35156345
11	0x3db913cd	0.0903698
12	0x3e7ebb21	0.24876072
13	0x3e98e46b	0.2986177
14	0x3ecc9b58	0.39962268
15	0xbc82f1bb	-0.015984407
16	0x3ebc499a	0.36774904
17	0x3ea97dc3	0.3310376
18	0x3effb853	0.49945316
19	0xbee3f728	-0.44524503
20	0xbe818fa5	-0.25304905
21	0x3e8577d1	0.26067975
22	0x3e790fa2	0.2432237
23	0x3ecf75a9	0.40519455
24	0x3e854f24	0.26036942
25	0x3e3b4343	0.18287377
26	0xbdebda7d	-0.11516283
27	0xbe09d989	-0.1346189
28	0xbda58406	-0.08081822
29	0x3e57ac65	0.21061857
30	0xbe90d14c	-0.2828468
31	0x3e36f51d	0.17866941
32	0x3e23cf6a	0.15997091
33	0x3ec0d5d0	0.37663126
34	0x3de781d1	0.113040574
35	0xbe48ade5	-0.19597585
36	0xbeb6c46e	-0.3569674
37	0xbd93bb1f	-0.07213425
38	0xba8a92c6	-0.0010572306
39	0xbea5a30a	-0.3235095
40	0x3ee7fe0f	0.4531102
41	0x3ea5c401	0.32376102
42	0x3e4109f7	0.18851458
43	0xbe9ed767	-0.31023714
44	0xbc905fd6	-0.017623823
45	0xbd020096	-0.03173884
46	0xbef91893	-0.4865156
47	0x3c0cc308	0.008591421
48	0x3e83ae72	0.2571903
49	0xbe18f860	-0.14938498
50	0xbeeb616f	-0.45972773
51	0x3d433344	0.047656313
52	0x3ed8c49f	0.4233751
53	0xbe51bb5a	-0.20481625
54	0xbdd3806d	-0.1032723
55	0xbdb6537f	-0.08902644
56	0xbea6e07e	-0.3259315
57	0xbc9f7ca1	-0.019468607
58	0x3efd4dae	0.49473327
59	0x3eb73772	0.3578449
60	0xbd2b7634	-0.041860774
61	0x3e2a3bed	0.16624422
62	0xbd4afdd7	-0.049558487
63	0xbe2af8b1	-0.1669643

value_layer.2.weight f4 [64, 64]
0	0x3e85e167	0.2614853
1	0xbe9bd28f	-0.3043408
2	0xbb3dbaae	-0.002895038
3	0xbe02ff07	-0.12792598
4	0x3e57fbf1	0.21092202
5	0xbd5b6c10	-0.053569853
6	0x3bde6709	0.006787185
7	0xbcf5ccd2	-0.030004892
8	0x3e43736e	0.19087002
9	0xbe2abf9b	-0.16674654
10	0x3c88cad6	0.016698282
11	0x3dda4a07	0.10658651
12	0xbdc53171	-0.09628571
13	0xbdf752e9	-0.12076361
14	0xbe9fbc72	-0.3119846
15	0x3b0289ce	0.0019918564
16	0xbe065769	-0.13119282
17	0xbe49869f	-0.1968026
18	0xbe45892e	-0.19290611
19	0x3f0013c7	0.5003018
20	0x3e1f58a2	0.15561154
21	0xbe51ada2	-0.20476392
22	0xbe292ac4	-0.1652022
23	0xbe457517	-0.19282947
24	0xbe7e31bd	-0.24823661
25	0xbdbcbc32	-0.09215583
26	0xbdb08938	-0.086199224
27	0x3c28104b	0.010257791
28	0x3e2da7bc	0.16958517
29	0xbcc322af	-0.02382025
30	0x3dec7fd0	0.11547816
31	0xbc9b4228	-0.018952444
32	0xbe1e3704	-0.15450674
33	0xbd8ae0e5	-0.067811765
34	0x3ce98fe5	0.028510997
35	0x3e223b58	0.1584295
36	0x3e5ea29b	0.21741717
37	0x3c18ae0e	0.009318842
38	0x3dadd84d	0.08488522
39	0x3d85ba41	0.06529666
40	0xbe3c7d59	-0.18407191
41	0xbe8df4ad	-0.27725735
42	0xbdfae363	-0.12250402
43	0x3e846118	0.25855327
44	0xb9e2d506	-0.00043264794
45	0x3e0d507b	0.13800232
46	0x3e740c7c	0.23832887
47	0xbe2788f5	-0.16360839
48	0xbdee3288	-0.11630732
49	0xbd828031	-0.06372107
50	0x3e8ee07b	0.2790564
51	0xbdbc91e7	-0.09207516
52	0xbe69480e	-0.22781393
53	0x3d19747b	0.0374646
54	0x3e233442	0.15937904
55	0x3d1f7dfb	0.038938504
56	0xbcb5a5aa	-0.022173721
57	0x3da51859	0.080612846
58	0xbea8c1bc	-0.32960308
59	0xbe4bf778	-0.1991862
60	0xbda0bb50	-0.07848227
61	0xbe07c63d	-0.13259216
62	0xbe4eee01	-0.20207979
63	0x3dc32aa7	0.0952962
64	0xbdbdb946	-0.09263854
65	0x3d0bb2bd	0.034106005
66	0x3e43d481	0.19124033
67	0x3d5a2305	0.053256053
68	0xbcba5c61	-0.022749128
69	0x3d7e2ed1	0.062056366
70	0x3db9ab86	0.090659186
71	0xbae315cc	-0.0017325222
72	0xbe1e40e0	-0.15454435
73	0x3d60b131	0.054856483
74	0xbe0ff2b1	-0.14057423
75	0x3cdfeeca	0.027335543
76	0xbd2e9a76	-0.042627774
77	0xbd8ee192	-0.06976618
78	0xbce9fdc1	-0.028563382
79	0xba7f8c32	-0.0009748369
80	0xbcc4f00c	-0.024040245
81	0x3d6b8237	0.05749723
82	0x3b996ebb	0.0046823896
83	0xbd8d4093	-0.06897082
84	0x3e31e922	0.1737409
85	0x3d9dbcf1	0.07702053
86	0x3dbcbe5b	0.09215995
87	0x3c4f5848	0.012655325
88	0xbdde4f6a	-0.10854991
89	0xbd2098cb	-0.039208215
90	0xbd128ef7	-0.035780873
91	0xbd940fc5	-0.0722957
92	0xbb82d9aa	-0.0039932327
93	0xbc353980	-0.011061072
94	0x3de1b77f	0.11021327
95	0x3d5e1c69	0.054226313
96	0x3e09ada2	0.13445142
97	0xbdaa83b3	-0.08325901
98	0xbd5d8136	-0.054078303
99	0xbd1dcedd	-0.03852736
100	0xbd934fe7	-0.071929745
101	0xbe00b628	-0.12569487
102	0x3d1c6508	0.03818229
103	0xbc9a2498	-0.018816277
104	0xbdf921ea	-0.12164672
105	0x3dd65916	0.104662105
106	0x3d293cc3	0.041317713
107	0x3e05d048	0.13067734
108	0xbdfa8584	-0.12232497
109	0xbda92d02	-0.08260538
110	0x3e1fda9d	0.15610738
111	0xbe35515e	-0.1770682
112	0xbdd5d739	-0.10441441
113	0xbb8504db	-0.0040594167
114	0x3c9e759b	0.019343188
115	0x3e111a92	0.14170292
116	0x3d2cc648	0.042181283
117	0x38f094e0	0.00011471822
118	0x3d804832	0.0626377
119	0xbd57f944	-0.052727953
120	0x3d7a7e5e	0.06115567
121	0x3e090071	0.13379075
122	0xbdb0177d	-0.0859823
123	0x3e4604cd	0.19337769
124	0xbdd35a8d	-0.103200056
125	0xbd8f1ddc	-0.06988117
126	0x3e1d5699	0.15365066
127	0x3e01ef05	0.12688835
128	0xbe414bb5	-0.18876536
129	0x3d8c2c64	0.06844404
130	0x3d9b7ae2	0.075917974
131	0x3d22aa2c	0.03971307
132	0xbb9616e1	-0.004580364
133	0x3e364a21	0.17801715
134	0xbd63c0f0	-0.05560392
135	0xbcfc95f8	-0.03083323
136	0xbbd74e16	-0.006570588
137	0x3e106787	0.14101993
138	0xbe275ce3	-0.16344027
139	0xbc02f75b	-0.007993544
140	0x3ddb9494	0.107216984
141	0x3d6bf478	0.05760619
142	0x3e36e9c0	0.17862606
143	0xbe1626db	-0.1466326
144	0x3e7ef6d0	0.24898839
145	0x3e777cfe	0.24168774
146	0x3e651a5e	0.2237334
147	0xbe73421d	-0.23755689
148	0xbe1167c3	-0.14199738
149	0x3e4cbdf4	0.19994336
150	0x3de094ab	0.10965856
151	0x3e5f7c08	0.21824658
152	0x3e54dc3f	0.20787142
153	0x3dd3b571	0.103373416
154	0xbd45bdc5	-0.04827668
155	0xbe227cca	-0.15867916
156	0xbe81b41e	-0.2533273
157	0x3dc6917f	0.0969572
158	0xbdda57f8	-0.1066131
159	0x3cb872a8	0.02251561
160	0xbdc45bc6	-0.09587817
161	0x3e8eeca0	0.27914906
162	0xb940ee30	-0.00018399279
163	0xbe4d2817	-0.20034824
164	0xbe3d7405	-0.18501289
165	0xbe3dcbf2	-0.1853483
166	0xbc83c512	-0.016085181
167	0xbe524382	-0.20533565
168	0x3d2f1393	0.042743277
169	0x3e1973de	0.14985606
170	0xbc98190b	-0.018566629
171	0xbde6fba0	-0.112784624
172	0xbdb9abcf	-0.09065973
173	0xbd886703	-0.06660273
174	0xbe6ef6e9	-0.23336376
175	0x3e3d88c6	0.18509206
176	0x3d15af10	0.036543906
177	0xbd8cf6c7	-0.068830065
178	0xbdb902b7	-0.09033721
179	0xbdb5369e	-0.08848308
180	0x3e47bbc6	0.19505224
181	0xbd9d240c	-0.07672891
182	0xbd1a793d	-0.037713278
183	0x3e0cc03f	0.13745211
184	0xbd0c1c74	-0.034206823
185	0xbcc7d8de	-0.024395403
186	0x3e81363c	0.2523669
187	0x3e5a676a	0.21328512
188	0xbcb5bf7e	-0.022186037
189	0x3dac3e7f	0.08410358
190	0xbd0e01c0	-0.034669638
191	0xbd46516f	-0.048417505
192	0x3dc2ef31	0.095182784
193	0xbda9d133	-0.08291855
194	0x3dd40718	0.103529155
195	0xbcb63e94	-0.022246636
196	0xbcbc3637	-0.02297507
197	0xbe1646e2	-0.14675477
198	0x3d6b0798	0.05738029
199	0xbb87a3f5	-0.0041394182
200	0xbc3021b7	-0.010750226
201	0x3ccb29a1	0.024800124
202	0xbda23e23	-0.07922008
203	0x3e52f571	0.20601441
204	0xbdc503ef	-0.09619891
205	0xbdb40835	-0.08790628
206	0xbe5c3aed	-0.21506853
207	0xbd5dc592	-0.054143496
208	0xbe097c50	-0.13426328
209	0xbbaa3d17	-0.0051952708
210	0xbe32b1f5	-0.17450698
211	0x3dfce388	0.12348086
212	0x3d85baf1	0.06529797
213	0x3d22a3c0	0.039706945
214	0x3d936a86	0.07198052
215	0x3c311d5a	0.010810221
216	0x3c934b2f	0.017980186
217	0xbc3b63f3	-0.011437404
218	0xbd4ed3c5	-0.050494928
219	0x3c25114c	0.010074925
220	0x3d4283ee	0.0474891
221	0xbde9e2ed	-0.11420236
222	0xbdd09011	-0.101837285
223	0x3de98a5b	0.11403342
224	0x3d9c2ba6	0.07625513
225	0xbde0b217	-0.10971468
226	0x3e021c50	0.12706113
227	0x3e248fc5	0.16070469
228	0xbc76de85	-0.015067701
229	0x3ce35b84	0.027753599
230	0x3c9a691d	0.01884895
231	0xbcd14ea1	-0.025550188
232	0x3c504795	0.012712379
233	0x3d1582e2	0.036501773
234	0xbda2fe54	-0.079586655
235	0xbd9f7b8e	-0.07787238
236	0x3d908a73	0.07057657
237	0xbde4ecad	-0.11177955
238	0x3de14577	0.109995775
239	0xbde1d6aa	-0.11027272
240	0xbe1b77e5	-0.15182455
241	0x3d760a82	0.060068615
242	0x3d2619b4	0.040551856
243	0x3dc4c3bc	0.09607646
244	0xbdc50676	-0.09620373
245	0xbde5a69e	-0.1121342
246	0xbde262b8	-0.11053985
247	0xbc7f1227	-0.015568293
248	0xbe0649b3	-0.13114052
249	0x3b79c966	0.0038114428
250	0xbe0e4a7c	-0.13895601
251	0xbc1998e9	-0.0093748355
252	0xbd8f3891	-0.06993211
253	0xbc137c13	-0.00900175
254	0xbde80059	-0.11328191
255	0xbd47eec9	-0.048811708

value_layer.2.bias f4 [64]
0	0xbecb96bb	-0.39763436
1	0xbd9097e1	-0.070602186
2	0x3e97937e	0.29604715
3	0xbdfb948e	-0.12284194
4	0x3ea8ddb7	0.32981655
5	0xbe64d910	-0.22348428
6	0x3d991414	0.07474533
7	0xbe2628dc	-0.16226524
8	0x3e612719	0.21987571
9	0xbe24fd65	-0.16112287
10	0x3e210a62	0.15726617
11	0xbb914bb1	-0.004434072
12	0xbd7eb46d	-0.062183786
13	0xbe46d76f	-0.19418119
14	0xbe436bce	-0.19084093
15	0x3dcee36d	0.10101972
16	0x3e6928cf	0.22769473
17	0xbd99396f	-0.07481658
18	0xbe94d1be	-0.2906627
19	0xbe091e85	-0.13390549
20	0x3d106fb0	0.035262764
21	0xbe66e4ac	-0.22548169
22	0x3c88bd36	0.016691785
23	0xbd594226	-0.0530416
24	0xbe248061	-0.16064598
25	0xb8c312fc	-9.301861e-05
26	0xbe0febd6	-0.14054808
27	0xbe8b71f7	-0.27235386
28	0x3e19861b	0.14992563
29	0x3e163965	0.14670332
30	0x3dc13e86	0.094357535
31	0x3b89a3c8	0.0042004324
32	0x3da8f8c7	0.082505755
33	0xbe39781f	-0.18112229
34	0x3e3e6b79	0.18595685
35	0x3c88acdf	0.016683994
36	0xbe7859b0	-0.24252963
37	0x3c93a563	0.018023198
38	0x3d7cf860	0.061760306
39	0xbdd35929	-0.1031974
40	0x3cafde11	0.021468194
41	0xbdbe773f	-0.09300088
42	0x3c9d93fe	0.019235607
43	0xbe2e0cd2	-0.16997078
44	0xbdf804c7	-0.12110286
45	0x3e6bd0c3	0.23028855
46	0xbdf49d3b	-0.11944052
47	0x3dbf6447	0.09345298
48	0x3c8638f9	0.016384589
49	0x3d8f4e8c	0.069974035
50	0xbd335867	-0.04378548
51	0x3e0c97eb	0.13729827
52	0x3c0827ef	0.008310302
53	0xbe65db1b	-0.22446863
54	0xbd8d577f	-0.06901454
55	0x3d673ac0	0.056452513
56	0x3d8c92db	0.06863948
57	0xbe7a50b2	-0.24444845
58	0x3db0c1a0	0.08630681
59	0xbda740d1	-0.081666596
60	0xbe35d53e	-0.17757127
61	0xbe29feb9	-0.16601075
62	0x3e74bd0f	0.23900245
63	0x3dea8e32	0.11452903

value_layer.4.weight f4 [1, 64]
0	0x3d83bbf0	0.064323306
1	0xbcaa5080	-0.020790339
2	0xbddfa74b	-0.109205805
3	0x3c0ff3f0	0.008786187
4	0x3f1f212a	0.6215998
5	0x3ddc590a	0.1075917
6	0xbc24a5ba	-0.010049278
7	0x3dfea304	0.124334365
8	0xbd5dbca1	-0.05413497
9	0x3e00e89a	0.1258873
10	0xbb303b37	-0.0026890764
11	0xb8007348	-3.0624942e-05
12	0x3c0ea439	0.008706146
13	0x3de68c49	0.11257226
14	0x3daff4c5	0.08591608
15	0x3c7c3677	0.015393845
16	0xbdcf75c1	-0.10129882
17	0xbb8070e9	-0.00391971
18	0x3dbdcb04	0.09267238
19	0x3ca1eef3	0.01976726
20	0xbb41c5bb	-0.002956732
21	0x3d9ef470	0.077614665
22	0x3bc9481e	0.0061426302
23	0xbce05b48	-0.027387276
24	0x3becfa3c	0.0072319787
25	0x3c15a6a9	0.009133973
26	0xbaffba4a	-0.0019510475
27	0x3e08a887	0.13345538
28	0xbb561376	-0.0032665408
29	0xbd438ea6	-0.047743462
30	0xbd5deb52	-0.054179497
31	0xbc96bdc7	-0.01840104
32	0x3b8279d8	0.00398181
33	0x39d7391e	0.0004105055
34	0xbd83a66b	-0.06428226
35	0x3c2d0038	0.010559134
36	0x3d822b68	0.06355935
37	0xbb6c885e	-0.0036092023
38	0xbb9b1698	-0.004732918
39	0xbcb823cb	-0.022478005
40	0xbcf183fc	-0.02948188
41	0xbb8b05b1	-0.004242622
42	0x3d1b6a17	0.037942972
43	0x3cd0baaf	0.025479643
44	0x3d8e079f	0.06935047
45	0xbe1e693b	-0.1546983
46	0xbb6cf380	-0.003615588
47	0xbf1c42e2	-0.61039555
48	0xbd88819f	-0.06665348
49	0xbc40e476	-0.011773219
50	0xbb6aeef8	-0.0035848003
51	0xbd8a1ced	-0.067437984
52	0xbe0454f4	-0.12923032
53	0x3de20515	0.110361256
54	0x3e24abe7	0.160812
55	0x3e965e4b	0.29368815
56	0x3c12b41e	0.008954076
57	0x3e9d9cf3	0.30783805
58	0x3e264826	0.1623846
59	0xbb1a6d04	-0.0023563514
60	0x3d0e5648	0.034750253
61	0x3b52ef79	0.0032186194
62	0xbe0411be	-0.12897393
63	0x3b42c2b9	0.0029718115
