Homework8/8_gym-PPO/results/PPO_LunarLander-v3_1500-eps0.5.pth (torch, 44194 bytes, 11 tensors)

action_layer.0.weight f4 [64, 8]
00000000: 3b39 24be 0cd0 d13d 31f5 debe 9d31 aabe
00000010: 37db f03e c9b8 9f3e 2dba 17bd ddde 193f
00000020: a8e4 00be fba4 0b3d b731 3dbe cc1d 6cbe
00000030: 20d8 bfbe 4fe7 27bf 04a9 bf3e 5301 09be
00000040: 6520 1e3e 38f3 e43d 006b 63be 647b 6c3c
00000050: ba0d 093f f10c 7f3f 5681 debe a9eb f03e
00000060: 5161 8dbd 7c37 04bd c716 c03e e2e0 b6be
00000070: 562f 04bf 1652 2ebf 3032 483e b066 773e
00000080: 31be fcbe 00c5 86be 1aab d8be ebb3 12bf
00000090: f97e fcbc 1e29 60bd 3179 0b3f f860 663e
000000a0: e9fa 5bbd fffe 70be 7a26 7f3d 279b f1be
000000b0: f1b3 b5be 09d0 3fbf 849c 1f3f 8915 623e
000000c0: 6b67 273d 2db9 553d fa5f 8a3e e401 0c3f
000000d0: 1145 5abc 41d9 db3e c1b9 ebbd a112 dabe
000000e0: 924f 3bbe 4c38 a5be b240 c6be 71c4 e3be
000000f0: 1bf5 073f 1881 15bd d0e3 943c b820 9f3e
00000100: 96bb a33e 2c06 583d bebe 9d3d 5dbd 923e
00000110: b165 b83e 3bbd 6a3f f7e4 36bf c3d8 03bd
00000120: 4a19 af3e d1c1 c33e 5e50 ca3e 479d 0a3f
00000130: 01e3 a2be 5053 97bd 09aa 29be 50f4 d0be
00000140: 8389 61be ee75 9b3e 17c0 983e 10b7 d9bd
00000150: 3917 973c d463 0ebc 6b30 bebe 6905 75bd
00000160: bf5b 88bd 20ce e8bd 9847 b23d 2257 063e
00000170: 669a 983e b2f5 1e3f 5edd 23bf 62f8 52bd
00000180: 4460 273d d60d 413d b08f c1be bf67 51be
00000190: d8b8 733f 0015 4a3f fbb7 b9be 5d34 ca3d
000001a0: 19e5 06bf 7bec 0bbe 28c2 b9be 607a 03bf
000001b0: 8cc4 853e 1815 7abe 372a 343e a74a c43e
000001c0: 5845 98be 6619 273e de90 8c3e fe85 ccbe
000001d0: 5df5 e3bd 3dc3 bbbe c0dd c53e da63 793d
000001e0: fdf2 973e 8008 293d 3591 bebd d7bc 3e3e
000001f0: 50f4 41bf 6f53 afbe 037d 4d3e c26e 03bf
00000200: 67d9 b9be 759d a7be d68b 84be dd91 57be
00000210: 0742 e3bd 2c6c bbbe f64a 223f a0bc ebb9
00000220: 1a45 163e 5b44 e53d 5c43 ed3d 3cb2 ba3e
00000230: 398b 3a3e c587 023f cb60 163d a436 30be
00000240: 1e58 d6be ab3e 87be 1381 5f3e cded f0bd
00000250: 395e b0be 4ce8 66bf 6403 163d 703d cdbe
00000260: ff2d c93d 98b5 5d3e 4887 a13e 992e eebd
00000270: b558 693e 6cdd efbd 89d4 bcbe f815 1dbe
00000280: 0d37 9dbe fc37 0bbe 5461 e6be c4ed 0cbf
00000290: f82e 543e c961 65be d416 403e 6a53 b63e
000002a0: 395b 6bbe 361a 0a3e 1339 a33e 69f3 07bd
000002b0: 068d 833e e1e6 013f 71bb 5abf 02a9 d63e
000002c0: 35c1 8bbe cc99 2bbe b79d 453e 3547 07bf
000002d0: f129 fc3c b29b 1ebf e762 0a3f c461 3c3e
000002e0: ebf3 943e 7916 8d3d bfd0 103d 5695 ea3d
000002f0: a534 10bf 1486 d83d 57e9 963e 0808 243d
00000300: 85b6 d8be da9b ccbd c8cc b1be d929 d3be
00000310: 49bc a13d 6c45 dcbd db58 ea3d 467e 4e3e
00000320: 8860 11bd 87d0 503e f7cc 9dbe 2c55 3bbe
00000330: 803d 513e c244 503f e9d7 c7be e758 f93e
00000340: c0b2 a73e eede 3b3e 7017 eb3d 33a0 293e
00000350: 3457 14be 12bd 6e3e 6fe9 a9be 9150 adbb
00000360: df77 f6be 71bd 85be 9278 683e 17a0 e9be
00000370: 16e2 2b3e 4e2a 01bc 4de9 8d3e b3ac 003e
00000380: b481 03bf c0b5 9f3d 6cca d2be 5174 96be
00000390: dd7d 3f3e c41c 49be d679 9f3e 19c4 f83e
000003a0: bfd2 2f3e 92df c23e 48ce a83e b7e7 2c3c
000003b0: 0665 543d e82d 21bd 4fa9 e7be 5e50 bf3d
000003c0: 7782 a63e 13aa a13e c71c a7bc f259 5f3e
000003d0: d7f2 e83d 3a2d bd3d 14c0 90bd 4907 aebe
000003e0: e498 363e 4a48 473d ee88 98bd 4e26 343e
000003f0: 13df 273e b622 463e 1fd0 03bf 8f7d 27be
-0.16037457 0.1024476 -0.4354644 -0.33240977 0.47042248 0.31195667 -0.037042785 0.6010569
-0.12587225 0.034092885 -0.18475996 -0.23058242 -0.37469578 -0.65587324 0.37433636 -0.13379411
0.15442045 0.11179203 -0.22208786 0.0144337155 0.5353657 0.9962912 -0.4345805 0.47054794
-0.06903327 -0.032279477 0.37517378 -0.35718447 -0.5163473 -0.68094003 0.19550395 0.24160266
-0.49363855 -0.26322174 -0.4231804 -0.57305783 -0.030822264 -0.054726712 0.544818 0.22497928
-0.053706083 -0.23534773 0.062292553 -0.47188684 -0.35488847 -0.7492681 0.623482 0.22078528
0.04087011 0.05217855 0.2702635 0.54690385 -0.013322131 0.4293919 -0.11510039 -0.42592338
-0.18292072 -0.32269514 -0.38721234 -0.4448581 0.53108376 -0.036500067 0.018175036 0.3107965
0.31979054 0.05274026 0.07702397 0.28660098 0.36015084 0.9169499 -0.7144312 -0.032189142
0.34198982 0.38233808 0.3951444 0.54146236 -0.31813815 -0.073889375 -0.1656877 -0.40811396
-0.22025113 0.3036341 0.29834053 -0.106306195 0.01844369 -0.008690793 -0.37146315 -0.059819613
-0.06658124 -0.1136744 0.08705062 0.13119176 0.29805297 0.6209365 -0.64009655 -0.051506408
0.04086329 0.047132336 -0.37804937 -0.20449732 0.95203924 0.78938293 -0.36273178 0.09873269
-0.52693325 -0.13664429 -0.36280942 -0.51358604 0.26126516 -0.24422109 0.17594229 0.38338205
-0.29740405 0.16318282 0.27454275 -0.39945978 -0.11130784 -0.36672392 0.38645744 0.06088624
0.29677573 0.04126787 -0.0930504 0.18626724 -0.75763416 -0.34243342 0.2006722 -0.5134088
-0.36298677 -0.32737318 -0.25887936 -0.21051736 -0.11096578 -0.36605966 0.6339563 -0.0004496323
0.14674798 0.111946784 0.115851134 0.36464107 0.18217172 0.5098842 0.036713403 -0.17208344
-0.41864103 -0.26415 0.21826582 -0.11764107 -0.34446886 -0.90198207 0.036624327 -0.40085936
0.09823226 0.21651304 0.31548524 -0.116299815 0.22787745 -0.11712155 -0.368809 -0.15340412
-0.30706063 -0.13595575 -0.4499613 -0.550503 0.20721042 -0.22400583 0.18758708 0.35610515
-0.22984017 0.13486561 0.31879482 -0.03319112 0.2569353 0.5074292 -0.8544226 0.41925818
-0.27295843 -0.16757888 0.19298445 -0.5284303 0.030781718 -0.6195632 0.54057163 0.1839667
0.29092345 0.06889052 0.035355326 0.11454265 -0.5633033 0.105724484 0.294749 0.04004672
-0.4232675 -0.09990664 -0.34726548 -0.41242865 0.07897241 -0.10755429 0.11442729 0.20165357
-0.03549245 0.20392047 -0.30820438 -0.18294209 0.20433617 0.81354916 -0.39031914 0.4870064
0.32753563 0.1834676 0.1147908 0.16565017 -0.1448639 0.23314312 -0.33185908 -0.0052891453
-0.4813833 -0.26121095 0.22702244 -0.4562995 0.16785464 -0.007883621 0.27717057 0.1256588
-0.51369786 0.07798338 -0.4117006 -0.29385617 0.18700357 -0.1963988 0.3114764 0.4858711
0.17170237 0.38061196 0.3296988 0.010553292 0.051854156 -0.03935042 -0.4524636 0.09341501
0.32521412 0.3157507 -0.020399464 0.21811655 0.11374443 0.09237142 -0.07067886 -0.33989933
0.1783176 0.048652925 -0.07447992 0.17592737 0.1639369 0.19349179 -0.5148944 -0.1635649

action_layer.0.bias f4 [64]
00000000: 2eed 1cbe a585 cabd 6733 41bd e8a9 943d
00000010: 3ee8 09be de5c 6d3d 3f7d 003e 8834 683d
00000020: 55fd 973d 89e2 f6bd a94d da3c 906c ecbd
00000030: e358 54be 37c0 09be 9a49 613e c3eb 5cbc
00000040: 5a1f 993d c047 fcbd 5d81 a53e 3bcf 763e
00000050: 88dd 3cbe b00e 6fbe 3d22 12be 7470 02bd
00000060: d877 84bd 0a22 84be 48cc 01be 7fca 6c3d
00000070: 09af 37be 4c01 773c 5eb8 03be a12b f5bd
00000080: 9237 1e3c 5389 5f3e d6cb 46be 47b3 473d
00000090: cfd4 95bd a8a7 a23e c917 b4bd b96a 22be
000000a0: cd8c 593e 0305 11be fe07 bfbc 86b7 14be
000000b0: 386b dcbd 44b2 673d 9bf2 693e 97a1 96bc
000000c0: 6d03 b1be 6981 e0bd b148 b1bd 0bfc fc3c
000000d0: cd77 10bd f61a 9d3e f9fd 073c 9657 a73c
000000e0: d98c 883e 6080 9b3d 17c7 bc3d dee4 8c3d
000000f0: 7597 76bd 7323 ebbd cc6a b33d 268e 883e
-0.15324852 -0.09888772 -0.04716816 0.072589695 -0.134675 0.057949893 0.12547778 0.056690723
0.07421366 -0.12054927 0.02664836 -0.11544144 -0.20737033 -0.1345223 0.22000733 -0.013483944
0.07476683 -0.12318373 0.3232526 0.2410249 -0.18443882 -0.23345447 -0.14270873 -0.031845525
-0.06468171 -0.2580722 -0.12675583 0.057810303 -0.17937864 0.015075993 -0.12863299 -0.11971212
0.009656804 0.21829729 -0.19413695 0.048754957 -0.07315981 0.31768537 -0.08793599 -0.15861024
0.21245117 -0.14162068 -0.02331924 -0.14523134 -0.10762638 0.05656649 0.22846453 -0.018387599
-0.34572926 -0.10962183 -0.08656443 0.030881902 -0.0352705 0.30684632 0.008300298 0.020427506
0.26669958 0.07592845 0.09217661 0.068795905 -0.060203034 -0.11481371 0.08760604 0.2667095

action_layer.2.weight f4 [64, 64]
00000000: bcbe 60be 993f 2fbe e3a5 abbb 39e2 c23d
00000010: 7eea 00bf cb6f 69be 9047 ea3d 4ef1 91be
00000020: c399 583e 8014 9a3e 3329 2cbc b64c 8e3d
00000030: 5625 9fbb fea2 dbbe eb7b 83bd 0423 a63d
00000040: c50a 46be b2d8 343e 66bd 73bc 5801 683c
00000050: c345 01bf 92df 293d 9f56 ecbd f07e 5c3e
00000060: 5f7e d0be 8fcc 3abe 26d9 153e 5266 ecbd
00000070: 2c7d 83be aa56 9ebd 09f0 0c3e a2df 0ebd
00000080: 8861 52be 1b98 2b3d 0d0d fabe ca3d e0bd
00000090: 87ff 043d f76e adbd d417 463d 60e3 2a3e
000000a0: a719 ff3c d7ff 35be 58a9 083f dd46 a53e
000000b0: 98a4 923e 2092 853d 10e5 5a3d 562d 853e
000000c0: b2a2 213e 87e0 24be 2516 4c3e e5c1 4ebd
000000d0: d571 8dbd d439 04be 1dbc 2a3c 962f 083d
000000e0: b21a e73d 1446 bebb 2722 a53d 25e1 3fbd
000000f0: 4d34 f3bd c5b4 4dbe f44b 63bc 69f9 633e
00000100: dbc1 c6bd 087d 6abe fad5 523e 93da dcbd
00000110: c63b 11bf 1ea0 37be 2ffd 183e 9406 23be
00000120: 7bf9 ef3e 73da 713e 0d35 9f3d 9cde dfbc
00000130: f2fe 4e3e d1ba febe b6b7 00be 4c56 0dbd
00000140: d247 54be 0100 573e bb67 7ebe 0df2 2a3d
00000150: 1e95 cfbe 507f ca3c 6360 9dbe cced 6ebd
00000160: 53ab 40be e347 503e 8281 3b3e 8d91 05be
00000170: e714 16be 880a 0b3e a714 3c3d a75b 0c3d
00000180: 9fb6 d5bd f06c aa3e a32b 93be 6b18 1c3e
00000190: 763a 3e3d 3e69 11be 1a3f 623d 943a 20bd
000001a0: 9c27 643e 711e 03be 256f d93e ce69 dc3e
000001b0: 347c 1e3f c02b 193d b8dd a1bd c78f d03e
000001c0: 833c 9e3e 2bc1 c43c 22d2 2d3e 53e1 403d
000001d0: f487 b33d 2e12 8abd 79e1 00be 944b 20be
000001e0: db47 8a3e a0cf ddbd 3a7e 003d 5228 813b
000001f0: 994e fabd 7573 e9bd d1dc 02be 4043 313d
00000200: 3771 89be 607b acbd b934 8cbd f4a9 8c3d
00000210: 5fe5 ffbe 041b 87bd b3f9 773e e166 bbbe
00000220: 7216 dd3d 102e 7b3e 2aac cd3d 7b55 27bc
00000230: e416 ebbd 8610 febe 29d0 5d3d 9c42 9f3e
00000240: adbd 003d 474d 96bc cece 72bd f381 e9bd
00000250: 3ca9 f2be d112 90bd f464 fcbd 4d11 c3bc
00000260: ce1b 5cbe be77 5dbe 9e4a 2a3e 3582 06be
00000270: bdbe 8abe fe4e d6bb 6214 fdbc e36e fa3d
00000280: 7b2c 1ebe 1ded 8bbc 1258 eabe 7365 dabd
00000290: e094 31be 9e35 dfbc b7be b13d 6d85 d23c
000002a0: b21b 123d 1be9 cdbd 9074 ec3e bd1d 333e
000002b0: ae78 9a3e 2dfb a8bd 48d9 d0bc 3f47 983e
000002c0: 631f 883e d928 8e3b 0266 ba3d 1efb 09bc
000002d0: 9fcf 78bc c034 c5bc d3f4 fcbd e21e b2bd
000002e0: 7bd1 a63d 4671 9b3d 3e42 9fbd fc3a b23d
000002f0: 51d0 15bd 4161 43be ac19 a13d 7947 953e
00000300: 4f66 32bd 8e04 693e 2454 b5bd 259d bb3b
00000310: 035d 193f 2c36 a53e 9b32 1cbe 8644 3d3e
00000320: 5112 cbbe 713c a8be 8aa9 fa3d c80d 0ebe
00000330: 18a5 35be 27f5 0b3f 3c62 003d c421 a4bc
00000340: 8734 ff3d 16b5 20be ec49 0c3e ce39 f2bd
00000350: b307 cb3e d71f 943b aa42 b83e dbb8 97bc
00000360: b5bc aa3e 9049 cdbb 3681 6bbe c6a8 293e
00000370: 1612 643d 249f dfbd ddc3 12be 9a2e 92bd
00000380: 07c2 063e 12ba a3be 743d f33e 93ae 11be
00000390: 24a9 36bd c558 663e 7f33 203e 55c3 96bd
000003a0: ab63 a4bd 1761 be3d ca60 01bf 4c3d debe
000003b0: 2cae febe f511 42bd ccb7 863d c731 eabe
000003c0: 9489 8abe 4ac1 0c3e 2f1c d5bd e7f4 06bd
000003d0: 236b 043e 8766 013e b2ab 4d3e c5ae 95bb
000003e0: 92a5 36be ce30 27ba 7dbb 81bc d3bd 1fbd
000003f0: 228c b13d def9 223e 6180 873d fb7c a2bd
-0.2194776 -0.17114104 -0.005238281 0.09515805 -0.50357807 -0.22796552 0.11439431 -0.28504413
0.21152405 0.30093765 -0.0105078695 0.06948225 -0.0048567457 -0.4289779 -0.0642012 0.081121475
-0.19340046 0.17660788 -0.014876699 0.014160477 -0.5049707 0.04147298 -0.11539959 0.21532798
-0.40721413 -0.18242095 0.14633617 -0.115429536 -0.25681436 -0.077313736 0.13763441 -0.03488124
-0.20545018 0.041893106 -0.48838082 -0.10949285 0.032470252 -0.084684305 0.048362568 0.16688299
0.031140162 -0.17773376 0.533834 0.32280627 0.286412 0.06522012 0.053441107 0.2601115
0.1578472 -0.16101275 0.19930322 -0.05047788 -0.06906477 -0.12912685 0.010420826 0.033248506
0.112843886 -0.005806694 0.08063155 -0.046845574 -0.1187521 -0.2008849 -0.013873089 0.22263111
-0.09704944 -0.22899258 0.20589438 -0.10783877 -0.5673183 -0.17932174 0.14940332 -0.15920478
0.46870026 0.23618488 0.077737905 -0.027327828 0.20214441 -0.49751905 -0.1257008 -0.034506127
-0.20730522 0.20996095 -0.24844258 0.041734744 -0.40543455 0.02471891 -0.307376 -0.05833225
-0.18815355 0.20339923 0.18311122 -0.13043804 -0.14656411 0.13578236 0.045918133 0.034267094
-0.10435223 0.33286238 -0.2874423 0.1524369 0.04644247 -0.14200303 0.05523596 -0.039118364
0.22280735 -0.12804581 0.4246761 0.43049473 0.6190827 0.03739524 -0.079036176 0.40734693
0.30905542 0.02401789 0.1697469 0.047089886 0.087661654 -0.06741749 -0.12586011 -0.15653831
0.27007946 -0.10830617 0.03137038 0.003941574 -0.122220226 -0.11398975 -0.12779547 0.043277025
-0.2684419 -0.084219694 -0.068459935 0.068683535 -0.49979684 -0.0659695 0.24216346 -0.36601928
0.10795297 0.2452929 0.10042603 -0.010213251 -0.114789754 -0.4962198 0.054153595 0.31105506
0.03143089 -0.018347396 -0.059279256 -0.11401739 -0.4739474 -0.07034839 -0.12323943 -0.02381196
-0.21494982 -0.2162771 0.16630027 -0.13135608 -0.27098647 -0.0065401783 -0.030893508 0.12228181
-0.15446655 -0.017080838 -0.45770317 -0.10663881 -0.17341948 -0.027247246 0.08678954 0.025698388
0.035670944 -0.10054227 0.4618268 0.17491813 0.30170196 -0.08251033 -0.025494233 0.29741856
0.26586446 0.0043383655 0.09101488 -0.008421687 -0.0151862195 -0.024073005 -0.12351384 -0.08697297
0.08145424 0.075899646 -0.077763066 0.087026566 -0.03657562 -0.19080068 0.07866225 0.29156092
-0.0435546 0.22755644 -0.08853939 0.00572552 0.5990755 0.32267892 -0.1525368 0.18483171
-0.39662412 -0.32858613 0.12239368 -0.13872445 -0.1773876 0.5467095 0.031343684 -0.020035632
0.12461191 -0.15694079 0.13700074 -0.118274316 0.39654312 0.004520397 0.3598836 -0.018520763
0.33347097 -0.006264873 -0.22998509 0.16568288 0.05568131 -0.109190255 -0.14332528 -0.07137795
0.13159953 -0.31977898 0.47507823 -0.14226751 -0.0445949 0.224948 0.15644644 -0.073614754
-0.08026823 0.09295862 -0.50538313 -0.4340614 -0.49742258 -0.047380406 0.06578025 -0.45741102
-0.2705809 0.13745609 -0.10405766 -0.0329484 0.12931494 0.12636767 0.20085028 -0.0045679533
-0.17836598 -0.0006377817 -0.015836472 -0.03899939 0.08669306 0.1591563 0.06616283 -0.079339944

action_layer.2.bias f4 [64]
00000000: cd51 7d3a c321 edbd 91b3 c9bd 9b05 b43d
00000010: fed5 463d fc94 00bc be59 ddbc 42b3 8a3d
00000020: 7501 cd3b 5336 d6bc c1fe 423c 91f1 8abd
00000030: bcb9 04be a34f 50bd fc4e 26be dcb9 be3d
00000040: 2922 79bc d73b 33bd 47bb 82bc 6a6e 423d
00000050: f863 0fbd cbe4 413d ec8e 22bd ff45 87bd
00000060: cd4d 13bd e523 6abd f526 8abd f5ef bfbd
00000070: e799 f03d 23b5 b6bd 5b4d dc3d 18c9 113e
00000080: 37fc 06bd 400a bb3d 13e1 203d aa04 42be
00000090: 5fb7 d0bb d843 193e 0abc cfbd 2342 43bc
000000a0: a066 143d 1dba 01bd 3b5b 89bb 0217 a3bb
000000b0: fb92 98bd 7f0c b83d 1cb3 e2bd 796b 71bc
000000c0: 2a8a a73c d542 91bd d61e 4e3d 43b3 e2bd
000000d0: 607a 953d 4792 103d 1b8f 283d 6c00 87bc
000000e0: 502f ddbc 1a8b 103d 9c76 2abd 8401 8cbc
000000f0: c28e c0bd c1f6 8ebd fbf3 513d 4f90 3a3d
0.00096633733 -0.11578705 -0.09848703 0.08790132 0.048543923 -0.007848021 -0.027020331 0.06772472
0.006256277 -0.02614895 0.011901558 -0.067843564 -0.12961477 -0.050857197 -0.16241068 0.093127936
-0.015205898 -0.04375824 -0.015958441 0.04746858 -0.035007447 0.047337335 -0.039687082 -0.066051476
-0.03596287 -0.057163138 -0.06745712 -0.0937194 0.117481045 -0.08921268 0.10756942 0.14236867
-0.032955375 0.091328144 0.039277148 -0.18947092 -0.006369516 0.14967287 -0.101432875 -0.011917624
0.036230683 -0.031671632 -0.0041917837 -0.004977108 -0.07449909 0.089867584 -0.11069319 -0.014735096
0.020451624 -0.07092825 0.050322376 -0.11069348 0.07298732 0.03529575 0.0411521 -0.016479693
-0.0270001 0.035288908 -0.04161702 -0.017090566 -0.09402229 -0.06980658 0.05125807 0.04554778

action_layer.4.weight f4 [4, 64]
00000000: 11e9 9f3e 028e c13e 83a9 683e 7033 cdbe
00000010: e3b1 80be eb50 a5be 819f 3f3d b83d b6bd
00000020: ab84 89be 6c41 26be 8e28 87be 567b b3be
00000030: 37b5 06be 1378 793e 4388 0fbe 860e d63d
00000040: 4712 2f3e d495 ae3d 80dd a73e bfd0 533e
00000050: c1f4 d5be d596 1c3e 05b1 bd3e f336 86be
00000060: ccff 8c3e 7340 34be a5e4 b73e bf3b f93d
00000070: 4ba1 d8be e325 febe d470 eb3d ed54 443e
00000080: 9695 b6be cd41 193e afce 2a3e fe71 10be
00000090: 1e97 f6bc 06ea 133e a40d 77be b240 b83e
000000a0: b510 653e 0205 e23e a044 ba3e d8ae 483e
000000b0: dc0f 8abe afce 5abe 739f c03e 3a96 ba3e
000000c0: 78b8 833e c069 043f e415 743e df6b 233e
000000d0: 3161 b03e 2330 ad3e 3fc4 f33d 72a5 9cbc
000000e0: fbee 86be cf98 bd3e 9af9 d1be ee4b aabb
000000f0: 5d83 98be 235b 2b3d 439c 8c3e 819c 003e
00000100: 546c 313e 9491 01bd 1ff1 1e3e 8fc0 47bd
00000110: 140a 1a3b 5a7b 8d3c 4553 13be d18a cc3d
00000120: e6b9 0d3e 17cc 19be 7dbe 12be 9958 19bd
00000130: 830e 4d3e fbe0 f73d f84b 343e d148 cbbd
00000140: 16b2 0d3e 9e43 923d 20d9 f93d 9845 97bd
00000150: d991 85bd 940d 783e 10d8 0c3e 7d24 16be
00000160: 2045 d73d 18c3 133d 951a 493e 3c11 bb3e
00000170: 308e f4be fc45 21be ad4d e1bd b92e c03d
00000180: 9d2b c2bd c78e b5be bc08 b53d ddca ac3e
00000190: 617d 6bbe 6daa 84be 211c 6c3e 9bee 953e
000001a0: 1057 13be 05d9 59bd ad6d 68bd ab81 903e
000001b0: b006 7fbe a2de 9a3e ae77 df3d 821f d3bd
000001c0: 38d7 863e cba9 3ebd 4998 803d 728f ac3d
000001d0: 305e 973d 633d 86bd aac3 123e 7d28 89bd
000001e0: bb88 6bbe 854d 7f3e 94e0 7f3c 68d5 03bd
000001f0: a680 b7bd fa23 9b3e 37a4 913e abe3 a6bd
00000200: bf1f 2abf 60a0 10bf c3f7 02bf 06ea fe3e
00000210: 28d1 b23e 5891 d63e ad85 c3bd 7337 663e
00000220: fc95 943e fdbe aa3e adb9 d23e f935 dd3e
00000230: 7f0d ac3d 8c03 11bf 08d8 d0bd e6dd c5bc
00000240: ac52 45be 26a6 97be 51fe 0abf 573b d3be
00000250: 663a 113f b071 143e cd9b 01bf 065c 9c3e
00000260: 9c78 d4be 678b 253f feb5 0ebf 467c eabe
00000270: 171d 0c3f 75ae 1e3f 97e9 a2bd 25bb 923d
00000280: e860 263f c29b 8dbe bc25 b3bd cfd5 0bbe
00000290: 36dc 0a3e 7ed1 5ebd 1cff c53e dfa9 eebe
000002a0: 9d33 c4be 0de6 04bf 9db7 0ebf 6812 2dbd
000002b0: c31f ca3e 0a2d 643e 9c96 1cbf 1048 2fbf
000002c0: 8e21 1dbf f8d3 3fbf 231d c2be 290d 81be
000002d0: a673 36bf bb92 fabe 939d 0dbc 680c 823e
000002e0: bca9 6a3e 065c 25bf 48e0 3f3f 482e 15bd
000002f0: 726b 9f3e fb37 bf3c 5066 3f3c f17e ccbe
00000300: 2cec 173d e238 aa3e a754 45bd 0fdf 6dbe
00000310: 3e29 68be 3362 84be bff1 0f3f f81d 79be
00000320: 15cc 98bd 4f22 a93d fdd8 c6bc 91d5 34bd
00000330: 57cc b5bd 0641 24be 94b8 173e 9f93 3d3e
00000340: 8f53 1f3d 5d13 5a3e 094c 043e db0f 013e
00000350: bf32 0bbe 9b88 10bf 5373 fe3d a5a8 683e
00000360: 027b 46bd 1838 903d 9e59 cfba ce07 7ebe
00000370: bf79 b13d cd00 0cbe 7ce8 713e ee53 85be
00000380: b4ba 21bd 8da8 ef3e b3fc cabe 9a7f 1cbe
00000390: 34b8 863e b53e 1e3d 6fcb adbe 4e6f b6be
000003a0: c398 003e 4f51 80bc c949 8a3e 96d9 07bf
000003b0: 2af5 023f 1733 09bf 755f f93d f040 353e
000003c0: 553c babe b8d7 813e 2aca 35be 9648 b23d
000003d0: 44f3 2c3e dc93 bd3e 9e06 b6be a903 c6bc
000003e0: aa97 b83e 68c6 a3be 45d1 b8bd 8b70 2dbd
000003f0: 353f 413d 4420 f9be 9b99 febe 5ce8 ad3d
0.31232503 0.37803656 0.22720914 -0.40078306 -0.25135717 -0.32288298 0.046782974 -0.08898491
-0.2685903 -0.16235894 -0.26398128 -0.35055035 -0.13155065 0.24362211 -0.14016823 0.10451989
0.17096816 0.08524671 0.3278618 0.20685099 -0.41788295 0.15291913 0.37049118 -0.26213798
0.27538908 -0.1760271 0.3591663 0.12169599 -0.42310557 -0.4963828 0.1149613 0.19173022
-0.35661 0.14966507 0.16680406 -0.14105985 -0.030101355 0.14444742 -0.24126297 0.3598686
0.22369654 0.44144446 0.36380482 0.19597948 -0.26965225 -0.21367906 0.3762165 0.3644274
0.25726676 0.5172386 0.23836476 0.15959118 0.3444915 0.33825788 0.11902665 -0.01912186
-0.26354203 0.37030646 -0.41010743 -0.00519704 -0.29787722 0.04183496 0.27462968 0.12559702
0.1732648 -0.031632975 0.15521668 -0.048767623 0.0023504542 0.017270733 -0.14387234 0.09987415
0.13840446 -0.1501926 -0.14330478 -0.03743801 0.20025067 0.121034585 0.17607105 -0.09925998
0.13837466 0.07141803 0.121996164 -0.07386321 -0.06521959 0.2422393 0.13754296 -0.14662357
0.105112314 0.036074728 0.19639046 0.36536586 -0.4776473 -0.15749353 -0.110011436 0.09383912
-0.09480975 -0.35460493 0.088395566 0.33748522 -0.22997047 -0.25911275 0.23057605 0.29283604
-0.1438868 -0.05318548 -0.05674522 0.2822393 -0.24904895 0.3024798 0.10911499 -0.10308744
0.26336074 -0.046548646 0.06279046 0.084257975 0.07391012 -0.06554677 0.14332452 -0.06697176
-0.23001377 0.24931915 0.015617508 -0.032185942 -0.089600846 0.30300885 0.28445598 -0.08148893
-0.6645469 -0.5649471 -0.51159304 0.4978792 0.349252 0.41907763 -0.09546981 0.2248209
0.2902068 0.33348837 0.41157284 0.4320524 0.08401012 -0.5664604 -0.10197455 -0.024153661
-0.19269818 -0.2961895 -0.54294306 -0.4125621 0.56729734 0.14496493 -0.5062836 0.30538958
-0.41498268 0.64665836 -0.5574645 -0.45797938 0.5473189 0.6198495 -0.0795471 0.07164601
0.6499162 -0.27657896 -0.08747432 -0.1365578 0.13560566 -0.054399006 0.38671196 -0.46613976
-0.38320628 -0.5191353 -0.5574892 -0.04225388 0.39477357 0.22282806 -0.6116731 -0.68469334
-0.61379325 -0.74932814 -0.37912855 -0.25205353 -0.71270216 -0.4894007 -0.008643526 0.2540009
0.22916311 -0.6459354 0.749516 -0.03642109 0.31136662 0.023342123 0.011682108 -0.399406
0.037090465 0.33246523 -0.048176434 -0.23229621 -0.22671983 -0.2585617 0.5622825 -0.24327838
-0.074608006 0.08258497 -0.02427339 -0.044148985 -0.08876865 -0.1604043 0.14816505 0.18513344
0.038898047 0.21296449 0.1291963 0.12603705 -0.13593577 -0.56458443 0.1242434 0.22720583
-0.048457153 0.07041949 -0.0015819555 -0.24807665 0.08665799 -0.1367218 0.23623842 -0.26040596
-0.039484695 0.46808282 -0.3964592 -0.15283051 0.2631241 0.03863402 -0.3394427 -0.35631794
0.12558274 -0.015663771 0.2700942 -0.53066385 0.5115534 -0.5359358 0.1217641 0.17700553
-0.36374155 0.25359893 -0.177529 0.08705251 0.16889673 0.3702687 -0.35551924 -0.024171667
0.3605321 -0.3198731 -0.0902429 -0.042343657 0.04717942 -0.4865743 -0.49726567 0.08491585

action_layer.4.bias f4 [4]
00000000: 0d10 493e 03ef afbd 9d79 313d ca0f 0ebe
0.19635029 -0.0859051 0.04332887 -0.1387321

value_layer.0.weight f4 [64, 8]
00000000: 743a c8be 8366 e3bd 3e3e cdbc 9c73 b2be
00000010: bd36 343f e01b 04be 365f 90bd e1ee 81be
00000020: 1b29 f4be 8678 d2bc d6bf 0ebe 08be 73be
00000030: 1c7f 443d eeab 023f 10bd da3d 5c05 b43e
00000040: eb1a 2b3d 8d91 b0bd d9e4 8b3e 3639 debd
00000050: fcd8 07bf 87bc f2bd 65b9 0d3e 4c69 12be
00000060: e57a 063e e861 60be 47b7 7dbd 86d7 873d
00000070: d17a 9b3d 37ff a6be d11f ec3e 818a ef3c
00000080: 7e36 773e b40c 573e 0f49 bfbe 6d52 00bf
00000090: ce35 e2be 23b1 2f3e ceae 37be 5350 a5be
000000a0: b619 f03d e83f abbe c562 4fbe ca0b df3e
000000b0: e309 063d 5b27 e13b 1b90 233e c151 843c
000000c0: e29d c93e d1b8 cbbe 09cf 253e 90b9 4f3d
000000d0: fadb f6bd 9044 8dbe c0ae adbd 304a a53e
000000e0: f22c 943e 7888 aebe 825d 1b3f 3f9d 873e
000000f0: 4e83 313e 62b3 f93e d0c8 f23d fbb2 af3e
00000100: 2b5c 8c3e 6465 bd3e 7ad0 68bd fa41 dcbd
00000110: 8a47 09be 492b 9abe 386f d13e a54a f03d
00000120: 792a 2f3e c7ae 8dbe 066f e63c b1e7 843e
00000130: 3484 09bd 1ccd 883e 7593 0abf baa1 4cbe
00000140: 9922 b43d 7992 273e 1797 ec3d 1410 84be
00000150: a6ae 4b3e 8e4a 33bd 46a5 22be 3dbd d9be
00000160: bb3c cb3e 8522 2abe 3a96 debe bd06 22bf
00000170: 5529 653e 9db0 613d 64cb ef3e 9f96 a1bd
00000180: e7c9 a6bb 371d 913e d8e2 193e 435a 1d3f
00000190: 7886 59be 4b6f fbbd e93b 36be f98f 4e3e
000001a0: ef61 333c 94db ccbe 5776 3e3e 48b7 183e
000001b0: d089 d8bd e6e4 20bb c0f7 933e f383 b83c
000001c0: 23fb f0be b5e3 043f 5c9e 413e 4188 97be
000001d0: 4639 13be 72f0 c2bd b954 85be 2da6 e7be
000001e0: c616 a83d fb45 ff3d 1975 8c3e 7fc0 233e
000001f0: e2e8 02bf 1e8c 07bf edeb 213e 2fe2 d13e
00000200: 8023 813d 1067 b8be 80b7 543e 4094 26be
00000210: c101 95be 773f febd 7feb 25bc 9de6 b93c
00000220: 5200 ea3e 0416 f7bd 71dd 103e 613b 6a3d
00000230: fb34 893e e36e 57be d0a3 193f ff1c 203e
00000240: 408a 2c3e 21b6 dcbc 49fe 923e 1123 ea3d
00000250: 1851 d83e ff76 80be 2162 73bd 5a59 01bf
00000260: d7ce b83e e349 9e3e aa30 81bc d558 17bf
00000270: fd5f e53d 4046 923e 9977 803d c8f2 c0bd
00000280: 69db 833b 84c7 8dbd fae3 bdbe a985 d83d
00000290: ecc7 1e3f 8470 3c3e 12aa 413e 0472 aa3d
000002a0: 1be7 8d3c 7381 ebbe 2c27 17bd a04e 1b3e
000002b0: a885 fc3e ef6a 27be 4703 2abe a71d d8bd
000002c0: f894 0dbd e826 f63e d178 20be d6d8 d2be
000002d0: b2a0 10be 34d2 79be 5da8 88be 89de d43d
000002e0: a876 623d d87e 283d e86d 993e 11ee a93d
000002f0: 5489 0b3e 6c58 9dbe d59c f13e 1dec 003e
00000300: cf9b 363e c66d f13e ef80 c6be a9a1 82bd
00000310: 43c9 653e d0d7 94bd fb62 03bd 44b8 c7be
00000320: a6e2 19be e190 03bd c7e7 4dbe 874d c43e
00000330: 65c4 63be db9d 8b3e 43e6 2e3f 5b04 b43e
00000340: 236a 4c3e 4a3e f6bb 1695 2b3e 962a 953e
00000350: f374 353e 0642 61bd 4364 7abd a390 eebd
00000360: cfa9 16bf 32b0 413e be51 953d 230c 37bd
00000370: 9484 adbe 7808 c33d 7379 0cbf 8ab3 583e
00000380: c61e d9be 1d18 8e3e b01e 4c3e 52da 52be
00000390: b637 adbe 8cdc 9fbe 1dd2 543e e396 69bd
000003a0: 1d4b 3ebb 7d30 8ebe dec4 003e ba1f f73d
000003b0: 23d0 b53e 6d74 98be bc9c c53e d753 e93e
000003c0: cc92 46be c7ad 4b3e 2fa3 103e de51 1dbe
000003d0: e371 d53d 5f18 9fbe 8a7d b33e bc2b 863e
000003e0: f750 ea3d a68b e7bd 5b16 d8be f3f2 c2be
000003f0: c9e4 c8be 4365 503d 2ff9 79be b27c 12be
-0.39107096 -0.11103537 -0.025054093 -0.34853828 0.70396024 -0.12901258 -0.0704941 -0.25377563
-0.4768761 -0.025692236 -0.13940367 -0.2380296 0.047972783 0.51043594 0.10680592 0.3516034
0.041773718 -0.086215116 0.27323034 -0.10850756 -0.53065467 -0.11852365 0.13840254 -0.1429798
0.13132818 -0.21912348 -0.061942365 0.06632905 0.07591785 -0.32616588 0.46118024 0.029240848
0.24141881 0.2100094 -0.37360427 -0.5012577 -0.44181675 0.17157416 -0.17937776 -0.32287845
0.11723654 -0.33447194 -0.20252521 0.43563682 0.032724272 0.0068711466 0.1597294 0.016152265
0.39378268 -0.3978944 0.16192259 0.050714076 -0.12053676 -0.27591372 -0.084805965 0.32283163
0.2894054 -0.34088492 0.60689557 0.26487157 0.17335245 0.4876967 0.11854708 0.3431624
0.2741407 0.36991417 -0.056839444 -0.107547715 -0.13406196 -0.3011115 0.40905166 0.11732987
0.17106046 -0.27672407 0.028129112 0.25958017 -0.033573344 0.26718986 -0.5413125 -0.19983569
0.087956615 0.16364469 0.115522556 -0.25793517 0.19890842 -0.043772273 -0.1588336 -0.4252719
0.3969477 -0.1661473 -0.4347399 -0.6329153 0.22379048 0.055100072 0.46834862 -0.07890057
-0.0050899866 0.28342602 0.1502794 0.61465853 -0.21242702 -0.12277087 -0.17796291 0.20172109
0.010948642 -0.40011275 0.1859983 0.14913666 -0.10573161 -0.0024550497 0.28899956 0.022523856
-0.47066602 0.51909953 0.18908066 -0.2959614 -0.14377317 -0.095185176 -0.260412 -0.4524397
0.08207469 0.124645196 0.27433088 0.159914 -0.511366 -0.52948177 0.15812655 0.40992877
0.06305599 -0.3601613 0.20773125 -0.1626749 -0.291029 -0.12414449 -0.010126947 0.022692973
0.4570337 -0.12064746 0.14146973 0.057185534 0.26798233 -0.21038394 0.60015583 0.15636061
0.16849613 -0.026942315 0.2870963 0.1143247 0.4224937 -0.25090787 -0.059419755 -0.50526965
0.36095306 0.30915746 -0.015770275 -0.5911992 0.11199949 0.28569221 0.062728114 -0.09421307
0.0040239585 -0.0692282 -0.37087995 0.10572369 0.62023807 0.18402296 0.18912533 0.08322528
0.017322114 -0.459972 -0.03690259 0.15166712 0.49320722 -0.16349386 -0.16602813 -0.10552531
-0.034565896 0.48076558 -0.15671088 -0.41181058 -0.141238 -0.24396592 -0.2669095 0.10394008
0.05528894 0.041136593 0.29966664 0.08297361 0.13626605 -0.30731523 0.47189966 0.1259007
0.17832874 0.47154063 -0.38770244 -0.063784905 0.22440057 -0.072677255 -0.032076817 -0.3900777
-0.15027866 -0.03212059 -0.20107947 0.383404 -0.22242887 0.27268872 0.683201 0.35159573
0.19962363 -0.0075147497 0.1675609 0.29134053 0.17720394 -0.054994605 -0.061130773 -0.11648681
-0.5885286 0.1891487 0.07290982 -0.04468931 -0.33890212 0.095231 -0.54872817 0.21162239
-0.4240629 0.27752772 0.19933581 -0.20591095 -0.33831567 -0.3122295 0.20783277 -0.057028662
-0.002903647 -0.2777137 0.12575099 0.12066598 0.35510358 -0.29776326 0.3859614 0.45571777
-0.19391936 0.1989051 0.1412475 -0.15363261 0.10422113 -0.3107328 0.35056716 0.26205242
0.11441224 -0.11305933 -0.42204556 -0.3807598 -0.3923705 0.05087782 -0.24411462 -0.1430538

value_layer.0.bias f4 [64]
00000000: cde1 5dbe 5091 29be 78b2 c23b 8d5f cb3e
00000010: 8df2 60be c8ba 6bbd 12ce 8d3e b824 25bd
00000020: 8179 243e 6128 f1be a735 bfbe 1eed e2bc
00000030: effc 0c3d 00ab e43e cd85 b5be b584 413d
00000040: 2dc7 283e f37a 423e 3197 7e3d f814 acbe
00000050: 6a3a 18be af3d 2ebd fb25 b3be 2792 893e
00000060: e251 cebe a908 8b3e da40 d83d 55df 3bbe
00000070: 88d1 793e d6bc 9d3e 0024 eb3e cc53 6b3e
00000080: c6be 89be 4204 723e a54d fc3e b2e3 ffbb
00000090: b15a a13e 7bbd efbd 9055 1c3e e1b5 b53d
000000a0: 0add e8bd f1a4 42be 4ed7 8f3e a773 36be
000000b0: c098 60be 72c8 d1bd 6d13 57bd 0fba c0bc
000000c0: 0909 e83d 09d5 153e c647 203c da62 963d
000000d0: 4173 52be eef6 93be 3855 93bd c0bb 8cbe
000000e0: bf65 883e 0141 073e d088 24be 4ef4 2e3e
000000f0: e8d3 c93e b549 5d3e ee76 7b3e ac20 9a3e
-0.21668167 -0.16559339 0.0059416853 0.39721337 -0.21967526 -0.057551175 0.27696282 -0.04031822
0.16061975 -0.4710112 -0.3734562 -0.027700957 0.034420904 0.44661713 -0.35453644 0.0472457
0.1648223 0.18992214 0.062155906 -0.33609748 -0.14866033 -0.042539295 -0.34989914 0.26869318
-0.40296847 0.27155045 0.105592445 -0.18346913 0.24396336 0.30808133 0.45925903 0.22981185
-0.2690336 0.23634437 0.49277988 -0.007809126 0.31514505 -0.117060624 0.15267015 0.08872581
-0.11370285 -0.19008233 0.28093952 -0.17817555 -0.2193327 -0.1024331 -0.05250876 -0.02352622
0.11329848 0.14632048 0.009782737 0.07343073 -0.20551778 -0.2889933 -0.071939886 -0.27486992
0.26640126 0.13208391 -0.16067815 0.17085382 0.39419484 0.21610148 0.24557087 0.30103052

value_layer.2.weight f4 [64, 64]
00000000: 4457 8b3d e866 2a3d 13c4 1bbe 5f56 9c3d
00000010: f8ee 94be 01c0 35bd 8629 123d b4a6 193e
00000020: 866e b63d 0cb9 c43c c414 dd3d e4b2 ec3d
00000030: e74d d23a 0e65 023e c9b6 a53c c65b ccbd
00000040: ee6b 0bbd 0ca7 353d 43c8 4c3e 7c6a 95bd
00000050: 795b 9b3c 5b63 4c3e 7d57 353c a4ed adba
00000060: 1bc7 0bbd 6895 313c c3ad b4bd 3b2c 68bd
00000070: 7bef c2bd f985 a93c c7a9 19bc 7dc6 71be
00000080: b163 88bd e099 b73d 5588 043d 9722 91bd
00000090: e252 303e a549 52be 7d0f 1fbe e80b 23be
000000a0: 2250 4dbe 5075 05be e3d7 843e e7c7 48bc
000000b0: b703 c6bd 53bf f23d e0f7 60be 81f1 613e
000000c0: 723d d0bd e67a 2a3d a838 633d 4116 2cbd
000000d0: d45a 81bd a5d1 14be a661 1c3e a158 3f3d
000000e0: af43 8fbd 7eb2 983d 1bf3 853d a8ea ab3d
000000f0: bf0a b73d a576 373e 7f21 1d3e 6ed3 40bb
00000100: ab7c bcbd 96e5 14bd 92d7 063c a7b9 21be
00000110: 2c10 a53d e945 c6b9 55b6 b9bd 750a d5bc
00000120: 3e52 07be 59ca 4c3e f000 023e cab4 023e
00000130: 9683 ebbd cb73 65be b835 0b3e 219c ebbc
00000140: 2312 a83c c336 443d e256 1fbc 769e e73d
00000150: 8ead 9d3d 33f6 b33d 5cda cbba ebbc 20be
00000160: 60ea 1ebc 33a0 5a3d 3eab 003c e1af a33d
00000170: a530 92bd a360 3fbe 37d8 fcbc 7e37 a5bd
00000180: f264 72bd 3ab8 b83d 6982 65bd e838 1c3c
00000190: e432 813d fcaa b03d 37f0 debd cdf7 fdbd
000001a0: 6151 1ebd dd8c 9abd e2a0 bcbc b030 953d
000001b0: 7f32 8cbc 069e 363d fc4d 053d 707a 0c3d
000001c0: f31b c1bc 0991 49bc 7bfb e8bc d78c cebd
000001d0: 4e5e df3c 312c 003e 300d f03d 0bb6 953b
000001e0: 207c c3bd 7dbe cc3c e66e b8bd 08a2 be3d
000001f0: c652 413d bb0a 543d 76bc 1abc 2ab0 8d3d
00000200: 43ff 37bd 3f7c 26bc e869 0bbe d05f f4bc
00000210: a607 b5bd b41e 07be 1ce6 debd c450 29bc
00000220: f1a6 debc 4b8d 19bd 8aec 893d 6a96 8abd
00000230: fd55 133c c0d7 5dbd aaeb 903c e71f a8bd
00000240: 86c2 0ebe cc86 033d 66f0 b5bc 0a1f eb3d
00000250: 37a6 0e3d 65e5 16be 7370 84bd c439 56bd
00000260: 7ec1 3abd 322d 993d 8f78 303d b426 433d
00000270: b219 dc3c 3de5 4ebd adb7 8f3c 363b 1ebe
00000280: cab7 a33b d97b cdbd 24db 14bb 6494 093e
00000290: adfc c7bd f016 a93d 5522 073d 3866 11bd
000002a0: 9487 123e 6c56 ca3d 5c72 d9bc 27ea 853d
000002b0: 859b 823d 5542 b83d 6f8c f13d 27e9 9d3d
000002c0: 4e63 063e c37b d83c 1dd1 57be 3131 1c3e
000002d0: f0dc c7bc 76ec b53d eaf6 d13d 7d33 0dbe
000002e0: af2f 1cbe bfa6 f3bc 556f 1bbd 4ce4 403b
000002f0: ec79 06be 5637 b73d de0b 09be fc16 a03d
00000300: cf78 1d3e b0f0 febc 85a2 203e a64d 48be
00000310: 6522 013d 9377 8c3d 886e 78bc cb63 033e
00000320: 1102 32be 945d 9c3e fe2e f53d c263 14be
00000330: 5f64 3cbd 4d72 96be 07a1 323e 67e4 e93c
00000340: 9ad7 0a3b c2d9 12be b059 1e3d 0019 093e
00000350: 08dd 24bc 13b2 843d 2cd7 f03d 8f70 4dbe
00000360: 073c 653d dab3 57be f156 b53d 8037 ba3d
00000370: 71e0 3dbe e51c 99bd a169 55be a11c 4fbe
00000380: fa53 353e e526 00bc dec8 4cbd bdc9 003e
00000390: 17c3 c5bd d980 9c3d 6ca7 dabc cb6e 08be
000003a0: c106 a63d dad2 dd3d 6fe5 1abe bae5 c93d
000003b0: 1712 173e fa4f 5e3d 0e8d 0cbe 976b 283e
000003c0: 1173 eabd eeaa 14bd 5aa3 24be 574b 13be
000003d0: cc71 a83d c31e 823e 6e49 113c 8646 bb3d
000003e0: 7432 6d3d 5502 5f3d baf2 44bd 8372 42bd
000003f0: 624f 79be 77ea 433d 7a2d 3f3c c8d9 cebd
0.06803754 0.041602045 -0.15211515 0.076336615 -0.2908857 -0.044372562 0.03568413 0.15004998
0.089077994 0.024014018 0.10794976 0.11557558 0.0016044945 0.12733862 0.02022876 -0.09978442
-0.034038477 0.04434876 0.19998269 -0.07295701 0.018964516 0.19959776 0.011068222 -0.0013269675
-0.03412543 0.010838844 -0.08822205 -0.056682806 -0.095183335 0.020693766 -0.009378857 -0.23610874
-0.066596396 0.08964896 0.03235658 -0.070866756 0.17219117 -0.20535906 -0.15533252 -0.1592251
-0.200501 -0.13033032 0.25945958 -0.012254692 -0.09668677 0.118528984 -0.21969557 0.22064783
-0.1016797 0.04162111 0.055473953 -0.04201341 -0.06316152 -0.14533098 0.15271625 0.046715382
-0.069953315 0.0745592 0.06540509 0.083943665 0.089375965 0.17916353 0.15344809 -0.0029422897
-0.09203466 -0.036351763 0.008230107 -0.15793477 0.08059725 -0.0003781759 -0.0906798 -0.026005963
-0.13214967 0.19999065 0.1269567 0.12764278 -0.114997074 -0.22407453 0.13594711 -0.028760972
0.02051646 0.047903787 -0.009725304 0.11309521 0.076991186 0.08787193 -0.0015552747 -0.15697066
-0.009699434 0.053375434 0.007853327 0.079925306 -0.071381845 -0.18689208 -0.030864818 -0.08067225
-0.0591783 0.090195134 -0.056032572 0.009535052 0.06308535 0.08626363 -0.10885661 -0.1240078
-0.038651828 -0.07546399 -0.023025934 0.07284677 -0.017113922 0.044584297 0.032545075 0.034296453
-0.023572898 -0.0123026455 -0.028440228 -0.10085457 0.027266648 0.12516858 0.11721265 0.0045688204
-0.09545159 0.024993176 -0.09005527 0.09308249 0.04719808 0.051768046 -0.009444347 0.06918366
-0.04492117 -0.0101614585 -0.13614619 -0.029830843 -0.088393494 -0.13195306 -0.10883734 -0.010334197
-0.027179213 -0.037488263 0.06734569 -0.067669705 0.008992669 -0.054160833 0.017690498 -0.0820921
-0.13941392 0.032110974 -0.022209357 0.114805296 0.034826484 -0.14735945 -0.064667605 -0.052301183
-0.045594685 0.074793234 0.043083724 0.047644332 0.026867721 -0.050511587 0.017543638 -0.15452275
0.0049962746 -0.10033388 -0.0022713626 0.13435513 -0.09764991 0.08256328 0.032991726 -0.035497874
0.14309531 0.09879765 -0.026543789 0.06538802 0.06377319 0.08997027 0.11794364 0.07710486
0.13123819 0.026426202 -0.21075864 0.1525314 -0.024397343 0.08882992 0.10252173 -0.13789172
-0.15252565 -0.029742597 -0.03794797 0.002943295 -0.13132447 0.08946101 -0.13383433 0.07816884
0.15378116 -0.031120628 0.15686996 -0.1956087 0.03152694 0.068587445 -0.015163071 0.12831037
-0.17383601 0.30540144 0.11971854 -0.1449118 -0.04599416 -0.2938408 0.1744424 0.028551294
0.0021185637 -0.1434088 0.03865975 0.13388443 -0.010062464 0.064792775 0.11759791 -0.20062469
0.05596545 -0.21064702 0.088544734 0.09092617 -0.18542649 -0.07476214 -0.20841075 -0.20225765
0.17707816 -0.007821773 -0.04999625 0.12576957 -0.09656351 0.07641763 -0.026691161 -0.13323514
0.08106757 0.10831232 -0.15126584 0.0985827 0.14752994 0.05427549 -0.13725683 0.16447292
-0.114477284 -0.036295824 -0.16077939 -0.14384209 0.0822483 0.25414094 0.008867605 0.09144311
0.057909444 0.054445583 -0.048083045 -0.047472488 -0.24346688 0.047831025 0.011668557 -0.10100132

value_layer.2.bias f4 [64]
00000000: e4dd d43d 45f5 3abe abcc 2fbe 6339 bbbe
00000010: eb35 c03c 08bb 33bc fcf1 09be 23d8 fd3d
00000020: 3389 1dbe 76f1 35be 405f 6f3e 799f 093e
00000030: cb1d ba3e 6178 06be 3262 51bc f6a9 32bd
00000040: 93dc 6c3d 556f 11be 4300 e43d d5b8 72bd
00000050: eac4 1fbe 69b8 353d 9eb5 f8bd 72d6 353e
00000060: f573 163e ecaa 5abe 2a39 ddbc bae7 65bd
00000070: 1339 8fbe 22d0 9ebe 272b 23be f9ec 23be
00000080: 057c f33d 1c82 1e3e a5e9 8b3b 799e c93c
00000090: f1aa b63d b5a3 2dba d194 0a3e 3145 c9bd
000000a0: ea62 0c3c 8843 acbd 52c6 40bb bf7e 10be
000000b0: d13e 8e3e e8f1 02bd 7833 7bbd 7b48 843c
000000c0: 9464 adbe 6461 fb3d f690 4d3e 1970 bc3e
000000d0: 780d 243e 579a 033e c633 d93d fcd6 78be
000000e0: 5059 9fbe b2f2 51bc 7df2 1cbe 7eb3 8c3a
000000f0: d1fc c5bd bc6e 3b3d 54dc 1b3e 9b69 18be
0.10393885 -0.18257625 -0.17167918 -0.3656722 0.02346321 -0.010969885 -0.13471216 0.123947404
-0.15384369 -0.17767891 0.23376179 0.1343974 0.36350855 -0.13131858 -0.012779759 -0.04361912
0.057827543 -0.14202626 0.111328624 -0.0592583 -0.1560246 0.04436532 -0.12144016 0.17757586
0.14692672 -0.21354264 -0.027004797 -0.056129195 -0.27973232 -0.31018168 -0.1593443 -0.16008367
0.11888889 0.1547932 0.004269796 0.024611698 0.08919323 -0.00066238205 0.13533331 -0.0982765
0.008568505 -0.08411318 -0.0029415083 -0.1411085 0.277823 -0.03196898 -0.06132838 0.016147843
-0.33865798 0.12274435 0.2007483 0.36804274 0.16020763 0.12851845 0.10605578 -0.2430076
-0.31122828 -0.012814211 -0.15326877 0.0010734645 -0.096673615 0.0457599 0.15220767 -0.14884035

value_layer.4.weight f4 [1, 64]
00000000: b8c4 5bbd 00e1 043d e9d9 1a3d b944 093e
00000010: ecec b53c 70f3 e1bb af29 dd3c 30bd eabc
00000020: eb74 163d b37e 4ebe 4f52 aa3e 0d59 2e3b
00000030: 3fe3 74be 4dac 6b3d 52b5 60bc a48f ffbb
00000040: 065a 10bc c58b cc3c 0b8d 19bc 92fd 8e3c
00000050: 1d36 fc3c 25e7 98bc 1eec 403d 1e61 e3bd
00000060: a544 a53e 3bbe 8bbe 8ded cdbc 414d 513d
00000070: d284 703e 3353 103e 723d 863e f2d4 463e
00000080: 0d9f 0abd 3414 28be 645a e03b 6205 d239
00000090: 77a0 0abd be9a b8bc 5156 dcbc 9096 063d
000000a0: 0ff5 09bd e3d4 563c 6ca9 c9bc 423a 83b9
000000b0: 07d4 6abe 3cd6 043d a967 acbb c42a ea3c
000000c0: f473 833e a50c fabd e7d5 d1bd 7fdd 61be
000000d0: 25a5 ccbc e298 a9bc 5319 01bd 5673 553e
000000e0: 0583 113e 309d c23d 10bb dc3d 0403 833b
000000f0: 8655 423c 809f 91bc a1f1 6ebe 3dea 993c
-0.053654402 0.03244114 0.03780547 0.13405122 0.0222077 -0.006895475 0.026997415 -0.028654665
0.036732595 -0.2016552 0.3326592 0.0026603371 -0.23914813 0.057537366 -0.013715105 -0.0077991057
-0.008810526 0.024968991 -0.009372006 0.017454896 0.030787522 -0.018664906 0.04710018 -0.11102508
0.32278934 -0.27293572 -0.025137687 0.051099066 0.23488167 0.14094238 0.26218754 0.1941717
-0.03384309 -0.16413957 0.006846713 0.00040058332 -0.033844437 -0.022534724 -0.026896628 0.03285843
-0.03368097 0.01311228 -0.02461692 -0.00025029673 -0.22932445 0.032430872 -0.0052613807 0.028584845
0.25674403 -0.12209443 -0.10245877 -0.2205715 -0.02498109 -0.020702783 -0.03151829 0.20844778
0.14210136 0.095026374 0.10777867 0.003998162 0.011861211 -0.01777625 -0.23334362 0.018788451
