Homework8/8_gym-PPO/results/PPO_LunarLander-v3_500-eps0.75.pth (torch, 44194 bytes, 11 tensors)

action_layer.0.weight f4 [64, 8]
0	0x3d51d11d	0.051224817
1	0x3e873fe9	0.26415947
2	0xbd114a3a	-0.03547118
3	0x3ef94a86	0.4868967
4	0x3d5e3a70	0.05425495
5	0x3e6eeb8d	0.23332043
6	0x3e14cae9	0.14530529
7	0xbdd83f66	-0.10558967
8	0xbe164b3c	-0.14677137
9	0xbe77cc51	-0.24199034
10	0xbe555f97	-0.20837246
11	0x3e27e644	0.16396433
12	0x3e3bf8dc	0.18356651
13	0x3f1b1574	0.6057961
14	0x3eccaa8e	0.39973873
15	0x3edf2f55	0.435908
16	0xbe8a8691	-0.2705579
17	0x3e931a8e	0.28731197
18	0xbe2ac52e	-0.1667678
19	0x3e794d86	0.24345979
20	0x3ef58fc7	0.47961256
21	0x3f1d81e0	0.615263
22	0x3ed4f5e4	0.4159385
23	0xbe8d0db1	-0.27549508
24	0xbe441e53	-0.19152193
25	0xbe975f52	-0.2956491
26	0xbe2cf455	-0.1689008
27	0xbf1b1d76	-0.6059183
28	0xbe3a1c64	-0.18174893
29	0xbeae2f07	-0.34020254
30	0x3d1f9f10	0.038970053
31	0xbd737a1b	-0.05944262
32	0xbe53a724	-0.20669228
33	0xbdaae011	-0.083435185
34	0x3e50400c	0.20336932
35	0x3dcfeb2d	0.10152278
36	0x3ece723d	0.40321532
37	0x3eb7fc72	0.35934788
38	0x3e51fa61	0.20505668
39	0x3e218d95	0.15776666
40	0xbebf8a8d	-0.37410393
41	0xbe461a9b	-0.19346087
42	0xbe4a0a0c	-0.19730395
43	0x3e900999	0.28132322
44	0x3e9855b3	0.29752883
45	0x3e28a17e	0.16467854
46	0x3e9d7d39	0.307596
47	0x3eb19a6e	0.34688133
48	0x3d1e19ae	0.03859871
49	0x3eaf0b69	0.34188393
50	0x3ea13e0d	0.31492653
51	0x3eca4415	0.39505067
52	0xbedcfaf0	-0.431602
53	0xbee8ea57	-0.45491287
54	0xbed63b64	-0.41842186
55	0xbee4bed2	-0.44676834
56	0xbd6177fc	-0.055046067
57	0x3e45bfb7	0.19311415
58	0x3e9e127c	0.30873477
59	0x3e50368c	0.20333308
60	0xbe9ca552	-0.3059488
61	0xbe7652bd	-0.24055
62	0x3d8b015c	0.06787369
63	0xbe30f5a6	-0.17281207
64	0xbde35bc3	-0.111014865
65	0xbe56aaa3	-0.2096353
66	0xbe207265	-0.15668638
67	0xbe010897	-0.12600933
68	0x3e9474de	0.28995413
69	0xbd0c6a6c	-0.03428118
70	0xbd87658e	-0.06611167
71	0x3eb565d6	0.35429257
72	0xbe4f9dd8	-0.20275056
73	0xbd553296	-0.052050196
74	0xbe79cccc	-0.2439453
75	0x3e990bbc	0.29891765
76	0x3d9292d9	0.07156915
77	0x3e372884	0.17886549
78	0x3e8afcef	0.27146098
79	0x3e8eb310	0.2787099
80	0xbc6bbd28	-0.01438836
81	0xbd460d10	-0.0483523
82	0xbe0f5aaf	-0.13999437
83	0x3e07d9d6	0.13266692
84	0xbeb434e3	-0.351966
85	0xbe411bff	-0.18858336
86	0xbe75db93	-0.24009542
87	0xbe9ace31	-0.30235437
88	0xbe6965d2	-0.22792748
89	0x3c38896e	0.011263235
90	0x3e9b4b25	0.30330768
91	0x3e8ce293	0.27516612
92	0xbe2c7483	-0.1684132
93	0xbf0447c5	-0.5167201
94	0x3edefadf	0.43550774
95	0xbef1047c	-0.47073734
96	0xbe4d1117	-0.2002605
97	0xbd0f1d1a	-0.034939863
98	0x3ed3f640	0.4139881
99	0xbe75cba6	-0.24003467
100	0xbf0dcb06	-0.55387914
101	0xbe59f8cf	-0.21286319
102	0xbe4c18a7	-0.19931279
103	0x3cbab71e	0.022792395
104	0xbe4a473e	-0.19753739
105	0x3ea09080	0.31360245
106	0x3e7c96dc	0.24666923
107	0x3eaab4ee	0.33341163
108	0x3ce038c6	0.027370822
109	0xbed29385	-0.41128173
110	0xbdccdc07	-0.100029044
111	0xbf01b199	-0.5066162
112	0x3d889d9a	0.06670685
113	0xbe420a18	-0.18949163
114	0x3d83195f	0.064013235
115	0x3eaf8000	0.34277344
116	0x3d24fb8d	0.04027896
117	0x3e9438cc	0.28949583
118	0x3e844e53	0.25841007
119	0xbe81f56b	-0.25382552
120	0xbe892c41	-0.26791576
121	0x3d15e68c	0.03659682
122	0x3e273f41	0.16332723
123	0xbe3886e5	-0.18020208
124	0xbd7ddbd4	-0.061977223
125	0xbf058550	-0.52156544
126	0xbe45b5b8	-0.19307601
127	0x3da173ed	0.07883439
128	0xbde3d443	-0.1112447
129	0x3dd6b434	0.1048359
130	0x3dd10e66	0.102078244
131	0x3f12d8b6	0.57361925
132	0xbe8224d5	-0.25418726
133	0x3e729515	0.23689683
134	0xbe8bec22	-0.27328593
135	0xbf05460c	-0.5206001
136	0xbc68d890	-0.014211789
137	0x3e94b925	0.29047504
138	0xbebbd172	-0.36683232
139	0x3e804e2d	0.25059643
140	0xbd640829	-0.055671845
141	0x3e845f18	0.258538
142	0x3e8f150d	0.27945748
143	0xbeed65c0	-0.46366692
144	0x3ec5821a	0.38575822
145	0xbe790a27	-0.24320279
146	0x3e543551	0.20723464
147	0x3df6e01c	0.12054464
148	0xbe0057c6	-0.12533483
149	0x3dcb87e2	0.09938027
150	0x3e64fe15	0.2236255
151	0x3d19214e	0.037385277
152	0xbc826a2a	-0.015919764
153	0x3ca14028	0.019683912
154	0xbed429f1	-0.4143825
155	0xbe764498	-0.24049604
156	0xbd43aaba	-0.04777024
157	0x3e97d35d	0.29653445
158	0xbddbbc08	-0.107292235
159	0xbdeb31cf	-0.114841096
160	0xbe1ac21f	-0.15113114
161	0xbe646153	-0.22302751
162	0xbebb80a6	-0.36621588
163	0xbf044899	-0.51673275
164	0xbd1e5044	-0.038650766
165	0xbca37ff7	-0.01995848
166	0x3e68f5f5	0.22750075
167	0x3ea36755	0.31914774
168	0x3e43bbab	0.19114558
169	0xbe402e96	-0.18767771
170	0xbd66c36d	-0.056338716
171	0xbec8edfe	-0.39244074
172	0x3e896f15	0.2684256
173	0x3d9be621	0.07612253
174	0x3e051fe5	0.13000448
175	0x3efd37bf	0.49456593
176	0x3dadcdb9	0.08486504
177	0xbe83004e	-0.2558617
178	0x3e1985a9	0.14992394
179	0xbe981c3e	-0.29709047
180	0x3eae4bda	0.34042245
181	0x3eb5d546	0.35514277
182	0xbe5b10ea	-0.21393171
183	0x3f32211e	0.6958178
184	0x3e0391a7	0.1284853
185	0xbd98baff	-0.07457542
186	0x3eaba53e	0.33524507
187	0xbcc33732	-0.02383003
188	0xbdc77f11	-0.09741033
189	0xbf139bfd	-0.57659894
190	0xbe85b3cf	-0.26113746
191	0x3e52eac5	0.2059737
192	0xbe955edc	-0.29173934
193	0x3e32bc0b	0.17454545
194	0x3dbedd73	0.09319582
195	0xbe14166b	-0.14461677
196	0x3eb55946	0.35419673
197	0x3e8e5ff2	0.27807575
198	0x3eca4874	0.39508402
199	0xbdd54393	-0.104132794
200	0xbd16b863	-0.03679694
201	0xbe20179f	-0.1563401
202	0x3eb44fa4	0.3521701
203	0x3e4c19db	0.19931738
204	0xbeabcd3f	-0.33555028
205	0xbdbd22a5	-0.092351235
206	0xbe96c4b3	-0.29446945
207	0xbe6361cd	-0.22205277
208	0x3cdce850	0.026966244
209	0x3e4dd628	0.20101225
210	0xbe39c209	-0.18140425
211	0xbd1ee776	-0.038794957
212	0x3eecdd1a	0.46262437
213	0x3e7a04cb	0.24415891
214	0x3dca525c	0.0987899
215	0x3ee4ad89	0.44663647
216	0xbd1113ba	-0.035419203
217	0x3d2ad799	0.041709516
218	0xbe521b41	-0.20518209
219	0x3eea759c	0.45792854
220	0x3e02ddab	0.12779872
221	0x3e41be19	0.18920173
222	0xbe1df800	-0.15426636
223	0x3db71e3e	0.08941315
224	0xbdfb6c9c	-0.12276575
225	0xbeaef382	-0.34170157
226	0x3eb30184	0.34962094
227	0x3dc21bbd	0.09477947
228	0xbe408422	-0.18800405
229	0x3efa1bb0	0.4884925
230	0x3e813803	0.25238046
231	0x3eb32451	0.34988645
232	0xbeb75040	-0.35803413
233	0x3dc1cf51	0.094633706
234	0x3e268563	0.1626182
235	0x3dcd0fe1	0.10012794
236	0xbeaf8688	-0.34282327
237	0xbedc21c6	-0.42994517
238	0x3ea8a254	0.32936347
239	0xbe2fb2cf	-0.17158054
240	0x3daffcad	0.08593116
241	0x3e82b210	0.25526476
242	0xbebc7ff1	-0.36816362
243	0xbd1c6352	-0.038180657
244	0xbdef2fad	-0.11679015
245	0xbea4814c	-0.32129896
246	0x3e1b2d7c	0.1515407
247	0xbe1a897c	-0.15091509
248	0xbec26f89	-0.3797572
249	0x3e4cc344	0.19996363
250	0x3e4b8042	0.19873145
251	0xbe56612d	-0.20935507
252	0xbed5507a	-0.4166296
253	0xbda79cae	-0.08184181
254	0x3e177f43	0.1479464
255	0xbeaf831a	-0.3427971

action_layer.0.bias f4 [64]
0	0xbe2d0f5f	-0.16900395
1	0x3ea5b605	0.32365432
2	0xbe111075	-0.14166434
3	0xbdb314b2	-0.08744182
4	0xbe6148c1	-0.2200041
5	0x3d04467f	0.032293793
6	0xbe740977	-0.23831736
7	0xbcfbfa33	-0.030758953
8	0xbd9b286c	-0.07576069
9	0xbd84ec7f	-0.064904206
10	0xbd629521	-0.055318
11	0x3e6dd393	0.2322524
12	0xbce05342	-0.02738345
13	0xbe9cd041	-0.30627635
14	0xbd30c2b5	-0.043154437
15	0xbc8d3ad5	-0.017239967
16	0x3e0caa94	0.13736945
17	0xbea2edb7	-0.31821987
18	0xbe88f0b0	-0.2674613
19	0x3e32e99d	0.17471929
20	0xbe4a4cf9	-0.19755925
21	0xbe2f8b74	-0.17143041
22	0x3e9cb17b	0.30604157
23	0x3e6529f2	0.22379282
24	0xbddadcc8	-0.10686642
25	0x3dfd39be	0.12364529
26	0xbe5577b7	-0.20846449
27	0xbe34f68d	-0.17672177
28	0xbe89cbf1	-0.26913407
29	0x3e73f509	0.23823942
30	0x3e08a279	0.13343228
31	0x3e2749af	0.16336702
32	0xbea18728	-0.3154843
33	0x3ca9d2d0	0.020730406
34	0x3dd14d77	0.10219853
35	0x3dcfda09	0.10149009
36	0xbeb42b4b	-0.3518928
37	0xbe217289	-0.15766348
38	0x3da89501	0.08231545
39	0x3e4a6251	0.19764067
40	0x3be8f4fc	0.0071092825
41	0xbdec3646	-0.11533789
42	0xbe956d7d	-0.29185095
43	0xbe4c5f00	-0.19958115
44	0x3e85c157	0.2612407
45	0x3d40649e	0.046970956
46	0xbe811418	-0.25210643
47	0xbd9cbd94	-0.07653347
48	0xbd22717d	-0.039659012
49	0xbe83d3c9	-0.25747517
50	0x3e51248e	0.20424101
51	0xbdc763b0	-0.09735811
52	0x3d76881e	0.060188405
53	0x3e63c172	0.22241762
54	0xbe9011dd	-0.2813863
55	0xbe203917	-0.15646778
56	0x3ce069a1	0.027394118
57	0x3e0a8da1	0.1353059
58	0x3e2cccbc	0.16874975
59	0xbc922af3	-0.017842745
60	0x3e901ebe	0.28148454
61	0x3e4c99e7	0.19980584
62	0x3e85b6f8	0.26116157
63	0x3d80fa15	0.06297699

action_layer.2.weight f4 [64, 64]
0	0x3e7536ed	0.23946734
1	0x3d0867ca	0.033302106
2	0x3dd61797	0.10453718
3	0xbd6bc1df	-0.057557937
4	0xbda400df	-0.08007979
5	0x3d914045	0.070923366
6	0x3eaa4217	0.33253548
7	0x3e837efe	0.25682825
8	0xbd493bf0	-0.049129426
9	0xbd91b9fc	-0.07115552
10	0x3d113e46	0.03545978
11	0x3e491442	0.19636634
12	0x3e1b3b24	0.15159279
13	0x3dffc4cf	0.1248871
14	0x3dca1655	0.09867541
15	0xbd08973a	-0.033347346
16	0x3e75a0e4	0.23987156
17	0xbd19c962	-0.03754557
18	0x3d37e0b6	0.044892035
19	0xbd5171dc	-0.051133975
20	0xbe66bd6a	-0.22533193
21	0xbde16d51	-0.110071786
22	0xbe20e4e0	-0.15712309
23	0x3de57d1e	0.11205505
24	0xbe1a573e	-0.15072343
25	0x3e52a67e	0.20571324
26	0xbd2cb360	-0.042163253
27	0x3dbe897c	0.09303567
28	0x3d05e4a3	0.032688748
29	0x3df1bcb1	0.11803568
30	0xbdbc2336	-0.091864035
31	0xbd9c51c5	-0.07632784
32	0xbd8163b0	-0.06317842
33	0x3dece370	0.11566818
34	0x3dce2a37	0.100666456
35	0xbd4f42ea	-0.050600924
36	0x3e1106e2	0.14162782
37	0xbce79705	-0.028270254
38	0x3dbf9cb1	0.093560584
39	0xbe18e07d	-0.14929385
40	0x3e755cc7	0.23961173
41	0xbe237f96	-0.15966639
42	0xbc9b7bbe	-0.018979903
43	0x3df56eb0	0.119840026
44	0x3e3a0b69	0.18168415
45	0x3d10cadb	0.035349708
46	0xbd5fb5f5	-0.054616887
47	0xbe8943fc	-0.2680968
48	0x3d17cd6c	0.03706114
49	0x3d48828e	0.04895263
50	0x3dd076ab	0.10178884
51	0x3d44a92a	0.04801289
52	0xbb18b2f4	-0.0023300024
53	0xbe48a552	-0.19594315
54	0xbe2eb0ab	-0.17059581
55	0xbe7e6016	-0.24841341
56	0x3e150ce1	0.14555694
57	0x3cce984f	0.02521911
58	0xbd1d08d2	-0.03833849
59	0x3e27589f	0.163424
60	0xbcb71ae2	-0.022351686
61	0x3be01a44	0.0068390686
62	0x3dd965a9	0.10615093
63	0xbdb543d5	-0.088508286
64	0x3e96923c	0.29408443
65	0x3cd0789d	0.025448138
66	0x3dd92c93	0.10604205
67	0xbd3e94de	-0.04652869
68	0x3ccfdf68	0.025375083
69	0xbc706342	-0.014672102
70	0x3e10da36	0.14145741
71	0xbd1e5c33	-0.038662147
72	0x3d97d57f	0.07413768
73	0x3c9a840d	0.018861795
74	0xbc1ffd9c	-0.009765055
75	0xbd42cc32	-0.047558017
76	0xbe137b4c	-0.14402503
77	0x3e4185dc	0.1889872
78	0xbd9b9c13	-0.07598128
79	0xbda1f0f4	-0.07907286
80	0x3e83a892	0.25714546
81	0x3e7b53d1	0.24543692
82	0x3ca77eb5	0.02044616
83	0xbcad1770	-0.02112934
84	0x3d43d9fe	0.047815315
85	0xbd356f25	-0.04429545
86	0xbe17a12d	-0.14807577
87	0xbe034a9b	-0.12821428
88	0xbc66abed	-0.014079076
89	0xbdb85a42	-0.0900159
90	0x3e173511	0.14766337
91	0xbb834e44	-0.0040071327
92	0x3db01884	0.08598426
93	0xbd85373d	-0.065046765
94	0x3c6c388e	0.014417781
95	0xbdc35494	-0.09537616
96	0x3e603f0e	0.21899053
97	0xbd69389a	-0.056938745
98	0x3d569e4b	0.052397054
99	0x3e0f0aef	0.13969015
100	0x3dfe4665	0.124157704
101	0x3dc7ef91	0.097624905
102	0x3c18517b	0.00929677
103	0xbe2917d2	-0.16512993
104	0x3dc9f16d	0.098605014
105	0x3dc849f2	0.09779729
106	0x3db9fc23	0.090812944
107	0x3ce22917	0.027607484
108	0x3e12bf0d	0.14330693
109	0xbc844821	-0.016147675
110	0x3c706648	0.014672823
111	0xbe0b5616	-0.13607058
112	0xbdd4cf35	-0.10391084
113	0xbb7359c4	-0.0037132362
114	0x3d3bab46	0.045817636
115	0xbd22d00a	-0.039749183
116	0xbcea3522	-0.028589789
117	0xbe9a74d5	-0.3016726
118	0xbded6db7	-0.11593192
119	0xbe36eecc	-0.17864531
120	0xbd43f6c9	-0.047842775
121	0x3cf8d32e	0.030374136
122	0xbdea93f5	-0.11454002
123	0x3e4786f3	0.19485073
124	0x3ddb914d	0.10721073
125	0xbe12fe3a	-0.14354792
126	0x3e5839d9	0.21115817
127	0x3c92afe6	0.01790614
128	0x3cd3ff8a	0.025878686
129	0x3cd40e4d	0.025885725
130	0x3d92c437	0.07166331
131	0xbd36a3a0	-0.04458964
132	0xbdb7f5ce	-0.089824304
133	0x3d7dfa68	0.062006384
134	0x3e78d2a6	0.24299106
135	0x3db91c9a	0.090386584
136	0xbc6b4479	-0.014359587
137	0x3d1cd482	0.0382886
138	0xbcdadea4	-0.026717491
139	0x3e7e0faf	0.2481067
140	0xbda53131	-0.08066023
141	0x3e8cb2a9	0.27480057
142	0x3e062c31	0.13102795
143	0xbd9c5856	-0.07634036
144	0x3ec23767	0.37932894
145	0x3e12734c	0.14301795
146	0xbd2e978e	-0.042625003
147	0xbd409660	-0.04701841
148	0xbe54e212	-0.20789364
149	0xbe4686ec	-0.19387406
150	0xbdc70889	-0.09718425
151	0xbcaeeb98	-0.021352574
152	0xbe11003b	-0.14160244
153	0x3e43469f	0.19069909
154	0xbd9d9708	-0.076948225
155	0x3e227e53	0.15868501
156	0xbc406220	-0.011742145
157	0x3e4b0abc	0.19828314
158	0x3dc29ef6	0.09502976
159	0x3db24a4c	0.08705577
160	0x3dde62e3	0.10858705
161	0x3e09b424	0.13447624
162	0x3ccc13bd	0.024911756
163	0xbcdf7a17	-0.027279897
164	0x3e2d3308	0.16913998
165	0x3d71c015	0.059021074
166	0xbde48317	-0.11157816
167	0x3d0646f3	0.032782506
168	0x3dcd72c3	0.10031655
169	0xbdb94fa4	-0.09048393
170	0xbe21ecf4	-0.15813047
171	0xbd8e4466	-0.0694664
172	0x3d8a5428	0.06754333
173	0xbd790806	-0.060798667
174	0xbbc19546	-0.0059076874
175	0xbe402fa3	-0.18768172
176	0xbe07dd3f	-0.13267992
177	0xbbb17d1f	-0.005416527
178	0xbd8138bf	-0.063096516
179	0x3e6a2851	0.22866942
180	0x3cc9b5a8	0.024622753
181	0xbe051e60	-0.12999868
182	0xbe08ab3e	-0.13346574
183	0xbda29f4e	-0.07940541
184	0x3e168ae2	0.14701417
185	0x3d419bba	0.047267653
186	0xbd884616	-0.06653993
187	0x3c86620e	0.016404178
188	0xbcd69063	-0.026191896
189	0xbdb84555	-0.08997599
190	0x3e741a73	0.23838215
191	0xbdb429c3	-0.08797028
192	0x3e3b1a9b	0.18271868
193	0xba9e9ffe	-0.0012102125
194	0x3e8acc6e	0.27109092
195	0xbd904d61	-0.07046009
196	0x3e25bf56	0.1618627
197	0xbcf3146e	-0.029672828
198	0x3d9874a8	0.074441254
199	0x3db7080e	0.08937083
200	0x3e050a1f	0.12992142
201	0xbc4acc6c	-0.01237784
202	0xbdaaff17	-0.08349436
203	0x3d22fdac	0.0397927
204	0xbcc831b9	-0.024437772
205	0x39a6d3fa	0.00031819922
206	0x3d25c186	0.04046776
207	0xbe341dff	-0.17589568
208	0x3e21d822	0.15805104
209	0x3e02aac7	0.12760459
210	0xbc86f14d	-0.016472483
211	0x3d55644e	0.05209761
212	0xbcddb779	-0.027065026
213	0x3ca99c8a	0.020704526
214	0xbdf9f9f4	-0.12205878
215	0xbd4ba35c	-0.04971634
216	0x3d096628	0.03354469
217	0x3cea57ee	0.028606381
218	0xbccf81b4	-0.025330402
219	0x3e58c4a6	0.21168765
220	0xbc05b270	-0.008160219
221	0xbe05434b	-0.13013951
222	0x3daaa3a8	0.08331996
223	0x3d9329bc	0.071856946
224	0x3d683389	0.056689773
225	0xbd14a396	-0.03628882
226	0x3dd284a1	0.10279203
227	0x3e062a76	0.13102135
228	0x3e020e85	0.12700851
229	0x3e079174	0.1323908
230	0x3e303a07	0.17209636
231	0x3bcae5a1	0.0061919247
232	0x3cf27bda	0.029600073
233	0x3db52be2	0.088462606
234	0x3e622a71	0.22086503
235	0x3e569603	0.20955662
236	0x3d34eff8	0.044174165
237	0x3cac1023	0.021003788
238	0xbd23ce5b	-0.039991718
239	0xbd9e1e3d	-0.07720611
240	0x3d01cddf	0.031690475
241	0xbd556406	-0.052097343
242	0xbd0a5f55	-0.033782322
243	0x3dbfd55f	0.09366869
244	0xbe002c0b	-0.12516801
245	0xbe239649	-0.15975298
246	0x3d65c5b7	0.05609676
247	0xbb7b05f2	-0.0038303104
248	0xbb85cf2e	-0.0040835356
249	0xbe345a1d	-0.176125
250	0xbdb92a7d	-0.09041307
251	0x3ea1f0cd	0.3162903
252	0x3d977c7d	0.07396791
253	0xbc98b5dd	-0.018641407
254	0x3e15532b	0.14582507
255	0x3dab2283	0.08356192

action_layer.2.bias f4 [64]
0	0xbd94ae7d	-0.072598435
1	0x3da91cd0	0.08257449
2	0x3d8df7a7	0.069320016
3	0x3dbc7e09	0.09203727
4	0xbdb0da32	-0.086353675
5	0xbd9ee41f	-0.077583544
6	0x3de73e71	0.11291207
7	0x3cf6059b	0.03003197
8	0x3d00699c	0.031350717
9	0xbdf7dc34	-0.12102547
10	0x3e11c20f	0.14234184
11	0xbe0c6b56	-0.1371282
12	0x3d54e690	0.051977694
13	0x3e0f0b77	0.13969217
14	0x3c9d41fd	0.019196505
15	0x3c70fb84	0.0147084035
16	0x3c69e104	0.014274839
17	0x3df4a042	0.11944629
18	0xbd1a47e6	-0.037666224
19	0x3d333c1e	0.043758504
20	0xbdb5a022	-0.088684335
21	0xbdc9f265	-0.09860686
22	0xbd754670	-0.059881628
23	0xbc88a79c	-0.016681485
24	0x3da1318b	0.07870778
25	0x3b475a6e	0.003041889
26	0xbcf58350	-0.029969841
27	0xbdf3c58c	-0.119029135
28	0xbe0f7a15	-0.14011414
29	0xbd74e10b	-0.05978493
30	0xbe15ee5e	-0.14641711
31	0x3d543c39	0.051815245
32	0x3d6e209c	0.058136567
33	0x3ab3e6cc	0.0013725399
34	0x3db694a6	0.08915071
35	0x3d4c5192	0.04988248
36	0xbd07d793	-0.033164572
37	0x3d153345	0.036425848
38	0xbdaeda31	-0.085377105
39	0x3dcbf367	0.09958535
40	0x3d8eb6f0	0.06968486
41	0x3deddd75	0.11614505
42	0x3daa9394	0.083289295
43	0x3da5e759	0.08100767
44	0x3e02ba33	0.12766342
45	0xbd7617cf	-0.0600813
46	0xbbee695d	-0.007275744
47	0xbcb67bd2	-0.022275839
48	0x3d08abd4	0.033366993
49	0x3d54fdcc	0.051999852
50	0x3dba67c6	0.091018245
51	0x3e04cc00	0.12968445
52	0xbd20696e	-0.039163046
53	0xbde3b199	-0.111178584
54	0xbd5679d8	-0.052362293
55	0xbd87c676	-0.0662965
56	0xbb3917a4	-0.002824285
57	0x3e1a8610	0.15090203
58	0xbd9d9a1b	-0.07695409
59	0x3d63c23e	0.055605166
60	0x3d8da06c	0.06915364
61	0x3d6c950a	0.057759322
62	0xbdd1f3c1	-0.102515705
63	0xbd70ede8	-0.058820635

action_layer.4.weight f4 [4, 64]
0	0x3e287613	0.16451292
1	0x3dbed956	0.09318797
2	0x3e6b278a	0.22964302
3	0x3d87ff37	0.06640475
4	0x3e1b693c	0.15176862
5	0x3e078e2d	0.1323783
6	0x3e61beb2	0.220454
7	0x3e0ecc9f	0.13945244
8	0x3e1fc2c9	0.15601648
9	0xbd951243	-0.07278874
10	0x3e05a6b8	0.1305188
11	0xbde78709	-0.11305053
12	0x3de574db	0.11203929
13	0x3e13d095	0.14435036
14	0x3e01d3b4	0.12678415
15	0xbdd49091	-0.10379136
16	0x3d21991f	0.03945267
17	0x3e039a64	0.12851864
18	0xbd60d7db	-0.054893356
19	0x3e134deb	0.14385192
20	0x3d8e48ad	0.069474556
21	0x3c81d92c	0.015850626
22	0xbe29a20b	-0.1656572
23	0xbcc56019	-0.024093674
24	0x3ddea3fa	0.1087112
25	0x3e2c834e	0.16846964
26	0xbe2c4b82	-0.16825679
27	0xbcd6aa5d	-0.026204282
28	0xbdca071e	-0.09864639
29	0xbcbbb3cf	-0.022912888
30	0xbdba8749	-0.09107835
31	0x3e3360e3	0.17517428
32	0xbdf1c85f	-0.11805796
33	0xbd39b815	-0.04534157
34	0x3de5a558	0.112131774
35	0x3e0d4374	0.13795263
36	0xbcf63413	-0.030054128
37	0xbe30f266	-0.17279968
38	0xbe882ea2	-0.26598078
39	0x3e37d0f4	0.17950803
40	0x3deaa69b	0.11457559
41	0x3d6c1aba	0.057642676
42	0x3cdf8b07	0.027287973
43	0x3d36c973	0.04462571
44	0x3d1e5601	0.03865624
45	0xbd8bf89e	-0.06834529
46	0x3e616235	0.2201012
47	0xbe1c0e2b	-0.1523978
48	0x3df4c737	0.1195206
49	0x3d3e2359	0.04642043
50	0x3e20e67d	0.15712924
51	0x3c320cc3	0.0108673
52	0x3d79dddb	0.061002593
53	0x3db4e3fa	0.088325456
54	0xbe02319f	-0.12714241
55	0xbe39dc4a	-0.1815044
56	0xbe23973f	-0.15975665
57	0x3e167cae	0.14695999
58	0xbd82dcb2	-0.063897505
59	0xbdc3b656	-0.09556262
60	0xbca67edb	-0.020324161
61	0xbd85db24	-0.065359384
62	0x3cdd0b49	0.02698292
63	0xbc497212	-0.012295263
64	0x3e33f742	0.1757479
65	0xbdc8cd71	-0.0980481
66	0x3d424588	0.04742959
67	0xbe274d76	-0.16338143
68	0x3e936b11	0.28792623
69	0x3d33a73a	0.04386065
70	0x3e2bbb61	0.16770698
71	0xbd3305f5	-0.043706853
72	0xbe0ac566	-0.13551864
73	0x3dd20379	0.102545686
74	0xbe168aae	-0.1470134
75	0x3ce5124c	0.027962826
76	0x3e123d29	0.14281143
77	0x3e803977	0.25043842
78	0x3949c1e8	0.0001924109
79	0x3da58be9	0.08083326
80	0xbe677420	-0.22602892
81	0xbe3d0ef2	-0.18462732
82	0x3dc31fce	0.09527551
83	0x3da34ad4	0.07973257
84	0xbe03ade2	-0.128593
85	0xbd98ed79	-0.07467169
86	0x3d010f41	0.031508688
87	0xbe1a60d3	-0.15075998
88	0xbe31ab6a	-0.17350546
89	0xbd64d027	-0.055862572
90	0xbe8df982	-0.27729422
91	0x3e1580f0	0.14599967
92	0x3e37a94f	0.1793568
93	0x3d183efa	0.037169434
94	0xbe13a43a	-0.14418116
95	0xbe3216ae	-0.17391464
96	0x3cb727af	0.02235779
97	0x3d1a96c0	0.037741423
98	0x3e13a741	0.14419271
99	0xbd0a7f37	-0.033812728
100	0xbd1c1c26	-0.038112782
101	0xbd1ec9ec	-0.038766786
102	0xbe6d70dc	-0.23187584
103	0xbd55ca2e	-0.052194767
104	0xbe282a87	-0.16422473
105	0xbd1a289a	-0.037636377
106	0xbd7d524d	-0.061846066
107	0x3d462f52	0.048384972
108	0x3e297f13	0.16552381
109	0x3a94a744	0.0011341353
110	0x3e46f710	0.19430184
111	0x3dea691a	0.11445828
112	0xbe058dca	-0.1304237
113	0x3e232eb4	0.15935785
114	0x3d45bc86	0.048275493
115	0x3d8fc534	0.070200354
116	0x3cf5fb17	0.030026956
117	0xbe71b98a	-0.23605934
118	0xbdcf9d7a	-0.10137458
119	0xbdbb5eb7	-0.09148925
120	0x3e0e69ac	0.13907498
121	0x3d9e374d	0.077253915
122	0x3da37046	0.07980399
123	0x3d0fce1e	0.035108678
124	0x3e1bfe8a	0.15233818
125	0xbb9ef2c7	-0.0048507187
126	0x3e3bdb06	0.1834527
127	0x3b9b1562	0.0047327736
128	0xbe4b3e23	-0.19847922
129	0xbdaae977	-0.08345311
130	0xbe75a8ea	-0.23990217
131	0xbd96cecd	-0.07363663
132	0xbdb41b6b	-0.08794292
133	0xbe6da53d	-0.23207565
134	0xbbe36ed7	-0.0069407034
135	0x3c117162	0.00887713
136	0xbe0053ce	-0.12531969
137	0xbc774e38	-0.015094332
138	0x3cb53b29	0.022122936
139	0xbdce1060	-0.10061717
140	0x3d461ee0	0.04836929
141	0xbe5403d4	-0.20704585
142	0xbe854ff3	-0.2603756
143	0x3db1f8b6	0.08690016
144	0xbe020e45	-0.12700756
145	0xbe33ad93	-0.17546682
146	0xbe072378	-0.13197124
147	0xbe302731	-0.1720245
148	0xbe240e35	-0.16021045
149	0xbe0692ee	-0.13141987
150	0x3da77819	0.08177204
151	0xbd5d439e	-0.054019563
152	0x3d08b9e9	0.033380423
153	0xbd3328ba	-0.04374001
154	0x3e045c62	0.12925866
155	0xbe1108d1	-0.1416352
156	0xbdbbf850	-0.09178221
157	0x3e2ede20	0.17076921
158	0xbdde1778	-0.1084432
159	0xbe267772	-0.16256502
160	0xbdbb3d36	-0.091425344
161	0xbd177318	-0.036974996
162	0xbd9eee42	-0.07760288
163	0xbdfc499f	-0.123187296
164	0xbb709dcb	-0.0036715146
165	0x3defe8db	0.117143355
166	0x3e3187e2	0.17336991
167	0xbe0d7e85	-0.13817795
168	0xbc6c050a	-0.014405498
169	0x3e2afe54	0.16698581
170	0xbcd155a6	-0.025553536
171	0xbe558bf7	-0.20854174
172	0x3c29f877	0.01037418
173	0x3d5899a0	0.052880883
174	0xbe5b1d53	-0.21397905
175	0x3de2a5cf	0.11066782
176	0x3e1080ba	0.14111605
177	0x3c8f1b8d	0.017469192
178	0x3d63ba94	0.055597857
179	0x3d0eb46a	0.034840025
180	0xbcf511b8	-0.029915676
181	0xbc759051	-0.014988021
182	0x3e3dedab	0.18547694
183	0x3dbbf262	0.0917709
184	0xbc80f855	-0.015743414
185	0x3e1be9d6	0.1522592
186	0xbe098a3d	-0.1343164
187	0x3d466f54	0.048446015
188	0xbe29f173	-0.16596012
189	0xbe20059e	-0.15627143
190	0xbde29d22	-0.11065127
191	0x3d0cd7d1	0.034385506
192	0xbd58da60	-0.052942634
193	0x3e4e248e	0.20131132
194	0xbdbd7de5	-0.09252528
195	0x3d986101	0.07440377
196	0xbc4690dc	-0.012119498
197	0xbdd1aef3	-0.10238447
198	0xbe532fd6	-0.20623717
199	0xbd848670	-0.064709544
200	0x3e99e2dc	0.30055892
201	0x3e0f557a	0.1399745
202	0xbcd7bdd7	-0.02633564
203	0x3e4f7f40	0.20263386
204	0xbd2faf9e	-0.04289209
205	0xbda2142f	-0.07914006
206	0xbd6fd298	-0.058550447
207	0x3daae850	0.08345091
208	0x3e5bc1a3	0.21460585
209	0x3db24d8b	0.087061964
210	0xbd8cebc8	-0.06880909
211	0xbe4bc510	-0.19899392
212	0x3e9cfaef	0.30660197
213	0x3e798dc5	0.24370487
214	0xbc3d31d5	-0.011547525
215	0x3e78fab8	0.24314392
216	0x3d8967b5	0.06709234
217	0x3e9652fc	0.29360187
218	0x3d6d440e	0.05792623
219	0xbcfac533	-0.03061161
220	0xbc7f8fd2	-0.015598254
221	0xbebe86e0	-0.37212276
222	0x3ec08ecd	0.37608948
223	0x3e3a03c9	0.18165506
224	0xbd135a19	-0.035974596
225	0x3e1dea55	0.15421422
226	0xbe18951e	-0.14900634
227	0x3eecb9eb	0.46235594
228	0x3eb9c8c2	0.3628598
229	0xbe467643	-0.19381051
230	0x3d3f49bb	0.046701174
231	0xbd5f262a	-0.054479755
232	0x3c2d5e02	0.010581495
233	0xbd5bf62e	-0.053701572
234	0x3e952415	0.2912909
235	0x3d041198	0.03224334
236	0xbe697507	-0.22798549
237	0x3cf9a862	0.030475799
238	0xbdaab130	-0.08334577
239	0xbe4f5b09	-0.20249571
240	0x3d06a100	0.032868385
241	0xbe55f27a	-0.20893279
242	0x3cac6fd1	0.021049412
243	0xbe9b5b22	-0.30342966
244	0xbe665c77	-0.2249621
245	0x3dee7f66	0.11645393
246	0x3ddf9913	0.109178685
247	0xbd0931b0	-0.03349465
248	0x3ddafaa1	0.10692335
249	0xbe366aec	-0.17814225
250	0xbd8d4179	-0.068972535
251	0xbeb00a4c	-0.34382856
252	0xbe0d9568	-0.13826525
253	0x3e072f52	0.13201645
254	0xbe7faef9	-0.2496909
255	0x3e23f461	0.16011192

action_layer.4.bias f4 [4]
0	0x3e01dd61	0.12682106
1	0xba1502a9	-0.00056842953
2	0xbc8bea4a	-0.017079491
3	0xbe27be13	-0.16381101

value_layer.0.weight f4 [64, 8]
0	0xbe92fdb4	-0.28709185
1	0x3d6e8b90	0.058238566
2	0x3e83a4ca	0.25711662
3	0xbd888676	-0.066662714
4	0x3e90e3a4	0.28298676
5	0x3e497e24	0.19677025
6	0xbe6d3355	-0.23164113
7	0x3b5e7490	0.0033943988
8	0x3e799e83	0.24376874
9	0x3bf675f3	0.007521385
10	0xbe2453dc	-0.16047615
11	0xbea17f91	-0.31542638
12	0xbe8c7cdd	-0.27439013
13	0xbc5a75b6	-0.013333729
14	0xbe67290c	-0.22574252
15	0x3ebfca36	0.37458962
16	0x3e9a8ca5	0.30185428
17	0xbdb8db19	-0.090261646
18	0xbe23b291	-0.15986086
19	0xbce347e8	-0.027744249
20	0x3e460e49	0.19341387
21	0xbe8df2a2	-0.27724177
22	0xbe3115fe	-0.17293546
23	0xbe90579c	-0.2819184
24	0xbe4c3201	-0.1994095
25	0x3e764eb2	0.24053457
26	0xbc643e6b	-0.013930897
27	0xbec25ebe	-0.37962908
28	0x3d5f8e49	0.054579053
29	0x3e660e04	0.22466284
30	0x3e4d62c2	0.20057204
31	0x3e224f23	0.15850501
32	0x3d20f80e	0.039299063
33	0xbe8139cd	-0.2523941
34	0x3e525b81	0.20542718
35	0xbe84a217	-0.25904915
36	0x3e35c204	0.17749792
37	0x3ea613cc	0.3243698
38	0xbdcbb879	-0.09947295
39	0xbec12775	-0.37725416
40	0xbdf3d037	-0.11904948
41	0x3e55f819	0.20895423
42	0x3b4dbbfb	0.0031392563
43	0xbd9953aa	-0.07486661
44	0xbd554eac	-0.05207698
45	0x3cae19ed	0.021252597
46	0xbe8292c7	-0.25502607
47	0xbe1275e9	-0.14302792
48	0x3e5ac62d	0.2136466
49	0xbec1accf	-0.37827155
50	0x3e9c8719	0.3057182
51	0x3e599cb6	0.21251187
52	0xbe8b1914	-0.2716757
53	0x3e19adcf	0.15007709
54	0xbd8d2d00	-0.06893349
55	0x3e482a1c	0.19547313
56	0xbe0e3822	-0.138886
57	0xbe7547c4	-0.23953158
58	0xbe29151a	-0.16511956
59	0x3d5b5fce	0.053558163
60	0xbe8485e6	-0.25883406
61	0xbe424bfe	-0.18974301
62	0xbd09ff64	-0.033690825
63	0x3ec1645d	0.37771884
64	0xbd0feb66	-0.035136603
65	0xbe539e48	-0.20665848
66	0xbd9cf471	-0.07663811
67	0x3d41653b	0.04721568
68	0x3eb2bf5e	0.34911627
69	0xbd8c188f	-0.06840622
70	0x3f13faac	0.5780437
71	0x3e5c354a	0.21504703
72	0xbe168e7e	-0.14702794
73	0xbca7059a	-0.020388413
74	0xbdd88041	-0.105713375
75	0x3eaf8dbe	0.34287828
76	0xbd7bb917	-0.061455812
77	0x3c3a308f	0.011364116
78	0x3cc55a1e	0.024090823
79	0x3e43eb1d	0.19132657
80	0xbe9a9322	-0.30190378
81	0xbd8f6f40	-0.07003641
82	0x3e3fd866	0.18734893
83	0x3eacf72e	0.33782333
84	0xbe3fdeb8	-0.18737304
85	0x3e2148c5	0.15750416
86	0xbe7a4603	-0.2444077
87	0x3e0a5622	0.1350942
88	0xbdd40fb6	-0.10354559
89	0x3e01e7f5	0.12686141
90	0x3e1efd7d	0.15526386
91	0xbe5188ad	-0.20462294
92	0xbe15d994	-0.1463378
93	0x3e087c0a	0.13328567
94	0x3d3bbc00	0.045833588
95	0x3e9f5c9e	0.3112535
96	0xbd272922	-0.04081071
97	0xbe414f58	-0.18877923
98	0x3e50fffb	0.20410149
99	0x3e787380	0.2426281
100	0xbdc2e26b	-0.09515842
101	0xbea491ae	-0.32142395
102	0x3de22fd3	0.11044278
103	0x3df3a613	0.118969105
104	0x3d01010f	0.03149515
105	0x3ea3af98	0.31969905
106	0x3ddffd8e	0.109370336
107	0x3e2dcaf0	0.16971946
108	0x3caa7182	0.020806078
109	0xbe7cfcd7	-0.24705826
110	0xbe0ebed7	-0.13939987
111	0xbe8f2e7c	-0.27965152
112	0xbcd85573	-0.026407933
113	0xbdd592ea	-0.10428412
114	0x3c9793a1	0.018503012
115	0x3af8bf99	0.0018977999
116	0x3e204c29	0.15654053
117	0xbe1122c5	-0.1417342
118	0x3f07a562	0.5298673
119	0x3d66f869	0.056389246
120	0x3e7b0146	0.24512205
121	0x3e449e38	0.1920098
122	0xbddae20b	-0.106876455
123	0x3e5ddb6b	0.21665733
124	0xbea00e20	-0.31260777
125	0xbeda44ee	-0.42630714
126	0x3d491a3e	0.049097292
127	0xbb12e289	-0.0022412858
128	0x3cce25aa	0.025164444
129	0x3e0fdc0b	0.14048783
130	0xbcb8f34e	-0.022576954
131	0x3dcc469b	0.099744044
132	0x3d8578cb	0.0651718
133	0xbd72bc09	-0.059261356
134	0x3e78b02e	0.24285957
135	0xbe04f983	-0.12985806
136	0xbd31a1d6	-0.04336723
137	0xbe23318a	-0.15936866
138	0xbe37099c	-0.1787476
139	0x3ee2e1a3	0.44312772
140	0xbe4c3630	-0.19942546
141	0xbe3a2967	-0.18179856
142	0xbe810257	-0.25197098
143	0xbe81ddc0	-0.25364494
144	0x3ce77907	0.028255953
145	0xbe9c60a8	-0.30542493
146	0x3e881d59	0.2658489
147	0x3e80ffe6	0.25195235
148	0xbe2c5ac9	-0.16831507
149	0xbd8f1513	-0.069864415
150	0xbe26b94a	-0.1628162
151	0x3e25d9a0	0.16196299
152	0x3d3517ca	0.04421214
153	0xbe376299	-0.17908706
154	0xbc1ca276	-0.009560218
155	0x3e43d2e6	0.1912342
156	0x3e8b203c	0.2717303
157	0xbbad79fe	-0.0052940836
158	0x3c38f132	0.011287974
159	0xbe871fe6	-0.26391524
160	0xbe38a96d	-0.18033381
161	0xbd385482	-0.045002468
162	0x3d268367	0.04065266
163	0x3ec72601	0.38896182
164	0x3c96ad0a	0.018393058
165	0x3e8d1f8c	0.2756313
166	0x3ce04e34	0.02738104
167	0x3c8f6f92	0.017509256
168	0xbe7b5256	-0.24543127
169	0xbeb26661	-0.34843734
170	0xbe8399c7	-0.2570326
171	0xbc332ed5	-0.010936459
172	0xbe383f83	-0.17992978
173	0xbe774bdb	-0.2415003
174	0x3c41fe50	0.011840418
175	0xbe4a13ff	-0.1973419
176	0x3dd6017f	0.10449504
177	0xbe8f0d90	-0.27940035
178	0x3dfcdd09	0.123468466
179	0x3e0b6664	0.13613278
180	0x3d1dde55	0.03854211
181	0xbe56b397	-0.20966946
182	0xbd655a62	-0.0559944
183	0x3ea256a2	0.3170672
184	0x3e2f965d	0.17147203
185	0xbe82222a	-0.2541669
186	0xbe71c4b1	-0.23610188
187	0xbe5c23e4	-0.21498066
188	0xbb9e8e6e	-0.0048387563
189	0x3e70b9f2	0.23508433
190	0xbebe0a3a	-0.37117177
191	0xbdf72534	-0.12067643
192	0xbde8f14c	-0.11374149
193	0xbd95ce36	-0.07314722
194	0x3db13e7d	0.08654497
195	0x3e6b5bc1	0.2298422
196	0x3c346bec	0.011012059
197	0x3e541c22	0.20713857
198	0x3d97ed1f	0.07418274
199	0xbec27b25	-0.37984577
200	0x3dcac6ab	0.09901174
201	0xbe72270c	-0.23647708
202	0xbe271a99	-0.1631874
203	0x3e78011d	0.24219175
204	0x3e8939bc	0.2680186
205	0xbe2b297e	-0.16715047
206	0xbec226dd	-0.37920275
207	0xbe524a2c	-0.20536107
208	0x3d7a8aa7	0.061167385
209	0xbe866ef1	-0.26256517
210	0x3c800b9b	0.015630534
211	0x3e136a1d	0.14395948
212	0x3cc1024a	0.023560662
213	0xbe6ce467	-0.23134004
214	0xbd90ab40	-0.07063913
215	0x3e36e534	0.17860872
216	0x3da0bbd0	0.078483224
217	0x3d578645	0.052618284
218	0xbe92113a	-0.28528768
219	0x3eb90d8c	0.36143148
220	0x3d76614d	0.060151387
221	0x3e10472e	0.14089653
222	0x3e8fd464	0.2809173
223	0x3eb408c2	0.35162932
224	0xbea9b5dd	-0.33146563
225	0x3db21395	0.08695141
226	0x3d7f262c	0.062292263
227	0xbeb8b80f	-0.36077926
228	0x3e268f50	0.16265607
229	0x3dce9c85	0.100884475
230	0x3ef27df6	0.47361726
231	0x3efee430	0.49783468
232	0xbd9bd078	-0.07608122
233	0xbeab9b29	-0.33516815
234	0xbd831cdd	-0.064019896
235	0xbde3d802	-0.111251846
236	0x3e9e8fc0	0.30969048
237	0x3e4a555a	0.19759122
238	0x3d59de8a	0.053190745
239	0x3e9285ac	0.2861761
240	0xbe21f41b	-0.15815775
241	0xbdc280cb	-0.094972216
242	0x3d26239d	0.040561307
243	0x3d0b9bcb	0.034084123
244	0xbec082f3	-0.37599906
245	0xbe102847	-0.14077865
246	0xbda642a5	-0.0811818
247	0x3e7b1d41	0.24522878
248	0x3e133c55	0.14378484
249	0xbe011f69	-0.12609638
250	0xbe1c50a8	-0.15265143
251	0x3e048054	0.12939578
252	0x3d3cf351	0.046130482
253	0x3e51b692	0.20479801
254	0x3eca517b	0.3951529
255	0x3e8f5f76	0.28002518

value_layer.0.bias f4 [64]
0	0xbec55252	-0.38539368
1	0x3e9af1da	0.30262643
2	0x3e3e13ac	0.18562192
3	0xbe6ab83e	-0.22921845
4	0xbeb129cf	-0.3460221
5	0xbe2f0f4e	-0.17095682
6	0x3e9461b9	0.28980806
7	0x3e88be44	0.2670766
8	0x3eb5f876	0.35541123
9	0xbe6b9d62	-0.23009256
10	0xbe5ee171	-0.21765687
11	0x3e02cdc3	0.12773804
12	0x3e15bc0d	0.14622517
13	0xbe54e92c	-0.20792073
14	0x3ed8d500	0.42350006
15	0x3d032a17	0.032022562
16	0x3dbacf72	0.09121598
17	0xbe495974	-0.1966303
18	0x3eb31efe	0.34984583
19	0xbe744516	-0.23854479
20	0x3e1ac180	0.15112877
21	0xbdcf2cb4	-0.10115948
22	0x3ecac3a7	0.39602396
23	0xbe875d7b	-0.26438507
24	0xbed5a994	-0.4173094
25	0x3e3c6464	0.18397671
26	0x3ec00d5d	0.37510195
27	0x3e85b787	0.26116583
28	0xbe40d188	-0.1882993
29	0x3e153638	0.14571464
30	0xbded60b7	-0.115907125
31	0x3e95c74e	0.2925362
32	0x3ea915af	0.33024356
33	0x3e48d1af	0.19611238
34	0xbe956f7f	-0.29186627
35	0xbdcfc8ca	-0.10145719
36	0x3ec8ee7f	0.39244458
37	0x3e17510f	0.14777015
38	0x3e9c9cd7	0.3058841
39	0x3eb4fffe	0.35351557
40	0x3e58165f	0.21102284
41	0xbe785697	-0.24251781
42	0xbdfe9d4a	-0.12432344
43	0xbe0162f5	-0.12635405
44	0xbeab15ce	-0.33415073
45	0x3e749d40	0.23888111
46	0x3ce11885	0.027477512
47	0xbee23b6b	-0.44185957
48	0xbea6b80e	-0.32562298
49	0xbe6ee847	-0.23330794
50	0x3ec88ced	0.39170018
51	0x3c40d6ed	0.011769992
52	0x3d476781	0.048682693
53	0x3e80a9ad	0.25129452
54	0xbde6047b	-0.11231323
55	0x3eb52014	0.35376036
56	0x3ec87cd5	0.3915774
57	0xbe0aeafc	-0.13566202
58	0x3e625f7c	0.22106737
59	0x3ddc1e69	0.10747988
60	0xbe26e9ee	-0.16300175
61	0xbcb43bd6	-0.022001188
62	0xbd5cbcce	-0.053890996
63	0x3e1e2167	0.1544243

value_layer.2.weight f4 [64, 64]
0	0xbc77bfc1	-0.015121401
1	0x3d613372	0.054980703
2	0xbdfc56b8	-0.12321228
3	0x3a949603	0.0011336211
4	0xbd75d1d6	-0.06001457
5	0x3cde3e49	0.02712931
6	0x3c07ba8e	0.008284224
7	0xbd6bbb2c	-0.057551548
8	0x3da0044e	0.07813321
9	0x3c44ab18	0.012003683
10	0x3d486b34	0.048930362
11	0xbce39d48	-0.027784958
12	0xbd401bce	-0.046901517
13	0xbda4ea2f	-0.080524795
14	0xbd35ab34	-0.044352725
15	0x3c3afba7	0.011412538
16	0x3da24cea	0.079248264
17	0x3dea4055	0.114380516
18	0xbd29a509	-0.041417155
19	0xbd9275ea	-0.071513966
20	0xbd36ce48	-0.04463032
21	0xbd7bf2d3	-0.061510872
22	0x3c6d110d	0.014469397
23	0x3e0bfe1f	0.13671158
24	0xbd897069	-0.06710894
25	0x3d1da386	0.038486026
26	0x3d0f3519	0.034962747
27	0xbc87051d	-0.01648193
28	0x3d43420a	0.0476704
29	0x3db9a999	0.09065551
30	0xbba7aa7f	-0.0051167603
31	0xbdf73f30	-0.12072599
32	0x3cf3c5c7	0.029757394
33	0x3c424e09	0.011859425
34	0x3d6ce07d	0.057831276
35	0x3b973ebd	0.0046156333
36	0xbcbc3243	-0.022973185
37	0x3d806672	0.0626954
38	0x3d9b8f1d	0.07595656
39	0xbbaccd98	-0.005273532
40	0xba959d01	-0.0011414589
41	0x3ddaf383	0.106909774
42	0xbe0995c5	-0.13436039
43	0x3e00b563	0.12569194
44	0xbc7b64f7	-0.015343896
45	0xbdc402ee	-0.09570871
46	0x3d8f5db8	0.07000297
47	0xbab29c61	-0.0013626927
48	0x3d731566	0.05934658
49	0x3cf4ec66	0.02989788
50	0xbdb4b1ec	-0.088229984
51	0x3db048bf	0.08607625
52	0x3da1a545	0.07892851
53	0xbdfe98d4	-0.124314934
54	0xbdbd2724	-0.09235981
55	0xbdb9617f	-0.09051799
56	0xbdc61414	-0.09671798
57	0xbcc228ca	-0.02370109
58	0xbca363d7	-0.019945068
59	0xbdd0785e	-0.10179208
60	0x3d7a2900	0.061074257
61	0x3ddcb5fa	0.10776897
62	0xbdaa1224	-0.08304241
63	0x3d2dd5c9	0.04244021
64	0xbd5d7ed5	-0.054076035
65	0x3d96b6b7	0.07359069
66	0xbdc0f6c6	-0.09422068
67	0xbd33787b	-0.04381607
68	0xbd93328e	-0.07187377
69	0x3da18f97	0.07888716
70	0x3dcc6a7b	0.09981247
71	0x3d8ea5dd	0.0696523
72	0xbe47a3d8	-0.19496095
73	0xbd8ed626	-0.06974439
74	0xbc57d163	-0.01317248
75	0x3dd804fa	0.10547824
76	0x3d81505e	0.06314157
77	0x3e1474e8	0.14497721
78	0x3c9c875d	0.019107515
79	0x3e58fdc2	0.21190551
80	0x3dd81eb7	0.105527334
81	0x3d80c72a	0.062879875
82	0x3dfb2e8a	0.12264736
83	0xbe2bd243	-0.16779427
84	0x3df05a0a	0.117359236
85	0xbb51d572	-0.0032018092
86	0xbd8c8496	-0.06861226
87	0xbdeb20bb	-0.11480852
88	0xbe4a0025	-0.19726618
89	0xbe8800f8	-0.2656324
90	0x3d84c8f3	0.064836405
91	0x3cfb82fd	0.030702109
92	0xbdd8eaee	-0.10591684
93	0xbd8e8711	-0.069593556
94	0x3d210884	0.03931476
95	0xbe92814e	-0.28614277
96	0xbe4b1d88	-0.19835484
97	0xbc80fedd	-0.015746528
98	0xbdc64ffc	-0.096832246
99	0x3d8fccbb	0.07021471
100	0x3d9f4e15	0.07778565
101	0xbda131d9	-0.07870836
102	0xbcde743c	-0.027155034
103	0x3e50c37d	0.20387073
104	0x3d2731e8	0.04081908
105	0x3d433222	0.047655232
106	0xbe725c28	-0.23667967
107	0xbdfd8280	-0.123784065
108	0xbd222cb6	-0.03959342
109	0xbe285126	-0.16437206
110	0x3e10176f	0.14071439
111	0x3d5d3fb6	0.054015838
112	0x3c097fa6	0.00839225
113	0xbc67c7b7	-0.014146737
114	0xbe7a86f4	-0.24465543
115	0xbc5d4cd5	-0.013507088
116	0x3deeb486	0.11655526
117	0x3df5bad4	0.11998525
118	0xbe3fecff	-0.1874275
119	0xbc9a4584	-0.018831976
120	0xbcdcb690	-0.026942521
121	0xbbc7a794	-0.006092975
122	0xbc7dc41c	-0.015488651
123	0x3e871269	0.26381233
124	0xbd94e35c	-0.07269928
125	0x3e20d01e	0.1570439
126	0x3d0a719d	0.033799756
127	0x3dbaca55	0.09120623
128	0xbe0abc6a	-0.13548437
129	0x3dc9eab3	0.098592184
130	0x3de64f97	0.11245649
131	0x3c9d2578	0.019182906
132	0xbe59c862	-0.21267846
133	0x3cf7aa69	0.030232625
134	0x3d45912f	0.04823416
135	0xbd9b8c23	-0.07595088
136	0xbe3ae920	-0.18252993
137	0x3dc4de8f	0.09612762
138	0x3d5308bb	0.051521998
139	0x3e25c7a7	0.16189443
140	0xbb3e5711	-0.0029043595
141	0x3defb809	0.11705024
142	0xbe1b5b47	-0.15171538
143	0x3dc4cb4c	0.09609088
144	0x3d1d91ad	0.038469005
145	0xbddafe38	-0.1069302
146	0x3dcd756d	0.10032163
147	0x3d0ddde4	0.03463544
148	0x3cfc5f51	0.03080717
149	0x3cbdc2ed	0.023164237
150	0xbac88794	-0.0015299194
151	0xbd186f2a	-0.03721539
152	0xbd92e5b8	-0.071727216
153	0xbe47e25d	-0.19519944
154	0xbdd83888	-0.105576575
155	0xbbe1593a	-0.0068770917
156	0xbe398f93	-0.18121175
157	0xbdfc74f1	-0.12326992
158	0x3ca2f287	0.019891037
159	0xbe11e823	-0.1424871
160	0xbda04428	-0.078255
161	0x3dfb0961	0.12257648
162	0xbdecb642	-0.115582004
163	0x3de7fa96	0.11327092
164	0x3d5fe276	0.05465933
165	0xbd80b711	-0.06284917
166	0xbe1faeba	-0.15593997
167	0x3e4abbd1	0.19798209
168	0x3cf19f2c	0.029494844
169	0xbd50b28e	-0.050951533
170	0xbe61e598	-0.2206024
171	0xbcb5e5d4	-0.022204317
172	0xbe105b22	-0.14097264
173	0xbc25d6c7	-0.010122008
174	0x3d887ad4	0.066640526
175	0x3d3011a3	0.04298557
176	0xbe40f3a5	-0.18842943
177	0xbce1afc7	-0.027549637
178	0xbcdab058	-0.026695415
179	0xbdeea632	-0.11652793
180	0xbd410b0e	-0.047129683
181	0x3e7689d9	0.24076022
182	0x3d608f0c	0.05482392
183	0x3dddbb4c	0.1082674
184	0xbbede8a6	-0.0072604
185	0xbdf3adae	-0.11898361
186	0x3cd5ed95	0.026114265
187	0x3e67553f	0.22591113
188	0xbcc0017c	-0.023438208
189	0xbce22b5e	-0.02760857
190	0xbce21b16	-0.027600806
191	0x3e27949f	0.16365288
192	0xbcc46855	-0.02397553
193	0x3dc83693	0.09776034
194	0x3d94f18d	0.07272635
195	0xbce80443	-0.028322345
196	0xbe00b93b	-0.1257066
197	0xbd440bd1	-0.04786283
198	0x3ce6c473	0.028169846
199	0xbd026ca1	-0.031841878
200	0xbd170032	-0.03686542
201	0xbd9d2bbd	-0.07674358
202	0x3d520d2c	0.051282093
203	0xbd8d7844	-0.069077045
204	0x3d17a3b3	0.03702135
205	0x3de747f8	0.11293024
206	0x3cc63522	0.024195258
207	0x3da354ab	0.079751335
208	0x3c246408	0.010033615
209	0xbd7b6630	-0.06137675
210	0x3d0a7a6a	0.03380815
211	0x3d80d481	0.06290532
212	0xbd752637	-0.059850898
213	0x3d8ee77d	0.06977747
214	0x3dd57da6	0.10424356
215	0x3ddf45cf	0.10901987
216	0xbda8dc5b	-0.082451545
217	0xbdafed4b	-0.08590182
218	0xbc892a2b	-0.01674374
219	0x3e1ab37b	0.15107529
220	0x3ca5bbec	0.02023121
221	0x3d64d821	0.05587018
222	0xbd7a1cc8	-0.061062604
223	0x3dd8639b	0.10565873
224	0x3ceb1113	0.028694665
225	0xbdccd232	-0.10001029
226	0xbe0691e1	-0.13141586
227	0xbba9ec44	-0.0051856358
228	0x3d55183e	0.052025072
229	0x3d950504	0.07276347
230	0x3be7815a	0.0070649805
231	0xbd175991	-0.03695065
232	0xbcf811b8	-0.030281886
233	0x3d0d37c5	0.034477014
234	0xbdf560af	-0.119813316
235	0x3d0fa16d	0.035066057
236	0x3d0d8e66	0.03455963
237	0x3e0ace3a	0.13555232
238	0xbdab64e9	-0.083688565
239	0x3cf0daea	0.029401261
240	0x3d7f2bff	0.062297817
241	0x3d5d7989	0.054070983
242	0x3cb7d0bb	0.022438398
243	0xbdc0656c	-0.09394345
244	0xbd8e9b21	-0.06963182
245	0xbd43d64f	-0.047811802
246	0x3d8369db	0.06416675
247	0xbd9def15	-0.07711617
248	0xbcd5d9c4	-0.026104815
249	0x3c172f36	0.009227565
250	0x3cb45386	0.022012483
251	0xbdab3f31	-0.08361662
252	0xbdf526f7	-0.119703226
253	0x3c32584d	0.01088531
254	0x3b8b98b4	0.004260147
255	0x3da35e1b	0.079769336

value_layer.2.bias f4 [64]
0	0x3ca99175	0.020699242
1	0xbdbce5ce	-0.09223519
2	0xbd83d7d3	-0.064376496
3	0x3d660415	0.056156237
4	0xbe02ef09	-0.12786497
5	0x3dbdbff3	0.09265127
6	0x3e0a971b	0.13534205
7	0xbd87692e	-0.06611858
8	0xbd822a21	-0.06355692
9	0x3d0551f1	0.03254885
10	0xbcd184e0	-0.025576055
11	0xbceec29f	-0.029145537
12	0xbdcdc822	-0.10047938
13	0x3d946b1c	0.07246992
14	0xbda3ba22	-0.079944864
15	0x3e02ea2e	0.12784645
16	0xbde53497	-0.11191671
17	0xbe0f5bca	-0.13999858
18	0xbe4f2f41	-0.2023287
19	0x3d932c16	0.07186143
20	0x3dcc86e4	0.09986666
21	0x3d2936ca	0.041312017
22	0x3df67a23	0.120350145
23	0xbd563401	-0.05229569
24	0x3de422b2	0.1113943
25	0x3c3ee175	0.011650433
26	0xbe05bde9	-0.13060726
27	0xbe3f8881	-0.18704416
28	0xbd3d734f	-0.046252545
29	0xbd4637df	-0.048393127
30	0x3dc49c47	0.0960012
31	0xbd824968	-0.063616574
32	0x3d4900fe	0.04907321
33	0x3c9033c9	0.017602818
34	0xbe0b050a	-0.13576141
35	0xbca9c19e	-0.020722207
36	0x3de8bc23	0.11364009
37	0x3d443348	0.047900468
38	0xbdf1a2ec	-0.11798653
39	0x3d3dd230	0.04634303
40	0xbd48ed30	-0.049054325
41	0xbce36416	-0.027757686
42	0x3deed134	0.11660996
43	0xbdf7717d	-0.12082193
44	0xbe2c1cf2	-0.16807917
45	0xbe54bce7	-0.20775186
46	0x3d93ff05	0.072263755
47	0xbdbf8daf	-0.09353196
48	0xbda67c78	-0.08129209
49	0xbdf8844a	-0.12134607
50	0x3e3a4001	0.18188478
51	0x3dcc38a3	0.0997174
52	0xbdab0b3b	-0.083517514
53	0xbcbfb94c	-0.023403786
54	0x3dc1703c	0.09445235
55	0xbd053a7c	-0.03252648
56	0xbc4c57cc	-0.012472104
57	0xbdadaa33	-0.084797285
58	0x3e1e45f4	0.15456372
59	0xbdf27ee3	-0.11840608
60	0xbdb7002f	-0.08935582
61	0x3e4c26c8	0.19936669
62	0xbcbf4e6a	-0.02335282
63	0x3deafa38	0.11473507

value_layer.4.weight f4 [1, 64]
0	0x3b9b6f69	0.0047435057
1	0x3d468cf7	0.04847428
2	0x3cd4afc9	0.025962727
3	0x3c27d523	0.010243687
4	0x3d0374e6	0.032093905
5	0xbd188636	-0.03723737
6	0xbdc93d2c	-0.09826121
7	0xbd8b8c73	-0.06813898
8	0xbd27bb97	-0.040950384
9	0xbc4d24cb	-0.012520979
10	0xbc33577b	-0.01094615
11	0xbd9b2558	-0.07575482
12	0x3d383ff6	0.044982873
13	0x3db66b7e	0.08907221
14	0x3d112d33	0.035443496
15	0xbd66b8bb	-0.056328516
16	0x3d81b2d4	0.06332937
17	0x3dea883e	0.114517674
18	0x3d6f5cb2	0.05843801
19	0xbc2317d1	-0.009954409
20	0xbc56e7e3	-0.01311681
21	0x3c776b52	0.015101271
22	0xbc0dd1a6	-0.008655941
23	0xbc196a15	-0.009363671
24	0xbcf3f356	-0.029779118
25	0xbb49777a	-0.003074138
26	0x3dc7d7bf	0.09757947
27	0x3dabd2e7	0.08389836
28	0x3baaea9e	0.005215957
29	0x3cc1c255	0.023652235
30	0xbd28cdb0	-0.041211784
31	0x3d32ac83	0.04362155
32	0xbb8292aa	-0.003984769
33	0x3c619d17	0.013770363
34	0x3d93f240	0.0722394
35	0x3c27718f	0.010219946
36	0xbdaba068	-0.083802044
37	0x3c17f701	0.009275199
38	0x3d7733d4	0.06035216
39	0xbe021716	-0.12704119
40	0x3ba15de4	0.0049245227
41	0x3cd640aa	0.026153881
42	0xbd8733e8	-0.06601697
43	0x3d4dc0aa	0.050232567
44	0x3dd6d3eb	0.10489639
45	0x3dae830f	0.08521091
46	0x3d2306ec	0.039801523
47	0x3d2d10f8	0.04225251
48	0xbcc4f508	-0.024042621
49	0x3d0d832d	0.034548927
50	0xbdb76e7f	-0.08956622
51	0xbbdcdca8	-0.0067401715
52	0x3ce2f85e	0.027706321
53	0x3d607477	0.05479857
54	0xbc3043f0	-0.010758385
55	0x3afb8ae5	0.0019191174
56	0xbca393c4	-0.019967921
57	0x3dcfbac1	0.10143042
58	0xbd52d70b	-0.051474612
59	0xbcb48ff7	-0.022041304
60	0x3c513959	0.01277002
61	0xbd6ed524	-0.058308735
62	0x3c42b40e	0.011883749
63	0xbca0e72b	-0.01964148
