Homework8/8_gym-PPO/results/PPO_LunarLander-v3_2000-eps0.75.pth (torch, 44210 bytes, 11 tensors)

action_layer.0.weight f4 [64, 8]
00000000: 65cc 92bd e10a 4b3e 4376 c9bd 737d 543f
00000010: 8655 a53d abda c93e fdd6 683e 4ca0 89bd
00000020: 7107 9dbe 1d03 b3be 0f2a 8dbe 27cf c43e
00000030: 245d ba3e 2ad2 3b3f 920a 183f 1f20 dd3e
00000040: 7993 d6be f686 1e3e dd1c 5abe b1f0 093f
00000050: f45a 213f 76e3 483f 2fbd 1c3f 9199 63be
00000060: 9f02 c0bd fbd2 5bbe fc8f 91bd 4010 80bf
00000070: 6f17 3bbe 5443 e2be 794e a2bc f9dd e2bd
00000080: 02f7 b6be d26a 11be d68f 4d3e bae0 643e
00000090: 7190 303f 89da fe3e f62e e53e 9891 223e
000000a0: d4f3 01bf e719 88be 1247 50be 8264 0a3f
000000b0: 1ebc fa3e 80a5 c53e 3a74 063f 1e42 be3e
000000c0: 4ccc 043e 71a8 e33e 9e5d 763e 2b14 1c3f
000000d0: 2125 2abf 4eb5 fcbe d9b0 19bf 73f1 e3be
000000e0: 4ba5 be3d 359d 903e 0412 353e f636 ce3e
000000f0: 2aa2 09bf 67c1 8dbe 0f4c 51be d2a6 a1be
00000100: 7d2a 52be 7285 5fbe db05 233c ab02 d1be
00000110: ab15 0d3f 4edd 89ba 635c 603e 4b27 f53e
00000120: 9d2d a2be da91 dbbd cc8e 7fbe 0fe5 193f
00000130: 3fe5 793e d60f d63e 0330 f43e 9df9 a33e
00000140: 0485 c73d 2b64 a93d 0c7d 4bbe dccf ca3e
00000150: 22f1 08bf cf5c 28be f549 e3be e8d7 b2be
00000160: 0af6 84be 31f8 39bd 4e67 803e 43f8 233f
00000170: d14c 07be 2785 eabe e344 ee3e 98d8 d6be
00000180: 2aa4 6bbc e32d 8e3d 9d36 fd3e 0d36 efbe
00000190: 4c16 31bf 5f81 b4be bf7f cdbe bf76 bfbc
000001a0: 7ae0 42be bf0a b33e bb3b 1b3e 8a1d 273f
000001b0: 044c 0bbe 1c58 cebe 4be5 7ebe e98f 1cbf
000001c0: 74b3 f8bc 993e 5ebe 7f2f 29bc a4a3 2b3f
000001d0: 37b3 213e 8cb9 cd3e 990a dc3e da17 44be
000001e0: 8a36 debd 6426 013e ff7c 613e b395 e3be
000001f0: 5e77 47be e1ea 31bf 97e8 c0be 99dc f73c
00000200: 1401 25be afe6 653d 9c4b 343b 35c9 7a3f
00000210: 032d 5ebe 47db 8f3e 1f11 a2be 473f fbbe
00000220: d38b 05be 9f4c 563e 3b17 c7be bc58 043f
00000230: 56f8 1e3d e35c f13e 8ddf b53e 8940 e4be
00000240: 4480 ad3e 9f31 22bd 72f1 063f 6055 d63d
00000250: 6cfc a3be 0ea4 883e 271b 143e 868f b9bd
00000260: c205 9fbd f06c 1cbe 99f8 04bf b270 adbe
00000270: ca1d 5b3e 48c3 8c3e c614 133d 5f22 c2bc
00000280: c346 eebd 3604 30be 7d1e 84be a18e 69bf
00000290: e186 a1bc 551b a6bd ce5e 8f3e 3052 8d3e
000002a0: dced 5e3e 4115 ebbd 066d fb3c 1eac 4cbf
000002b0: f588 843e 022d ed3a fa2a 5b3e eeca ec3e
000002c0: c62e bc3d b38a 89be adaa 593e e366 1bbf
000002d0: e1bd d33e 2e67 863e dbeb cbbd e10c 413f
000002e0: c03a 833e c2ca 823c bbd9 9e3e 034b 31be
000002f0: fc6e a3be 3aee 3bbf 320b ddbe 1d33 363e
00000300: d71a cebe 4c3d 803c 250f 0b3e 80cc 9abe
00000310: b4b6 1a3f ee9f a83e 1226 1e3f b6e4 c8bd
00000320: 9c7c 5f3c 1e83 a0bd e6e5 763e 693c 013f
00000330: 94f4 e8be 19b3 1fbe 8e0e d5be 8374 36be
00000340: 651b f6bd d513 823d 1f15 e3bd d5eb 6bbe
00000350: eb77 1b3f e744 913e 5aba 8b3e c817 ca3e
00000360: ad09 1cbe ea38 74b9 299b 79be fa9e 413f
00000370: 5603 4c3e 71f0 c13e 81f9 bd3b ca8f 0b3e
00000380: 57a0 20be 8869 19be 9f50 2a3f 5a65 ddbd
00000390: b08d 0ebe 7076 0e3f f022 b03e 7ab3 793e
000003a0: 9bc9 80be a536 fa3d 47f0 2dbc 770e a33e
000003b0: ca58 febe 9a63 f3be 86fc 6a3e 4828 dbbd
000003c0: f272 f63d 16ab e03d 2e19 11bf 115b 093e
000003d0: e611 02be 10d7 8cbe 3817 983d 6ced febd
000003e0: 6ea4 48be 966f 653e afb6 073e 5e4b b8be
000003f0: 1666 efbe 3012 a8be c78a 8dbd 15fa c3be
-0.071678914 0.19828369 -0.0983701 0.8300392 0.08072953 0.39424643 0.22738262 -0.06720027
-0.3066974 -0.34963313 -0.2757115 0.38439295 0.36399186 0.7336756 0.5939113 0.4318857
-0.41909388 0.15481171 -0.21300073 0.5388289 0.6302941 0.7847208 0.6122617 -0.2222655
-0.093755 -0.21467201 -0.07107541 -1.0004959 -0.18270658 -0.44191992 -0.01981281 -0.11077494
-0.35735327 -0.14200905 0.200744 0.22351351 0.689704 0.49776104 0.4476239 0.15875852
-0.5076268 -0.26582262 -0.20339611 0.5405961 0.48971647 0.3860283 0.525211 0.37159818
0.12968558 0.44464448 0.2405915 0.60968274 -0.66462904 -0.49357074 -0.60035473 -0.4452015
0.09308871 0.2824494 0.17682654 0.40276307 -0.5376307 -0.27686617 -0.2043917 -0.31572586
-0.2052402 -0.21828249 0.0099501265 -0.40822348 0.5511119 -0.0010518224 0.21910243 0.4788154
-0.31675425 -0.10721178 -0.24956816 0.6011514 0.24403857 0.41808957 0.4769288 0.32026377
0.097421676 0.08271059 -0.1987192 0.3961171 -0.5349294 -0.16441654 -0.44392362 -0.34930348
-0.25968963 -0.04540271 0.25078815 0.6405069 -0.13212897 -0.45804712 0.4653693 -0.41962123
-0.0143824015 0.06942346 0.4945573 -0.46720925 -0.6917465 -0.35254952 -0.40136525 -0.023372052
-0.19030944 0.34969136 0.15159504 0.6527945 -0.13603216 -0.40301597 -0.24892156 -0.6115709
-0.030359007 -0.21703567 -0.010326265 0.6704657 0.15791021 0.40180624 0.42976835 -0.19149724
-0.10850246 0.12612301 0.22020338 -0.4445015 -0.19479129 -0.6949902 -0.37677452 0.030256556
-0.16113693 0.0561282 0.0027510887 0.9796327 -0.21696858 0.28096983 -0.31653687 -0.49071714
-0.1304162 0.20927666 -0.3888491 0.516979 0.03881105 0.4714118 0.35522118 -0.44580486
0.3388692 -0.039598104 0.52712166 0.10465503 -0.3202852 0.26687664 0.14463483 -0.09060578
-0.0776477 -0.15275931 -0.5194183 -0.33875042 0.21398082 0.27492738 0.035908483 -0.02369803
-0.116345905 -0.17189106 -0.2580451 -0.9123326 -0.019717636 -0.08110682 0.28002018 0.27601767
0.21770424 -0.11478663 0.030691635 -0.7995013 0.2588574 0.0018095078 0.21403113 0.46248573
0.09188609 -0.26863632 0.21256514 -0.6070387 0.41355804 0.26250595 -0.09957095 0.75410277
0.2563076 0.015965823 0.3102549 -0.17313771 -0.31920612 -0.7341038 -0.43172604 0.17792936
-0.40254852 0.015654229 0.13579996 -0.30234146 0.6043503 0.32934517 0.6177684 -0.09809248
0.013640549 -0.078375086 0.24111137 0.50482804 -0.45499098 -0.15595664 -0.41612667 -0.17817883
-0.12016944 0.06351439 -0.11088013 -0.23039182 0.60729855 0.2837288 0.27290612 0.3947127
-0.15238066 -0.00023290855 -0.24375595 0.75633204 0.19923148 0.37878755 0.0057975654 0.1362907
-0.15686165 -0.14981663 0.6652927 -0.10810347 -0.13921237 0.5564947 0.34401655 0.24384871
-0.25153813 0.12217454 -0.010616369 0.31846973 -0.49677116 -0.47536927 0.22947893 -0.107010424
0.12033643 0.10970132 -0.56679046 0.13413645 -0.1270214 -0.2750783 0.074263036 -0.124476284
-0.19593975 0.22405848 0.13253282 -0.35995 -0.46757573 -0.32826376 -0.06911235 -0.38276735

action_layer.0.bias f4 [64]
00000000: 4c4e 00be bf88 9d3e 17cb 08be c50c bfbd
00000010: 1a13 08be b204 b73d 9358 3cbe cc2f 95bc
00000020: 5b78 fbbc a0bf b4bb d1b5 143c 20b5 563e
00000030: a62f 6dbd 79a7 86be b333 a03c c9ed 2dbd
00000040: 3f20 093e 3d4d 8dbe 25bc 4cbd 5aeb 803d
00000050: e39f 40be 82a0 08be 042c 873e 9903 383e
00000060: 976b 0cbe 5914 123e 9797 57be 35fc d9bd
00000070: e47c a0bd 5f04 2f3e 6b9a c6bc 6477 853d
00000080: b6b8 8bbe 6658 423d a394 823d 105d 053e
00000090: 8f05 8fbe 7d33 aebd 6bf1 5d3d 279f 063e
000000a0: 6c77 273d 0fc1 1ebe 666f 74be fda9 e8bd
000000b0: 5915 6a3e a5a8 f5bc f997 4ebe 0804 abbd
000000c0: d5d6 99bc cdc7 26be 3751 df3d 1892 39bd
000000d0: 1bc8 043c ad8e 403e f925 8fbe 769a f9bd
000000e0: c29d 4b3d 6075 2d3e 0dbf 103e c2a3 37ba
000000f0: f67b 5f3e ee19 1d3e 7b97 7d3e 04e8 533c
-0.12529868 0.3076839 -0.13358723 -0.093286075 -0.13288537 0.089364424 -0.18393163 -0.018211268
-0.030697038 -0.0055160075 0.0090765515 0.20967531 -0.05790677 -0.26299646 0.019555902 -0.042463098
0.13391207 -0.2759799 -0.049984116 0.0629489 -0.18810992 -0.13342479 0.2640077 0.17970122
-0.13712917 0.14265575 -0.2105392 -0.10643808 -0.07836321 0.17091511 -0.024243554 0.065169126
-0.2728936 0.047447585 0.063760065 0.13023782 -0.27933928 -0.08505914 0.054185312 0.1314665
0.040885374 -0.15503334 -0.2387062 -0.11360548 0.22859706 -0.029987643 -0.2017516 -0.08350378
-0.018779198 -0.16287155 0.109041624 -0.04530534 0.0081043495 0.18804426 -0.27958658 -0.12187664
0.049710996 0.16939306 0.1413538 -0.0007005298 0.21824631 0.15341923 0.24764816 0.012933735

action_layer.2.weight f4 [64, 64]
00000000: e1f9 053f 00a8 be3d 80c0 7f3e 4cfc b5be
00000010: 9d38 09be be6f e03d 19eb 123f c052 de3e
00000020: 794e 32be 8146 923d 7c05 323e a5d6 863e
00000030: d2cb 5a3c 2d32 803e eacc 273e f255 26be
00000040: de20 503f fc4f fb3d 24cd 1b3d 6b40 6dbd
00000050: fa17 d2be 541f 96be 218e a5be a14d 873d
00000060: 4c25 a9be c15a 893e dd60 49bd 63db 783e
00000070: ad8f e4bb 81d3 083e e8c9 e2bc 4829 d2bd
00000080: 21c4 393c 9713 8cbd 92b4 753e f579 d23d
00000090: 2b17 6c3e b8a9 b53b 88f3 673e 6e33 90be
000000a0: 8114 f23e 58ac 7ebe 2ca8 9ebb fdda 2b3e
000000b0: d343 b53e 0349 493d d8cc 7ebd 534e 22bf
000000c0: 26ae 44be 1919 313c 9e0c 2e3d 13c1 3a3e
000000d0: 539e 883c fda0 98be a160 ddbe b650 eabe
000000e0: af54 953e 440b 84bd d284 cdbe a935 383f
000000f0: e03d e43c 3543 08be 3ba1 c43e 2702 05be
00000100: 5c8b f93e e591 d63e 688d 013f 51f5 56be
00000110: 8d7a f33d 0847 963e 9153 4fbc b843 1cbe
00000120: 6fcd b63d 302b 993e 7a19 5a3d 707e 3e3d
00000130: bfac fbbe 0bb5 1b3e 5730 ca3d eac9 dabe
00000140: e21e 2a3f 0907 aa3e 4bf0 f33b 1fcf 283c
00000150: 5852 13bc 5707 0ebe bacb 24be b02a 93be
00000160: f9e4 17bd 3797 5bbd 77c7 273e 2136 2d3e
00000170: 802e c43d b254 8ebd 85d6 2d3b f7f6 33be
00000180: aa2f 983e c054 05be 9e31 2c3e 4b5a 063f
00000190: 0949 ba3d 450c c03d d5f3 293e 1aa5 8fbe
000001a0: 0b02 9d3d a0d1 2e3d 4dc0 f93d 3f75 363e
000001b0: 8350 5d3e 9204 59be 9272 d13c 7b5d dbbe
000001c0: 6669 8abe fc09 cabd 48fb a9bd 2196 2b3d
000001d0: afcd 20be e170 c3be 8b54 f5be 3eb5 6dbe
000001e0: e271 5cbd dda0 65bd dbca babe 1a71 5b3f
000001f0: 0561 1e3e bc53 8ebe 9d39 023f ad01 aebd
00000200: e2bb 9f3e bf2c 133e 173f 7f3e 2540 adbe
00000210: 095d 09be dea9 fc3d 01d9 e23e c27b a43e
00000220: 7e63 35be 0931 473e 3586 1b3e b571 a53e
00000230: 6929 8dbe 19f0 c83e 782b 573e 6de2 79be
00000240: a1a8 773f a34e 9e3e 6a1a 34bd f40b 7ebd
00000250: cc06 c4be 747d c1be cb38 86be 945c 8dbd
00000260: 0bc4 acbe 3198 7c3e 4265 c0bd 3cfe a23e
00000270: cf20 39bd 61e2 583e ba76 193e c5f1 5f3d
00000280: 12aa 4b3e 673f babc e3ad 193e 2d6b 313e
00000290: 4c1b 7d3e 7d44 f13d 02df 943c 2784 dfbd
000002a0: adbb af3e c4f7 29be b0ad 0dbe 7c13 9abb
000002b0: 4524 6b3e 1b08 13bd 5799 32bc d9c7 0dbf
000002c0: e636 aebe 9993 3dbd 7b3b 0bbe 313d b13e
000002d0: 37fd ff3c 448f 78be 298d ccbe 13b4 8cbe
000002e0: 67e1 813e 4cea b2bc cb40 ecbe f571 243f
000002f0: 2c44 933c b1d0 74be de15 033f b75f 0abe
00000300: 70f7 b33e 7e76 af3e 6122 1e3f 0193 2fbe
00000310: 1e43 503e f276 533e f014 92bd 16aa ff39
00000320: ef19 ff3d 6531 6a3e 2d9a 303d 6322 353d
00000330: 8471 ccbe 2594 27bd 8e97 3f3e 3b0c f4be
00000340: fac2 e03e 9b9c 813e 0bb0 27bd e06e e33d
00000350: 3a45 49bc 9e63 6abd af39 2fbe 0e2e 55be
00000360: dbad 66bd 1a02 963c ae4d 5c3c 1774 c03e
00000370: 481a fabc cad3 15be 78f5 de3d 183a c3ba
00000380: afaf 373e a288 13be 6213 5a3e 54fe e13e
00000390: 2112 a73d 0012 423e 8363 ab3e 90c4 00be
000003a0: 09b1 4abd 2276 453d f9ad 743e fc6e ba3e
000003b0: 4325 0b3e 343b 22be ac8b 6a39 8981 99be
000003c0: 0e1e 0abe 6c55 34be 2705 18be 59ea 123e
000003d0: 4fa0 5cbe 750b 67be b8be 3fbe 5ade a8bd
000003e0: 51a2 3ebd e701 94be dff5 c4be a85e 6c3f
000003f0: ca57 063e 65d8 1abe f08a de3e 75a2 47bb
0.5233441 0.09309387 0.24975777 -0.3554405 -0.13400503 0.10958813 0.5738998 0.43422508
-0.17412747 0.07142354 0.17384905 0.26335636 0.013354259 0.2503828 0.16386762 -0.16243723
0.8130015 0.12271115 0.038037434 -0.057922762 -0.41033918 -0.29320776 -0.32334998 0.066066034
-0.33036268 0.26827052 -0.04916464 0.2430244 -0.0069751353 0.13361932 -0.027684167 -0.1026178
0.011338265 -0.06839674 0.23994663 0.10277168 0.23055713 0.0055439137 0.22651494 -0.28164238
0.47281268 -0.24870431 -0.004841825 0.16782756 0.35403308 0.049141895 -0.062207073 -0.63400763
-0.19207057 0.010809206 0.0424925 0.18237714 0.016677057 -0.29810324 -0.43237785 -0.45764703
0.2916617 -0.06447461 -0.40140396 0.7195688 0.027861536 -0.13306887 0.3840426 -0.12989102
0.48739135 0.41908184 0.50606394 -0.20992018 0.11888609 0.29351068 -0.012654201 -0.15260208
0.08925902 0.29915762 0.053246953 0.0465073 -0.49155232 0.15205781 0.09872501 -0.42732173
0.66453373 0.33208492 0.0074444166 0.010303288 -0.0089918 -0.13869987 -0.1609334 -0.28743505
-0.0370836 -0.053611007 0.16384684 0.1691518 0.09579182 -0.06949748 0.0026525569 -0.17574678
0.29723865 -0.13020611 0.16815802 0.52481526 0.090959616 0.0937734 0.16596921 -0.2805565
0.07666405 0.042680383 0.121948816 0.17818163 0.21612744 -0.2119315 0.025567327 -0.42844757
-0.27033538 -0.098651856 -0.08299881 0.04189122 -0.15703462 -0.38172057 -0.47916064 -0.2321367
-0.053819545 -0.056061614 -0.3648289 0.85719454 0.15466698 -0.2779826 0.5086916 -0.084964134
0.3119803 0.14372538 0.2492641 -0.33838 -0.13414396 0.12337087 0.44306186 0.3212567
-0.17713735 0.19452299 0.15187915 0.32313314 -0.27570656 0.3924568 0.21012676 -0.24402781
0.9674168 0.3091937 -0.043970503 -0.06202312 -0.38286436 -0.37791026 -0.26215205 -0.069024235
-0.3374332 0.24667431 -0.093943134 0.3183459 -0.045197304 0.21180107 0.14986697 0.05467393
0.19889095 -0.02273531 0.15007739 0.1732604 0.24717444 0.11780641 0.018172745 -0.10913878
0.34322873 -0.16598421 -0.13835788 -0.0047020297 0.22963054 -0.0358964 -0.010900817 -0.5538307
-0.3402626 -0.04628334 -0.13596909 0.34616998 0.031248672 -0.24273401 -0.39951447 -0.27481136
0.2536728 -0.021840237 -0.46143183 0.64236385 0.017976843 -0.23907734 0.5120524 -0.13513075
0.35149717 0.3427009 0.6177121 -0.17145921 0.20338103 0.20650843 -0.071329 0.00048764114
0.12456118 0.22870405 0.043115783 0.044222247 -0.39930356 -0.040912766 0.18710157 -0.4766558
0.43898755 0.25314793 -0.040939372 0.11105132 -0.012284571 -0.05722391 -0.17111848 -0.2081835
-0.056318145 0.018311549 0.013446255 0.3758857 -0.03053011 -0.14631572 0.10886663 -0.0014894633
0.17938112 -0.1440759 0.21296456 0.4413935 0.08157755 0.18952179 0.3347436 -0.12574983
-0.04948524 0.048208363 0.2389449 0.364128 0.13588433 -0.15842897 0.00022368011 -0.2998164
-0.13488027 -0.17610711 -0.14845715 0.14347209 -0.21545528 -0.22562964 -0.18725097 -0.08245535
-0.046541516 -0.289077 -0.38468835 0.92331934 0.13119426 -0.1512161 0.43465376 -0.0030461822

action_layer.2.bias f4 [64]
00000000: da61 7fbd 9ac0 d23d 433b a63d ed8e e73d
00000010: d8d3 debd f726 89bd 1b2c e43d f7dd 173d
00000020: d1b9 463d 5d32 fcbd bf4a df3d 4403 26be
00000030: 7709 c83d 7643 f93d 0f3a 113d d73a 873c
00000040: 33cc 233d ba00 0d3e 57de 3ebd bfc9 4f3d
00000050: c357 96bd 816a a6bd 8099 8ebd bed4 debc
00000060: 189a da3d 1a57 9c3c 79f2 3ebc 276d e0bd
00000070: 29e5 f1bd 5afe 6cbd 2c75 40be c9e6 893d
00000080: 160a fc3d 3d12 dcbc 7a00 9d3d 798c 573d
00000090: 1782 c1bd 1ef7 713c c84c b2bd 1a34 bb3d
000000a0: 2ee7 a53d f862 923d b45b a23d 15a7 e13d
000000b0: a2b4 203e 8cc7 45bd c91a e0bb 9e9b f7bc
000000c0: 78e9 8f3c 6bbe b03d 880d 383d beff 183e
000000d0: d4b8 473c cb34 96bd 6a01 31bd afd3 84bd
000000e0: 13a1 8bbc 3c70 433e c190 aebd a302 193d
000000f0: 6402 cd3c 80fd 803d 148e fbbd a24f b0bd
-0.062349178 0.10290642 0.08116772 0.11306558 -0.1088025 -0.06696885 0.11141225 0.037076917
0.048517052 -0.123142935 0.109029286 -0.16212183 0.0976743 0.1217107 0.03545576 0.01650755
0.03998966 0.13769808 -0.04659876 0.05072951 -0.07340958 -0.08125783 -0.069628716 -0.027201053
0.10673922 0.019084502 -0.01165449 -0.10958319 -0.11811287 -0.057859756 -0.18794698 0.06733472
0.12306611 -0.026864165 0.076661065 0.0526242 -0.09448641 0.01476839 -0.08706051 0.09140797
0.08100735 0.07147783 0.07927647 0.110181965 0.15693906 -0.048286006 -0.0068391305 -0.030225571
0.017567381 0.08630069 0.04493478 0.14941308 0.012190063 -0.07334288 -0.04321424 -0.06485688
-0.01704458 0.19085783 -0.08523703 0.03735603 0.025025554 0.06298351 -0.122829586 -0.08608939

action_layer.4.weight f4 [4, 64]
00000000: 4b83 d13e ba21 fc3e 3ec3 113f 46ab a93e
00000010: d4ee 813e 86e7 063f b400 9f3e 7ce7 3e3e
00000020: 37e9 143f e3be 0fbe 97d7 853e 4bf1 24be
00000030: d2e2 3f3e 9e97 963e 8520 133f e9c4 80be
00000040: a5c7 d63e 35c6 063f 7cfb a0bd af90 a73e
00000050: 70fb bf3e 7277 683e c81a d5be 3d1f 983d
00000060: 1844 723e 1533 233f 615c 97be 321a 7dbd
00000070: bece 50be 1ede 6fbe c737 b0bd e21b 153f
00000080: a29c 70be 8eef 7dbd 6c76 603e 235a fa3e
00000090: b0f2 5bbd c1c1 0bbf 223e 0ebf 8ab8 cf3e
000000a0: e5e0 8a3e f2d6 3ebd 13ce 5a3e 5f46 ad3e
000000b0: 72d5 9e3d 5c30 4fbe 3c20 053f 97d9 15bf
000000c0: 5134 683e d551 9e3d a0ba 893e 0bdf 7fbd
000000d0: 5c36 e83d cfc9 8b3e a9fd dcbe 2c9d 0abf
000000e0: 2528 67be 1201 293e 9c82 c8bd 0ad6 f1be
000000f0: 09db 1a3d 85b2 0b3d 8174 cd3d 4b68 a0bd
00000100: 14d4 443f 65e3 94bd 4cc5 e73e 3cfd 66be
00000110: 6d42 6d3f 7a5a 0b3f 0564 9e3e 4e10 91bd
00000120: bad1 fdbd ab35 3f3e e997 d4be 0809 a43d
00000130: 9689 123e e37a 653f 1c36 023f 6e9b f7bc
00000140: f949 79be 57cd 14be 7ee0 163f 881c fd3e
00000150: 80a7 12be 77d9 71bd 2aa7 2fbe bac8 1bbe
00000160: de17 32bf bfe8 65bd 27d8 6dbf b42b 0a3f
00000170: 66d4 fc3e a178 413c 76af f9bd 9a3e 22be
00000180: 0408 aa3e e2e3 9c3d 6d26 fb3e e695 c2bb
00000190: 780e ecbb cf66 11be b537 4fbf 74f9 de3d
000001a0: 8d87 17bf c30d 04be 8f76 acbd 4488 823e
000001b0: 772c 123e 8b90 58be bd37 443f 417a 623d
000001c0: 620a e8be 3405 223e be1d 513d 767b 713d
000001d0: 47f7 2f3d 24e3 02bf 993d 28bf 0763 06bf
000001e0: 0b62 6e3e 163b 803d 9a92 143f 3357 53bc
000001f0: 8fbe 493f f54e 993d ae47 ed3e c8a3 e13c
00000200: 7f42 3cbf 8e11 29bf cc53 85bf c4b7 fabe
00000210: 2d1a dfbe 28ef 80bf 684e 25be 6708 0ebd
00000220: 3712 47bf 596b 6dbd c148 fd3c d9ee 52be
00000230: a5b5 5f3e a9e6 1bbf 64e7 91bf 4753 be3e
00000240: 2f40 31bf ae4c 52bf a2ff 8ebe c26d 2fbf
00000250: bcfe 1dbf 6345 00bf cf55 1b3f 1506 b4be
00000260: 83d9 4dbc 11cd 30bf 5692 013f 7aa0 8dbe
00000270: 137d 1bbe 1b9e 113f 034b 9fbe 5ebc 47bf
00000280: af64 0abe e8ee 33be 33a0 cbbe f9a4 2fbf
00000290: f36b 26be 995d 303f 4c41 4d3f af09 12bf
000002a0: 4fed f3bd ed8b c63e 4aef bebe a6d8 2fbf
000002b0: 2afe 603e b9cf e03e 6050 54bf eb7b 533f
000002c0: be0c 4c3e 0d58 733e 9ef8 3cbd f766 913e
000002d0: cb7c 533d 46d8 5abe 58b8 593f 50f8 523f
000002e0: d2da 0dbd a0e9 9d3e 0fcd 8abe c9cb 213f
000002f0: 1ccd d2be 75af dcbe ab50 83be 95af afbd
00000300: 3882 583d 5d83 263f b12b 403e 14a2 be3e
00000310: e542 eb3c 30b4 b23d b87d a0be e620 34bd
00000320: d53f 563f 5523 883e 407a 39bd dbdd f63e
00000330: 34c9 1dbf ca19 20bd 31d5 163e e974 52bd
00000340: 0919 373f 5997 fc3e 9a12 43bd 2317 07be
00000350: 1371 3e3f d3a3 433f 8587 81be d183 493f
00000360: 5ee1 3d3e c6e9 433f 5b95 853c 0ec4 5f3b
00000370: c3d3 df3c 5780 7abf a1fb 853f 93f8 073f
00000380: b6e9 8f3c 967d 0b3f 03b3 39be a3d3 813f
00000390: 1b55 603f d345 08bf de80 73bd fd77 053e
000003a0: 99a0 143e 29fa 57be 1ff0 523f fea5 493e
000003b0: f4e2 4fbf 1d78 18be cb38 b53c f63e 20bf
000003c0: 5edc 4e39 61c2 39bf 5b20 ed3b ab04 69bf
000003d0: 49d5 2fbf 55b2 a83e c505 9a3c b438 61be
000003e0: 257d 2a3e 1481 30bf 4892 6dbd 0b3c 64bf
000003f0: 2763 11be b0d0 fa3e 86df bdbe 0e42 1e3f
0.4092048 0.4924448 0.5693854 0.33138484 0.25377524 0.52697027 0.31055224 0.18642992
0.5816836 -0.14037661 0.26141044 -0.16107671 0.18738869 0.2941255 0.57471496 -0.2515023
0.41949192 0.5264619 -0.07860467 0.32727572 0.3749652 0.22701815 -0.41621995 0.07427833
0.23658788 0.6374982 -0.29562667 -0.06179256 -0.20391366 -0.23424575 -0.08604389 0.5824567
-0.2349725 -0.061996035 0.21920174 0.48896894 -0.05369824 -0.5459252 -0.5556356 0.4057048
0.27124706 -0.046591707 0.21367674 0.3384275 0.07755555 -0.20233291 0.5200231 -0.5853514
0.22676207 0.07730452 0.26900196 -0.06246857 0.11338493 0.27302405 -0.43162277 -0.54146075
-0.22573908 0.16504315 -0.09790537 -0.4723361 0.037806544 0.034105796 0.10031987 -0.07832392
0.76886106 -0.072699346 0.45267713 -0.22557539 0.9267948 0.5443493 0.30935684 -0.07083188
-0.12393518 0.18672816 -0.41522148 0.08009535 0.14310297 0.89640635 0.50863814 -0.030225482
-0.24344625 -0.14531456 0.589363 0.4943583 -0.14321709 -0.05904528 -0.17153612 -0.1521329
-0.6956767 -0.056130167 -0.9290795 0.53972936 0.49380797 0.011808545 -0.1219167 -0.15844193
0.3320924 0.07660653 0.49052754 -0.0059382794 -0.0072038732 -0.14199375 -0.8094438 0.10887423
-0.5919121 -0.12895875 -0.08421051 0.25494587 0.14274774 -0.21148889 0.7664755 0.05529237
-0.4532042 0.15822297 0.051053755 0.058955632 0.04296043 -0.5112784 -0.6571899 -0.52494854
0.23279588 0.0626127 0.58036196 -0.012899208 0.78806394 0.07485763 0.4634375 0.027543917
-0.73538965 -0.6604241 -1.0416198 -0.48968327 -0.43574658 -1.0072985 -0.16143191 -0.03467598
-0.7776217 -0.057963703 0.03091848 -0.20598926 0.21846636 -0.60898834 -1.139874 0.3717291
-0.6923856 -0.82148254 -0.27929407 -0.6852685 -0.6171682 -0.50105876 0.6067781 -0.3516089
-0.012564066 -0.69062907 0.50613916 -0.27661496 -0.15184431 0.56881875 -0.31111917 -0.780218
-0.1351497 -0.17571604 -0.3977066 -0.68611103 -0.16252117 0.6889282 0.8017776 -0.57046026
-0.119104974 0.3877863 -0.37291938 -0.68689954 0.21971956 0.4390848 -0.8293514 0.8261096
0.19926736 0.23764057 -0.046135537 0.28398868 0.051632684 -0.21371564 0.8504691 0.82410145
-0.03463251 0.30842304 -0.27109572 0.63201576 -0.4117211 -0.43102613 -0.25647482 -0.085784115
0.05285856 0.65044194 0.18766667 0.3723303 0.028718421 0.08725774 -0.31345916 -0.043976687
0.8369115 0.26589456 -0.045282602 0.48216137 -0.61635137 -0.039087094 0.14729764 -0.051381025
0.71522576 0.4933422 -0.04762516 -0.1319242 0.7439129 0.7642185 -0.25298706 0.7871676
0.18543002 0.76528585 0.01630657 0.0034143957 0.027322656 -0.9785208 1.0467416 0.5311367
0.017567497 0.54488504 -0.18134694 1.0142711 0.8762986 -0.53231543 -0.05944907 0.13034053
0.14514388 -0.21091522 0.82397646 0.19692227 -0.8120568 -0.1488957 0.022121808 -0.6259607
0.00019727784 -0.72562224 0.007236523 -0.9102275 -0.6868482 0.32948557 0.01880158 -0.21994287
0.16649301 -0.6894696 -0.058000833 -0.8915412 -0.1419798 0.4898734 -0.37084597 0.6181954

action_layer.4.bias f4 [4]
00000000: 4c83 633e f9b5 e5bd 8d86 a73b bd7a 5dbe
0.22218055 -0.11216349 0.0051124752 -0.21628852

value_layer.0.weight f4 [64, 8]
00000000: 7524 c9be 378b 323d 4495 e93d d8d0 8ebe
00000010: 8e26 393f 68f8 1e3e 0a34 0cbe 0eae 623c
00000020: 8836 0f3f 3424 c2bd 83f0 c1bd d610 68be
00000030: f4e7 15bf 09c9 76be c022 f1be 35b8 9b3e
00000040: 612f 8b3e 649e 76be d428 7dbe a091 df3c
00000050: f2bf 0a3f f5a7 3cbf 2501 17be f2e2 bebd
00000060: 83f1 3ebe 5725 ca3d 99a2 0abf f957 33bf
00000070: c50f 9fbd 935e 813e 9279 bb3e 8837 0c3e
00000080: d295 b43d 063f c2be 8eb9 8f3e 8878 abbe
00000090: 525e 323f c41e 323f 641b 91bc 2f56 a7be
000000a0: 83c8 2bbe a44d d73d 45e2 efbe 90d5 aabe
000000b0: 2a09 56bf 33a0 d4be cf74 04be 6f3f b7bd
000000c0: 0ed9 4d3e 23a4 52be 8523 313f 7e03 ce3e
000000d0: 78e3 6cbe 307b 1b3e 9c8f 84be 4b69 3a3d
000000e0: 804b c03d a443 2fbe fe5e 75bd 87fd 283e
000000f0: c961 14bf 0519 8a3e a9e7 96be f893 753e
00000100: 099d 00be 930d 9dbd e61d 89bd 89a2 103e
00000110: 3531 293f 9657 59be f863 4a3f b424 3c3e
00000120: ed64 aabe ea00 693e 12df bf3e 66cd e13e
00000130: b74e 063f c298 ac3f ebc4 673e c23b 983e
00000140: e458 c0be c66b 2a3e 532d 073f fdcf b43e
00000150: d826 75be aab1 643f fe7d 82be 805f 3f3d
00000160: f2de 7c3d 1746 373e 0f44 933e 322d 963c
00000170: c173 ccbe 5854 41bd 2b31 b5bd e83a 3c3e
00000180: 8b0b 37be 1190 723c aacf 2c3f 322c bc3e
00000190: 11cc 193f d180 f1be b22b 7a3d 8069 8b3c
000001a0: f54f cfbd 61a7 8d3e e32d 9b3e e40a 453e
000001b0: 0ce9 253d abe2 22bf 0e7f 9b3c 46f0 08be
000001c0: 3e28 38bd 9e74 113d d879 273e 226f 553e
000001d0: 1cac 433f c040 d6be 70ed 333f 96d8 653d
000001e0: bdce c73e 172a 243e 1728 933e eb6c fa3e
000001f0: d7bb 26bf 725c 1dbf a4c2 f4bc c440 b03c
00000200: d8b2 07be 31ac 6b3e 8574 9b3d d9dd 9a3e
00000210: 7beb cc3d 231d 03bf 9822 d13e 7d22 dfbd
00000220: 0000 f1bc ef8c 243d 649a 753e 19e5 153f
00000230: cd1f 2fbf c21e 263f 5450 bdbe 0942 9fbd
00000240: e482 50bd c4c4 06be b3ca 2e3f e1aa de3e
00000250: 73ff 66bc 231f 74bc e78f 62be bbb8 d13d
00000260: ddef 09be e6cc 4cbe 48da f8bd f82a 97bd
00000270: 6f64 493f 0377 4bba eaa0 f83d ff6c 33be
00000280: 39b9 febe a578 f83d 34ea 0b3f a37a 183f
00000290: 99f8 913e f38b de3e 2428 3e3e 848f f73d
000002a0: 8982 8cbd d7bd 6fbe d452 4dbe aef2 723d
000002b0: 4f40 fdbd 0330 b83e 281a 4dbd 4289 33be
000002c0: 1dd3 923c 6bf7 1bbe 3079 8c3e ee95 963e
000002d0: a718 ea3e 77af 84be 48ea 96bd 959d b23e
000002e0: d0b0 473e 038d a2be 45c2 11bf a386 ecbe
000002f0: 57e1 3bbe de2f 373f eddb 5cbe 343a f23c
00000300: 89be 92be 9286 c8bd 3706 d7bd 603a 893d
00000310: 49f7 3bbe a6fb 423f e589 403e e107 a6be
00000320: fc2e 4fbe 828f 80be 90e0 8abe 3e06 593e
00000330: 87ec 3d3f f1e3 85be b92b c0be e3a1 c3bd
00000340: 0629 6fbd 939e 21be ceca 143e d8ba b13e
00000350: f2b9 d43e bcef 76be 4b13 55be 03d9 fb3d
00000360: fc92 60bd d223 3d3e 87dc 3ebe a0fa 083f
00000370: 767d 7c3e 053c 123e e21c ba3e 7fa4 b83e
00000380: 4b6b b0be 9751 303d a0da 9bbe 7dec 2bbf
00000390: 81fe c23e 0ef0 083e 835e f83e 6e36 a33e
000003a0: 0624 7cbe 6a9b 97be eebb babe 4499 56be
000003b0: 7798 253f b6d9 263e e32b 5f3d 3132 613e
000003c0: de44 c4bc 4e11 9dbd f043 203e c827 b9bc
000003d0: eb45 6abf b1ad cb3e c80f c7be 70d4 db3d
000003e0: 097d 1a3d 2bcd cfbc 0a2e 4dbe bfbc 6b3e
000003f0: 1f47 843e 823e 5e3e d0ca 973e 8f88 613e
-0.39285627 0.043589797 0.11405423 -0.2789371 0.72324455 0.15524447 -0.13691726 0.013835443
0.55942583 -0.094795614 -0.09469702 -0.22662672 -0.5855706 -0.24100126 -0.47096825 0.30413976
0.27184585 -0.24083859 -0.24722606 0.02729112 0.54199135 -0.7369378 -0.1474653 -0.0932063
-0.18646817 0.09870403 -0.54154354 -0.7005611 -0.0776668 0.25267467 0.36616188 0.13693058
0.088176385 -0.37938708 0.28071254 -0.33490396 0.6967517 0.69578195 -0.017713256 -0.3268294
-0.16775708 0.10512856 -0.46852317 -0.3336606 -0.83607733 -0.41528472 -0.12935184 -0.08947646
0.20102331 -0.20570426 0.69194824 0.4023704 -0.23133647 0.15183711 -0.25890815 0.04551057
0.093894005 -0.17115647 -0.059905045 0.16502963 -0.5796171 0.26972213 -0.29473618 0.23982227
-0.12559904 -0.07668605 -0.06695156 0.14124502 0.6609071 -0.21224818 0.7905879 0.18373376
-0.33280125 0.22754255 0.37474877 0.4410202 0.5246386 1.3484118 0.22633712 0.29733092
-0.37567818 0.16642675 0.52803534 0.35314932 -0.23940599 0.89333594 -0.2548675 0.046721935
0.061736055 0.17897831 0.28762862 0.018332098 -0.39932063 -0.047199577 -0.08847269 0.18381846
-0.17875497 0.014804856 0.6750437 0.36752468 0.60077006 -0.47168592 0.061076827 0.01701808
-0.101226725 0.27666762 0.30308446 0.19242436 0.040505454 -0.6362712 0.018981483 -0.13372907
-0.044960253 0.035511605 0.16355073 0.20843175 0.76434493 -0.41846275 0.70284176 0.056114756
0.39024916 0.16031681 0.28741524 0.48911223 -0.6513037 -0.61469185 -0.029877968 0.021515258
-0.13251817 0.23014905 0.07590584 0.3024738 0.10005852 -0.51216334 0.40846705 -0.1089525
-0.029418945 0.040173467 0.23984677 0.585527 -0.684079 0.6489068 -0.36975348 -0.07776267
-0.050906077 -0.13160998 0.68278044 0.43489745 -0.01409899 -0.014900002 -0.22125207 0.10240313
-0.13470407 -0.20000038 -0.12151009 -0.073812425 0.78668875 -0.00077615696 0.12140067 -0.17522047
-0.4975069 0.12132386 0.5465424 0.5956213 0.28509977 0.43466148 0.1857 0.1208792
-0.06860835 -0.23412262 -0.20051128 0.05931347 -0.123657815 0.3597413 -0.050073773 -0.17532828
0.017922932 -0.15231101 0.2743621 0.29411262 0.45721933 -0.2591512 -0.07368904 0.3488585
0.19501042 -0.31748208 -0.56937057 -0.4619647 -0.18347679 0.71557415 -0.2156827 0.029568769
-0.28660992 -0.09791292 -0.10499232 0.06700587 -0.1835605 0.76165235 0.18802603 -0.32427886
-0.20232767 -0.25109488 -0.27124453 0.21193787 0.7418904 -0.26150468 -0.37533358 -0.09552362
-0.058388732 -0.15783148 0.14530489 0.34712863 0.41548115 -0.24114889 -0.20808141 0.12297251
-0.054827675 0.18470696 -0.18638812 0.53507423 0.24657235 0.14280708 0.3635016 0.36063
-0.34456858 0.04304656 -0.30440235 -0.6715773 0.38084796 0.13372824 0.48509607 0.31877464
-0.24623117 -0.2961076 -0.36471504 -0.20956904 0.6468577 0.16293988 0.054485213 0.21991803
-0.02395862 -0.07669316 0.15650916 -0.022601977 -0.91512936 0.39780954 -0.38879228 0.107338786
0.0377169 -0.025366386 -0.20037094 0.2302122 0.2583551 0.21703532 0.2964692 0.22024749

value_layer.0.bias f4 [64]
00000000: a69b efbe f040 a23e 608b 9b3e 9f05 fbbe
00000010: aa89 ecbe 32ba e5bd 6f3f ae3e 8355 863e
00000020: 6d8a b93e e49d 32be 1d13 55be 7c98 2b3d
00000030: 9c24 6f3e 43eb 7cbd 207d cf3e 9218 573e
00000040: 7b78 203e c9fe 9d3c 0d59 d43e 4418 7cbe
00000050: de15 543e de9a 0dbe e597 d93e 5075 89be
00000060: e3d8 e1be 11a0 5a3e 03bc c73e 59b0 b43e
00000070: 4946 e8be 262c 8cbc 85cd 2bbe aaa6 a93e
00000080: 58f0 e03e 218f b43e c57f 8ebe ffc6 2dbd
00000090: 346c e33e ceb4 2bbd aaf5 5e3e bbad cc3e
000000a0: ff16 8d3e c600 46bd a3fe 4bbe 6ca6 dabd
000000b0: a8c9 c5be 0f04 0a3e b1ea a3bd 62ab dbbe
000000c0: 2255 cebe 1189 9abe b447 bb3e 1720 96bd
000000d0: d79e b83b e2eb e73e 8b48 ffbd 7e42 e03e
000000e0: cd85 f73e 669d 7fbd 698d 463c 8365 623e
000000f0: 9b0a 4abe 99fe 07be 2575 a53d fb7e 2c3e
-0.46798438 0.31690168 0.30379772 -0.49027726 -0.4619878 -0.112171546 0.3403277 0.26237115
0.36238423 -0.17443043 -0.20808072 0.041893467 0.23353809 -0.0617478 0.4052515 0.21005467
0.1567096 0.01928653 0.4147419 -0.24618632 0.20711467 -0.13828608 0.424987 -0.26847315
-0.44110784 0.21350123 0.3901063 0.35290793 -0.45366123 -0.017110895 -0.16777618 0.33134967
0.43933368 0.3526545 -0.27831855 -0.042426106 0.4441849 -0.041920476 0.21773401 0.39976296
0.27556607 -0.04834058 -0.19921355 -0.10676274 -0.38630414 0.1347811 -0.08003748 -0.42904192
-0.40299326 -0.30182698 0.36578143 -0.073303394 0.0056341696 0.45297152 -0.12465008 0.4380073
0.4834427 -0.062405966 0.012118676 0.22109036 -0.19730608 -0.13280715 0.08078984 0.16845314

value_layer.2.weight f4 [64, 64]
00000000: dcdb 693c ce7a 81bd 022d febd ce2e 483d
00000010: c3af 83be 2325 f63d 64dc 8fbd 1f9e c1bd
00000020: 9e38 993e 8a6e 903d efbb 113d 2867 a1bc
00000030: e0c3 41bd 647e 70bd d5fd fb3d b48c 03be
00000040: 0633 643e 71ed 0e3d 539c aebb d2f6 04be
00000050: 89ca 283e b664 5dbe 755b b63d 8461 8d3c
00000060: f463 36be a06f 413e c248 283e 1f2a a73e
00000070: 90de 083e a16c 5f3e 5930 47be 6c12 f23d
00000080: 7b6f 983e fe7b 6fbe 6a55 48bb 9147 a0be
00000090: deb7 a23d 9c06 893d 1826 4c3e 320b 503e
000000a0: e4ba 5abd 4ce1 5a3e c726 35bd f308 193e
000000b0: c027 85be 287e a13e 92a2 e8bd 88f2 33be
000000c0: 5ecd ffbd ef6c 56be b5b8 353d 7c1f ae3d
000000d0: 6c8b e4bd 11d2 c2bd 8cd8 81bd bef7 503d
000000e0: 51e2 cd3c cc97 3cbc 465f 143e d125 44bd
000000f0: fb5b 79bd 6bfc c1bd 8bbf 7a3d 18e5 ea3d
00000100: 6013 d4be 253b c23e 223a 72bd 592d e5be
00000110: 4b82 edbe 1dee 723e 2f8d 8e3e 9c22 b13e
00000120: 06dc a9be 407b cdbe 3097 1cbe a496 9a3e
00000130: ae09 d43d a010 953e c084 fd3b 421a 7b3f
00000140: 0353 973e 7e19 3d3e f0e0 a03e a828 05bf
00000150: fd0c 6a3c 1133 ce3c ae16 d5bc f8ab f2be
00000160: 36c6 8ebe 6f6f 04bf 1181 d43d 25ba 5a3b
00000170: fb1c 0abf eed2 f8be 9b7e 873e 3fb4 acbe
00000180: 8498 80be f6fc a23e 163e 03bf eadb c13e
00000190: 7a41 d43d d524 47be 2436 83be c3eb f13e
000001a0: 5d96 393f a4b6 82bd 1ba3 42bf 00af babe
000001b0: 4df8 b53d d928 b5be 7cb3 d93e a395 9d3d
000001c0: 7d06 65be 2d9b 363e f956 dcbe 81fe 28be
000001d0: 6ea1 7b3e 4ea7 f93e 14e4 07bf 5d98 513d
000001e0: 485d 443d b884 85be 345c 3bba 0f15 853f
000001f0: 7e18 bdbe 8652 a73e 7194 943e 1068 a13e
00000200: 9675 c4be 0969 d53e e73d 023e 8dec 04bf
00000210: 29b9 16bf 5e2b 7e3d c89c 8c3e 92fe 523b
00000220: 6cda 74be 5b82 03be d072 f4bc c578 c73e
00000230: 87c6 613e e0d3 b23e a374 82bc 2ae9 453f
00000240: 6696 883e 97a5 8d3b 178f ba3e c18b 76be
00000250: 0e9a 373d 5fad f2bd 3de2 643e f2df 13bf
00000260: 0fb6 77be 693f e0be 3f4e b93d 2296 c83c
00000270: 2efa 0fbf ca33 02bf 7164 2f3e 1c10 f6bd
00000280: 6835 4cbd 31c3 e63e 9c64 50bf 7765 7e3e
00000290: 8b8c 273e 9a50 5fbe 15a8 c8be 4503 2a3f
000002a0: 9b3a 2b3f b4bf afbd 79b6 46bf a870 4bbe
000002b0: 160e 85be 3a19 54be e113 663e aacc 2cbc
000002c0: c996 e3be af77 e33d 3474 eebd 6340 03bf
000002d0: e3f0 603d a8c0 2d3f 3269 3fbe d209 3a3e
000002e0: 2b4c e23d 5dc1 76be 2f70 04bd 74cb 6a3f
000002f0: f781 66be 4417 c53a 13b1 863d dee4 003f
00000300: 2cbc f7bc eb9b db3d 095a ff3d 8ee4 8bbd
00000310: 552c 52be 6f5c ab3c 5d05 f83c 89e3 d9bc
00000320: 9e70 edba 5af2 92bd 54d4 613d 5f44 c2bd
00000330: c85e 473d 73a9 7c3d cf75 aa3d ed52 133d
00000340: d5f4 14bb cda4 88bd acbd 713d b9a6 2d3d
00000350: e2d5 47bd 4aac c33c aa3a 1d3e 4815 e93d
00000360: 98d1 ebbd 6265 643b 5fc3 1b3d 8f53 a23e
00000370: b90e 8cbd 7b93 bd3d d4ba 03be 0416 4b3e
00000380: eee0 1c3e ec38 05be 6d05 10be 49a4 c0bd
00000390: c3e2 4b3d adc2 e53d c099 573d b2d0 e23c
000003a0: fb1f 55bd 3e36 0c3e 3a75 86bd 7c05 9f3d
000003b0: 3dad a3bd 8cef 8c3e 2857 29be 9c66 f5bc
000003c0: 7915 fb3c 14a7 a6bd a612 0d3c 528d febc
000003d0: 9629 f4bd b2dd a93d 14ae 8b3d 26c3 ccbc
000003e0: 09f9 49bc 4095 113d a126 443d 5c74 7ebd
000003f0: eaf4 39be ee45 98bd 6579 6e3d 3027 7b3d
0.01427361 -0.06322251 -0.12410928 0.04887276 -0.25720033 0.12018802 -0.07024458 -0.09453987
0.29926008 0.07052334 0.035579618 -0.019702509 -0.04730594 -0.058714285 0.12304274 -0.12846643
0.22285089 0.03489441 -0.005328694 -0.1298478 0.16483511 -0.2162045 0.08904163 0.017258413
-0.17811567 0.18890238 0.16434005 0.32649323 0.13366151 0.21818782 -0.19452037 0.1181992
0.29772553 -0.23387143 -0.003056849 -0.313046 0.07945226 0.06690714 0.19936407 0.2031677
-0.05340089 0.21375006 -0.044226434 0.1494482 -0.2600689 0.31541562 -0.11359133 -0.17572987
-0.124903426 -0.20939992 0.044365603 0.08502099 -0.11159405 -0.09512723 -0.06340131 0.051017515
0.02513233 -0.011510801 0.14489469 -0.047887627 -0.060878735 -0.09471973 0.061217826 0.114694774
-0.41421032 0.3793575 -0.05913747 -0.4476116 -0.46388468 0.23723646 0.2784209 0.34596717
-0.33175677 -0.40133095 -0.15292048 0.30193055 0.10353409 0.29114246 0.0077367723 0.9808694
0.2955552 0.18466756 0.31421614 -0.5201516 0.014285323 0.025170835 -0.026011791 -0.47396827
-0.27885598 -0.51732534 0.1037618 0.003337511 -0.5395047 -0.48598427 0.2646378 -0.33731267
-0.2511636 0.3183362 -0.5126661 0.37863094 0.10364051 -0.19447644 -0.25627244 0.47250184
0.7249506 -0.06382492 -0.7603013 -0.3646164 0.0888525 -0.35382727 0.42519748 0.076945566
-0.22365756 0.17832632 -0.43035105 -0.16503336 0.245733 0.48760456 -0.53082395 0.051170696
0.047940522 -0.2607782 -0.0007147223 1.0397052 -0.3693275 0.32680148 0.29019502 0.31524706
-0.3837096 0.41681698 0.12718926 -0.5192345 -0.5887628 0.062053077 0.27463365 0.0032195193
-0.23911446 -0.12842695 -0.029839903 0.38959327 0.22048388 0.34927273 -0.015924757 0.77308905
0.26677245 0.0043227184 0.36437294 -0.2407675 0.044824652 -0.11849474 0.22351928 -0.5776359
-0.24190544 -0.43798378 0.090481274 0.024485651 -0.5624112 -0.50860274 0.17128159 -0.12014791
-0.04985562 0.45070794 -0.8140352 0.24843393 0.16362207 -0.21808091 -0.39190736 0.6641124
0.668863 -0.08581486 -0.7762218 -0.19867194 -0.2598731 -0.20712748 0.2246852 -0.010546843
-0.44450977 0.11106812 -0.11643258 -0.5127012 0.054917227 0.67872095 -0.18692473 0.18167809
0.11049684 -0.240972 -0.03233355 0.91716695 -0.22510515 0.0015036841 0.06576743 0.50349224
-0.030241095 0.10723098 0.12468345 -0.06830703 -0.20524724 0.0209181 0.030275995 -0.026597755
-0.0018115228 -0.07175131 0.055134133 -0.09485697 0.048674375 0.061685037 0.083232515 0.035967756
-0.002272894 -0.06672058 0.059018776 0.042395327 -0.04878796 0.023885865 0.1535441 0.11381012
-0.11514586 0.0034850468 0.038028117 0.31704375 -0.068387456 0.09256645 -0.12864238 0.19832617
0.15320179 -0.13009995 -0.1406457 -0.09406335 0.049776804 0.11218772 0.05263686 0.027687404
-0.052032452 0.13692567 -0.06565328 0.07764718 -0.07992027 0.2752651 -0.16537154 -0.029956155
0.030649887 -0.081373364 0.008610403 -0.031073246 -0.119219944 0.08294238 0.06820312 -0.024995398
-0.012327441 0.035542727 0.047888402 -0.062122688 -0.18159834 -0.07435213 0.05822124 0.06131667

value_layer.2.bias f4 [64]
00000000: 1fae 283e 88dd 13bd d80e 673d 8e37 c93d
00000010: 510f 52be 5d70 fa3d c2e6 cc3e cdc3 3c3e
00000020: 5a05 213e 63cf fcbd 8cec 7bbd 5806 87be
00000030: 1a30 04be f15f 67be 7d82 8ebd f732 f13d
00000040: 7541 7cbe 71ad d5be e67d 03bf a6e5 f5bc
00000050: ee6c 443d 8523 083e 5d9c f93d 4053 74b9
00000060: fb41 883e ac35 80bd 5a46 7fbe 18e0 01be
00000070: bfa7 21be b3f8 10be be28 e63d 68b0 04bb
00000080: 2156 dc3d d5f3 903c 3f88 96be 4ab3 05be
00000090: f32e 8f3e 0f23 c53d 3c04 99be 8dd2 b03d
000000a0: efb2 81be 270f cabc 6bf6 963e 9130 84be
000000b0: 00e3 b5be eab9 88be b47b d73d d2a6 8bbd
000000c0: 8761 23be 43a5 3c3d fcd4 943e edd1 643e
000000d0: bf8e 4b3d 7b12 343e 3b47 ed3d ced1 6fbe
000000e0: 9a75 0abe ec08 2ebe 7092 f43e 7ab7 dbbd
000000f0: 047e a83d b3fe a83e 9a4d 49bd 6d3f e73d
0.16472672 -0.03609994 0.05641064 0.09825049 -0.20513655 0.12228463 0.40019804 0.18434067
0.15724698 -0.123442434 -0.061504886 -0.26372027 -0.12908974 -0.22595192 -0.069584824 0.11777299
-0.24634345 -0.41733888 -0.5136398 -0.030016731 0.047955446 0.132948 0.12188027 -0.00023300666
0.2661284 -0.06260237 -0.2492918 -0.12683141 -0.15786646 -0.14157371 0.1123824 -0.0020246748
0.10758615 0.017694393 -0.29400823 -0.13056675 0.27965507 0.096258275 -0.29886043 0.086339094
-0.25331828 -0.024665428 0.29484877 -0.25818303 -0.3552475 -0.2670434 0.105216414 -0.06818928
-0.15955172 0.046056043 0.29068744 0.22345705 0.04969668 0.17585175 0.11585852 -0.23419878
-0.13521424 -0.16995591 0.47767973 -0.10728355 0.082271606 0.3300682 -0.049146272 0.112913944

value_layer.4.weight f4 [1, 64]
00000000: 4f79 b73d 6dd9 873e aee5 453e 5332 633d
00000010: 6c58 dabb f1ed 633d 8ded 15be 12ba d5bd
00000020: 1366 97bd 5b86 cfbd c30e 70bb 82e6 5dbe
00000030: 3a7f 543b 8eeb 313e 50de 523d d7b8 52bc
00000040: 00dc 5c3d 54e5 463e fab6 273e 17db 663d
00000050: 3ff8 bf3c 8a61 1f3d 4083 023d be5b 053e
00000060: 41be 25ba 188a 37bc 768b c73d 024c 6c3e
00000070: da7c fa3a b68f 0e3c 289c d93c e4dc 603e
00000080: ec2d f7bb 55a1 c2bc b4ae 953d 2eb2 603c
00000090: 4e5a e6bc 32cb 87bb 9c38 be3d 39ef d3bd
000000a0: 108c 8e3e ac8c 76bc 6bbc 56bd c1a5 bcbd
000000b0: f89d 2d3e 0711 843d b9f6 1b3e 11a0 09bd
000000c0: ceb2 b73b 708d 483d 2ed4 ebbd 2ba4 1dbe
000000d0: 4a7e b23d 36cf 363e 44aa 893c ffd9 f73c
000000e0: c025 df3c 858e 3bbd 59ee eebd 6222 d63c
000000f0: 2ce3 31be 6510 dabd 6470 053d 3e14 113d
0.08958685 0.2653307 0.19325897 0.055467915 -0.0066633727 0.05564684 -0.146414 -0.10435881
-0.07392516 -0.10133048 -0.0036629892 -0.21669963 0.0032424466 0.17375013 0.051481545 -0.012861452
0.053920746 0.19423419 0.16378394 0.056361284 0.023433803 0.03891138 0.03186345 0.13023278
-0.00063226005 -0.011202358 0.09743397 0.2307587 0.0019110695 0.008701256 0.026563719 0.21959263
-0.007543316 -0.02375857 0.073087126 0.013714356 -0.028119233 -0.004144096 0.09288141 -0.103483625
0.27841234 -0.015048187 -0.052425783 -0.092113025 0.16954792 0.0644856 0.15230836 -0.033599917
0.005606032 0.04896301 -0.115150794 -0.15394656 0.08715494 0.17852482 0.016804822 0.030255316
0.02723968 -0.045790214 -0.11666555 0.026139442 -0.17371815 -0.10647658 0.032577887 0.035419695
