Homework8/8_gym-PPO/results/PPO_LunarLander-v3_500-eps0.5-seed7.pth (torch, 44274 bytes, 11 tensors)

action_layer.0.weight f4 [64, 8]
00000000: 8e49 fbbc 9537 50be ab45 db3d 5dd5 ea3d
00000010: 135b b8be a67a 61be 3ef8 89bd 84f0 d33d
00000020: 5382 6cbd ed30 703e e51e b13e 77f1 2a3e
00000030: 4e33 b5be 7b04 15bf ad0f 1a3d 5b86 c0bd
00000040: 6d64 d93d 907b 96be c582 bf3e 2d4c 24bf
00000050: 6a0d 6a3d e9de 3bbd 2bc9 853e e37c a53d
00000060: 8b65 b53c 5673 413d bf2d a43e c75f 3bbd
00000070: 229e 29bc 3683 e7be 2685 963e 0c8e a53d
00000080: bb5e e03d 06ca d03d 8509 373e 511f 353f
00000090: 1c1f efbd f99b 14bf 949e b8bd dea4 02be
000000a0: bf9c c43d dfb4 e7bd f225 aabe b48e f33e
000000b0: 3382 103f 4fe3 3b3e 76bc 19be f4b0 373b
000000c0: b4a8 db3d 0568 7fbe 7848 c8be 090c e73e
000000d0: 5488 153f f2dd f43d 1b6d c0be 08c6 093d
000000e0: af8d 12be 5466 1e3d 6f66 183e b274 0d3f
000000f0: 91c6 93bb d4ee 89be 67e4 9c3d 7ce4 3bbe
00000100: ae37 2fbe 72a5 ce3c 3058 94be 8c95 0dbe
00000110: 6827 b43e cba1 083f 7000 9cbd 60b4 01be
00000120: 47e9 323e b75a 36be 7a25 4abe e39b 073f
00000130: 4503 a63e 9417 133e b426 613a 303a 4abc
00000140: e538 593e 4ae5 6cbe ae31 a9bd d933 87be
00000150: 7229 a1be 5eac 5abe 36be af3e 74ac 4a3e
00000160: e06a 3a37 794a 803e 79fb 9bbe e6b5 84be
00000170: 202f ae3e d8cf 823e 6048 bfbe d1cf 7abe
00000180: 5a87 0ebe 5272 6d3e 1684 8c3e b5a4 ea3e
00000190: a71d e4be 5bfa 3ebf 04a6 46be ea19 333d
000001a0: 7481 28be 113e 5dbe 9fc9 503e 37d6 e2be
000001b0: de87 a7be b381 9c3e 6245 363d 4a78 863e
000001c0: 9e0a e33d a887 aebb 1a34 243e 848a d7be
000001d0: c99e ddbe 4e36 b0be 181f 91bd 1cb0 bd3d
000001e0: a0c1 2d3d 48f0 fbbd 986f 873e fa0b b2be
000001f0: 1679 07be 8af5 4cbe ca54 39be 92c0 50be
00000200: 9010 413e 68ce 823d 1644 b8bd 5dc9 d6be
00000210: 02d7 e7be 540d 7e3e 6ece a23e c213 363d
00000220: af1a 65be 5c1d e13d d02c a43e 1981 d5be
00000230: 14c4 6dbe 5532 1b3e c341 753d e525 43be
00000240: 3b75 b5be 4eed 54be 5a8a d7bd 9186 86bd
00000250: 33ac 003f 27f3 bd3e a863 10be 2560 aebe
00000260: 7520 86be 9333 d93d e007 d33e 7c74 16be
00000270: fb24 0bbf cad6 64bd 9d91 b93e 6e6d 94be
00000280: fa0d 71bd e63a 6a3c cdee f3bd ea5f 28bf
00000290: 0952 a43d e522 083c 553f 55bd 3d5b a1be
000002a0: a37d 5d3e e8e2 c23d df0e 113d 8c7b a9be
000002b0: 5d85 f33e e71f c53e 7ddc 91be 2e83 06bd
000002c0: 4ff0 80be ad80 95bd 92bc cb3d b34c b7be
000002d0: ddb9 d23e 6b78 fc3e 673b bbbd 8711 8a3d
000002e0: 3143 8fbd 5544 e2bd de88 9abe bb6e cf3e
000002f0: dfdc d73e 1c26 8d3e e8d5 a23d 6a44 ce3e
00000300: 7d88 833e aa1d 85be ec02 913d bd92 a5be
00000310: f807 2a3c 6790 6b39 d6bf 063e 8202 c8be
00000320: a189 503e 903d 9b3e 404a 8f3d 1111 adbe
00000330: 39b8 08bf 3c80 acbe 80b2 073e d6bc 96bb
00000340: cecf a1bd cc00 163e 0b97 42bd 488e bcbd
00000350: cfe7 7cbe 519f 033f 217a 123e a853 80bd
00000360: b6c9 8a3e b562 c03d 885c 103e cacb 71be
00000370: 40c8 35be 5f2d 0dbe 7d3a d2bd dfde f6bc
00000380: bd2c 353c f27d 17be eb62 7d3d 3ac5 93be
00000390: 64ac fdbe 6542 c2be ac66 46be 7250 d83d
000003a0: 973b 533e 6da4 ab3e 14fc bd3e 3017 e33e
000003b0: 0295 aa3d e9d5 f8be 0182 823e e434 45bd
000003c0: 5fd3 ecbd 2f16 b9bd 489c 9dbe 8669 93be
000003d0: ed4b c23d df40 1e3f ce28 5bbe aa01 87be
000003e0: 4e63 45be 65f6 6f3e c2ed 903d cf15 a9be
000003f0: 2032 31be edac 0b3f c55f 98be 9831 193e
-0.030674722 -0.20333703 0.107066475 0.11466477 -0.36006984 -0.22019443 -0.067368016 0.10348609
-0.057741474 0.23456164 0.34593883 0.16693674 -0.35390705 -0.5820996 0.037612606 -0.09400626
0.10614858 -0.29391146 0.37404457 -0.64178735 0.0571417 -0.04586688 0.2613004 0.08080461
0.022143146 0.047229134 0.32066151 -0.045745637 -0.010352643 -0.45217294 0.2939846 0.08083734
0.109555684 0.10194783 0.17874725 0.7075091 -0.116758555 -0.58050495 -0.090146214 -0.12758204
0.096002094 -0.11313795 -0.33232075 0.4756981 0.5644867 0.1834843 -0.15013298 0.0028029056
0.10725537 -0.24942024 -0.3911779 0.4512637 0.58411145 0.11956395 -0.3758324 0.033636123
-0.1431186 0.038671806 0.14882825 0.5525619 -0.004509755 -0.26940024 0.07660752 -0.18348879
-0.17111084 0.025225375 -0.28973532 -0.13826579 0.35186315 0.53371876 -0.07617271 -0.12666464
0.174718 -0.17808042 -0.19740859 0.5297224 0.3242437 0.14364463 0.0008588836 -0.012342975
0.2121311 -0.23134342 -0.08261429 -0.26406744 -0.31476933 -0.21354815 0.34324807 0.19792348
1.1111348e-05 0.25056818 -0.30465296 -0.25920027 0.3402033 0.25549197 -0.37359905 -0.24493338
-0.1391882 0.23188141 0.27444524 0.45828786 -0.44553873 -0.7460076 -0.19399267 0.043725885
-0.16455632 -0.21605708 0.20389412 -0.44304058 -0.32720846 0.30567703 0.044499762 0.26263648
0.110860094 -0.00532623 0.160355 -0.42097867 -0.43285206 -0.3441643 -0.07086009 0.09262106
0.042420983 -0.123016894 0.26452327 -0.34774762 -0.13229784 -0.2001554 -0.1809875 -0.2038596
0.18853974 0.06387025 -0.08997361 -0.41950503 -0.45281225 0.24809772 0.31798118 0.044452436
-0.2237346 0.10991928 0.3206544 -0.41700056 -0.23219329 0.15155919 0.05987717 -0.19057424
-0.35441002 -0.2079365 -0.10524435 -0.06568635 0.50262755 0.37099573 -0.14100516 -0.34057727
-0.26196638 0.1060554 0.41216946 -0.14692873 -0.543533 -0.0558689 0.36243907 -0.28989738
-0.05885122 0.014296269 -0.11910782 -0.65771353 0.080234595 0.008309101 -0.05206235 -0.31514922
0.21629958 0.09515935 0.035414573 -0.3310207 0.47562686 0.38500902 -0.28488532 -0.032839946
-0.2518334 -0.072999336 0.09948076 -0.35800704 0.41157427 0.49310622 -0.091421895 0.06741624
-0.069952376 -0.110481896 -0.30182546 0.40514168 0.421607 0.27568138 0.07950956 0.4028657
0.2569007 -0.25999194 0.070806354 -0.32338515 0.010377876 0.0002246514 0.13159117 -0.39064413
0.20365001 0.30320406 0.06996584 -0.33802083 -0.534061 -0.33691585 0.13251686 -0.0046001477
-0.07900964 0.14648741 -0.047507327 -0.092068255 -0.24697803 0.5141497 0.14304401 -0.06265956
0.27107018 0.09393827 0.14097798 -0.23612896 -0.1775217 -0.13786839 -0.10265062 -0.03013557
0.01105803 -0.14794138 0.061861914 -0.2886141 -0.49545586 -0.3794128 -0.19375104 0.10562219
0.206282 0.33523884 0.37106383 0.44353628 0.08329202 -0.486007 0.2548981 -0.048146144
-0.11563753 -0.09037434 -0.30783296 -0.28791445 0.09487138 0.61817735 -0.21402285 -0.26368457
-0.19276163 0.23433836 0.07076599 -0.3302445 -0.17304277 0.5456074 -0.29760566 0.14960325

action_layer.0.bias f4 [64]
00000000: 59fe 583e d329 80be 8d5b b33e cddb 583e
00000010: 18cd 7cbe 7437 88be df80 edbd 1a1b 42be
00000020: 7ac7 49be be3d 6e3e 3c7d 263e 62bb 9ebd
00000030: f09c cbbd 4ee4 573e 0c73 513d 06f9 1e3c
00000040: 8804 a23e 8241 833e e7b1 7b3d 7b89 6b3e
00000050: d08b 0ebd 5b6e 59be 6601 453e d311 ff3d
00000060: b299 443e 519b 9ebe c25e 493e afbc 103d
00000070: f011 c1bd b02f b2be 5600 22be 549b aa3e
00000080: 762a 233e 7428 85bd a00b 963e f05f 803e
00000090: 797a 6c3e 58be 03be e1cc ad3e 9775 18be
000000a0: 9d51 ddbd b13a 593e 920e babd bb70 623e
000000b0: c04f 49be e45e ca3d b39f 8bbe cef9 a7be
000000c0: 9921 e8bc bf67 a33e d836 5bbe 538a 2fbd
000000d0: 665f 3f3e df1f 843d 5d8b 77be 1db4 053d
000000e0: bb7a 49be 11ab 583c f355 eb3d 837c 03be
000000f0: bc61 13be dc52 483e 85f6 b1be f5cf 2b3e
0.21190776 -0.2503191 0.35030785 0.21177597 -0.24687612 -0.26604807 -0.11596846 -0.18955651
-0.19705 0.2326574 0.1625871 -0.07750584 -0.09942043 0.21083185 0.051135108 0.0097029265
0.31644082 0.25635916 0.061448958 0.23001663 -0.034801304 -0.21233504 0.19238815 0.124545716
0.19199255 -0.30977872 0.19665053 0.035336193 -0.094272494 -0.34802008 -0.1582044 0.3332163
0.15934166 -0.065018564 0.29305744 0.25073195 0.23093595 -0.12865579 0.33945373 -0.14888607
-0.10806582 0.21213795 -0.0908481 0.22113316 -0.19659328 0.0988138 -0.27270278 -0.32807773
-0.028336333 0.3191509 -0.2140764 -0.042856526 0.18688735 0.064513914 -0.24174257 0.032642473
-0.19675724 0.013224379 0.11491003 -0.12840466 -0.14392751 0.19562858 -0.34758392 0.16778548

action_layer.2.weight f4 [64, 64]
00000000: 1a58 743d 7f58 863e 1f9b 9dbe 8e17 a63d
00000010: a2aa eb3d 5cdf ff3d 0236 5abc 4618 1d3e
00000020: 0905 0cbe feeb bf3d b9e6 1dbe a975 a9bd
00000030: ac16 903e e44f 33be 442c 02be a6a9 02be
00000040: e5c1 25be ea85 a0bd 65f3 24be cbea db3c
00000050: 91c2 8bbd aaac 16be 29b1 4ebe 5956 463d
00000060: 1a86 f2bd 8f18 523d 94cb c9bd 8a05 713d
00000070: e461 72bb 9cd4 713e 847c 72bd d3f6 17be
00000080: 77f2 17be a464 9dbd ab45 78bc 6655 08bd
00000090: f804 56b9 b367 2e3e 3524 66be 290b e03d
000000a0: 8e28 bb3c aca1 243b 527b dfbe 153d c0bd
000000b0: fec9 84be f4c7 ba3d 376d a23d fb66 1b3e
000000c0: 6e70 6d3d 1be5 033d 8d8f 98be fb46 46be
000000d0: 291a ae3c 66fd 32bd 0bba 823c 5c51 d0bd
000000e0: a9f4 fabc f6aa 273e e1eb f7bd 3b90 093e
000000f0: 52bc 99bd 84ee 1b3e 1523 61bc 0d1b 9a3d
00000100: 8262 1e3e 65a6 2f3e c1a9 723d 3edf 763d
00000110: a395 e03c 84c4 67be 3e99 ecbd 3f39 013d
00000120: 46e5 6cbe e829 85be 0517 aabd d14e e5bd
00000130: bf81 993d 1db1 6cbb 248c 643e d6f3 063e
00000140: fe56 593d f181 73bb 9e3e af3c bc97 41bb
00000150: e03a 893d 350d 0dbe 331a 4ebd dae7 3bbe
00000160: d0cc fe3d a5d2 f53d cf7d a0bd 4d38 bf3d
00000170: 3a5b 66bc c1e2 dcbd 96be a7bb 82cf cb3d
00000180: d663 6bbc aec7 6e3e 12d7 a53d 6d09 853d
00000190: 2b64 5e3e 291b 2fbe 8794 413e de2e 793d
000001a0: c4ed 4c3e c880 693e 25f0 70bd 3d6a 9c3d
000001b0: c184 c3bd 476e d2bd 8983 00bd 4958 703c
000001c0: 148f 5ebe d572 813d c958 bb3d b1fd 7b3e
000001d0: fea1 343e 68dc 533d 1b77 1c3d 2bb8 f9bc
000001e0: 29a3 7ebd fab3 2ebe a3b6 7bbd 3859 1fbe
000001f0: d973 293e 7a12 f2bd 97be dabd 7e05 353d
00000200: bb7e cdbd 765b b9bc a6ac 2e3b 997a 3fbd
00000210: ad78 9cbd 8973 2cbd 9985 ee3d b083 453d
00000220: 121f 3bbd b580 df3d d69b ce3d be2c bdbd
00000230: 2c6d 803d bade b7bd 6fca 26be 42d9 9b3d
00000240: fd48 d9bd 91f1 783d 5ee0 9b3d 7c42 0dbd
00000250: be1e 943d c9fc 9c3d 1cc3 873d 9a6f ee3d
00000260: caff dbbd 79a0 9abd b762 753b b755 c03d
00000270: 8f36 75bd d7a9 b43d 9cf2 5f3c d7a5 0fbc
00000280: dfd0 edbd 0a30 043d 07f0 9abd cab8 573c
00000290: 92f9 ffbd fefd bd3d f07c 0e3d 5500 883b
000002a0: 1b92 dabd 4ad0 72bc f3dc 11be 5d0a 513d
000002b0: 5205 9a3d 797f 313e a601 303d e3b6 04be
000002c0: b6ca 79bc f4d5 6ebe 90ff f53b 6124 203d
000002d0: 1f00 a03c 1678 4bbd 5c83 62bd 6ca3 43bd
000002e0: ce74 263e 52e0 0bbd 8adc f3bd 5804 003e
000002f0: 1858 83bd 82ff f1bc 6833 4dbd 30fa 1bbe
00000300: 2d82 e33d 5c86 8c3d 6aec 123c 38ef d23d
00000310: 77f3 a4bd 9e24 353d f71f f4bd 2ecc da3d
00000320: b374 0abe ae47 15be a66f a5bc e5d3 8dbd
00000330: 1ca5 603d 2f32 343e 1707 673d db4a 0c3e
00000340: 5aef 973c 22da 3dbd 5eef c8bd 427a b23d
00000350: 02e8 42bd d5bd 36be fbc2 85bd 75a1 12be
00000360: 5faf 713d 19e1 113e 555a a93d e0d4 c0bc
00000370: 1cbb 303e 53de 253d dc49 05be 51da 983d
00000380: 726a 513c c671 5d3e c680 d6bd b7fd a13b
00000390: 6b55 143d a55d 01be f3d9 583c 56e5 07bd
000003a0: e0a3 a73c 3784 5e3e ea25 bebc 7c71 a33d
000003b0: c358 11bd 06b8 84bd 8576 0c3b cb9e 23bd
000003c0: 9131 16be 4db7 573e 46c2 81bd d42d d73d
000003d0: 3934 303e cf34 af3d 4f80 e0bc 440e 68bc
000003e0: 8517 24be ef7a a4bd edb0 e63c 5010 5fbe
000003f0: 9f60 6e3e 358f e2bd 847c 48bd 6e6c 5f3e
0.059654333 0.26239392 -0.3078241 0.081099615 0.11507155 0.12493774 -0.0133185405 0.15341291
-0.13673796 0.09371184 -0.15420045 -0.08274395 0.28142297 -0.17510945 -0.12712198 -0.12760028
-0.16187246 -0.07838042 -0.16108473 0.026845356 -0.0682422 -0.14714304 -0.20184769 0.04842219
-0.11841984 0.051292952 -0.098532826 0.058843173 -0.0036984617 0.2361626 -0.05920078 -0.1484025
-0.14838587 -0.07685211 -0.015153329 -0.033284567 -0.00020410481 0.17031746 -0.2247475 0.10939629
0.022846486 0.0025120778 -0.43648773 -0.093866505 -0.25935358 0.09120169 0.07930987 0.15176003
0.05796855 0.032200914 -0.2979702 -0.19363014 0.021252709 -0.04369869 0.015957853 -0.10171768
-0.030634241 0.1637381 -0.12105537 0.13433926 -0.075066224 0.15227705 -0.013741274 0.07524691
0.15467265 0.17153318 0.05924392 0.060271494 0.027415102 -0.22633559 -0.11552666 0.031548735
-0.23134336 -0.26008534 -0.08305172 -0.11196674 0.0749545 -0.003611631 0.22319084 0.13178954
0.053061478 -0.0037156309 0.021392163 -0.0029539904 0.06700683 -0.1377457 -0.050317954 -0.18350163
0.12441409 0.12003068 -0.07836496 0.093369104 -0.014059836 -0.107854374 -0.005119155 0.09951688
-0.014367064 0.2331836 0.08097662 0.064959385 0.21717899 -0.17100205 0.18904315 0.06083571
0.20012575 0.22803032 -0.05882277 0.07637451 -0.09546805 -0.1027494 -0.03137544 0.014669486
-0.21734267 0.063207306 0.09147794 0.24608494 0.1763992 0.051723868 0.038199525 -0.030483326
-0.06216732 -0.17060843 -0.061453473 -0.15561378 0.16548099 -0.118199304 -0.106808834 0.04419469
-0.100339375 -0.02262662 0.00266532 -0.046747778 -0.076402046 -0.04210237 0.116465755 0.04822129
-0.045683928 0.10913221 0.10088317 -0.092370495 0.06270823 -0.089780286 -0.1628816 0.07609798
-0.106096245 0.06077725 0.07611154 -0.034487233 0.07232426 0.076654024 0.06629011 0.1164238
-0.10742147 -0.07550139 0.0037442872 0.09391349 -0.059866484 0.08821457 0.013668682 -0.008767567
-0.116121046 0.032272376 -0.07565313 0.013166616 -0.12498774 0.09276961 0.03478712 0.00415043
-0.10672399 -0.014820168 -0.14244442 0.051035274 0.07520546 0.17333783 0.042970322 -0.12960391
-0.015246084 -0.23323804 0.007507272 0.039097194 0.019531308 -0.04967507 -0.055301055 -0.047763273
0.16255495 -0.034149475 -0.11907299 0.12501657 -0.06413287 -0.029540781 -0.050097853 -0.15232158
0.111088134 0.068615645 0.008967498 0.102995336 -0.0805425 0.044224374 -0.11920159 0.106834754
-0.1352108 -0.14578125 -0.02019484 -0.06925181 0.05484496 0.17597269 0.056403246 0.1370043
0.018546749 -0.046350606 -0.09811281 0.08714725 -0.04758454 -0.17845853 -0.0653133 -0.14319403
0.059005138 0.14246024 0.082691826 -0.023539007 0.17258877 0.040495228 -0.13016456 0.074635155
0.012781726 0.21625432 -0.1047378 0.0049435752 0.036214273 -0.12633379 0.013235557 -0.033177696
0.020463884 0.21730123 -0.023211438 0.0798063 -0.03548504 -0.06480412 0.0021432948 -0.03994636
-0.14667346 0.21066017 -0.06335883 0.10506788 0.17207421 0.08554994 -0.027404932 -0.014163557
-0.16024597 -0.0803126 0.028160537 -0.21783566 0.23279046 -0.11062471 -0.048946872 0.21818706

action_layer.2.bias f4 [64]
00000000: e78f fdbd f593 193e 0420 a33d 5b30 77bd
00000010: cf4b 96bd 988f 3cbe b20b 49bd dd5c 65bd
00000020: 484b 813d 143f 26bd d7e9 dabd 60d5 a6ba
00000030: cdcb c3bc b25f 973d 650c c0bd b81d 81bc
00000040: 66d4 b23d 62ea 9b3c b507 bbbd 0453 12bb
00000050: 2203 7abd 8a67 183e acb4 c9bd 56fa 0c3d
00000060: c7c6 1bbc 5453 37be 454b 69bd a2c6 be3a
00000070: 2871 313d 8dd3 aa3d d64e 60bd 488c c23d
00000080: 64ce 36bc ccd0 673b 80cd 713d c7e6 a7bd
00000090: 1873 cdbd 9734 273d 688f ed3d d42e 09bd
000000a0: b32d 63bd fdb3 0d3c 190b 643c daa8 3cbc
000000b0: 0a76 cb3d 6c49 2bbb 0d59 87bd 87c0 6e3d
000000c0: 6ba1 57bd 9cd0 12bd 9b52 89bd 5880 f23c
000000d0: 3b07 703d f08a 06be ea0e e1bc 5856 ccbc
000000e0: 273d 8fbd 9ee8 64bd ff40 8b3c fe86 28be
000000f0: 07d1 0bbe d60b 48be eb2e 7c3d 0bae b73d
-0.12380963 0.14997847 0.07965091 -0.06034885 -0.07338678 -0.18414152 -0.04908342 -0.055996764
0.06313187 -0.0405875 -0.10689133 -0.0012728386 -0.02390089 0.07391299 -0.09377364 -0.015761241
0.08731918 0.01903266 -0.091323294 -0.0022327313 -0.061038144 0.14883247 -0.098489136 0.034418426
-0.009507841 -0.17902881 -0.05695655 0.0014555047 0.043320805 0.08341131 -0.054762684 0.09499413
-0.011157606 0.0035372255 0.05903387 -0.08198314 -0.10031718 0.040821638 0.11599618 -0.033491924
-0.055463504 0.00864887 0.0139186615 -0.011514867 0.099346235 -0.0026136292 -0.06608782 0.058289077
-0.052644175 -0.035843477 -0.06705209 0.029602215 0.058600646 -0.13138938 -0.027472932 -0.024943516
-0.06994086 -0.055885904 0.016998766 -0.16457745 -0.13653956 -0.19535765 0.061568182 0.08968743

action_layer.4.weight f4 [4, 64]
00000000: cf99 9c3e 3f85 2dbe 97ed 98bd 21cb f13d
00000010: 4081 913e 5f28 9f3e 10df 5d3c 9483 10be
00000020: 4312 3dbe 0762 283e c608 913e c675 8abd
00000030: cf2b 24be e708 4fbe 01d7 6a3e 4aec 553e
00000040: 78b6 8dbe c9e5 6e3e de8d 1cbc ef6c 373e
00000050: 2ef2 fdbd 4be5 9abe 6913 133e 39e6 203e
00000060: 2bc2 7b3c 901a 0d3e 9727 c7bd c86d 823d
00000070: 46e0 8dbd 08d1 80be f8af 323e 41dd 64bc
00000080: e720 463d 9fe6 1d3d ea13 603e df1f 54be
00000090: 4569 143e d731 a4bc 2cbc 95be 6e93 313e
000000a0: 7fb9 b53c b311 58bc 9dc6 ac3c 7a61 623e
000000b0: a03d 86be 1b06 483e f245 553e 1cdb 1abe
000000c0: 1667 0fbe cc6b 7c3d 2d0d e1bd f0d9 733d
000000d0: adf7 b6bc c96e 6b3e 4b3b 84be ae4f 9ebd
000000e0: d7c7 2a3e 574d 073c c268 57bd 9928 db3d
000000f0: 2533 1c3e c000 393e 29be 6fbc 9938 95be
00000100: ee98 4d3e 5908 f83b 241f a5bc be75 e03d
00000110: 58a7 40be b3e8 d3bd 4026 86be 6322 a4be
00000120: 07b2 9bbe 36c2 05be df6d 8b3d 105d 80bd
00000130: aef7 083e 1125 32be ba65 023e 911e 083d
00000140: 7e08 683d c503 e8bd 466e 50be 2f0d 143e
00000150: 77f0 8fbd 9a33 a5bd ebb1 66bd 113e 173e
00000160: 783e c83d eb96 11be 44f6 8bbe e89e 513e
00000170: c30b 9cbe ffc6 033d 72f0 2abe fded 5d3d
00000180: 95f0 c73e 890c 813d 5865 88bd e8d0 2b3e
00000190: 90b3 d93d dbb1 55be b023 b23c 6cd8 323e
000001a0: 2c6f eebc da16 183e 37f6 183e 2afb 083e
000001b0: b2fb 39be 5dbb a5bd a4fa 433d 3f66 39be
000001c0: ad2b 2d3e ce65 90be 4482 043e 420e 42bd
000001d0: 17e6 e03d e774 a73d 3910 9cbe 3a00 38be
000001e0: 2787 36be 0d3f d4bd e058 efbd f3a1 1ebc
000001f0: abd2 0b3d 1344 06bd aa76 593e 48f8 43bc
00000200: e381 7abe aed5 c53d e518 3bbd 9097 f43d
00000210: 141e 47be be30 60be ae96 773e b24b e13d
00000220: 55e2 b03e b469 24be 84cc 52be d7ee 1a3d
00000230: 260d b0bd 70cb aa3d 15e0 8cbd d292 40be
00000240: 421e 0f3e 8f99 3dbc 6d8d 87bd 0ffa 20be
00000250: e93f 2a3e f8c8 293e 9ce4 efbd e8ed 243e
00000260: 8b1f 233e 1355 58be 5130 7d3e 0b94 5d3e
00000270: 51cf 8d3e 860d cdbd 7e58 52be bb7a 883e
00000280: 4f5b 4abe 03fe 0c3e a8a3 41be a15c 6b3e
00000290: fb47 53be 5156 0b3e 1ca1 733e 422c d7bd
000002a0: 3c82 613e 0688 3c3e f918 7dbe 7c90 2ebe
000002b0: eb5d 793e 4f82 ac3d 36f6 2dbe 636e 893e
000002c0: 0623 86bd 6e63 b4bb 3a28 8a3e 9419 363e
000002d0: de9a 43be cb89 62be 0f8b 4a3e b072 ccbd
000002e0: a664 0ebe ef11 a1bd f8d0 d8bd 79ff 9dbd
000002f0: 724b 88be f305 2bbe b9bc 62be 48d0 3a3e
00000300: e46c 3abd 17f9 68be eff5 873d c75f 4dbe
00000310: 5c5d 803e 34a2 cb3c f419 043c 87cf 223e
00000320: a40d ce3c b350 763e 8e45 87bc 6d78 5abe
00000330: 8969 ba3d 252c f03d 7efa 1abe 0884 903e
00000340: db95 d9bd 7f11 0a3d 2ec1 4f3e 1196 f8bd
00000350: 5025 283e 8a29 1bbe dd79 383e 0106 38be
00000360: f37d 03be 5e03 2a3e 40a7 323b 01b1 99be
00000370: 19d5 d33c 184f 9c3d 254b 023e 9a20 8dbe
00000380: 447d 2dbe aa3a 03be 15da 833e 1f72 93be
00000390: fe1e b13d 993e e03d 2b5a 2dbe 81cd 06be
000003a0: a450 0cbe fc73 4abe ed88 423e a38d acbd
000003b0: a41d c73d 20df ddbd b334 c6bc b12a fbbd
000003c0: af97 8ebe 039b 8b3e 4c9a 83be 0e85 3cbe
000003d0: 5ae6 593e 4a26 af3c 8541 58bc 209f 2a3e
000003e0: 16c0 643e 28c6 853e 67b1 863e 87da 02be
000003f0: c6ba 76bc 3a88 373c 589c 08be 593e 78bd
0.30586097 -0.1694536 -0.07467192 0.11806322 0.28418922 0.31085488 0.013541952 -0.14112693
-0.18463998 0.16443644 0.28327006 -0.06760745 -0.16032337 -0.2021824 0.2293358 0.20890918
-0.27678275 0.23329844 -0.009555308 0.17912649 -0.12399708 -0.30253062 0.14362873 0.15712823
0.0153661175 0.13779664 -0.09724348 0.06368595 -0.069275424 -0.25159478 0.17449939 -0.013968767
0.048371222 0.038550016 0.21882597 -0.20715283 0.14493282 -0.020043297 -0.29245126 0.17341396
0.022183178 -0.013187814 0.0210908 0.22107497 -0.2621889 0.19533579 0.20827463 -0.15122646
-0.14004168 0.06162624 -0.10988841 0.059534013 -0.022334898 0.2299148 -0.25826487 -0.077300414
0.16677795 0.008258185 -0.05259014 0.10701103 0.15253885 0.18066692 -0.01463274 -0.29144743
0.2007787 0.0075693545 -0.02015645 0.109599575 -0.18813837 -0.10347118 -0.26201057 -0.32057485
-0.30409262 -0.13062367 0.068080656 -0.0626775 0.13375732 -0.17396952 0.12734118 0.033232275
0.056648724 -0.11328844 -0.20354566 0.14458154 -0.07028287 -0.08066483 -0.05632202 0.1476977
0.0977754 -0.14217727 -0.27336323 0.20470774 -0.30477723 0.0321722 -0.16693285 0.05418204
0.39050737 0.06301219 -0.06659955 0.1677891 0.10629952 -0.20868628 0.021745533 0.17465371
-0.029105745 0.14852467 0.14937674 0.13377061 -0.1816242 -0.08092377 0.04784645 -0.1810541
0.16911192 -0.2820267 0.12940317 -0.04737688 0.10981386 0.08176594 -0.30481127 -0.17968836
-0.17824994 -0.103635885 -0.116868734 -0.009682166 0.034136456 -0.032779764 0.21236673 -0.01196105
-0.2446361 0.09659897 -0.04567804 0.11942971 -0.19445068 -0.21893594 0.24178573 0.11000766
0.34547678 -0.16055948 -0.20585829 0.03782543 -0.08596258 0.08339584 -0.06878678 -0.18806008
0.13976386 -0.011572256 -0.06618772 -0.1572039 0.16625942 0.1658057 -0.11713526 0.16106379
0.15930001 -0.21126203 0.24725462 0.21638505 0.27697232 -0.10012345 -0.2054157 0.26656136
-0.19761394 0.13768773 -0.18910086 0.22984554 -0.20632927 0.13607146 0.23791927 -0.105064884
0.22022337 0.18411264 -0.24716558 -0.17047304 0.24352233 0.08423292 -0.16988453 0.2684203
-0.06549649 -0.005505017 0.26983815 0.17783195 -0.19102046 -0.22122876 0.19779609 -0.099828124
-0.13905582 -0.07864749 -0.105867326 -0.07714743 -0.2662006 -0.16701488 -0.22142304 0.18243515
-0.045514002 -0.2275127 0.06638705 -0.20056067 0.25071228 0.024857618 0.008062828 0.15899478
0.025152989 0.24054222 -0.016512658 -0.21335001 0.091021605 0.1172717 -0.15134618 0.28225732
-0.10624286 0.03370809 0.20288536 -0.12137998 0.16420484 -0.15152565 0.18015237 -0.1797104
-0.12841015 0.16602847 0.0027260333 -0.30017856 0.025858449 0.076322734 0.12723978 -0.27563936
-0.16942316 -0.12815347 0.2575232 -0.28798005 0.086484894 0.109494396 -0.16928928 -0.13164331
-0.13702637 -0.19770807 0.18997546 -0.084254526 0.097224504 -0.10833573 -0.02419505 -0.12264002
-0.278501 0.27266702 -0.25703657 -0.18410131 0.21279278 0.021380562 -0.013199215 0.16662264
0.223389 0.26127744 0.26307222 -0.12778674 -0.015059179 0.011201913 -0.1334089 -0.060606334

action_layer.4.bias f4 [4]
00000000: 9b06 45be 0c43 77bd b0e2 31bc ce61 25bc
-0.19240801 -0.060366675 -0.010857269 -0.010094119

value_layer.0.weight f4 [64, 8]
00000000: 38f4 44be e7f4 17be e31d 08be 92e0 aa3d
00000010: 750c 6a3e 8ab5 353e 745a c93d 460f aa3d
00000020: c30a a33e f385 f1bc f916 203e 2274 db3e
00000030: ec92 1c3e 7b54 b43d c1c6 c33d 9c7f a13d
00000040: 4c44 91be 6dbb f0bd ab46 d0bd e406 dbbd
00000050: 1fc2 96be f9d0 bdbd e8ca cbbc 51c3 2f3e
00000060: 81d0 1bbe 0338 b0bd 5368 00bf 1fa1 9c3e
00000070: 0f27 8dbe ef8a d23e 0449 b0be db42 b2be
00000080: 91aa 1e3e c3c8 52bb e824 cf3e 55a1 203e
00000090: 29ab f43e 0370 f4bc 4b60 64bd 782b 533e
000000a0: 5298 463e f7b8 4abe 9df9 febe f755 3abe
000000b0: b7f5 d8be 2c25 af3e 5a81 10bf 0348 d2bc
000000c0: b23e 7a3e 1cb2 5a3e a592 383e e7c5 a83e
000000d0: b894 163f 01fe c1be 9b0a b63e a22a 49be
000000e0: 0a3d 08be fb9e 10bd 139d c93e ca33 f93e
000000f0: 3fbd 1f3f 813e bb3d ed07 a03d c312 5e3e
00000100: d7ca 423e 47f4 113e 70e3 bf3d 92d5 52be
00000110: c959 103f ca35 4dbd 43ac d63e a1ba e4bc
00000120: 03f5 f7bd 68d1 b73d 34e5 0ebd 3204 bd3e
00000130: b2a7 873e d06d 9b3e 6f9f 0bbe c4f1 743e
00000140: cfff cfbd 73a7 bdbd ef02 d23e af1d 633d
00000150: 95df 033f 784a b2bd d3e0 113e f474 cb3d
00000160: 643c f7bd 9ba0 e1bd 1e40 5dbd 10c9 35be
00000170: ae4c 9dbe d7ed 863d 5954 a53e 029e 60bc
00000180: 34f6 a03e 6fca 923e 9054 40be 65a0 7f3d
00000190: 3062 36be 5768 a63d f3fa 873e a4c9 e13e
000001a0: 0464 b3bd 4d65 1abe 0977 48be 132c 843e
000001b0: 3810 bf3d b590 52be 2044 edbd 00a4 2d3e
000001c0: 2b62 38bd 657f 113e 9b46 aebe 4d45 973e
000001d0: c3c6 943d b8a5 a7bd 3660 3b3d 6771 b2be
000001e0: dd3f 90be 61f0 303e 1d49 34be def2 6ebe
000001f0: 8f0f b03c bc0d 373e f744 5cbe b52f aabe
00000200: d128 da3d a511 c43c 5583 90be 874f adbd
00000210: ccad 81be eac1 513e 14ab 42be e3bb e3be
00000220: a680 5fbd 1678 cfbd 2935 0cbf afa8 343c
00000230: bfc3 d9be 168a 793e 10ac aabe 548f a4be
00000240: 6be1 363c 6e74 013d 5396 60bd 417e 0e3e
00000250: c8e1 b7be 89df c63c e1cb 8cbe cdd8 e1be
00000260: 8771 953e 3097 263e b83e 1f3e 9582 1abe
00000270: c01a 98bd 34b4 b63c 0d58 9b3e a446 29be
00000280: 498f 813d 74a3 1fbe 5d43 553e 70fc adbd
00000290: 1476 adbd 9875 3cbe 9a37 02be 1d23 a33d
000002a0: 95c1 bb3d 4d50 fa3c 651d cbbe 523c b3be
000002b0: be79 fabb a63f c9bd 4a91 34be d38d c8be
000002c0: 2c82 a93d d6c0 afbd 8806 16be 10c4 42be
000002d0: 85df aebe 3d92 733e 89cd b3bd 7df0 f43e
000002e0: a494 afbe 086d e4bd d5b3 dcbe ec17 bbbe
000002f0: de0c 7abe 9a7e cd3e f888 8fbd 34c3 dabd
00000300: e0c3 37be e563 94be 088e 2d3e 474f 19bd
00000310: 8534 34be 37ae b43d 4161 463e 583f 90bd
00000320: e586 c4bc efc8 d2bd 9eef 8bbe 923a 8f3e
00000330: 34f8 f63d c3a5 8c3c ce53 dfbe 1c43 dabe
00000340: 5b25 30be 1883 1dbe a447 d83e c18b 6e3e
00000350: e407 413e 502f aa3d d513 803e 0b96 923e
00000360: 29a0 373e b98f 68bd cee1 0c3f c758 b23e
00000370: 9246 3a3f bd18 923d 13e2 2ebb 13c5 d5bd
00000380: 6227 ae3e fe2a ebbc f2b6 383e 6b7b a73d
00000390: 643f d2bd 156f 463e f7c5 223e 63f8 c63e
000003a0: 11ad 0d3e 11ba 5b3e 10b9 983e e04b 99be
000003b0: dab8 ed3e 86d1 de3d 97c2 5ebe a053 c1bd
000003c0: f3d9 a1be 4d19 223e b8f1 ffbd 4136 2dbe
000003d0: f3cb d4be 4844 b63e 9e52 7abe eb99 923d
000003e0: 87d4 80bd c4de c5bd 23dd f63d 6379 f23e
000003f0: 45dd 483f 51d9 73be 8d56 cebd dcd2 46be
-0.19233787 -0.14839517 -0.13292651 0.08343615 0.22856314 0.17745033 0.09831706 0.083036944
0.31844148 -0.029482817 0.15633763 0.4286204 0.15290421 0.08805176 0.09559394 0.07885668
-0.2837242 -0.11754499 -0.10169729 -0.10694674 -0.29444978 -0.09268374 -0.024877027 0.17164351
-0.15216257 -0.086044334 -0.50159186 0.30591676 -0.27568862 0.41121623 -0.34430707 -0.34816632
0.15494753 -0.003216312 0.40457845 0.15686543 0.47786835 -0.029838568 -0.055755895 0.20622051
0.19394043 -0.19797121 -0.49799815 -0.18196855 -0.42374966 0.34208047 -0.56447375 -0.025669103
0.24437979 0.21357006 0.1802469 0.32963488 0.58820677 -0.37889102 0.35554966 -0.1964517
-0.13304535 -0.035307866 0.3937765 0.48672324 0.6239814 0.09142781 0.07814012 0.21686845
0.1902269 0.1425334 0.09369552 -0.20589283 0.56387 -0.050100125 0.419283 -0.027921023
-0.12107279 0.08975488 -0.034886554 0.36917263 0.2649513 0.30357218 -0.13635038 0.23920351
-0.101562135 -0.09260454 0.41017863 0.05544823 0.51513034 -0.0870561 0.1424592 0.099344164
-0.120720655 -0.11016961 -0.054016225 -0.1775248 -0.30722564 0.06588333 0.32290915 -0.013709547
0.31437838 0.2867007 -0.18782258 0.062408824 -0.17810893 0.0812537 0.26558647 0.44099152
-0.08759311 -0.15077706 -0.19576658 0.25814876 0.09329265 -0.20563014 -0.115852594 0.16957092
-0.045015495 0.14208753 -0.34038243 0.2954506 0.07264473 -0.08185905 0.04574605 -0.34852144
-0.28173724 0.17279197 -0.17606016 -0.23334834 0.021491794 0.17876333 -0.21510683 -0.33239523
0.10652316 0.023934195 -0.28225198 -0.08462434 -0.2532791 0.20484129 -0.19010574 -0.44479284
-0.054566048 -0.101303264 -0.54768616 0.011026545 -0.42532155 0.24369082 -0.33334398 -0.321406
0.011162142 0.031605177 -0.05483086 0.1391535 -0.35914445 0.024276512 -0.27499297 -0.44110718
0.29188177 0.16268611 0.15551269 -0.15088876 -0.07426977 0.022302724 0.30340615 -0.16530854
0.063261576 -0.15589696 0.20826478 -0.08495414 -0.08469787 -0.18404233 -0.12716523 0.07965682
0.09167782 0.030555869 -0.39670864 -0.35006958 -0.0076439073 -0.09826593 -0.17633548 -0.39170703
0.082767814 -0.085817024 -0.14650929 -0.19020104 -0.34154907 0.23786254 -0.08779437 0.47839728
-0.3429309 -0.111536086 -0.4310595 -0.36541688 -0.24418971 0.40135652 -0.070085466 -0.10681763
-0.17945814 -0.28982463 0.16948712 -0.03742912 -0.1759816 0.08822291 0.19373037 -0.07043332
-0.023990104 -0.10292231 -0.2733125 0.27974373 0.1205906 0.017168885 -0.43618625 -0.42629325
-0.1720175 -0.1538204 0.42242157 0.232955 0.18850666 0.083098054 0.2501513 0.286301
0.1793219 -0.05677769 0.5503205 0.34833357 0.7276393 0.07133625 -0.0026685044 -0.104379795
0.34014422 -0.028707024 0.18038538 0.08177837 -0.10265997 0.19378312 0.1589583 0.3886138
0.13835551 0.21457697 0.2982869 -0.299407 0.46430093 0.10879807 -0.21753918 -0.09439778
-0.31611595 0.15829964 -0.12497276 -0.16915227 -0.4156185 0.3559897 -0.24445578 0.07158264
-0.062905364 -0.0966163 0.12053897 0.47358236 0.7846263 -0.23813368 -0.10075102 -0.19416374

value_layer.0.bias f4 [64]
00000000: 0611 8e3c 1fc0 9a3e 78b9 f3bd e5f2 8ebd
00000010: 5832 d53b 72bc 58be d1b5 e0bd 32cf 883e
00000020: 4795 b73e d0fb e73d 20f3 bd3d 5e0f 283e
00000030: f4cc c23e 4088 94be d7a7 05be ed70 aebc
00000040: 39ab 1cbe 400a 74be eeec f8bd 03ab ba3e
00000050: b971 763e c37c b2be a215 7e3e 9e31 9bbc
00000060: 9fe4 973e 5cb5 33bd 3824 b53e 554f c13e
00000070: 53cc b83e cbcc 85be 43f9 aabe 4e61 503d
00000080: 8db9 b9be 9892 ea3d 899a c2bd 52cf 29be
00000090: e742 56be 1ddc 5abe e150 b2be baab 843d
000000a0: 6106 183e 9c90 aebe ae33 97bd 12c2 9bbd
000000b0: ee75 4dbe 3579 9abd a83f 593e 498d 7e3d
000000c0: 32b4 ed3d c424 b3bc 5bb7 cdbe e44b bdbe
000000d0: 59cd bcbe 87c9 87be aa65 323e 0353 d2be
000000e0: b031 cd3c b7d0 393e 702a 3abe 01b8 963e
000000f0: 81a2 a7be 128c 56be 6949 c83e e628 7c3e
0.017342102 0.30224702 -0.1190061 -0.06979922 0.0065062456 -0.21165636 -0.10972179 0.26720577
0.35856077 0.11327326 0.09274888 0.16412112 0.38046992 -0.290102 -0.13052307 -0.021294082
-0.15299691 -0.23832035 -0.12154566 0.36458597 0.24066819 -0.3486081 0.2481294 -0.018944558
0.29666612 -0.04387413 0.35379195 0.37755838 0.36093387 -0.26132807 -0.33393297 0.050874047
-0.36274377 0.11453742 -0.095021315 -0.16582993 -0.20923959 -0.21373029 -0.3482733 0.06478067
0.14846183 -0.34094703 -0.07382904 -0.07605375 -0.20064518 -0.0754265 0.21215689 0.06214646
0.11606635 -0.021868117 -0.40178952 -0.36971962 -0.36875418 -0.2652094 0.17421594 -0.41078958
0.025048107 0.18146025 -0.18180251 0.2943726 -0.32741168 -0.2095187 0.39118508 0.24624977

value_layer.2.weight f4 [64, 64]
00000000: b272 a53d 2116 f2bd 48ae 0fbd c232 1b3c
00000010: d336 6d3d be63 103d 9cd1 b8bb b504 9abd
00000020: 6990 fabd ff24 5e3d e3a0 81bd 3e3a ecbc
00000030: 5c09 40bd a4cb 163d 5cb4 9c3d db28 dc3d
00000040: 3fd2 83bd 0f07 b7bd 66ab a1bd 2a4f 133d
00000050: b29c d7bd 9999 1a3e e59c 9c3c 1215 0d3e
00000060: a2e3 96bd 3a5b dd3c 2f21 46be a72a 56bd
00000070: 8628 a6bc e2b5 393c cef1 0a3e f151 b1bc
00000080: 2eed e73d 59ef 193e f195 43bd 1e53 923b
00000090: b4f9 bebd 1cbb ae3d 4a0b 953d 727b 23be
000000a0: 7153 04be 9e7b aa3a 55cc 44bd 42a0 c7bc
000000b0: 1560 153d aa53 a1bd 5d21 afbd bf0f 8d3d
000000c0: 0d9d e8bd 8dfe 243d 3181 293e ad2a babd
000000d0: 9e3a 4bbc d730 c4bd 397d 6d3b 3b0b be3d
000000e0: 8378 09be c887 15be 7abc ef3c 3815 89bd
000000f0: 89be e33d 53b8 bc3d 3ed1 3ebd 68a0 9abd
00000100: 5e4a 74be 0cb3 c43e d892 6fbe c8c2 8bbe
00000110: e23c d53e 0839 56be 0c06 e03e 4826 133f
00000120: ce8b 973e 99c8 963c bb8a c93e 87b6 7dbe
00000130: 7fc9 e33d 6919 9fbd 6234 54bd 19b6 e1bd
00000140: bfc1 bdbe 4139 dfbe ced0 80bd ec55 373d
00000150: 86e3 173e 52d5 7cbe 1c27 8ebd a8cb cdbe
00000160: b2db dcbd 4bb4 dabd ba17 8c3e 5af5 623f
00000170: efe7 983e 6cc8 903e 4ec6 0ebf 2a2e 2a3e
00000180: ae5d ebbe a416 9fbe 1b82 a83c 4e2e 8dbe
00000190: 1e44 bebe 499b 74be 58ea 81bd 312b bc3e
000001a0: 87d4 88bd 9ae5 9abd d65f fdbe 4e46 9d3e
000001b0: b516 933e c1ac b23d 6a2a 913c 443e dc3d
000001c0: 7ba3 153f 7399 eb3d b2f9 61be 00e3 443d
000001d0: 4172 bdbe 58dc 82be 48a8 013f 00e7 1ebf
000001e0: a30d 333e 0204 213e 33f7 253d 2d2d db3e
000001f0: 4e20 6ebe e9cf 493e 7750 bb3e 82f0 ba3e
00000200: c884 973d 5711 00bf 49fa 943e c0da b83e
00000210: 996b d9be 4462 8c3e 9ab5 06bf fd1c 15bf
00000220: 882c 77be 71db 48be 511c d0be 5ec7 ea3d
00000230: c760 86bd 4a20 953d a628 8b3d 8c43 ec3c
00000240: ee02 4d3e 6fc4 c83e cc32 4d3e 6698 60bc
00000250: 537d 7bbd c7f9 503e 75d9 933e d87b b93e
00000260: 8cf0 263e 8cd6 e3bb 7881 4fbe 2075 8abf
00000270: c0fa 31be ac69 88bd 885e 043f adf9 abbe
00000280: 262d ec3e acda 003f 22e8 203e 6726 bf3e
00000290: 13b8 9d3e 23dd 1d3e 3461 873d 27f3 14bf
000002a0: 2d03 bfbd 7c42 1c3e aedd 103f 5be8 9bbe
000002b0: 41f7 5abe 8835 ccbc b046 edbd 5b9e 06be
000002c0: ce7c 38bf 104d 723d 7b01 fb3d f7a6 81bd
000002d0: e0ce fc3e 79ca 583e c299 36bf 4bd0 073f
000002e0: 05c3 97be f02e bcbe 651c c4bd 0f2d e2be
000002f0: 5181 333e cecf 7abe 8d26 0fbf f8cd 03bf
00000300: 6c8e 023d 3bbe 22be 7ab9 e33d f7f8 9d3c
00000310: 8e7e 03be d684 493e 6056 93bd c48f 98be
00000320: 02d8 3dbe 32cc 9cbd 07fe 5ebc 1fec 153e
00000330: 8373 903b 3b91 fd3d 58f6 c93d 0a89 0a3e
00000340: 9ea7 5c3e 0abe 243c e48c 9f3d 5bad 95bc
00000350: ee47 863d 0fb5 843e 6779 59bc a3ca da3d
00000360: ff29 eabd 825f 39bd a24c 6bbe 8c8c b4be
00000370: 5231 d5bd d608 1abd 3e37 103e 207e 48be
00000380: 6596 313d 7db4 963d cb4d 03bd 942f b03d
00000390: 5b55 cf3c 1618 793d a714 b43d eb81 77be
000003a0: 4706 683d bb2d 1b3e fce5 ff3d cc90 e53c
000003b0: c1ac 08bd ac63 7f3d 1b45 8d3d dc19 37bd
000003c0: ed66 75be b107 9d3d c5d8 b43d f997 e93d
000003d0: 36da 853e 5c75 fe3d 6e25 ccbd 791b 8b3e
000003e0: 92cb 873c 4d32 41be f322 9abd 5c64 04be
000003f0: 629b 073e c83d 3abe d0bc a8bd bd8f ecbd
0.08078517 -0.11820627 -0.035078317 0.009472551 0.057913613 0.03525137 -0.0056402218 -0.07520429
-0.12234575 0.0542345 -0.06329515 -0.028836366 -0.046883926 0.0368153 0.07651588 0.1074998
-0.06436586 -0.08936893 -0.0789402 0.03596417 -0.10527934 0.15097655 0.019117782 0.13777569
-0.07367636 0.02702104 -0.19348596 -0.05228677 -0.020282995 0.011334868 0.13568804 -0.021645518
0.11324535 0.1503271 -0.047750417 0.0044654747 -0.09324971 0.08531782 0.07277544 -0.1596506
-0.12922455 0.0013006811 -0.04804643 -0.024368409 0.036468584 -0.07877286 -0.085512854 0.06887769
-0.1135808 0.04028182 0.16553189 -0.09090171 -0.012404112 -0.09579628 0.0036237969 0.09279486
-0.13424878 -0.14602578 0.029264677 -0.066935 0.11120326 0.092148446 -0.046586268 -0.07550126
-0.23856494 0.38417852 -0.2339586 -0.27297044 0.41648012 -0.20920193 0.43754613 0.5748029
0.2959885 0.0184062 0.39363655 -0.2477666 0.11122417 -0.077685185 -0.05180777 -0.110210605
-0.3706188 -0.4359837 -0.06289826 0.044759676 0.14832887 -0.2469075 -0.06941053 -0.4019444
-0.10784091 -0.106789194 0.27361852 0.88655627 0.2986445 0.2827791 -0.5577134 0.16619173
-0.4596991 -0.3107196 0.020569852 -0.2757439 -0.37161344 -0.23887362 -0.06343526 0.36751702
-0.066811614 -0.07563324 -0.4948718 0.307177 0.28728262 0.087243564 0.01772042 0.10754064
0.58452576 0.115038775 -0.22067907 0.048068047 -0.3700123 -0.25558734 0.506474 -0.6207123
0.17485671 0.15724185 0.04051895 0.42807904 -0.23254511 0.19708218 0.36584827 0.36511618
0.07398373 -0.5002646 0.29097202 0.36104393 -0.42464903 0.2741872 -0.5262085 -0.5824736
-0.24138081 -0.1961496 -0.40646604 0.114638075 -0.065614276 0.07281549 0.067948624 0.028840803
0.20020649 0.39212367 0.20038909 -0.01370821 -0.061398815 0.20407782 0.28876844 0.36227298
0.16302699 -0.006953066 -0.20264232 -1.0816994 -0.1738081 -0.0666078 0.51706743 -0.33588925
0.46128196 0.50333667 0.15713552 0.37333986 0.308045 0.15416388 0.06610337 -0.5818352
-0.093267776 0.15259737 0.56588256 -0.3045071 -0.21383382 -0.02492787 -0.11585748 -0.13146345
-0.72065437 0.059155524 0.12256142 -0.06330674 0.49376583 0.21170987 -0.71328366 0.53052205
-0.29640976 -0.3675456 -0.09575728 -0.44175002 0.17529799 -0.24493334 -0.559182 -0.5148616
0.031874105 -0.1589288 0.11119361 0.019283755 -0.12841246 0.19679579 -0.07194209 -0.29797184
-0.18539432 -0.07656135 -0.0136103695 0.14640854 0.0044083013 0.12381216 0.098614395 0.13528839
0.21548316 0.0100550745 0.07790545 -0.018271139 0.06556688 0.25919387 -0.0132735735 0.10683181
-0.11433791 -0.0452571 -0.22978452 -0.3526348 -0.10409798 -0.037606083 0.14083573 -0.19579363
0.043356318 0.07358644 -0.03205661 0.08602825 0.025309255 0.060813986 0.087930016 -0.24170654
0.05664661 0.15154164 0.12495038 0.028023146 -0.033367876 0.062350914 0.068979464 -0.044702396
-0.23965044 0.07667483 0.08830408 0.114059396 0.26143044 0.12424728 -0.09968077 0.27169397
0.016576562 -0.18866844 -0.07526197 -0.12928909 0.13242868 -0.1818763 -0.08239138 -0.115508534

value_layer.2.bias f4 [64]
00000000: 81ff 0e3d 0db5 a83c d198 e3bd 3a16 ccbd
00000010: 7dbc c2bd 9781 393d 978a 293e 8a90 0dbe
00000020: 0f89 1cbe 32d7 133d 2953 a6bd 3853 163d
00000030: 647b 1cbe f1e3 2fbe e004 f63c 8c31 9b3d
00000040: bf2b 293b cead 9d3b 28fb 023e dbfd c73d
00000050: eb9f e73c d769 043e f469 99bd bb9d cebc
00000060: 55b8 17bd 44c9 ef3d a242 ea3c f05c 26be
00000070: 65d0 e63d e582 c9bd c968 253d 6430 42bd
00000080: 3074 24be 5c9d 31be 7084 04be e512 163d
00000090: 1710 0fbd 9a31 403e fb69 08be 2e1f 33bc
000000a0: ff42 adbd 7a0d 0d3d 2f53 053e 6d25 ef3d
000000b0: 2b29 9a3c ef38 73bc a913 2dbb 60ad 58bd
000000c0: b460 1abd 47a9 dc3d 6d91 b8bd 2af8 593d
000000d0: cd1f d6bd 8c12 b03d 09de 253e e5e4 01be
000000e0: 828e c33d b47c b3bd da65 fa3d 7875 d3ba
000000f0: 0b97 cfbc 221a f4bd 5eab 273e 78ca 583d
0.034911636 0.020594144 -0.11113132 -0.09965177 -0.095086075 0.045289602 0.16556774 -0.13824669
-0.15286659 0.036093898 -0.0812133 0.036700457 -0.15281445 -0.17176796 0.030031621 0.0757781
0.0025813428 0.004811979 0.12791121 0.09765216 0.028274497 0.12931 -0.07490912 -0.025221696
-0.037041027 0.1170831 0.028596226 -0.1624639 0.11270217 -0.09839419 0.040383134 -0.04740943
-0.16059947 -0.17345184 -0.12941146 0.036639113 -0.034927454 0.18768921 -0.13321678 -0.010932727
-0.08460044 0.03443668 0.13020013 0.1167706 0.018818459 -0.014845117 -0.0026409423 -0.05289972
-0.03768988 0.107744746 -0.09012113 0.053215183 -0.10455284 0.085972875 0.16197981 -0.12684973
0.095486656 -0.087640196 0.12226458 -0.0016133031 -0.025340578 -0.11919047 0.16373965 0.052927464

value_layer.4.weight f4 [1, 64]
00000000: 708d 92bd f2b1 82be ca49 f23e 8600 ad3d
00000010: 2450 90bd 12a0 92bc b9ef 18be 73ca 203e
00000020: 2183 51bd 60c5 babd e6df ac3c 61a1 033d
00000030: 4ccb 113e 3571 a0bc 92b2 523d 84fb 1b3d
00000040: 73f9 60bd a864 893d 81ba 373d 3350 c1bd
00000050: 1e20 6dbd 3361 4c3d b4e1 9b3d 3492 cf3c
00000060: 4bdd 28bd 1f4b 8b3d 66ac 1f3d a6e9 56bd
00000070: 0778 fb3c 74de 64bd 8284 113d 4ce4 25bc
00000080: 5fc5 1e3d eb2c d33d 7ad8 a3bc e1db 40bd
00000090: 97b6 c63d 8fd6 68bc 5882 153d 77e8 b83c
000000a0: c7c3 a13c d8fc adbd f7cb 83bb e285 493d
000000b0: 5b4f 39bd 9de1 ea3c 2e7b f4bc de26 de3c
000000c0: 8b4c 8b3c d88c 753c 8fb8 a3bd e94b 213b
000000d0: cf81 a43d 1436 2e3d 7d41 20bc 627b dcbb
000000e0: 5a39 073d ae3b 4fbd 933a d8bd 5081 b0bd
000000f0: 511e ebbc 385b 933d 1986 df3a b956 463d
-0.07155883 -0.25526386 0.47321922 0.084473655 -0.070465356 -0.017898593 -0.14935197 0.15702228
-0.051150445 -0.091196775 0.021102857 0.032136325 0.14237708 -0.019585231 0.05143983 0.03808166
-0.054925393 0.06708652 0.0448556 -0.09439125 -0.057891957 0.049897384 0.07611409 0.02533827
-0.041226666 0.068014376 0.03898277 -0.05246892 0.030696882 -0.05587621 0.03552676 -0.010125231
0.038762446 0.10311302 -0.020000685 -0.047084693 0.09702795 -0.014211311 0.03650126 0.022571785
0.019746674 -0.08495492 -0.0040221172 0.049199946 -0.045241695 0.028672034 -0.029843893 0.027118143
0.017004272 0.014987193 -0.07994186 0.0024611896 0.080325715 0.04253204 -0.009781239 -0.0067285756
0.03301368 -0.050594024 -0.10558047 -0.086184144 -0.02870098 0.07195133 0.0017053514 0.04842255
