Homework8/Gym-PPO-solution/results/PPO_LunarLander-v2_1000-eps0.75.pth (torch, 42817 bytes, 11 tensors)

action_layer.0.weight f4 [64, 8]
-0.34451383 0.33325696 0.4107622 0.3111201 -0.48054847 -0.11914919 -0.08311299 0.029411267
0.1445449 0.29572317 0.18871695 0.3297939 -0.5807499 -0.648289 0.07362328 -0.47022676
-0.14373219 0.18144888 0.057165064 -0.18139516 -0.2644452 -0.6091259 -0.070432745 -0.2720183
0.013897414 0.10645819 0.2818263 -0.25444034 -0.7528341 -0.57049423 -0.021033041 -0.43987852
0.010361737 0.07825012 0.261374 0.025126206 -0.65572995 -0.48715195 0.28786924 -0.19784105
-0.13831857 -0.058733776 0.10906488 -0.1422695 -0.3379141 -0.4358074 -0.061161377 -0.013861964
-0.1771005 -0.1103608 -0.28854972 -0.3770568 0.11931714 -0.069973215 0.0065469425 0.152819
0.01775215 -0.1809319 0.17633541 -0.2376515 -0.2976061 0.32929152 -0.42369813 -0.0013559458
0.33726755 -0.15696195 -0.10517551 -0.052752487 0.26549837 0.121088006 0.21120586 -0.11121232
-0.057263143 0.05604279 -0.13600858 -0.09573862 0.47468567 0.5003043 0.15638044 0.21785606
0.059723787 0.19314063 -0.016471982 0.14225136 -0.033861693 0.011721785 0.006367293 0.29043013
-0.2601507 0.024427805 0.19195855 -0.42822567 -0.46260947 0.13722192 -0.0054829232 -0.1313102
0.2184081 0.32071912 0.077694036 0.22624081 0.2608024 -0.39304113 0.45880768 0.14648367
-0.15622464 -0.21418458 -0.21907488 -0.33271846 0.029070567 0.60309833 -0.13503079 0.1144837
0.020268848 -0.151855 -0.33687022 0.42574292 0.24145399 0.45836625 0.28265175 0.2867765
0.48197636 -0.25204253 -0.23508264 -0.01148912 0.17777579 0.6516989 0.08600657 0.24117185
-0.38955322 -0.28645718 -0.17965184 -0.26189664 -0.24927865 0.42191765 -0.5180794 -0.13262247
0.19143538 -0.23637041 -0.30425173 -0.35099941 0.2991379 0.5293222 -0.027813146 0.42830345
0.35453305 0.059512734 -0.30223367 0.2034536 0.19129588 0.20502701 -0.16240838 -0.09804782
0.054899108 0.41831693 0.238778 0.41837332 -0.16905016 -0.11791816 0.073577754 -0.21107233
-0.2191539 0.21789609 0.053399388 0.2833518 0.005109225 -0.59669185 0.2508325 -0.35369062
-0.11664352 0.08494409 0.07911693 0.30098194 -0.46387744 -0.6605844 -0.14715679 -0.4804624
-0.07263878 0.17608508 -0.23464039 -0.43462852 0.34393013 -0.05015751 0.08238719 0.025297295
0.33085316 -0.10644953 -0.2416724 -0.20477785 -0.046077468 0.25236115 0.0062055476 0.03642784
0.023814728 0.32555866 -0.14358845 0.4292881 -0.4237923 -0.33411884 0.017788166 -0.27667788
0.27544612 0.092468776 0.14855292 0.4972776 -0.26049703 -0.3880936 -0.12425513 -0.40719226
0.45652035 -0.063348256 -0.16007061 0.4847094 0.3678347 -0.1815935 0.45943314 0.25373045
0.14659818 -0.29033175 -0.0669814 -0.472319 0.26168206 0.2990895 -0.41667837 -0.22805189
-0.10754145 -0.119750574 0.2670002 -0.051230595 0.008930264 0.20094779 -0.3121364 -0.14786577
0.24007876 0.020593558 -0.23442173 0.44386193 0.18441643 0.28502876 0.29383048 -0.06700059
0.0016760572 -0.013053024 -0.3126636 0.37412894 0.32860392 -0.10896766 0.24710767 0.36446625
-0.112186074 -0.19842128 -0.11610667 -0.01425737 0.4469311 0.49462393 -0.089979865 0.21242076
00000000: 1e64 b0be a8a0 aa3e 6c4f d23e 224b 9f3e
00000010: 730a f6be 7e04 f4bd 2537 aabd e6ef f03c
00000020: 9403 143e 0769 973e 043f 413e bfda a83e
00000030: 07ac 14bf 45f6 25bf cdc7 963d 90c1 f0be
00000040: 882e 13be bccd 393e ea25 6a3d a7bf 39be
00000050: 5c65 87be adef 1bbf 0b3f 90bd fc45 8bbe
00000060: fbb1 633c c006 da3d 894b 903e 0146 82be
00000070: bcb9 40bf e90b 12bf 7c4d acbc c237 e1be
00000080: 46c4 293c 9941 a03d d0d2 853e 79d5 cd3c
00000090: ebdd 27bf fb6b f9be 9963 933e d896 4abe
000000a0: 62a3 0dbe d492 70bd 685d df3d 19af 11be
000000b0: 1403 adbe 2622 dfbe 5a84 7abd 4b1d 63bc
000000c0: d559 35be d804 e2bd cabc 93be 970d c1be
000000d0: 8b5c f43d 1e4e 8fbd bc87 d63b 957c 1c3e
000000e0: f56c 913c 3646 39be 4591 343e ea5a 73be
000000f0: d45f 98be e698 a83e f6ee d8be feb9 b1ba
00000100: 55ae ac3e a2ba 20be 4266 d7bd fe12 58bd
00000110: 67ef 873e fdfc f73d 5946 583e 49c3 e3bd
00000120: c28c 6abd 208d 653d d545 0bbe 9c12 c4bd
00000130: 000a f33e f113 003f 3222 203e a915 5f3e
00000140: eea0 743d a8c6 453e 40f0 86bc 57aa 113e
00000150: 8fb2 0abd bb0c 403c baa4 d03b 42b3 943e
00000160: 7932 85be d21c c83c c890 443e 6540 dbbe
00000170: 26db ecbe e783 0c3e 18aa b3bb 2e76 06be
00000180: 5fa6 5f3e 4c35 a43e 0d1e 9f3d acab 673e
00000190: e487 853e b03c c9be d7e8 ea3e d1ff 153e
000001a0: 5af9 1fbe 3453 5bbe 2a55 60be 135a aabe
000001b0: 6625 ee3c a764 1a3f 8345 0abe 6e76 ea3d
000001c0: db0a a63c e17f 1bbe 417a acbe fafa d93e
000001d0: b73f 773e fbae ea3e bbb7 903e 5fd4 923e
000001e0: 9bc5 f63e b80b 81be 81b9 70be dd3c 3cbc
000001f0: db0a 363e bdd5 263f 3624 b03d c1f5 763e
00000200: 8573 c7be 84aa 92be a7f6 37be 5117 86be
00000210: e742 7fbe 9705 d83e daa0 04bf 2fce 07be
00000220: a307 443e 160b 72be e2c6 9bbe 32b6 b3be
00000230: 9a28 993e a981 073f 65d8 e3bc 974a db3e
00000240: 5b85 b53e a0c3 733d 5fbe 9abe 2456 503e
00000250: 11e3 433e 9af2 513e 624e 26be 4ccd c8bd
00000260: e3dd 603d a32d d63e 3882 743e 0735 d63e
00000270: 7c1b 2dbe 147f f1bd efaf 963d 5823 58be
00000280: e169 60be 2720 5f3e 51b9 5a3d 7d13 913e
00000290: 496b a73b ccc0 18bf 1e6d 803e f016 b5be
000002a0: cce2 eebd 2bf7 ad3d 0f08 a23d 4e1a 9a3e
000002b0: 5881 edbe 0f1c 29bf 45b0 16be 2bff f5be
000002c0: a4c3 94bd a64f 343e 9245 70be a187 debe
000002d0: 9c17 b03e f671 4dbd 9dba a83d 463c cf3c
000002e0: 9665 a93e 3602 dabd f878 77be 49b1 51be
000002f0: babb 3cbd 7b35 813e e857 cb3b 5c35 153d
00000300: 1b17 c33c a0af a63e da08 13be a6cb db3e
00000310: 4efb d8be a011 abbe 7db8 913c b9a8 8dbe
00000320: 4607 8d3e 4560 bd3d 421e 183e 2b9b fe3e
00000330: de5f 85be 34b4 c6be 7979 febd 817b d0be
00000340: 09bd e93e bbbc 81bd 8de9 23be d52b f83e
00000350: d454 bc3e a5f3 39be d23a eb3e f5e8 813e
00000360: d51d 163e 5da6 94be 8b2d 89bd ccd3 f1be
00000370: 31fb 853e 4222 993e de56 d5be 6f86 69be
00000380: b13e dcbd ca3f f5bd 40b4 883e 2cd7 51bd
00000390: 3e50 123c 42c5 4d3e 58d0 9fbe 206a 17be
000003a0: 35d7 753e d2b3 a83c 400c 70be df41 e33e
000003b0: a9d7 3c3e 4aef 913e f370 963e 9b37 89bd
000003c0: 26af db3a 5adc 55bc 7215 a0be d48d bf3e
000003d0: c63e a83e 702a dfbd cb09 7d3e 529b ba3e
000003e0: d0c1 e5bd f32e 4bbe 55c9 edbd be97 69bc
000003f0: 27d4 e43e 593f fd3e 5d47 b8bd d484 593e

action_layer.0.bias f4 [64]
0.18978731 -0.050343696 -0.07445167 -0.23649478 -0.12569128 -0.039338037 0.16648631 -0.09470686
-0.08682503 -0.03942454 -0.03823264 -0.07308469 -0.014125472 0.15705444 0.3133682 0.2613069
0.059599612 0.11761189 -0.06520971 -0.03345539 0.00052198407 -0.07164749 -0.1090313 -0.02803088
-0.030060474 0.16103095 0.15147087 0.033892546 0.02754331 0.097123995 0.11887682 0.20296565
-0.050221436 0.112915374 -0.18209404 0.05271826 0.13376045 -0.15836206 -0.025418172 -0.10654272
-0.1779429 -0.05728784 -0.029960206 0.18829045 -0.11545366 0.13030225 -0.22305946 -0.050549373
0.1922912 0.10247235 0.13096312 -0.020274295 0.08717587 -0.074735604 -0.13569757 -0.20946857
0.16811617 -0.007299207 -0.07662978 0.23546533 0.06557655 -0.08353909 0.020286256 -0.15134019
00000000: 9b57 423e 3135 4ebd 1e7a 98bd b02b 72be
00000010: 37b5 00be ec20 21bd 637b 2a3e acf5 c1bd
00000020: 52d1 b1bd a07b 21bd d499 1cbd 6dad 95bd
00000030: 866e 67bc e1d2 203e cc71 a03e 05ca 853e
00000040: b91e 743d 81de f03d ab8c 85bd 8508 09bd
00000050: c2d5 083a ebbb 92bd cd4b dfbd 04a1 e5bc
00000060: 6241 f6bc 4ce5 243e 2e1b 1b3e e9d2 0a3d
00000070: 82a2 e13c f2e8 c63d b175 f33d 3ad6 4f3e
00000080: feb4 4dbd 2d40 e73d dc76 3abe 1aef 573d
00000090: 80f8 083e aa29 22be c539 d0bc 1233 dabd
000000a0: aa36 36be a7a6 6abd 1b6f f5bc 36cf 403e
000000b0: f872 ecbd f46d 053e b369 64be dc0c 4fbd
000000c0: fce7 443e 06dd d13d 321b 063e 4716 a6bc
000000d0: 4389 b23d fb0e 99bd 4ef4 0abe ee7e 56be
000000e0: a526 2c3e 302e efbb 13f0 9cbd d31d 713e
000000f0: 004d 863d 8b16 abbd 5d2f a63c ecf8 1abe

action_layer.2.weight f4 [64, 64]
-0.14480129 -0.19920096 -0.077749 -0.21338595 -0.17832969 -0.05658289 -0.08955589 0.17730092
0.0032014805 0.16608597 -0.07094918 -0.13758315 -0.12713647 0.05301599 -0.034027573 0.06840832
0.08469292 0.13381945 -0.028260149 -0.19218381 -0.13722293 -0.088445716 -0.030026823 -0.05153393
-0.14821686 0.07660719 0.006052266 0.1905935 -0.03285987 0.036100287 0.06768428 0.22040255
-0.118512504 -0.13459022 -0.17189805 -0.18928963 0.08190488 0.05312388 0.0021084317 0.19139099
0.15499273 -0.07554381 -0.35095942 0.26819143 0.13985929 0.048659097 -0.22267812 -0.19466282
-0.10336936 -0.14354101 -0.045568947 0.16331439 0.23488247 0.15080506 -0.030215673 -0.24139696
-0.1287078 0.06283789 0.11078085 0.27601779 0.021058125 -0.13363884 -0.19418609 0.05178902
0.088252716 0.26766428 -0.14188796 0.044891022 0.028631622 0.0127214575 -0.028513629 -0.082104936
0.14186156 -0.15633158 -0.11503767 -0.097696 -0.08679586 0.031222181 -0.10292552 0.06573112
-0.1414175 -0.07444654 -0.027602589 0.20014311 0.08741378 0.060632896 -0.04544498 0.027532946
0.08127431 0.30400935 0.19733289 -0.104273476 0.12293365 0.061937302 -0.015872663 0.037785675
0.08678523 -0.05500824 0.07005684 0.0072103464 0.006264466 0.06192918 -0.009472829 -0.11243409
0.048648547 0.112446465 0.021099525 -0.094838195 -0.13121477 -0.055123534 -0.17732005 0.14531173
-0.09956812 -0.080761604 0.0061295494 -0.01767664 0.021261107 0.15105568 0.14765935 0.010527002
-0.079177536 -0.10273736 0.1491646 -0.12984818 0.024605628 -0.011435171 -0.14161204 0.08705124
-0.14840122 -0.181145 -0.009477346 -0.1780361 -0.20720579 -0.029368808 -0.04141268 0.092595294
0.03998127 0.28280646 -0.0021723069 0.0073359846 -0.07510928 0.07415476 -0.0032724554 0.23991185
0.018582672 0.21852982 0.10589215 -0.18039984 -0.13679157 -0.22390483 0.13714692 0.046905044
-0.24470006 -0.21644428 0.056956436 0.14123033 0.065905295 -0.107589014 0.038617417 0.19109818
-0.2725331 0.02362126 0.028368143 -0.040387917 0.04219181 -0.024238003 -0.08558282 0.057136424
-0.045705523 -0.08486306 -0.21185908 -0.039947312 -0.11907335 0.099767245 -0.22475111 -0.029741999
-0.04000682 -0.07461493 0.12920581 -0.15446164 0.18612948 0.024955412 -0.0282593 -0.037091315
-0.03740165 0.00578182 -0.059662748 0.3523202 -0.17954728 -0.0220182 -0.16477105 0.13710967
-0.08437907 -0.1487847 0.008598494 0.034582507 -0.026255533 0.086215414 0.1753314 0.031822436
0.09332769 0.17691784 -0.15131325 0.016551586 -0.056655914 0.1945579 0.0666201 -0.028411224
0.2828454 0.13635029 0.05619278 -0.17301774 -0.12899557 -0.20591818 0.16378902 -0.05993826
-0.25252992 -0.2314862 -0.23654398 0.14214875 0.10461275 -0.044620074 -0.1645477 0.021215998
-0.15202348 -0.010400073 -0.010919683 -0.005148309 0.108635314 0.018913032 -0.053596113 0.18847385
-0.06238149 -0.0042120586 -0.25760636 0.017445948 0.36177704 -0.007781264 -0.054067414 -0.023499887
-0.1515695 -0.05712113 -0.20077996 0.0958339 0.07275782 0.043294374 -0.11504782 -0.12314298
-0.03870123 0.23047088 0.04001244 0.09765532 0.079112805 -0.23063236 -0.0725022 -0.068672515
00000000: ca46 14be 56fb 4bbe de3a 9fbd d981 5abe
00000010: 0f9c 36be 76c3 67bd 1469 b7bd 5f8e 353e
00000020: eecf 513b 7112 2a3e ce4d 91bd 99e2 0cbe
00000030: 1030 02be 4b27 593d 7f60 0bbd a919 8c3d
00000040: 7b73 ad3d f707 093e d481 e7bc d5cb 44be
00000050: 2b84 0cbe 0723 b5bd d0fa f5bc 3e15 53bd
00000060: 29c6 17be 3be4 9c3d 1652 c63b f12a 433e
00000070: 1298 06bd e5dd 133d 0e9e 8a3d 35b1 613e
00000080: afb6 f2bd 05d2 09be 0b06 30be 24d5 41be
00000090: bfbd a73d 6d98 593d 9d2d 0a3b 00fc 433e
000000a0: 6ab6 1e3e b7b6 9abd f4b0 b3be 6350 893e
000000b0: 4637 0f3e c34e 473d bc05 64be b155 47be
000000c0: 51b3 d3bd 6afc 12be 81a6 3abd e33b 273e
000000d0: 0885 703e a46c 1a3e dc86 f7bc c430 77be
000000e0: facb 03be 27b1 803d 12e1 e23d 3452 8d3e
000000f0: 1782 ac3c 9fd8 08be b8d8 46be b920 543d
00000100: d7bd b43d 4b0b 893e 144b 11be a6df 373d
00000110: dd8c ea3c a96d 503c 6a95 e9bc a226 a8bd
00000120: 2844 113e 6315 20be df98 ebbd d714 c8bd
00000130: 07c2 b1bd a9c5 ff3c 9dca d2bd 0a9e 863d
00000140: c0cf 10be 6d77 98bd d31e e2bc 51f2 4c3e
00000150: ff05 b33d 335a 783d 8424 3abd c68c e13c
00000160: 2573 a63d 1da7 9b3e a211 4a3e 558d d5bd
00000170: a3c4 fb3d f8b1 7d3d 6307 82bc 27c5 1a3d
00000180: 74bc b13d 5250 61bd f679 8f3d c544 ec3b
00000190: 2646 cd3b 74a9 7d3d ed33 1bbc d843 e6bd
000001a0: b343 473d 554a e63d e9d8 ac3c 873a c2bd
000001b0: 2a5d 06be 37c9 61bd 6393 35be 99cc 143e
000001c0: 5fea cbbd 5766 a5bd 63da c83b 9ace 90bc
000001d0: c62b ae3c 57ae 1a3e 0334 173e 7279 2c3c
000001e0: d527 a2bd f767 d2bd 9bbe 183e ecf6 04be
000001f0: be91 c93c 955a 3bbc bf02 11be ec47 b23d
00000200: 7df6 17be 137e 39be df46 1bbc 184f 36be
00000210: c12d 54be db96 f0bc 58a0 29bd 9aa2 bd3d
00000220: 66c3 233d 02cc 903e 435d 0ebb b362 f03b
00000230: e5d2 99bd 73de 973d b176 56bb 74ab 753e
00000240: b03a 983c 48c6 5f3e fcdd d83d bcba 38be
00000250: 1713 0cbe 4f47 65be 3e70 0c3e 811f 403d
00000260: a792 7abe 92a3 5dbe 274b 693d af9e 103e
00000270: 5bf9 863d a157 dcbd 4c2d 1e3d 3eaf 433e
00000280: 7589 8bbe 5f81 c13c 4f64 e83c cd6d 25bd
00000290: 52d1 2c3d c78e c6bc 0c46 afbd e207 6a3d
000002a0: b735 3bbd afcc adbd 96f1 58be cb9f 23bd
000002b0: bbdc f3bd c552 cc3d 2825 66be 7ea5 f3bc
000002c0: 31de 23bd b6cf 98bd 874e 043e 312b 1ebe
000002d0: ba98 3e3e 4b6f cc3c 0c80 e7bc 10ed 17bd
000002e0: 7932 19bd 6c75 bd3b ed60 74bd 5063 b43e
000002f0: 3edb 37be 835f b4bc beb9 28be 7a66 0c3e
00000300: efce acbd 045b 18be b3e0 0c3c 63a6 0d3d
00000310: d815 d7bc b591 b03d 138a 333e 3e58 023d
00000320: 9722 bf3d f329 353e dcf1 1abe 3197 873c
00000330: 0810 68bd 303a 473e 1e70 883d a8be e8bc
00000340: 1dd1 903e 699f 0b3e 672a 663d 902b 31be
00000350: 6a17 04be 37dc 52be 4fb8 273e d281 75bd
00000360: 9a4b 81be b80a 6dbe 9638 72be 718f 113e
00000370: 363f d63d 8ac3 36bd 317f 28be 2ccd ad3c
00000380: 0bac 1bbe 1165 2abc 78e8 32bc 25b3 a8bb
00000390: 317c de3d 81ef 9a3c 9987 5bbd 4aff 403e
000003a0: bc83 7fbd 4f05 8abb fbe4 83be ceea 8e3c
000003b0: d73a b93e f9f9 febb cb75 5dbd d682 c0bc
000003c0: 0935 1bbe d9f7 69bd 4399 4dbe 9044 c43d
000003d0: 0d02 953d 7155 313d 319e ebbd 6332 fcbd
000003e0: 2e85 1ebd 8f00 6c3e 16e4 233d 83ff c73d
000003f0: e505 a23d e42a 6cbe 097c 94bd 2da4 8cbd

action_layer.2.bias f4 [64]
-0.10936955 0.011781466 0.012812619 0.05502983 -0.039642103 0.0020472954 -0.11147549 0.1132368
-0.013347006 0.0013540076 0.0465519 -0.14765373 -0.097073644 0.033980783 0.08521873 -0.10089659
0.06983965 0.019748649 0.07356548 0.12876247 0.056908783 0.1131795 -0.0030101072 -0.019133048
-0.06322655 0.014607654 0.07403178 0.08983772 -0.02859694 -0.1173445 0.03751202 0.013088567
-0.0079058735 -0.068934135 -0.007921613 -0.0077767367 -0.06999493 0.08552017 -0.047012534 -0.06354187
0.09296338 -0.081780255 0.019645093 -0.013003186 -0.049009852 0.04385325 -0.018393612 -0.0632105
-0.03377289 -0.08163265 0.026210586 0.053969804 -0.021722883 0.040138036 -0.044239827 0.007213873
-0.09132373 0.07689142 -0.02534217 -0.058942158 0.09173439 -0.014329333 -0.0806846 -0.054117993
00000000: 25fd dfbd 0d07 413c 05ec 513c f666 613d
00000010: c25f 22bd eb2b 063b 434d e4bd b2e8 e73d
00000020: 67ad 5abc f578 b13a 35ad 3e3d 8a32 17be
00000030: 8cce c6bd 6f2f 0b3d 2887 ae3d dfa2 cebd
00000040: 1708 8f3d ebc7 a13c 80a9 963d 4fda 033e
00000050: 2f19 693d a7ca e73d 3845 45bb e9bc 9cbc
00000060: ec7c 81bd f154 6f3c f99d 973d d7fc b73d
00000070: 2144 eabc 5052 f0bd 34a6 193d 6e71 563c
00000080: a387 01bc 572d 8dbd a7c9 01bc ffd3 febb
00000090: 8059 8fbd 3325 af3d 3790 40bd 3d22 82bd
000000a0: 9663 be3d 687c a7bd bfee a03c 510b 55bc
000000b0: 8ebe 48bd 779f 333d 33ae 96bc 8274 81bd
000000c0: 7155 0abd 052f a7bd 95b7 d63c 710f 5d3d
000000d0: 30f4 b1bc c867 243d d234 35bd 5a62 ec3b
000000e0: f007 bbbd 4079 9d3d 629a cfbc 556d 71bd
000000f0: 3ddf bb3d 94c5 6abc f83d a5bd d4aa 5dbd

action_layer.4.weight f4 [4, 64]
-0.19636908 0.0021016435 0.03562646 -0.15434998 -0.04030054 -0.15801981 0.16665688 0.24307303
-0.16172455 -0.09202552 0.101643875 -0.09980301 0.15956578 -0.21727581 -0.031662617 -0.053323988
0.26374432 -0.13052851 -0.07080543 0.0731343 -0.26193187 -0.18639354 -0.20403345 -0.036785364
-0.17102788 -0.2055035 0.18835066 0.07170172 -0.04293044 0.026372831 -0.04826675 0.08280278
0.15210521 0.19038232 -0.0114887385 -0.012725094 0.03718505 0.22027227 0.17757809 0.052327394
-0.14982761 -0.1292646 -0.08998648 0.20074107 0.046830103 -0.13144372 -0.0037146006 0.030657878
-0.1010822 0.108088866 0.2394172 -0.14737827 0.13699988 -0.029721625 -0.10846056 -0.16732731
0.20201759 0.008658651 0.15994997 -0.12860824 0.2681009 0.32463703 -0.11867983 0.08508759
-0.046104807 0.04065552 -0.26179028 -0.13015886 -0.083924316 0.017529858 0.080632955 0.05435836
-0.03793555 -0.18301624 0.27003077 0.029634688 0.321888 -0.16063774 0.18134497 0.055837654
-0.08223314 0.13471746 -0.17345151 -0.20344165 -0.11316077 -0.1213369 0.19307023 0.22895156
-0.15511811 0.22180663 -0.051829696 0.16976555 -0.19791795 0.17148283 -0.18443929 0.08381928
0.17479768 -0.11346212 0.049436893 0.10774522 0.20590569 0.07664025 -0.08316948 0.19477117
-0.042503472 -0.15007827 -0.2326121 0.072580785 0.2385203 -0.20724687 0.27332944 0.25393274
-0.07180334 -0.09080219 -0.03514723 -0.18830188 -0.1714314 -0.025144545 -0.3329679 -0.043583196
-0.15399644 0.059683286 0.089156814 -0.21401174 0.23914646 0.22303835 0.0073707174 0.14458631
0.11728169 -0.09455666 0.10577993 0.16816105 -0.06900997 0.19643474 -0.19546741 -0.3105069
0.104277134 0.20511028 -0.11713385 -0.06372778 -0.1250124 0.28523806 0.008555168 -0.14561288
-0.24166396 0.13656698 0.16998674 0.12562932 0.21680279 0.05224286 0.2736834 0.16884927
0.107803926 0.223237 -0.36186314 0.08906069 0.039034702 -0.13673997 -0.12532349 -0.104416296
-0.19621673 -0.18867701 -0.048394803 0.19305791 -0.022829883 -0.09984083 -0.21188092 0.19569999
0.22810937 0.17636946 0.010860199 -0.28836933 -0.16302693 0.2092601 0.09967871 -0.1591054
0.12743188 -0.039911315 -0.32885736 0.28082687 -0.27009335 0.17958775 0.177042 0.11675222
-0.17474738 -0.14354691 -0.06558965 0.21321733 -0.20303619 -0.3184606 0.14852123 -0.15191418
0.19118915 0.029719891 0.20053257 -0.022475122 0.17279027 0.16883753 -0.013369224 -0.013603201
0.14190198 0.27888906 -0.28153354 0.13695711 -0.13737166 0.009978963 -0.13749011 0.14631447
0.16244802 -0.29129153 -0.06606046 0.07341021 -0.060514666 0.20892017 -0.111532025 -0.12725963
0.16383 -0.21990551 -0.06415125 -0.28403595 0.18141638 -0.08859023 0.13719156 -0.14995724
-0.18147536 0.17800227 -0.12203229 -0.31488124 -0.1467256 -0.07125644 0.21506876 -0.20939022
-0.024866465 -0.11198959 0.14484517 -0.10594057 -0.1869851 0.21490489 -0.15633973 -0.20156205
0.19791442 0.17105289 0.0003779328 0.2156246 0.12781551 0.08546589 0.12356283 0.15799436
0.2547605 -0.17783266 -0.21165413 0.10103614 -0.21866219 0.07083243 0.07640946 0.01584739
00000000: fa14 49be babb 093b 0ded 113d ec0d 1ebe
00000010: 2e12 25bd f2cf 21be 1aa8 2a3e 23e8 783e
00000020: 1f9b 25be e077 bcbd aa2a d03d 8565 ccbd
00000030: 3665 233e 8d7d 5ebe a9b0 01bd 416a 5abd
00000040: 7f09 873e 44a9 05be 7002 91bd 70c7 953d
00000050: ef1b 86be f3dd 3ebe 25ee 50be 40ac 16bd
00000060: ef21 2fbe 826f 52be ffde 403e 5ad8 923d
00000070: d4d7 2fbd d60b d83c 5bb3 45bd 8194 a93d
00000080: 78c1 1b3e 95f3 423e 433b 3cbc ea7c 50bc
00000090: 5a4f 183d 0e8f 613e 08d7 353e 4055 563d
000000a0: 696c 19be f05d 04be d54a b8bd 118f 4d3e
000000b0: ecd0 3f3d 2f99 06be a870 73bb 3b26 fb3c
000000c0: 2f04 cfbd b25d dd3d c829 753e 54ea 16be
000000d0: b249 0c3e c47a f3bc 9220 debd da57 2bbe
000000e0: b3dd 4e3e 04dd 0d3c edc9 233e e1b1 03be
000000f0: 8544 893e d336 a63e 690e f3bd 6742 ae3d
00000100: 65d8 3cbd 6786 263d 6009 86be 5d48 05be
00000110: 83e0 abbd c79a 8f3c e422 a53d dfa6 5e3d
00000120: 4f62 1bbd 9c68 3bbe 7941 8a3e 72c4 f23c
00000130: 81ce a43e 387e 24be 7fb2 393e 06b6 643d
00000140: d969 a8bd 60f3 093e 469d 31be 0253 50be
00000150: d5c0 e7bd 7b7f f8bd 34b4 453e 4772 6a3e
00000160: 48d7 1ebe 4721 633e 604b 54bd 05d7 2d3e
00000170: 01ab 4abe 3299 2f3e a7dd 3cbe 71a9 ab3d
00000180: 2afe 323e d45e e8bd 577e 4a3d 87a9 dc3d
00000190: f1d8 523e 90f5 9c3d c354 aabd 1872 473e
000001a0: 1f18 2ebd 1eae 19be de31 6ebe 3ca5 943d
000001b0: aa3e 743e 8638 54be d6f1 8b3e 7903 823e
000001c0: a10d 93bd 80f6 b9bd 8bf6 0fbd 35d2 40be
000001d0: b78b 2fbe effb cdbc c57a aabe 4b84 32bd
000001e0: 3eb1 1dbe 7676 743d d997 b63d e525 5bbe
000001f0: cfe2 743e 2a64 643e 0f86 f13b 6f0e 143e
00000200: 6231 f03d eca6 c1bd 26a3 d83d 6932 2c3e
00000210: 1955 8dbd 3026 493e 9c28 48be c3fa 9ebe
00000220: 408f d53d 6e08 523e dfe3 efbd b683 82bd
00000230: 4003 00be b90a 923e fa2a 0c3c 8b1b 15be
00000240: c276 77be 37d8 0b3e 0111 2e3e f9a4 003e
00000250: 8d01 5e3e 9cfc 553d 3b20 8c3e d3e6 2c3e
00000260: 4ec8 dc3d 3d98 643e 2046 b9be 7365 b63d
00000270: dae2 1f3d 9005 0cbe cd54 00be 36d8 d5bd
00000280: 0aed 48be 8c34 41be a139 46bd f9b0 453e
00000290: bc05 bbbc 5979 ccbd 50f7 58be 9465 483e
000002a0: 8195 693e 329a 343e faee 313c 25a5 93be
000002b0: 88f0 26be 4848 563e 5a24 cc3d 87ec 22be
000002c0: 817d 023e 0c7a 23bd fe5f a8be 8ac8 8f3e
000002d0: ad49 8abe dae5 373e 804a 353e ca1b ef3d
000002e0: faf0 32be f6fd 12be de53 86bd a555 5a3e
000002f0: b8e8 4fbe 450d a3be f315 183e 648f 1bbe
00000300: 17c7 433e 2177 f33c 6958 4d3e bf1d b8bc
00000310: efef 303e bfe3 2c3e 970a 5bbc f6df 5ebc
00000320: c14e 113e 8cca 8e3e 2a25 90be 7c3e 0c3e
00000330: 28ab 0cbe ce7e 233c 35ca 0cbe 76d3 153e
00000340: c658 263e 2a24 95be b54a 87bd 1858 963d
00000350: 3ade 77bd 2bef 553e e76a e4bd 5950 02be
00000360: 0dc3 273e e92e 61be bb61 83bd 296d 91be
00000370: 37c5 393e cb6e b5bd f27b 0c3e 648e 19be
00000380: add4 39be 3a46 363e 11ec f9bd 1d38 a1be
00000390: 3c3f 16be e5ee 91bd fc3a 5c3e 646a 56be
000003a0: c2b4 cbbc cc5a e5bd 4b52 143e 5ff7 d8bd
000003b0: 0679 3fbe 0710 5c3e 8617 20be 4866 4ebe
000003c0: 14aa 4a3e 7d28 2f3e 4825 c639 b2cc 5c3e
000003d0: 12e2 023e be08 af3d 820e fd3d 46c9 213e
000003e0: f86f 823e c419 36be dcbb 58be 09ec ce3d
000003f0: fbe8 5fbe 9810 913d 907c 9c3d 63d2 813c

action_layer.4.bias f4 [4]
0.065281324 0.09728218 -0.046029016 0.07138368
00000000: 37b2 853d e13b c73d ec88 3cbd 9b31 923d

value_layer.0.weight f4 [64, 8]
0.014298636 -0.19418259 0.43144602 0.32112518 -0.3194637 -0.5643493 -0.3681895 0.19596186
-0.13242877 0.20440318 -0.042337544 0.3308746 -0.2687461 0.13910772 0.03974975 -0.02482331
-0.32829633 -0.34716198 -0.25373083 0.47151998 -0.2255648 0.10291182 -0.13169742 -0.010365256
0.3329735 -0.3434054 0.048123457 0.06968483 -0.059129186 -0.34703806 0.05102473 0.04874638
-0.2214752 -0.09111812 0.39465824 0.0032315832 0.12006714 -0.08394092 0.023963379 -0.31322536
0.047819562 -0.299718 0.43296665 -0.3662445 -0.52637345 -0.547148 0.08632269 -0.030197103
0.047724817 -0.049091846 -0.30297852 0.056663018 0.5900675 0.5697762 0.12545028 -0.09205512
-0.18579952 0.3435497 -0.24904867 0.11832413 0.19214003 0.14694244 0.42996213 0.14795703
-0.060572498 0.039865635 -0.43637547 0.1413725 0.064836845 -0.0465663 0.16904515 0.03576482
-0.35623965 -0.15121907 0.09790856 0.5867388 -0.07244177 0.35505584 0.13603589 0.14083545
-0.19596909 0.055624146 -0.3318844 -0.062276214 0.2953343 -0.27155557 0.013777666 -0.4729602
-0.20227358 -0.4648487 0.050693803 -0.23489222 -0.15309462 -0.35059193 -0.16369008 -0.2396226
0.37158382 0.008398593 -0.09169337 0.2788841 -0.53303885 0.26787972 -0.38554126 -0.5509038
-0.27391297 -0.23341298 0.0056376224 0.2457963 0.28838518 0.07718281 0.21378891 -0.05762901
0.17696384 -0.09357282 -0.124897934 -0.18257183 -0.13802505 -0.059889287 -0.09741212 0.30734053
0.24608836 0.042759344 0.24054004 0.07332321 0.16991822 -0.26107273 0.20606142 -0.16337158
-0.24926485 0.19076054 0.13277587 0.26776528 0.48762283 0.3444392 0.24819973 0.1270037
-0.19788475 0.08604166 -0.25112405 -0.05683893 0.35498235 0.00088182825 -0.003139334 0.26588002
-0.25136545 0.41759816 -0.021997605 0.16817003 0.6451482 0.17676106 -0.14078571 -0.21465516
0.2065158 -0.11805345 0.22588454 0.24370462 -0.33989775 -0.19617271 -0.086316325 0.31957993
0.08479318 0.22566323 0.17551361 -0.32468167 0.30442393 -0.27025384 -0.110643655 -0.0014806022
-0.28299224 0.08114059 -0.35466042 0.19904788 0.54627424 0.7334763 0.48121163 0.20707373
0.09615823 -0.23082547 -0.23559149 0.36049572 -0.014654852 0.32001746 -0.043350328 0.056636803
0.007953644 0.25914907 0.018839613 0.23499158 -0.26373297 0.15648039 -0.19215547 0.14020889
0.20278434 0.3317807 0.22665451 0.2085385 0.11545113 -0.14756721 -0.17616995 -0.029812228
0.17885393 -0.2569745 0.21673658 0.416495 -0.376945 -0.38980108 -0.14800507 -0.17579508
-0.49438286 -0.10875426 -0.021625707 0.090190545 0.052012827 0.6986238 0.034797747 0.14295548
0.3117676 -0.28234178 -0.08097627 0.07536965 -0.21674731 0.006793587 -0.34153587 -0.28355005
-0.15610436 -0.35599878 -0.0723016 0.053648066 0.26878718 0.71461934 -0.45346102 -0.25374562
-0.17705266 -0.1505155 -0.17072845 0.53565496 0.080566704 0.5179662 -0.15098928 -0.19990863
-0.09323585 0.55752546 -0.14060242 -0.18394668 0.1019194 0.31408814 0.15477394 0.03963936
-0.43079355 -0.15225457 0.19577745 -0.5596444 -0.08950571 -0.21195424 -0.0521283 0.19489257
00000000: d344 6a3c cdd7 46be 7ee6 dc3e 856a a43e
00000010: bf90 a3be 3279 10bf 5683 bcbe 3aaa 483e
00000020: 689b 07be 114f 513e 226a 2dbd 6568 a93e
00000030: 1799 89be 4172 0e3e a2d0 223d 415a cbbc
00000040: 7516 a8be 37bf b1be 02e9 81be 116b f13e
00000050: 75fa 66be 6fc3 d23d b0db 06be 09d3 29bc
00000060: 817b aa3e d5d2 afbe 1a1d 453d ecb6 8e3d
00000070: 7231 72bd f9ae b1be 4fff 503d 49aa 473d
00000080: 65ca 62be 239c babd a510 ca3e f8c8 533b
00000090: c3e5 f53d 38e9 abbd d94e c43c 135f a0be
000000a0: 72de 433d a374 99be cead dd3e 6684 bbbe
000000b0: 69c0 06bf e411 0cbf f3c9 b03d ea5f f7bc
000000c0: 197b 433d 8814 49bd 0020 9bbe 7b17 683d
000000d0: aa0e 173f dadc 113f 0a76 003e 6587 bcbd
000000e0: 3b42 3ebe bfe5 af3e 9d06 7fbe ec53 f23d
000000f0: 5bc0 443e 1478 163e ff23 dc3e 0c82 173e
00000100: de1a 78bd 264a 233d 9b6c dfbe f4c3 103e
00000110: 2ec9 843d 4ebc 3ebd 2c1a 2d3e 227e 123d
00000120: 0b65 b6be 2cd9 1abe 4884 c83d 8434 163f
00000130: 5a5c 94bd e1c9 b53e fe4c 0b3e 2b37 103e
00000140: 1fac 48be 25d6 633d c1ec a9be 5815 7fbd
00000150: 0f36 973e 5509 8bbe b8bb 613c d727 f2be
00000160: ce20 4fbe a600 eebe 4ea4 4f3d 9687 70be
00000170: d6c4 1cbe c980 b3be 5f9e 27be a05f 75be
00000180: 3c40 be3e 419a 093c bcc9 bbbd e6c9 8e3e
00000190: 3c75 08bf 8827 893e aa65 c5be 0808 0dbf
000001a0: 523e 8cbe d003 6fbe cebb b83b 06b2 7b3e
000001b0: 39a7 933e 0512 9e3d 7beb 5a3e 660c 6cbd
000001c0: 0236 353e 1ba3 bfbd 7dca ffbd 1cf4 3abe
000001d0: 7056 0dbe 784e 75bd 0180 c7bd bd5b 9d3e
000001e0: 96fe 7b3e 6c24 2f3d 2150 763e 7b2a 963d
000001f0: 0bff 2d3e 53ab 85be c401 533e e14a 27be
00000200: 493f 7fbe bb56 433e 66f6 073e 8818 893e
00000210: b3a9 f93e 565a b03e 1228 7e3e 420d 023e
00000220: 4da2 4abe 9c36 b03d 5593 80be f0cf 68bd
00000230: 3fc0 b53e 7e2a 673a 49bd 4dbb 6d21 883e
00000240: f9b2 80be 6dcf d53e 5234 b4bc c434 2c3e
00000250: 6f28 253f da00 353e 212a 10be 90ce 5bbe
00000260: e178 533e 02c6 f1bd 474e 673e b48d 793e
00000270: 1407 aebe 80e1 48be 9dc6 b0bd fb9f a33e
00000280: 0ca8 ad3d 4314 673e d7b9 333e ad3c a6be
00000290: 74dd 9b3e b65e 8abe 2499 e2bd c410 c2ba
000002a0: 5ce4 90be 0a2d a63d 0d96 b5be 35d3 4b3e
000002b0: a1d8 0b3f 1ac5 3b3f 5f61 f63e 230b 543e
000002c0: 9bee c43d 835d 6cbe e53e 71be e592 b83e
000002d0: e81a 70bc 54d9 a33e 1d90 31bd fefb 673d
000002e0: 0050 023c 30af 843e 8855 9a3c a2a1 703e
000002f0: 0208 87be 653c 203e 67c4 44be eb92 0f3e
00000300: b3a6 4f3e 29df a93e 1f18 683e 1e8b 553e
00000310: a471 ec3d dc1b 17be e565 34be c638 f4bc
00000320: 7c25 373e 2992 83be 32f0 5d3e d53e d53e
00000330: effe c0be 0294 c7be a48e 17be a003 34be
00000340: c01f fdbe 8eba debd 6528 b1bc d2b5 b83d
00000350: 670b 553d 02d9 323f 1588 0e3d ec62 123e
00000360: 01a0 9f3e 1a8f 90be e3d6 a5bd 675b 9a3d
00000370: 02f3 5dbe bd9c de3b cadd aebe 792d 91be
00000380: d2d9 1fbe 7945 b6be dc12 94bd 13be 5b3d
00000390: 799e 893e 4bf1 363f 0b2c e8be f2ea 81be
000003a0: 4b4d 35be bc20 1abe 70d3 2ebe af20 093f
000003b0: 2800 a53d 6f99 043f ef9c 1abe d9b4 4cbe
000003c0: 70f2 bebd fdb9 0e3f 15fa 0fbe 855c 3cbe
000003d0: 1ebb d03d 29d0 a03e 0f7d 1e3e e25c 223d
000003e0: f990 dcbe 9fe8 1bbe e279 483e db44 0fbf
000003f0: c54e b7bd 880a 59be 7c84 55bd eb91 473e

value_layer.0.bias f4 [64]
0.1303305 0.26153308 0.31264624 0.2101152 -0.11043323 -0.051453706 0.15792409 0.1516274
-0.003358106 0.3518613 -0.28358558 -0.118106864 0.087836824 0.4127911 0.16823418 0.3062756
0.14669737 0.102996215 -0.0021438813 0.31428942 -0.4103461 0.24209006 0.39470148 -0.11778617
0.078006156 0.33149093 -0.00909984 0.30806306 0.3789501 0.3414275 -0.4727 -0.26207435
-0.10309751 0.14678165 0.372058 0.058241554 0.09075157 -0.1787249 0.14245448 0.122804284
-0.049981184 -0.24089815 0.034483623 -0.15307999 -0.056575753 0.28293747 0.059370715 0.21029274
0.14303961 -0.29142207 0.043976627 0.13758138 -0.09801999 0.049784623 0.16186504 -0.23565383
0.23420572 0.2743454 -0.19620447 -0.23597297 0.018794322 0.28926948 -0.2870669 0.25839186
00000000: 5c75 053e aae7 853e 2b13 a03e 7028 573e
00000010: d12a e2bd 1fc1 52bd dab6 213e 3744 1b3e
00000020: ab13 5cbb 2a27 b43e 2132 91be 03e2 f1bd
00000030: cbe3 b33d 5b59 d33e 9545 2c3e 28d0 9c3e
00000040: d637 163e aeef d23d 5c80 0cbb 8bea a03e
00000050: e218 d2be 75e6 773e 5016 ca3e e039 f1bd
00000060: b1c1 9f3d 2eb9 a93e 7f17 15bc 71ba 9d3e
00000070: bf05 c23e 96cf ae3e bc05 f2be 9c2e 86be
00000080: ca24 d3bd ee4d 163e 637e be3e b28e 6e3d
00000090: f6db b93d a903 37be 96df 113e d080 fb3d
000000a0: 12b9 4cbd 01ae 76be b33e 0d3d 00c1 1cbe
000000b0: fabb 67bd 2edd 903e b52e 733d fb56 573e
000000c0: fa78 123e 4635 95be d620 343d 22e2 0c3e
000000d0: b4be c8bd f6ea 4b3d f3bf 253e 3d4f 71be
000000e0: a0d3 6f3e 0077 8c3e d3e9 48be e6a2 71be
000000f0: 8df6 993c 211b 943e 6ffa 92be f04b 843e

value_layer.2.weight f4 [64, 64]
0.19048119 -0.110569604 -0.40394366 0.20550455 0.0605219 0.30017084 -0.31056008 -0.38562217
-0.05199588 -0.49518982 -0.116413556 0.1705792 0.12109644 -0.39186266 -0.039863065 0.12836117
-0.16675837 -0.2890303 -0.17079282 0.036800355 0.24051511 -0.497775 -0.3084164 0.07766451
0.03543113 0.17388901 -0.18283457 0.095292725 -0.32316676 -0.32713544 -0.11425 -0.013068165
0.12984304 -0.30482137 -0.14919741 -0.27017233 0.055421814 -0.040308252 0.089954436 -0.18426567
0.30501693 0.20879339 -0.5570014 -0.10264194 -0.34232646 0.12435843 0.039764345 -0.28289944
-0.2974816 -0.09668277 -0.14650322 0.2289908 -0.010826104 -0.18240488 0.186253 0.20573346
-0.16470152 0.08606401 0.1873619 0.4587051 -0.13491063 -0.054855466 0.3584063 -0.2511772
-0.09436557 -0.14494672 -0.102803305 -0.012009596 -0.013482135 0.001550421 0.0012534484 0.07825481
-0.017572263 -0.24021254 0.14699437 -0.13920018 -0.09587319 -0.046806864 0.10097608 -0.07287329
-0.1054603 0.088994905 -0.104715616 0.009847219 0.09921534 -0.03252323 0.0013900341 0.015601613
-0.036625 -0.18391892 -0.1558955 0.07502019 -0.10482858 -0.18449913 0.26104578 -0.009947038
-0.081806876 -0.013525927 -0.303025 0.06654277 -0.12698218 0.09176468 -0.025702497 0.1000059
-0.026602887 0.1906176 0.12924631 0.04791943 0.07945121 -0.046445496 -0.15197189 -0.0007650405
0.09905498 0.05667228 0.005062265 -0.01086309 -0.15690884 0.12752964 0.01258342 0.096298985
-0.054878425 -0.08092198 0.014192473 -0.09803176 -0.09215528 -0.39032558 0.004537797 -0.24467671
0.22828399 0.037823413 0.27300605 0.11114643 -0.089184694 0.036657974 -0.06813722 -0.13250282
0.04369145 0.53993446 -0.21122263 0.05969933 0.029642867 0.27600107 0.04703018 0.02080748
0.1866339 -0.0892331 -0.114446335 0.17809728 -0.3421475 0.1372752 0.12931977 0.06526497
-0.040089212 0.48092115 0.01018167 0.23723018 0.0655851 0.3158449 -0.5012233 -0.09843773
-0.059872437 -0.0035526478 0.33065498 0.14152794 0.24375683 -0.10625606 0.13768601 -0.09880693
0.07613756 -0.11417277 -0.035545472 -0.23604958 -0.1052235 0.17499247 0.112783186 0.064512424
0.03538526 -0.34308612 0.1381423 0.19249518 0.06570218 -0.0975955 0.06084845 -0.12545384
0.11161325 0.29094297 -0.21580906 0.06790356 0.0105170095 0.383249 -0.07828941 0.24786377
-0.21435922 0.027991716 -0.25523192 -0.2369813 -0.0966516 -0.10717735 -0.025183976 -0.05199686
0.047634713 -0.3008002 -0.029791879 -0.07402965 -0.14119764 -0.2504684 -0.16192232 -0.054226536
-0.1529795 -0.09182862 0.02604897 -0.25608537 0.32905403 0.077787876 -0.29168692 -0.10294139
-0.077649966 -0.41819763 0.020306872 -0.14653139 -0.19915122 -0.20579648 0.37715366 0.08934445
-0.101762496 -0.109086156 -0.5002479 -0.067214854 -0.065239795 -0.021380352 0.071385205 0.12713638
-0.0762477 0.18279788 0.09205958 0.18599504 0.1620662 -0.17944017 -0.1072694 -0.15092212
0.033106655 0.2784453 0.044263054 -0.21466036 -0.23347506 -0.11126891 -0.07175659 0.16911463
-0.31963542 -0.086932085 0.13797428 -0.086292155 0.07633937 -0.37752968 0.10640115 -0.1397573
00000000: 800d 433e 5172 e2bd b4d1 cebe c96f 523e
00000010: d0e5 773d feaf 993e bb01 9fbe 4570 c5be
00000020: a2f9 54bd 8589 fdbe 3b6a eebd 50ac 2e3e
00000030: 6901 f83d 39a2 c8be 7447 23bd 1c71 033e
00000040: b5c2 2abe c8fb 93be 50e4 2ebe f8bb 163d
00000050: 9849 763e 5ddc febe c1e8 9dbe 920e 9f3d
00000060: 3c20 113d f60f 323e fc38 3bbe d528 c33d
00000070: 1d76 a5be 4c7e a7be e7fb e9bd db1b 56bc
00000080: 93f5 043e 8c11 9cbe 35c7 18be 0754 8abe
00000090: fc01 633d 441a 25bd 083a b83d 24b0 3cbe
000000a0: 2e2b 9c3e efcd 553e a597 0ebf f035 d2bd
000000b0: 6a45 afbe a2af fe3d f0df 223d 32d8 90be
000000c0: 824f 98be 9e01 c6bd f104 16be 907c 6a3e
000000d0: f95f 31bc 58c8 3abe 1bb9 3e3e cbab 523e
000000e0: 84a7 28be 5442 b03d ccdb 3f3e 65db ea3e
000000f0: 0326 0abe 20b0 60bd 0881 b73e 4c9a 80be
00000100: bc42 c1bd ea6c 14be 8a8a d2bd e6c3 44bc
00000110: 2ce4 5cbc 7f37 cb3a c04a a43a 0f44 a03d
00000120: b5f3 8fbc 47fa 75be b185 163e 7e8a 0ebe
00000130: 2a59 c4bd 8eb8 3fbd 8ccc ce3d 973e 95bd
00000140: 92fb d7bd f642 b63d 2475 d6bd 3b56 213c
00000150: 6a31 cb3d 1437 05bd ce31 b63a e89d 7f3c
00000160: 1904 16bd 3e55 3cbe 12a3 1fbe 2fa4 993d
00000170: 5eb0 d6bd 57ed 3cbe cba7 853e e7f8 22bc
00000180: 5d8a a7bd da9b 5dbc 1826 9bbe 9347 883d
00000190: 9e07 02be 1fef bb3d 0b8e d2bc e5cf cc3d
000001a0: 4cee d9bc 4331 433e 2559 043e 2a47 443d
000001b0: 51b7 a23d a23d 3ebd 859e 1bbe 008d 48ba
000001c0: 56dd ca3d 3121 683d 5be1 a53b 1afb 31bc
000001d0: b6ac 20be 2197 023e b02a 4e3c 6738 c53d
000001e0: 33c8 60bd 6cba a5bd 8c87 683c e0c4 c8bd
000001f0: e8bb bcbd c1d8 c7be cdb1 943b 888c 7abe
00000200: 47c3 693e b9ec 1a3d 73c7 8b3e bda0 e33d
00000210: 77a6 b6bd ac26 163d 878b 8bbd d2ae 07be
00000220: cef5 323d 2539 0a3f bf4a 58be 4987 743d
00000230: 99d5 f23c 0350 8d3e b8a2 403d 7374 aa3c
00000240: f51c 3f3e d8bf b6bd d762 eabd 225f 363e
00000250: f52d afbe df91 0c3e 676c 043e a4a9 853d
00000260: 9634 24bd 4c3b f63e 05d1 263c 78ec 723e
00000270: 7b51 863d 6cb6 a13e 2c50 00bf b899 c9bd
00000280: cd3c 75bd 8ad3 68bb 9c4b a93e b3ec 103e
00000290: 649b 793e c79c d9bd 90fd 0c3e 4a5b cabd
000002a0: 02ee 9b3d 6ad3 e9bd 2198 11bd fbb6 71be
000002b0: 6b7f d7bd 3a31 333e dffa e63d 171f 843d
000002c0: 22f0 103d fca8 afbe 2d75 0d3e 751d 453e
000002d0: dd8e 863d 26e0 c7bd 393c 793d f976 00be
000002e0: 7d95 e43d 7af6 943e 0dfd 5cbe 0611 8b3d
000002f0: 894f 2c3c 3739 c43e 3356 a0bd 00d0 7d3e
00000300: fc80 5bbe e24e e53c c2ad 82be 3aab 72be
00000310: 46f1 c5bd cc7f dbbd a04e cebc a9fa 54bd
00000320: 9e1c 433d 7c02 9abe 190e f4bc db9c 97bd
00000330: 1d96 10be 653d 80be f7ce 25be a51c 5ebd
00000340: a8a6 1cbe a510 bcbd a664 d53c 9f1d 83be
00000350: c579 a83e 404f 9f3d fd57 95be efd2 d2bd
00000360: f206 9fbd 001e d6be 995a a63c 530c 16be
00000370: 4cee 4bbe 50bc 52be 491a c13e 39fa b63d
00000380: db68 d0bd 9068 dfbd 3f10 00bf f1a7 89bd
00000390: 719c 85bd d925 afbc 6832 923d 0a30 023e
000003a0: c127 9cbd 5e2f 3b3e bc89 bc3d 7c75 3e3e
000003b0: aff4 253e 2abf 37be 0fb0 dbbd 548b 1abe
000003c0: d89a 073d 6290 8e3e 2d4d 353d edcf 5bbe
000003d0: 1614 6fbe f4e0 e3bd 1ef5 92bd 632c 2d3e
000003e0: 41a7 a3be 7309 b2bd 2149 0d3e f1b9 b0bd
000003f0: d157 9c3d 924b c1be d9e8 d93d 8a1c 0fbe

value_layer.2.bias f4 [64]
-0.0841034 -0.17076041 0.24968953 -0.2776493 -0.012842803 -0.07830175 -0.26914653 -0.09976458
-0.1453623 0.012237824 0.1383019 -0.119112074 0.080374934 0.13616323 0.05123376 0.012873897
0.06021121 -0.013934885 0.10368887 -0.06583964 0.00731756 -0.03316946 -0.20133047 -0.09915878
0.07078567 0.13490464 0.059195004 -0.061672326 0.07376985 -0.09543586 -0.14849009 0.052643076
0.09935975 0.033532746 0.07895297 0.0412656 0.10552657 0.08544372 0.063041605 -0.17782347
-0.007714767 0.13392413 0.080028035 -0.069264 0.027320629 -0.032661878 -0.06570231 -0.099413015
-0.00070933066 0.13740015 0.036603034 -0.15378837 0.11329383 -0.12700628 0.25156003 -0.02616931
0.057340838 -0.0026050468 0.0008339082 -0.23812099 -0.0570526 -0.057722848 -0.013947502 -0.09833236
00000000: 673e acbd d1db 2ebe 9dae 7f3e 0d28 8ebe
00000010: 9f6a 52bc ab5c a0bd 93cd 89be 5f51 ccbd
00000020: dbd9 14be 2781 483c 039f 0d3e 08f1 f3bd
00000030: 9d9b a43d 606e 0b3e 7eda 513d 0aed 523c
00000040: 08a0 763d 254f 64bc d55a d43d efd6 86bd
00000050: 24c8 ef3b b3dc 07bd 9329 4ebe c213 cbbd
00000060: 14f8 903d 7124 0a3e 7676 723d 1f9c 7cbd
00000070: a614 973d e073 c3bd c90d 18be 44a0 573d
00000080: 207d cb3d a259 093d 18b2 a13d 1e06 293d
00000090: 501e d83d 1efd ae3d f51b 813d 5b17 36be
000000a0: 28cc fcbb 6823 093e bde5 a33d 49da 8dbd
000000b0: 83cf df3c 76c8 05bd ef8e 86bd 0d99 cbbd
000000c0: 60f2 39ba a0b2 0c3e 10ed 153d b37a 1dbe
000000d0: 9806 e83d ef0d 02be 7acc 803e 0561 d6bc
000000e0: 3ade 6a3d 6fb9 2abb a29a 5a3a fdd5 73be
000000f0: fdaf 69bd cb6e 6cbd 1084 64bc 7a62 c9bd

value_layer.4.weight f4 [1, 64]
-0.15571928 0.058620285 -0.112679206 0.07956794 -0.0054592863 -0.1182427 0.2145839 -0.0037512346
-0.0512174 0.0151636405 0.027510673 -0.013704245 0.018045317 5.2364194e-06 0.0128780985 -0.04265828
-0.022738928 0.026314046 0.016950633 0.009977857 0.008654902 -0.002593376 -0.12919435 0.008897176
-0.003058691 0.047418643 -0.020185247 0.004495878 -3.9704377e-05 0.04302914 -0.29587996 -0.01613689
0.10269664 -0.020368692 0.0027688113 -0.019490631 -0.030518321 -0.053579316 -0.01527951 0.106809236
0.010624853 0.031236019 -0.04089411 -0.019523583 -0.021495085 0.018957242 -0.0004916161 -0.078392014
0.03725559 0.07462818 0.026161691 -0.020784529 0.20910895 0.0028785383 -0.23116538 -0.0001860832
0.040009044 0.019930728 -0.022318767 0.12401468 -0.023149153 -0.012254937 0.015180708 0.017625326
00000000: e074 1fbe d31b 703d 5bc4 e6bd 84f4 a23d
00000010: d0e3 b2bb 3b29 f2bd e2bb 5b3e 46d7 75bb
00000020: 56c9 51bd eb70 783c 105e e13c c587 60bc
00000030: c6d3 933c 80b4 af36 a9fe 523c 73ba 2ebd
00000040: fd46 babc 8e90 d73c 0edc 8a3c 2a7a 233c
00000050: 4acd 0d3c a1f5 29bb 864b 04be 76c5 113c
00000060: 5274 48bb 0d3a 423d 885b a5bc 2852 933b
00000070: 4088 26b8 533f 303d 947d 97be 8331 84bc
00000080: 9e52 d23d 3edc a6bc f274 353b d1aa 9fbc
00000090: 8f01 fabc fc75 5bbd e956 7abc cdbe da3d
000000a0: dd13 2e3c aee2 ff3c 9580 27bd ecef 9fbc
000000b0: 7616 b0bc 384c 9b3c ccdf 00ba fe8b a0bd
000000c0: 5199 183d a9d6 983d 0b51 d63c 5144 aabc
000000d0: a820 563e dca5 3c3b 9eb6 6cbe 541f 43b9
000000e0: 86e0 233d c445 a33c d9d5 b6bc 69fb fd3d
000000f0: 4ba3 bdbc eec8 48bc 81b8 783c fd62 903c
