Homework8/Gym-PPO-solution/results/PPO_LunarLander-v2_1000-eps0.01.pth (torch, 42817 bytes, 11 tensors)

action_layer.0.weight f4 [64, 8]
00000000: 9abe a93d 786f 633e d15e 7b3d 2ed2 8a3e
00000010: 4973 223e 1dc0 5f3e a9f5 8b3e 2350 1abe
00000020: 0d7f 15be b4d5 c4bd 12d3 1f3e e045 82be
00000030: e7a8 9b3e 7425 27be 1e44 0c3e 18a8 9dbe
00000040: 10ea 2b3e dcdb 7dbe 34b7 633e 6e44 a93d
00000050: c4d7 5fbd 07b5 57bd 7a4a af3e f4ed 573e
00000060: 5b3d ad3e f0ad 6e3e d962 dcbd 18ca 993e
00000070: 7082 133e e27b 51be 953f 8dbe db09 6bbe
00000080: f29e c53e 5239 65be 5fa5 f0bd b8bd 1b3e
00000090: ef21 323e 307d ca3e 1078 273e 62fb a5be
000000a0: a9f8 1c3e 0459 04be 008d 953e 7852 88be
000000b0: 966e 0cbe f427 f2bd 44e1 1f3e 4eda 0ebe
000000c0: e3a3 98be ac8f 97be cc8a 18bc 4dff a63e
000000d0: af30 553d 4b6c 9bbe be86 61bd a3b8 44be
000000e0: e221 7a3e 4d6a b8bd 0225 0cbd 5cf6 c53d
000000f0: 3698 f5bc c3b6 8a3e a1cc 52be 4bae 12bc
00000100: d456 a6be a945 1e3d f840 803e af33 773e
00000110: 83a2 983e ade6 a23c 567c 263e cdec 463e
00000120: dc6d ddbd 785a 433e 5aa8 a1bd f079 0abe
00000130: c679 533e c710 653e a962 65be e042 fe3d
00000140: b05f 79be 94f8 a8be 131a 3a3e a920 7e3c
00000150: 25cd a63e ee8a 6ebe c650 6e3e df9f 903c
00000160: 0fd3 ad3e aa58 753d 4dc4 60be 8fc2 0bbc
00000170: bcd4 9f3e 41a8 4c3e 7476 68be 49d2 a43e
00000180: ce45 753e c58d a33d 9c3a 9bbe 6421 c1bd
00000190: 7c88 f5bc 7050 3abe bc01 6b3e 7664 493d
000001a0: 7792 61be fbdb 7f3e 3867 90be 2857 273e
000001b0: 3f2e b3be d4d2 f63d 8b63 bcbe 69fe 01be
000001c0: c10d d43e ec74 96be 6b71 22be 60c2 76be
000001d0: e527 c53d c79b 3d3e 01cf 9b3e 5a63 be3e
000001e0: 670d 0f3e aced a8bd 6bcc d5bc 737a 2bbe
000001f0: bab2 1fbe 2432 3c3e 09fa a2bd 1dc6 a83e
00000200: d6e5 883e 267f 093e 493c 39bd d25f aa3e
00000210: d5af e3bd 0c42 803e 1a95 7dbe e5d8 4fbe
00000220: 1e75 42be 15a5 73bb e747 573e fbab 9c3e
00000230: ac2a 463e 2406 403e 3062 063e dffe e63d
00000240: d183 a3be 3d3c 2cbe 8b51 563e 81a9 a5be
00000250: 816d c63d aa01 9cbe 2f79 9fbe 66c0 023e
00000260: c515 b53e 8662 f3bd c1ae a8be d986 b6be
00000270: f8a7 4ebc 9df3 61be e37e af3e 42da a13e
00000280: 288c 14be ed02 27bd 9c83 203e 4726 443e
00000290: d8f4 c63d e676 f3bd 40af c83e f207 3ebe
000002a0: 9bba 903e 8b6d ed3d 0af4 67be e1a9 84be
000002b0: 84f5 983e fddf 9d3e c8a3 bcbd 7787 f93e
000002c0: 3822 8a3e 454f 393d dd6f 1bbe c086 9d3c
000002d0: 63e7 37be d41c 8a3d 7b61 87bd 739e 273e
000002e0: 145e 9a3e 7b30 49be f34a b53c 5a82 57bc
000002f0: fa95 813e 9cde 5ebe 25c6 803e a1cb a2be
00000300: 7514 d5bd 9370 0dbe 1c11 693e f9fd 63bc
00000310: ff38 08be 2a2a f53d 070b 323e d77f 283e
00000320: 0189 ffbd 2795 293e da5f 51be f016 a23e
00000330: d733 d13d 239e 73be dd7d bfbe f768 003e
00000340: 268a 88be 4fb2 b03d 9106 58be 4068 febd
00000350: 5478 983e e49f 06be 3ea3 8f3e 9529 3dbe
00000360: 55a4 433e 44bb 57bd 144a d0be 15f9 49bd
00000370: 6176 c63e 82db a63e a45b be3e 5e41 423e
00000380: 9027 533e 8323 f0bd 5d74 713e 82c9 543e
00000390: 9c42 8b3d be63 48be 5e5b 00be a21e 9cbd
000003a0: 86ac 66be 2d32 403e 08d6 9f3e 56a9 763b
000003b0: 4bd1 61be f0b2 9f3e 3a03 6f3e 2013 943e
000003c0: bccd d83e 5ac5 a93e ae28 923e fc2e 48be
000003d0: cb84 d7bd 9a2f 433e b1be 1dbe e711 0bbe
000003e0: a3d2 613e eafa 7ebe b35e 74be bdf1 343e
000003f0: cbf8 713e d99d be3e c220 6ebe 42d7 aabe
0.082883075 0.2221049 0.06136972 0.2711348 0.1586429 0.21850629 0.2733586 -0.15069632
-0.14599247 -0.09611073 0.1560786 -0.25443935 0.304023 -0.16322881 0.1369786 -0.30792308
0.16788507 -0.24790901 0.22237855 0.08265005 -0.05464913 -0.052662876 0.3423651 0.21086866
0.33835873 0.2330854 -0.10761041 0.30036998 0.14405227 -0.20457414 -0.27587572 -0.22952978
0.38597828 -0.22385147 -0.11750292 0.1520909 0.17395757 0.39548635 0.16354394 -0.32418352
0.15329231 -0.12924582 0.29209137 -0.2662542 -0.1371406 -0.11824027 0.15613276 -0.13950464
-0.29812536 -0.296018 -0.0093104355 0.32616654 0.05204838 -0.30356058 -0.05506014 -0.19211058
0.24426988 -0.0900465 -0.03421498 0.0966613 -0.029979806 0.2709256 -0.20585872 -0.0089526875
-0.3248812 0.03864065 0.25049567 0.2414081 0.29811487 0.019885385 0.16258368 0.1942627
-0.1081197 0.1907748 -0.07893439 -0.13523078 0.20651922 0.22369681 -0.22400917 0.12415099
-0.24352908 -0.3300215 0.18174009 0.0155107165 0.32578388 -0.23295185 0.23273 0.017654357
0.33950087 0.05989901 -0.21949883 -0.008530273 0.3121699 0.19986059 -0.22701436 0.32191685
0.2395241 0.07986025 -0.30318153 -0.09430197 -0.029972307 -0.18194747 0.2294988 0.049168073
-0.22028528 0.2498626 -0.2820375 0.16341841 -0.3499622 0.12051931 -0.36794695 -0.12694706
0.41416743 -0.2938608 -0.15863578 -0.24097586 0.0962675 0.18516456 0.3043137 0.37185174
0.13969956 -0.08248457 -0.02609845 -0.1674593 -0.15595523 0.18378502 -0.07957847 0.32963648
0.2673785 0.1342741 -0.045223508 0.3327623 -0.11117522 0.2505039 -0.24763909 -0.20297582
-0.18989989 -0.0037177254 0.21023522 0.3059996 0.19352216 0.18752342 0.13123393 0.112790816
-0.31936505 -0.16819854 0.20929544 -0.32355884 0.09688855 -0.3047002 -0.31147143 0.12768707
0.3536817 -0.11884026 -0.32945827 -0.35649756 -0.012613289 -0.22065587 0.34276494 0.3161183
-0.1450659 -0.040774275 0.15675205 0.19155227 0.09714669 -0.118879125 0.39196205 -0.18557718
0.2826737 0.11593159 -0.22651687 -0.25910857 0.29874814 0.30834952 -0.09210926 0.48736164
0.26979232 0.045241613 -0.15179391 0.019229293 -0.17959361 0.0674378 -0.0661039 0.16369037
0.301499 -0.196474 0.022130465 -0.013153637 0.25309736 -0.21764606 0.25151172 -0.31795982
-0.104042925 -0.13812475 0.22760433 -0.013915532 -0.13302992 0.11970933 0.17387019 0.16455017
-0.12477303 0.16560803 -0.2044672 0.31658125 0.10214966 -0.23790793 -0.37400714 0.12540041
-0.266679 0.0862776 -0.21096255 -0.12422228 0.29779303 -0.13146931 0.2805423 -0.18472894
0.19105656 -0.052668825 -0.40681517 -0.04930981 0.3876219 0.32589346 0.3717929 0.18970248
0.2062056 -0.11725523 0.23579545 0.20779994 0.06799814 -0.19569299 -0.12534854 -0.0762303
-0.2252675 0.1876914 0.3121798 0.0037637553 -0.22052495 0.31191206 0.23341075 0.2892084
0.42344463 0.3315838 0.2854666 -0.19549173 -0.10523375 0.19061127 -0.15404774 -0.13581048
0.22053008 -0.24900404 -0.2386425 0.17670341 0.23630063 0.37229803 -0.23254684 -0.33367354

action_layer.0.bias f4 [64]
00000000: 7270 0c3e af86 82be b2e4 8e3e c72c 4cbe
00000010: 2742 82be aae7 793d 607c 86be 4b59 4b3e
00000020: 5bcd 11be 5a56 1dbd c013 b13e 214b 2cbc
00000030: 6c8c adbd 9f52 5d3d 85a9 86be 3669 ffbd
00000040: a69b 9b3d c239 933d c731 7f3a ae35 53be
00000050: b08e 5dbe 0ef7 e23d 5a2e 32be 6cfc 4dbe
00000060: 1993 643e da2d 3bbe 58e5 4dbe 51a5 573d
00000070: b492 143d 184c 4dbe 4093 833e bfcf 41be
00000080: a948 ff3d ee05 863b 9f4d 1c3e 9b10 353e
00000090: dbed 98be 824a c73d 1861 263e 071b 84be
000000a0: 59e9 6ebd e95b c8bc 76fc a1be cab2 b63d
000000b0: db42 033e a865 81be 098e 80be a511 dfbd
000000c0: 587f 893a fe63 863e 43d2 66be 8f98 033d
000000d0: 8dd5 65be 1199 713e 16ef 7cbe 6a58 5ebe
000000e0: b66d 023e 2f01 953e 2144 283e f01e 3a3e
000000f0: 194a 98be c832 553e db74 943d ebb5 0abd
0.1371477 -0.2549338 0.27908856 -0.19938956 -0.25441095 0.061011948 -0.26266766 0.19858281
-0.14238493 -0.03841243 0.3458538 -0.010515959 -0.08474049 0.05403387 -0.26301208 -0.12471239
0.07598047 0.07188751 0.00097348954 -0.20625946 -0.21636462 0.11082278 -0.17400494 -0.20115823
0.22321738 -0.1827921 -0.20107019 0.052647892 0.03627272 -0.20048559 0.2569828 -0.18926905
0.12465031 0.0040900623 0.15263985 0.17682116 -0.2986897 0.09731008 0.16247976 -0.2580187
-0.058328006 -0.024457889 -0.31637925 0.0892082 0.12818472 -0.2527287 -0.25108364 -0.10892037
0.0010490222 0.26248163 -0.22541146 0.032127913 -0.22444744 0.23593546 -0.24700579 -0.21713415
0.12737164 0.29102466 0.16432239 0.18175864 -0.29744032 0.20820153 0.07248851 -0.033864897

action_layer.2.weight f4 [64, 64]
00000000: 7f67 003c 2b88 9bbd 905e a53d 48c5 f5bd
00000010: 9863 a43c 5a17 683d 8862 cb3c 9c15 e03d
00000020: 1e31 f73d bfa9 9d3d 1500 a2bb b352 b33b
00000030: 183a 4e3c b032 d43d b66c d63d a262 9e3d
00000040: f96b 6c3d 8ab0 f03c ae03 5cbc cccb 81bc
00000050: 04a4 5dbd 0e93 8ebd 8050 83bd db1f c6bd
00000060: 085f 38bd 4a8f aebd 0c02 77bd ff53 e3bd
00000070: b5a5 58bd 1292 88bd 3b6e 593d ac81 4abd
00000080: 02ad a0bd 19eb 1dbe 3372 913c 9c23 0c3e
00000090: b101 f23d 7506 c33d f81e a43c c215 ccbd
000000a0: aa20 ae3c 591c d93d 6c70 13bd d83e a93d
000000b0: 3f56 efbd 78c0 923d 9a7e 083c 0207 753c
000000c0: d18f 1e3d de2c c8bd faa1 e63d 06ff 0d3e
000000d0: a902 003e c13e 543b b2d1 ccbd 013f c53d
000000e0: 014a 8dbc 6b20 9b3d 145a 38bc 5cd3 db3d
000000f0: 109f a23a 5e32 2b3c a515 fe3a 6635 c73d
00000100: c329 b1bc cf56 57bd 3a7f 8d3d 47a4 e53d
00000110: b4a1 7a3d 4da0 d2bd ed88 aa3c 7988 8dbd
00000120: 249c db3d d8ca 3c3c eecf 88bc 23c5 e5bd
00000130: 8700 1f3d 284e f23d c0ea 2cbd 3235 2f3d
00000140: d368 333d 9dd4 5ebc 9561 5e3d f52e bebc
00000150: 719f c13d 293a 953d 2e05 8f3d 3d8e f8bc
00000160: e0df e1bd f780 b43b 4119 88bc 9164 a93d
00000170: 71d9 27bc 3a86 7b3c 7ac6 c7bd 4a28 81bb
00000180: 3c0f 613b 452f a53d 13d0 f4bd e380 e4bd
00000190: 3f3a e93d a888 a3bd 9c0c ab3a a5d3 40bc
000001a0: 3b85 a73d 833c 473d e60d f7bd 7037 c8bb
000001b0: 2b94 9dbd 6f6b 82bd eea5 d93d 4ea5 58bd
000001c0: 430f 54bc 535d c7bd 6162 85bd 85d4 873d
000001d0: 0355 3d3d 2539 cdbd 82a0 eabd 3c4f 41bd
000001e0: ef80 403d 9807 bdbd 0d35 c9bd cb7d 0cbd
000001f0: edaa c0bd d493 a43d da37 e4bc 4228 5fbd
00000200: 87dc ebbc f2cb 02be d734 a0bd 878e a9bd
00000210: 043c 9a3d ac1e 8ebb 939c fa3d c9bd 9fbc
00000220: 5ed5 6f3d f4fd c13d 7de0 863d ab35 5a3d
00000230: 71d4 40bc 3274 60bd 1322 533d 218f ad3d
00000240: a927 18bd 2616 8c3b 69e6 bf3d d0bb 0d3d
00000250: 2d19 c9bc e111 db3d d8e7 5a3c 9bf4 a4bd
00000260: da07 cfbd b78d f1bd fa77 07bb c86a 67bd
00000270: e9f8 dcbd bec2 ef3d a5e6 94bd eb8f d5bc
00000280: c313 dabd 9004 c93b 802f 71bc aa37 ccbd
00000290: e4ba 9d3c 2c40 b13c a1a9 9cbd 6cb9 c03c
000002a0: 2055 c23d 3cbf 86bd 8ad8 7fbd d902 8d3d
000002b0: c35a 8f3d 203b d83d bb82 833d fa31 0c3d
000002c0: 77e1 743d 2e87 81bd 0e9a bf3d fbd4 f6bc
000002d0: b8b7 df3c 9c85 d5bd 77b3 a03c cc0e 143d
000002e0: 4eb1 303d aba6 d7bd 5061 ae3d 00c7 61bd
000002f0: fb41 90bc 831f 823d ceeb e0bd 339e a73d
00000300: aaa1 4ebc f63a 0fbe 8b1c 8fbd 0074 b8bd
00000310: 41ae 28bd 191e 8c3d 89b9 703d cc4f b13d
00000320: 0168 36bc e363 ecbd 6d66 15be 683f 25bd
00000330: 7369 8fbc 691c d43d 8800 41bd b303 9b3d
00000340: 1331 a9bd 7343 9d3c 1d31 af3d 32b4 dd3c
00000350: 12ec a33d c30a 7cbc f7a4 373d 1bd8 91bd
00000360: 0a96 1e3e f065 923d 9155 15be 1e11 a53b
00000370: 6871 943d 7536 69bd b20c ac3d 0fb8 babc
00000380: 573c a9bd 2ec3 d7bd 4107 c8bd b279 1f3e
00000390: 0c78 babd 3925 61bc 8949 db3c 6366 9c3d
000003a0: e397 c03d 26c5 7c3c 3594 2abd b1f2 06be
000003b0: 94dd 66bd 9245 d9bb 439d 9ebd 1480 433d
000003c0: 829e a23d 183a 44bc a11f 5c3d 51a9 6f3d
000003d0: 5c08 c83d fdd2 d13c 32cd a9bb 77f3 b2bd
000003e0: a3d2 e33c 56bf 97bc 3e5e 933d 850a 7a3d
000003f0: 3fc4 b4bd d56f 253c 9540 90bd b42c b33d
0.007837175 -0.07594331 0.08074677 -0.12000519 0.020067021 0.056662895 0.024827257 0.10941622
0.12069915 0.07698392 -0.0049438574 0.005472505 0.012587093 0.103612304 0.10469954 0.077336565
0.05772016 0.029381055 -0.013428612 -0.015844248 -0.054111496 -0.06961642 -0.064118385 -0.09674045
-0.045012504 -0.08523424 -0.060304686 -0.11100005 -0.052892406 -0.06668486 0.05308364 -0.04944007
-0.078454986 -0.15421714 0.01775465 0.13685459 0.11816729 0.09522716 0.020034298 -0.099650875
0.02125581 0.1060111 -0.035995886 0.082639396 -0.11686372 0.07165617 0.008330965 0.014955284
0.038711373 -0.09774183 0.11261363 0.13866815 0.12501015 0.0032386037 -0.10000934 0.09631158
-0.017247202 0.075745426 -0.011251945 0.10733673 0.0012407023 0.01044902 0.0019385113 0.09726982
-0.021626359 -0.05257302 0.06909032 0.11212974 0.06118937 -0.10284481 0.020817244 -0.06910796
0.10723141 0.011522971 -0.016700711 -0.112192415 0.038818862 0.11831313 -0.042216063 0.04277534
0.04380114 -0.013600496 0.05429228 -0.02321575 0.09454239 0.07286484 0.0698341 -0.030341262
-0.11029029 0.005508538 -0.016613605 0.08271135 -0.010244713 0.015351826 -0.09754653 -0.0039415704
0.0034341356 0.080656566 -0.119537495 -0.11157396 0.11388063 -0.079850495 0.0013050023 -0.01176921
0.081797086 0.048641693 -0.12063198 -0.0061101243 -0.076942764 -0.063681476 0.10627352 -0.05289202
-0.012943092 -0.09734597 -0.06512905 0.06632332 0.04622365 -0.10020665 -0.11456396 -0.047194704
0.04699796 -0.09229964 -0.09824572 -0.034299653 -0.094076015 0.080360085 -0.027858663 -0.054481752
-0.02879168 -0.12773111 -0.078225784 -0.08279138 0.07530978 -0.0043371525 0.122368954 -0.019499676
0.058553092 0.09472266 0.065857865 0.053273838 -0.0117694 -0.054798312 0.051546168 0.08474565
-0.037147198 0.0042751012 0.09370119 0.03460294 -0.024548138 0.106967695 0.01336094 -0.08054467
-0.101089194 -0.11794608 -0.0020670877 -0.05649832 -0.10789663 0.11707066 -0.072705545 -0.026069602
-0.106483005 0.006134577 -0.014720798 -0.099715546 0.019254155 0.021637045 -0.07649542 0.023525916
0.094888926 -0.06579444 -0.062462367 0.06885309 0.06999733 0.10558152 0.06421419 0.03422735
0.059785333 -0.063246116 0.093555555 -0.030130854 0.027309284 -0.104258746 0.019616826 0.036146924
0.04313784 -0.10529836 0.08514655 -0.05512142 -0.017609587 0.06353667 -0.10982476 0.08184471
-0.012611786 -0.13987336 -0.06987866 -0.090065 -0.041181806 0.06841678 0.05877069 0.08657798
-0.011133195 -0.115424894 -0.14589854 -0.040343672 -0.017506337 0.10356981 -0.047119647 0.07569065
-0.08261313 0.019197201 0.085542895 0.027063463 0.08004011 -0.015383425 0.044835057 -0.07121297
0.15486923 0.07148349 -0.14583422 0.005037441 0.07248193 -0.0569367 0.08400859 -0.022792844
-0.08263462 -0.105352744 -0.097670086 0.15573767 -0.091049284 -0.013741785 0.026768463 0.07636716
0.0940397 0.015427863 -0.041645247 -0.13178517 -0.056363657 -0.006630608 -0.07744839 0.047729567
0.07940389 -0.011976741 0.0537411 0.058511082 0.097672194 0.025613302 -0.005181932 -0.087378435
0.0278104 -0.018523853 0.0719571 0.06104519 -0.088264935 0.010097464 -0.07043568 0.08748761

action_layer.2.bias f4 [64]
00000000: 2f94 0abd 53c5 ddbd 1489 cf3d 12cb f13d
00000010: 917b 3abd 21ef 07bd 146a 6bbd 6488 80bd
00000020: 1e5b b53d 9ce2 bf3c 6dae 89bd 2909 453d
00000030: f51d cfbc bf98 f33d 33ce 8dbd a2a1 e03c
00000040: ec62 ecbd 9028 57bd 8e3f 313d dd19 663d
00000050: 7994 bebd 3d4e 8f3d b575 b5bd 906d f33d
00000060: db84 50bd b971 c43d af03 963d 578d 973c
00000070: ec41 df3c 7faf 82bd 23f8 6bbd b1e5 dfbb
00000080: 6de8 d6bd 1872 a53d 4672 b9bc 47b8 d0bd
00000090: a8b1 9bbd 1e57 d8bd 31ef 553d 2e5f f23d
000000a0: 6873 563c a131 dc3d c178 b2bd e746 b13c
000000b0: 35d3 a13c d0ef 20bc 0469 5e3d b91e cd3b
000000c0: fcd1 133d ebfb 93bd 3bcb eb3d a61d 6d3c
000000d0: 9b82 a9bc d356 c13d fdf0 ec3d 0e29 153d
000000e0: 092a dcbd 094d 9a3d a34a c5bd bbc2 c7bd
000000f0: a39f 26bd f082 793c 3cde aabd 1bac 8b3d
-0.033832725 -0.10828652 0.101335675 0.11806311 -0.045528 -0.033187035 -0.05747421 -0.062760144
0.0885527 0.023423485 -0.06722722 0.04810444 -0.02528284 0.118943684 -0.06924095 0.027420823
-0.11542305 -0.052528918 0.0432735 0.05617701 -0.09305663 0.06997345 -0.088603415 0.11886132
-0.05090795 0.095920034 0.07324921 0.018500013 0.027253114 -0.063811295 -0.05760969 -0.0068328013
-0.104935504 0.08078402 -0.022637498 -0.10191398 -0.076022446 -0.10563491 0.052230064 0.1183456
0.013089038 0.107516535 -0.08714438 0.021640254 0.019754032 -0.009822801 0.05429937 0.006259766
0.03608893 -0.07225784 0.115133725 0.014472401 -0.02069216 0.094403885 0.11569402 0.036416106
-0.10750205 0.075342245 -0.096333764 -0.09753939 -0.040679585 0.015228972 -0.08343169 0.06819936

action_layer.4.weight f4 [4, 64]
00000000: 1289 eabd d9ae 983d 054c 53bd c5d9 f5bd
00000010: 2096 a53d 8bb4 e33d dbc3 bd3c 5621 38bd
00000020: d037 df3c 015f 4f3c 608c 273c 69d9 91bd
00000030: 87c6 a8bd a1be b5bd c59f 53bd 5bf9 68bd
00000040: 03c3 cc3b 8c7d 553d 6e70 8cbd a714 9c3d
00000050: dfa8 ac3c 1e87 43bd 3e88 473c e239 27bd
00000060: 4036 91ba 6080 9dbb edf2 203d 1eed ce3d
00000070: ec51 963c 1f5b e5bd 022f 26bc 7326 b5bd
00000080: c897 85bd cdd8 3b3d 6926 1e3d 6ac6 b13d
00000090: 4162 ed3c 9e05 25bd 22f6 16bd 81ee 92bd
000000a0: 42d2 2bbd 3e52 e13d 43f8 823d d64d a73d
000000b0: e550 cd3c bbdf 85bd 9bb8 ae3d 64f9 80bd
000000c0: 8206 6b3d cefd a3bc 4e14 ee3c bff0 d93d
000000d0: 85b5 923c 5e15 e5bd ba7f a9bd 6981 1c3d
000000e0: 7221 3cbb 189f b6bd cf15 073c ac58 d63d
000000f0: 5cad 7abd 2681 58bd e583 af3d ffb3 9d3d
00000100: 7257 8f3d 16f1 dcba f6a8 89bd c2f9 edbd
00000110: bf6a 263d cc4d 62bc b666 a73d 2b51 08bd
00000120: ca63 cc3d ba02 f7bd be18 7e3d 3c6d 31bd
00000130: df19 8dbd ec6f 333d 0a99 b3bc 4357 dabd
00000140: 481f e6bd 3264 bbbd eab3 ba3d 0953 a83d
00000150: b9eb afbd e5c8 b13d 3bd7 03bd 64ec 843d
00000160: 12b7 5dbd b58c 9abb 1e3e 86bd 77a9 c1bd
00000170: b419 fbbc ba89 443d bd06 ad3c 304a c33d
00000180: 0609 c8bd 064c fc3d b7bd e0bc 44b1 e4bc
00000190: fdb3 19bd 2377 ebbd a259 29bd 160f 67bd
000001a0: c29e 0bbd 3e91 353d fc39 d63d f2c7 c4bd
000001b0: d3e9 05be 2e08 efbd 1386 53bc c918 a8bd
000001c0: abf2 adbc b37a ca3d 5b5c a53d e533 8b3d
000001d0: ebca eb3d 9bf1 d6bd 1f5a 1fbe 69c4 383d
000001e0: 081f a2bd dbb7 58bd 0e72 12bd 61c3 5cbd
000001f0: 816f b2bd a3d3 cd3d 2dae 1f3d 868f 59bc
00000200: 1af2 4d3d 4fbc 1dbb ef9d 94bc 4510 8a3c
00000210: 66c4 983d 2dfd e63c d609 493d 1631 8dba
00000220: db7d 53bc ee61 d13c f507 f33d 09a0 1b3d
00000230: 38eb 0dbc f016 cdbd 3548 5dbd 7670 91bd
00000240: f541 73bc 4f1e 84bd 0dc4 b83c 1c8c c63c
00000250: 8087 ddbd 8ee7 5abd e2a6 5c3d 79f3 11bd
00000260: 6c60 c5bc b51f 8a3d cf56 bcbd cb06 d93d
00000270: 0daa 273d 96f1 88bd f67b fcb8 9ac6 613d
00000280: da49 0ebd 4f42 84bd 714d 32bd 74ce af3d
00000290: 6e6c dbbd 061f a53d cf9e 0abc 2480 cf3d
000002a0: eb6a 29bb 3764 6dbc ed20 553b 19f6 dfbd
000002b0: 482b 1a3d d5fc 943d 2664 96bd cd8d 99bd
000002c0: d77d 2cbd 43ef 3d3c afb9 4bbd 5db3 cfbd
000002d0: 66bf 79bb 8ac2 943d 6234 b9bd 4f59 8a3d
000002e0: 7978 43bd e8ac cabc 145e e63d b1e1 f03c
000002f0: 421a f2bd 37f0 8fbd c2be b83d ba60 153d
00000300: 60e2 90bd cd92 31bd dc00 67bd 23d3 a8bd
00000310: c5bb 243d 51bf 6fbd 8851 cb3c e81f 0bbd
00000320: 779c 70bd 7f20 61bd dd2b ba3d 28ef af3d
00000330: d3ed 8b3d 78f5 d93c 3f70 aebc 3cea 733d
00000340: fd7d 2c3d 811b 953d 696d 4e3d d8c0 52bc
00000350: dee9 8a3d 07e1 36bc 0fc5 4e3c 49e6 23bc
00000360: 7a59 c43c 1e3a a53b 7214 82bd ffb1 f13d
00000370: c6dd d53c 1c18 b2bd d9ba 063d aba9 8fbd
00000380: 87f6 c53c 50aa 8cbd ce6e 26bd f18b c63d
00000390: 9848 36bd bb6f 65bd 1bbe a9bd 6e06 903d
000003a0: 5e7d 9ebd b226 e53d 4e8e 9fbc 8a2a 213d
000003b0: 2bea 943c 9f5b 003e d0fc 54bd 65a5 9bbd
000003c0: 9fe5 ad3d 56ed f3bd 2c63 1b3d 22b1 4d3c
000003d0: 2586 fcbc 1eb8 8abd 6b9d 493d 2b81 073d
000003e0: 8512 973d d094 be3d 0a9d aa3d c022 c93d
000003f0: 1432 98bd 745e 47bd dd93 75bd 9de7 23bd
-0.11451925 0.074552245 -0.05158617 -0.12004427 0.08085275 0.1111842 0.02316468 -0.044953667
0.027248293 0.012656928 0.010226339 -0.07121546 -0.08240991 -0.0887425 -0.05166604 -0.05687843
0.006248833 0.052121684 -0.06857382 0.076211266 0.021076618 -0.04773628 0.012178479 -0.040826686
-0.001107879 -0.0048065633 0.039294172 0.1010382 0.01834961 -0.111990206 -0.0101430435 -0.08845224
-0.065230906 0.045861054 0.03861085 0.086804226 0.028977515 -0.04028856 -0.036855824 -0.07174397
-0.041948564 0.110020146 0.063950084 0.08169143 0.025062988 -0.06536814 0.085313044 -0.062975675
0.057379253 -0.020018484 0.029062416 0.10641622 0.01790882 -0.11185716 -0.08276315 0.038209353
-0.0028706458 -0.089170635 0.008244946 0.104661316 -0.061200485 -0.05285754 0.08570079 0.07700347
0.06999101 -0.0016856517 -0.0672168 -0.11619903 0.040629145 -0.0138124935 0.081738874 -0.033280533
0.09979971 -0.12061067 0.062035315 -0.043317065 -0.068897 0.04380791 -0.02192356 -0.10661175
-0.11236435 -0.0914997 0.09116347 0.08218963 -0.085898824 0.08680896 -0.03218768 0.064904004
-0.054129668 -0.0047164806 -0.06554817 -0.09456151 -0.030651905 0.04798291 0.021121377 0.095356345
-0.09767346 0.12319188 -0.027434213 -0.027916558 -0.037525166 -0.11497333 -0.041345246 -0.05641087
-0.03408695 0.044327967 0.104602784 -0.09608449 -0.13077478 -0.11671482 -0.012910384 -0.082078524
-0.021233877 0.09886684 0.08074256 0.067970075 0.11513313 -0.10495301 -0.15561722 0.045109186
-0.07916075 -0.052909713 -0.035753302 -0.053897265 -0.08712674 0.10050132 0.038984466 -0.013278848
0.050279714 -0.002406854 -0.018141715 0.016853461 0.07459335 0.028196895 0.049081646 -0.0010772075
-0.012908424 0.025559392 0.11866752 0.03799442 -0.008662038 -0.100141406 -0.05402394 -0.07101528
-0.014847268 -0.064510934 0.022554422 0.024236731 -0.1081686 -0.053443484 0.05387009 -0.035632584
-0.02409383 0.06744329 -0.09196245 0.10596999 0.040933657 -0.06686704 -0.00012039386 0.05512104
-0.0347384 -0.0645796 -0.043530885 0.085843 -0.10714041 0.08062558 -0.0084607145 0.10131863
-0.0025851082 -0.014489225 0.0032520846 -0.10935611 0.037638932 0.072747864 -0.073433205 -0.074977495
-0.042112198 0.011592689 -0.04973763 -0.10141633 -0.0038108467 0.07263668 -0.09043194 0.067553155
-0.047722314 -0.024740651 0.11248413 0.029404493 -0.118214145 -0.07028239 0.09020759 0.0364692
-0.070744276 -0.04335289 -0.056397304 -0.08243396 0.040218133 -0.058532063 0.02481915 -0.033965975
-0.058742967 -0.05496263 0.090903975 0.08590537 0.06832471 0.026606306 -0.021293757 0.059549555
0.04211234 0.072806366 0.05039731 -0.01286336 0.06782888 -0.011162049 0.012620225 -0.010003635
0.023968447 0.0050423285 -0.06351556 0.11801528 0.026106726 -0.08696005 0.032893036 -0.070147835
0.024165405 -0.06868422 -0.040633015 0.096946605 -0.044502825 -0.056014758 -0.08288213 0.07032476
-0.07738756 0.11189021 -0.019477036 0.03934721 0.018178066 0.1253495 -0.051998913 -0.07599906
0.084910624 -0.119105026 0.037936375 0.012554439 -0.030825684 -0.06773399 0.04922239 0.03308217
0.07376579 0.093057275 0.08330734 0.09821081 -0.07431427 -0.048674062 -0.059955467 -0.040015806

action_layer.4.bias f4 [4]
00000000: 25c9 c3bb f72b ad3d 105a 653d 50df 25bd
-0.005974906 0.08455651 0.055994093 -0.04049617

value_layer.0.weight f4 [64, 8]
00000000: 6c1e ae3e 5236 d43e eeb8 b73e 7ac2 00be
00000010: 12ef edbe 3921 d9be 0238 22be dfc7 77bc
00000020: de8e 193e fe23 9e3e 57a4 ce3c 9a3c 17be
00000030: 2d5d 253e 1bcc 10be cfec 4c3d e81b 693b
00000040: cef5 70be 7ec7 a5bd 9b1a 0d3e 7afd acbc
00000050: 75a0 4abe 9bf3 aabe ced1 03be 7c4a b8be
00000060: 34ad b63d 7534 2abe 63d3 da3d ac8f ae3e
00000070: 739b cc3d 371e 21bd a2a7 8cbe 6c03 1abf
00000080: ad63 623e 91d8 c4bd 21fb 133d f028 093e
00000090: a798 053d d642 b43e 0071 103e fa31 0bbf
000000a0: a254 683c 2d53 ee3d 9193 93be 3b67 283e
000000b0: f89a 53be 319f be3d 7fc9 09bf 1e51 70be
000000c0: 9490 07bf fcf5 5fbe 395a 01bf d70b d33e
000000d0: 93f1 653e ab2e ae3e 1119 e13e 8b83 56be
000000e0: a277 72be c38a 463c 1e63 8b3e 88ab 443d
000000f0: 2be2 8bbe 467a e1be 88e1 46be 89c3 073f
00000100: 2169 823e 2ce2 2a3e 3a4a 43be 9e4a bebb
00000110: f97a 86be def0 cb3e f9f7 2f3f 6c93 873e
00000120: 8574 503e 673d 51be d068 403e 3036 f43c
00000130: 87e8 0dbf 98b3 37bf c661 c13d 9a57 f5ba
00000140: c4c2 313e 9f16 0f3e 0802 0a3e c3b4 8d3e
00000150: e7a4 eebe 2bae 1cbf 346a abbe 98cc 0dbd
00000160: f2fc 9e3d f654 053e dab2 65bd dcf1 b6bd
00000170: 28fe cc3e 15a1 c23e 4c86 3bbe 470a 8abd
00000180: 273b c5bd 90c2 7b3e 49ef fcbd 6900 453e
00000190: 9b2d 63bd ee43 1bbe 3488 c5be 05e5 723e
000001a0: 76a2 813e e6c3 a0bd ca44 813e 32a2 6b3e
000001b0: 6568 5b3e a402 b73c 7306 8fbe 91d9 fdbe
000001c0: 9cf9 8abe 8f67 e2bd 6801 86be fd61 b33e
000001d0: b495 283f 09fe 923e 9c7d 31be 097b 5c3e
000001e0: 683f 8f3e b6ee 2e3d a8f9 093e c631 99be
000001f0: 19c4 31be 1208 54bf 973e 94be 8b57 8dbd
00000200: bfbe 783e 315a 2ebe 7ca0 963e a2ef ab3e
00000210: da63 e4be a97e 11bf 2f08 f63e f56f a9bd
00000220: 858b d03d 4d95 76be 5f53 55be 7156 603e
00000230: 4776 22be 91bd a1bd b7df febe 4809 173d
00000240: 5daf a0be d8a8 af3e d719 123d e476 8ebe
00000250: 80cd cabe 242c c3be 083e 723e 05a7 8bbe
00000260: 94c8 99be 8e5a bdbd f686 83be c28a bb3e
00000270: 7a6c 1dbd b4c8 1b3e f93f e43e 71a8 763e
00000280: e2c3 90be 0261 f6bd cbfe 8fbe d005 8a3e
00000290: 6800 a43e 1619 063f dd2a f13e 7ebc 54be
000002a0: 5ede 453d 4d64 a23d c74d 32be 51de 4bbe
000002b0: ecc3 123e ce2f 283e e733 c43e 9d99 9ebe
000002c0: 1cc3 bcbd 37a4 8f3e 8c4b 85be 7919 86bd
000002d0: ca97 b83e 37fd 183f 2f32 e73d 4733 623e
000002e0: b894 54be 36c8 77be c666 8cbd 97f8 27bd
000002f0: 3cc4 a53c 8c52 97be bc5d 203b 8134 43be
00000300: 1099 9bbd 821b 673e 296b 593e 8a48 94be
00000310: d886 eebe ef27 f1be 0d63 b2be 2524 e53e
00000320: cf0b a33b dd96 d33d 9a26 ec3a e192 f83c
00000330: e2a8 8fbd defe 87bd b766 bebd d7c0 343e
00000340: 0c04 d03d ccaa fbbd e9dd 04be 6c31 a43e
00000350: a976 75bd 7bd0 0cbe 1226 193e 72b0 36be
00000360: 03e2 663e 6fa6 fb3d 9d6f 8a3c b06a 513e
00000370: 66de a0be 1987 173d f49b a0be 1ab2 883e
00000380: 5894 2dbe df4c 843d fdd4 d13d 9027 853e
00000390: f331 863e 1eaf 5fbe 10bd 123e 69c7 99be
000003a0: 8831 a3bd 223b 4b3e f257 ebbd 4811 3ebe
000003b0: 91c5 c7bd 32ae 8d3d 8fc7 013e 1bfd 113f
000003c0: 29d2 df3e 5646 bcbe bb9e ec3e f27f 903e
000003d0: eb51 d93c 2d0f 5bbe f322 4b3c 0e4e c33e
000003e0: 8edd 83be ceec 183d 5df0 463e 95eb 6fbe
000003f0: c0d6 96be 90b5 5b3e aeb0 5cbb 4b4e d03e
0.34007585 0.41447693 0.35883278 -0.12574187 -0.4647146 -0.4240816 -0.15841678 -0.015123337
0.14995906 0.30886835 0.025224848 -0.14769211 0.16148825 -0.1414036 0.050030526 0.0035569612
-0.23531267 -0.08094691 0.1377968 -0.02111696 -0.19787772 -0.3338898 -0.12873003 -0.35994327
0.089197546 -0.16621573 0.1068485 0.34093988 0.09990587 -0.039335456 -0.27471644 -0.6016147
0.22108336 -0.09611619 0.036128167 0.13394523 0.032616284 0.35207242 0.14105606 -0.54373133
0.014180334 0.11636958 -0.28823522 0.1644563 -0.20664585 0.09307707 -0.53823084 -0.23468444
-0.52954984 -0.2187118 -0.50528294 0.4121997 0.22455435 0.3401998 0.43964437 -0.20948617
-0.23678449 0.012118044 0.27224058 0.048015147 -0.2732099 -0.440386 -0.19421971 0.5303274
0.25470832 0.1668784 -0.19071284 -0.005807235 -0.26265696 0.39832205 0.6873775 0.2647966
0.20356949 -0.2043358 0.18789983 0.029810995 -0.55432934 -0.71758413 0.09442477 -0.0018718124
0.17359453 0.13973473 0.13477337 0.27676973 -0.46610186 -0.6120326 -0.33479464 -0.034618944
0.07763089 0.13020691 -0.05607877 -0.0893285 0.40037656 0.3801352 -0.18312949 -0.067402415
-0.09630423 0.24585938 -0.123503275 0.19238438 -0.055463415 -0.15162632 -0.38580477 0.23720177
0.2531926 -0.07849865 0.25247794 0.23011091 0.21426542 0.022340126 -0.27934608 -0.49580052
-0.27143562 -0.110549085 -0.26172948 0.35035697 0.6585343 0.28709438 -0.17333072 0.21531309
0.27978063 0.04270812 0.13474143 -0.29920787 -0.17359962 -0.82824814 -0.28954002 -0.06901463
0.24291514 -0.17026593 0.29419315 0.33581263 -0.4460743 -0.56833893 0.4805312 -0.08273307
0.10182861 -0.24080391 -0.20832585 0.21907975 -0.15865432 -0.07897485 -0.49780056 0.036874086
-0.31383792 0.34308505 0.035669174 -0.2782508 -0.3960991 -0.38119614 0.23656476 -0.27275863
-0.3003584 -0.092457876 -0.25688905 0.366293 -0.03843353 0.15213281 0.44580057 0.24087693
-0.28274447 -0.120302215 -0.2812408 0.2695756 0.3203156 0.5238203 0.47103015 -0.20775029
0.04830777 0.07929287 -0.17412482 -0.19909026 0.14332551 0.16424486 0.38320848 -0.30976573
-0.09216902 0.28054973 -0.260342 -0.06547827 0.36053306 0.59761375 0.11288869 0.22089873
-0.20759857 -0.24197468 -0.0685554 -0.041008558 0.020235173 -0.29555166 0.0024469933 -0.19062997
-0.07597554 0.22569087 0.21232285 -0.28961593 -0.46587253 -0.4710078 -0.34841195 0.4475414
0.004975773 0.10331509 0.0018016875 0.030343475 -0.07014634 -0.06640409 -0.09296935 0.17651688
0.10157022 -0.12288436 -0.12975277 0.32068956 -0.059927616 -0.13751404 0.14955929 -0.17840746
0.22547154 0.12287604 0.016898924 0.20450854 -0.31419677 0.036994074 -0.31368983 0.2669838
-0.1695112 0.064599745 0.102457024 0.26006746 0.26209983 -0.21844146 0.14329934 -0.3003495
-0.07968432 0.19846776 -0.114913836 -0.1856128 -0.0975448 0.06917991 0.12673782 0.57026833
0.43715027 -0.36772412 0.46214852 0.28222615 0.02652832 -0.21392508 0.012398469 0.38145489
-0.2575497 0.03733521 0.19427629 -0.23429711 -0.29460716 0.2145598 -0.0033674645 0.40684733

value_layer.0.bias f4 [64]
00000000: 83ef a5bd c0ec d13e bfd8 49be d8a2 e7be
00000010: 7f47 7dbe 3711 a9be 954f 7dbe a5db a13d
00000020: f93d 3e3e 4c81 32be a168 87be dfe5 0f3d
00000030: 372b 72be 67f6 dabe 88c6 48be 7a65 683c
00000040: 3d4b c3bd 367f ccbe 3a24 7cbd 5ff3 e13d
00000050: dfc3 8cbe 78a9 acbd 9c71 bd3d 4a10 c4be
00000060: e3da c0bb 7b4f bd3e 2ecf aebe 7cbb 56be
00000070: 590e 743c 4c18 083f 163b c33d c0ee a53e
00000080: ca59 9ebe cc1d 8b3e a224 9fbe 1215 7e3d
00000090: 553a 38bd ba9b 0f3f ab8f 2f3e 872f cebe
000000a0: 4198 313e c147 b2be 907d 0fbd a6ee 0b3e
000000b0: 94eb 88be d26f 803e 5316 91be e754 eebc
000000c0: 2658 e9bd 42c2 82be 755e 583e 4090 1d3e
000000d0: e089 71be dc41 fa3d cbb2 a7be 7688 8d3d
000000e0: 666a 80be 8249 653e 851f 09bd bb4a d63d
000000f0: 81ac d3be db7e 4f3e 10e9 eebd 1fa3 1c3e
-0.08102324 0.41000938 -0.19711588 -0.45241427 -0.24734305 -0.33020946 -0.2473739 0.07903222
0.18578328 -0.17432135 -0.26447013 0.03513133 -0.23649298 -0.42766115 -0.19606984 0.01418435
-0.09535835 -0.39940804 -0.061557986 0.110327475 -0.27493188 -0.08430761 0.09250185 -0.38293678
-0.0058854683 0.369747 -0.3414244 -0.20969957 0.014895999 0.53162074 0.09532754 0.32408714
-0.3092788 0.2717117 -0.31082636 0.062031813 -0.044977505 0.56096995 0.17144649 -0.40270635
0.17343237 -0.3482037 -0.035031855 0.13665256 -0.26742232 0.25085312 -0.28337345 -0.029093219
-0.11393766 -0.25538832 0.21129782 0.15387058 -0.23587751 0.12219593 -0.32753596 0.069107935
-0.25081176 0.22391322 -0.033477325 0.104634725 -0.41342548 0.20263235 -0.11665547 0.15296601

value_layer.2.weight f4 [64, 64]
00000000: a241 913b dbff d03d 9fea d0bd c5f8 d5bd
00000010: d6ef 45bd 72bb 2f3d 77f8 043e 5a18 f93d
00000020: ca32 353c 9144 c73d 8745 d6bd 508b 30bc
00000030: e460 a9bc e360 4dbd 9fee 5a3d f990 c33d
00000040: fb8a e23d da2f d9bd 8ec7 34bd 1c38 1abd
00000050: 08ac b13c b999 2e3d 3f8a 2bbe 7222 8f3c
00000060: 1bb1 aebd 3a50 f33c 1ff9 7ebd 96b5 2dbd
00000070: 25b2 0cbc 53b7 063e fa89 efbc cd9c 76bd
00000080: 905c c0bd adaa 8a3d 4abb 2d3d 5c18 c2bc
00000090: b265 06bd 76a6 3e3d 4865 b13c 0497 833d
000000a0: 1f42 e03d 6a44 b3bb 08ae f03d 5c7e b53d
000000b0: 8b6b b8bc c875 8138 2a6a ab3d 298a a23c
000000c0: 9261 b7bd 8a85 103b 88f5 313e 07d5 96bd
000000d0: 1c5f b2bd dab7 13bd fd89 8e3d 5add 823d
000000e0: d126 36bd 7f87 e6bd 0922 31bd b200 9ebd
000000f0: f8f9 dd3d f63d cabd 093b 203d bb5f 4d3d
00000100: e096 673d 9402 c33d 0620 d43c 9bee 49be
00000110: 34e8 e3bc d596 68bd faba afbd 3f75 a7bd
00000120: 460e d83d 3028 103e 1451 0cbe 5d2f adbd
00000130: b8c6 34be e154 10be 695c 0ebd 1625 a4bd
00000140: 4ab8 c63d 57eb 2abe 6522 1dbd ba7b e9bb
00000150: ffed 803d 0ffb e5bd ba95 eabd 49cc 48be
00000160: 7702 b23c 9bfb a9bc 5442 edbd 477e 55bd
00000170: a313 253d 012f 303e a7d3 163d d2b3 143e
00000180: f50c 8a3d 742a 443d b12c 003d b4fa 0fbe
00000190: 2e70 813d d2d0 4e3e ef8b f13d 5545 9cbd
000001a0: 0263 f8bd 417e 2ebe 0cfe 57bc 3ae7 cb3d
000001b0: 2b27 53bd 1c3b 903c c9a8 f23d 079b 18bd
000001c0: e0b7 2cbe 4e14 8a3c 7b5a 953d e7a5 f33d
000001d0: ad1c 89bd 26b7 673d f7ca bdbd fbae 9cbd
000001e0: eed2 503d 050a 51bd e371 9bbd 6aa7 153e
000001f0: 49c8 e23d 450c fa3d 5dd8 c5bd d760 97bd
00000200: 9424 a4be aaf9 973a 132c d8bd f752 cf3d
00000210: bd7d 873e 4fe4 2e3e 1790 bf3e 62b7 89be
00000220: afa8 c2bd 8df2 25be c45d 3abe 3e07 d73d
00000230: 24ca ebbc 6169 b83d 0aab c13e 9c6f 7dbe
00000240: 85db acbd ce7b b13d b507 79be ca50 02bd
00000250: 1d94 8d3e 2574 89bd 618c ed3a 8056 c5bd
00000260: 9873 c0be fbe1 5fbd ef76 923d bdbd 773d
00000270: 4ed8 d13d 0a8f 3cbe ebbd a4bc 253a 3cbd
00000280: 8f3b 00bd 1819 063d 2b1f 18bd 36b9 3cbe
00000290: 8af0 c1be 69f2 1ebc 5f14 25be 0c18 753e
000002a0: 95f0 10bd bbf2 39bc 4326 cc3d 33ed 1fbe
000002b0: cabe bfba 6d06 18bc ce98 ca3e 2c05 ce3c
000002c0: a54f 27bd 7791 b93e 4f57 12bd ff55 0ebe
000002d0: 3484 b63d e5cd 8bbe 1300 943d 9944 163e
000002e0: 4ef0 843e 2e1c 4cbd a021 493b f9d5 4fbe
000002f0: 1bb5 cfbc 4e22 3ebd e677 a6bd 4cb6 103e
00000300: 464d c8bd 794c dabd 48ee 59bd dcec 90bd
00000310: 5a07 8d3d 8909 a63d 9bea 9dbd 1505 a3bb
00000320: ba26 0f3d 060b 01be 0d6f b23d bbad b93d
00000330: f962 b23d 4dae 7f3d eb30 5abd 5531 c23d
00000340: 3df6 09be 07c4 223e cb0d 45bd ff1f 80bc
00000350: 1b6c c8bd 9830 9aba 538d d43c 78a1 ac3d
00000360: 564f 94bd 3a97 9fbc 579a c23d f01b 08bc
00000370: ede9 7a3d 3d59 633d dbdb c43d 3a4a 093d
00000380: 010a 83bd 36a5 b13c cab7 4b3c 921e 8fbd
00000390: 2e66 1ebd 5b8f d33c 98b1 a53c d5c4 b93c
000003a0: 48c5 d33d 9724 5f3c a6b6 153d f7eb f6bc
000003b0: d457 8f3d 2432 02be 734c 74bd 8070 3abd
000003c0: 72b6 003c cd96 cf3d 26e1 9b3d 8527 c73d
000003d0: d8c2 0d3d 14df 073d 96b0 9abb 11f8 9abd
000003e0: 8bf7 dabd a1c6 9abc 8caf 0dbd b067 8a3d
000003f0: a959 dabd 73c5 3f3d 6dba 263d 4c5e b83c
0.004432873 0.102050506 -0.102010004 -0.1044784 -0.04832443 0.04290337 0.12985407 0.12162848
0.011059472 0.09729875 -0.1046248 -0.010775402 -0.020676084 -0.050141227 0.053450223 0.09549136
0.11061665 -0.1060483 -0.044135623 -0.037651166 0.021688476 0.04262707 -0.16751955 0.01747248
-0.08529874 0.029701341 -0.0622493 -0.042409502 -0.008587395 0.1315587 -0.029240597 -0.06020813
-0.09392655 0.06770835 0.04241494 -0.023693256 -0.032811828 0.04654547 0.02165474 0.06425288
0.109501116 -0.005470802 0.11751944 0.08861992 -0.022512218 6.173138e-05 0.083698586 0.01984127
-0.08954157 0.0022052252 0.17378819 -0.073648505 -0.08709547 -0.036064006 0.06959913 0.06389876
-0.044470612 -0.112563126 -0.04324535 -0.07714976 0.108386934 -0.09875099 0.0391188 0.050140124
0.05654037 0.09521976 0.025894176 -0.19719927 -0.027820684 -0.05678447 -0.08580585 -0.0817666
0.105495974 0.1407783 -0.13702804 -0.084562995 -0.1765393 -0.14094879 -0.034756098 -0.08014886
0.09703119 -0.16691338 -0.03836288 -0.007125345 0.06295394 -0.11229526 -0.11454339 -0.19609179
0.021729691 -0.020749858 -0.11584917 -0.05212238 0.04030193 0.1720543 0.03682294 0.14521721
0.067407526 0.04789205 0.03129262 -0.1406048 0.06320225 0.20196846 0.11794268 -0.076304115
-0.12128259 -0.1704035 -0.013183128 0.09956212 -0.051551025 0.01760631 0.118485995 -0.03725722
-0.16867018 0.016855385 0.072926484 0.11896878 -0.066949226 0.05657115 -0.09267228 -0.076505624
0.05098241 -0.051034946 -0.075900815 0.14614645 0.110733576 0.122093715 -0.09660409 -0.073915176
-0.32059157 0.0011594791 -0.105552815 0.10123246 0.26463118 0.1707928 0.3741462 -0.26897722
-0.0950483 -0.16205807 -0.18199831 0.10499428 -0.028782912 0.090044744 0.37825805 -0.24749607
-0.084403075 0.08666192 -0.24319346 -0.031815328 0.27652064 -0.06711606 0.0018123501 -0.09635639
-0.3758819 -0.05465887 0.07151591 0.060483683 0.10246335 -0.1841394 -0.020110091 -0.04595389
-0.0313068 0.032738775 -0.0371391 -0.18430027 -0.3787883 -0.00970135 -0.16121052 0.23934954
-0.035385687 -0.011349375 0.09968235 -0.15617828 -0.0014629003 -0.009278876 0.39569706 0.02514895
-0.04084744 0.36243793 -0.035727795 -0.13899992 0.089119345 -0.27305523 0.07226577 0.14674605
0.25964588 -0.04983156 0.0030690208 -0.20296468 -0.025354913 -0.046419434 -0.081283376 0.1413204
-0.09780364 -0.10659117 -0.05320576 -0.07076427 0.06886168 0.081072874 -0.07710763 -0.004974971
0.034949042 -0.12601861 0.087125875 0.090663396 0.08710284 0.062422086 -0.053269308 0.094820656
-0.13472839 0.15895091 -0.048108857 -0.015640257 -0.097862445 -0.001176375 0.025946295 0.08429235
-0.07241695 -0.01948129 0.09502094 -0.008307442 0.061258245 0.055505026 0.096122466 0.033518054
-0.063983925 0.021685224 0.012433955 -0.06988253 -0.038671665 0.025825193 0.020226285 0.022676865
0.10340363 0.013619564 0.03655114 -0.030141814 0.06999174 -0.1271444 -0.05964322 -0.045517445
0.007855998 0.10136185 0.07611303 0.097243346 0.034609646 0.03317173 -0.0047207577 -0.07566846
-0.10691746 -0.018893542 -0.034591243 0.06758058 -0.106616326 0.04681916 0.040705133 0.022505902

value_layer.2.bias f4 [64]
00000000: 11dd 833d 8b94 343e 9172 efbd 48f0 473d
00000010: ef6a 723d 8792 84bc 01b2 43bd e8d5 973d
00000020: e939 343e d872 5fbe 3069 423e db06 b93d
00000030: 11f4 973d b200 5bbe 5366 e4bc 5baf 823d
00000040: e3a9 84be 72c8 3b3e 0664 8a3d ad97 9cbe
00000050: 64a9 173e 2bbd 493c ffb9 463e f24f 083e
00000060: ee80 1abd 3158 df3d d28c 10be 4ee7 7ebd
00000070: 1dbb 993d d071 40be 9078 243e fb82 743e
00000080: 80e1 d7bd 8f0f 07bc 727f 52bd 4b5e 833e
00000090: 9bb2 663d f622 253e 839d ad3d 9002 8d3d
000000a0: 485b f93d 6521 91bd 1c3f 06bc 4c5f c7bd
000000b0: d26b 013e 5fdb 1a3d 82bd a2bd 4f99 7dbd
000000c0: 4d78 36be 11d3 0b3e 7ea5 313d 4e9c 973d
000000d0: 7f20 80bb 4bda 793d 06cf 933d 7a48 3abe
000000e0: 0c98 233e f026 7ebb cd87 343e 2779 823d
000000f0: 1f23 23bd 08de c53d 1ca7 f4bb 509d 433c
0.064386494 0.1763479 -0.11691774 0.048813134 0.05918401 -0.016183151 -0.04777718 0.07413846
0.17600216 -0.21821153 0.18985438 0.09034511 0.07419599 -0.21386984 -0.027880823 0.06381103
-0.25910863 0.18338183 0.06757359 -0.3058447 0.14810711 0.012313168 0.1940689 0.13311747
-0.037720613 0.10905493 -0.14116219 -0.062232308 0.07506392 -0.18793416 0.16061616 0.2387809
-0.105410576 -0.008243456 -0.051391073 0.25657877 0.056322675 0.16126618 0.084773086 0.068852544
0.12175614 -0.070864476 -0.008193757 -0.09734973 0.12638786 0.037806865 -0.07946302 -0.061913785
-0.17819329 0.13654734 0.043370716 0.0740286 -0.003910124 0.060999196 0.07217221 -0.1819171
0.1597597 -0.0038780533 0.17629929 0.06370764 -0.039828416 0.0966149 -0.00746621 0.011939362

value_layer.4.weight f4 [1, 64]
00000000: 05eb 1abc 69f6 cfbd 8403 1ebe adbd 03bb
00000010: ff23 783e ebab 1c3d 64c5 9ebb bec9 693d
00000020: 362e afbd ee4e 893d cd78 c3ba ce8c b7bc
00000030: ca3d 17bc cd08 933d 6a06 f13b e853 53bb
00000040: 470c 153e 9759 12bd 2b08 2dbc 706c 563d
00000050: ebc5 48be c3b2 a0bc 9bb4 1cbd cb5a c1bc
00000060: 762d 373b 2daf 12bb 3d22 d0bd f812 1e3e
00000070: 2468 23be 836f 9b3c 965c d4bd f90c fdbd
00000080: 433c c23d 06cc e23b b246 fb3a 94c3 35be
00000090: 032c 483c 4d50 fabd f2a6 023d de0d 5e3d
000000a0: b293 fd3d adb3 b63d ef7b 1dbe 9f79 e63b
000000b0: 886b 08bd 458f d93c 8d3b 053e 750a 97bd
000000c0: d2bb eebd e898 0b3e 8fec 11be 210d 69bd
000000d0: c8d1 95bc 0474 7abc e59a 963d 7601 2a3d
000000e0: 59d3 4fbd 555d c9bb d5cc bebc e496 e83d
000000f0: cb43 1e3d d880 273d 6ce2 f73c 72f9 70bc
-0.009455447 -0.10154421 -0.15431029 -0.002010207 0.24232481 0.03824989 -0.004845308 0.057077162
-0.08553736 0.06704508 -0.0014913321 -0.022406008 -0.00923104 0.07179413 0.007355501 -0.0032246057
0.14555465 -0.03572997 -0.010561029 0.052349508 -0.1960675 -0.01961649 -0.038258176 -0.023602864
0.002795068 -0.0022382245 -0.101627804 0.15436924 -0.15957695 0.018974071 -0.10369222 -0.1235599
0.0948415 0.006921294 0.0019170849 -0.17750388 0.012217524 -0.122223474 0.031897493 0.054212444
0.12381686 0.08920989 -0.15379308 0.0070335413 -0.033305675 0.026557574 0.13010998 -0.073750414
-0.11656918 0.13632548 -0.14250396 -0.056897286 -0.018288508 -0.015286449 0.073537625 0.0415053
-0.050738666 -0.0061451592 -0.02329103 0.11356905 0.03863887 0.04089436 0.030259334 -0.01470791
