Homework8/Gym-PPO-solution/results/PPO_LunarLander-v2_1500-eps0.1.pth (torch, 42817 bytes, 11 tensors)

action_layer.0.weight f4 [64, 8]
-0.24601062 -0.24530174 -0.35753804 0.28090024 0.5851774 0.15694602 0.14220601 -0.34081072
-0.41177085 -0.18851219 -0.27173132 0.39582622 0.63866436 0.61475146 0.39554593 -0.18306339
0.24469186 0.033465113 0.21293475 0.18006605 -0.2897275 0.073875174 0.1344987 0.24968643
-0.12344416 0.2663066 0.10692768 0.32558525 0.2169538 0.16248323 0.15543783 0.028701456
0.20700473 -0.31374598 0.08239386 -0.23960137 0.35811323 0.078351445 0.412608 0.22718377
0.49797976 -0.26081374 0.3409548 0.25730366 -0.54690826 -0.7395926 -0.095685534 -0.106541455
0.22810172 -0.3169035 -0.22678219 -0.18021935 0.38020128 -0.13342029 -0.004950292 -0.25298268
-0.11900605 0.046827286 -0.09791094 -0.06380433 -0.54482865 0.13217053 0.06392444 -0.05367718
0.033958454 -0.010390002 -0.031793974 -0.038657185 -0.06835414 0.2697077 0.18095955 0.03228439
0.059168503 -0.11285038 0.040847074 0.16062433 0.1676886 0.017505648 0.3827532 -0.016388249
0.09341059 -0.08493064 0.06375187 0.015226583 -0.6276973 -0.23897581 0.2078928 0.03928163
-0.13345297 0.38338038 0.08761225 0.38521805 0.06616169 -0.28512305 0.14909421 -0.13722491
0.12579757 0.2829616 0.32725966 -0.025278179 -0.40168625 0.07570202 0.29010797 -0.06718641
-0.06212921 0.1736686 0.003636414 -0.040233504 0.2221834 0.36614928 0.09589408 0.0072154375
-0.25206485 -0.15584913 0.21278988 -0.09380142 0.24085611 0.22178991 -0.012911227 0.2915153
0.1059625 -0.07434155 0.34609747 0.4681751 0.14088498 -0.267517 0.110305 0.0122665195
0.025478669 -0.02807698 -0.25832814 0.42804313 -0.08925637 -0.57712704 0.03876095 0.13190122
0.23433708 0.115330495 -0.00131938 0.3298215 -0.31483525 -0.32779792 -0.03423281 0.29284436
-0.28435472 0.18074852 -0.18133178 -0.27021423 -0.052183155 -0.058374226 0.044924293 -0.1495951
-0.2333617 0.15047874 -0.16704333 -0.060396843 0.03037752 0.5362287 0.2101622 0.1256624
0.20467865 0.22676542 -0.25723764 0.25415763 0.3130789 0.6772736 0.39511752 0.26495162
-0.4196667 0.007627248 -0.3391627 0.23248646 0.40232006 0.5784869 0.43181485 -0.067308545
-0.15808149 0.03396205 0.06311687 0.4387141 -0.23003267 -0.188927 -0.28935274 -0.28261417
0.15902424 -0.2184606 -0.13161986 -0.44283235 0.6345722 0.26717585 0.35615084 0.12415356
0.14486448 0.23435323 -0.09852673 0.073142424 0.80118805 0.5545334 -0.20182368 0.04281274
0.09507444 -0.2380033 0.33764052 -0.3293876 -0.66139394 -0.12019698 -0.2477771 -0.22875091
0.2251233 -0.0785034 0.13973157 -0.28060883 0.06864683 -0.9366955 -0.0021958402 -0.13779457
0.060983922 -0.16338147 0.050215907 -0.30450028 0.36646816 0.0618775 0.4370997 0.07220789
-0.32040763 0.12027032 -0.34984702 0.14681235 0.6427012 0.26372698 -0.07122768 0.05809802
0.19551104 0.04603399 -0.22745827 0.2456811 0.44126546 -0.2860012 -0.18140791 -0.28589508
-0.03094588 0.19774865 -0.04997428 0.58209026 -0.307204 0.10725693 -0.2575275 0.029165374
-0.036787573 0.08298695 0.052690756 -0.3364706 0.50190073 0.25137267 -0.10132885 0.27767995
00000000: 35ea 7bbe 6130 7bbe 3a0f b7be 28d2 8f3e
00000010: 30ce 153f 75b6 203e 749e 113e be7e aebe
00000020: a1d3 d2be 5709 41be 5e20 8bbe bca9 ca3e
00000030: 827f 233f 5a60 1d3f ff84 ca3e f874 3bbe
00000040: 8190 7a3e b712 093d 910b 5a3e 3c63 383e
00000050: 2a57 94be de4b 973d 07ba 093e cdad 7f3e
00000060: 4bd0 fcbd 5759 883e e6fc da3d 1cb3 a63e
00000070: 2329 5e3e 0162 263e 182b 1f3e 511f eb3c
00000080: 0cf9 533e 50a3 a0be 1dbe a83d 105a 75be
00000090: 9e5a b73e b976 a03d 5b41 d33e dda2 683e
000000a0: 34f7 fe3e 6189 85be a191 ae3e 4ebd 833e
000000b0: 2e02 0cbf f155 3dbf c7f6 c3bd 6832 dabd
000000c0: 7f93 693e 2d41 a2be 9739 68be 6c8b 38be
000000d0: bea9 c23e 549f 08be 0f36 a2bb f286 81be
000000e0: 72b9 f3bd f8cd 3f3d 8885 c8bd d8ab 82bd
000000f0: e479 0bbf b657 073e d1ea 823d 9adc 5bbd
00000100: 0518 0b3d d43a 2abc 663a 02bd ff56 1ebd
00000110: 41fd 8bbd 2117 8a3e 764d 393e a33c 043d
00000120: ac5a 723d 1a1e e7bd 434f 273d b47a 243e
00000130: 8fb6 2b3e 0168 8f3c 3af8 c33e a640 86bc
00000140: 0d4e bf3d 1ef0 adbd 5790 823d eb78 793c
00000150: c5b0 20bf 13b6 74be dae1 543e c6e5 203d
00000160: e5a7 08be 6f4a c43e 0d6e b33d 4d3b c53e
00000170: c87f 873d a6fb 91be 27ac 183e b084 0cbe
00000180: 14d1 003e 58e0 903e 948e a73e 2f14 cfbc
00000190: d2a9 cdbe a909 9b3d 0889 943e 0799 89bd
000001a0: 337b 7ebd 2ed6 313e e750 6e3b e3cb 24bd
000001b0: 0c84 633e eb77 bb3e 1e64 c43d 7a6f ec3b
000001c0: a50e 81be ea96 1fbe 97e5 593e f51a c0bd
000001d0: fca2 763e e51c 633e 9c89 53bc 7e41 953e
000001e0: de02 d93d 6240 98bd b033 b13e a6b4 ef3e
000001f0: 2744 103e fdf7 88be 96e7 e13d 83f9 483c
00000200: a4b8 d03c b201 e6bc 9643 84be 7828 db3e
00000210: 0bcc b6bd 99be 13bf cdc3 1e3d 1d11 073e
00000220: 0ff6 6f3e 6532 ec3d 0cef acba 5dde a83e
00000230: 1632 a1be 21d5 a7be b437 0cbd b2ef 953e
00000240: f196 91be 2416 393e 0aaf 39be 8559 8abe
00000250: 01be 55bd d019 6fbd 8902 383d 752f 19be
00000260: 5ff6 6ebe 1917 1a3e 680d 2bbe ae62 77bd
00000270: 47da f83c 4946 093f c234 573e a5ad 003e
00000280: 4897 513e 3235 683e a7b4 83be f320 823e
00000290: e14b a03e cd61 2d3f d84c ca3e bda7 873e
000002a0: 8ede d6be feed f93b bca6 adbe ee10 6e3e
000002b0: e5fc cd3e b817 143f d616 dd3e 10d9 89bd
000002c0: 1de0 21be ca1b 0b3d 6b43 813d 229f e03e
000002d0: af8d 6bbe 1476 41be 0b26 94be ceb2 90be
000002e0: 40d7 223e 23b4 5fbe 5bc7 06be ecba e2be
000002f0: 5373 223f 46cb 883e 6759 b63e 3944 fe3d
00000300: 5b57 143e 4bfa 6f3e 62c8 c9bd b2cb 953d
00000310: a91a 4d3f e7f5 0d3f deaa 4ebe 695c 2f3d
00000320: 63b6 c23d 23b7 73be 38df ac3e 7ea5 a8be
00000330: 1d51 29bf d629 f6bd 48b9 7dbe ae3d 6abe
00000340: b986 663e 64c6 a0bd cb15 0f3e f6ab 8fbe
00000350: b696 8c3d 47cb 6fbf 16e8 0fbb 051a 0dbe
00000360: 47ca 793d 794d 27be 32af 4d3d 76e7 9bbe
00000370: b7a1 bb3e 4373 7d3d 88cb df3e bbe1 933d
00000380: 780c a4be 4950 f63d 261f b3be fa55 163e
00000390: 1188 243f 3907 873e d1df 91bd 30f8 6d3d
000003a0: 0c34 483e 238e 3c3d d2ea 68be d493 7b3e
000003b0: 8ced e13e c06e 92be ffc2 39be d760 92be
000003c0: 3782 fdbc 9f7e 4a3e d5b1 4cbd de03 153f
000003d0: d849 9dbe 85a9 db3d a5da 83be 39ec ee3c
000003e0: 91ae 16bd 10f5 a93d 43d2 573d e045 acbe
000003f0: 917c 003f ebb3 803e 8085 cfbd 112c 8e3e

action_layer.0.bias f4 [64]
0.256453 0.3237724 -0.061371922 -0.013852237 0.18180868 0.3200852 0.24431077 0.16327368
-0.011829937 0.046651408 0.1853764 -0.21409753 -0.21951155 0.0042429473 0.25056532 -0.2242811
0.22132477 -0.08749543 0.22038245 -0.16883267 -0.13697362 0.110213935 -0.088716894 -0.20413375
-0.29550365 0.19747537 -0.17482685 0.23255828 -0.25558934 0.22160602 0.15624258 -0.286964
-0.16075629 0.29852876 -0.2273332 0.22352007 0.15459125 -0.15919995 -0.26117146 -0.13862477
0.08438062 -0.05406165 -0.11267681 -0.12530535 -0.18735465 0.13040377 0.112952635 0.031881094
0.05071223 0.025179595 0.10810476 0.22330177 -0.16203016 0.21163335 0.086435504 0.16847393
-0.08236776 0.102374226 0.20284036 0.091050215 -0.2022927 0.1934735 -0.24106547 0.10935299
00000000: cf4d 833e 7fc5 a53e 2061 7bbd 7ef4 62bc
00000010: 0e2c 3a3e 35e2 a33e 9a2c 7a3e 3731 273e
00000020: 5ad2 41bc 8c15 3f3d 50d3 3d3e 623c 5bbe
00000030: a3c7 60be 6c08 8b3b 194a 803e f2a9 65be
00000040: f6a2 623e ce30 b3bd f0ab 613e 79e2 2cbe
00000050: d042 0cbe d8b7 e13d 34b1 b5bd 7008 51be
00000060: 414c 97be fc36 4a3e cf05 33be c223 6e3e
00000070: 9bdc 82be b0ec 623e 0efe 1f3e f2ec 92be
00000080: 4c9d 24be c3d8 983e 09ca 68be 72e2 643e
00000090: 2b4d 1e3e 5005 23be 44b8 85be a7f3 0dbe
000000a0: bfcf ac3d c06f 5dbd 19c3 e6bd 0c50 00be
000000b0: e6d9 3fbe 9188 053e b653 e73d c095 023d
000000c0: a1b7 4f3d 7045 ce3c 0766 dd3d 38a9 643e
000000d0: 3ceb 25be 6ab6 583e 1905 b13d 6e84 2c3e
000000e0: 6eb0 a8bd 94a9 d13d 62b5 4f3e 8978 ba3d
000000f0: d125 4fbe eb1d 463e ded9 76be 76f4 df3d

action_layer.2.weight f4 [64, 64]
0.1323919 -0.017355025 0.10442966 0.11430637 -0.024157012 -0.012836172 -0.11021852 0.018049067
-0.06740843 0.10645575 -0.03082772 0.27296042 -0.08000139 -0.018744547 -0.0032245354 0.08434841
0.14513434 0.08787536 0.0262236 -0.051832706 0.13102396 0.03396384 0.029057335 -0.20010942
0.11554479 -0.21050295 -0.074768364 -0.011320329 -0.07062511 0.08703546 0.29813212 0.08000738
-0.1563411 0.18463278 0.039964706 0.26539063 -0.006259649 0.25124866 0.15489386 -0.12681717
0.020936443 -0.08655331 -0.25600556 -0.08455586 0.05135595 0.120145716 0.17748202 0.16330762
0.14218576 0.3599963 0.06839717 -0.13742137 0.027130587 -0.15846123 -0.01986465 0.033781003
0.075562775 0.01586597 -0.017644718 -0.065373145 0.11021244 -0.08252876 -0.04484847 0.06094143
0.09590693 0.024636254 0.0793969 -0.0032396447 0.068802275 0.0766118 -0.012519818 0.10623393
-0.0730968 -0.029923802 0.027651282 0.094282955 0.098625146 0.008797398 -0.066538945 -0.013191116
-0.07106448 0.054459307 0.09121606 0.057991482 0.07562665 0.09405439 -0.11494742 0.01619847
0.042543642 0.092174806 0.017196529 -0.074107945 -0.003962379 0.084047824 -0.15947156 0.036726844
-0.011576223 0.17007892 0.087443635 0.10269934 -0.10087201 -0.038235106 -0.07707633 -0.09523855
-0.101379566 -0.11338852 -0.23141223 -0.19848551 0.011550499 0.041905854 -0.026196023 0.011859116
-0.14509854 -0.046328183 0.049757812 0.020269549 0.071425006 -0.027036373 0.13216007 0.017178362
0.007931659 0.07755669 0.08661208 0.019738723 -0.024128051 0.05411 -0.09321647 -0.13203166
-0.035397846 -0.17999698 0.14695154 -0.03584997 0.21210666 0.1107781 -0.067189306 0.00044607918
-0.03372684 0.11080198 0.056487 -0.11007882 -0.04645009 0.0017357076 0.12961662 0.08212391
-0.10278404 -0.11326951 0.10285747 0.016700177 -0.02789113 -0.14152256 0.012053241 -0.024122966
-0.07870561 0.09121217 0.054807164 0.13492718 -0.0048683495 -0.17133397 -0.1810806 0.05552785
0.11304829 -0.15113045 -0.029942479 -0.13014838 -0.05173212 -0.12755218 -0.012088177 0.17102477
-0.103314675 -0.08824613 0.38822305 0.023831144 -0.12649125 0.07431373 -0.0108484365 -0.08256426
0.076432794 -0.11500328 -0.12996082 0.06970676 -0.11205764 -0.06349919 0.12296806 -0.101216674
-0.06365973 0.090023324 0.007107024 0.06289623 -0.015629873 0.05455526 0.015527625 -0.0133847855
0.09147161 -0.011956468 -0.108515255 -0.14848503 0.07479607 -0.043162342 0.08390076 0.051895875
0.06707548 -0.00061097846 0.01617701 -0.09005303 -0.110860914 0.018825196 0.14050078 -0.12844789
-0.18346807 -0.08804821 0.065561675 -0.066695355 -0.073023945 -0.04505918 0.043876175 0.097453654
0.12830319 0.065538 0.21872783 0.030164368 -0.0877367 0.059051346 -0.10888346 0.1749886
0.0095517645 -0.09612478 -0.04486423 -0.20969172 0.18326943 -0.15831268 -0.034066178 0.16782485
-0.0046159285 0.027519599 -0.01292802 0.043325618 -0.0877703 -0.16314723 0.013168429 -0.0011644389
0.010947764 -0.18911041 -0.071524724 0.0040534423 0.14928949 -0.040475566 0.10700753 0.0071593504
0.0132154 0.06401131 -0.09019511 -0.11050353 -0.082315765 0.0020624632 -0.07311764 0.03247177
00000000: be91 073e 202c 8ebc 38df d53d 7519 ea3d
00000010: ede4 c5bc cf4e 52bc 3fba e1bd a3db 933c
00000020: 6e0d 8abd 7905 da3d 6a8a fcbc 78c1 8b3e
00000030: c5d7 a3bd 2a8e 99bc ba52 53bb dcbe ac3d
00000040: 199e 143e fff7 b33d e0d2 d63c 884e 54bd
00000050: 252b 063e ab1d 0b3d a609 ee3c 7ce9 4cbe
00000060: bfa2 ec3d 168e 57be 2820 99bd e778 39bc
00000070: e6a3 90bd a63f b23d c6a4 983e e9da a33d
00000080: e217 20be 6010 3d3e 08b2 233d 48e1 873e
00000090: be1d cdbb aaa3 803e 7f9c 1e3e 5cdc 01be
000000a0: e782 ab3c dd42 b1bd 2913 83be 9f2b adbd
000000b0: 9e5a 523d f50e f63d d9bd 353e 1d3a 273e
000000c0: 2599 113e 6f51 b83e d113 8c3d 30b8 0cbe
000000d0: f740 de3c a943 22be 31bb a2bc f35d 0a3d
000000e0: a8c0 9a3d 5af9 813c a88b 90bc 5be2 85bd
000000f0: 0fb7 e13d d704 a9bd 07b3 37bd b99d 793d
00000100: da6a c43d f8d1 c93c d89a a23d 3850 54bb
00000110: 35e8 8c3d a6e6 9c3d ec1f 4dbc 2d91 d93d
00000120: c6b3 95bd c322 f5bc f184 e23c 6c17 c13d
00000130: fbfb c93d f622 103c 9245 88bd 8d1f 58bc
00000140: 418a 91bd b910 5f3d 7ccf ba3d 7a88 6d3d
00000150: 25e2 9a3d 979f c03d 8e69 ebbd a7b2 843c
00000160: 3e42 2e3d 25c6 bc3d bcdf 8c3c e8c5 97bd
00000170: d8d6 81bb 4421 ac3d 834c 23be e36e 163d
00000180: 33aa 3dbc 2b29 2e3e a615 b33d 0854 d23d
00000190: fc95 cebd 6a9c 1cbd 32da 9dbd 6e0c c3bd
000001a0: 17a0 cfbd 3e38 e8bd 54f7 6cbe c93f 4bbe
000001b0: 4e3e 3d3c 79a5 2b3d 0b99 d6bc bd4c 423c
000001c0: b694 14be 9fc2 3dbd d9ce 4b3d 530c a63c
000001d0: 4647 923d 627b ddbc f854 073e a3b9 8c3c
000001e0: caf3 013c 0bd6 9e3d ad61 b13d 1ab3 a13c
000001f0: 31a8 c5bc 73a2 5d3d 47e8 bebd 4f33 07be
00000200: 55fd 10bd 2151 38be 777a 163e 6bd7 12bd
00000210: 7d32 593e a1df e23d 8c9a 89bd bcdf e939
00000220: 2825 0abd 26ec e23d ea5e 673d 0171 e1bd
00000230: 7342 3ebd af80 e33a 38ba 043e 9530 a83d
00000240: 7080 d2bd d8f9 e7bd f0a6 d23d cfce 883c
00000250: f07b e4bc 4aeb 10be f57a 453c 879d c5bc
00000260: 6830 a1bd 72cd ba3d 7a7d 603d 5a2a 0a3e
00000270: ad86 9fbb 2c72 2fbe 316d 39be 2c71 633d
00000280: dd85 e73d f1c1 1abe ee49 f5bc 9e45 05be
00000290: 0fe5 53bd 0a9d 02be 7d0d 46bc 1e21 2f3e
000002a0: a596 d3bd 63ba b4bd 2cc5 c63e 8839 c33c
000002b0: ec86 01be cc31 983d a4bd 31bc 7317 a9bd
000002c0: cc88 9c3d d786 ebbd 7314 05be 6bc2 8e3d
000002d0: 7a7e e5bd dd0b 82bd aed6 fb3d b04a cfbd
000002e0: 0860 82bd 265e b83d 0ae2 e83b bdcf 803d
000002f0: 380a 80bc 5675 5f3d 9467 7e3c dc4b 5bbc
00000300: 7855 bb3d 10e5 43bc 3f3d debd 760c 18be
00000310: af2e 993d ffca 30bd 29d4 ab3d c590 543d
00000320: df5e 893d 122a 20ba a685 843c b96d b8bd
00000330: 0c0b e3bd 4c37 9a3c 70df 0f3e d887 03be
00000340: 0edf 3bbe 9f52 b4bd 3345 863d 9397 88bd
00000350: 948d 95bd fa8f 38bd 81b7 333d c895 c73d
00000360: e961 033e c938 863d 30fa 5f3e 441b f73c
00000370: 4daf b3bd d3df 713d 4bfe debd 3630 333e
00000380: 017f 1c3c 12dd c4bd 8ec3 37bd 6db9 56be
00000390: fbaa 3b3e b81c 22be fa88 0bbd 47da 2b3e
000003a0: 3741 97bb c870 e13c 0cd0 53bc 3476 313d
000003b0: eac0 b3bd 1110 27be 65c0 573c 16a0 98ba
000003c0: 405e 333c 29a6 41be 8e7b 92bd bdd2 843b
000003d0: 58df 183e b5c9 25bd c426 db3d fc98 ea3b
000003e0: 6885 583c 5d18 833d 37b8 b8bd ad4f e2bd
000003f0: 2b95 a8bd 642a 073b b4be 95bd 1e01 053d

action_layer.2.bias f4 [64]
0.010673114 -0.00872564 0.10414082 -0.06328437 -0.01873623 0.026912162 0.0420962 -0.036286775
0.08195666 -0.03247695 -0.043070897 0.031566855 -0.10810114 0.0041685 -0.033375084 -0.028982587
-0.07917471 0.01100397 0.10139774 -0.11779293 0.029798426 0.07100975 -0.018877193 -0.10459111
-0.07954808 0.056166988 -0.08683142 -0.011077114 0.08608663 0.10866289 -0.04189583 -0.023474727
-0.09511939 0.056971777 -0.08235272 -0.031473998 0.060333375 0.052964266 -0.06344746 0.05165036
0.08489382 0.018482909 0.006129451 0.08933715 -0.09653528 -0.07284395 -0.073579386 0.06605493
-0.024968447 0.010405129 -0.043308496 -0.07658356 -0.10523819 0.0033373227 0.024100373 -0.0152802225
0.0026400022 -0.1297818 -0.008886887 0.103110425 -0.027538473 -0.019271897 -0.016863065 0.002396208
00000000: 49de 2e3c fdf5 0ebc c847 d53d 3c9b 81bd
00000010: b97c 99bc e576 dc3c 116d 2c3d 71a1 14bd
00000020: e5d8 a73d 8d06 05bd 1c6b 30bd 3f4c 013d
00000030: 2164 ddbd ea97 883b 50b4 08bd e46c edbc
00000040: 5a26 a2bd ff49 343c 9ea9 cf3d 6b3d f1bd
00000050: d41b f43c 8f6d 913d 58a4 9abc dd33 d6bd
00000060: 1bea a2bd 5b0f 663d acd4 b1bd c97c 35bc
00000070: 304e b03d a68a de3d f69a 2bbd 124e c0bc
00000080: f4cd c2bd 3d5b 693d 8ba8 a8bd e1ea 00bd
00000090: 2120 773d 0ff1 583d bef0 81bd 548f 533d
000000a0: d0dc ad3d 7869 973c 90d9 c83b 65f6 b63d
000000b0: 4ab4 c5bd 352f 95bd cab0 96bd cf47 873d
000000c0: a18a ccbc 467a 2a3c 4064 31bd d7d7 9cbd
000000d0: 1f87 d7bd fcb6 5a3b 256e c53c e659 7abc
000000e0: e303 2d3b 85e5 04be 4e9a 11bc 8f2b d33d
000000f0: 5d98 e1bc 19e0 9dbc 6924 8abc b309 1d3b

action_layer.4.weight f4 [4, 64]
0.069991134 0.029169828 -0.014967479 -0.060401775 0.042927742 -0.1277814 0.08935239 0.0054193176
-0.1518401 -0.034177627 0.15678746 -0.05842096 0.054415237 -0.11601108 0.00012566414 -0.14523806
-0.1419637 -0.014504273 -0.009470141 -0.106034584 -0.04292413 -0.07873692 -0.10053601 -0.18959378
0.0058143977 -0.091573216 0.11434278 -0.1620324 -0.0838746 -0.0513942 0.09303032 0.0288736
-0.08772348 -0.03103964 -0.13088006 -0.08940046 -0.021736301 0.05294157 0.07543279 0.07158088
0.014497008 0.0779455 0.08734906 -0.02536039 0.0957124 -0.063429385 -0.00829986 0.055545952
-0.0790096 -0.018064538 0.1102126 -0.11246609 0.23680784 0.034794126 -0.09779723 0.021055117
-0.07474621 0.06803418 -0.05381331 -0.13454904 -0.21968916 0.11158467 -0.07651915 -0.07351686
0.0805911 -0.020371418 -0.0142637305 -0.098690026 0.20413204 0.1277648 0.08947201 0.061355192
-0.1117802 -0.10259326 0.14533387 0.032773897 -0.048947696 -0.020282604 -0.10128341 -0.20172657
-0.030013228 0.031099284 0.11000548 -0.20227043 0.22116911 -0.18497154 -0.13377044 -0.05860734
-0.121830866 -0.053083517 0.19675352 -0.07158764 -0.15059727 0.04590389 -0.15520576 0.0120871235
-0.009866382 -0.14563006 -0.0474871 -0.11561597 0.08986957 -0.03736049 0.15699793 -0.1102402
-0.12545057 0.112076886 -0.124962494 -0.13921377 -0.05536586 0.25315237 -0.104857974 -0.05908413
-0.0037673574 0.06905785 0.003708994 -0.104645036 -0.0633258 -0.031376824 -0.029606175 0.15692943
-0.106878795 0.16340245 -0.21079007 -0.040869337 -0.041685116 0.02836096 0.008000545 -0.01834282
-0.22592928 -0.022477608 0.1599544 0.124517 0.034473084 0.12102848 0.028568083 -0.035424612
0.07875739 -0.052436676 -0.22355878 -0.03721067 -0.16913219 0.08808495 -0.08398008 0.2031122
0.13933435 0.24221419 0.17425042 0.007089696 0.18374965 0.109341726 0.14032348 0.11922454
0.12279478 -0.08569154 -0.152338 0.22589825 0.20602213 0.18765508 -0.048489872 0.08174268
-0.014927669 0.13942342 0.16468668 0.101066306 0.10957199 -0.0343031 -0.056944545 -0.02319376
0.17582458 -0.18405662 0.03304822 -0.21252207 -0.13352661 -0.043325666 0.05494772 -0.07372702
0.0020315752 0.19692102 -0.19714682 0.07994735 -0.244646 0.048826672 -0.040084828 -0.20280841
0.23152618 -0.14956947 -0.10753734 -0.0067252065 0.262714 -0.26377958 0.1410127 0.27145866
0.064299606 -0.024580278 -0.04804598 0.037337355 -0.056443177 -0.2452598 -0.18055083 -0.05907837
-0.0451229 0.09537244 0.10217939 -0.020639982 -0.0011105139 -0.04324933 -0.050821632 0.012235937
-0.21162826 -0.08890285 -0.108892374 0.07616171 -0.30245084 0.081697665 0.06358494 -0.11826706
0.1609414 -0.14223626 0.10594247 -0.055645853 0.02222795 -0.11234614 0.2083203 0.09794539
0.002892938 0.02938165 0.09997977 -0.0837197 0.07324308 0.07144258 -0.0052856086 -0.037400465
-0.050212316 -0.026554149 -0.04107909 0.08880505 -0.004801439 -0.27361342 0.059623793 0.080849834
-0.060509443 -0.15928477 0.049220238 0.058350943 0.118455455 0.09969145 -0.14235765 -0.06766037
-0.06227345 -0.025940133 0.05594217 -0.10089217 -0.2516885 0.061444215 -0.19392894 -0.13067709
00000000: 8357 8f3d 90f5 ee3c 283a 75bc da67 77bd
00000010: 00d5 2f3d 21d9 02be 63fe b63d 8894 b13b
00000020: f97b 1bbe d7fd 0bbd e48c 203e d14a 6fbd
00000030: 83e2 5e3d 3897 edbd b6c4 0339 49b9 14be
00000040: ef5e 11be 55a3 6dbc a628 1bbc a928 d9bd
00000050: 36d1 2fbd d340 a1bd d3e5 cdbd df24 42be
00000060: b486 be3b bd8a bbbd 8c2c ea3d d2eb 25be
00000070: 72c6 abbd ba82 52bd ae86 be3d 5488 ec3c
00000080: 5ea8 b3bd d846 febc 6c05 06be 9717 b7bd
00000090: 5410 b2bc 42d9 583d 827c 9a3d ff98 923d
000000a0: dc84 6d3c e4a1 9f3d 10e4 b23d 98c0 cfbc
000000b0: dd04 c43d 44e7 81bd 23fc 07bc 2784 633d
000000c0: c9cf a1bd 15fc 93bc 25b7 e13d 9f54 e6bd
000000d0: c17d 723e 4984 0e3d ea49 c8bd c87b ac3c
000000e0: 8a14 99bd 8155 8b3d 586b 5cbd 39c7 09be
000000f0: 32f6 60be 8186 e43d 12b6 9cbd 0290 96bd
00000100: f20c a53d f6e1 a6bc 6cb2 69bc ff1d cabd
00000110: fd07 513e c7d4 023e 1a3d b73d 954f 7b3d
00000120: 04ed e4bd 6a1c d2bd 67d2 143e ec3d 063d
00000130: 617d 48bd b427 a6bc ad6d cfbd 6991 4ebe
00000140: 4dde f5bc edc3 fe3c 8e4a e13d fb1f 4fbe
00000150: 287a 623e 2e69 3dbe 1efb 08be 400e 70bd
00000160: 7682 f9bd 1a6e 59bd c179 493e 8a9c 92bd
00000170: 2c36 1abe b805 3c3d 42ee 1ebe 1209 463c
00000180: 9ba6 21bc 0c20 15be d581 42bd 11c8 ecbd
00000190: 8a0d b83d 5007 19bd 11c4 203e 9dc5 e1bd
000001a0: 1d76 00be 9188 e53d 56ec ffbd 0e8e 0ebe
000001b0: 50c7 62bd 309d 813e c7bf d6bd 3302 72bd
000001c0: c5e5 76bb 346e 8d3d 9812 733b 2350 d6bd
000001d0: f5b0 81bd fc84 00bd a688 f2bc 1cb2 203e
000001e0: 45e3 dabd f952 273e 5ad9 57be 9b66 27bd
000001f0: 03be 2abd 3e55 e83c b814 033c af43 96bc
00000200: 015a 67be f622 b8bc 16cb 233e c502 ff3d
00000210: a633 0d3d c8dd f73d 9d07 ea3c 6619 11bd
00000220: 8e4b a13d d7c7 56bd 98ec 64be 376a 18bd
00000230: fd30 2dbe e265 b43d c0fd abbd a5fc 4f3e
00000240: aaad 0e3e ff06 783e b46e 323e ae50 e83b
00000250: de28 3c3e 8eee df3d f5b0 0f3e ff2b f43d
00000260: d47b fb3d 0c7f afbd 7efe 1bbe df51 673e
00000270: 77f7 523e a728 403e 519d 46bd b568 a73d
00000280: 2f93 74bc 03c5 0e3e a0a3 283e dafb ce3d
00000290: 4867 e03d 6881 0cbd af3e 69bd d700 bebc
000002a0: 5c0b 343e 5779 3cbe 925d 073d 639f 59be
000002b0: 33bb 08be 4176 31bd dc10 613d 31fe 96bd
000002c0: 2d24 053b aaa5 493e dbe0 49be 70bb a33d
000002d0: 7b84 7abe 7afe 473d fd2f 24bd 02ad 4fbe
000002e0: 3315 6d3e bd28 19be 893c dcbd 1f5f dcbb
000002f0: 7382 863e 1e0e 87be a265 103e a1fc 8a3e
00000300: 83af 833d 945c c9bc ddcb 44bd 0eef 183d
00000310: f630 67bd 6325 7bbe 51e2 38be 29fc 71bd
00000320: cad2 38bd a052 c33d 6e43 d13d 2e15 a9bc
00000330: aa8e 91ba 3626 31bd 582a 50bd 3d79 483c
00000340: 14b5 58be b312 b6bd f702 dfbd acfa 9b3d
00000350: d6da 9abe 1b51 a73d d238 823d 0036 f2bd
00000360: d3cd 243e 62a6 11be 5ef8 d83d e8ec 63bd
00000370: 6417 b63c bc15 e6bd eb51 553e 9897 c83d
00000380: 7297 3d3b c9b1 f03c 32c2 cc3d 3c75 abbd
00000390: 7800 963d 7d50 923d e632 adbb 3b31 19bd
000003a0: 6eab 4dbd 1688 d9bc 8c42 28bd 6cdf b53d
000003b0: 6455 9dbb 0f17 8cbe 1438 743d 9994 a53d
000003c0: c0d8 77bd 8c1b 23be 299b 493d 6601 6f3d
000003d0: c698 f23d 082b cc3d 34c6 11be 8591 8abd
000003e0: 7212 7fbd 6780 d4bc 9e23 653d 8ea0 cebd
000003f0: 51dd 80be eeac 7b3d 4f95 46be 37d0 05be

action_layer.4.bias f4 [4]
0.020425096 -0.09974708 0.08244115 0.01582934
00000000: 8852 a73c 3248 ccbd e8d6 a83d 88ac 813c

value_layer.0.weight f4 [64, 8]
0.19288343 0.3068374 0.040216904 0.12114409 -0.16203749 -0.12774317 -0.1202113 0.069206305
0.21458912 0.45175576 -0.32706088 0.29618147 0.10839572 0.22181769 0.0778483 -0.33388633
-0.20271206 -0.2159125 -0.012391923 0.104881056 0.31747004 -0.22135665 0.07976467 0.27098414
-0.1537268 -0.26948497 -0.016048467 0.06885168 0.40786856 -0.21499711 0.015448087 -0.25721747
0.1667816 -0.2747406 0.39301124 -0.13443214 -0.36039484 0.30487987 -0.027855214 0.13104555
0.022984505 -0.4071582 -0.15621796 -0.15483133 -0.1509478 -0.3133976 0.07951093 0.08094677
-0.30031478 -0.07560673 0.23127122 -0.14021131 0.30062407 -0.10237484 0.06443374 0.05609173
0.19615327 0.18086 -0.20836648 0.6889284 0.012831255 -0.21623032 -0.37117484 -0.2649876
0.23603484 -0.016411748 0.068159044 -0.2174259 0.23278397 -0.1410099 -0.23356278 -0.09154586
-0.23665586 -0.49420056 0.25549188 -0.29692236 0.26201 -0.21980657 -0.14356013 0.26581058
0.08051888 -0.3426047 -0.07865337 -0.3985369 0.225218 0.07686068 0.2395121 -0.0017573871
-0.17804578 -0.055710014 0.1868876 0.2449367 -0.19551983 -0.31529692 -0.24361385 0.106013626
-0.20691425 0.2751881 0.08999475 0.3993765 0.11591764 -0.1365729 -0.3921439 -0.2537207
-0.18741518 -0.30198222 0.1838083 0.038325243 -0.08666825 -0.17260377 0.044265952 0.10119837
0.28655767 0.08077722 -0.2873726 0.03318563 0.0112001905 0.20711596 -0.10717547 -0.4462393
-0.05148508 -0.25353667 -0.4014902 0.13633013 0.2282233 0.47709066 0.024435245 0.044497363
-0.37762335 -0.3415823 0.17397436 -0.59183705 -0.10679778 0.20138673 0.14433673 0.1033731
0.26195484 0.29456308 -0.11365661 -0.5082671 0.20200361 0.030146254 -0.13383351 -0.47530037
-0.10126342 -0.35089675 -0.10936763 0.039661814 -0.00651385 0.20557629 -0.44205803 0.31165466
0.086431146 0.3840521 -0.048547857 0.49257135 -0.27843258 -0.4878342 0.05909087 -0.012780009
-0.14567383 -0.08300163 0.36247632 0.22544776 -0.27990034 0.11340922 0.0034437915 -0.11309455
-0.20688169 0.3030628 -0.00070792873 -0.42508954 0.2395363 -0.12200864 0.12749399 0.33322623
0.123017706 0.013738954 -0.2754009 0.015405012 -0.06194778 -0.028327884 0.24576119 -0.04877854
-0.2315341 -0.14324199 0.27246264 -0.31526732 0.49256805 -0.43301728 0.02091906 0.17427053
-0.0568441 -0.1092556 -0.068689205 -0.6662665 0.20508376 0.22086146 0.5009398 0.21487074
-0.26241776 0.37975466 -0.037380926 -0.52104884 0.18601228 -0.05830745 0.13182718 -0.042602688
-0.2830676 -0.11047663 0.31964505 0.08549992 0.31987438 -0.22210121 -0.15534104 -0.20485264
-0.4456618 -0.3028262 0.35557505 -0.59606475 0.25395423 -0.0030478186 0.263372 0.39870977
0.055638134 0.1109001 0.1554942 0.645326 -0.011814224 -0.00030817345 -0.38152626 0.08776898
0.114544 0.10817158 -0.08518747 -0.57064533 0.24334179 0.08261065 0.14834973 0.067954615
0.24990112 0.65739256 -0.046258286 0.20605722 0.37305304 0.220634 -0.14487007 -0.1114303
0.24288853 0.050354782 0.065385774 0.43165606 -0.2608245 0.061738066 -0.38052177 -0.040598333
00000000: 3c83 453e cb19 9d3e 7bba 243d 651a f83d
00000010: 28ed 25be 1bcf 02be 5831 f6bd 09bc 8d3d
00000020: 40bd 5b3e 884c e73e 8674 a7be 19a5 973e
00000030: 93fe dd3d 2d24 633e ee6e 9f3d 26f3 aabe
00000040: c093 4fbe 2b18 5dbe 7e07 4bbc e1cb d63d
00000050: 6f8b a23e 51ab 62be a95b a33d 6fbe 8a3e
00000060: 8f6a 1dbe eff9 89be 1378 83bc 1c02 8d3d
00000070: 26d4 d03e 3428 5cbe f919 7d3c 02b2 83be
00000080: ccc8 2a3e cdaa 8cbe c538 c93e 94a8 09be
00000090: ac85 b8be 3719 9c3e 9e30 e4bc ce30 063e
000000a0: 004a bc3c 0a77 d0be 9af7 1fbe 1b8c 1ebe
000000b0: 0f92 1abe a675 a0be a0d6 a23d 6cc7 a53d
000000c0: dcc2 99be b4d7 9abd 5dd2 6c3e 8e93 0fbe
000000d0: 66eb 993e e6a9 d1bd d6f5 833d 71c0 653d
000000e0: 67dc 483e 5d33 393e 065e 55be 9d5d 303f
000000f0: 2f3a 523c 7b6b 5dbe a10a bebe 74ac 87be
00000100: 1eb3 713e ee71 86bc f896 8b3d e5a4 5ebe
00000110: ec5e 6e3e e664 10be 152b 6fbe 657c bbbd
00000120: ea55 72be db07 fdbe d5cf 823e 3506 98be
00000130: 2d26 863e f914 61be 6d01 13be 5318 883e
00000140: 15e7 a43d e269 afbe 0515 a1bd 070d ccbe
00000150: 8c9f 663e 2269 9d3d a942 753e 2058 e6ba
00000160: a251 36be 2f30 64bd 775f 3f3e b0d0 7a3e
00000170: 5a36 48be 996e a1be e975 79be ac1d d93d
00000180: 54e1 53be 74e5 8c3e 2b4f b83d 147b cc3e
00000190: 3a66 ed3d c4d9 0bbe 16c7 c8be aee7 81be
000001a0: c4e9 3fbe 6a9d 9abe 3e38 3c3e eefa 1c3d
000001b0: 207f b1bd 0bbf 30be 3750 353d 1741 cf3d
000001c0: b0b7 923e 876e a53d 8022 93be a8ed 073d
000001d0: 0181 373c 3516 543e d07e dbbd 7a79 e4be
000001e0: 05e2 52bd 8fcf 81be 2090 cdbe 209a 0b3e
000001f0: 5eb3 693e 3a45 f43e 6c2c c83c de42 363d
00000200: d957 c1be e0e3 aebe 5626 323e a282 17bf
00000210: cbb8 dabd 5338 4e3e 02cd 133e 47b5 d33d
00000220: f21e 863e f9d0 963e ccc4 e8bd cb1d 02bf
00000230: 09da 4e3e 47f5 f63c a70b 09be 925a f3be
00000240: 3263 cfbd bda8 b3be 23fc dfbd 6d74 223d
00000250: 2272 d5bb 9782 523e 6e55 e2be 3391 9f3e
00000260: d002 b13d 7aa2 c43e 1eda 46bd 5032 fc3e
00000270: b78e 8ebe 67c5 f9be 4509 723d 3e63 51bc
00000280: 852b 15be c2fc a9bd 7f96 b93e c7db 663e
00000290: 194f 8fbe 1843 e83d 3cb1 613b 1e9e e7bd
000002a0: cbd8 53be 0c2b 9b3e 4b94 39ba 56a5 d9be
000002b0: 0149 753e aadf f9bd c98d 023e a19c aa3e
000002c0: b5f0 fb3d 5a19 613c 5901 8dbe 4e65 7c3c
000002d0: f5bc 7dbd e10f e8bc d2a8 7b3e 02cc 47bd
000002e0: 4617 6dbe 07ae 12be 3980 8b3e b86a a1be
000002f0: e131 fc3e 71b4 ddbe 735e ab3c f973 323e
00000300: 5cd5 68bd 66c1 dfbd edac 8cbd 7190 2abf
00000310: 7a01 523e 8229 623e 973d 003f 1307 5c3e
00000320: 9f5b 86be 346f c23e be1c 19bd 7563 05bf
00000330: 017a 3e3e cbd3 6ebd b4fd 063e 2880 2ebd
00000340: 3dee 90be 9241 e2bd 84a8 a33e 951a af3d
00000350: 93c6 a33e 806e 63be b911 1fbe e4c4 51be
00000360: c92d e4be 090c 9bbe ef0d b63e b397 18bf
00000370: 4a06 823e e9bd 47bb b2d8 863e b023 cc3e
00000380: d0e4 633d 971f e33d df39 1f3e 1634 253f
00000390: 7290 41bc 5792 a1b9 6957 c3be 39c0 b33d
000003a0: 0b96 ea3d 1089 dd3d c576 aebd d015 12bf
000003b0: 972e 793e c62f a93d fee8 173e ca2b 8b3d
000003c0: 14e6 7f3e e14a 283f 5479 3dbd aa00 533e
000003d0: cf00 bf3e e1ed 613e d258 14be 9235 e4bd
000003e0: c5b7 783e d140 4e3d fae8 853d 0602 dd3e
000003f0: ca8a 85be 0ee1 7c3d c0d3 c2be 704a 26bd

value_layer.0.bias f4 [64]
-0.09479991 0.023763664 0.4218345 0.36899963 -0.25678527 -0.24003154 0.18290628 0.13638975
-0.04126268 0.17552435 0.17986816 0.1396578 -0.1295816 0.25585496 -0.38625616 -0.21315087
-0.33276552 -0.43831176 -0.06675653 -0.1753204 0.030280063 -0.19452101 0.0049635754 -0.10628873
-0.23494278 -0.4409799 -0.49896374 -0.15203284 0.29268554 -0.26687613 0.02542557 -0.033323094
0.18408091 0.109197095 -0.08468988 0.16948041 0.13566984 0.51946914 -0.19259053 0.2947249
0.09979518 0.14999883 -0.027655981 -0.16230078 0.32011798 0.058304787 -0.056098226 0.36220446
0.23790948 0.2729287 0.021493705 -0.052338924 -0.37569788 0.5357183 -0.42008945 -0.23832095
0.113803804 -0.3883472 0.29394183 -0.16622731 -0.043545447 0.24175987 -0.14181393 -0.16235034
00000000: 7526 c2bd 04ac c23c b1fa d73e 85ed bc3e
00000010: 5c79 83be d4ca 75be c94b 3b3e c1a9 0b3e
00000020: 0e03 29bd a8bc 333e 5c2f 383e 7402 0f3e
00000030: 0ab1 04be 6cff 823e 5ec3 c5be 3944 5abe
00000040: 3e60 aabe 666a e0be a6b7 88bd 3187 33be
00000050: e50d f83c 8430 47be 7da5 a23b e8ad d9bd
00000060: d794 70be 1ec8 e1be 2d78 ffbe 7fae 1bbe
00000070: e1da 953e fda3 88be 4949 d03c cc7d 08bd
00000080: b57f 3c3e baa2 df3d e371 adbd 468c 2d3e
00000090: 09ed 0a3e eefb 043f 7436 45be 2fe6 963e
000000a0: 6a61 cc3d 4b99 193e cc8e e2bc 2d32 26be
000000b0: 81e6 a33e 00d1 6e3d 41c7 65bd dd72 b93e
000000c0: 8b9e 733e 50bd 8b3e 9113 b03c 5761 56bd
000000d0: 795b c0be d624 093f f715 d7be 680a 74be
000000e0: f811 e93d 72d5 c6be 8b7f 963e 7e37 2abe
000000f0: b65c 32bd e68f 773e ac37 11be 2b3f 26be

value_layer.2.weight f4 [64, 64]
-0.16240475 0.03130998 0.14051762 -0.020523747 -0.08070795 0.019088522 0.061507784 -0.03610781
-0.0567614 0.16739388 -0.05591447 0.026596218 0.03626535 0.015767852 -0.02900829 -0.083939955
0.06490811 0.01980071 -0.049206596 -0.11951332 -0.016350295 0.05936208 0.20281215 0.10139782
0.13611591 0.15843423 0.09989573 0.14288858 -0.10569935 0.041543078 -0.087843925 -0.009271822
0.15344147 -0.025934588 -0.018450104 -0.015972747 -0.08224376 -0.019398158 0.036458075 0.13190675
-0.01987722 0.01266669 0.038610656 0.16120405 -0.03654319 -0.055002343 -0.06412498 -0.14967968
-0.0002886147 0.014425046 0.03473242 0.061925914 0.13460866 -0.15991321 -0.0008044663 -0.12706771
-0.04241472 -0.020327516 0.05408248 -0.025091864 0.07996018 0.062168214 -0.02954805 0.16312091
0.18686485 0.05301542 -0.09336997 -0.057826433 -0.030600592 -0.12575187 -0.043388307 -0.00681035
-0.0033529543 -0.0014362019 -0.12590477 0.16324987 0.11254874 0.03652232 -0.10362454 0.044918384
0.09342308 -0.19982383 0.04572388 0.014128332 0.13206334 -0.089661986 -0.022211911 -0.10296387
-0.11845282 -0.119828604 -0.040489424 0.058612432 -0.033763364 -0.048200693 0.024855835 0.14382012
0.02709518 0.07668262 -0.026993237 0.008494118 0.06707025 -0.0053242245 -0.051254727 -0.06730877
-0.060596727 -0.016439656 -0.05542002 0.1147596 0.10453693 -0.071595155 0.09256024 -0.06875465
-0.02981632 0.0017411914 -0.097322755 -0.05050464 0.022853073 0.20844992 -0.016473342 0.0041257367
0.16626294 0.19715704 0.023385575 -0.11474271 0.02949725 -0.06936025 -0.0758428 0.058397904
-0.14222327 -0.09815961 -0.10579196 0.077171326 0.06786084 0.1154559 0.016437773 0.08815176
-0.08360229 -0.0005363664 -0.105854824 0.100122325 -0.11254435 -0.079296924 0.07746767 0.13042347
0.011224456 0.15431437 0.060434178 -0.099953935 -0.07071854 -0.12399281 -0.036453158 0.18770465
0.18843146 0.18058668 0.07055361 -0.0432547 -0.17571782 0.07796724 -0.054860722 -0.053134162
0.07671013 -0.023173844 0.095234916 -0.1883338 0.014287394 -0.033712745 -0.032753907 -0.06987065
-0.087119944 0.056068137 0.10094591 0.12899366 -0.052770317 0.04335389 -0.010406271 -0.03534345
0.04675992 -0.015094935 -0.042234086 -0.061353214 -0.0036498117 -0.08230465 0.14144544 -0.012050529
-0.13415526 -0.07236313 -0.07072017 0.006655701 -0.07557132 -0.06255535 -0.04683175 0.06315196
-0.152551 -0.21207179 0.13029633 0.11990051 -0.038179226 -0.015268403 0.17985146 -0.38514525
-0.13658948 0.24942361 0.107460074 -0.1532775 -0.10336112 0.087723605 -0.009676712 0.055707388
0.05960756 -0.0071275947 0.007840666 -0.34387937 -0.13573895 0.14572227 -0.029185856 -0.09570297
0.35782632 0.09932388 -0.19046755 0.23131612 -0.22843105 0.11431848 -0.20645474 -0.24886337
0.085943475 -0.08101346 0.16942237 -0.29280895 0.0122825 0.13419606 0.027576761 -0.121321134
-0.1379611 0.12693089 -0.028542921 0.04311511 0.22467002 -0.1801122 -0.2104427 -0.0069671962
-0.11210406 0.03996367 -0.107956275 -0.065700814 -0.14813617 0.10069194 -0.2563324 -0.22598074
-0.27225474 -0.1648269 0.1872762 0.22115552 0.30354303 -0.13865946 0.065982044 0.070510484
00000000: 6e4d 26be e53e 003d dae3 0f3e 6b21 a8bc
00000010: 364a a5bd 885f 9c3c 96ef 7b3d c8e5 13bd
00000020: a47e 68bd 4d69 2b3e 9206 65bd 50e0 d93c
00000030: fa8a 143d 952b 813c cba2 edbc b6e8 abbd
00000040: 8bee 843d 1935 a23c db8c 49bd 66c3 f4bd
00000050: 0ef1 85bc a725 733d fdad 4f3e a9a9 cf3d
00000060: f861 0b3e 953c 223e 2296 cc3d 6251 123e
00000070: e778 d8bd 1329 2a3d 84e7 b3bd d7e8 17bc
00000080: c31f 1d3e c674 d4bc ac24 97bc 47d9 82bc
00000090: 6b6f a8bd e3e8 9ebc 1055 153d 9012 073e
000000a0: 8dd5 a2bc f387 4f3c 3526 1e3d ad12 253e
000000b0: 50ae 15bd 234a 61bd f553 83bd a145 19be
000000c0: 3651 97b9 0757 6c3c 9543 0e3d 07a6 7d3d
000000d0: dad6 093e 4ac0 23be d2e2 52ba 0a1e 02be
000000e0: 0fbb 2dbd e485 a6bc 9785 5d3d 748d cdbc
000000f0: 2ac2 a33d 19a4 7e3d c10e f2bc 2b09 273e
00000100: 8059 3f3e b226 593d c138 bfbd 69db 6cbd
00000110: 18ae fabc 19c5 00be f0b7 31bd 5b29 dfbb
00000120: 3dbd 5bbb f03e bcba 2eed 00be f92a 273e
00000130: f47f e63d 6e98 153d 1a39 d4bd 57fc 373d
00000140: 9a54 bf3d 9e9e 4cbe f748 3b3d 857a 673c
00000150: 9d3b 073e b4a0 b7bd c1f5 b5bc b9de d2bd
00000160: 6497 f2bd b368 f5bd 3dd8 25bd 9713 703d
00000170: 744b 0abd 176e 45bd 779e cb3c 9545 133e
00000180: b6f6 dd3c c70b 9d3d ec20 ddbc ea2a 0b3c
00000190: 215c 893d d576 aebb 7af0 51bd 2ed9 89bd
000001a0: 4634 78bd 75ac 86bc 1a00 63bd 1507 eb3d
000001b0: 7517 d63d 7ba0 92bd 3990 bd3d 3dcf 8cbd
000001c0: 5b41 f4bc b038 e43a 2751 c7bd f4dd 4ebd
000001d0: 5e36 bb3c e573 553e 1af3 86bc 3031 873b
000001e0: d540 2a3e 89e3 493e 1b93 bf3c 3afe eabd
000001f0: 38a4 f13c bf0c 8ebd 7853 9bbd a432 6f3d
00000200: faa2 11be e807 c9bd 75a9 d8bd 000c 9e3d
00000210: a0fa 8a3d 2574 ec3d 82a8 863c e988 b43d
00000220: ad37 abbd f19a 0cba 6aca d8bd ef0c cd3d
00000230: a77d e6bd 6d66 a2bd 5fa7 9e3d bb8d 053e
00000240: c8e6 373c 9604 1e3e d489 773d a6b4 ccbd
00000250: e2d4 90bd f1ef fdbd e84f 15bd a635 403e
00000260: 2df4 403e b7eb 383e 697e 903d d72b 31bd
00000270: 5fef 33be 4aad 9f3d a3b5 60bd 35a3 59bd
00000280: 331a 9d3d 13d7 bdbc 860a c33d 93da 40be
00000290: ac15 6a3c 6016 0abd f628 06bd 5818 8fbd
000002a0: f16b b2bd b4a7 653d bbbc ce3d ea16 043e
000002b0: b025 58bd d993 313d 107f 2abc 4bc4 10bd
000002c0: 5487 3f3d bf50 77bc a6fd 2cbd 824d 7bbd
000002d0: ae31 6fbb 578f a8bd 13d7 103e 956f 45bc
000002e0: ff5f 09be 1f33 94bd bdd5 90bd 1118 da3b
000002f0: 23c5 9abd 051d 80bd a6d2 3fbd d155 813d
00000300: 5436 1cbe 5929 59be 676c 053e 668e f53d
00000310: d261 1cbd 5328 7abc fb2a 383e c231 c5be
00000320: 1dde 0bbe e768 7f3e 0714 dc3d c7f4 1cbe
00000330: ffae d3bd 6fa8 b33d 128b 1ebc 6e2d 643d
00000340: 0f27 743d 998e e9bb 2376 003c f510 b0be
00000350: 27ff 0abe 3838 153e 2d17 efbc ebff c3bd
00000360: 0335 b73e 526a cb3d ed09 43be 22de 6c3e
00000370: d4e9 69be cf1f ea3d df68 53be 0ad6 7ebe
00000380: 2203 b03d 63ea a5bd 0f7d 2d3e 0eeb 95be
00000390: 8a3c 493c b16a 093e a9e8 e13c 3777 f8bd
000003a0: ad45 0dbe 2cfa 013e d8d2 e9bc 7899 303d
000003b0: e60f 663e 556f 38be 4b7e 57be 144d e4bb
000003c0: d096 e5bd f2b0 233d 2e18 ddbd 268e 86bd
000003d0: 02b1 17be 9337 ce3d 003e 83be 7f67 67be
000003e0: f964 8bbe 62c8 28be 55c5 3f3e 9876 623e
000003f0: fe69 9b3e bffc 0dbe 9821 873d cd67 903d

value_layer.2.bias f4 [64]
-0.13200581 0.056849763 -0.07833872 0.114338264 -0.15085134 -0.0748316 0.040388916 0.171293
0.14333951 0.003635047 0.00015035033 0.106729575 0.27881122 0.04984594 -0.010292599 -0.16608036
-0.040492084 0.29351622 -0.14765231 0.09143826 0.19435063 0.11565086 0.24430089 -0.09196484
-0.046365835 -0.10601881 -0.04675407 0.16153035 -0.07945872 0.12110246 0.103634745 0.06334363
0.10725371 -0.008231218 0.013720439 -0.04678137 -0.26403168 -0.1861366 -0.18562327 0.106423914
0.088494055 -0.072157584 0.102508426 -0.14604709 0.00022798611 -0.12068245 -0.26257068 0.09319357
0.082129195 0.051914517 0.033464726 -0.04332586 -0.106689245 -0.12758124 0.029365964 -0.13479212
-0.0720893 0.12440894 0.074009016 0.022339428 0.18476078 0.10676916 -0.06962071 -0.01689383
00000000: 882c 07be 4cdb 683d 0d70 a0bd 2e2a ea3d
00000010: c678 1abe 4f41 99bd d96e 253d 6f67 2f3e
00000020: 98c7 123e f839 6e3b 5ca7 1d39 0995 da3d
00000030: 58c0 8e3e 422b 4c3d 4aa2 28bc f810 2abe
00000040: 07db 25bd c247 963e 2b32 17be fc43 bb3d
00000050: da03 473e 5cda ec3d 032a 7a3e 1058 bcbd
00000060: 1aea 3dbd 6420 d9bd 3281 3fbd 3668 253e
00000070: 41bb a2bd 9104 f83d 743e d43d 4eba 813d
00000080: d5a7 db3d 3bdc 06bc b1cb 603c d29d 3fbd
00000090: 292f 87be 989a 3ebe 0714 3ebe c8f4 d93d
000000a0: 5f3c b53d 5bc7 93bd f0ef d13d 5e8d 15be
000000b0: 8e0f 6f39 5c28 f7bd aa6f 86be 45dc be3d
000000c0: 5a33 a83d 51a4 543d 4f12 093d 7576 31bd
000000d0: e47f dabd a8a4 02be e490 f03c f206 0abe
000000e0: 8ea3 93bd 1dca fe3d 0a92 973d 2d01 b73c
000000f0: ee31 3d3e caa9 da3d 4e95 8ebd ee64 8abc

value_layer.4.weight f4 [1, 64]
0.008718929 -0.019818824 0.0144774 0.06622998 -0.004830022 0.0048876256 -0.035801772 -0.068899915
-0.030732268 0.019211814 -0.020643326 -0.014895093 -0.14192604 0.020437645 0.02646408 -0.0017923327
-0.0025551566 -0.13424163 0.009664894 0.00011545257 0.1508041 -0.02312436 -0.0270736 -0.012955236
0.007313877 0.01400086 -0.00021909294 -0.040025197 0.02332957 -0.008484124 0.03135352 -0.08009964
-0.025678022 0.0018397236 0.041925855 0.018349007 0.03963374 0.12444141 0.044444654 -0.0103065735
0.08014957 -0.23434745 0.030164972 -0.0034518722 -0.011234789 0.022222625 -0.13405517 0.004753212
-0.018476047 -0.066000015 -0.015788347 0.0051868577 -0.015767284 -0.013800942 0.018178504 -0.034652337
-0.017950831 0.02560433 -0.0030120325 0.035539385 -0.042401273 0.009468569 0.025019566 0.0055638566
00000000: d7d9 0e3c 165b a2bc 9e32 6d3c 95a3 873d
00000010: 2945 9ebb 6028 a03b e1a4 12bd 661b 8dbd
00000020: 3dc2 fbbc 1862 9d3c 311c a9bc 8c0a 74bc
00000030: 0f55 11be d96c a73c 33cb d83c b5ec eaba
00000040: 6a74 27bb a376 09be 8159 1e3c 201f f238
00000050: 646c 1a3e 4c6f bdbc 74c9 ddbc 3342 54bc
00000060: 3fa9 ef3b dd63 653c 50bc 65b9 76f1 23bd
00000070: a81d bf3c ff00 0bbc 8c6c 003d 480b a4bd
00000080: b75a d2bc e122 f13a 72ba 2b3d a850 963c
00000090: fd56 223d 23db fe3d 990b 363d e7dc 28bc
000000a0: 7525 a43d c7f8 6fbe 881c f73c ce38 62bb
000000b0: 1f12 38bc 390c b63c c245 09be d5c0 9b3b
000000c0: 145b 97bc 042b 87bd 9056 81bc 84f6 a93b
000000d0: 642a 81bc 591d 62bc 16eb 943c 9cef 0dbd
000000e0: 9f0d 93bc 2cc0 d13c 8565 45bb bf91 113d
000000f0: f5ac 2dbd 0f22 1b3c d5f5 cc3c 0351 b63b
