Homework8/Gym-PPO-solution/results/PPO_LunarLander-v2_1500-eps0.2.pth (torch, 42817 bytes, 11 tensors)

action_layer.0.weight f4 [64, 8]
000000 8e 5a db bd df 4d f6 3d cb a0 b6 be 62 5a 98 be
       -0.10710631 0.120265715 -0.3566955 -0.29756457
000010 f0 8f 40 3e ee 81 5a 3e f0 62 3e bc f0 b1 82 3e
       0.18804908 0.21338627 -0.011620268 0.2552638
000020 61 70 57 3e 5d b8 dd 3c 62 bb 65 bc 85 1c fc bd
       0.21038963 0.02706545 -0.014021726 -0.12310127
000030 88 50 11 bf 16 0f bc be b1 35 6b bd 93 d8 bf 3d
       -0.56763506 -0.3673026 -0.05742425 0.0936748
000040 d7 9b 1b bd d8 cf 0d 3e c7 36 d2 be 31 96 1f be
       -0.037990417 0.13848817 -0.41057417 -0.15584637
000050 8e 38 2f 3f 2e 50 40 3f 52 fe eb bd 46 93 c6 3e
       0.6844567 0.75122344 -0.11523117 0.38784236
000060 28 8c db 3c c3 6b 0b be fd de ba 3e b6 16 0e bf
       0.02680023 -0.13615327 0.36498252 -0.55503404
000070 45 dd f4 be 00 37 38 be 18 fd 35 bd 37 12 93 3e
       -0.47825065 -0.17989731 -0.044430822 0.28724834
000080 c1 86 25 be e6 71 70 be 8a 45 85 be 3a fe 1b bf
       -0.16164686 -0.23480949 -0.26029617 -0.60934794
000090 f7 fc 55 be 53 84 31 3e 21 7e 22 3e 67 07 10 3e
       -0.2089728 0.17335634 0.15868427 0.14065324
0000a0 73 82 18 3e 2e 0a 84 be eb 55 ec 3d 40 4f de be
       0.14893512 -0.25789016 0.11539825 -0.43419838
0000b0 a7 77 20 bf 73 68 c0 be 49 39 9c 3e 69 b8 1e 3e
       -0.62682575 -0.37579688 0.30512455 0.15500034
0000c0 ed 3c 5d be 65 3a 50 3d 25 72 80 3e 7c 68 0d 3f
       -0.21605273 0.05083694 0.25087085 0.55237556
0000d0 80 bc ff 3d a8 89 33 3e 0d 23 2c 3e 9d 55 11 be
       0.124871254 0.1753298 0.16810246 -0.14192815
0000e0 28 ba dc bb 99 c7 8c be f5 5e 80 be 0a 4d e0 be
       -0.0067360587 -0.2749603 -0.25072446 -0.43808776
0000f0 66 80 a1 3e 75 eb 18 3e 78 94 01 be 51 61 b7 3d
       0.31543273 0.1493357 -0.12654293 0.089541085
000100 9c bd 1b bd e0 90 f0 3c d0 11 b6 bd e5 61 1f 3e
       -0.038022622 0.029365957 -0.08890116 0.15564688
000110 18 06 35 3f ed ef 41 3f 56 ad 92 be 89 c3 41 be
       0.70712423 0.7575672 -0.2864787 -0.18922247
000120 19 25 27 3e fd 9f 9a 3e 8e a8 a0 3e 01 4d fa 3e
       0.16322745 0.30200186 0.31378597 0.48886874
000130 ba 60 7c bd 6a a3 3b be 0e 27 89 ba 40 d3 20 be
       -0.061615683 -0.18324056 -0.001046391 -0.15705585
000140 d1 b4 8c be 9a e9 fd 3d d5 59 4b 3e 18 7c e8 be
       -0.27481702 0.123980716 0.19858487 -0.45407176
000150 8a 72 37 3e d5 30 f5 bb 27 19 96 bc 86 d7 b3 bd
       0.17914787 -0.007482628 -0.01832254 -0.08781342
000160 e4 80 ce bc c1 79 e5 3c 77 86 37 3d a7 8d 43 3d
       -0.025207944 0.028012158 0.04480597 0.047742512
000170 a0 0a 14 3f cc 49 f2 3e 05 05 a7 be 79 e7 8a be
       0.5782871 0.47321928 -0.32621017 -0.27129725
000180 63 11 90 3d 0f 04 8b 3d ed ff ad be 75 1b c5 be
       0.07034566 0.067878835 -0.33984318 -0.3849751
000190 a9 c2 44 3f 23 b4 19 3f ac e2 e6 bd 9f ee 9c bd
       0.7685953 0.6004049 -0.11273703 -0.07662701
0001a0 77 66 c0 be c8 81 49 bc e2 b0 71 be 66 8f de be
       -0.37578174 -0.012299009 -0.23602632 -0.4346878
0001b0 75 cc 8a 3e 03 03 15 3e d2 d2 82 bd 2d 7b 97 3e
       0.27109113 0.1455193 -0.06387867 0.29586163
0001c0 e9 00 fc bd 27 1c ce 3d 9b 30 a0 3e 4b 4c e3 be
       -0.12304861 0.100639634 0.31287083 -0.44394144
0001d0 c9 49 69 be 4a 84 b3 3c ae 88 3e 3d 3e f0 9b 3d
       -0.22782053 0.021913666 0.046517067 0.07614182
0001e0 46 e3 74 3e f7 aa 30 3d b7 9f ea bd e5 3b 9f 3e
       0.23914823 0.043131795 -0.114562444 0.31100383
0001f0 fc 63 d6 be 9c 00 6e be b8 25 66 bd 7b 00 d5 bd
       -0.41873157 -0.2324242 -0.056188315 -0.10400482
000200 97 df 9a 3c d9 16 67 be 7d 04 8e bd 4a 94 11 3d
       0.018905444 -0.2256731 -0.0693445 0.03554181
000210 d6 38 89 be 98 55 8b be 88 09 21 3e a6 e3 c2 bd
       -0.26801175 -0.2721374 0.15726292 -0.09516077
000220 02 38 a9 bd e7 8f ba 3d 5e 54 0a 3d 79 56 ca 3e
       -0.08262636 0.091094784 0.033771865 0.39519098
000230 0a 3c 9a 3e ac ac 5a 3e bc a7 a6 3e 23 fa db bc
       0.3012393 0.21354932 0.32549846 -0.026852673
000240 ef d2 4a be 80 fa 8e be d2 03 c8 3e 9b 93 a8 bd
       -0.19807027 -0.2792549 0.39065415 -0.082312785
000250 9d 6d 11 bf c1 a3 2f bf d8 67 b1 be ad 8e 95 be
       -0.5680788 -0.68609244 -0.3464954 -0.29210415
000260 5f bd 56 be 80 1f 0d 3e 52 76 03 3e 1a 1c 8c be
       -0.20970677 0.13781548 0.12838104 -0.2736519
000270 3a a6 d0 3e 74 cc 26 be c5 33 fb bd 3f bd 35 be
       0.4075182 -0.1628893 -0.12265734 -0.17747973
000280 18 7d 69 bd d3 57 56 bd 59 3f bd be b0 24 09 bf
       -0.057004064 -0.05232985 -0.36962393 -0.53571606
000290 45 c2 15 3e 14 82 03 3d e0 6a c2 bd b5 58 de 3d
       0.14624889 0.032106474 -0.09493041 0.10856763
0002a0 e7 10 b3 be 86 d7 3b 3d 60 bc 50 3e bc cc c1 be
       -0.34973833 0.045859836 0.2038436 -0.37851512
0002b0 33 d2 a7 3e b5 54 6a 3e ae cb 83 bd 69 74 9d 3e
       0.32777557 0.22883876 -0.06435333 0.30752876
0002c0 ff be a5 3c a9 f9 32 be 31 bc 80 3e 2f dc 1b bf
       0.020232676 -0.1747805 0.2514358 -0.6088285
0002d0 2b ee d8 bd 6a 2e 69 be 91 ac 81 3e b0 2a 6c 3d
       -0.10592302 -0.22771612 0.2532697 0.057657897
0002e0 a7 9d 6f 3e 90 35 93 3d 1b e9 92 bd 85 c6 19 3e
       0.23399983 0.071879506 -0.071733676 0.15017135
0002f0 fa ac 12 bf 12 88 5e 3d fb 9d 6e 3e 09 28 fd 3d
       -0.5729519 0.054328986 0.23302452 0.12361152
000300 06 6f b5 3b c0 20 de bc 68 55 dc bd cf 16 8c be
       0.0055369167 -0.027115226 -0.107584774 -0.27361152
000310 4a 68 58 be cb 8b 15 bd 38 1d ce bd 06 83 6c bc
       -0.21133533 -0.03651027 -0.10064167 -0.014435535
000320 e5 14 18 bc a7 c8 48 3e f4 19 c0 be b5 11 4c be
       -0.009282325 0.19607793 -0.375198 -0.1992863
000330 ca b0 25 3c e8 f6 ee 3e 43 45 0e bd f5 b4 97 3e
       0.010112951 0.4667275 -0.034734022 0.29630247
000340 bf ad f5 3d 99 a2 38 bc 44 e0 72 bd e8 a7 8f be
       0.1199603 -0.011269235 -0.059295908 -0.2805779
000350 35 82 5d 3d 92 f6 6a be f0 32 fe 3b b1 d1 4d bc
       0.054079253 -0.22945622 0.007757537 -0.012562201
000360 fa 5b 71 be 9d 73 66 be bb 31 8f 3e 38 4f d8 be
       -0.23570243 -0.2250504 0.2796763 -0.4224794
000370 77 d0 83 be 3d 13 f0 3d b9 67 be 3d 78 ca 90 bd
       -0.25744984 0.117224194 0.09297127 -0.07069868
000380 fd 90 93 be 7d e6 2b 3e 1b 69 8c be 4d 87 b9 bd
       -0.28821555 0.16787143 -0.2742394 -0.0905901
000390 ba 5e 54 3e da c9 65 bd f2 14 ad 3a e5 9a a1 3e
       0.2073926 -0.056100704 0.0013205095 0.31563488
0003a0 46 6b 2f bd c8 93 6b 3e e8 b0 3f 3e 3f e4 20 be
       -0.042826913 0.23005593 0.18719828 -0.15712069
0003b0 95 1c 6f 3e 65 fb 58 be 6f 46 18 be 1b d1 43 3d
       0.23350747 -0.2118965 -0.14870618 0.04780684
0003c0 df f4 ef 3c 95 75 7a 3e 6b 82 45 be fa e0 9a 3d
       0.029291568 0.24458916 -0.19288032 0.07562442
0003d0 72 ef f5 3e 0e bb 8b be 49 6d 5c 3e 35 93 66 be
       0.48034245 -0.2729115 0.21526064 -0.22517093
0003e0 f4 b2 e8 bd 4a 27 c0 3d 45 d8 28 be 38 a3 37 3e
       -0.113622576 0.09382494 -0.1648875 0.17933357
0003f0 af cb e7 3e c7 99 a0 3c 37 11 23 be 9a 04 4b bd
       0.45272586 0.019604577 -0.15924536 -0.049564935

action_layer.0.bias f4 [64]
000000 70 6d 14 be 16 fc e8 bd 47 80 b7 3c b0 2a dc 3c
       -0.14494872 -0.113762066 0.022400035 0.026875824
000010 3e 47 3d be 61 69 44 bc 4a a3 48 3e 4a 35 ed bc
       -0.18484208 -0.011988015 0.1959354 -0.028956074
000020 00 fd cd 3d d3 23 46 bd 28 47 92 bb ce 84 e8 bd
       0.100580215 -0.04837401 -0.004464049 -0.113534555
000030 9a 0f 4c be a5 1f 15 be d6 d0 56 3e f1 7f b7 bc
       -0.19927827 -0.14562853 0.20978102 -0.022399874
000040 26 b7 0d 3d e9 37 e9 bd cc 16 84 3e ae a9 7f 3e
       0.034598492 -0.11387617 0.25798643 0.24967071
000050 9f 53 67 be 02 ce 46 be 87 8a 5c be 19 bd 39 bd
       -0.22590493 -0.19414523 -0.21537219 -0.045346353
000060 8f 92 85 bd 7d b0 4e be 33 aa c8 bd 60 50 ac 3c
       -0.065220945 -0.20184512 -0.09798088 0.02103442
000070 70 b4 22 be e4 1f 01 ba 3c fa af bd a6 f8 a5 bd
       -0.15889144 -0.00049257115 -0.0859265 -0.081040666
000080 f3 ba 9b bd 9d 09 86 3e 53 7d 68 be 09 2a 14 3e
       -0.07604017 0.2617921 -0.22704057 0.1446916
000090 7a ee 70 bd 30 5b 8b 3e d3 e3 95 bd b5 a5 49 be
       -0.05882118 0.27218008 -0.07318845 -0.19692118
0000a0 12 af 87 3e b0 3f 41 be ae 87 bf 3c 3c 2d e6 bc
       0.26500756 -0.18871951 0.023380127 -0.028097741
0000b0 8e 83 e5 bc 05 54 7d bc 2a 8d 6f 3e b1 89 27 3c
       -0.028016832 -0.015461926 0.23393694 0.010225699
0000c0 ab b8 84 be bb c0 cb bd 0d 57 b2 bd ac a3 b9 3d
       -0.2592214 -0.0994887 -0.0870801 0.09064421
0000d0 fd fb ce bd 96 65 82 3e e5 70 8b bd 01 34 d1 3c
       -0.10106657 0.2546813 -0.06808642 0.025537493
0000e0 2d 59 9c 3e 11 a2 84 3d 11 7e 02 3e 62 73 f9 3d
       0.30536786 0.06476224 0.12743403 0.12180211
0000f0 5a a9 48 bd 96 fb 13 be 21 1f 8c 3c 97 b1 6f 3e
       -0.04898963 -0.14451441 0.017104687 0.23407589

action_layer.2.weight f4 [64, 64]
000000 93 78 9b bc 33 d1 b7 bd 94 d4 4e 3d 36 0c df 3d
       -0.018978393 -0.089754485 0.0504957 0.10891001
000010 22 05 9e bc 65 cf d2 bd 1d a4 ee bd d5 cf 62 3c
       -0.019289557 -0.102934636 -0.11652396 0.013843496
000020 e0 24 5b bd 26 46 54 bd 34 1e d1 3b d2 98 5a 3d
       -0.053501964 -0.05182471 0.0063817743 0.053368397
000030 34 e1 87 3d 7d fc d5 3d 9d 3a 09 bd 95 08 9b bd
       0.06634751 0.10448549 -0.033503164 -0.07569996
000040 72 6b df bd e4 e0 f1 3d 15 f0 e2 3c 4d c0 e0 3c
       -0.109091654 0.118104726 0.02770237 0.027435446
000050 45 e1 b9 bd a6 65 d9 3d 9a 8c d2 3d 7a bf 22 3e
       -0.0907617 0.10615091 0.10280724 0.15893355
000060 3d dc ae bd 34 3f fa 3c ea 97 a5 bd ce b8 b0 3d
       -0.08538101 0.030547716 -0.08085616 0.08628999
000070 7b 28 3c bc de 69 98 bd 21 63 72 3d ed bb 9f bd
       -0.011484261 -0.074420676 0.059176568 -0.07799516
000080 a2 c0 df bc 91 18 53 bd 61 8e 75 bd 3e 17 a6 bd
       -0.027313534 -0.0515371 -0.059950236 -0.08109902
000090 e4 68 df 3d fd 31 8f bd 38 87 2a 3d 7a d7 01 3e
       0.10908678 -0.069919564 0.04163286 0.12679854
0000a0 20 0d 38 3d a5 d8 ca bc e5 2e fa 3d 83 9a 71 3d
       0.044934392 -0.024761507 0.12215976 0.058985244
0000b0 f6 44 3f 3c 45 8e 03 3e de 01 cf 3c 78 cc 02 be
       0.011674156 0.1284724 0.025269445 -0.12773311
0000c0 9e 57 6c 3c fe a1 a8 bd 58 94 f2 3d b4 05 13 bd
       0.014425186 -0.082340226 0.118447006 -0.03589411
0000d0 6e 04 d9 bd ef 6e 3d bd 9e d3 87 3d 3a 79 80 3d
       -0.10596548 -0.046248373 0.0663216 0.06273122
0000e0 fe 3b be bc 22 4d 59 3c 52 78 32 3d aa 17 fb bc
       -0.023221966 0.013263019 0.043571778 -0.030650932
0000f0 85 50 e0 bc 73 47 f6 bd a1 7d 56 bd d9 e2 19 3d
       -0.027382145 -0.120253466 -0.052365903 0.037569854
000100 6b 0b c1 bd 33 d1 cc bc 54 3e b1 3d 29 76 89 bd
       -0.09426006 -0.025002098 0.08654466 -0.067119904
000110 30 03 86 be b2 22 13 bd d4 71 11 3d 65 5a 98 3b
       -0.26174307 -0.03592176 0.035508946 0.0046494477
000120 12 19 1f bd ff 2c 76 3d 3b e5 c1 3d 80 6b 21 bd
       -0.03884227 0.060101505 0.0946755 -0.03940916
000130 70 29 05 3e 83 56 11 be f4 72 a7 bd 19 a2 25 bd
       0.13004088 -0.14193158 -0.081762224 -0.04043779
000140 99 1f da bc b6 a4 04 3e 4a 64 b1 bd dd 8d 9a 3d
       -0.026626395 0.12953457 -0.08661707 0.075465895
000150 66 c7 e1 bd 77 3f 31 bd 77 46 2d bd 4a 80 09 be
       -0.1102436 -0.043273415 -0.04230353 -0.13427845
000160 4a 40 1c 3d 8f a1 cd 3d 29 c3 85 3c ec 7c 47 bc
       0.03814725 0.100405805 0.016328411 -0.01217578
000170 33 4a 36 bd ce 94 0a 3e 4c 53 18 bd 4c 84 8b bb
       -0.044504356 0.13533327 -0.037188813 -0.0042577144
000180 84 94 c8 bc 71 44 d9 3d c2 d0 4a 3d 41 aa f9 3d
       -0.02448488 0.10608757 0.049515493 0.121906765
000190 3f 66 13 3c 06 9b cb bd 09 e8 9f 3d e4 50 4d bd
       0.008996545 -0.09941678 0.07807929 -0.05012597
0001a0 8a a8 24 3e e4 8d 02 be d4 8b a2 3d d6 b4 ac 3d
       0.16079918 -0.1274944 0.07936826 0.08432929
0001b0 b8 1c 0b 3e 8d e5 95 3d cb 7b 4e 3d 8c 8d 49 3d
       0.13585174 0.07319174 0.050411027 0.049207255
0001c0 53 d9 b9 3d a5 fa e1 3c 49 bc bf 3d 10 4b 4d bb
       0.090746544 0.027585337 0.093620844 -0.0031325258
0001d0 d1 72 94 3d d0 a9 4c 3b 36 3d 0c 3d f7 ee 25 be
       0.07248462 0.0031229146 0.034238063 -0.16204439
0001e0 0e ee d7 3d 75 8b 83 bd aa ab 7d 3c 23 34 6f bd
       0.10543452 -0.06423084 0.015482822 -0.05839933
0001f0 d5 00 a2 bd 4a 8a b1 3c 7a 24 13 be 13 6f 77 bc
       -0.07910315 0.021672387 -0.14369383 -0.015102166
000200 52 90 8a bc ec 56 18 3c 87 1d bc 3b 7a 59 23 3e
       -0.01691452 0.009298068 0.0057408246 0.15952101
000210 0c 72 5d 3d 62 98 3b 3e 74 b5 24 be 08 8e bc bc
       0.05406384 0.18319848 -0.16084844 -0.023016945
000220 18 06 35 be 73 b5 3d be ed 35 05 3e e8 4a 79 bd
       -0.17678106 -0.18526249 0.13008852 -0.06086245
000230 6c b0 f7 3c ea 51 9a 3d 82 75 ce 3d 15 8a b6 3d
       0.030235492 0.07535155 0.100810066 0.08913056
000240 d9 d0 c0 3d 7c 87 f6 bd 3f 83 f6 bc 8a ab 6c bd
       0.094148345 -0.1203756 -0.03009188 -0.05778078
000250 d5 1c 82 3c 46 5b ad 3c db 49 6d 3e b6 5f 83 bd
       0.015882889 0.021161687 0.23172705 -0.0641474
000260 ee c8 d4 3d a2 57 62 3c 4b b3 83 3d 54 d4 24 3e
       0.10389887 0.013814839 0.06430682 0.16096622
000270 09 38 1f 3c 40 5e df 3c 25 f6 32 bd 1d 12 a2 3d
       0.00971795 0.027266622 -0.043691773 0.07913611
000280 f2 fb a9 3c c2 19 13 be c9 43 db 3d d4 bc 13 be
       0.02075002 -0.14365295 0.10706288 -0.14427501
000290 d3 bf 00 be d8 dd 5d 3d 49 09 8e 3d 40 fa 42 bd
       -0.12573175 0.054166645 0.06935365 -0.04760194
0002a0 4c 68 3d 3d 7b c2 0f 3e 7e cf 2d 3d 5d c4 18 be
       0.046242043 0.14039032 0.042434208 -0.14918657
0002b0 a5 9d bd bd 1d cb 58 bd a9 ac 80 be 33 48 ab bd
       -0.09258584 -0.05292808 -0.2513173 -0.0836338
0002c0 89 bd 4e 3d 02 ea 96 3d 50 a6 54 bd ed b1 24 3c
       0.050473724 0.07368852 -0.05191642 0.010052186
0002d0 98 27 c6 bd 57 8a 32 3e e5 68 3d 3d 51 3a df bd
       -0.09675521 0.17435585 0.046242613 -0.10899795
0002e0 63 e6 a8 bd 73 ea 90 3d 8c d5 9a bd 7a 41 48 3e
       -0.08247068 0.07075968 -0.07560262 0.19556227
0002f0 b2 c6 c5 3c 35 41 93 bd e1 26 a5 bd a6 48 8c 3d
       0.024142597 -0.07190172 -0.08064056 0.06849794
000300 06 23 a7 bd 53 ad fc 3b 64 07 fd bc d8 e1 1a bd
       -0.08160977 0.0077110915 -0.030887313 -0.037813038
000310 63 59 82 3e 49 3f 61 3e 55 94 b4 bd 91 8d 15 3d
       0.25458822 0.21996798 -0.088173546 0.03651196
000320 fe f3 7d 3d 37 d8 23 be 8f 0a ed 3d 0f 95 e3 bd
       0.062000267 -0.16000448 0.115742795 -0.11112415
000330 ac 12 c0 bd 4a b4 16 3e 54 ca 60 bc 05 a9 84 bb
       -0.093785614 0.14717212 -0.013720114 -0.004048469
000340 5c c5 f2 bc 69 c5 92 bd 0f d7 88 3a 51 42 0b be
       -0.029635124 -0.07166559 0.0010440069 -0.13599516
000350 4b 3b 00 3e ed de 80 3d 3a 27 70 3e 25 0b c9 3c
       0.12522618 0.0629252 0.23452464 0.024541447
000360 57 78 d9 3d 76 b2 ab 3c 2a 9f e9 3c c1 f6 7c 3d
       0.10618656 0.02095912 0.028518278 0.06175876
000370 d7 e9 98 bd 48 40 ce bd 31 bb 5c bd 9a 02 09 bc
       -0.074664764 -0.100708544 -0.053889457 -0.008362437
000380 1c 91 19 3d c6 f4 05 be e1 a5 4d 3e 79 24 18 be
       0.037491903 -0.13081655 0.20082809 -0.14857663
000390 ac 02 48 bc 8d cb 3d 3e 8c fb 14 3e 5f 7b 72 bd
       -0.012207668 0.1853468 0.14549083 -0.059199687
0003a0 45 0f 44 bd 99 25 c1 3d 94 af 3c be 89 1c 47 be
       -0.047866125 0.09430999 -0.18426353 -0.19444479
0003b0 d0 c7 c1 bd a0 2c a0 bd 40 83 be bd c3 99 f7 bd
       -0.09461939 -0.078210115 -0.09302378 -0.120898746
0003c0 c7 54 a5 bd d2 28 f0 3d bc 14 62 bd c8 e5 b8 bc
       -0.080728106 0.11726536 -0.055195555 -0.022570506
0003d0 e9 d0 00 3e a3 ca 8c 3d 75 4c ff 3d 73 d0 77 bc
       0.12579693 0.068745874 0.12465755 -0.015125382
0003e0 66 18 52 bd 47 22 57 bd 35 91 3e 3b f6 a0 a4 3c
       -0.0512928 -0.052522924 0.002907825 0.020096283
0003f0 0f f9 b9 3c 92 76 6a 3d f6 0c 8d 3d fc e8 0d bd
       0.022701768 0.057241984 0.06887238 -0.03464602

action_layer.2.bias f4 [64]
000000 03 ca 89 3b 23 39 ba bd 6b 81 a8 bd 7a d5 69 3d
       0.00420499 -0.09092929 -0.082278095 0.057088353
000010 53 64 94 3d 0c 5b 4a bd 05 89 80 3d f6 d8 03 3d
       0.07245698 -0.049403235 0.062761344 0.032189332
000020 ba 3a be bb 6f 06 9a bd f9 c1 7b bd 5e 48 b8 bd
       -0.0058053406 -0.07520758 -0.061464284 -0.08998178
000030 e8 41 0c be f3 5d 45 bc 9f 66 87 3b ca dc 70 3d
       -0.13697016 -0.012046325 0.0041321064 0.05880431
000040 43 2e 81 3c 62 16 e7 38 76 80 1c 3c db 27 2f 3d
       0.01576913 0.000110191075 0.009552112 0.04276262
000050 d2 83 69 bd e2 17 55 bd d4 2a d6 bc 73 4f ce bd
       -0.05701048 -0.05202473 -0.026143469 -0.100737475
000060 dd a1 bb 3b 24 ff 11 be 7e b8 55 bd 88 59 6d bd
       0.0057260827 -0.14257485 -0.0521779 -0.05794671
000070 95 fc a1 3d b2 15 af bd eb 88 d9 3d f6 8f 71 b9
       0.07909504 -0.0854906 0.10621818 -0.0002303718
000080 48 6e 59 bd 18 2e 37 3e 15 67 d2 bb 36 2a ec bd
       -0.053083688 0.17888677 -0.0064209797 -0.115314886
000090 1d f5 ae bc 66 6c 7b 3d ce ac 27 be 38 1a 5b bc
       -0.021357113 0.061382674 -0.16374514 -0.01337295
0000a0 5a a0 70 3d 10 68 19 bd 04 d0 62 3c 99 1f b4 bd
       0.058746673 -0.037452757 0.01384354 -0.08795089
0000b0 2f a7 90 bd 73 79 bd 3d 0d b5 bd bd 83 6c 27 3b
       -0.07063138 0.0925168 -0.09263048 0.0025546856
0000c0 be 7f 4a 3d 5f 97 0e bd bf 03 6c 3d 85 31 cb bd
       0.04943823 -0.034812327 0.05762076 -0.099215545
0000d0 1c d1 dd 3d fa 5b 99 3d 52 15 84 bc a1 6c ef bc
       0.108309 0.07488246 -0.016123448 -0.029226603
0000e0 35 88 15 3b 22 be 5c 3d 93 32 04 be a3 3d 87 bc
       0.0022816781 0.053892262 -0.12909918 -0.016508883
0000f0 db 48 ef bd 3b 4c 11 be b9 fb 3c 3d ba 23 1b 3d
       -0.11683818 -0.14189236 0.0461385 0.03787587

action_layer.4.weight f4 [4, 64]
000000 f6 92 43 3d b0 88 dc 3c a2 b9 e5 bc a5 11 b7 bc
       0.047747575 0.026920646 -0.028042618 -0.02234728
000010 4d 70 92 bd 3c 9f b6 bd d9 61 8d 3d 4a b1 02 3c
       -0.07150326 -0.0891709 0.069034286 0.007976839
000020 46 17 18 bb f7 0b 3d 3d 7b fe 02 3d 91 87 99 bd
       -0.0023207231 0.04615399 0.031980973 -0.0749656
000030 ab 0b 88 3d db 38 92 bd ba ab 81 bd 73 60 86 3d
       0.066428505 -0.071397506 -0.06331582 0.06561365
000040 38 dc 56 3c 97 8b 36 3d c8 86 0f bc b5 09 74 3d
       0.013114028 0.044566717 -0.008760162 0.05957957
000050 b9 b0 95 bd d9 26 f3 3d 44 19 fa 3d c2 77 82 3c
       -0.07309098 0.11872644 0.1221185 0.015926246
000060 2b b4 ab bc ef 4b 2b 3e ee b1 0b 3d aa 62 bd bd
       -0.020959934 0.16728185 0.034105234 -0.09247334
000070 fe 8a ea bc 05 2d 4d be cb df 55 3d 28 76 02 3d
       -0.02863073 -0.20036705 0.05221538 0.031850964
000080 8f bc 99 bd 66 e7 21 3d 6a d5 1b bb 16 1b 99 bc
       -0.07506668 0.03952732 -0.0023778328 -0.018689673
000090 9c 5b f7 3c a7 96 3f bd 49 ad 9a 3c fa 02 03 3d
       0.03019505 -0.046774533 0.018881457 0.03198526
0000a0 b5 4e 69 bd dd f9 de 3d dd bc d4 3d aa d1 be 3b
       -0.056959826 0.108875014 0.10387585 0.0058233337
0000b0 5a 1e b3 3d 5f 76 29 3c 79 2c 7d 3d f9 c2 91 bd
       0.087460235 0.010343163 0.06180999 -0.07117266
0000c0 c2 c4 f4 bd 2f 5c 9a 3d 8c 92 c6 bc 6a 4b a8 3d
       -0.11951591 0.07537114 -0.0242398 0.08217509
0000d0 3d b8 80 3c 5c fc 6d 3d c6 68 1b bd 47 2a 63 bd
       0.015712852 0.058101997 -0.037941717 -0.05546024
0000e0 46 4e c3 bc f8 0d 25 bd 20 e5 f4 3d 22 10 7d bd
       -0.023841035 -0.040296525 0.119577646 -0.061782964
0000f0 88 bb 10 ba 7c b5 70 bc af 58 1f 3e 7d 60 42 3c
       -0.00055211084 -0.014691707 0.15561174 0.011863825
000100 f8 da 13 3a 4b 77 11 3b 29 1a 24 bd 15 39 dd bd
       0.0005640234 0.0022196348 -0.04006401 -0.10801903
000110 a5 f5 f9 bd fa 5a 4c bd 65 5f ed bd 2d 67 bd 3c
       -0.12205056 -0.04989145 -0.11590461 0.023120487
000120 44 09 a3 3d ef 2c c7 bd 1f 3c 0a be 75 fe ff bd
       0.07960752 -0.09725367 -0.13499497 -0.12499706
000130 d3 35 18 3d a4 02 f1 3d 52 bf bd 3d 2a 6e 89 3d
       0.037160706 0.11768082 0.09265007 0.06710465
000140 94 20 e6 3d 0f 13 8c 3d 86 a5 98 3d af de 82 3c
       0.112366825 0.06839573 0.07453446 0.015975324
000150 66 6b a4 bd 69 29 51 3e 5f 49 0b 3e 50 cd f0 bd
       -0.08028297 0.20425953 0.13602208 -0.1175791
000160 08 9f b2 3d 01 97 41 3d dd ce ae 3d a4 c9 8a 3d
       0.08721739 0.04726315 0.0853555 0.06776741
000170 a8 2e 22 3c 72 8e 19 be 01 55 b4 bd fb 5f 86 3d
       0.009898819 -0.14995745 -0.08805276 0.065612756
000180 af 1f db bd 94 69 be be 68 26 6f 3e 69 2c 86 3e
       -0.106994025 -0.37189925 0.23354495 0.26205757
000190 f9 70 1f be d9 9d 2d bc f7 ac 47 3e 03 90 8a 3e
       -0.1557044 -0.010596716 0.19499575 0.27062997
0001a0 9b 50 99 bd 6c 31 ea bb a9 42 22 bc f8 62 a4 3d
       -0.074860774 -0.007147005 -0.009903588 0.08026689
0001b0 54 50 95 bd 4d b1 3e 3e c8 f4 14 3e 1a 47 1a bc
       -0.07290712 0.18622322 0.14546502 -0.009416366
0001c0 26 38 03 be 43 79 ae bc 04 49 c0 3d 41 39 0d 3e
       -0.12814388 -0.021298056 0.093889266 0.13791372
0001d0 a7 1c e5 3d e5 4f 7e 3d 36 5b 93 3c 63 0d 10 3e
       0.111871056 0.062087912 0.017987829 0.14067607
0001e0 ad 01 31 be 04 c4 1a 3e 7c b9 7f bd b2 6b 13 be
       -0.17285796 0.15113837 -0.06243275 -0.14396551
0001f0 91 25 11 be f7 08 28 3e 9a 13 c1 3e 24 0e 22 be
       -0.14174487 0.1640967 0.37710267 -0.15825707
000200 26 80 6d 3a 3a 95 d5 bc 9f 5d d8 3d 77 75 1b 3d
       0.0009059928 -0.026072133 0.10564732 0.03795382
000210 77 99 11 3e a5 a1 20 3e a7 1a 27 bd 6e 82 d9 3b
       0.14218698 0.15686662 -0.040796902 0.006637863
000220 17 a5 15 3e 50 39 dd 3b 5f c7 d4 3d 72 d9 42 3e
       0.14613758 0.006751217 0.103895895 0.19028261
000230 db 12 26 3d b1 42 78 be 4a a9 29 bc b5 3e b7 3c
       0.040545326 -0.24244191 -0.010355303 0.022368768
000240 bb 63 f3 bd 1e 48 0a be 3c 62 82 bd 01 6d 87 be
       -0.118842565 -0.13504073 -0.06366393 -0.2645035
000250 17 7d 47 3e f2 f3 7a 3d 39 31 39 be 53 1d b3 3c
       0.19481312 0.0612678 -0.18085183 0.021864569
000260 bb e0 42 be 19 82 ea 3d 66 46 34 be b3 a6 b9 bd
       -0.1903104 0.114505954 -0.1760498 -0.090649985
000270 19 64 66 be 3e af 4f 3e dd 32 91 3d 18 79 7b 3d
       -0.22499122 0.20281693 0.070897795 0.06139478
000280 95 07 30 3e 06 98 cc bd 1d 94 13 be be 34 ed bd
       0.17190392 -0.09989934 -0.1441197 -0.115823254
000290 a5 06 01 3e 89 d0 d4 bd 15 88 cd 3c 9d c6 fa bd
       0.12600191 -0.103913374 0.025089303 -0.12244914
0002a0 98 c7 e6 bd 85 23 5e be 25 c4 26 be ca 42 e7 3d
       -0.11268538 -0.21693237 -0.1628576 0.11292036
0002b0 ea cb 29 3d 58 05 c6 bd dc 23 aa bd eb 11 1a be
       0.041454233 -0.09668988 -0.08307621 -0.15045898
0002c0 93 d9 a1 3d e3 92 1e be 24 53 7f be cf 54 43 be
       0.07902827 -0.1548572 -0.2493406 -0.1907532
0002d0 e4 ff e5 bd aa 16 28 be 20 f0 fe bc 83 9b 2f bd
       -0.11230448 -0.16414896 -0.03112036 -0.042872917
0002e0 92 b3 3f 3e 41 95 62 be 41 95 94 3d 9e 83 69 3d
       0.18720844 -0.22127248 0.072550304 0.057010286
0002f0 c2 8c 0e 3e 8f 37 20 bd c6 0d 90 bd d7 2e 24 bc
       0.13920882 -0.039115485 -0.07033877 -0.010020933
000300 87 28 20 bc 60 db 3c 3d 2a 45 17 bd 6b 84 9c bd
       -0.0097752875 0.04610765 -0.036931194 -0.07642444
000310 02 6a 96 bc 7b 06 e0 bd 22 b5 8a 3e b0 2b 00 3c
       -0.018361095 -0.10938736 0.27091318 0.007822916
000320 fd 2d 7a bd d0 8d 75 38 cd 2f a5 bd 5e ac 9f bd
       -0.061079014 5.8544625e-05 -0.08065758 -0.07796548
000330 2b e2 6d bd c0 0e 58 bd db 08 8a 3d fc 62 88 3d
       -0.05807702 -0.05274844 0.0673997 0.06659505
000340 1a 15 45 3d 04 f0 7c 3d 5d 01 84 3d b4 42 67 bb
       0.048115827 0.061752334 0.064455725 -0.003528756
000350 48 12 aa bd 19 f4 26 be 60 ff bb 3d 69 8a a1 bb
       -0.08304268 -0.16304053 0.09179568 -0.00492983
000360 24 84 6c 3d 69 5a 06 3d 1a a0 19 3d b9 6c 01 be
       0.057743207 0.032801066 0.0375062 -0.1263913
000370 8e 6c 8c bd a3 13 cb bd 5a bc 76 3d c5 8b 7c 3c
       -0.06856643 -0.09915855 0.06023822 0.015414183
000380 16 3b 81 bd 95 ab b6 3e 98 55 40 be d3 52 39 be
       -0.06310098 0.35677782 -0.18782651 -0.18098001
000390 a4 66 a6 3d 9e af 9b bc 79 99 29 be 18 c9 0a bd
       0.08125046 -0.01900464 -0.16562451 -0.033883184
0003a0 4d 92 80 3c 00 e8 7c 3d d7 12 dc 3d 00 fa af bd
       0.015694762 0.06174469 0.10745781 -0.085926056
0003b0 37 bf 47 3d 40 d2 56 be 0b cc 05 3d 79 f3 00 bd
       0.04876634 -0.20978642 0.032665294 -0.031482194
0003c0 91 bf b9 bd cf bf fa 3d 20 9b 02 bd 80 e3 b1 3b
       -0.090697415 0.12243616 -0.03188622 0.0054287314
0003d0 20 df c8 3d ab 59 05 3e 0e 2b 21 3c 5d f5 80 3d
       0.09808183 0.13022487 0.009836925 0.06296799
0003e0 2c b4 ad 3d 6c ef 91 bd 3d 28 81 bd 53 08 45 bd
       0.08481631 -0.07125744 -0.06306503 -0.04810364
0003f0 03 1b 5f bd 65 82 3f be 00 26 c1 bd 7e 60 bb bd
       -0.05446912 -0.18702085 -0.09431076 -0.09149264

action_layer.4.bias f4 [4]
000000 97 ad 34 ba dc 68 e1 bc 04 6c 62 3c c5 57 10 3d
       -0.0006892322 -0.027515821 0.013819698 0.035239954

value_layer.0.weight f4 [64, 8]
000000 04 71 18 be 44 8d 92 be 37 03 ca 3d c3 7a 16 bf
       -0.14886862 -0.28623402 0.098638944 -0.5878107
000010 be 2f 20 3e 08 ff c6 be d5 bc 22 3d ac d3 6a 3c
       0.15643212 -0.38866448 0.039730866 0.014332693
000020 87 a1 04 bf 06 dd 4a bd 00 cf c6 be 99 48 09 bf
       -0.5180897 -0.04952719 -0.38829803 -0.536264
000030 61 b1 d0 bb 64 31 87 3e 8d db 01 be aa 46 04 3e
       -0.0063688015 0.2640487 -0.12681408 0.12917581
000040 38 4f b8 3e 4c 1f 7d bd 32 91 96 3e 2f c1 00 bf
       0.3599794 -0.061797425 0.2940765 -0.50294775
000050 c3 93 a2 be 01 ce 65 bd c8 5b b7 3e 6c 0f 19 bd
       -0.31753358 -0.056104664 0.3581221 -0.037368223
000060 06 5e 12 3f 2e c4 2a be 51 48 83 3e ff 23 62 3e
       0.5717472 -0.16676399 0.2564111 0.22084044
000070 11 9e 95 be cc 54 c7 be 94 6b 25 3e 1b 88 34 be
       -0.29222158 -0.38931882 0.16154319 -0.17630045
000080 06 1e ba 3e 59 12 33 3d 4a 4a 3d be ff e6 20 bf
       0.3635103 0.04371867 -0.1848537 -0.6285247
000090 1c 1b 53 be d7 56 5b 3e 8c 87 cd bd 4c 8c 14 be
       -0.2061581 0.21419846 -0.10035619 -0.14506644
0000a0 f7 e5 92 3e d8 f7 19 be 73 75 18 bd 29 2e 9d 3e
       0.28691074 -0.15035951 -0.037221383 0.3069928
0000b0 f5 5a 4d be 3c f8 a2 bd c6 e9 05 3e 6d 5a 42 3d
       -0.20054229 -0.07957503 0.13077459 0.047449518
0000c0 b6 bd 08 3f 71 e7 d9 be ef e0 8a 3e 6c 9f dd bc
       0.53414476 -0.42559388 0.27124736 -0.027053557
0000d0 8f 69 8c be b9 3e 1c be cf 95 13 be 95 9f b0 3e
       -0.27424285 -0.15258302 -0.14412616 0.3449675
0000e0 63 82 93 3d 90 f1 b2 be e3 cb a9 3e 7c 9a 90 3e
       0.07202604 -0.34949923 0.33163366 0.28242862
0000f0 0f a8 74 3d 21 4b 45 3e 94 49 0c 3f 4a e6 21 3f
       0.059730586 0.1926694 0.5479977 0.6324202
000100 6a 1f 27 3f 89 f5 91 3e 2f d5 5a 3e de 30 aa 3c
       0.6528231 0.2850764 0.21370386 0.020775255
000110 9f 82 54 3c ad e9 3b be 6c 4f 9f 3e 88 86 25 3e
       0.012970596 -0.18350859 0.31115282 0.16164601
000120 ae 04 3f bf 7e 5e 0e 3e 4b 30 bb be 12 f2 0e bb
       -0.74616516 0.13903233 -0.36560282 -0.0021811766
000130 76 8b 98 3d 4d e7 90 3e 7e 97 56 be 87 a1 4b be
       0.07448475 0.28301468 -0.20956227 -0.19885837
000140 08 b1 13 bf 15 b2 9e 3d 2b 47 f7 bd b6 2d f3 be
       -0.57692003 0.0774881 -0.12074121 -0.47495812
000150 01 c1 03 3f 18 9b 74 3d 97 f1 0f 3e 68 47 07 be
       0.51466376 0.05971822 0.14057003 -0.13210833
000160 99 99 5a 3e 5c 0b 06 bf 24 78 1c be ce be a9 be
       0.21347655 -0.52361083 -0.15280205 -0.33153385
000170 bc a9 10 bc 18 4d b1 bb cb 08 d9 3d d3 9c 09 bd
       -0.00882953 -0.0054108016 0.1059738 -0.033596825
000180 65 4d a6 3e 10 ab 14 3f 05 d7 15 3e 96 17 a3 3e
       0.32480922 0.5807352 0.14632805 0.31853932
000190 76 68 7b 3c e7 c7 fc bd ee 3b 0a bd 82 9b 14 3e
       0.01534473 -0.12342816 -0.03374856 0.14512447
0001a0 9c 8f 59 3e c6 68 e8 be 88 79 54 3e d0 c7 02 3c
       0.21246189 -0.45392436 0.20749485 0.007982209
0001b0 e4 17 82 be 15 f9 a2 3d c4 70 e4 3d 9a 54 c0 bd
       -0.25408852 0.07957665 0.11154321 -0.093911365
0001c0 cc 4f b6 be 97 69 02 3f bc 85 e2 3d c3 61 fa be
       -0.35607755 0.5094237 0.11060664 -0.4890271
0001d0 83 da 11 3e 78 0e 51 3c aa 4f 7d 3d 29 cf e8 be
       0.14243512 0.012759797 0.06184355 -0.4547055
0001e0 41 5f 1f 3f b4 3a 82 3e 7e 9b c5 3e da f3 cd 3e
       0.6225472 0.25435412 0.38595194 0.40225106
0001f0 be ce bc bd 81 36 b9 be 9c a0 d5 3d 31 63 b8 3e
       -0.092191204 -0.36174396 0.104310244 0.36013177
000200 44 6a c6 3e 97 f3 a8 be d0 29 65 3e 77 59 9b be
       0.3875295 -0.32998344 0.22379231 -0.30341694
000210 be a1 ba be 13 02 10 be 17 f9 f7 3d d0 92 d5 3d
       -0.36451524 -0.14063291 0.12108057 0.10428393
000220 32 ce a6 3e 7b 42 51 be 38 eb 4e 3e de 88 c2 3d
       0.3257919 -0.20435517 0.20206916 0.094987616
000230 66 a5 9e 3e 75 a9 1c bd f8 bb a9 3e 3a 92 be 3e
       0.30985564 -0.038247544 0.3315122 0.37220937
000240 f0 74 04 bf 15 66 89 3e e4 60 7e 3d f7 90 88 3e
       -0.5174093 0.26835695 0.06210412 0.266731
000250 1b 08 6c 3e e8 13 47 be 75 29 09 3e 3e 0a c9 be
       0.23049967 -0.19441187 0.13394721 -0.39265627
000260 92 e3 91 3e dd 8d 21 3e a6 db bd 3c 0a e5 0f bf
       0.28493935 0.15776773 0.023176026 -0.5620886
000270 6b 18 a4 3e e6 d6 1e 3e 2b 77 a6 3e 2d 92 6d 3e
       0.3204988 0.15511665 0.32512793 0.23200293
000280 21 f3 0a bf 15 13 dc 3d bf 11 8e be 7d 43 a1 3e
       -0.54277235 0.10745827 -0.27747914 0.31496802
000290 9d 66 b7 3e a6 bd aa 3e 3f 9c f7 bd d7 14 02 be
       0.35820475 0.33347815 -0.120903485 -0.12703262
0002a0 b7 4e d4 be fa 85 b4 be e5 23 c9 bd cd d3 be 3e
       -0.41466305 -0.35258466 -0.098212995 0.37270966
0002b0 b0 53 e5 3d a9 68 ac be ce 2b 66 be 66 0a 2e be
       0.11197603 -0.336736 -0.22477648 -0.16996154
0002c0 f9 0b e2 bc 49 a0 da 3e 1e 46 3a bd 49 11 03 bf
       -0.0275936 0.42700413 -0.045477025 -0.5119825
0002d0 14 40 94 3d 36 45 b5 bc 0d 63 d0 be dd 2f 57 be
       0.072387844 -0.022127729 -0.4070057 -0.21014352
0002e0 37 34 dc 3d 9c 86 a4 3d 96 94 9d 3e 4f 6a ab 3e
       0.10752147 0.08033487 0.30777425 0.33479545
0002f0 a6 25 91 3e 99 47 4e be dc 7c 78 3e 0a 67 19 3e
       0.28349036 -0.201445 0.2426638 0.14980713
000300 f1 c4 a8 be a2 3e f4 3e 25 3a b1 be 10 ae ea 3d
       -0.32962754 0.47704035 -0.34614673 0.11458981
000310 70 17 b3 3e d5 15 64 bd ff c0 e0 bc 62 09 e5 be
       0.3497882 -0.055684883 -0.027435778 -0.4473372
000320 7c 1d b7 3e d4 5c 39 3d a4 14 15 be 32 d0 fb 3e
       0.35764682 0.045254543 -0.14558655 0.49182278
000330 ff e9 12 be 57 b1 64 3e df 11 91 3e 80 28 8d 3e
       -0.14347075 0.22333275 0.28333947 0.27569962
000340 7c 1b f3 3e c3 f1 6f 3e 06 7a df 3e c0 e2 a1 3e
       0.47481906 0.23432069 0.43647784 0.3161831
000350 f9 9c 46 3e 5a a7 c4 bd b5 4b 05 3e 75 7c 7e 3d
       0.19395818 -0.09602232 0.13017161 0.06213041
000360 6f 0a ca be e6 95 5b 3e 39 d1 73 bd 6b 73 f0 be
       -0.39461085 0.214439 -0.059525702 -0.46963057
000370 37 05 fc bd 61 f2 34 3e 7e b5 c2 be 66 43 76 be
       -0.12305682 0.17670585 -0.38029093 -0.24049148
000380 26 52 0e 3e 81 ff 23 3e 5e 7a b6 3e 70 17 01 be
       0.13898525 0.16015436 0.35640234 -0.12606597
000390 10 6a 8d be 3e 06 c6 be 68 53 4c 3e d5 ea d1 bd
       -0.27619982 -0.38676637 0.19953692 -0.10249869
0003a0 2f b2 eb 3e 8a 90 89 be 1d 13 98 3e 85 99 13 3e
       0.4603438 -0.26868087 0.29702082 0.14414032
0003b0 d2 54 81 3c eb ff c4 be f3 fd 90 bd da fe 46 3e
       0.015787516 -0.384765 -0.07079687 0.19433156
0003c0 7c e3 8f bd 8f cf 0b 3e 48 52 3f 3c ad 12 ed bd
       -0.07025811 0.13653396 0.011677332 -0.11575828
0003d0 e6 94 21 3d 29 34 0e bf 66 40 8b 3d 2f c5 6e 3e
       0.03944864 -0.5554834 0.067993924 0.23317407
0003e0 0e 9e ec 3e 6a 38 8a be 7a 26 0d be 90 e1 a9 be
       0.46214336 -0.26996166 -0.13784209 -0.33179903
0003f0 f9 7b f8 be 6b 53 6f 3d 1d 48 91 be 43 24 46 be
       -0.48532084 0.058429163 -0.2837533 -0.1934977

value_layer.0.bias f4 [64]
000000 63 3f 7c bd de 4a 92 be 50 00 ed bd c8 53 c3 3e
       -0.061583888 -0.28572744 -0.11572325 0.38149858
000010 d6 75 5c be 90 d4 25 3e 5b 81 aa 3e b1 d8 0f be
       -0.21529326 0.16194367 0.33301815 -0.14047505
000020 42 cd 3b 3c 9f af 53 be 7f c7 b5 be 4e 26 86 3d
       0.0114625115 -0.20672463 -0.35503766 0.06550275
000030 4d 52 a9 3d 79 ac ce 3e 7e 5a f5 be a4 25 9a bd
       0.08267651 0.4036596 -0.47920603 -0.07526711
000040 57 61 0c 3e a0 61 46 3e fb 81 c5 3c 9c 0a 54 be
       0.13709007 0.19373178 0.024109831 -0.20707172
000050 74 32 33 bc e7 e9 18 3e ec 36 d7 be 32 39 29 3e
       -0.010937322 0.14932977 -0.4203409 0.16525725
000060 d0 a9 d3 be be 93 6b 3e 47 86 ea 3d bb 58 b3 be
       -0.41340494 0.23005578 0.114513926 -0.35028633
000070 41 0d bd 3c 9e 14 9e 3e b0 df 93 be 00 71 75 3e
       0.023077609 0.30875105 -0.28881598 0.23968887
000080 b4 5b 91 be e2 77 a3 3e 1f 7a 92 3d a0 6a 66 3e
       -0.28390276 0.319274 0.07152199 0.22501612
000090 17 33 2a 3e 4a 6e 89 bd 09 0e c7 3d ec 13 60 be
       0.16621052 -0.06710489 0.09719474 -0.218826
0000a0 32 18 a8 be 27 ed 89 be 04 d3 6a 3e f1 b2 56 be
       -0.3283096 -0.26938745 0.22932059 -0.20966698
0000b0 31 3a 4b 3d 1b f2 4a be 20 9c a3 be ec d2 68 3c
       0.049616043 -0.19818918 -0.3195505 0.014210444
0000c0 c2 a6 f1 3c 33 26 1a be 47 9f 55 bd b1 63 91 bd
       0.029498462 -0.15053634 -0.05215385 -0.07099093
0000d0 a8 b8 23 be e6 2d e8 bd 2c 62 43 be 37 79 8c be
       -0.1598841 -0.113368794 -0.19080418 -0.2743623
0000e0 74 af ba 3e ef 48 06 be f4 8f a2 3d 60 a8 06 bd
       0.36461985 -0.1311376 0.07937613 -0.03287542
0000f0 9e a1 86 3e fc 2c b3 3e cd 81 98 3e 35 49 12 bc
       0.2629518 0.34995258 0.2978653 -0.008928587

value_layer.2.weight f4 [64, 64]
000000 76 c4 7f bd 28 be 29 3d ae f3 f1 bb a7 38 82 3d
       -0.06244322 0.041441113 -0.007383785 0.06358462
000010 f2 30 b5 bd 37 c5 1b 3d 7a 9c 12 3e 41 1c 77 3d
       -0.08847226 0.038029876 0.14317504 0.06032968
000020 5a 1b dd 3c b3 8e 06 3e ff 45 bb 3d 69 11 94 3d
       0.026990581 0.13140373 0.0914421 0.07229883
000030 cf 49 f3 3c 0f 55 34 3e 1f d1 50 bb 9a cf b3 bd
       0.02969828 0.17610572 -0.0031862927 -0.08779831
000040 58 50 77 3d 1a 70 a9 bd 40 fd 74 3d 06 50 32 be
       0.060379356 -0.08273335 0.05981183 -0.17413339
000050 2f a4 15 3d 75 73 08 3e 00 83 51 3d eb 3d 1e be
       0.03653353 0.13325293 0.051150322 -0.15453307
000060 76 c6 e6 bb cc bb 8e 3d 3a 0f 02 be 7a d3 0b 3e
       -0.0070427014 0.06969413 -0.12701121 0.1365489
000070 8f b2 49 bd 4e d4 3d be 3a e6 3e bd 86 c3 64 3d
       -0.049242552 -0.18538019 -0.04660628 0.05585053
000080 f2 89 99 bc 44 6e a2 3d 84 37 a9 3c d8 6d e4 3d
       -0.018742535 0.07931188 0.020656355 0.111537635
000090 9e fc 83 3c c5 b1 73 bd ea 0b 32 be 03 b3 2e bc
       0.016111668 -0.059495706 -0.17387357 -0.010662797
0000a0 c1 d0 72 bd cf ef 79 bb 78 5c 57 3d 1c 42 45 bd
       -0.059281114 -0.0038137322 0.05257842 -0.04815875
0000b0 47 af db bc ba e6 6a 3d 84 34 81 bd 72 11 d6 3c
       -0.026816977 0.057348944 -0.06308845 0.026131365
0000c0 0e 59 ed bd bc 44 cc 3b af c4 62 bd d4 20 0c be
       -0.115892515 0.0062337797 -0.055363353 -0.13684398
0000d0 10 e4 86 3d 64 ab a8 bb 68 75 a6 bd 7e 9e b3 3d
       0.06586468 -0.0051473845 -0.08127862 0.08770464
0000e0 f4 91 2d 3b 9b 39 56 bc af ce 9d 3d 23 a6 5d 3e
       0.00264847 -0.013075258 0.077054374 0.21645407
0000f0 aa 45 0c 3e ac fe 81 3d 80 2f 9e 38 ed 97 b4 3c
       0.1369845 0.06347403 7.542875e-05 0.0220451
000100 70 43 a3 bd 35 2c 23 bd a2 49 e5 bc cc ba 12 bd
       -0.07971847 -0.03983708 -0.027989212 -0.035822675
000110 37 41 44 bd 93 82 08 bc 68 36 12 bd 17 27 8e bd
       -0.047913756 -0.008331913 -0.035696417 -0.069410495
000120 4e c3 e3 bd 9d 09 9b 3d ee fc 8f 3c 5e 25 6b 3d
       -0.11121236 0.07570193 0.017576661 0.057408683
000130 8d 75 a4 bd c4 d8 da bd 21 72 8a 3d 1c f9 b4 bc
       -0.080302335 -0.10685876 0.067600496 -0.02209144
000140 8d e5 60 3d 8c 2c bc 3d a3 c0 15 3c 9e fc 2b bd
       0.054906417 0.09188184 0.009140166 -0.04198896
000150 de 8f e6 3c 52 ff ef 3d 30 cd 16 bd dd 59 60 bd
       0.028144773 0.1171862 -0.036816776 -0.0547732
000160 8e 4e ea bd ab 09 c2 3d a8 26 df 3c ad 11 7f 3d
       -0.11440764 0.094745 0.027240112 0.062272716
000170 0a 64 da bc c5 77 60 bd 1b 34 33 3d fe d7 52 bd
       -0.02665903 -0.05480172 0.043750864 -0.051475517
000180 9c d3 98 bd ff f9 af 3d 4b 68 ee 3c 47 ec 42 bc
       -0.07462236 0.08592605 0.029102465 -0.011897153
000190 e5 cb 04 3e 6a 64 c0 3d a6 5c d8 bd 2b 9c 0a be
       0.12968405 0.093941525 -0.10564546 -0.13536136
0001a0 73 2f bb bd 5b 3a 06 be 95 77 ee bc 99 b1 89 3d
       -0.091399096 -0.13108198 -0.029109756 0.06723327
0001b0 9a ae e4 bd 3d dd b3 3d 20 8b 8c bc 48 ab 1b 3c
       -0.11166115 0.08782432 -0.017156184 0.009501286
0001c0 84 f2 08 3d 38 c8 52 bb 68 ae be 3d 45 56 d1 bd
       0.033434406 -0.0032162797 0.09310609 -0.10221533
0001d0 81 c1 86 bc 45 d2 01 3d e2 9f 0f 3e 48 30 96 bd
       -0.016449692 0.03169467 0.14025834 -0.07333428
0001e0 1f 60 b1 bd e6 70 d8 3d 97 c6 e2 bd aa 40 a2 3d
       -0.08660912 0.10568409 -0.11073034 0.0792249
0001f0 56 07 d2 3d 62 ac dc 3d a9 e7 28 3d 26 2d f0 3d
       0.102553055 0.10775067 0.041236553 0.117273614
000200 71 c1 94 bc 8f d8 d5 bd 37 b7 a8 bd 68 4a c3 3d
       -0.018158646 -0.10441696 -0.082380705 0.09535676
000210 a2 c6 ea bd 87 86 d3 bd 48 7a 91 3c 2a 51 ea bd
       -0.114636675 -0.103283934 0.017758504 -0.11441262
000220 1c 16 14 bd 80 8e aa bd 5c 0c 47 3d 7c 55 6b bd
       -0.036153898 -0.08327961 0.04859577 -0.05745457
000230 ad fb a0 3c 6a 44 e0 3d b0 67 93 bd 05 01 af bd
       0.019651258 0.10950549 -0.07197511 -0.08545116
000240 f7 84 50 bd 9b a2 db 3d d2 57 6f bc 7c c4 94 bb
       -0.050908055 0.10724374 -0.01460834 -0.0045400243
000250 06 70 89 3c b6 32 9e bd 3c 0e 98 bd 72 5c 98 3a
       0.01677705 -0.07724516 -0.0742459 0.001162423
000260 41 d8 0b be 7a a0 1c 3d aa b0 8b 3d ae e0 6b bc
       -0.13656713 0.03823898 0.06820805 -0.0143968295
000270 4d fb dd 3c ab 21 46 3d 89 52 66 3d 4a 32 5c bd
       0.027097369 0.048371952 0.056231055 -0.053758897
000280 ed 6b da bc d0 cf 78 bd 2c 4f 44 3b 8b 4e d1 3d
       -0.026662791 -0.06074506 0.0029954417 0.10220059
000290 74 a1 19 bd 7f a2 99 3d 7d 39 3b 3c c2 bf 64 bd
       -0.03750749 0.07501697 0.0114272805 -0.055846937
0002a0 f7 db 7a 3c 8b f2 1c 3d 90 df 9e 3c e6 41 ae bc
       0.015311233 0.038317244 0.019393712 -0.021271657
0002b0 53 9c aa 3c ae 4c db 3b 8c 78 94 3c eb 30 68 3d
       0.020826494 0.0066924905 0.018123887 0.056687277
0002c0 03 f2 b3 3d b2 48 72 3c 53 e6 05 be ca d4 ce 3d
       0.087863944 0.01478784 -0.13076143 0.1009918
0002d0 2b db 9a bc de 60 e4 3c b3 ed 5a 3d fd 14 3d be
       -0.018903336 0.027878221 0.053449344 -0.18465038
0002e0 9e 94 ae bd 9c 16 ac bb a3 8a 0f 3d 65 5f 32 bd
       -0.0852444 -0.0052517187 0.035044324 -0.043548007
0002f0 f9 a5 c8 bd 53 79 14 3e 1d a0 7f bd 5d f3 8f 3d
       -0.09797282 0.14499407 -0.062408555 0.0702884
000300 a2 5b 30 3d 17 69 a9 bd 5d f4 e2 3d 7b e7 56 3d
       0.043056138 -0.082719974 0.11081765 0.05246685
000310 9a 03 89 bd 8d 65 5f bc c5 49 1e 3d be 35 4f 3d
       -0.0669014 -0.013635051 0.03864457 0.050588362
000320 29 91 95 bc 9e fb 73 3d 06 b7 38 bd d7 00 09 be
       -0.018257694 0.059566133 -0.04509642 -0.13379227
000330 c1 a8 ee bc 61 aa 9b bd 26 7c 65 3d 12 3f ed 3a
       -0.029133203 -0.076008566 0.0560266 0.0018100461
000340 12 04 94 3c 45 ff 89 bd 58 bf 0d 3e 70 3f 73 3d
       0.018068347 -0.06738142 0.13842523 0.05938667
000350 b4 32 0c bb 3f 24 3f bd 5e 3e 4d 3d 20 e1 7f bb
       -0.0021392526 -0.046665426 0.050108306 -0.0039044097
000360 ab 94 48 bd cd de 44 bd 2f c9 2d 3e ba 14 bf 3c
       -0.048969906 -0.048064042 0.16971277 0.023325313
000370 b1 9f 45 bd 82 0f 47 3d 95 0d 3f bd 7d c0 43 bc
       -0.048247997 0.048598774 -0.046643812 -0.011947748
000380 3d d8 18 3d 87 1b 06 3c e6 27 0e 3e 29 d2 06 3e
       0.037315596 0.008185274 0.13882408 0.13166107
000390 42 81 6f 3d 2c 9b ed bc dc ca c5 3d b9 2c 92 bd
       0.05847288 -0.029004656 0.09657833 -0.071374364
0003a0 dd 3f ca ba 2e bb 65 bc 9d 28 df bd a8 04 cb bd
       -0.001543041 -0.014021678 -0.10896418 -0.099129975
0003b0 e2 ad 4e bd f2 c1 bd 3d 8e 41 95 bd 87 36 6f 3d
       -0.050458796 0.09265508 -0.07287894 0.05840161
0003c0 13 52 3b bd 85 49 07 3e e1 2a 8a bc 26 be dc bd
       -0.04573257 0.13211639 -0.01686615 -0.107784554
0003d0 e8 05 94 bd ce 70 3a 3d 88 c9 f6 3c 1b 44 34 3d
       -0.07227689 0.045517735 0.030125394 0.044010263
0003e0 c3 72 d0 3d 2b d8 82 3c 67 b2 85 bd 83 74 75 bd
       0.10178139 0.015972218 -0.06528168 -0.059925567
0003f0 8e 6e 85 bd 54 a4 2d 3d ce ba d2 3d e8 f9 ef bc
       -0.06515227 0.042393044 0.102895364 -0.02929397

value_layer.2.bias f4 [64]
000000 b6 f1 e8 3d a6 d1 87 3c 61 42 44 bd 21 78 ef bd
       0.11374228 0.01657946 -0.047914866 -0.11692835
000010 ce c5 3b 3e c4 25 2e be 29 cc 4e be 1d e5 74 3d
       0.18337175 -0.17006594 -0.20195068 0.059788812
000020 4e 54 4b be f4 ca 45 bd 34 69 ba 3e 24 88 45 3e
       -0.19856378 -0.048289254 0.3640839 0.19290215
000030 a4 d2 10 3e 82 82 48 bb 53 91 29 be 5a 5a 91 3c
       0.14142853 -0.0030595367 -0.16559343 0.017743278
000040 ec 12 0b 3e 14 17 b9 bd 4a 17 4f 3e 15 c5 3d bd
       0.13581437 -0.09037605 0.20223728 -0.04633053
000050 2a 46 2d 3c c2 67 91 be 4c 60 01 be 6b 24 67 3d
       0.01057581 -0.28399473 -0.1263439 0.056431215
000060 62 cb 61 3d e4 f7 20 3e d0 47 9f bd 39 52 7b 3d
       0.0551256 0.15719563 -0.07777369 0.06135771
000070 36 88 8f be ed 15 29 bd fb 8e 59 3c 08 b6 91 3e
       -0.28033608 -0.041280676 0.013278718 0.2845919
000080 c8 0b 86 3e 1a 08 60 be 2c 36 15 3e f2 9a b9 bd
       0.26180863 -0.2187809 0.14571446 -0.090627566
000090 85 46 07 3d 51 ee 10 be c2 63 9a 3d e7 26 a3 be
       0.033026237 -0.1415341 0.075385585 -0.31865618
0000a0 14 e2 21 3e 64 c7 03 be 03 1a 64 be 8d f1 84 be
       0.15808898 -0.1286903 -0.22275548 -0.2596554
0000b0 a1 b0 85 3d 0e 6e 7e bc a3 ad 07 be 14 96 01 3d
       0.0652783 -0.015529169 -0.13249831 0.031637266
0000c0 31 bf fd bd 3b 06 e4 bd fc a7 0a 3b fb b0 45 3e
       -0.123899825 -0.11134001 0.0021157255 0.19305794
0000d0 e9 99 9c 3d ae e8 b6 3e f2 2a be 3d f6 16 4f be
       0.076465435 0.35724396 0.09285535 -0.20223603
0000e0 13 3b d3 bd a9 d9 93 bc 6c 09 ea bc d6 bc be bc
       -0.10314002 -0.018048124 -0.028568946 -0.023283403
0000f0 22 a0 f5 bd 2b ac 77 3d 0d 91 8e 3e bc 26 fc bd
       -0.119934335 0.060466927 0.2784504 -0.123120755

value_layer.4.weight f4 [1, 64]
000000 70 96 b0 3c 3e f9 2e ba 63 01 82 3a da ee 36 bc
       0.02155611 -0.0006674713 0.0009918626 -0.011165345
000010 f4 01 af 3c fa e7 89 bc 53 76 9c bd eb 32 95 3b
       0.021363236 -0.016834248 -0.07639756 0.004553189
000020 09 5b e7 bd 5d 8d 84 3d 05 6d 92 3d 1c 4a 8d 3c
       -0.112966605 0.064722754 0.071497 0.017247252
000030 70 a4 bb 3c 10 f5 cd 3c 5d 53 a7 bc 6f 51 0f be
       0.022905558 0.025141269 -0.020425493 -0.13995908
000040 39 10 85 3e 28 a1 de bb 48 e6 57 3c 30 ed 5b b8
       0.2598894 -0.0067941137 0.013177462 -5.2434567e-05
000050 f6 9c a3 3b cd ed b7 bd 21 04 25 bd 28 af 6e 39
       0.0049930764 -0.08980904 -0.04028714 0.000227627
000060 fc 92 ce bb 62 04 c9 3d ce 87 c7 b9 e2 a6 ae 3d
       -0.006304143 0.09815289 -0.0003805742 0.08527924
000070 40 50 9d 3e 19 6b 70 bc 1a f3 d7 3b 4c b7 67 3d
       0.30725288 -0.014673972 0.0065902593 0.05657129
000080 57 68 02 be b3 29 28 bc e9 c8 3d 3c 39 f2 8e bc
       -0.12735115 -0.010263848 0.011583545 -0.017449485
000090 b5 93 04 3b cc 23 81 bb 5c 4b 60 b9 26 81 a5 be
       0.0020229642 -0.003941035 -0.00021390378 -0.32325095
0000a0 24 62 9d 3d c8 42 62 bc 04 68 90 bc dc 94 25 bd
       0.076847345 -0.013809867 -0.017627724 -0.040425166
0000b0 c4 af af bc 37 d0 47 bd 27 e7 1f bc 41 b6 63 3b
       -0.021446116 -0.048782554 -0.009759701 0.0034746083
0000c0 5e 87 42 bc c1 bb 9a bc 0e 2a f0 39 9c 3b cb 3c
       -0.011873094 -0.018888356 0.000458077 0.024808697
0000d0 30 d6 53 bc 6f fe be 3d 51 e4 9a 3c f7 df 96 3e
       -0.012929484 0.09325873 0.018907698 0.29467747
0000e0 51 ac bb bb a9 89 58 bb 22 12 5d bc 36 14 02 bc
       -0.005727329 -0.0033041036 -0.013493093 -0.007939389
0000f0 15 b4 41 bc be 90 8b 3d 95 3a d5 3d c5 60 8b bc
       -0.01182272 0.06814717 0.10411564 -0.017013917
