Homework8/Gym-PPO-solution/results/PPO_LunarLander-v2_500-eps0.75.pth (torch, 42817 bytes, 11 tensors)

action_layer.0.weight f4 [64, 8]
000000 fd 8f 74 be e3 a4 9a 3e 26 bf e4 3e e6 40 81 3e
       -0.23883052 0.30203924 0.44677085 0.25244826
000010 83 97 e6 be 3c f3 7a 3d c0 cb e2 bd 7f 3b 08 3e
       -0.4503747 0.061267123 -0.110740185 0.13303946
000020 5a 6e 7a 3e 32 cd 65 3e 6c 63 5e 3e cb 67 89 3e
       0.24456158 0.22441557 0.21717614 0.26837
000030 41 e3 0a bf 71 83 ea be bc 85 d8 3c 52 a2 c6 be
       -0.5425301 -0.45803407 0.026430957 -0.38795716
000040 1c 28 31 3d b3 2e 52 3e cc 47 16 3d c8 8d 42 be
       0.043251142 0.20525627 0.036689565 -0.18999398
000050 e2 bc 4b be 5c 07 06 bf ed 11 8c bd 14 e7 41 be
       -0.19896272 -0.5235498 -0.068393566 -0.18935806
000060 50 aa 71 3e 66 05 bb 3d 2a 9f 8e 3e 9a 45 78 be
       0.23600125 0.09131889 0.27855808 -0.24245301
000070 50 f2 2a bf 13 4b 00 bf 2d ff d0 3c ff 75 99 be
       -0.6677599 -0.50114554 0.025512302 -0.29972836
000080 4d d4 3d 3e 26 a0 01 3d ed f1 92 3e 31 0f c4 ba
       0.18538018 0.03164687 0.287002 -0.0014958141
000090 3c 9c 16 bf 13 9e a4 be cd 39 99 3e bc fc ce bd
       -0.58832145 -0.3215185 0.2992691 -0.10106799
0000a0 48 17 2e 3d 69 34 ac bb 54 12 a2 3d f1 26 f7 bd
       0.04250267 -0.005255271 0.07913652 -0.12067974
0000b0 f6 c9 98 be 55 ba df be e3 f7 08 bd ec f0 c5 3d
       -0.29841584 -0.43696848 -0.03343953 0.09665093
0000c0 be 13 29 be 19 ad 6c 3c d8 fa a8 be 01 f6 9f be
       -0.16511437 0.014445567 -0.3300388 -0.31242374
0000d0 aa 12 e0 3d 84 75 18 be d1 56 14 3d 5f 9c e6 3d
       0.1094106 -0.14888579 0.036215607 0.11260294
0000e0 0e fb 31 3e a6 46 13 be f6 d7 73 3e 28 2f 41 be
       0.17380926 -0.14382419 0.23812851 -0.18865645
0000f0 78 83 82 be 3c c4 1f 3e ed 43 26 be 3a dd 00 3e
       -0.25490928 0.15602201 -0.16236849 0.12584391
000100 ff ea 5b 3e 28 f6 4f be 71 54 c8 bd 34 cf 30 bd
       0.21476363 -0.20308745 -0.09781731 -0.043166354
000110 2e f4 7d 3e 5e 12 ea 3a 75 ec 7b 3e 34 28 30 be
       0.24800178 0.0017858257 0.2460192 -0.17202836
000120 40 eb 5c be 92 d9 b9 3d 8d 1e 15 be a1 86 7a bd
       -0.21574116 0.09074701 -0.14562435 -0.06116355
000130 42 77 dd 3e ad c5 c7 3e 98 d5 00 3e 3b 33 e0 3d
       0.4325505 0.39018002 0.1258148 0.109472714
000140 7e 08 6e 3d d0 6b 32 3e 07 5b ef bc 67 5d f2 3d
       0.058113568 0.1742394 -0.02921821 0.11834221
000150 75 bc b8 bd 0b 1e 33 3d 9d 91 3d be f3 7e 4b 3e
       -0.0902032 0.043729823 -0.18512578 0.19872646
000160 d5 f1 a0 bd af 2f fa 3d 6a 62 39 3e 77 c6 b5 be
       -0.07858626 0.12216126 0.18103948 -0.3550298
000170 96 48 c3 be dd fb a0 3d f6 0f 03 3e 91 d9 e8 bc
       -0.38141316 0.07860539 0.12799057 -0.028424056
000180 0c cc 31 3e ef de 7d 3e 43 23 12 3e f8 9a 12 3e
       0.17362994 0.24792074 0.14271264 0.14316928
000190 69 38 4d 3e de a5 6c be 71 4d 55 3e 9e 81 06 3d
       0.2004105 -0.23110148 0.20830323 0.032838456
0001a0 6d fb 50 be 9d 8a f2 bd 1b 39 7d be 8e 69 90 be
       -0.20408411 -0.11842845 -0.24728815 -0.28205532
0001b0 8c ed 63 3c 03 6e ec 3e 27 09 26 bd 4a ba aa 3d
       0.013911616 0.46177682 -0.040536072 0.08336313
0001c0 b2 7b 65 be de 93 3b be 3b a2 a7 be be 34 bc 3e
       -0.22410467 -0.18318126 -0.3274096 0.3675899
0001d0 bc 96 1e 3e 92 14 f8 3e e8 d3 43 3e 6a 78 4a 3e
       0.15487188 0.48453194 0.19123805 0.19772497
0001e0 8d 07 b2 3e d8 34 4b be 53 ec 3c be f3 29 fc bc
       0.34771386 -0.19844377 -0.18449526 -0.030781722
0001f0 d7 8d 9e 3d e4 4c 01 3f 97 80 ff 3d dd c3 1b 3e
       0.077418976 0.5050795 0.124756984 0.15211435
000200 b5 c2 ad be ff 63 4e be 33 16 7a be a1 08 37 be
       -0.33937612 -0.20155333 -0.24422531 -0.17874385
000210 0b d7 56 be 9e e0 8c 3e a5 fc c5 be 48 0f a2 bd
       -0.2098047 0.2751512 -0.38669315 -0.07913071
000220 b6 c7 bd 3d 4a 2a 0e be c0 33 ae be d7 18 9f be
       0.092666075 -0.1388332 -0.34023857 -0.3107364
000230 a2 4a 7a 3e c4 38 ad 3e 99 16 35 3c b9 5a ad 3e
       0.24442533 0.3383237 0.011052751 0.33858278
000240 37 cc 67 3e 32 37 09 bd 5f 2e 94 be ac 54 26 3e
       0.22636496 -0.033499904 -0.28941628 0.16243237
000250 0a 7c ef 3d 2e 15 56 3e c9 0c 42 be 6a 98 43 be
       0.116935804 0.20906517 -0.1895019 -0.1910111
000260 87 50 1e 3d 63 c3 a7 3e 4b af 92 3e ec 36 b1 3e
       0.038651016 0.32766256 0.28649363 0.34612215
000270 d8 b0 20 be 6a bb a1 3d d8 7a 26 bd 09 54 65 be
       -0.1569246 0.078970745 -0.040644497 -0.22395338
000280 f2 fd 47 be 3c 38 13 3e ec 70 62 3d 60 45 71 3e
       -0.19530466 0.1437692 0.055283472 0.2356162
000290 bc 39 03 3d 3a 3b bd be c0 0f 1f 3e c0 ab 99 be
       0.03203748 -0.3695925 0.15533352 -0.30013847
0002a0 57 30 00 bc 8b 5f d6 3b 95 0f cd 3d 92 93 80 3e
       -0.007824025 0.0065421513 0.10012738 0.25112587
0002b0 86 af d9 be 24 a7 fc be 60 93 2c be 4d 01 ce be
       -0.42516726 -0.49346268 -0.16853094 -0.40235367
0002c0 75 0f bf bd ce 9b 8b 3e 77 20 9c be af a7 b2 be
       -0.0932912 0.27267307 -0.3049352 -0.34893557
0002d0 ef 6e ae 3e ee aa 31 be bd 61 1c 3d b5 e0 59 bd
       0.3406901 -0.17350361 0.038179148 -0.053192813
0002e0 8f d0 a4 3e fa c5 83 bd 5f 93 82 be c8 b4 4c be
       0.32190368 -0.064342454 -0.2550306 -0.19990838
0002f0 a7 07 9c bd 6d 7b 6c 3d 3c e6 c0 3c 16 7f 7d bd
       -0.07618647 0.057734895 0.023547284 -0.061888777
000300 9a e2 71 3d a9 10 7c 3e 4c 18 07 be 80 29 bb 3e
       0.059053995 0.2461573 -0.13192862 0.365551
000310 c1 7e d9 be a8 d0 09 be 7d 68 9b bd f8 61 7f be
       -0.42479518 -0.13458502 -0.07588289 -0.24939716
000320 9f a9 8d 3e c7 42 29 3c 66 fb 45 3e d1 76 cb 3e
       0.27668473 0.010330862 0.19334182 0.39739087
000330 af aa 73 be 94 f8 38 be a1 17 48 be 66 cd d6 be
       -0.2379558 -0.18063575 -0.19540264 -0.41953582
000340 bb 70 9a 3e 40 98 15 be 3c f4 c5 bd ec 2b b9 3e
       0.30164132 -0.1460886 -0.09665725 0.36166322
000350 00 7a 8d 3e 98 78 e7 bd 5e 6a c0 3e 56 45 56 3e
       0.2763214 -0.11302298 0.37581152 0.20924887
000360 d4 35 0f 3e 35 51 5a be 10 d5 bc bd df 3f d2 be
       0.13985378 -0.2132004 -0.09220326 -0.41064355
000370 c2 36 85 3e a6 0a fa 3d 56 10 92 be 32 f1 80 be
       0.2601834 0.12209062 -0.28528088 -0.25184017
000380 eb ec 69 bd a9 08 0c be e3 70 c4 3e 38 f7 3d bc
       -0.05711071 -0.13675179 0.38367376 -0.011594586
000390 88 6d 84 3d ae f8 f2 3d 15 11 f2 bd 1c 02 3f bd
       0.06466204 0.11863838 -0.118196644 -0.04663287
0003a0 1d 2b 59 3d eb b8 9a bd a9 44 62 be b3 0f b7 3e
       0.05301963 -0.075548016 -0.22096504 0.35754165
0003b0 f3 50 ed 3d bc f5 c2 3e 80 c4 48 3e 83 dd 22 be
       0.115877055 0.38078105 0.19606209 -0.15904813
0003c0 f7 e5 58 be e0 f9 86 bd 11 19 ac be 17 8f 9f 3e
       -0.21181475 -0.065906286 -0.33612874 0.31163856
0003d0 ab 94 83 3e 01 33 7c bd 88 4b 0d 3e 8e 0c 9b 3e
       0.25699362 -0.06157208 0.13798344 0.30283016
0003e0 ca 32 91 be 78 3c 16 be 28 c8 02 be 8f d4 34 3c
       -0.2835906 -0.14671504 -0.12771666 0.011037006
0003f0 54 83 cc 3e 7f a3 bc 3e 52 fc 9d bd 04 b3 d5 3d
       0.39943945 0.36843488 -0.07714142 0.10434535

action_layer.0.bias f4 [64]
000000 6d f3 8d 3e fe d5 40 bd dc 5a a3 bc 47 1d 56 be
       0.27724782 -0.04707908 -0.019940786 -0.20909606
000010 b0 a5 d4 bd dd 30 28 3d c7 d0 7c 3e 16 6a b5 bd
       -0.10383165 0.041062225 0.24689017 -0.08858125
000020 14 d6 3c be a7 e2 a8 bd 37 92 e5 bd ab 5e 84 3c
       -0.1844104 -0.082463555 -0.11209529 0.016158422
000030 9e 2a ec bc e8 a3 4f 3e af 81 93 3e cc 55 96 3e
       -0.028828915 0.20277369 0.28809878 0.29362333
000040 3b 32 c1 3d 49 50 14 3e 18 89 4c be 5c 36 7c bd
       0.09433409 0.14483751 -0.19974172 -0.06157528
000050 98 42 ec bb 46 48 aa bd 58 b1 f6 bd 7c 21 b5 bd
       -0.007210087 -0.08314566 -0.120455444 -0.08844277
000060 a0 48 6c bd 2a bc 25 3e d0 9a ec 3d b9 c6 59 3d
       -0.057686448 0.1618506 0.11552966 0.053168032
000070 ab fe aa 3d 5e c1 b7 3c 0e 78 9c 3d 52 89 52 3e
       0.08349355 0.022431072 0.07640086 0.20560196
000080 de 4e f1 bb d6 f3 15 3e 1f d7 54 be 00 9b be 3d
       -0.007364138 0.14643797 -0.20785187 0.09306908
000090 5b fb 5e 3e f0 a1 89 be 95 25 95 3d f6 af f7 bd
       0.21775572 -0.2688136 0.07282559 -0.12094109
0000a0 dd 76 3b be b9 98 15 be b3 02 96 bc 4c a0 81 3e
       -0.18307061 -0.1460904 -0.018311834 0.2531761
0000b0 ca b1 91 bd 42 77 71 3e 82 b8 4c be 1d 97 10 be
       -0.07113989 0.2358065 -0.19992259 -0.14120145
0000c0 2c eb 84 3e b1 1c 56 3e ee 33 ad 3d 67 54 38 3d
       0.25960672 0.20909382 0.084571704 0.045002367
0000d0 97 82 e6 3d 40 6d 99 bd f6 cb 7f be 60 d2 82 be
       0.11255377 -0.07491541 -0.24980149 -0.25551128
0000e0 4d 52 85 3e 9f 32 a9 3d ab 33 ac bd 42 2d 86 3e
       0.26039353 0.08261608 -0.084082924 0.26206404
0000f0 b7 69 e9 3d 98 de 11 be 38 7f a0 3d 25 0f 55 be
       0.11397117 -0.14245069 0.07836765 -0.20806558

action_layer.2.weight f4 [64, 64]
000000 2d 6a 0e be 89 17 2b be ac c5 2d bd ad 43 4e be
       -0.1390769 -0.16708197 -0.042424843 -0.20143004
000010 ca d6 fc bd f6 30 33 bd 55 c8 63 bd 79 6a 90 3d
       -0.12345655 -0.043747865 -0.055610973 0.07051558
000020 58 aa 42 3c 0b 6b 83 3e 62 2f 70 bd c6 e1 02 be
       0.011881433 0.25667605 -0.058638938 -0.12781438
000030 e0 19 9c bc 02 ed ba 3c 9d ec 30 bd 92 26 f7 bb
       -0.019055307 0.022818092 -0.043194402 -0.0075424397
000040 d7 da 58 bc c4 6b d9 3d 35 38 95 bd 4e ca 38 be
       -0.013235769 0.10616258 -0.07286111 -0.18045923
000050 bf 1d bc 3c 7e f0 c1 bd d1 ab 20 3d 47 5d a0 bd
       0.022963403 -0.09469698 0.039226357 -0.07830291
000060 a7 39 0b be 12 e4 ab ba f1 f8 bd 3c 09 88 7d 3d
       -0.13596211 -0.0013114235 0.023189994 0.06189731
000070 15 c3 e0 bd 2a e1 c4 3c a0 ca 0a 3e c0 2e 51 3e
       -0.10974709 0.024033148 0.13553858 0.2042799
000080 5a 3b 14 be ad 4a 12 bd 0b 89 ac bd 00 73 13 be
       -0.14475766 -0.035715748 -0.08424576 -0.14399338
000090 70 d5 e2 3d 25 52 40 3d 4e 45 c4 bc 79 f7 d4 3d
       0.11075866 0.04695334 -0.023958828 0.10398764
0000a0 a3 a3 fc 3d c6 30 b5 bd 91 17 7b be c7 dc 21 3e
       0.12335899 -0.088471934 -0.24520709 0.15806876
0000b0 44 ed e0 3d f9 d9 95 3d a4 89 19 be c2 dd e9 bd
       0.10982755 0.073169656 -0.14993912 -0.1141925
0000c0 c3 91 78 bd 00 cc 12 be 6d bf 71 bd 29 c6 19 3c
       -0.060685884 -0.14335632 -0.05902045 0.009385624
0000d0 2e 94 22 3e 0b 66 d4 3d ff f1 6f bd 10 9d 1c bd
       0.15876839 0.10371026 -0.058580395 -0.038235724
0000e0 fd 84 93 bd 35 49 2f 3d 09 0b b0 3d af 02 62 3e
       -0.072031 0.042794425 0.08595855 0.22071336
0000f0 51 94 c6 bd 27 a8 9d bd 24 5d 45 be 85 f1 a8 3d
       -0.09696258 -0.07698088 -0.19273812 0.08249191
000100 7f b0 5a 3d f0 32 31 3e d6 66 13 be 69 64 72 3d
       0.053390976 0.17304587 -0.14394698 0.05917779
000110 18 d0 80 3d fe c1 db 3c 8b 25 91 ba de 85 b1 bd
       0.06289691 0.026825901 -0.0011073811 -0.08668111
000120 43 d8 2e 3e 7e c4 bb bd 6a 68 34 be d4 71 85 bd
       0.17074685 -0.09168337 -0.17617956 -0.065158516
000130 54 45 d0 bd fb e2 7f 3d 45 c1 e5 bd 4c ae 22 3d
       -0.10169473 0.062472325 -0.11218504 0.039717004
000140 b9 91 f7 bd 66 8f 23 bd 77 51 75 bd 45 77 b9 3d
       -0.12088341 -0.039931677 -0.059892144 0.09055952
000150 6b 0f b4 3d 01 f4 e3 3c fa a1 5d bc 1e a1 d5 3c
       0.08792003 0.027826311 -0.013527388 0.026077803
000160 e7 64 e4 bc f0 1e 1f 3e 9b 8c 2d 3e 0a 68 a3 bd
       -0.027880145 0.15539145 0.16948168 -0.07978828
000170 ad 4d e9 3d b9 8f 10 3d 8d 9b ed ba 9b f7 68 3d
       0.113917686 0.035293315 -0.0018128023 0.05687676
000180 ae 49 ad 3d 78 38 94 bd c5 ef ad 3d 84 a9 f2 bb
       0.08461319 -0.07237333 0.08492998 -0.0074054617
000190 98 b8 47 3d 1d a7 63 3d af a1 c1 bc 0a 6d 93 bd
       0.048760027 0.055579294 -0.023636667 -0.07198532
0001a0 35 90 eb 3d 15 b9 e8 3d 6e b1 ea bb 3a 3e 0e be
       0.11502115 0.113634266 -0.0071622645 -0.13890925
0001b0 18 9d 8c bd 75 cb 03 bd 79 38 84 bd f9 22 0e 3e
       -0.06865901 -0.032176454 -0.06456084 0.13880529
0001c0 20 b2 ac bd ac 7c 82 bd c7 cc ef bd 5b ef d0 ba
       -0.08432412 -0.063714355 -0.1170898 -0.0015940474
0001d0 2f 4a 99 3c 90 3f 20 3e 7a f9 27 3e 95 50 b7 3d
       0.018712131 0.15649247 0.16403762 0.08950917
0001e0 e2 39 99 bd 5c 9d 10 bc 75 2e 11 3e a5 dd b0 bd
       -0.074817434 -0.00882658 0.14177878 -0.08636025
0001f0 41 4f 63 ba 4b 8b 96 bd 64 8d 03 be 49 c0 19 3e
       -0.00086711725 -0.07350787 -0.12846905 0.15014757
000200 b9 82 f6 bd d5 cd 98 bd 5e 14 7d 3b f1 4e 29 be
       -0.12036652 -0.07461134 0.0038616876 -0.1653402
000210 fc c5 79 be e5 83 76 bd f7 89 91 bd 77 12 9b 3d
       -0.24391931 -0.06018438 -0.07106393 0.07571881
000220 76 a1 15 3c 6e fe 84 3e ec 37 dd 3d 18 50 9c bc
       0.009132734 0.25975364 0.10801682 -0.01908116
000230 31 5e b8 bd 15 e7 23 3d 61 99 8c bc f8 5e 11 3e
       -0.090023406 0.0400153 -0.01716298 0.14196384
000240 22 05 94 3d 3b d1 e0 3d 8a 57 0e 3e 8e 75 70 bd
       0.072275415 0.109774075 0.13900581 -0.05870586
000250 25 7e 41 bd 11 4f df bd 4f ef 11 3e 00 49 37 38
       -0.04723944 -0.109037526 0.14251445 4.3698587e-05
000260 96 57 d2 bd 49 63 0a be 08 75 39 bc 99 bb a5 3d
       -0.10270612 -0.13514437 -0.011319406 0.08092422
000270 54 f8 7a 3d 7f 40 ce bd 7b 77 45 3d 74 e8 34 3e
       0.06127198 -0.100708954 0.04820965 0.17666799
000280 9e a2 8c be b5 53 57 3d a7 24 05 bc 36 d8 90 bd
       -0.27467817 0.052570064 -0.008126414 -0.07072489
000290 aa ba fb 3c 5f c7 94 3c 1b 20 cf bd 11 fd 10 3d
       0.030728657 0.018161474 -0.101135455 0.035397593
0002a0 22 28 be bd 45 53 ef bd 36 0d d3 bd 8d b0 8a bd
       -0.092849985 -0.11685804 -0.10305254 -0.06771956
0002b0 49 8f a7 bd 15 7f 32 3d 92 29 66 be dc bf 0c 3c
       -0.08181626 0.043578226 -0.22476795 0.008590665
0002c0 85 82 a3 bd 83 ff d6 bd 7f c6 27 3e b9 30 2f be
       -0.07983879 -0.10497954 0.16384314 -0.1710843
0002d0 03 28 d7 3d 4f 6b 7a 3b 43 1b c0 bc d6 84 8f bb
       0.105056785 0.0038210934 -0.0234505 -0.004379849
0002e0 50 2f 23 bd e1 60 1e bd a5 ac 50 bd d5 e1 49 3e
       -0.039840043 -0.03866661 -0.050945897 0.19715054
0002f0 02 15 3e be 33 60 3a 3d ed 4b 1c be 3b 68 f0 3d
       -0.18562701 0.0455019 -0.15263338 0.117386304
000300 1c 1b 6b bd 3d 57 22 bd c7 63 e0 3c e5 06 06 3d
       -0.0573989 -0.03963398 0.027391328 0.03272142
000310 c2 a0 75 bc 56 2d b4 3d a2 ce 2a 3e 98 4c 9e bc
       -0.014991941 0.0879771 0.16680387 -0.019323632
000320 cb 0f a2 3d 37 eb 19 3e ae 90 91 bd 9f b5 65 bc
       0.079131685 0.15031134 -0.071076736 -0.014020353
000330 aa c1 98 3c 22 da 14 3e d9 b6 96 3d 0c 37 20 bd
       0.018647034 0.14536336 0.07359094 -0.039114997
000340 a7 9b 42 3e 7d 16 c3 3d cd 74 8a 3d 97 e5 5b bd
       0.19004689 0.09525774 0.06760559 -0.05368575
000350 bd 9f 32 bd 70 36 36 be b6 ff 31 3e 4a 60 87 bd
       -0.04360937 -0.17794204 0.17382702 -0.066101626
000360 06 c1 00 be ca 40 13 be 9a a8 31 be 66 bc 44 3d
       -0.12573633 -0.14380184 -0.17349473 0.048031233
000370 e5 66 8b 3d 47 37 b1 bc 6d 8d 07 be a3 c5 92 bc
       0.06806735 -0.021632804 -0.13237543 -0.017916506
000380 db 97 20 be f6 2c 5b 3d de 74 17 3d 1f e9 2b 3d
       -0.15682928 0.053509675 0.036976688 0.04197037
000390 36 04 ad 3d 21 3a e0 3c d0 6c 5c bd 49 3f e7 3d
       0.08448069 0.027371468 -0.05381471 0.112913676
0003a0 48 0b 00 be d3 5b f0 bb 83 56 35 be 9f 15 b2 3a
       -0.12504303 -0.007335165 -0.17708783 0.0013586766
0003b0 06 a5 86 3e 31 6b 99 bc 93 ed f7 bd 31 19 af 3c
       0.26297778 -0.01872787 -0.121058606 0.021374317
0003c0 79 2f 11 be 2a 0e a4 bd 70 91 bb bd f2 57 fb bb
       -0.14178266 -0.08010514 -0.091585994 -0.007670396
0003d0 3d fd 1b 3d 97 c8 98 3c fe ab 0f be 68 04 c2 bd
       0.038083304 0.018650336 -0.14030454 -0.09473497
0003e0 8d 52 89 bc a7 db ed 3d 49 ca 21 3d bc 76 9d 3c
       -0.016762996 0.11614161 0.039499555 0.019221656
0003f0 c5 a9 01 3d 82 05 10 be 48 f8 be bd b5 43 dd bd
       0.031656045 -0.14064601 -0.093247 -0.1080393

action_layer.2.bias f4 [64]
000000 57 cc db bd cb e3 d9 bb 1e 8f 40 bc 40 35 86 3d
       -0.10732334 -0.0066494695 -0.011752872 0.065531254
000010 2e c8 a7 bd 50 de f4 3c b3 dd 1d be 0b 2e 9b 3d
       -0.08192478 0.029891163 -0.15416603 0.075771414
000020 27 39 d4 ba c9 c1 1c bb 3f e3 8a 3d dc c6 35 be
       -0.0016191349 -0.0023919216 0.06781625 -0.1775164
000030 5e 05 d2 bd d1 57 93 3d c6 df ef 3d 42 d0 15 be
       -0.1025493 0.07194484 0.11712603 -0.14630225
000040 51 5c 2e 3c c9 80 a3 3d 68 e4 e0 3d d5 9f 04 3e
       0.010642127 0.07983548 0.10981065 0.12951596
000050 99 23 c8 3d ab 20 cd 3d 8d d8 4c 3d 74 02 19 3d
       0.09772415 0.100159965 0.050011206 0.037355855
000060 e8 ef 7a bd 38 55 84 3d 8e bb 6a 3d bc 6e 05 3e
       -0.06126395 0.06461567 0.057307772 0.13030523
000070 7a bf 80 bd 3d c2 01 be a0 5b 83 bc 58 61 8b 3c
       -0.06286521 -0.12671752 -0.016034901 0.01701419
000080 6a 6c 43 bc 69 79 fb bd dc 07 1b 3c e0 aa 28 3d
       -0.011927703 -0.122790165 0.009462323 0.041178584
000090 3d 25 5f bd e6 bf 7c 3d c8 3e ca bd 4b 3d 9c bc
       -0.054478873 0.061706446 -0.09875256 -0.019072196
0000a0 7a 4d 0e 3e 05 c5 3a bd 48 90 ed bb a0 9a 1c bd
       0.13896742 -0.04559805 -0.0072498657 -0.0382334
0000b0 fa 4b e9 bc 2e 16 48 3d 14 3e 54 3c aa 34 60 bd
       -0.028478611 0.048849277 0.012954254 -0.054737724
0000c0 fc bf 37 bd 82 82 11 be 99 61 1d bc 1c 7f 89 3d
       -0.044860825 -0.14209941 -0.009605789 0.06713697
0000d0 72 9a a2 bd ff 0c 62 3d 31 10 28 bd d9 69 52 3c
       -0.07939614 0.055188175 -0.041031066 0.012842619
0000e0 8f 49 1a be fb 89 c6 3d 19 5a 93 bc a8 01 4d bd
       -0.15067123 0.096942864 -0.017987298 -0.050050408
0000f0 46 b0 b6 3d 36 ca 3c bd 40 56 80 bd 4d ac a9 bd
       0.0892034 -0.04609128 -0.06266451 -0.08284817

action_layer.4.weight f4 [4, 64]
000000 20 48 32 be f0 94 01 bd 9f ae 3b 3d 96 c5 ca bd
       -0.17410326 -0.03163618 0.04582083 -0.09900968
000010 51 10 42 bd 87 5a f5 bd 9b 48 bc 3d 4f 2a 04 3e
       -0.04737884 -0.11980157 0.09193536 0.12906764
000020 c2 98 05 be fb ab 83 bd ea 36 b6 3d 1d e9 c0 bd
       -0.13046554 -0.06429287 0.08897193 -0.09419463
000030 fd 76 f4 3d 68 1c f8 bd 1e 81 42 bd 3d 72 51 bd
       0.11936758 -0.12114793 -0.047486417 -0.051134337
000040 97 ad 3a 3e d6 ce a3 bd 80 b9 38 bd 90 c6 a9 3d
       0.18230282 -0.07998435 -0.04509878 0.08289826
000050 71 c5 33 be de 6f 05 be 91 f5 bc bd 6e 17 4e 3c
       -0.17555787 -0.13030955 -0.092265256 0.012578828
000060 32 a0 e8 bd 44 c9 00 be 2d 59 e8 3d 40 c3 a2 3d
       -0.1135868 -0.12576777 0.11345134 0.07947397
000070 38 6b 8c bc 8d a4 8d bc 31 5b 59 bd d1 d9 71 3d
       -0.01714097 -0.017290378 -0.053065483 0.059045617
000080 f5 22 d3 3d 84 ba f5 3d a9 48 3f bd cb d0 2a 3c
       0.10309402 0.11998466 -0.046700153 0.010425757
000090 0f 55 17 3d 9c 70 1e 3e f7 fc e6 3d 7c f8 9c 3d
       0.036946353 0.15472645 0.11278718 0.07664582
0000a0 9f 10 ae bd 71 cb ce bd 5a 91 5f bd e0 67 ec 3d
       -0.08499264 -0.10097397 -0.054581977 0.1154325
0000b0 0a 7e 72 3b 55 08 a8 bd 22 94 bc bb 34 97 23 bb
       0.0037001395 -0.08204714 -0.0057549635 -0.002496195
0000c0 03 7a d2 bd 70 49 b2 3d 47 05 00 3e cd fd a6 bd
       -0.10277178 0.08705413 0.12502013 -0.081538774
0000d0 2f 01 61 3d 77 37 f0 3c d2 0a 88 bd 9e 29 00 be
       0.05493277 0.029323323 -0.06642689 -0.12515876
0000e0 7b 1b 0e 3e 58 c8 a9 3b 77 bb 02 3e 54 a9 7d bd
       0.1387767 0.0051813535 0.12766825 -0.061929062
0000f0 f2 ed 4d 3e d0 2d 76 3e 05 a7 54 bd 57 de 23 3d
       0.201103 0.24040914 -0.051917095 0.04000696
000100 7d fe 91 3c a8 ff 9c 3d 2e ba 7b be 92 1a 01 be
       0.017821545 0.0766595 -0.2458274 -0.12607792
000110 fa 06 4d bd 52 9c b2 3d 99 be 84 3d 07 8f 87 bb
       -0.05005548 0.08721222 0.06481666 -0.0041369232
000120 5c 08 6f 3c 4b e8 d9 bd d6 39 5c 3e 4b fc 58 3d
       0.014589395 -0.106400095 0.21506438 0.05297498
000130 99 4e 7f 3e 44 0f f1 bd 59 b7 52 3e 2b 74 84 3d
       0.24932326 -0.1177049 0.20577754 0.0646747
000140 4e 82 e3 bd b6 4f fb 3d d5 c8 27 be 22 9d 4a be
       -0.11108838 0.12271063 -0.16385205 -0.19786504
000150 a9 e1 96 bd c9 5d bc bd 5b fe 45 3e d7 ef 54 3e
       -0.0736726 -0.091975756 0.1933531 0.20794617
000160 43 21 e1 bd 61 0f 5f 3e f9 06 c7 bd 95 0e 13 3e
       -0.10992672 0.2178321 -0.09718127 0.14361031
000170 6c 12 47 be 83 67 2d 3e ac 20 45 be c9 62 0d 3d
       -0.19440621 0.16934018 -0.19250745 0.034518037
000180 22 fc cd 3d f7 48 ed bd d4 0d 43 3d 69 22 ca 3d
       0.10057856 -0.115861826 0.04762061 0.098698445
000190 4d f1 33 3e b7 a2 19 3d e9 57 8d bd 06 02 34 3e
       0.17572518 0.037508693 -0.06901533 0.17578897
0001a0 24 7e 3f bc 82 7c 05 be 44 37 5d be f2 98 a7 3c
       -0.011687789 -0.13035777 -0.21603113 0.020458672
0001b0 30 bb 23 3e 3f d9 1c be 7d 0e 90 3e 19 c6 4c 3e
       0.15989375 -0.15317248 0.28136054 0.19997443
0001c0 b1 b8 b9 bb ae f2 c9 bd ca 2a ad bd 58 69 c7 bd
       -0.005667769 -0.098607406 -0.08455427 -0.097368896
0001d0 32 8a 45 be 7c a3 12 bd 61 27 88 be 52 74 39 3c
       -0.19290999 -0.035800442 -0.26592544 0.011319237
0001e0 2c 8a 1c be f7 2b 97 3b 55 94 22 3d 35 2f 13 be
       -0.15287083 0.0046133953 0.03969224 -0.14373477
0001f0 99 a6 2b 3e e3 4d 22 3e 84 dd 5f 3d 6f ae 13 3e
       0.1676277 0.15850024 0.054654613 0.1442201
000200 25 64 10 3d a7 dc b3 bd 4b 5a e1 3d fb be d1 3d
       0.035251755 -0.087823205 0.1100355 0.10241505
000210 70 cf 9a bd 5c 13 ec 3d 0b cc 1a be 8e e2 29 be
       -0.07559097 0.1152713 -0.15116899 -0.1659033
000220 08 17 1e 3d cf 3c 12 3e b6 0e a8 bd 8e 64 a5 bd
       0.038596183 0.14281009 -0.08205931 -0.0807582
000230 28 16 aa bd 19 59 4f 3e a5 24 ea bc 8e 3d 0e be
       -0.08305007 0.20248832 -0.028581927 -0.13890669
000240 06 ab 1e be 11 6f 98 3d 34 84 1e 3e cf 1c ee 3d
       -0.15494928 0.07443059 0.15480119 0.116265886
000250 aa 30 04 3e 2f 6f b8 3b 1c 1d 4f 3e 5d 55 f8 3d
       0.12909189 0.0056284885 0.20225948 0.12125657
000260 61 bc 33 3d b0 a6 11 3e f7 7f 48 be 7e 6e ad 3d
       0.043880824 0.14223742 -0.19580065 0.0846834
000270 a5 c5 f5 3c b5 45 0c be 92 15 dc bd a6 8e 33 bd
       0.03000147 -0.13698466 -0.10746302 -0.043837212
000280 bf 71 eb bd ae 84 01 be f1 a9 d9 bc d8 9e 16 3e
       -0.11496305 -0.1264827 -0.026570292 0.14709032
000290 3e 39 d1 bc c6 76 16 bd b1 c4 1f be 35 80 29 3e
       -0.02553999 -0.036734365 -0.15602376 0.16552813
0002a0 f6 37 1f 3e 55 c9 06 3e d0 7d 2a 3b 9f 30 22 be
       0.15548691 0.1316274 0.0026014931 -0.1583886
0002b0 90 5b de bd 5f d4 15 3e 27 eb 4f 3d 2a 9d 14 be
       -0.10857308 0.14631794 0.050761368 -0.14513078
0002c0 75 53 54 3d 4b e8 0f bc ee ae 35 be 19 90 30 3e
       0.051837403 -0.00878341 -0.17742512 0.17242469
0002d0 c4 6a 2c be a7 9f 22 3e e0 81 17 3e 11 9d 2b 3d
       -0.16837603 0.15881215 0.14795637 0.041897837
0002e0 0f 3f f0 bd 06 9f 8e bd df 41 6a bc e4 ca 09 3e
       -0.117307775 -0.06963925 -0.014297931 0.13456303
0002f0 14 f4 d4 bd dd 24 39 be 01 fd 6a 3d af 86 fe bd
       -0.10398117 -0.18080468 0.05737019 -0.124280326
000300 83 4a 3e 3e 9e e6 c6 3c 51 29 39 3e c3 d1 87 3a
       0.18583111 0.024279889 0.18082167 0.0010362196
000310 9e aa 15 3e 67 7a 16 3e 7d 87 fd 3b 6f 60 a4 bc
       0.14615867 0.1469513 0.0077370987 -0.020065514
000320 c7 5f 00 3e f8 25 7f 3e 69 fa 85 be 77 8e 01 3e
       0.12536536 0.24916828 -0.2616761 0.12652002
000330 67 7f cc bd e3 90 ef bb 2f 10 cd bd d6 79 fd 3d
       -0.099852376 -0.007310973 -0.100128524 0.12376754
000340 ea 68 22 3e b0 be 7d be 2b da a1 bd 15 3a 91 3d
       0.15860334 -0.24779773 -0.0790294 0.070911564
000350 6d 53 7d bd c8 a1 2a 3e 38 ca ff bd 0f 3a c3 bd
       -0.06184714 0.16663277 -0.12489742 -0.09532558
000360 82 11 0b 3e fb bb 42 be e8 0e d2 bd d8 60 82 be
       0.13580897 -0.19017021 -0.102567494 -0.2546451
000370 8b 0e 2b 3e 8d 46 56 bd 7a e9 01 3e 69 69 0f be
       0.16704766 -0.052313376 0.1268672 -0.14005055
000380 65 13 31 be dd 50 2c 3e a3 0d ec bd 7a 8a 85 be
       -0.17292555 0.16827722 -0.115260385 -0.26082212
000390 fa e4 03 be 6b f4 2a bd 0e 84 42 3e 95 15 2f be
       -0.12880316 -0.041737 0.18995687 -0.17098077
0003a0 a1 99 8c bc 24 c7 c7 bd 07 21 f3 3d 95 6d d9 bd
       -0.0171631 -0.0975478 0.11871534 -0.10616604
0003b0 d6 f9 24 be eb 94 4d 3e df e6 e3 bd 9b 05 29 be
       -0.1611093 0.20076339 -0.111280195 -0.16506045
0003c0 61 42 5f 3e 2e 68 25 3e be 76 15 bc 89 3d 44 3e
       0.21802665 0.16153023 -0.009122549 0.19164099
0003d0 33 76 cb 3d 35 81 77 3d a3 63 b3 3d 99 61 0f 3e
       0.09934654 0.060425956 0.087592386 0.14002074
0003e0 fe 1b 7d 3e 8b e4 43 be 58 a6 37 be f9 82 bc 3d
       0.2471771 -0.19130151 -0.17934549 0.092046686
0003f0 37 49 43 be 5b 40 f1 3c 16 f7 75 3d e1 9d c3 3c
       -0.19070898 0.029449632 0.060050093 0.023878993

action_layer.4.bias f4 [4]
000000 2c 8d 41 3d 90 f9 e4 3d 8b 54 da bc 96 10 52 3d
       0.047253773 0.11180413 -0.026651641 0.05128535

value_layer.0.weight f4 [64, 8]
000000 62 03 e5 bd 43 f8 4b be bc 99 4a 3e 80 3d bf 3e
       -0.11182286 -0.19918923 0.19785208 0.37351608
000010 c4 d7 c1 bd ec e4 95 be bd b5 7c be 54 e6 55 3e
       -0.09464982 -0.29276216 -0.24678703 0.20888644
000020 53 a1 4f 3d 0d 2c a8 3e f9 42 f9 3d f6 9f ec 3d
       0.05069096 0.32846108 0.12170977 0.11553948
000030 68 1c 80 be dd 53 38 3b a0 82 b7 3d f4 ed 49 bd
       -0.25021672 0.0028126158 0.089604616 -0.049299195
000040 df 7b c6 be 36 e0 b3 be 66 14 af be 06 cc c7 3e
       -0.3876638 -0.35131997 -0.3419525 0.39022845
000050 08 4f c8 be 2b b6 0f be 29 ff 4e bd 4a be f9 3c
       -0.39122796 -0.14034335 -0.05053631 0.030486245
000060 74 ca 08 3e 6c f8 75 be 2c ce 3f be a6 ee 00 3d
       0.1335848 -0.24020547 -0.18730992 0.031477593
000070 ce fa a6 3d 99 0c b3 bd 30 9f b7 3d 14 4c 10 bd
       0.08153306 -0.08742637 0.089659095 -0.035228804
000080 13 81 c7 be 28 cc 25 be f5 c9 39 3e 78 16 0e 3e
       -0.38965663 -0.1619116 0.18143447 0.13875759
000090 96 9f ca 3d 62 37 83 bd 34 08 3c 3d 70 d4 cb be
       0.0989372 -0.06407048 0.04590626 -0.39810514
0000a0 8d 5c b3 bd 96 df 56 be 7b 2b 09 3e 10 3b 95 be
       -0.08757887 -0.20983729 0.13395493 -0.29146624
0000b0 56 dc 52 be d4 83 25 be db 09 c0 3d c9 d6 e5 bd
       -0.20591864 -0.1616357 0.0937688 -0.11222608
0000c0 aa db 0a 3e cd 2d 3b bd 54 35 18 be f3 e4 2a be
       0.13560358 -0.045697976 -0.14864093 -0.166889
0000d0 e4 5f 97 3e b9 15 72 3e 4c 19 0c 3e 55 ed f2 bd
       0.29565346 0.23641099 0.13681525 -0.11861674
0000e0 de c0 3c 3d 03 06 ab 3e f1 46 da 3c 30 b1 21 bd
       0.04608237 0.33403024 0.026645156 -0.03947562
0000f0 c1 c0 33 3d 72 de de bd 10 95 b5 3e 15 a8 be 3d
       0.043884996 -0.10882272 0.35465288 0.09309403
000100 d9 c5 81 3d c7 89 24 be d9 ac 6f be 87 e9 4f 3e
       0.063365646 -0.16068183 -0.2340578 0.20303927
000110 03 a0 3b be 24 1d 3f be 67 2f 38 3e 12 f9 bd 3d
       -0.18322758 -0.1866346 0.17986833 0.09276022
000120 68 08 d7 be d9 e6 ef bd dc cf 47 bb 48 4c f1 3e
       -0.419986 -0.117139526 -0.0030488884 0.4712851
000130 7c 9a 13 be f4 8f 60 3e 82 88 86 3e 49 e1 38 3e
       -0.144144 0.21929914 0.26276022 0.1805469
000140 46 2b 80 be 08 d5 f0 bc 19 7f a2 be fb 89 2d 3d
       -0.25033015 -0.029398456 -0.31737593 0.042367917
000150 69 f8 58 3e 0e ee 9e be 18 8d 58 be 19 82 03 bf
       0.21188511 -0.31040996 -0.21147573 -0.5137039
000160 9a 7a 8f be c5 6f f0 be 5e cd e4 bd 35 a8 2b be
       -0.28023225 -0.46960273 -0.11171983 -0.16763385
000170 ed 64 1b be 95 a2 89 be ef c8 b6 bd 64 b6 a6 be
       -0.15175219 -0.26881853 -0.08925044 -0.32561028
000180 18 48 88 3e 19 9e c9 3d 94 a6 8e be b3 61 71 3e
       0.26617503 0.09844608 -0.27861464 0.23572426
000190 3d 35 a0 be 53 44 e4 3d 20 67 91 be 2d 74 f1 be
       -0.31290618 0.11145844 -0.2839899 -0.47158948
0001a0 8d aa 91 be 3d dc 59 be ab 22 c5 3c 8e 7d c1 3d
       -0.28450432 -0.2127542 0.024064383 0.09447776
0001b0 cd 94 c3 3d 4d 27 0f be 40 4c a8 3e af e8 35 bd
       0.09549866 -0.13979836 0.32870674 -0.044411357
0001c0 a0 37 6b 3e 87 79 00 bd 74 d0 ea bd 03 fe 6b be
       0.22970438 -0.031365898 -0.114655405 -0.23046117
0001d0 9b 88 c5 bd 5e be 35 ba 29 d5 ec bd d1 89 3a 3e
       -0.09645196 -0.0006932969 -0.115640946 0.18216635
0001e0 30 36 81 3e 06 c8 cd 3d e4 58 6c 3e 86 7d ac 3c
       0.25236654 0.10047917 0.23080784 0.021055948
0001f0 67 5e d0 3e d4 2b ca bc 6d 54 28 3e df 4b 40 be
       0.40697023 -0.024679102 0.16438456 -0.18778943
000200 e0 8c 32 be 32 65 65 3e f6 f4 98 3e 91 12 ff 3d
       -0.17436552 0.22401884 0.2987439 0.12454713
000210 15 99 de 3e ea 65 62 3e d4 cb 83 3e c0 6f 32 3e
       0.43476167 0.2210919 0.25741446 0.17425442
000220 e3 6d 69 bd d4 10 fe 3d 39 12 b1 3c 2c 7f 3c be
       -0.05698956 0.124055535 0.021615135 -0.18407887
000230 08 3a f6 3d e4 d5 a6 bd ad 71 a9 bd 04 61 8d 3e
       0.12022787 -0.08146265 -0.08273635 0.2761308
000240 fc 5e 1a be 5a 72 c8 3e f5 8e 56 3e 5c 0d f0 3d
       -0.15075296 0.39149743 0.20952971 0.11721298
000250 b8 ec 03 3f 95 e1 57 3d 36 ac 75 be 03 62 74 be
       0.5153308 0.052705366 -0.23991475 -0.23865514
000260 3d a2 37 3e 75 89 76 3a 70 b7 19 3e 0f a3 cf 3d
       0.17932983 0.0009404638 0.15011382 0.10138523
000270 39 c5 1a be e7 80 ba bd 07 5a 78 3d c7 d2 8b 3e
       -0.15114297 -0.091066174 0.06063273 0.27309248
000280 20 67 15 3e 85 0a 49 3e 01 bf 86 3e c3 88 4c be
       0.1459012 0.19632919 0.263176 -0.19974045
000290 a2 f1 c0 3e 15 30 0b be 85 7d 77 be 54 3a fb bc
       0.3768435 -0.1359256 -0.24168976 -0.030667461
0002a0 f8 82 f9 bc ee a7 ba 3d 56 59 0b 3c 5a 2e 1e bd
       -0.030457959 0.09114061 0.008505186 -0.038618423
0002b0 db d6 4b 3e cc ca bb 3d b9 6c d8 3e 83 f5 40 3e
       0.1990618 0.0916954 0.4227045 0.18843655
0002c0 eb 70 8d 3d d2 98 59 be e9 85 94 be b3 db 63 3e
       0.06906303 -0.21249703 -0.29008415 0.22251777
0002d0 74 0f 32 bd 84 2b 53 3e f0 01 1e 3d 2a 0c b1 3d
       -0.04347177 0.20622069 0.038576066 0.08644898
0002e0 cb 18 df 3c 40 6e 8b 3e 5d e5 7e 3d 96 22 84 3e
       0.027233502 0.27232552 0.062230457 0.25807637
0002f0 4c 62 24 be 04 d3 03 3e 81 ae 61 be 90 77 7b 3e
       -0.16053122 0.12873465 -0.22039224 0.24557328
000300 57 34 58 3e 74 88 be 3e 0f 33 82 3e 37 76 45 3e
       0.21113716 0.3721348 0.2542958 0.19283377
000310 56 15 5b 3e d4 56 5d bd 6a a3 85 be 09 3c 60 bd
       0.21394858 -0.054037884 -0.26101238 -0.054744754
000320 56 60 6f 3b f8 e9 3f be 55 cf 63 bd 81 57 ac 3e
       0.0036525927 -0.18741596 -0.05561765 0.3366051
000330 e3 03 3e be 08 ff 5f be 1d cf 8c bd ab 9c 3b be
       -0.1855617 -0.2187463 -0.06875441 -0.18321483
000340 f9 43 cc be fc 97 2e be f2 e5 52 3d fd d8 88 3d
       -0.3989561 -0.17050165 0.051488824 0.06682012
000350 59 42 5b be 6c 22 8b 3e d1 fe 46 3e 9d 18 8e 3e
       -0.21412028 0.271747 0.19433142 0.27753153
000360 f2 65 1f 3e 2f c2 13 be 61 a0 85 be cd 8c 14 bd
       0.15566233 -0.14429544 -0.26098922 -0.03626709
000370 bb 61 fd bd 82 7c 3c 3d 9f 20 99 be 26 ff ac be
       -0.12372156 0.046017177 -0.299077 -0.33788413
000380 ac 30 62 be a9 c2 97 be ee 79 3e be 88 6e 57 bd
       -0.2208888 -0.296407 -0.186012 -0.052595645
000390 6a 13 4b 3e be e7 af 3e 81 44 d6 be d4 98 a5 be
       0.19831625 0.34356493 -0.4184914 -0.3234316
0003a0 7e 4d 78 be d8 fb 07 be 1f 3b 56 be 39 26 d2 3e
       -0.24248311 -0.13279665 -0.2092099 0.41044787
0003b0 5e b1 bf 3b c6 d5 69 3e e4 3e 0f bd 8a c8 ba bd
       0.0058500012 0.22835454 -0.034972087 -0.09120281
0003c0 6e f1 08 3d 89 1f f2 3e 78 54 ae 3d e6 c2 d5 bd
       0.03343337 0.47289684 0.08512205 -0.104375646
0003d0 81 b2 2f bc f0 46 83 3e c5 5a c2 3d e8 81 81 3d
       -0.010723711 0.2564006 0.09489969 0.06323606
0003e0 08 08 a0 be 34 70 83 be d1 c9 10 3e 40 3b b8 be
       -0.31256127 -0.25671542 0.14139487 -0.35982704
0003f0 fa 4a 22 be d1 a6 56 be 10 7b 5f bd 49 f1 5d 3d
       -0.15848914 -0.20962073 -0.05456072 0.054185186

value_layer.0.bias f4 [64]
000000 6e 51 20 3c 70 20 66 3e 07 f3 6f 3e de f7 25 3e
       0.009785039 0.22473311 0.23432551 0.16207835
000010 cd 1a 5e be 57 1b 06 3d 35 af e4 3d 6c c5 58 3e
       -0.21689911 0.032740917 0.111662306 0.2116906
000020 5e c1 2c be c0 78 91 3e a0 07 a7 be 3b c0 2d be
       -0.16870639 0.28412437 -0.32623005 -0.16967861
000030 bd 54 21 3e b7 bb a3 3e 39 b2 87 3e 4f 0d a7 3e
       0.15754981 0.31979153 0.2650316 0.3262734
000040 de 5e c9 3d d7 79 38 3e ea 30 0a 3d 55 71 bd 3e
       0.098325476 0.18015228 0.033738054 0.37000528
000050 18 7f aa be 41 ec 82 3e f2 a9 97 3e d1 35 16 be
       -0.3330009 0.25570872 0.29621845 -0.14668967
000060 bd 55 00 3e 03 df 50 3e b5 33 c1 bd 39 b1 a7 3e
       0.12532707 0.20397572 -0.094336905 0.32752398
000070 d8 89 8b 3e 69 d4 7f 3e db d5 c0 be be ed 9c be
       0.27253604 0.24983372 -0.3766316 -0.30650133
000080 2e 99 ec 3c 71 ab 9c 3d 55 2e 8b 3e cc 22 ea 39
       0.028881636 0.07649887 0.27183786 0.00044657884
000090 b6 c4 2b 3b 77 3b 4b be 89 25 67 3e 3c 26 27 3e
       0.0026209778 -0.19846903 0.22572912 0.16323179
0000a0 5d 72 c0 bc f2 17 4f be dd 00 ac 3d e0 c2 60 be
       -0.023492033 -0.20223978 0.08398602 -0.21949339
0000b0 93 c8 99 3c 95 d1 9b 3e 82 52 ad 3d fe dc 48 3e
       0.018772399 0.30433336 0.08463003 0.19615552
0000c0 b9 f1 58 3e 0d e3 56 be 0c 1f 12 bd 2b 71 92 3d
       0.2118596 -0.2098505 -0.03567414 0.07150491
0000d0 80 3e 21 be 95 78 e5 3d 6b 62 97 3d 97 2f b2 bd
       -0.15746498 0.1120464 0.073918186 -0.08700483
0000e0 68 43 13 3e 3f 5f 97 3e bf 15 c3 bd 8c 4c 4f be
       0.14381182 0.29564855 -0.09525632 -0.20244044
0000f0 3f 7a c5 3d b7 7f 59 3e 41 58 78 be 2e 38 57 3e
       0.09642457 0.21240126 -0.24252416 0.21017525

value_layer.2.weight f4 [64, 64]
000000 a4 d7 82 bd 19 6e bc bc f4 58 b4 bd 9d 2a dd 3d
       -0.063887864 -0.023001717 -0.08806029 0.107991435
000010 7a 32 4a bd 42 96 00 be e9 c2 ad bd e7 4d 28 be
       -0.049364544 -0.12557319 -0.08484442 -0.16435967
000020 fb c5 82 3d 8d c0 10 be 32 e1 93 bc 0f 4c 78 3d
       0.06385418 -0.14135952 -0.018051717 0.06061941
000030 46 80 a9 3d f4 20 12 be 76 9c be bb 62 03 8c 3d
       0.08276419 -0.14270383 -0.0058169914 0.06836583
000040 e1 5c 06 3d 30 0c 99 bd 1e 38 cb 3d 70 70 3e bd
       0.03280342 -0.07473028 0.09922813 -0.046493948
000050 df 4f 50 bd 2e 26 ca bd c8 de 86 bd c1 c1 df 3d
       -0.05085742 -0.098705634 -0.06585461 0.109256275
000060 fe c1 7b bc 6e 22 9d ba 8c 75 85 bb 8d 5f f7 3d
       -0.015366076 -0.001198841 -0.0040728506 0.12078772
000070 a1 98 a8 bd 78 91 c2 3d 43 9c 05 bc 35 85 1f be
       -0.08232237 0.09500402 -0.0081549315 -0.15578158
000080 e1 66 49 3d a8 e1 a9 3c db e1 2b bd 2c 3f 11 be
       0.04917038 0.020737484 -0.04196344 -0.14184254
000090 03 5c c2 bd 35 ff e2 bc 82 ce 28 3e e4 87 18 bd
       -0.09490206 -0.027709583 0.16485026 -0.03723897
0000a0 8c 88 cc 3d 4a e9 71 3d 24 46 53 be 21 1c c5 bd
       0.09986982 0.059060372 -0.20632225 -0.09624506
0000b0 45 a8 92 bd 64 b1 17 3e 5c ce 46 bd 08 8c 08 be
       -0.07161001 0.14813763 -0.048536643 -0.13334668
0000c0 24 68 10 bc ca 7e 00 bd c8 4c e1 bc 16 4a 0d 3e
       -0.008813892 -0.031370915 -0.027502432 0.13797793
0000d0 5d 14 10 bd ae b0 40 3d 69 3e e5 3c f5 22 cc 3d
       -0.03517567 0.047043495 0.027983861 0.09967605
0000e0 8c 79 8c 3d e6 39 0d bd f8 09 40 3b b6 cc a5 3d
       0.06859121 -0.034479044 0.0029302817 0.08095686
0000f0 f9 77 ee bd ba 04 90 bc ae 6e ca bd 1f f0 bd 3d
       -0.11643977 -0.017580379 -0.09884392 0.09274315
000100 ac 63 01 bd c9 ff e1 bd e2 3d e1 bd 1a 51 81 bd
       -0.031589195 -0.11035115 -0.10998131 -0.06314297
000110 ec 56 a0 bc 50 d8 2c 3d d1 54 de bc 2d 96 b2 3d
       -0.019572698 0.04219848 -0.027140053 0.0872005
000120 4d d0 87 bd 20 ea 40 be a8 12 96 3d ec 7f 23 be
       -0.06631527 -0.18839312 0.07327777 -0.15966767
000130 fe 5a c3 bd 5b 22 0b 3b a6 bf 12 3e bb 91 92 bc
       -0.0953884 0.0021230194 0.1433092 -0.017891755
000140 16 76 a0 bd b8 9c eb 3d 43 20 ae bd 7e 66 88 3d
       -0.07835023 0.11504501 -0.08502247 0.06660174
000150 c7 f6 80 3d 4f 15 25 bd ef 1e 2a 3c f7 88 8f 3c
       0.06297069 -0.040303525 0.010383352 0.017521365
000160 ce 53 13 3c 8a 46 0b be e3 53 fa bd 54 e3 b9 3d
       0.008992149 -0.13601127 -0.12223031 0.090765625
000170 1c 86 4b bd 81 fc 2e be 80 fc 0d 3e 26 db 9d 3c
       -0.049688444 -0.1708851 0.13865852 0.019269537
000180 38 c1 b1 bc fd a1 35 bd f4 d7 0e be 23 e2 24 3d
       -0.02169858 -0.044343937 -0.13949567 0.040254723
000190 a5 de 96 bd c0 22 83 3c 9b 31 88 bd 0d 7e 20 3e
       -0.07366685 0.016007781 -0.066500865 0.15673085
0001a0 b0 a4 33 bd 7e f1 db 3d 14 c4 ea 3d 64 94 fa 3b
       -0.04385823 0.1073942 0.1146318 0.007647084
0001b0 23 b4 1a 3d 32 d4 f4 3c c4 10 b8 bd 98 e6 9c 3c
       0.037769448 0.029886339 -0.08987573 0.019152924
0001c0 f0 e8 c2 3d de 29 2f 3d de 2a d6 bc 4a 65 c1 3c
       0.095170856 0.042764537 -0.026143488 0.023607869
0001d0 d1 a8 f5 bd 31 fc c9 3d e1 2b b1 3c 94 c1 ef 3d
       -0.1199509 0.09862555 0.021627368 0.11706844
0001e0 7e ee 2d 3d 9f b3 8b 3d b0 23 46 bd bc df a3 bd
       0.042463772 0.068213694 -0.048373878 -0.08001658
0001f0 fc 32 02 bd 00 ef 35 be 50 ad 97 3a 1d 67 2a be
       -0.031786904 -0.17766953 0.0011572037 -0.16640897
000200 ab f8 32 3d 4d 37 9d bc 89 3e 62 3e f9 63 a7 bd
       0.04369418 -0.019191409 0.22094168 -0.08173365
000210 9a db 42 bd 18 3d 8d 3c 9a 5f b2 bd 0c 60 15 be
       -0.04757271 0.017241046 -0.08709641 -0.1458742
000220 04 c8 dd 3d dc 1d c1 3e dc 09 62 bd 76 89 0d 3e
       0.108291656 0.37718093 -0.055185184 0.13821968
000230 17 1a 84 bd d2 dc dd 3d 30 03 c9 bc 0c 4d 1e be
       -0.06450289 0.10833134 -0.024537653 -0.15459079
000240 cd a5 e9 3d d6 80 b3 bd 7f 87 cb bd de 09 6b bb
       0.11408577 -0.08764808 -0.09937953 -0.0035864036
000250 8b 3a 55 be 10 83 eb 3d f8 77 60 bd 4b 11 03 3e
       -0.20823114 0.114996076 -0.05480191 0.12799565
000260 69 8e 1f be 37 51 d6 3d 64 61 d2 3d 7a 5c be 3d
       -0.15581669 0.10464709 0.10272482 0.09294982
000270 6f 16 7f bc ff 61 4f 3e d9 f5 1b be 36 b1 20 3d
       -0.015569313 0.20252226 -0.15230502 0.0392315
000280 f2 1b 0d bd d7 5f 1c bd b2 b8 05 ba d0 59 3f 3e
       -0.03445048 -0.038177337 -0.0005101069 0.18686604
000290 5b e9 33 3e 3d 97 6a bd e6 de 9c 3d c5 62 04 be
       0.17569487 -0.05727314 0.07659702 -0.12928303
0002a0 c5 d2 df bc 3b 16 23 bd d9 ff 65 3d 7a d9 b3 bd
       -0.027322182 -0.039816123 0.0561522 -0.08781715
0002b0 2b 3e 2c 3c 33 e8 41 3d d9 6d 88 3c cd 78 00 bd
       0.010512869 0.047340583 0.016653942 -0.031365205
0002c0 00 ee a7 3d f1 cf 20 be 20 46 28 3e 09 49 33 bd
       0.08199692 -0.15704323 0.16433 -0.043770824
0002d0 32 3d 9f 3d c8 65 dd 3c 02 36 d1 bd 0a 30 b0 bd
       0.07775344 0.027026072 -0.10215379 -0.08602913
0002e0 0a 78 cf bc e7 34 9f 3d 73 24 27 be 44 b0 57 3d
       -0.025325794 0.07773762 -0.16322498 0.052658334
0002f0 d0 ac 34 bb 29 72 f0 3d 5a 85 2e 3b c3 d3 fa 3d
       -0.0027568825 0.11740524 0.0026629777 0.122474216
000300 7d 60 2b bd 0b ed a8 3d 35 c2 42 be 40 d3 1d be
       -0.041840065 0.08248337 -0.19019397 -0.15412617
000310 e0 7e 0a be 13 5f 88 bd 67 9e 49 bd fa 05 18 bd
       -0.13524961 -0.06658759 -0.04922333 -0.037115075
000320 d7 62 c7 3b 56 f9 24 be 93 d0 26 be a2 59 fb bd
       0.0060847807 -0.16110739 -0.16290502 -0.122729555
000330 01 99 e8 bd 75 f7 08 be 30 e0 b1 bd 5f 68 4d 3d
       -0.11357308 -0.13375647 -0.086853385 0.050148364
000340 c7 73 e5 bd d4 b2 92 bd 1c 3a a9 bb 5d 70 ec bd
       -0.112037234 -0.07163015 -0.005164398 -0.11544869
000350 77 c1 4b 3e 30 94 c4 3d 5b ad 14 be a0 ab fb bd
       0.1989802 0.09598577 -0.14519255 -0.12288594
000360 c6 99 4f bc 2b be 24 be 54 b1 c6 3c a3 72 67 bd
       -0.01267094 -0.16088168 0.024254479 -0.05650581
000370 26 a9 d0 bd d3 d9 e3 bd 3d ad 04 3e 01 52 1e 3d
       -0.101885125 -0.11125531 0.1295671 0.038652424
000380 39 fe bd bd 8c e5 35 bd e5 86 4b be 20 ba aa bd
       -0.09277005 -0.044408366 -0.19875677 -0.08336282
000390 5c d9 f2 3b 6f 86 c0 bd 0b d0 9c 3d 27 51 34 3e
       0.007411165 -0.09400641 0.076568685 0.17609082
0003a0 5f a1 3a bd a6 43 ca 3d 26 63 5d 3d 79 88 8f 3d
       -0.04556405 0.09876184 0.054049633 0.07008452
0003b0 76 81 7d 3d 38 5c 81 bd e9 3e a3 bc dd 9a ad bd
       0.06189104 -0.063164175 -0.019927459 -0.084768035
0003c0 13 a0 76 3c ab 31 17 3e 49 b0 c5 3c be 98 76 bd
       0.015052813 0.1476504 0.02413191 -0.06020426
0003d0 d1 fa 41 be 12 98 0d be 3f f6 0d 3c 93 51 0d 3e
       -0.18943335 -0.13827541 0.008664667 0.1380065
0003e0 a1 2e 15 be f3 4e bb 3d b3 84 f9 3c 80 d4 52 bd
       -0.14568569 0.09145918 0.030458784 -0.051472187
0003f0 1e 23 e7 3d cf 14 e3 bd 0a d1 12 3d 41 2b e6 bb
       0.11285995 -0.11087953 0.035843886 -0.0070241992

value_layer.2.bias f4 [64]
000000 3d 15 9b 3d 97 a4 ca bd 30 55 f6 3d 15 98 1e be
       0.0757241 -0.09894674 0.12027967 -0.15487702
000010 b0 64 80 bc 05 c7 d1 3d c4 5c 1e be 71 3f f9 bd
       -0.015673012 0.10243038 -0.15465075 -0.121703036
000020 c2 2c f3 bd 4d 71 0f 3d c1 36 e2 3d 1c d6 cb bd
       -0.11873771 0.03502016 0.110456 -0.099529475
000030 b2 a2 a9 3d 9f ff ff 3d 7e 12 10 3d ae 43 4f 3c
       0.08282985 0.12499928 0.035173886 0.012650413
000040 7e 6b 86 3d 51 54 78 3c 53 22 ed 3d ad 75 c6 bd
       0.06563471 0.015156821 0.115788125 -0.096904136
000050 00 7e b3 bc 44 54 85 bd 14 93 05 be 2d 9f d8 bd
       -0.021910667 -0.06510213 -0.13044387 -0.10577235
000060 b7 96 b9 3d 73 39 c8 3d 0d 24 56 3d 44 9a 52 bd
       0.0906195 0.097765826 0.052280474 -0.05141665
000070 8b 10 70 3d 58 fc f5 bd d7 67 17 3d 17 67 2c 3d
       0.058609527 -0.120110214 0.036964264 0.0420905
000080 41 6c 0e 3d 50 29 d2 ba 37 52 96 3d 34 c2 34 3d
       0.034771208 -0.0016034041 0.073399 0.04413052
000090 9f 67 81 3d 6c 47 20 3d 3c 99 61 3d e7 c9 b1 bd
       0.06318592 0.039130613 0.055077776 -0.08681088
0000a0 38 df 31 bd 1f c8 14 3e 0e 2c ba 3d a5 bb b9 bd
       -0.04342577 0.14529465 0.09090434 -0.090689935
0000b0 25 08 dc 3c fe 31 9e bc 96 51 a7 bd 42 a2 18 bd
       0.026859352 -0.019310948 -0.08169858 -0.037264116
0000c0 15 b9 a5 3c d1 95 2c bd 0e 63 71 3d ff a8 c0 bd
       0.020229856 -0.042135064 0.058932357 -0.094072334
0000d0 57 c3 50 bd 55 c6 fe bd 70 e0 05 3e 5f 8e cb bc
       -0.05096754 -0.124401726 0.13073897 -0.024848161
0000e0 e2 4c 91 3d e8 6c 62 bc 9d 81 9f bc da 22 17 be
       0.07094742 -0.013819911 -0.019470984 -0.14759389
0000f0 90 65 1d bc dc 42 8a bd c9 47 03 bd 61 b0 b1 bd
       -0.009606734 -0.06751034 -0.03205088 -0.0867622

value_layer.4.weight f4 [1, 64]
000000 e8 a9 f4 3c 36 7b 88 3d 31 fc 8e bd cc 76 11 3d
       0.029866174 0.066641256 -0.069816954 0.035513684
000010 44 79 3d 3d 04 57 93 3c cb 29 fc 3d 29 a2 35 bd
       0.046258226 0.017985828 0.12312659 -0.0443441
000020 54 61 25 bd c5 88 80 3d 92 4b da 3c 1a 74 2f 3d
       -0.040376022 0.06276087 0.026647363 0.042835332
000030 18 55 a3 bc 9e 28 0d bd b6 c1 f1 bc 2f 19 b8 3d
       -0.019938037 -0.034462564 -0.029511314 0.089891784
000040 dc d1 fd 3c a2 7b 84 3a af c2 28 bd 04 66 b2 3c
       0.030983858 0.0010107646 -0.04120129 0.02177716
000050 44 dc f4 3b 9e 3f ad 3a 03 7c 95 bd 4e 39 9e 3d
       0.007472547 0.0013217812 -0.07299044 0.07725774
000060 9e 18 2d 3c d9 10 10 3d 39 2b 84 3d 1f be 8c 3a
       0.010564951 0.035172317 0.064535566 0.0010737813
000070 7c 12 4c 3d b4 42 07 3d 46 3c 55 3b 4c f4 d7 bc
       0.049822316 0.033022597 0.0032537146 -0.026361607
000080 e9 e1 29 3d 70 79 5e bd ea c9 a8 bd 39 5f 91 bd
       0.04147521 -0.05431503 -0.08241637 -0.070982404
000090 40 cc a3 bd 06 4b 88 bd ab 33 81 bd e0 ad dd 3d
       -0.07997942 -0.066549346 -0.06308683 0.1082418
0000a0 88 43 ea bc 83 0e e5 bc e1 73 f7 bb 4e 36 4a 3c
       -0.028596655 -0.027961021 -0.0075516556 0.012342049
0000b0 8a 37 04 bc b0 c0 58 3d 5b 16 56 bd 1e 4d 06 bd
       -0.008069882 0.052918136 -0.052267414 -0.03278839
0000c0 4a cb fe 3c e1 e3 c8 3b 4e 72 91 3b f2 51 c2 3c
       0.031102795 0.006130681 0.004438675 0.023720715
0000d0 9d f5 81 bc c8 47 8e 3d 07 12 04 be 7e 11 c5 3c
       -0.015864188 0.06947285 -0.12897502 0.024056192
0000e0 5b a2 22 bd af dd 01 bd 25 1d 83 bd 16 1e b2 3d
       -0.039705615 -0.031705555 -0.06402043 0.08697145
0000f0 22 5c 76 bc 11 56 f0 bc 72 55 ce bc 0f 91 a8 3d
       -0.015036615 -0.029337915 -0.025187228 0.08230793
