Homework8/Gym-PPO-solution/results/PPO_LunarLander-v2_2000-eps0.1.pth (torch, 42817 bytes, 11 tensors)

action_layer.0.weight f4 [64, 8]
000000 01 59 4f be 6b 4d 67 be 1c 49 c1 be 67 5d 9a 3e
       -0.20248796 -0.22588126 -0.3775109 0.30149385
000010 38 98 1f 3f 25 b7 43 3e 98 9a 20 3e 70 31 c0 be
       0.6234164 0.19112833 0.15683973 -0.37537718
000020 82 fb c7 be 2e 28 2c be 60 8d 8f be 86 fb d3 3e
       -0.39059073 -0.16812202 -0.28037548 0.41402835
000030 c0 b5 2f 3f ee f8 2c 3f 31 fa d6 3e a1 9f 75 be
       0.68636703 0.67567337 0.41987756 -0.23986675
000040 74 62 30 3e fc cf 58 3d 08 39 5c 3e 38 3f 2e 3e
       0.17225057 0.052932724 0.2150613 0.17016304
000050 15 71 93 be 19 7d 9c 3c 9c 50 0e 3e 03 3b 76 3e
       -0.28797212 0.01910262 0.13897938 0.24045949
000060 b1 e2 f0 bd 64 80 94 3e 08 a1 c0 3d e6 ba b1 3e
       -0.11761988 0.29004204 0.09405714 0.34712905
000070 e5 ab 6f 3e 6e 06 35 3e 62 60 27 3e 33 23 23 bd
       0.23405416 0.17678234 0.16345361 -0.03982849
000080 1a 9c 61 3e 5d 7e ac be 4b 2b 9b 3d 67 e6 7a be
       0.22032204 -0.33690158 0.07576617 -0.24501954
000090 3d d6 b8 3e 79 e4 a3 3d 5c 04 cf 3e 56 e7 84 3e
       0.3610095 0.08002562 0.40433013 0.25957745
0000a0 26 e8 f2 3e 7a 5a 80 be ed d4 aa 3e c6 be 8b 3e
       0.4744274 -0.25069028 0.33365574 0.27293986
0000b0 fb 51 18 bf a6 9a 52 bf 9a 40 be bd 88 9c c2 bd
       -0.5950009 -0.82267225 -0.092896655 -0.09502512
0000c0 2a 94 87 3e c0 32 ae be 75 9f 64 be d2 8a 3e be
       0.26480228 -0.34023094 -0.22326453 -0.18607643
0000d0 05 4e bd 3e 04 50 fb bd 5f 63 36 bc b1 51 68 be
       0.36973587 -0.12271121 -0.01113209 -0.22687413
0000e0 6e 56 64 be 66 7e 82 3d c2 d2 81 bd 7a 5a 61 bd
       -0.22298595 0.06371765 -0.06339027 -0.055017926
0000f0 08 18 f3 be da 7a b8 3d d4 dc 84 3d 26 96 cd bc
       -0.47479272 0.09007807 0.06487432 -0.02509601
000100 b0 a7 e7 bc fb da 60 3c a5 5a e3 bc 7a 3a 85 bd
       -0.028278202 0.013724084 -0.027753184 -0.06505294
000110 d0 32 a7 3c 46 75 72 3e c5 85 00 3e 49 f3 c6 bc
       0.020409971 0.23677549 0.12551029 -0.02428593
000120 f5 52 72 3d 8e a6 b8 bd 07 b3 a9 3b f9 30 25 3e
       0.059161145 -0.09016143 0.0051788124 0.16131963
000130 a2 92 2a 3e 68 27 e1 bc 04 8e c1 3e ec 9b 98 bd
       0.16657498 -0.02748461 0.37803662 -0.07451615
000140 28 fd c7 3c ef 4b 9e bd 00 a9 c5 3d 39 98 0a 3c
       0.024412706 -0.07729327 0.09651375 0.008459144
000150 e9 4a 25 bf 64 3c a6 be 7d 71 4c 3e 15 2b 8d 3d
       -0.6456743 -0.3246795 0.19965167 0.06892983
000160 02 ab e6 bd 73 39 cd 3e 0e b3 92 3d d9 c2 ce 3e
       -0.11263086 0.40082893 0.07163058 0.40383032
000170 54 e9 90 3d bb 58 91 be ea ea 23 3e 1f c0 36 be
       0.07075754 -0.28388008 0.16007581 -0.17846726
000180 48 cc 9a 3d 0d bd 95 3e 95 43 a7 3e 24 23 b2 bc
       0.07558495 0.29245797 0.32668748 -0.021745272
000190 b4 26 c8 be 6f 68 22 3d 92 d1 8e 3e 36 29 bc bd
       -0.39092028 0.039650377 0.27894264 -0.09187548
0001a0 b3 84 cc bd 29 7c 30 3e e6 f6 25 bc ca 8f 9b bc
       -0.09986248 0.17234863 -0.010129666 -0.018989462
0001b0 89 b8 8a 3e 4d 95 ba 3e 4b 74 bc 3d 04 1a f1 bc
       0.27093914 0.36442032 0.092018686 -0.02943135
0001c0 22 4e 81 be 64 36 22 be 91 53 40 3e 3a d8 d5 bd
       -0.25254923 -0.15841061 0.18781878 -0.104416326
0001d0 04 8c 78 3e 75 6f 5e 3e 27 54 92 bc 55 d4 9c 3e
       0.24272162 0.21722205 -0.017862393 0.30630746
0001e0 87 98 0a 3e 99 e9 2e bd 3d e6 93 3e 51 9c f7 3e
       0.13534747 -0.042703245 0.28886595 0.48361447
0001f0 71 1f 00 3e af 0a 90 be a0 81 e8 3d 66 78 04 bd
       0.12511994 -0.2813315 0.11352849 -0.032341383
000200 cf 5c 18 3d f9 a9 32 bc d5 41 81 be b0 3f e6 3e
       0.037197884 -0.010904782 -0.25245538 0.44970465
000210 f2 ef c8 bd 22 45 1a bf 87 08 67 3d e4 a6 c3 3d
       -0.09811391 -0.6026174 0.056404617 0.09553316
000220 b9 11 64 3e b9 e5 09 3e 90 6d 8f 3b 4b 9b ac 3e
       0.22272386 0.13466538 0.0043770745 0.3371223
000230 0b f3 a6 be 67 90 b5 be aa 15 f3 bc b5 24 89 3e
       -0.32607302 -0.35461733 -0.029673416 0.26785818
000240 5e 7a 89 be b4 09 00 3e b1 48 1a be 86 23 68 be
       -0.2685117 0.12503701 -0.15066792 -0.22669801
000250 0a e3 3b bd 11 fe 36 bd b6 3a 48 3d cb ab 09 be
       -0.04587082 -0.04467589 0.048884116 -0.1344444
000260 4f 55 9e be ec 59 42 3e 46 ad 9e bd b9 f1 bd bd
       -0.3092446 0.18979615 -0.07747893 -0.092746206
000270 c8 8e 0d 3e de 7c 0d 3f 22 2c 82 3e 11 15 cb 3d
       0.13823998 0.5526866 0.25424296 0.099161275
000280 22 83 5b 3e 1e 5e 7d 3e 47 6d 86 be 77 7a 87 3e
       0.21436742 0.24742934 -0.26255247 0.2646062
000290 2a 52 b0 3e 5a 16 3c 3f c1 3a d4 3e 68 2d 45 3e
       0.34437686 0.73471606 0.41451076 0.19255602
0002a0 74 27 c9 be c5 8c f7 3c b5 ab b0 be b8 db 80 3e
       -0.39287913 0.030218491 -0.34506002 0.25167632
0002b0 f0 77 ed 3e 8b 6a 23 3f f1 2c ea 3e 29 3f f9 bd
       0.46380568 0.63834447 0.45737413 -0.1217025
0002c0 70 6f 1e be 94 02 78 3d cd 04 03 3d b6 d3 e6 3e
       -0.15472198 0.060549334 0.031987 0.45083398
0002d0 e9 82 5d be e1 20 45 be 31 10 87 be 3c a3 a1 be
       -0.2163197 -0.19250824 -0.2637954 -0.3156985
0002e0 a3 58 40 3e a6 f1 78 be eb 48 c1 bd fd 0c ef be
       0.18783812 -0.24310932 -0.09437736 -0.46689597
0002f0 dd 38 26 3f c7 a1 99 3e 67 40 ab 3e e1 f5 12 3e
       0.64930516 0.3000624 0.33447573 0.14351608
000300 de d3 66 3e e6 ad 6d 3e ce ec f5 bd 40 94 89 3d
       0.22541758 0.23210868 -0.120080575 0.067177296
000310 f5 78 56 3f 99 ab 29 3f cd 7d 4f be fa 13 3e 3c
       0.83778316 0.6627746 -0.20262833 0.0116014425
000320 65 bf 44 3d 15 5b 81 be a2 1e b7 3e 06 c8 b0 be
       0.04803409 -0.25264803 0.35765558 -0.34527606
000330 29 88 2c bf 19 1a 13 be 8c 0b 85 be 1a 01 34 be
       -0.67395264 -0.14365424 -0.25985372 -0.17578545
000340 82 9d 96 3e c1 7e f7 bd a9 ce 16 3e cf 89 93 be
       0.29417044 -0.12084723 0.14727272 -0.28816077
000350 42 74 91 3b eb a7 75 bf c6 5a 75 bd 06 a9 be bd
       0.004438908 -0.9595935 -0.05990102 -0.093095824
000360 59 64 99 3d 4d ef 3d be 4f 3c 10 3d 48 60 9d be
       0.07489843 -0.18548317 0.035213765 -0.3073752
000370 37 62 ba 3e d3 fc 81 3d 7d 45 de 3e 3b 42 c2 3d
       0.36403057 0.063470505 0.4341239 0.09485289
000380 98 97 87 be 87 b6 09 3e 3f c4 c4 be 8f 29 1d 3e
       -0.26482844 0.13448535 -0.38430974 0.15347885
000390 fc 67 2a 3f 77 94 a5 3e 5a 83 85 bd 53 01 6b 3c
       0.6656492 0.32339832 -0.06519194 0.014343577
0003a0 c9 5b 89 3e 72 45 40 3d 05 7a 7e be a0 ce 90 3e
       0.2682784 0.04694123 -0.24851234 0.28282642
0003b0 e8 cd e1 3e 2f 84 7c be 93 67 2c be 98 f5 a2 be
       0.44102407 -0.24659799 -0.16836385 -0.31827998
0003c0 47 01 2c bd 7e 4a 64 3e b4 6e 7c bd b2 3c 1a 3f
       -0.041993406 0.22294042 -0.061629012 0.60248864
0003d0 fc d7 95 be 8d 5a be 3d c2 4b 6d be 14 53 b6 b9
       -0.29266346 0.09294615 -0.2317343 -0.00034775643
0003e0 66 01 02 bc f6 28 73 3d 26 1e 8f 3d 5f f7 b8 be
       -0.007934904 0.059365235 0.06988172 -0.3612623
0003f0 2a 3a 04 3f 1a 5e 9c 3e 41 15 ea bd 6f 86 94 3e
       0.5165125 0.30540544 -0.11429835 0.29008815

action_layer.0.bias f4 [64]
000000 dc c6 81 3e d1 19 a6 3e 5a 56 60 bd 68 e2 54 bc
       0.2534703 0.3244157 -0.05476985 -0.012993433
000010 c5 c6 30 3e 89 30 9e 3e af 54 71 3e 8d 2f 2a 3e
       0.17263325 0.30896404 0.2356746 0.16619702
000020 08 34 55 bc 70 f6 05 3d 05 07 3c 3e 59 d4 55 be
       -0.0130128935 0.032705724 0.18362053 -0.20881785
000030 9d 57 5c be 6e 9e ab 3b 46 90 7b 3e d2 5b 69 be
       -0.21517797 0.005237392 0.24566755 -0.22788933
000040 15 8c 5b 3e 35 0c b4 bd ac 4a 3e 3e 13 60 d2 bd
       0.21440156 -0.08791391 0.18583173 -0.10272231
000050 7e 3d 02 be e9 64 f0 3d f4 a1 a8 bd 1f 1f 4f be
       -0.1271877 0.11737997 -0.08234015 -0.20226716
000060 cf e9 95 be f4 ef 45 3e 93 48 4b be 7e 71 65 3e
       -0.29279944 0.19329816 -0.19851904 0.22406575
000070 ba 2a 7d be 91 60 52 3e 55 ce 22 3e 32 8c 8f be
       -0.2472333 0.2054465 0.15899022 -0.28036648
000080 3e 1e 1e be 75 f6 98 3e d6 f3 52 be 68 9f 64 3e
       -0.15441224 0.29875532 -0.20600829 0.22326434
000090 79 90 16 3e 2d f5 1d be 75 03 84 be db 2b 0e be
       0.1470355 -0.15425558 -0.25783888 -0.13883917
0000a0 3c bf 47 3d 98 59 94 bd 64 2f d2 bd 99 d3 ff bd
       0.04876636 -0.07243651 -0.10262945 -0.12491531
0000b0 2f 2f 2d be 89 e4 04 3e 7f 4a e2 3d 8e ce cf 3c
       -0.1691253 0.12977804 0.11049365 0.025367048
0000c0 7d 09 50 3d c7 19 da 3c 9a 5c d3 3d cf e5 58 3e
       0.0507903 0.02662362 0.10320397 0.21181415
0000d0 78 72 2f be b6 b8 58 3e 3f 2b a8 3d 2a e6 0a 3e
       -0.1713351 0.21164212 0.082113735 0.13564363
0000e0 53 d7 7c bd f8 e3 ba 3d 69 9e 40 3e c3 81 bc 3d
       -0.061728787 0.09125513 0.18810429 0.092044376
0000f0 cf 5b 3b be 2b 4b 4b 3e 0d 8f 7a be b3 e1 08 3e
       -0.18296741 0.19852893 -0.24468632 0.13367347

action_layer.2.weight f4 [64, 64]
000000 4c 5a 22 3e ee da 0a 3c bf 6a b9 3d 5b 57 16 3e
       0.15854758 0.0084750485 0.09053563 0.14681761
000010 d3 35 0d bd dc 9e 43 bc 40 8c c5 bd b8 24 8c 3c
       -0.03447516 -0.0119397305 -0.09645891 0.017107353
000020 4f 74 6a bd 77 36 e3 3d cb 29 0b bd c3 0d 98 3e
       -0.057239827 0.11094373 -0.033975404 0.29698
000030 76 79 89 bd 9f 05 32 bc 88 a1 6d bc 2f 13 ac 3d
       -0.0671262 -0.010865598 -0.014503844 0.084020965
000040 43 b1 10 3e 73 e6 97 3d fb 5e fa 3c 6a e7 44 bd
       0.1413012 0.074170016 0.030562868 -0.048072256
000050 e6 8c 13 3e c4 97 5e 3d a5 09 13 3d c9 d5 58 be
       0.14409217 0.054343954 0.03589787 -0.21175303
000060 66 ca f0 3d 2d 31 62 be 72 53 a0 bd 17 34 4a bc
       0.117573544 -0.22089072 -0.07828416 -0.012341521
000070 c7 14 92 bd 7a 1c ee 3d b1 44 a3 3e c6 b2 84 3d
       -0.07132869 0.11626525 0.31888345 0.06479411
000080 49 2b 41 be dc 5b 43 3e 91 ec 47 3d 8a d7 8e 3e
       -0.18864168 0.1907801 0.04880959 0.27898818
000090 13 a7 71 3c b1 0f 8c 3e 31 5d 22 3e ab 64 20 be
       0.014749306 0.27355722 0.15855862 -0.15663402
0000a0 e5 24 ef 3c d3 25 c8 bd 2c 94 99 be 28 fe 87 bd
       0.029192397 -0.097728394 -0.2999586 -0.06640273
0000b0 39 a4 21 3d 18 9b 07 3e e8 08 41 3e d0 9d 11 3e
       0.039463256 0.13242757 0.18851054 0.14220357
0000c0 53 c8 23 3e 5f 07 bc 3e c8 da 94 3d 7f eb 0f be
       0.15994386 0.36724374 0.07268292 -0.14054678
0000d0 cb cf e7 3c ee 9b 27 be ce 2c 84 bc 68 da 29 3d
       0.028297326 -0.16368076 -0.016134646 0.041468054
0000e0 ea 1c a4 3d 9e 9c 6d ba 60 9b 99 bc 27 ea 8a bd
       0.080133274 -0.00090641703 -0.018750846 -0.06782942
0000f0 39 be e5 3d 2f 5e 48 bd 97 38 0e bd ca b9 a5 3d
       0.11217923 -0.048917945 -0.034721937 0.08092077
000100 05 bf 00 3e f8 45 88 3c 89 55 21 3d 80 0a 99 35
       0.12572868 0.016634926 0.039388213 1.1402444e-06
000110 7e d2 20 3d e2 23 2a 3d 0f ab 24 bc 65 5b cc 3d
       0.03926324 0.041538127 -0.010050549 0.099783696
000120 84 bd a2 bd b7 ac 30 bd 5e aa c2 39 a6 1c 06 3e
       -0.079463035 -0.043133464 0.00037129497 0.13096866
000130 25 7c d1 3d 70 63 5d 3c 44 dd c6 bd b6 33 cb bb
       0.10228757 0.013512477 -0.09710172 -0.006201233
000140 a3 ff bb bd 33 9d d4 3c f5 ff bc 3d b3 2b 80 3d
       -0.09179618 0.025953865 0.092285074 0.06258335
000150 37 c1 65 3d 29 0a c1 3d 53 95 ba bd a0 37 08 3c
       0.056092467 0.09425766 -0.091105126 0.008314043
000160 b1 cc 83 3d a3 e0 b8 3d a2 e2 07 3d fb fd c3 bd
       0.06435526 0.09027221 0.03317512 -0.09569927
000170 42 c9 d0 3c e9 62 db 3d 12 45 29 be c7 1b 2d 3d
       0.025486592 0.10712225 -0.16530254 0.04226282
000180 9f c0 b1 bb 44 c9 0b 3e f4 4a cd 3d 2e 48 d8 3d
       -0.0054245736 0.13650995 0.10024062 0.10560642
000190 39 f6 ae bd 1a 6e 54 bb d2 2d 5c bd c6 c4 95 bd
       -0.08543057 -0.0032414258 -0.053754635 -0.07312922
0001a0 00 3f ca bd 61 d7 e1 bd 1e c0 62 be d1 23 19 be
       -0.098752975 -0.110274084 -0.221436 -0.14955069
0001b0 0d 69 21 3c 33 42 2b 3d 98 2b 44 bd ab 8e 33 bd
       0.009851706 0.04181118 -0.047893137 -0.04383723
0001c0 26 99 f9 bd aa 32 93 bd cd 10 7e 3d d9 c2 0c 3d
       -0.12187414 -0.07187398 0.06202774 0.03436551
0001d0 f3 c2 9e 3d dc 5c 78 bd 7e a0 e7 3d 97 9d 53 3c
       0.07752027 -0.060635433 0.11309908 0.01291599
0001e0 7e 60 e0 3b b5 89 8d 3d 65 93 9c 3d d8 d5 ca bc
       0.0068474403 0.06911031 0.07645301 -0.024760172
0001f0 3a 43 af bc fd 22 7e 3d 6d 30 94 bd 4b fb eb bd
       -0.02139436 0.062045086 -0.07235799 -0.1152254
000200 d2 4d 29 bd 8a 22 48 be a9 9e 10 3e 10 44 55 bd
       -0.04133398 -0.19544426 0.14123024 -0.052066863
000210 38 99 5a 3e bd c7 af 3d 1e 3a ac bd 80 9d b1 ba
       0.21347511 0.08583019 -0.084095225 -0.0013550967
000220 2f e4 3e bd 01 08 d0 3d 36 39 46 3d 4e 67 fe bd
       -0.04660433 0.101577766 0.048394404 -0.124220476
000230 44 33 8b bd b2 f1 4a 3b 86 a4 0e 3e 36 33 a4 3d
       -0.067968875 0.0030966816 0.13929948 0.0801758
000240 2a 9e d6 bd 38 55 ec bd 6b 9d d3 3d b9 74 db 3c
       -0.10479386 -0.11539692 0.103327595 0.026789056
000250 3d 12 27 bd 42 a7 17 be 1b 01 1e 3c 59 40 79 bc
       -0.040788878 -0.14809898 0.009643818 -0.015213096
000260 d1 73 97 bd be e6 b9 3d 7c 0e 57 3d 8f 3e 07 3e
       -0.07395137 0.09077214 0.052504048 0.13207458
000270 d9 af 21 3c dc d6 44 be 87 2c 49 be 3d 34 a2 3d
       0.0098685855 -0.19222587 -0.19645892 0.0792012
000280 64 08 0f 3e 2b bc 25 be 65 90 2e bd 83 de 1c be
       0.13968045 -0.16185062 -0.042618174 -0.15319256
000290 26 0d 91 bd 97 81 0d be 78 e0 43 bc 08 f4 4d 3e
       -0.07082586 -0.13818966 -0.011955373 0.20112622
0002a0 1a 50 dc bd 06 32 aa bd 56 29 de 3e a5 68 ee 3c
       -0.10757466 -0.083103225 0.43390912 0.029102633
0002b0 8b 12 df bd 8f fe 85 3d 34 84 c8 bc 06 58 b0 bd
       -0.10892209 0.06542694 -0.024477102 -0.08610539
0002c0 3f fb 9f 3d 65 99 09 be 29 b4 05 be 43 1f a9 3d
       0.07811593 -0.13437422 -0.13057007 0.08257916
0002d0 72 68 eb bd 1a 57 81 bd 31 18 d9 3d 72 2a f6 bd
       -0.11494531 -0.063154414 0.10600317 -0.120198146
0002e0 5d ff 59 bd a1 d3 aa 3d 5e a0 4a 3b d2 12 32 3d
       -0.05322205 0.08341146 0.003091834 0.04347498
0002f0 00 19 c6 bc 9b ff 06 3d 54 36 2c bb d9 fb 95 bc
       -0.024181843 0.032958608 -0.00262775 -0.018308567
000300 e6 14 76 3d 72 8e d3 bc f6 dd 8c bd 31 02 31 be
       0.060078524 -0.02582476 -0.06878273 -0.17285992
000310 80 ae cc 3d bf 47 da bc f7 40 a3 3d e9 48 5d 3d
       0.09994221 -0.02664554 0.079713754 0.05402461
000320 ae 9c a2 3d 83 f3 1f 3c 31 dc d3 3c 4b 46 fa bd
       0.079400405 0.009762648 0.025861831 -0.122204386
000330 f0 6f d7 bd 3d 65 43 3c 3f 29 17 3e 59 aa fe bd
       -0.10519397 0.011925993 0.14761828 -0.12434835
000340 d6 cf 34 be 58 b7 6c bd 97 87 55 3d 03 d2 8e bd
       -0.17657408 -0.057792038 0.05213126 -0.0697365
000350 97 34 6c bd 1c a1 79 bd f0 d8 f1 3c 63 59 f3 3d
       -0.05766734 -0.06094466 0.02952239 0.118822835
000360 b5 bb 06 3e 4f 57 90 3d 07 7e 57 3e f6 0f 1f 3d
       0.13157542 0.07047903 0.2104417 0.03883358
000370 11 f0 c5 bd d3 29 11 3d 5e fd f8 bd f7 3f 3a 3e
       -0.0966493 0.035440277 -0.12157701 0.18188463
000380 9a 0b dc 3c ec 5a 90 bd 73 18 20 bd 8f a0 58 be
       0.026861 -0.07048592 -0.039085817 -0.21154998
000390 a8 32 2a 3e 2b 85 3b be 3d cb 2b bd d4 e7 31 3e
       0.16620886 -0.18312518 -0.04194187 0.17373592
0003a0 52 69 aa bc e0 e6 de 3c eb d3 3b 3c 7e 2d 61 3b
       -0.020802174 0.0272097 0.011464099 0.003435939
0003b0 c8 7b b2 bd 7c f8 2f be 28 85 ec 3c 01 67 1b 3d
       -0.08715016 -0.17184633 0.028872088 0.03794003
0003c0 30 9a 79 bc d5 69 2f be cc 25 b7 bd 9c ba 96 bc
       -0.015234515 -0.17130215 -0.08942756 -0.01839953
0003d0 28 a4 1d 3e f8 2a cb bc 33 12 f6 3d f9 b6 31 3c
       0.15394652 -0.024800763 0.1201519 0.010846847
0003e0 8d 72 b0 3b 30 60 a8 3d 76 14 bf bd 83 54 86 bd
       0.0053847493 0.08221471 -0.093300745 -0.06559088
0003f0 8a ad 8e bd 3c 83 9c bc 53 91 97 bd d1 a2 84 3c
       -0.06966694 -0.019105546 -0.07400765 0.016190918

action_layer.2.bias f4 [64]
000000 47 b2 20 3c ba f4 f5 bc cf 33 d3 3d 40 a9 79 bd
       0.00980813 -0.030023921 0.10312616 -0.060952425
000010 7a 8a e5 3c 92 5f 55 3c 21 01 4c 3d 4c c4 c0 bc
       0.028020132 0.013023274 0.049805764 -0.023531102
000020 ba 88 ac 3d 51 60 14 bd ee b7 37 bd 7b 8d 69 3d
       0.08424516 -0.036224667 -0.044853143 0.057019692
000030 1c 45 fa bd b3 b1 93 3c 0d ba 7c bd 92 41 e5 bc
       -0.12220213 0.01802907 -0.06170087 -0.027985368
000040 99 a2 88 bd a6 55 af 3c 28 cd db 3d 26 0b 11 be
       -0.06671638 0.021403145 0.1073249 -0.14164409
000050 47 20 4f 3c 10 07 93 3d 21 11 a6 bc bf 71 bb bd
       0.012641973 0.071790814 -0.02027184 -0.09152555
000060 71 ac ef bd 4c 73 8b 3d 94 fc aa bd 85 8f 9a bb
       -0.117028125 0.068091005 -0.08348957 -0.004716816
000070 03 9f ac 3d ca f1 eb 3d fe 0f e1 bc ea 6e 9f bc
       0.084287666 0.11520727 -0.027473446 -0.019462068
000080 9a ae 8f bd b9 1e 5d 3d 01 73 a3 bd fe 84 05 bd
       -0.070157245 0.053984378 -0.0798092 -0.032597534
000090 64 87 a8 3d 33 89 39 3d 6a 0f 7d bd b1 ad a5 3c
       0.08228949 0.04529686 -0.061782278 0.020224424
0000a0 8b dd 93 3d f1 7f d3 3c b9 1e f6 bc 3a 2a dc 3d
       0.0721999 0.025817843 -0.030043947 0.107502416
0000b0 7a b3 f8 bd 14 b2 b9 bd e4 24 8f bd a0 7f 66 3d
       -0.121436074 -0.09067169 -0.06989458 0.056274056
0000c0 34 02 3e bc c8 8c 14 bc 72 9f 62 bd ce c9 ad bd
       -0.011597205 -0.009066768 -0.05532784 -0.08485757
0000d0 f3 76 02 be 86 5a dc 3b 63 a8 e4 3c f5 c8 13 bc
       -0.12740688 0.0067246584 0.027912324 -0.00902008
0000e0 e2 f9 bc 3a b2 62 ff bd cd fc 83 3c 49 cb e9 3d
       0.0014417733 -0.124699965 0.016111756 0.11415727
0000f0 2c ba 0a bc 6a 8d d2 bc a8 87 0c bd a3 8b 0e 3c
       -0.008467238 -0.025702197 -0.03430906 0.008700284

action_layer.4.weight f4 [4, 64]
000000 47 1e b4 3d f8 98 01 3b 58 a8 55 bd 62 4d 02 bc
       0.087948374 0.0019775014 -0.0521625 -0.00795302
000010 4f 7d c4 3c 8d 99 ae bd 01 67 1e 3d a0 8f b0 3b
       0.023985533 -0.08525381 0.03867245 0.005388215
000020 39 02 04 be a2 c2 11 3d df 98 23 3e 82 76 49 bd
       -0.12891473 0.035586007 0.15976284 -0.049185283
000030 f2 df af 3d 83 a9 03 be 92 32 03 bc 04 0c c6 bd
       0.08587636 -0.12857632 -0.008007662 -0.096702605
000040 0b 17 55 be 11 24 9f bd df 22 91 bd 92 e1 fb bc
       -0.20809571 -0.07770551 -0.07086729 -0.030747209
000050 22 7b 62 3c 26 22 90 bc ea a3 3e bd 1d ee 44 be
       0.013823302 -0.017594408 -0.04654304 -0.19231458
000060 95 ef a1 3d 57 2c a8 bd b3 00 f0 3d 41 d0 12 be
       0.07907025 -0.08211582 0.11718883 -0.14337255
000070 83 05 80 bd d8 5b f3 bd 96 a1 78 3d e8 26 b4 3d
       -0.06251051 -0.11882752 0.060700975 0.08796483
000080 d9 24 4d bd bd 53 d8 3b 55 ca ac bd 88 ec b4 bd
       -0.05008397 0.0066017793 -0.08437029 -0.08834177
000090 63 67 df ba fb 5a d8 3d aa 45 c5 3c a5 aa 49 3d
       -0.0017044361 0.10564228 0.02408107 0.049235005
0000a0 f2 d7 1b bc 46 86 c7 3c 20 95 93 3d 16 b8 8e bd
       -0.009511935 0.024356019 0.07206178 -0.06968705
0000b0 9b 2f c3 3d 80 41 6d bc cc 7e 19 3d 67 34 e0 3d
       0.095305644 -0.014480948 0.03747444 0.10947495
0000c0 e8 8d c1 bd 30 2c f6 3c d1 a1 06 3e 7c ab 80 bd
       -0.094508946 0.030050367 0.13147666 -0.06282708
0000d0 fc 58 7e 3e 01 bc bb 3d aa b3 16 be f9 36 cd bc
       0.24838632 0.09166718 -0.14716974 -0.025050627
0000e0 50 32 9e bd 48 4a c8 3c d9 1e f6 bd df d0 27 be
       -0.0772444 0.024449483 -0.120176025 -0.16388272
0000f0 03 26 9a be 1f cb f9 3d e2 c8 24 bd ec 2a 00 be
       -0.30107126 0.121969454 -0.04023064 -0.12516373
000100 ae 12 4d 3d 73 8f 9d bc 49 91 75 3c 7d cf a3 bd
       0.050066642 -0.019233441 0.014988252 -0.079985596
000110 51 af 6f 3e 86 c1 e1 3d 02 91 e2 3d 0d 91 52 3d
       0.23406722 0.1102324 0.11062814 0.051407862
000120 43 08 dd bd 67 c7 f8 bd fd f6 ee 3d 8c 01 d6 3c
       -0.107925914 -0.12147408 0.11668203 0.026123784
000130 5b aa aa bd 27 45 3f 3c b5 42 c9 bd 22 f3 3d be
       -0.08333274 0.011674202 -0.098271765 -0.18549779
000140 7d 17 3e bc 85 6e 3b 3d b0 e6 04 3e 1e 4a 83 be
       -0.01160228 0.045759697 0.12978625 -0.25642484
000150 1f 04 66 3e ec 48 27 be e4 be 0b be 2f bf 15 bd
       0.2246251 -0.16336411 -0.13647038 -0.03655928
000160 05 4f 35 be 22 6e 77 bd 02 97 2c 3e d0 23 38 bd
       -0.17705925 -0.060407765 0.1685448 -0.04495603
000170 f5 5c 04 be 60 d1 74 3d c8 ac 0b be d4 b0 ba 3c
       -0.12926085 0.059769988 -0.1364013 0.022789396
000180 d9 ee 83 bc bf a0 00 be 06 c7 40 bd 0e 86 ce bd
       -0.016105102 -0.1256132 -0.047064804 -0.10084163
000190 f4 f2 c9 3d 75 cd 3e bd 4d 95 07 3e 64 fa cf bd
       0.09860793 -0.046582658 0.13240547 -0.1015518
0001a0 46 d3 d0 bd 01 32 d7 3d 21 76 fb bd 7c f8 fc bd
       -0.10196547 0.10507584 -0.12278391 -0.12352082
0001b0 1b 7f 8e bd e1 e0 6a 3e 68 db 9e bd b0 10 7e bd
       -0.06957837 0.22937347 -0.07756692 -0.062027633
0001c0 0c ca d5 ba c8 f7 79 3d cc 7f ff bc bd da f4 bd
       -0.0016310825 0.06102732 -0.031188868 -0.119557835
0001d0 72 3a bb bd 27 91 62 bc 13 3f 12 bd f3 11 0f 3e
       -0.09142007 -0.013828552 -0.035704684 0.13971691
0001e0 42 1d b0 bd 52 e4 13 3e f6 ef 33 be 20 a8 07 bc
       -0.085993305 0.14442566 -0.17572007 -0.00827983
0001f0 2e 90 d5 bc 8e 4c ba 3b 5c 41 bb bb 4e ce c7 39
       -0.026069727 0.0056853956 -0.0057145786 0.00038109947
000200 b0 5d 79 be 07 56 b1 bc a3 f2 32 3e 5d b6 03 3e
       -0.24352145 -0.021647466 0.17475371 0.12862535
000210 a5 b6 c3 3c b9 70 21 3e 0d 91 0b 3d 32 19 49 bd
       0.023890803 0.15765657 0.034073878 -0.049096294
000220 a5 b0 98 3d 3e cf 6b bd 4a 1f 77 be cc 06 0c bd
       0.07455567 -0.05757069 -0.2413303 -0.03418617
000230 dd 93 3b be ce ab bb 3d 51 ce a5 bd fa cd 55 3e
       -0.18318124 0.091636285 -0.08095992 0.20879355
000240 82 17 1d 3e d5 bc 87 3e 87 79 3b 3e 94 77 1b 3d
       0.15340999 0.26511255 0.18308078 0.037955835
000250 00 9a 5f 3e e3 10 db 3d 09 4c 12 3e d7 61 0e 3e
       0.2183609 0.1069658 0.14286818 0.1390451
000260 20 81 28 3e b3 4e cc bd cd 0f 31 be 42 64 79 3e
       0.16455507 -0.09975948 -0.17291184 0.24354652
000270 71 7e 56 3e 8c ce 4a 3e 8a 00 ad bd b5 b1 a3 3d
       0.20946671 0.19805354 -0.084473684 0.07992879
000280 f2 18 67 bc 3c d1 14 3e d6 40 22 3e a4 c4 e3 3d
       -0.0141050685 0.14532942 0.15845045 0.111214906
000290 3f f8 d9 3d de 8a 0a bd 2c d5 6e bd 01 71 95 bc
       0.10643052 -0.03382384 -0.058308765 -0.018242361
0002a0 90 48 39 3e ba 1f 3a be cf 15 17 3d 09 32 7d be
       0.18094087 -0.18176165 0.036886033 -0.24726118
0002b0 8b b4 0d be 40 b3 11 bd 04 79 38 3d 7b f2 97 bd
       -0.13838403 -0.035571337 0.045037284 -0.07419296
0002c0 9d 5d 14 3b 8f 49 6b 3e 6a 5b 54 be ea a0 b4 3d
       0.0022638806 0.22977279 -0.20737997 0.088197544
0002d0 7e 14 81 be 9f 99 49 3d 26 33 2f bd 69 68 58 be
       -0.25210947 0.04921877 -0.04277339 -0.2113358
0002e0 52 1d 7c 3e 47 bc 1d be 31 70 01 be 6b c0 c1 bb
       0.2462056 -0.15403853 -0.12640454 -0.0059128306
0002f0 ba 1f 91 3e ea 3d 92 be a7 20 31 3e 53 42 96 3e
       0.28344518 -0.28562862 0.17297612 0.29347476
000300 f8 6f d4 3d 81 a9 b9 39 d4 cc 6a bd 1b 27 d4 bc
       0.10372919 0.0003541224 -0.057324246 -0.025897553
000310 87 df 53 bd 86 56 99 be d4 47 1e be c2 c2 2f bd
       -0.051726844 -0.29948825 -0.15457088 -0.042910345
000320 fa 34 7e bd 77 6a 54 3d 8c f0 17 3e fb fc e4 bc
       -0.06206224 0.051859345 0.14837855 -0.027952662
000330 cc b5 a0 3c f0 b9 7c bd dc 46 3f bd 72 ed 45 bd
       0.019617938 -0.06170076 -0.046698436 -0.04832215
000340 9f 63 42 be 97 1d 86 bd dc 2c a8 bd 13 0a 99 3c
       -0.18983315 -0.065486126 -0.08211681 0.018681562
000350 f6 7f c5 be bc 22 33 3c 9f 56 83 3c 52 54 21 be
       -0.3857419 0.010933574 0.016032515 -0.15754822
000360 7f 59 ba 3d 26 62 0b be 64 6d 19 3e aa 1f ea bd
       0.09099101 -0.1361166 0.14983135 -0.11431821
000370 39 ac 76 bc 03 39 aa bd 36 a3 82 3e 00 9f 06 3d
       -0.0150557095 -0.08311655 0.25515145 0.032866478
000380 1a 40 fd bc 8c bd b1 bc 0f 33 80 3d fe 1a e2 bd
       -0.030914355 -0.021696828 0.06259739 -0.110403046
000390 e0 78 4e 3d 44 14 f6 3c d3 3a 70 3d ea 92 c6 bc
       0.050408244 0.03003896 0.05864985 -0.024239976
0003a0 c3 45 5e bd d9 b4 a6 3c a4 41 f9 bc 25 a5 13 3e
       -0.05426575 0.020349907 -0.030426808 0.14418466
0003b0 49 61 33 3c b9 e3 9f be 70 8a b0 3b 31 ed 20 3d
       0.010948488 -0.31228426 0.005387597 0.039288703
0003c0 49 3a 43 bd 3d 84 63 be e2 52 a2 3d 33 6c a5 3c
       -0.047663007 -0.22218414 0.07925965 0.020193195
0003d0 89 4f 0f 3e 70 03 0f 3d 3c 00 b3 bd 74 0f 09 bc
       0.13995184 0.034915388 -0.08740279 -0.008365501
0003e0 89 ed ca bd ef 6d d4 3c 01 ae e5 3d 16 76 d7 bd
       -0.099085875 0.025931327 0.11214829 -0.1052057
0003f0 ec eb 5e be 4d ce cb 3d 09 81 78 be 06 43 0a be
       -0.21769685 0.09951458 -0.24267973 -0.1350213

action_layer.4.bias f4 [4]
000000 22 64 f1 bb 4d 74 ac bd ed cf af 3d 60 cc be 3c
       -0.007366673 -0.0842062 0.085845806 0.023290813

value_layer.0.weight f4 [64, 8]
000000 b2 4b 42 3e f2 56 8a 3e 2f 4d c7 3d 29 c6 e0 3d
       0.18974188 0.2701946 0.097315185 0.10975296
000010 97 c9 6f be d7 1c 5e bc fa 1e a6 bd fd e4 e6 3d
       -0.23416744 -0.013556681 -0.08111377 0.11274145
000020 71 16 38 3e 96 9d d8 3e 39 ab a6 be 21 e8 95 3e
       0.1797731 0.4230773 -0.32552508 0.29278663
000030 f5 80 0b 3c 74 57 41 3e 41 7f 55 3d fc ac 9f be
       0.0085146325 0.18881017 0.052123312 -0.31186664
000040 ad fc 5b be a2 e0 78 be 23 97 9a bc fd 52 00 3e
       -0.21483107 -0.2430444 -0.018870896 0.12531658
000050 63 1c ab 3e ab 11 5b be a1 6d fe bd 7b 7d db 3d
       0.33420095 -0.21393459 -0.12423254 0.10717293
000060 3f ea 25 be dc 65 ae be 73 33 92 bd bd 4e 8a 3d
       -0.16202639 -0.34062088 -0.071387194 0.067532994
000070 81 d3 c9 3e 40 a1 94 be 76 d9 b5 bd 24 03 a0 be
       0.39419177 -0.29029274 -0.08879368 -0.31252396
000080 7d c6 52 3e fd 20 53 be b2 f0 d2 3e 13 b7 ee bd
       0.2058353 -0.20618053 0.4119926 -0.116560124
000090 9e d6 8a be 67 cb c9 3e a3 35 ee 3c 57 a5 01 3e
       -0.27116865 0.39412996 0.02907831 0.12660728
0000a0 ff dd a5 3d 2b 45 96 be 12 4b d8 bd 3e 83 18 be
       0.08098983 -0.29349646 -0.105611935 -0.14893815
0000b0 88 d9 3d bd 5c 0e 68 be de 9e 0c 3e 61 ad 9c 3d
       -0.046350032 -0.22661728 0.13732478 0.07650257
0000c0 34 c8 ad be e2 98 0a be 66 ed dd 3d bd 6e 07 be
       -0.33941805 -0.13534883 0.10836296 -0.13225837
0000d0 a0 5d a3 3e b5 7a 1c be 1f 9e bc bc 1e 0a 1f bb
       0.31907368 -0.15281184 -0.023024617 -0.0024267505
0000e0 03 3a 18 3e fa ea 25 3e b3 9d 26 be 15 07 3e 3f
       0.1486588 0.16202918 -0.16271095 0.74229556
0000f0 ee 60 7b bd 5b 4d 3a be 57 3f d6 be c2 39 51 be
       -0.061371736 -0.18193571 -0.418452 -0.20432189
000100 6b d6 41 3e 0a c3 0b bd 6e ba 42 3d d2 36 8c be
       0.1892945 -0.03412155 0.047541074 -0.27385575
000110 3c 99 9b 3d 88 af 7c be 01 3c 70 be 6d fa 02 bc
       0.075975865 -0.24676335 -0.2346039 -0.0079942765
000120 0a a3 60 be 54 27 ee be 54 6e 79 3e 8c d3 ae be
       -0.21937194 -0.4651438 0.24358493 -0.34145772
000130 be 5f 9d 3e bd 05 80 be 6e ab 32 be 87 6a 41 3e
       0.30737108 -0.25004378 -0.17448208 0.18888293
000140 be 24 60 3d cc 3d b3 be 61 4f d3 bd 56 4e f4 be
       0.05472254 -0.35008085 -0.10317875 -0.47716016
000150 39 24 0c 3e f1 50 fe bc 0e 39 2a 3e 05 23 b9 bd
       0.13685693 -0.031044455 0.16623327 -0.090398826
000160 bf 85 15 be 0a eb 78 bd a6 86 00 3e 9a 18 94 3e
       -0.14601801 -0.060771026 0.12551364 0.2892502
000170 99 d6 00 be 92 5e b4 be 89 d6 90 be 16 4f 10 3e
       -0.12581863 -0.352284 -0.28288677 0.14092669
000180 19 ef 56 be cb 80 82 3e 65 6c 9b 3d 8f 35 ed 3e
       -0.20989646 0.25488886 0.07589034 0.46329924
000190 af 1a bc 3d 9d c5 31 be 79 8c d3 be 19 86 24 be
       0.09184777 -0.1736054 -0.4131811 -0.16066779
0001a0 21 06 30 be 6f 89 98 be 45 b4 1d 3e 07 5a 3d 3d
       -0.17189838 -0.29792354 0.15400799 0.046228435
0001b0 45 b9 80 bc 81 ad 30 be 7f 87 54 bd 37 d0 4a 3d
       -0.015713343 -0.17253686 -0.05188703 0.049514975
0001c0 66 e1 91 3e 26 5d 16 3e da 95 44 be cf b1 4c 3d
       0.28492278 0.14683971 -0.19197789 0.04997426
0001d0 bd 88 13 bd 06 a6 61 3e c8 23 b7 3d 60 cd ba be
       -0.036019076 0.22035989 0.089423716 -0.36484814
0001e0 71 b7 6e bd ac b4 5f be 3f b7 a8 be 00 fd 16 3e
       -0.058280412 -0.21846265 -0.32952306 0.1474495
0001f0 31 a1 84 3e c7 23 16 3f 2c 03 2b 3d c0 ab f8 bb
       0.2590423 0.5864834 0.04175107 -0.0075888336
000200 85 8f 96 be 2a 59 91 be 4f 47 1c 3e 5e 14 1b bf
       -0.29406372 -0.2838834 0.15261577 -0.6057795
000210 a3 69 4d bc cd 74 0a 3e 6c a5 49 3e dd 74 9c 3d
       -0.012537393 0.13521118 0.1969201 0.076394774
000220 a3 cf 88 3e a1 b5 9e 3e 72 6f 0e be 20 25 10 bf
       0.26720914 0.30997947 -0.139097 -0.5630665
000230 a2 ef 25 3e f4 2a 8b bc 0b e5 b0 bd 34 67 e0 be
       0.16204694 -0.016988255 -0.086374365 -0.43828738
000240 48 29 ad bd 5e 57 9a be bc 43 ba bd 8d 10 57 3d
       -0.084551394 -0.3014478 -0.090949506 0.05250602
000250 d6 7e c6 3c 36 e6 5a 3e ea 7c dd be 0f 5c 8e 3e
       0.024230402 0.21376881 -0.43259364 0.2780461
000260 fe c6 b6 3d 7b 12 c7 3e fe 3f 2c 3d 2f 80 0e 3f
       0.089246735 0.38881287 0.042053215 0.5566434
000270 14 d6 73 be a7 9a b1 be a8 f5 30 3d a0 67 8b 3c
       -0.23812133 -0.34688303 0.043203026 0.017017186
000280 7e 3e 20 be 7c 13 90 bd 57 15 ac 3e 61 4c 85 3e
       -0.15648839 -0.07034966 0.3361003 0.26034835
000290 2a 93 7c be 17 9e d1 3d 3e 2d 05 bd 85 14 ea bd
       -0.24665514 0.10235231 -0.03251385 -0.11429695
0002a0 30 bb 27 be 5a 24 95 3e 38 35 2b bd ee 4b ea be
       -0.1638 0.29129297 -0.0417988 -0.45761055
0002b0 ad ba 94 3e 9c fa 17 be 40 e4 39 3e 4d 59 a8 3e
       0.29048672 -0.14841694 0.18153477 0.3288063
0002c0 11 c2 33 3e e3 b2 3b 3d 26 d0 40 be 3d f3 52 bb
       0.17554499 0.045824897 -0.18829402 -0.0032188438
0002d0 b1 7a a1 bb 2e 71 c8 3d 79 43 89 3e cb 0f a3 bd
       -0.004927956 0.09787212 0.2680929 -0.07961997
0002e0 11 bd 71 be 97 5d c8 bd c3 29 92 3e 51 24 c8 be
       -0.2360728 -0.09783476 0.28547487 -0.39090207
0002f0 fc 03 fa 3e 55 8f e7 be 43 fd cd 3b 15 b1 02 3e
       0.48831165 -0.4522654 0.0062862947 0.12762864
000300 66 2f 20 bc 7c c3 93 bd d1 2e 48 bd da 49 3b bf
       -0.009776926 -0.0721502 -0.048872773 -0.73159564
000310 60 0b 84 3e 2d 1c 88 3e 03 27 15 3f 77 8f 14 3e
       0.25789928 0.26583996 0.5826265 0.14507852
000320 80 f2 6d be b5 a4 c4 3e 77 8a 92 bd dd 1c 0d bf
       -0.23237038 0.38406911 -0.07155316 -0.55122167
000330 43 b6 4e 3e 15 8a 0a be fc bf 33 3e 06 73 be bc
       0.20186715 -0.13529237 0.17553705 -0.023248207
000340 46 38 74 be 87 83 d6 bc b1 ab ca 3e 65 ff 7e 3d
       -0.23849592 -0.026185764 0.39584115 0.062255282
000350 39 77 b9 3e 0d 9a 4f be 86 e6 4f bd 18 98 67 be
       0.36223772 -0.2027361 -0.050756954 -0.22616613
000360 c5 3f d5 be f2 81 87 be a2 72 b1 3e fe 48 22 bf
       -0.41650215 -0.26466328 0.3465777 -0.6339263
000370 b6 ca c0 3e 36 3f 8e 3b 9f e2 8e 3e 2f 87 ac 3e
       0.37654656 0.0043410314 0.27907273 0.33696887
000380 71 14 78 bc 30 3c 9f 3d f5 55 32 3e 6f e0 33 3f
       -0.015141592 0.07775152 0.17415603 0.70264333
000390 c2 29 37 bd 1b 40 a0 3d 85 59 e9 be 64 f6 d1 3d
       -0.044717558 0.07824727 -0.4557611 0.102520734
0003a0 10 98 01 3e ea a6 f0 3d 15 ee b0 bd ee e9 1f bf
       0.12655663 0.11750586 -0.086391605 -0.62466323
0003b0 b5 aa 52 3e 12 f4 35 3d 03 76 5b 3e a4 17 85 3d
       0.20572932 0.044422217 0.21431737 0.0649865
0003c0 71 12 5a 3e 61 d3 23 3f 78 3b 97 bd 6c 36 32 3e
       0.21296097 0.63994414 -0.0738439 0.17403573
0003d0 56 d8 87 3e fc e4 13 3e e7 d0 3c be 99 97 ce bd
       0.2653224 0.1444282 -0.18439065 -0.10087509
0003e0 64 74 4b 3e 54 e9 47 3d e1 57 f4 3d 70 9e f4 3e
       0.19868618 0.048806503 0.11930824 0.47777128
0003f0 b6 9e a8 be a5 15 bf 3d b1 65 c2 be d7 90 53 3c
       -0.32933587 0.093303 -0.3796821 0.0129129505

value_layer.0.bias f4 [64]
000000 a6 0f 08 be bc 95 dc 3a 21 e8 ef 3e bf 44 d4 3e
       -0.1328722 0.0016829292 0.46856788 0.414587
000010 28 da 89 be 2d cc 61 be 4c 9b 44 3e 4b 19 30 3e
       -0.26924253 -0.22050543 0.19199866 0.17197149
000020 e9 73 8b bd f9 01 59 3e ed f9 30 3e 6c 1e 4c 3e
       -0.068092175 0.21192159 0.17282839 0.1993348
000030 1b 42 de bd 14 5c a2 3e 66 90 dc be 4b 1c 2b be
       -0.10852452 0.31710875 -0.43078917 -0.16710012
000040 cd 4a bd be 93 67 f8 be d8 41 0e bd 12 ec 2f be
       -0.3697113 -0.4851652 -0.034730762 -0.17179897
000050 0a 87 a8 3d 8b 02 75 be 5b c9 97 b9 a1 d2 81 bd
       0.08228882 -0.23926751 -0.00028950986 -0.063390024
000060 dc 3e 8b be e6 da f8 be 9b 59 06 bf 07 02 16 be
       -0.27196395 -0.48604506 -0.5248048 -0.14649211
000070 84 4b a7 3e e1 60 a4 be 4a a7 a5 3b 52 e9 d8 bb
       0.326748 -0.32105163 0.005055343 -0.006619611
000080 5f fa 23 3e 34 3a 13 3e 12 ef e6 bd ce 0a 49 3e
       0.16013478 0.14377671 -0.11276068 0.19633028
000090 7d 2c f1 3d ae 08 0c 3f b0 3b 4f be 88 a6 a8 3e
       0.117760636 0.54700744 -0.20237613 0.32939553
0000a0 52 7b 17 3e 28 76 1f 3e 2f ae 3f bd 38 4b 5d be
       0.14793137 0.15572417 -0.046796974 -0.21610725
0000b0 7e 13 a1 3e 94 b2 e7 3d 57 44 38 bd 67 8b cc 3e
       0.31460184 0.11313358 -0.04498705 0.39950106
0000c0 43 c2 92 3e c4 15 a1 3e 65 3f a0 3d d8 05 3f bc
       0.28663835 0.31461918 0.078245915 -0.011659108
0000d0 b8 be d8 be 3d 46 15 3f 66 16 fa be 51 c1 8b be
       -0.42333007 0.583103 -0.48845214 -0.27295926
0000e0 14 32 1e 3e d5 05 d0 be 5a 18 ad 3e 5d 7a 3a be
       0.15448791 -0.4062945 0.3380764 -0.1821074
0000f0 1e ca b1 bd e5 b9 8e 3e 9c dd 60 be eb 97 1d be
       -0.08681129 0.278762 -0.21959537 -0.15389983

value_layer.2.weight f4 [64, 64]
000000 9c 49 0e be 18 f3 48 3d fd 42 2e 3e 1b 7f 6d 3c
       -0.13895267 0.049059957 0.17017742 0.014495636
000010 4f 65 f9 bd 66 60 2b 3d af 5f 56 3c b3 33 4e 3d
       -0.12177526 0.04183998 0.013084336 0.050342273
000020 45 6a 96 bd 62 1a 15 3e ca ac 9c bd 98 b2 87 3d
       -0.07344488 0.14560845 -0.076501444 0.06625861
000030 ef c6 88 3d 56 3b d6 3c 6e 64 90 bc e4 c8 61 bd
       0.066785686 0.02615134 -0.017626014 -0.055123225
000040 84 cc bc 3c e3 67 13 bc e1 25 ce bc 69 87 7d bd
       0.02304674 -0.0089969365 -0.025164546 -0.061896715
000050 b0 a9 da bc d1 ca ce bb e1 79 80 3e 4d 75 68 3d
       -0.026692241 -0.0063107987 0.25092986 0.05675249
000060 94 66 87 3d 36 55 e2 3d 3b c7 c0 3d a2 e9 b7 3d
       0.06611362 0.11051409 0.09413 0.08980109
000070 a0 b0 10 bd b0 0d 44 bd 2c 1d e0 bd 86 29 c7 3c
       -0.035324693 -0.047864616 -0.10943064 0.024311792
000080 19 d6 0f 3e 1c aa 1c bd 9c f0 bb bd 20 82 65 3d
       0.14046516 -0.038248166 -0.09176752 0.0560323
000090 80 2b c9 bd e9 a1 f1 bb a7 67 49 3d 61 a4 27 3e
       -0.0982275 -0.0073740375 0.049171116 0.163713
0000a0 0b 25 a1 3d eb 7f 17 3d a6 0a 3d 3d 01 b9 9f 3d
       0.078683935 0.036987226 0.046152733 0.077989586
0000b0 64 76 14 bb 28 fc ad 3c e8 d9 a8 3a 3e 29 9d bd
       -0.0022653574 0.021238402 0.0012882324 -0.07673882
0000c0 6b 28 89 3d 1c 28 98 3d 66 3b dd 3c e4 5d 88 3d
       0.06697162 0.07429525 0.027005862 0.06658533
0000d0 63 88 04 3e dc fa 16 be e1 7b 66 bd 8a a2 28 be
       0.12942652 -0.14744133 -0.056270484 -0.16468254
0000e0 d9 30 d1 3c 9b 03 93 bc ab cc 1d 3e a9 ea 75 bd
       0.025535988 -0.017946055 0.15410106 -0.060038242
0000f0 c2 74 53 bc 79 29 50 3e 6f 47 c6 bc d3 c6 15 3e
       -0.012906255 0.2032832 -0.024203984 0.14626627
000100 12 93 3e 3e b1 d0 b6 3d 0d 9a d5 bd 55 9d 2d bd
       0.1861079 0.089265235 -0.104297735 -0.04238637
000110 b1 87 7a bd a4 c3 02 be 1f a3 57 bd 7d 01 e5 3c
       -0.06116456 -0.12769943 -0.0526458 0.027954811
000120 cf fd dc 3c b6 ac 52 bc 3a 35 e3 bd 58 a9 0f 3e
       0.026976494 -0.01285856 -0.110941365 0.14029443
000130 ec 75 fb 3d 09 5f 87 3b 41 e4 a2 bd 6e ab 3f 3d
       0.12278351 0.004131202 -0.07953692 0.046794347
000140 9d 76 9d 3d 1d 9a 14 be 04 6a 6c 3d 16 18 c3 ba
       0.07688639 -0.14511915 0.057718292 -0.0014884498
000150 05 f6 ac 3d 31 43 a9 bd 4e 8c a2 bc 46 4b d0 bd
       0.08445362 -0.08264769 -0.019842293 -0.10170607
000160 bd ab 0b be bc bd c5 bd 51 98 2e bd 78 89 91 3c
       -0.13639732 -0.096553296 -0.04262573 0.017765746
000170 1c e8 44 bd 83 e5 6a bc 28 81 61 3d d8 4a 16 3e
       -0.04807292 -0.014336946 0.055054814 0.14676988
000180 a7 45 5b 3d dc 04 08 3d 25 87 21 bd ab ea 8e 3c
       0.053533223 0.03320776 -0.039435524 0.017445883
000190 87 f7 58 3d 81 82 9e 3b e9 4c 48 bd ea c3 bf bd
       0.052970435 0.0048373346 -0.048901472 -0.093635395
0001a0 a6 7c 95 bd 2e 28 0d 3c b2 97 e7 bc 2a b8 0d 3e
       -0.072991654 0.008615537 -0.028270576 0.13839784
0001b0 e9 d7 08 3e 63 3e b8 bd 9a da e0 3d cc d3 4c bd
       0.13363613 -0.08996274 0.10979195 -0.050006673
0001c0 0b c1 50 bd c4 07 cd 3c 6c 5b 1c be 1d e2 a3 bd
       -0.05096535 0.025028117 -0.1526925 -0.08002112
0001d0 7b 2a 6a 3d 45 89 23 3e ed f7 1a 3c 5c 04 a4 3c
       0.05716942 0.15970333 0.009458524 0.02002161
0001e0 31 c0 1b 3e 59 d3 41 3e 77 39 a6 3c a6 7b 02 be
       0.15210034 0.18928279 0.020291073 -0.1274248
0001f0 64 f6 57 3d 60 3c 7d bd b9 d6 0c bd 40 85 4e 3d
       0.05272521 -0.061825156 -0.034384463 0.050420046
000200 ff b9 08 be 9c 65 db bd ed 54 7f bd 89 f1 bb 3d
       -0.13352202 -0.1071274 -0.06233685 0.091769286
000210 2c bc 3e 3d f6 47 ab 3d 9c c3 33 3d 3e ed a9 3d
       0.046566173 0.08363335 0.04388772 0.082972035
000220 7b 93 f7 bd e2 a5 97 bb 25 aa 04 be 44 18 15 3e
       -0.120886765 -0.004627929 -0.1295553 0.14560038
000230 30 96 d7 bd e3 56 2c bd d2 25 cf 3c a4 6d d0 3d
       -0.10526693 -0.04207505 0.025286589 0.10177162
000240 a9 6a 1d bb d3 bf ac 3d 82 c5 ae 3c ba 73 97 bd
       -0.0024019873 0.08435025 0.021334413 -0.0739512
000250 d8 c5 e8 bc b5 c5 f3 bd 32 b7 c5 bc 30 de 35 3e
       -0.028414652 -0.11902944 -0.024135206 0.17760539
000260 82 b2 2b 3e 63 e5 20 3e 3f 48 20 3d 0d fc d2 bc
       0.16767314 0.15712504 0.0391314 -0.025754953
000270 1d bd 07 be 52 ca c1 3c 3c d3 8a bd d2 d6 8c bd
       -0.13255735 0.023656044 -0.06778571 -0.06876911
000280 7b 3a 9a 3d b2 4e 72 b9 9a c0 69 3d 8a 58 36 be
       0.075306855 -0.00023108235 0.057068445 -0.17807212
000290 ea 4f 62 3d 7c cb 21 bb 89 29 99 bd d5 42 64 bc
       0.055251993 -0.0024687937 -0.07478625 -0.01393195
0002a0 b0 3d 1e bd 55 a2 9c 3c 38 dc 84 3d 6c ce 90 3d
       -0.03863305 0.019120375 0.06487316 0.07070622
0002b0 78 6f 77 bd 66 38 ad 3d 4d d3 2c bc c4 32 af bc
       -0.06040904 0.08458023 -0.010548425 -0.021386512
0002c0 4e 78 d2 3d 20 27 31 bd 66 d1 68 ba 5e fc 63 bd
       0.102768525 -0.043250203 -0.00088813005 -0.055660598
0002d0 4e 2e eb bc 3f 1f 06 bd 31 7f dc 3d ad ad f9 bc
       -0.028708603 -0.032744642 0.10766447 -0.030478323
0002e0 ce c5 d0 bd 92 f6 cd bd 46 1c b0 bd 81 d7 6a bc
       -0.10193978 -0.10056795 -0.08599143 -0.014333607
0002f0 22 6b f2 bd 37 04 1f bd 24 87 8d bd 7f f7 ec 3c
       -0.1183684 -0.03882238 -0.06910542 0.02892661
000300 06 bb 44 be f3 58 32 be fb 17 5a 3e 16 d2 47 3e
       -0.19211969 -0.17416744 0.2129821 0.19513735
000310 aa c7 e9 bd b9 b2 8c bc d8 cf 4b 3e 85 35 a9 be
       -0.11415036 -0.017175065 0.19903505 -0.33048645
000320 3a 52 04 be 6f 5a 88 3e 33 e5 2d 3e 52 be 38 be
       -0.12921992 0.26631495 0.16981964 -0.18041351
000330 32 a8 0e be da 10 bc 3d 25 75 b0 bc e6 b7 86 3d
       -0.13931349 0.09182902 -0.021540234 0.065780446
000340 69 59 84 3c 4c 53 33 3d 35 42 46 3c cd 39 cc be
       0.016155915 0.04378061 0.012100746 -0.39887848
000350 59 42 6c be 2e 61 2c 3e b1 7a 6d 3d f1 6d d6 bd
       -0.23072185 0.16833946 0.057978336 -0.104701884
000360 a1 4f cd 3e 78 77 f1 3d 06 8f 7a be 8c 36 46 3e
       0.40099815 0.11790365 -0.24468622 0.19356745
000370 4b a1 82 be be 0d 26 3e e3 3f 4a be 29 01 9e be
       -0.25513682 0.1621618 -0.19750933 -0.3086026
000380 57 30 0c 3e 29 1a da bd 2c b2 ac 3d 02 4c c0 be
       0.13690315 -0.10649521 0.08432421 -0.3755799
000390 f8 04 69 3c 68 b7 3e 3e 1b 4e 45 3d 4f 79 9a bd
       0.014222376 0.18624651 0.04817019 -0.07542669
0003a0 c0 0b f2 bd e4 3e 3f 3e db b7 0b 3c 88 f2 99 3c
       -0.118186474 0.18676335 0.008527721 0.018792406
0003b0 2e 74 87 3e 61 d7 13 be 5e 38 2e be 45 a3 48 3d
       0.26455826 -0.1443763 -0.1701369 0.04898383
0003c0 ce 52 10 be 78 e0 08 3e b8 63 33 be f6 72 01 be
       -0.14094087 0.13366878 -0.17518508 -0.1264151
0003d0 19 b5 26 be 79 fc 76 3d e3 89 95 be ae ea 86 be
       -0.16280021 0.06029937 -0.29206762 -0.2635092
0003e0 fc 84 b8 be 04 bb 4f be 86 7c 6d 3e c5 f3 55 3e
       -0.3603896 -0.20286185 0.23192033 0.20893772
0003f0 4a 69 a9 3e 11 54 82 bd 50 0c e5 3d 8a 98 52 3d
       0.33088142 -0.06363691 0.11183989 0.051415004

value_layer.2.bias f4 [64]
000000 fd 48 05 be 88 36 46 3d df d9 0e bd f3 af 27 3e
       -0.13016124 0.04839185 -0.034875747 0.16375713
000010 b4 ba c5 bd d2 ba d8 bd 2a 28 9d 3c d6 11 53 3e
       -0.096547514 -0.10582508 0.01918419 0.20612273
000020 84 bd 06 3e 41 22 11 bd 57 86 3d 3d 28 1c d6 3d
       0.13158232 -0.035433058 0.046270695 0.10454589
000030 4f e2 ae 3e ee c1 4a 3d e0 39 cc bc 7b 31 32 be
       0.34157035 0.049501352 -0.02492994 -0.17401688
000040 2f 01 26 bd 02 f0 a2 3e 86 31 fc bd e1 ec 80 3d
       -0.040528473 0.31823736 -0.12314133 0.06295181
000050 45 e2 8f 3e 20 7c d0 3d 34 eb 71 3e 0b 6a 14 be
       0.28102317 0.10179925 0.23624879 -0.14493577
000060 14 c8 b2 bc b5 e9 cb bd 9d da 97 bd 58 2c 37 3e
       -0.02182392 -0.099566855 -0.07414744 0.1788801
000070 a8 dc c4 bd 9a 63 05 3e c4 35 ab 3d 81 c4 00 3e
       -0.09612399 0.13026276 0.08359864 0.1257496
000080 7e 41 ed 3d f0 57 e0 bc 39 bc 65 3d 0a 26 80 bd
       0.11584757 -0.027385682 0.056087706 -0.062572554
000090 66 7e 98 be 17 b4 58 be 48 2d 5b be 94 9c 8e 3d
       -0.29783934 -0.21162449 -0.21403992 0.06963459
0000a0 01 a8 23 3e 69 3b 12 be b7 b7 c3 3d 6e b5 ad bd
       0.15982057 -0.14280476 0.09556525 -0.084818706
0000b0 48 03 06 3c fb 6b fa bd 5d c8 69 be d9 2e 05 3e
       0.008179493 -0.12227627 -0.22830339 0.13006152
0000c0 5c 50 7f 3d 69 5c ad 3d 99 67 0f 3d 5f 63 2f bd
       0.062332496 0.084648915 0.035010908 -0.042819377
0000d0 99 51 ab bd 9e 4a 20 be 77 15 5b 3c a9 a5 2a be
       -0.08365173 -0.15653464 0.013371817 -0.16664757
0000e0 94 e4 a1 bd ef 15 7a 3d fb 26 ab 3d 1b a0 37 3d
       -0.07904926 0.061056074 0.08357044 0.044830423
0000f0 ac 79 39 3e 4c 6e 7a 3d ac ec ac bd e6 aa 81 bd
       0.1811282 0.061140344 -0.08443579 -0.063314244

value_layer.4.weight f4 [1, 64]
000000 94 f2 71 3a 12 dc 8c bb 51 d2 93 3b 0a 2d 49 3d
       0.00092295674 -0.0042986954 0.0045111557 0.04911522
000010 0a 37 e4 3c 8e 22 23 bd 81 54 2d bc a4 2a 82 bd
       0.027858276 -0.039827876 -0.010579229 -0.06355789
000020 ec 3a 1e bb ed 21 2b 3c e0 e4 d4 38 11 5b 88 bc
       -0.0024144007 0.0104451 0.00010151579 -0.016644986
000030 5e be 37 be f4 9a 9f b9 64 e5 89 3c 7a 7c ed bc
       -0.17943713 -0.00030442292 0.016833015 -0.02899002
000040 0a 6a 6c 3c 03 31 34 be e2 11 54 3b 39 1b 5e bc
       0.014429579 -0.17596821 0.0032359292 -0.013556295
000050 3b d2 20 3e c0 50 57 3a 79 0d d5 bb e7 4a 11 bc
       0.15705197 0.0008213632 -0.00650185 -0.008867956
000060 c9 62 82 3c d4 c2 b6 3a 34 1a 2a 3c d2 1f f4 bc
       0.015916245 0.0013943561 0.010382224 -0.02980033
000070 f4 3e 90 3a 77 17 c4 3c 72 88 4c 3c 26 61 d0 bd
       0.001100509 0.02393697 0.012483703 -0.101747796
000080 73 c1 b7 bb 33 90 33 ba e4 81 0c 3d 34 ff 88 bb
       -0.0056077777 -0.00068497955 0.03430356 -0.004180813
000090 b9 d8 3a 3d 89 4a 0d 3e 04 b6 aa 3c 02 fe 47 ba
       0.04561684 0.13797964 0.020838745 -0.00076290977
0000a0 0b b4 04 3d 9d aa 57 be 8a d5 69 3c ec f9 9b bb
       0.032398265 -0.21061178 0.014272103 -0.0047600176
0000b0 ee 4e 96 bc ce 31 c7 bb 47 5f cb bd 21 02 45 3b
       -0.018348183 -0.006078935 -0.09930282 0.0030061083
0000c0 e3 bb 0e 3c b3 74 2a bd a0 0d 48 bc 27 84 9c 3b
       0.008711788 -0.0416152 -0.01221028 0.004776496
0000d0 93 2d 57 ba f8 fc c4 bc 22 c3 8a bc 20 e3 a2 bc
       -0.000820839 -0.024046406 -0.01693875 -0.019883692
0000e0 86 47 af bb d3 00 d3 3b d7 b2 ad 3c fb 63 39 3c
       -0.0053491024 0.0064393072 0.021203442 0.011315341
0000f0 72 eb 9b 3a 3a 44 82 bc f2 fd 90 bb 00 14 97 3b
       0.001189573 -0.015901674 -0.004424804 0.0046105385
