Homework9/Gym-DDPG-solution/results/DDPG_Pendulum-v1_500-eps0.1-t32-l0.0001-s100.pth (torch, 174523 bytes, 12 tensors)

layers.0.weight f4 [128, 4]
000000 a6 4b fc be 5a e7 0e 3f 24 ee 17 be 09 80 47 3c
       -0.49276465 0.55821764 -0.14836937 0.012176522
000010 d8 68 74 3e 7d 80 f1 3e e3 36 86 bd 32 1d fb be
       0.2386812 0.4716834 -0.065534376 -0.49045712
000020 9f f0 8e be 68 ff 17 bf cf d6 9e be f7 f6 a6 3e
       -0.27917954 -0.59374094 -0.3102326 0.32610294
000030 89 5e a7 3e de f6 8b 3e d0 77 d8 bd 67 db c7 3e
       0.32689312 0.27336782 -0.105697274 0.39034578
000040 43 fe e6 3e 3c 52 86 3e ab 53 17 be 15 d4 22 be
       0.4511586 0.26234615 -0.1477801 -0.15901215
000050 8b e1 84 be c0 5e f2 3e 16 12 a8 bc aa 77 cf 3e
       -0.25953326 0.47337914 -0.020516437 0.40520984
000060 46 f3 3a bd d4 7c 4b 3f 90 26 c2 3d 42 0a d1 bc
       -0.04564216 0.7948735 0.094800115 -0.025517587
000070 91 0e bd be f4 b3 85 3e 74 20 a8 3c a4 f1 70 be
       -0.36925176 0.26113856 0.020523287 -0.23529679
000080 6b 35 af 3e bd ac cf be e9 ee 05 bf c3 2a 58 be
       0.34220442 -0.40561476 -0.5231767 -0.21110062
000090 b8 b8 ff 3e 24 fe 4d 3e 80 50 77 be 71 7b db 3e
       0.49945617 0.20116478 -0.24151802 0.42867616
0000a0 1b 89 2e bc 63 95 17 bf e8 c8 ae 3d e0 a2 37 be
       -0.010652806 -0.5921232 0.085344136 -0.17933226
0000b0 29 b5 28 be 8a e2 07 3e 0c fd d1 be 1c 4b 10 bc
       -0.16475357 0.13270012 -0.41013372 -0.00880697
0000c0 e7 50 07 3f a5 1b 6d 3c 9d 9e 0e bd b6 d1 65 3e
       0.5285782 0.014471923 -0.034819234 0.2244328
0000d0 2e 77 c2 bd cd 93 57 be 82 90 c0 3c 8e bc a6 3b
       -0.09495388 -0.21052475 0.023506407 0.0050883954
0000e0 11 f0 90 3d d7 cf 24 be a4 c1 b0 3e a0 35 97 3e
       0.07077039 -0.1609491 0.34522736 0.295331
0000f0 a2 48 ee bd cd fe ab 3e 0f 1c 86 3c ee ee ba 3e
       -0.11634947 0.33592835 0.016370801 0.36510414
000100 94 8e b4 3e 83 26 bb 3e c4 f4 82 3e 1d b9 59 3d
       0.35265028 0.3655282 0.25577366 0.053155053
000110 99 1f 65 be e9 60 a1 be e2 1b e8 3e 4c 0f 45 3e
       -0.22375335 -0.3151925 0.45333773 0.19244117
000120 d1 15 e1 be 1d 93 46 3e 8e 1d 2f be 08 cb f1 be
       -0.43961957 0.19392057 -0.17101118 -0.47225213
000130 5d 19 05 3f d7 0b 41 bd 6c 3a 59 3e b7 5d 54 3c
       0.51991826 -0.047130432 0.21213692 0.0129617965
000140 53 59 02 bf 40 30 1d 3f f0 e1 fa bd af 76 fe be
       -0.5091755 0.6140175 -0.122501254 -0.49699923
000150 98 ed f3 3e 36 d1 ae be 4e 27 10 be 5e 74 fe 3e
       0.47642207 -0.3414399 -0.14077494 0.49698156
000160 1c d1 82 3e 3f 64 eb be 32 06 9a 3c 06 09 4c be
       0.25550163 -0.4597492 0.018801782 -0.19925317
000170 90 39 b6 3e 1c 41 20 bf fb ee 10 be 32 1c 28 be
       0.35590792 -0.6259935 -0.14153664 -0.16417006
000180 0e e2 93 be a0 11 d7 3e 9a 33 9a be 84 b2 cc bd
       -0.28883404 0.42005634 -0.30117494 -0.09994987
000190 32 ca bf 3c 4c 47 b3 bd dd 65 08 3d 3d 17 98 bd
       0.023411844 -0.08753833 0.03330027 -0.07426307
0001a0 2b ac f1 be ec 2b 1b 3f 75 b9 f8 bd f1 d4 f3 3d
       -0.47201666 0.60613894 -0.12144748 0.1190585
0001b0 08 77 c0 3e b5 5e 73 bd 4f 5a a7 be 0b 7a d6 3d
       0.37590814 -0.05941649 -0.32686087 0.104724966
0001c0 20 d5 3c 3e 88 2e 03 3f 62 7d c9 3e e5 7a c3 3e
       0.18440676 0.51242876 0.39353472 0.381797
0001d0 cd e5 13 bd 31 76 22 3f c3 cd 79 bd 63 df 6e be
       -0.036107827 0.63461596 -0.060987245 -0.23327403
0001e0 98 d2 00 be 28 65 39 3f d7 fa b1 3d cf 88 f1 3d
       -0.12580335 0.7241998 0.08690422 0.11793672
0001f0 c8 ea 89 be fc df a2 be 2e 82 05 3c d9 63 63 3d
       -0.26936936 -0.31811512 0.008148713 0.055515144
000200 0d 15 f9 be 40 ad d7 3e 2d 97 81 be 92 dc 18 be
       -0.48648873 0.42124367 -0.2531065 -0.14927891
000210 0d 4d 90 be d8 af c6 3c a7 0b 31 be 87 e7 05 3f
       -0.28183785 0.02425377 -0.17289601 0.5230641
000220 75 55 03 3f c7 05 04 3e f8 cf f6 bd 38 49 f7 3e
       0.5130227 0.12892829 -0.12051386 0.4829805
000230 85 9e b4 3e 15 37 1d 3f 30 03 ae be 28 8e c3 3b
       0.3527719 0.61412174 -0.33986807 0.005967874
000240 c8 eb f3 bd de c0 0a be 00 f8 95 3a 41 c1 8c 3d
       -0.11910206 -0.13550135 0.0011441708 0.06872798
000250 ac ad ec 3e 75 e1 41 bf f5 d3 85 be ab 06 a6 3d
       0.4622625 -0.75734645 -0.26138273 0.081067406
000260 94 6d 70 be d5 de c1 3c a8 f3 a2 be 8d 46 f2 be
       -0.234793 0.023665825 -0.3182652 -0.4731945
000270 d1 e6 ea 3d 42 ad 73 be fb c9 00 3e 46 19 80 3e
       0.11469806 -0.23796561 0.1257705 0.25019282
000280 a7 fa 91 be 13 f6 d7 3e 94 63 0f 3e a0 be fb bd
       -0.28511545 0.42179927 0.1400283 -0.12292218
000290 a3 f8 ca be 62 7c 03 bd 91 c1 b0 3e 6a 7d b1 be
       -0.3964282 -0.032101043 0.3452268 -0.34665996
0002a0 4d 86 e7 be 5d 21 99 be a0 de b7 3e 86 7a f4 3d
       -0.4521965 -0.29908267 0.35912037 0.11937432
0002b0 08 de 9f be d9 9b 02 3f fb 37 bf be 02 b4 01 bf
       -0.31224084 0.51019055 -0.37347397 -0.50665295
0002c0 ec 75 bf be 69 2a 97 3e ed 46 7f be cb 8f 3c be
       -0.37394655 0.29524544 -0.249294 -0.18414228
0002d0 51 fa 24 be 32 9f d7 be 3d 5d d7 3e 46 5e 05 3d
       -0.16111113 -0.42113644 0.42063323 0.03256061
0002e0 5c 68 14 be c1 e2 04 3f dd 0c e2 be 34 8d 0d be
       -0.14492935 0.519085 -0.4415044 -0.13823396
0002f0 fd bb e0 3e fd 24 07 bf 63 ca 24 3e e5 a0 b1 be
       0.43893424 -0.52790815 0.1609283 -0.34693065
000300 e2 85 a6 be e1 1d d6 be 9d 1e 98 be 6c 36 27 bd
       -0.3252402 -0.4181967 -0.29710856 -0.040823385
000310 2b c3 9f be 27 74 80 be b0 1f 85 bd a9 99 46 be
       -0.3120359 -0.25088617 -0.065001845 -0.19394554
000320 70 50 2b be 1c 16 f6 3c d5 33 e0 3c be c9 12 be
       -0.16729903 0.03003984 0.027368465 -0.14334771
000330 27 94 b2 be 23 4e d4 3e f3 8a bc be ac 89 fc 3e
       -0.34878656 0.41465864 -0.3682476 0.49323785
000340 fc 2b 2b 3d f1 b2 2a be c1 72 15 bf 96 c6 ca 3d
       0.041789994 -0.16669823 -0.58378226 0.099011585
000350 4e be 08 bf 0e 05 da 3e 30 5f a1 3c c0 ad dc be
       -0.5341538 0.4258198 0.01969871 -0.4310131
000360 07 5f 03 3f 12 a4 e2 bc ef 33 7a 3d 08 ea 00 be
       0.51316875 -0.027666125 0.061084684 -0.12589276
000370 cf f8 03 3f 18 d5 b5 be 74 11 81 be 0b 1b 96 3e
       0.51551527 -0.3551414 -0.25208628 0.29317507
000380 ca b6 a2 bd 5b de 20 3e d5 d3 9b be a4 c5 83 3e
       -0.079450205 0.15709822 -0.30435053 0.25736725
000390 c0 6c ec be 6d 2f 2f 3d 1a ac 37 be 77 90 e4 be
       -0.4617672 0.042769838 -0.17936745 -0.44641468
0003a0 66 44 ab 3d a7 2b fc bd 9b 51 06 3e 32 a0 d5 be
       0.08362655 -0.123130135 0.13117068 -0.41723782
0003b0 c8 d2 be 3e 72 87 2e bf 11 2a ff bd 4b bc 86 be
       0.37270188 -0.68175423 -0.124591954 -0.2631553
0003c0 36 1e e3 be f7 9b 15 3e 9a 91 97 bd f8 36 72 3e
       -0.44358987 0.14610277 -0.07400818 0.23653781
0003d0 47 3e 25 3e 39 6c 1e 3f 51 f8 16 bd 4b 98 cc bd
       0.16137038 0.61883885 -0.036857907 -0.09989985
0003e0 02 5c 15 bf 04 6d 3d 3e e6 57 74 3e dd 6f c9 be
       -0.5834352 0.18498617 0.23861656 -0.39343157
0003f0 38 c8 f0 be 1b d4 a8 3e 0a 81 b9 3c 3b 3b bc 3e
       -0.47027755 0.32974324 0.022644538 0.3676394

layers.0.bias f4 [128]
000000 c8 1c 2f 3e a9 a3 6b be 0d 87 b4 bd 1d 59 ae 3d
       0.17100823 -0.2301165 -0.088148214 0.08513091
000010 ba ce b1 3e ab f5 08 bd 6b d9 cc 3b ba 23 00 3e
       0.34728032 -0.033437412 0.006251504 0.12513629
000020 3d 79 bb 3e 85 55 8c be a9 91 9e 3e 00 dd d3 bd
       0.36615935 -0.27408996 0.30970505 -0.10344887
000030 3b 72 bc 3d 5b 9f f9 3e ae 79 1d 3f 7e 64 bc be
       0.09201475 0.4875439 0.61513793 -0.3679542
000040 9c d2 0e 3f 88 ff 48 bc 3b 12 c4 bd 0d 71 de 3e
       0.55790114 -0.012267955 -0.0957379 0.43445626
000050 c1 a8 be 3e 0f 9b 56 be 85 01 7d be 1a da c8 bd
       0.37238124 -0.20957588 -0.24707611 -0.098072246
000060 5a bc e0 be 18 2d 81 3e 78 9e da 3e 1a b1 a3 3e
       -0.438937 0.25229716 0.42699027 0.31971055
000070 bc 66 91 be b3 ba e4 3e 73 e8 14 3d 9f ef f6 3e
       -0.28398693 0.4467369 0.036354493 0.4822969
000080 fd f2 9f be ad 42 f1 be da 8d 06 bf 23 82 5b be
       -0.31240073 -0.47121182 -0.525602 -0.21436362
000090 48 bc eb 3e 59 cd 4e be d6 c8 9f be 42 21 ad be
       0.46042085 -0.20195521 -0.31207913 -0.33814436
0000a0 31 19 bf be 5b 94 c8 bd 69 2e 0e 3f 6e 88 92 3e
       -0.37323907 -0.097939216 0.55539566 0.28619713
0000b0 a0 36 d4 be 84 f3 da 3d b3 3d ff 3d d1 ab 58 bd
       -0.41447926 0.10690978 0.1246294 -0.052898232
0000c0 6b 2c 1f bf b6 3c e5 3e c6 16 ef be a3 e8 bc bd
       -0.6217715 0.4477288 -0.46697062 -0.092240594
0000d0 d5 02 96 3e dc a5 4d be 69 88 ee 3e e4 ff 10 bf
       0.29299036 -0.20082802 0.46588448 -0.5664046
0000e0 45 ae de be 3b 84 0e bf b7 ba c7 3e 7a 1b c9 3c
       -0.43492332 -0.5567052 0.3900964 0.024549235
0000f0 a1 82 07 3f e3 46 7b be b4 7e 10 bf 34 ed b6 3e
       0.529337 -0.2453876 -0.56443334 0.35727847
000100 f4 f1 73 3e ee 70 9e be 03 30 65 bd a7 23 c7 3e
       0.23822767 -0.30945534 -0.05595399 0.38894388
000110 4d ea 0b 3d 7c 4d 19 bf 00 4d 68 3e 69 ef 16 bf
       0.034158994 -0.59883857 0.22685623 -0.5895906
000120 c2 21 78 3e 40 2f df 3e db 18 0c 3f b4 e0 bb 3e
       0.24231628 0.43590736 0.54725426 0.36694872
000130 9b 8e f2 3e 64 ee 94 be a6 b2 18 bf 53 3a b8 be
       0.47374424 -0.29088128 -0.59647596 -0.35981998
000140 a8 71 34 bc 1b 9a 15 3e 7e 70 01 3f d3 0a 78 3e
       -0.011013426 0.14609568 0.50562274 0.24222879
000150 11 57 ff 3e a9 a9 aa 3e cd d2 3d bf da f2 76 3e
       0.49871114 0.33332565 -0.7414978 0.24116078
000160 80 bc 41 3c 47 c7 e0 3c db 20 d0 be 3c 74 25 bf
       0.011824727 0.027438773 -0.40650067 -0.64630485
000170 a5 f2 96 bc 20 73 0d bf 6e 7f a8 3e d7 74 7c be
       -0.018426249 -0.5525379 0.3290972 -0.24653946
000180 57 d1 bb 3e f9 c0 59 be 6c 81 37 3e 94 e4 1d 3d
       0.3668315 -0.2126502 0.17920464 0.038548067
000190 43 2a c4 be 95 32 4f 3e ca 31 64 be 56 0e 79 3e
       -0.38313493 0.2023414 -0.22284618 0.24321875
0001a0 cb 0d 00 bf 53 b2 00 bd 5c f9 bd be 92 7f a3 3e
       -0.50021046 -0.031420063 -0.3710431 0.31933266
0001b0 e4 de 2b 3e 48 8c e1 be 3d a3 d1 3e ff 20 a7 be
       0.16784245 -0.4405234 0.40944853 -0.32642362
0001c0 51 a5 f1 3e b1 df dc be 1e e3 02 bf ea 8a e7 3d
       0.4719644 -0.43139413 -0.51127803 0.11305793
0001d0 35 d5 b9 3e 42 51 fb be f9 84 f3 be ed 99 f5 3d
       0.36295477 -0.49085432 -0.47562388 0.1199225
0001e0 d5 ab 14 bf b9 4d fa bc ac ff 8d be a1 1a ca bd
       -0.58074695 -0.03055464 -0.27734125 -0.0986836
0001f0 47 1e 8b be 4e 04 10 3f 8b 92 90 3e c9 6b 68 bd
       -0.27171537 0.5625657 0.28236803 -0.056743417

layers.1.weight f4 [128, 128]
000000 8f 91 0f 3b b3 96 4e 3d d7 18 a9 bc 9e 41 81 bd
       0.0021906828 0.050436687 -0.020641727 -0.063113436
000010 45 1d ab 3c 68 31 77 bd b9 c7 a8 ba ea e2 99 3d
       0.02088798 -0.06034985 -0.0012876905 0.075139835
000020 59 ce 43 bd 52 de 7f 3d 8e 30 f5 3d dd 92 ed bc
       -0.04780421 0.06246788 0.11972152 -0.029000694
000030 c8 77 c5 bc ff 0d 89 3d e2 a7 ea bc 96 69 c2 3d
       -0.024104968 0.06692123 -0.028644506 0.09492795
000040 78 fa e7 bd fb 6e 4e 3c ba 59 1c bd 5b 19 c0 bd
       -0.1132707 0.012599702 -0.038171507 -0.09379836
000050 6b 8f c2 3a 0a 6d 94 bd a4 f9 3a bc b6 df 20 3c
       0.0014843767 -0.0724736 -0.011412058 0.009818962
000060 97 14 7d 3d 4d 4c 1e 3d 52 04 b0 3d 80 2f 9a bc
       0.061787214 0.038646985 0.08594574 -0.018821478
000070 87 9a f6 3c 66 48 ce bd eb bb e5 3d c0 d9 2d bc
       0.030102981 -0.10072403 0.11217483 -0.010610998
000080 1e 44 47 bd 00 cf c0 3d a3 0f 56 bd 3c ef b0 3d
       -0.048648946 0.09414482 -0.052261006 0.0863938
000090 e8 5e 5e 3d 71 19 b5 3d 63 aa 88 bd 07 e6 2b 3c
       0.05428973 0.08842743 -0.06673124 0.0104918545
0000a0 8d de ae 3d 16 c7 dc 3b 0f 06 78 bd 37 99 8a bd
       0.08538542 0.0067376 -0.060552653 -0.06767505
0000b0 f1 ca 76 3b 6d 55 f1 3c 81 eb 9b bd cb 57 a3 bd
       0.0037657584 0.02945968 -0.07613278 -0.079757296
0000c0 1a 5d 44 3d ac ac 33 3d b5 64 b8 ba 0c cb 3c 3d
       0.04794035 0.043865845 -0.0014068099 0.046092078
0000d0 bc 23 86 3d b3 f1 8f 3d 0b ee 28 bd 9f ce 54 3d
       0.065497845 0.07028522 -0.04124264 0.05195486
0000e0 87 f6 20 bb 70 02 c5 3c cb 09 58 bc 5e 7d 35 3c
       -0.0024561004 0.024049014 -0.013185929 0.011077253
0000f0 55 16 fe 3c 57 62 c0 bd 22 d4 87 3d 73 74 a4 3c
       0.031016508 -0.09393757 0.06632258 0.020075059
000100 a9 25 b0 bd 96 e8 85 bc c7 8c 01 bd 7d 3e 32 bc
       -0.08600933 -0.016346257 -0.031628396 -0.010879156
000110 5f 7b 1c 3b 5d 91 b0 3c de 72 76 bc 1d 45 61 bd
       0.0023877246 0.02155369 -0.015042035 -0.054997552
000120 e9 29 60 bd f4 2c 62 bd d9 df b1 bd 0d 62 93 3d
       -0.05472747 -0.055218652 -0.08685274 0.07196436
000130 3a 41 96 3d ea 61 87 3d 78 4b 70 bc c5 a5 8b bd
       0.0733666 0.066104725 -0.014666431 -0.068187274
000140 17 21 b8 3b 37 7b 19 bd 12 7a 96 bd 1d 4d 70 3d
       0.005619179 -0.037471022 -0.07347502 0.05866729
000150 ff 91 6d 3d f2 2c 51 bc 88 24 35 3d 05 b7 02 3e
       0.05800056 -0.012767063 0.044224292 0.12765129
000160 51 39 06 bd 45 a1 65 bd a9 4a 41 3d 23 7e af 3d
       -0.032769505 -0.056062 0.047190342 0.085689805
000170 8d b5 64 3d 05 ee aa 3d 66 11 9a bc 03 ce cc 3d
       0.055837203 0.0834618 -0.018807124 0.10000231
000180 8e 17 56 bc e1 5e bb 3c b5 c5 55 3d d9 5c b4 bd
       -0.013067139 0.02287239 0.0521905 -0.08806772
000190 17 bf a0 3d 80 51 0e 3d 66 99 32 3c 65 ff 71 bc
       0.078489475 0.034745693 0.010900831 -0.014770363
0001a0 95 56 8a bd ba 8b b1 3b ca 64 b8 3c c7 b1 59 3d
       -0.067547955 0.005418268 0.022508997 0.053148057
0001b0 c6 64 a3 3d bf a8 9d 3d 7f cb 7a 3c 4c 9f f2 3d
       0.079782054 0.076982014 0.015307306 0.1184679
0001c0 4d 75 8b bd db 58 60 bd b6 e3 d6 bc af 46 13 3e
       -0.06809483 -0.05477224 -0.026231628 0.14382432
0001d0 44 ff d1 bd 04 5d 51 bc 1e 37 72 3d 22 e3 59 bd
       -0.10253766 -0.012778524 0.059134595 -0.053195126
0001e0 02 0c 53 3d d4 2c 5a bd 35 f8 62 3d 13 b3 9c 3d
       0.051525123 -0.053265408 0.05541249 0.07651343
0001f0 22 af 94 bd 1c e6 61 bd 6c 1d c2 3d 49 ef 3b bc
       -0.072599664 -0.05515109 0.09478268 -0.011470624
000200 7d 95 71 bd 35 bb c7 bd 28 83 81 bc b6 b0 cc 3d
       -0.058980454 -0.09752504 -0.01580961 0.099946424
000210 7b a7 84 3d 33 89 93 bd 17 cc 08 be 1b ca 0b be
       0.06477257 -0.07203903 -0.13359104 -0.13651316
000220 f5 6b 7d bc 2a 1c 9a bd bd d1 7f 3d fa 4f 0e 3c
       -0.0154676335 -0.07524903 0.06245588 0.00868606
000230 79 1e 08 3e 11 45 b9 3d c2 8c 5b 3c 0d c8 a1 bd
       0.13292874 0.090463765 0.0134002585 -0.07899485
000240 83 20 39 bd a7 a4 30 bd 8a 9a 06 3d ba 22 4a 3d
       -0.04519702 -0.043125775 0.032862224 0.049349524
000250 5d c5 30 3d d1 ee da 3d d2 63 f2 3d 77 07 d7 bc
       0.04315697 0.10690082 0.118354455 -0.026248677
000260 66 2a 83 bd 23 35 dc 3d c6 6c e0 bd 7c ae b0 bc
       -0.06404571 0.107523225 -0.10958247 -0.021567576
000270 b9 f0 46 bd 33 15 3d 3d 7a f9 ac bd 18 ae b6 3b
       -0.048569415 0.046162795 -0.084460214 0.005574953
000280 99 72 bf bc fb 55 f0 bc 62 71 c1 bd 8d 05 0d bd
       -0.023370074 -0.029337874 -0.09445454 -0.03442912
000290 c3 c0 26 3d 0d b8 14 bd 67 5b c3 bd 4c 42 0a bc
       0.040711176 -0.036308337 -0.09538918 -0.008438658
0002a0 19 1c 3c be bb 42 17 3d 39 18 86 3c a9 78 b0 3d
       -0.18370093 0.036928874 0.016368972 0.08616764
0002b0 2b 23 7a bd 81 02 26 3c 58 f8 86 3d 2e f9 e2 3d
       -0.061068695 0.010132433 0.065903366 0.110826835
0002c0 d9 4a 31 bd 48 9a e1 3d 47 4c d0 bd d7 d9 84 bd
       -0.04328427 0.11015755 -0.10170799 -0.06486862
0002d0 55 e2 d6 3d 0c f5 ec bd cd 59 fe 3d 97 93 7d bc
       0.10492388 -0.115701765 0.12419472 -0.015477083
0002e0 a0 8f a9 bc 13 a9 bf bd fa f3 1d bd 59 de 41 3d
       -0.020698369 -0.0935842 -0.038562752 0.047331188
0002f0 88 20 a6 3d c4 4a b2 3d 6f 3d a5 bd e9 ff 03 bd
       0.081116736 0.08705667 -0.08068358 -0.032226477
000300 60 ad b6 3c b8 76 ca 3c 4e 2e 6c bc 74 38 ed bd
       0.022299469 0.024714813 -0.014415337 -0.11583033
000310 9d b2 12 bd e4 f6 2b bd e8 d8 bb 3c 3a 34 4f 3d
       -0.03581487 -0.0419835 0.022930577 0.050586917
000320 fd 33 09 3d c3 ab ad bc 4e ed 72 3d 9e 4a 64 3d
       0.033496846 -0.021200066 0.059308343 0.055735223
000330 63 e4 ba 3d 00 32 f1 bc d1 26 83 bd 6d ae ad bd
       0.091255926 -0.029442787 -0.06403888 -0.08480535
000340 48 38 9f bd 97 bb 5f bc 55 9c fc 3d 9c 4e 7c 3d
       -0.07774407 -0.013655565 0.123345055 0.061598405
000350 2a ba 76 3c f3 71 e3 bb 0c 2a 13 be 57 82 d5 bd
       0.015059033 -0.006941074 -0.14371508 -0.10425251
000360 6d 43 78 bd 38 f4 b6 3c 72 82 e4 bd 88 7c b1 bd
       -0.060611177 0.02233325 -0.11157693 -0.086663306
000370 29 c2 84 3d ad d8 83 bc 7c 39 e6 3d 83 fb d8 3c
       0.064823456 -0.01609453 0.11241433 0.026487118
000380 93 d5 9e 3c bc 10 ce bd a5 7d 33 3d 91 cb bf bb
       0.01938895 -0.100617856 0.043820996 -0.0058531244
000390 97 dd a9 3c 91 b9 57 3d 6f be b2 bd 17 ce e3 3d
       0.020735545 0.052667204 -0.087277286 0.11123293
0003a0 6a e7 ca bc 3e b0 b8 bc 7a 3d 20 be 34 84 d4 bc
       -0.02476855 -0.022544976 -0.15648451 -0.025941946
0003b0 9f 7a 7f bd 56 ef 29 be 4c 04 ae 3d 34 5e 3a bd
       -0.0623728 -0.16595206 0.08496913 -0.045499995
0003c0 16 f5 0d 3e 0c 8b 39 bd b2 6c ec 3d e6 80 11 be
       0.13863024 -0.04529862 0.115441695 -0.14209327
0003d0 7f d1 38 3d 51 85 e4 3b 47 e4 08 be 55 f8 0e bb
       0.045121666 0.0069739004 -0.13368331 -0.0021815498
0003e0 c8 0b 0a be aa 24 45 3c ff 75 bf bd 72 5b 79 bd
       -0.13481057 0.012032667 -0.09348678 -0.060878225
0003f0 e8 c3 24 b9 65 16 8d 3d 0a e4 41 3d 2a 85 04 bd
       -0.0001571324 0.06889037 0.047336616 -0.032353558

layers.1.bias f4 [128]
000000 76 01 f9 3c 30 80 b2 3d 20 d2 aa 3c dd f2 f7 bd
       0.030396204 0.08715856 0.020852149 -0.12106869
000010 9e a8 28 bd a7 9b 81 bd 88 d9 21 3e 48 77 45 3c
       -0.04117643 -0.063285165 0.15805638 0.012052365
000020 50 c2 be bd 61 db c6 3d 2a c4 4b 3c 47 18 04 be
       -0.09314406 0.09709812 0.012436906 -0.12899886
000030 13 00 14 bc 4f e3 18 3e ce 3e d5 bd a6 b3 87 3d
       -0.009033221 0.14930461 -0.1041237 0.06626062
000040 7c 09 0b 3e 3d 79 16 bd 5a 1c 18 3d 4c 9d f3 bd
       0.13577837 -0.036736716 0.037136413 -0.118952364
000050 8b ba cb bb ae 58 0a be 50 e9 4c bd 77 a6 2a 3c
       -0.006217306 -0.13510391 -0.05002719 0.010415665
000060 62 9e 21 be f3 6c 0c be 82 a7 7d bd b0 56 47 3d
       -0.15783074 -0.13713436 -0.061927326 0.048666656
000070 c2 a2 ee 3d 65 ed f9 3d 4e c2 d1 bc 34 ca ae 3c
       0.11652137 0.122034825 -0.025605347 0.021336652
000080 ae 7e 1a 3e 80 a7 f0 bd ca 3b bc bd fa 1f 38 be
       0.15087387 -0.11750698 -0.09191091 -0.17980948
000090 5c 28 2d bd cb 08 96 3d 2c 28 45 3c 8b 21 24 be
       -0.042274818 0.07325896 0.0120335035 -0.1602842
0000a0 a4 06 f4 bd db 2a f3 bd f7 8f 6d 3c e5 7b 4d bd
       -0.11915329 -0.118734084 0.014499656 -0.050166983
0000b0 07 3a 2c be 3e b8 25 be 89 b6 d1 3d fe 25 ab 3d
       -0.1681901 -0.16183564 0.10239894 0.08356856
0000c0 7a c4 15 bd 28 8a 36 3e 98 33 87 3d 10 2d b1 bc
       -0.036564328 0.1782614 0.066016376 -0.021627933
0000d0 87 d6 cb 3d 9b 4c be 3d 6c 37 e8 3d a4 e7 0b bd
       0.09953027 0.09291955 0.11338696 -0.034156457
0000e0 50 b8 a6 bd fe 1f 70 bc 99 80 40 3d 3e 70 82 3c
       -0.081406236 -0.014656065 0.04699764 0.015922662
0000f0 50 60 63 bc 4c de ee bd 65 cf eb 3d 16 54 73 bc
       -0.013877943 -0.116634935 0.11514167 -0.014851591
000100 3f 9d 01 3d ea d2 59 3c 38 9a 89 3d e7 e0 1b 3e
       0.031644102 0.013294915 0.06718868 0.15222512
000110 30 2a 86 bc ba 12 a2 bd 8e 8c 30 3e 0e a4 74 3c
       -0.016377538 -0.07913728 0.17241117 0.014931692
000120 75 51 a6 3d 21 ca 11 3e ac c2 19 3c ca 49 53 3c
       0.081210054 0.14237262 0.009384792 0.012896011
000130 51 f8 ad 3d f2 64 0b 3e fb 81 0c 3e 73 d0 c0 3c
       0.08494628 0.13612726 0.13721459 0.023536896
000140 74 f9 cf bc 1c 50 fd 3d 88 e3 5f bd e4 4b 24 3d
       -0.025387503 0.12368795 -0.05466035 0.040111437
000150 45 bb 04 be 22 63 3a 3d aa 75 f5 3d 03 3b d0 3d
       -0.12962063 0.045504697 0.11985333 0.101675056
000160 91 70 81 3d f6 63 db 3d 48 92 83 bd 56 08 4b bb
       0.063202985 0.107124254 -0.06424385 -0.003098031
000170 94 8d 6d 3d 2b bb 47 3c e7 a8 91 3d 75 0e 1b be
       0.057996348 0.01219062 0.07112294 -0.15142234
000180 64 58 d0 bb 87 49 94 bd 06 99 97 bd f7 8c 7b bc
       -0.0063581932 -0.07240587 -0.07402234 -0.015353433
000190 01 9e 13 be 4e 08 72 bd 5b 1a b0 bc 5f bc f0 bd
       -0.14415742 -0.05908995 -0.021496942 -0.11754679
0001a0 3d ea ff 3d df 6d 98 bd fa 13 54 3d f3 7e bc 3d
       0.12495849 -0.07442831 0.051776864 0.09203901
0001b0 03 86 71 bc e3 c9 c6 bd 95 c8 97 bd 28 27 ea bd
       -0.014741424 -0.097064756 -0.07411305 -0.1143325
0001c0 3b 54 8f bd 81 55 01 bd 13 89 4e 3d 0b fc 58 bd
       -0.069984876 -0.031575684 0.050423693 -0.052974742
0001d0 a9 2b 18 be 2c cc bd 3d 0b 3f bf 3d 64 f8 24 bd
       -0.14860405 0.09267458 0.09338196 -0.040275946
0001e0 ce 16 9e bc 49 5a f8 bb b9 fd 27 bd 95 94 af 3d
       -0.019297983 -0.007579122 -0.041013453 0.08573262
0001f0 a3 c9 00 3e 95 48 2d 3e 0a 33 08 be 17 78 dc 3d
       0.12576918 0.16922219 -0.1330072 0.10765093

layers.2.weight f4 [64, 128]
000000 b4 4f 22 3d fc 87 4d bd 16 82 c6 3d f2 2f ee 3c
       0.039626792 -0.050178513 0.09692781 0.029075596
000010 23 cb 0f be 2e 2a 92 bd 34 5a 23 bd a0 a6 cc 3b
       -0.14042334 -0.071369514 -0.039880946 0.006245449
000020 81 05 e6 bc da 0b 89 3c ff 4e d9 3d 7f a2 b1 bd
       -0.028078796 0.016729284 0.106107704 -0.08673572
000030 aa 2a bc bd 1c bc 1d 3e 55 56 03 be e2 08 0d 3e
       -0.09187825 0.1540379 -0.12825902 0.1377292
000040 35 aa ab 3d d7 dc e8 3a 0e 01 25 3e e6 76 14 bd
       0.08382074 0.0017766011 0.16113684 -0.036246203
000050 3c 53 90 ba be 65 9a bd 53 34 7f 3d f3 f8 e5 3d
       -0.0011011134 -0.07538937 0.06230576 0.11229124
000060 7e f5 91 bd 61 b0 18 3d 1b f8 4e 3c 39 3f 36 bd
       -0.07126902 0.037277583 0.012632395 -0.044493888
000070 7b c4 a4 3c 0b c2 90 3d 2d b9 be 3c b5 71 e1 3d
       0.02011322 0.07068261 0.023281658 0.11008016
000080 d6 fb 7f 3d 86 b2 08 be 05 a4 d3 bd 2c 31 de bd
       0.06249603 -0.13349351 -0.103340186 -0.108492225
000090 40 d0 b8 bd b8 c3 df 3d d5 74 21 bd 2b 50 73 bd
       -0.090240955 0.10926002 -0.03941806 -0.059402626
0000a0 89 19 e7 bd 9b 54 1e bd 80 f7 85 bd 7c bc c2 3d
       -0.11284167 -0.038654905 -0.065413475 0.09508607
0000b0 b7 6a 96 bd 11 22 22 bd 87 88 ca 3d 4e c0 b4 3d
       -0.07344573 -0.03958327 0.09889322 0.08825742
0000c0 00 b2 2a be 2c 2c 87 3d 55 6c 04 be f1 a2 72 bd
       -0.16669464 0.06600222 -0.1293195 -0.059237424
0000d0 08 16 f8 3d 8f 72 10 3d 7b 2e 47 3e b5 34 94 bd
       0.12113577 0.0352655 0.19451325 -0.072366156
0000e0 02 a7 3b be 5c 0f 26 be fc 76 fc 3d 25 6b 11 be
       -0.18325427 -0.16216797 0.12327382 -0.14201029
0000f0 98 1b bb bb ac c8 76 bd 6b aa 7d 3d 99 27 84 bd
       -0.0057100765 -0.06024997 0.0619301 -0.06452865
000100 6f c0 fe 3d de 15 bd 3c 6d 2c 59 bd d8 b9 fd 3b
       0.124390475 0.023081716 -0.053020883 0.0077431016
000110 57 0e c7 3c 65 77 6e bd 5f 50 fe 3c a2 8a c5 3d
       0.02429883 -0.058219332 0.031044183 0.09645583
000120 02 26 1f bd dc 1d df bc b1 ea af 3d 27 20 b0 3d
       -0.038854606 -0.027235918 0.08589686 0.085998826
000130 ab 9c 8b 3c b5 79 f0 3b e5 2d 38 3e 90 e1 09 be
       0.017042479 0.0073387274 0.17986257 -0.13464952
000140 4a 62 f8 bc dd 7b c2 3d db 91 d1 3c d8 5b 1b 3c
       -0.030320305 0.09496281 0.025582245 0.0094823465
000150 15 8a 0a be 1c 20 4e 3c be fe 37 3c 99 85 eb 3d
       -0.13529237 0.012580898 0.011230169 0.11500091
000160 b3 f2 01 bc b4 40 84 3d 27 97 8a bc fc 74 b9 bd
       -0.007931399 0.06457654 -0.016917778 -0.09055516
000170 8d ee 09 3e 28 13 66 3c bc 36 9f bd 24 e4 08 bd
       0.13469906 0.014042653 -0.07774112 -0.033420697
000180 69 a4 ba bd ef 8b 48 bd 67 e6 09 be 3c 56 d3 3b
       -0.0911339 -0.048961576 -0.13466798 0.006449489
000190 bf 2c 55 ba 7c cd 10 be 83 20 b8 bd be 9d 1a be
       -0.0008131973 -0.14140886 -0.08990576 -0.15099236
0001a0 f5 8f b0 3d 8c 65 fe 3b ad 41 08 bd 0f 4d a7 3d
       0.086212076 0.00776357 -0.03326576 0.08168995
0001b0 bf 2b 40 be ab b0 89 bb f8 d3 9d bd e3 ce c7 bd
       -0.18766688 -0.0042019687 -0.077064455 -0.097562574
0001c0 f6 90 5d bd 22 51 8a bd eb e8 a4 3d 81 7b 34 3c
       -0.054093324 -0.06753756 0.08052238 0.011015774
0001d0 45 c6 19 3c 1b 85 18 3e a0 cf 0b be 7f 78 76 bd
       0.00938565 0.14894526 -0.13653421 -0.060173508
0001e0 7e 81 8e bb cb c7 84 3d 63 e0 c7 bd 0d e9 b3 3d
       -0.0043489328 0.0648342 -0.09759595 0.08784685
0001f0 77 aa 4b 3c 0a 0f 9d ba 28 4d 17 3d d2 0a 03 3e
       0.012430779 -0.0011982631 0.036938816 0.12797096
000200 82 d4 8f bd de 68 11 3d 5b b0 a5 bd b7 b7 a0 3d
       -0.070229545 0.0355004 -0.08090278 0.07847541
000210 f4 7f ca 3d 99 79 e0 3d 5b 8d ed bd d5 1f ba 3d
       0.09887686 0.10960693 -0.11599227 0.09088103
000220 9c fd a5 3d 27 8d f5 ba 45 5c da bd 4c 4a 2d 3d
       0.08105013 -0.0018734083 -0.1066213 0.042307183
000230 76 5d 32 bc bb c7 88 3c 71 fd b5 3c 92 35 f1 bc
       -0.010886541 0.016696801 0.022215577 -0.02944449
000240 16 bf cd bd 61 e4 33 3e 28 45 87 bc 77 79 fa bb
       -0.100462124 0.17567588 -0.016512468 -0.0076438743
000250 8d 00 44 3c 6d 05 50 3d 49 2f 3a 3d 32 e5 18 3c
       0.011963022 0.050786424 0.04545525 0.009331988
000260 5d cb ef 3c 0f 70 96 3c 77 f6 6b 3d a0 37 f9 bc
       0.029271776 0.01836398 0.057608094 -0.030422032
000270 0a 2c bf bd 83 40 9d bd 63 d6 e0 3d 15 ec 62 3d
       -0.09334572 -0.0767832 0.10978391 0.055400927
000280 2e cf bf bd 66 24 91 3d be 87 82 3d 92 6f c6 3d
       -0.09365688 0.070870206 0.06373547 0.09689249
000290 20 62 f5 3d c0 eb e6 3c 66 12 a9 bd 7f 61 02 3d
       0.119816065 0.028188586 -0.08255462 0.03183126
0002a0 30 b0 17 3e 57 85 3c 3e b6 5b c1 bb bc b4 dc bd
       0.14813304 0.1841024 -0.0059008254 -0.1077666
0002b0 6d bb fa 3d 69 1e 96 3c 40 1c 35 3d 09 ca fd bd
       0.1224278 0.018325048 0.044216394 -0.12392051
0002c0 23 53 87 3d ed a0 8a bd 38 80 d8 3d 97 d9 70 bd
       0.06607654 -0.067689754 0.10571331 -0.05880126
0002d0 fd 25 a4 bd af e7 d6 bc 0c bd a7 bd 7f ff 4d 3d
       -0.08015058 -0.026233522 -0.08190355 0.05029249
0002e0 cb 87 6a 3d 71 18 8a 3d d4 c3 98 bd be 21 f7 3d
       0.05725841 0.06742943 -0.07459226 0.12066983
0002f0 15 fd 9b 3d e9 1f 15 3d 5c 14 f7 bd 2b aa bd bc
       0.07616631 0.036407385 -0.1206443 -0.023152431
000300 d3 2a 63 bd 6d 7a 98 3d 54 fb b9 bd 4e 33 da bd
       -0.055460762 0.07445226 -0.0908114 -0.10654317
000310 c5 55 6b 3d 4b 27 25 bb b9 c1 ea bd 69 15 e5 bd
       0.057454843 -0.0025200422 -0.11462731 -0.11185724
000320 89 aa 9d 3d 1a 34 4d bd e4 d1 3f 3d d1 6e b5 bd
       0.076985426 -0.050098516 0.046831027 -0.08859027
000330 52 50 da b9 60 71 73 bd 58 9c b5 bd 56 9d 1f 3e
       -0.00041640043 -0.059434295 -0.08867711 0.15587363
000340 2d 36 6f 3d f3 2e 5a bd 7b 1f da 3c 17 bf f5 bd
       0.058401275 -0.05326743 0.02662634 -0.11999338
000350 72 d7 d6 3d 29 64 d4 bd f9 d6 f4 bd de 6d b1 bc
       0.10490312 -0.103706665 -0.11955065 -0.021658834
000360 f0 76 1a be a1 5c fd bd ee f0 2c bd bf 60 5a bc
       -0.15084434 -0.12371183 -0.042221956 -0.01332873
000370 d4 a4 41 bd c7 00 53 bb ad af 4f bd ad 69 e5 3d
       -0.047276333 -0.0032196508 -0.050704647 0.11201797
000380 91 d0 63 bb f6 e9 0e ba 04 b0 3d 3c ce 94 97 3c
       -0.0034761766 -0.0005451733 0.01157761 0.018503573
000390 ba 59 f8 3d 39 5a 5c 3a 49 2b 12 3e 08 5a 97 3d
       0.12126489 0.0008405778 0.14274324 0.07390219
0003a0 10 cb fc bd a3 ee b6 bd 88 da 52 bd ec 8b 53 bd
       -0.123434186 -0.08932235 -0.05147794 -0.05164711
0003b0 dc eb e9 3d b9 6e e0 3d 29 92 90 3c e1 76 a2 3d
       0.1142194 0.10958619 0.01764782 0.079328306
0003c0 80 3c 6a 3d af 30 cf 3d cd 85 0c bc 1c 6f a7 3d
       0.057186604 0.101167075 -0.0085768225 0.08175489
0003d0 53 74 de 3d 0c 3f d7 3b 9d 82 28 3c 10 b3 7c 3d
       0.10862031 0.006568795 0.010285047 0.061694205
0003e0 b8 6f 76 3d 3f 30 91 3d 9b 41 85 bd 7b 20 c5 bd
       0.060165137 0.0708928 -0.06506654 -0.09625336
0003f0 f8 8f d9 bd 1e 2f 5a bd 39 16 a0 3d 5b ee 02 bd
       -0.10623163 -0.05326759 0.07816739 -0.031965595

layers.2.bias f4 [64]
000000 4d 39 b7 3d 37 42 42 bc 98 0e 36 3c 93 56 92 3c
       0.08946476 -0.011856607 0.011111878 0.017863547
000010 03 28 86 bc 2c b2 8b bc f0 8d 96 3d 70 e5 a4 bd
       -0.016376501 -0.017052732 0.07351291 -0.08051574
000020 cc 02 54 ba f4 02 d8 3d 48 c4 2a bc 58 8d 51 3d
       -0.0008087575 0.10547438 -0.010422774 0.051160187
000030 5d 25 6a 3d d9 1c f3 3d 6b 42 49 3d 33 c8 28 3d
       0.05716454 0.11870737 0.049135607 0.04120655
000040 c1 a9 58 bc 06 41 81 bc fe 91 88 3c 62 6f 13 bb
       -0.013224066 -0.015778076 0.016671177 -0.002249681
000050 a3 83 ab bd 9d 77 81 3c 0d 50 7b 3b 17 dd fa 3a
       -0.08374717 0.015804106 0.0038347275 0.0019139376
000060 60 4b 5a bb ad e6 13 be 22 dd 7c bd d2 28 82 bc
       -0.0033309087 -0.14443465 -0.061734326 -0.015888605
000070 d5 3b 28 3e f4 f2 c7 3d 3c f5 c6 bd a9 4e c9 bd
       0.16429074 0.097631365 -0.097147435 -0.09829456
000080 ee 6b 3c 3e f8 ab 6d bd 3b 28 44 bb c8 46 60 3c
       0.18400547 -0.05802533 -0.0029931206 0.013688751
000090 e1 10 41 bd 51 22 a8 3d 90 97 07 be 02 08 09 be
       -0.047135238 0.0820967 -0.1324141 -0.13381961
0000a0 f5 e7 53 bc 57 65 1c bd 58 eb 6c 3d 8b c1 a8 bb
       -0.012933721 -0.038182583 0.05784163 -0.0051500252
0000b0 04 c8 55 bc 1c 7d b2 bd 0a 43 ab bd 33 8b e2 bb
       -0.013048176 -0.08715269 -0.08362396 -0.0069135665
0000c0 cd b1 3c 3d 71 62 da 3d 14 db dc bc 2f 32 d6 3d
       0.046068 0.106633075 -0.026959933 0.104587905
0000d0 0e cf 9c bc e3 11 a1 3d eb 50 8b bd 20 bc 7b bd
       -0.0191417 0.0786474 -0.06802543 -0.061458707
0000e0 16 d6 e0 bb 20 1a 75 3d 2c f5 c9 3d ef 90 e7 3a
       -0.0068614585 0.059839368 0.09861216 0.0017667095
0000f0 37 f8 ce bd 41 c5 e2 bd 53 f9 b3 3d f1 35 b4 3d
       -0.10105937 -0.110727794 0.08787789 0.08799351

readout.weight f4 [1, 64]
000000 e7 6a 6c bf 40 8a 5f 3f 4f a7 61 bf 6d 40 5a bf
       -0.9235062 0.8732033 -0.8814592 -0.85254556
000010 12 7c 6f bf 20 24 5c 3f 4d 91 5d bf 20 54 61 3f
       -0.9354869 0.8599262 -0.86549836 0.8801899
000020 2a 38 60 bf 13 7e 64 bf 98 58 5f 3f 98 01 66 bf
       -0.875857 -0.89254874 0.8724456 -0.8984618
000030 23 d1 63 bf 5a 50 60 bf 09 21 64 bf d5 cb 70 bf
       -0.8899099 -0.87622607 -0.8911291 -0.94061023
000040 38 7b 5e bf cd 64 6a bf 40 1a 65 3f 36 be 4c bf
       -0.86906767 -0.9156006 0.8949318 -0.7997774
000050 15 8e 53 bf b4 d6 52 bf 34 57 67 bf ce 46 6a 3f
       -0.82638675 -0.8235886 -0.90367436 0.9151429
000060 d5 de 57 3f 6e c5 5c 3f 71 df 65 3f 0e 47 6f bf
       0.8432439 0.86238754 0.8979407 -0.93467796
000070 6d 58 49 bf 60 3a 5a bf 64 51 60 3f 70 ae 65 3f
       -0.7865055 -0.85245323 0.8762419 0.89719296
000080 5d 2e 4b bf ec a6 62 3f dd ff 7a 3f c6 23 74 bf
       -0.7936762 0.8853595 0.98046666 -0.95367086
000090 1e c7 6b 3f 8b f9 69 bf a5 36 54 3f d2 6e 64 3f
       0.92100704 -0.913964 0.8289588 0.892316
0000a0 21 4a 59 3f 46 83 67 3f 73 88 72 bf 37 48 55 bf
       0.84878737 0.9043468 -0.94739455 -0.83313316
0000b0 1f de 59 bf b7 24 54 3f b6 c8 4e 3f 90 0f 55 3f
       -0.85104555 0.8286852 0.8077501 0.8322687
0000c0 8c 28 5a 3f a4 b5 61 bf 1c 2b 64 3f 64 d3 64 bf
       0.8521812 -0.88167787 0.8912828 -0.89385056
0000d0 c0 18 4e 3f e5 9f 65 bf 46 c4 71 3f a2 13 69 3f
       0.80506516 -0.89697105 0.94440114 0.9104558
0000e0 b9 87 5b 3f 3c 2c 74 bf a3 27 70 bf ee c0 6e 3f
       0.8575397 -0.95379996 -0.9381048 0.9326314
0000f0 1f f7 70 3f ee 96 5e bf 59 9c 60 bf 91 74 67 bf
       0.94127077 -0.8694905 -0.8773857 -0.9041224

layers.0.weight f4 [128, 3]
000000 57 4b 02 be 83 a9 ca 3d 6a 56 42 be 7e 27 3f 3e
       -0.12724052 0.09895613 -0.18978277 0.18667409
000010 fb aa 0c bf 88 8b 33 be 4a 70 fb be ea b6 cd 3e
       -0.54948395 -0.17533696 -0.49109107 0.40178615
000020 0e 42 54 3e 1a 26 07 3f 95 cc c6 3e ea ed 1c bf
       0.20728323 0.52792513 0.3882796 -0.6130053
000030 15 c1 26 3e 4f 29 58 bf b4 13 91 be 3b 11 99 be
       0.16284592 -0.8443803 -0.28335345 -0.29895958
000040 bb e0 ce 3d 8d 25 d9 3e 13 66 72 be d8 92 2f bf
       0.10101458 0.4241146 -0.2367175 -0.6858344
000050 38 2f 46 be 46 00 0a be 2d fe e5 be a6 67 f1 3d
       -0.1935395 -0.13476667 -0.44920483 0.117873475
000060 d2 8e 7c be 99 e5 27 3f 1f 4d da bd 63 f4 57 3e
       -0.24663857 0.65584713 -0.10659241 0.2108932
000070 a8 c2 f6 be 97 a4 f3 3e b1 9d bf 3d 5b c6 c8 3e
       -0.48195386 0.4758651 0.09356249 0.39213833
000080 99 99 18 3e 77 66 1f 3f c9 13 b6 3e d9 a3 ab be
       0.14902343 0.62265724 0.3556197 -0.33523443
000090 49 a4 1a 3f f8 d9 99 be b7 3e e7 3d 31 80 05 3f
       0.6040693 -0.3004911 0.11291259 0.5214873
0000a0 13 a2 35 bf ce 81 e2 be f2 c1 b9 be a5 6e 11 3f
       -0.7095043 -0.44239658 -0.3628078 0.56809455
0000b0 15 d4 87 be 7d cc 2e 3f 79 e0 20 bf ee 89 8f 3e
       -0.26528993 0.68280774 -0.6284252 0.2803492
0000c0 ca 69 36 3f 56 b2 92 3e 90 d2 ab 3e 44 ca 5e 3e
       0.7125517 0.28651685 0.33559084 0.21756846
0000d0 a7 5c 5a 3c 16 0b c9 3e df 27 27 be 77 20 5f 3e
       0.013327754 0.3926627 -0.16323803 0.21789728
0000e0 c1 2d ec 3e e9 e0 80 3c fc 2b 5e bf 28 20 80 be
       0.46128657 0.015732246 -0.86785865 -0.25024533
0000f0 47 bd 4d 3f 02 2f f3 be 31 22 c4 3e 29 36 44 bd
       0.8036694 -0.47496802 0.38307336 -0.047903214
000100 29 08 40 bd f3 1a 82 bd 96 c5 08 bf 73 e4 31 3f
       -0.046882782 -0.063527964 -0.5342649 0.6948921
000110 e3 de 5c be b5 21 bb 3e 3e 11 25 be 92 8e 8f be
       -0.215694 0.36549154 -0.16119859 -0.2803846
000120 d1 ba de 3e e7 0a 36 3f 3a ba b3 be 04 7a 06 bf
       0.43501905 0.71110386 -0.35103017 -0.5252993
000130 c1 11 5e 3f af 66 d4 be 24 e4 b5 bd 0e 56 c3 be
       0.8674584 -0.4148459 -0.08881405 -0.38151592
000140 85 e2 ef 3e ae 63 f7 be 7b d4 fe 3d 15 64 c7 3d
       0.46852508 -0.48318237 0.12442871 0.09735886
000150 60 0d 61 3e 95 46 54 bf 4e 29 b1 3c fb b8 52 3e
       0.21977758 -0.829202 0.02162614 0.20578377
000160 e4 29 22 bf b8 b9 63 bd 38 f3 e2 be fa 25 1d bf
       -0.6334517 -0.055597037 -0.44326186 -0.6138607
000170 8a db b5 bd f0 35 09 3f 45 76 96 3e 0c 28 0d bf
       -0.088797644 0.5359793 0.29387107 -0.5513923
000180 f6 3d fa 3e 9f bd 1c 3f 22 db a6 3e fe 9c a3 3d
       0.48875397 0.6122684 0.3258906 0.07988928
000190 b4 45 e7 be ff 76 a6 3e 12 5d cc bb 5d 1f 5d 3e
       -0.45170367 0.32512662 -0.006236681 0.21593995
0001a0 ff 1d 98 be af 52 16 bf e2 40 e9 be b5 76 01 bf
       -0.29710385 -0.58719915 -0.45557314 -0.5057176
0001b0 1d 34 f7 be 82 65 a2 3e f4 3a 20 3e 8e 12 93 be
       -0.48281947 0.3171807 0.15647489 -0.28725094
0001c0 bb e4 2c be a1 8e bc 3e 8c c9 b5 be f0 c9 b8 3e
       -0.16884129 0.36827567 -0.3550533 0.36091566
0001d0 51 96 38 3e 9f e5 4f be 8c fd 24 bf 8f 90 b5 3e
       0.18026091 -0.20302437 -0.6444938 0.35461852
0001e0 00 b7 35 3f 55 9e 30 be 26 12 d5 3e d1 66 05 3f
       0.7098236 -0.17247899 0.4161541 0.5211001
0001f0 91 6b 1e bf aa ee 8b be dd 81 2a be fd 83 19 be
       -0.61882883 -0.27330524 -0.16651101 -0.14991756
000200 c3 b1 15 bf a4 33 d9 3e 79 dd e4 bd 92 5f bb 3e
       -0.5847437 0.4242221 -0.11175055 0.36596352
000210 b8 b1 ce be 15 ef 34 bf 41 bd b7 3d f9 f3 8c 3e
       -0.40369964 -0.7067731 0.08971644 0.27529886
000220 e1 40 1e 3f d2 e1 85 3e a1 7e 97 3e 43 5c 65 3e
       0.6181775 0.2614885 0.29588798 0.22398476
000230 9f 06 78 3e e7 6d f6 3e db c9 f5 bd 90 99 e6 3e
       0.24221276 0.48130724 -0.120013915 0.45039034
000240 4e 8e 6c bd 3c cc a2 be 5f d9 cc be ff 03 1a be
       -0.0577529 -0.31796443 -0.4000959 -0.15040587
000250 82 24 07 be 49 4b fa 3e a0 ba 8c be fb f0 3a 3e
       -0.1319752 0.48885563 -0.27486134 0.18255989
000260 ed 58 ff bd ca e6 b7 3e 09 5a 22 3f 71 a7 9e be
       -0.12468133 0.35918266 0.6341863 -0.30987123
000270 d6 58 91 bb 2e 94 dc be 17 69 19 bf 26 33 09 bf
       -0.004435639 -0.43081802 -0.5992598 -0.5359367
000280 16 9d 19 bf 2f 4e f1 be 09 b6 0e bf a8 d4 03 bd
       -0.6000532 -0.47129962 -0.55746514 -0.032185227
000290 b0 77 37 be a7 0b f1 3e 8c 9e 20 3e 5a 22 97 3e
       -0.17916751 0.47079203 0.15685481 0.29518396
0002a0 e2 bc c9 be d3 43 3c bf d8 b8 0b 3e ab a9 89 3e
       -0.3940192 -0.7354099 0.13644731 0.2688726
0002b0 93 b5 05 bf f2 3f f0 be 18 4e 14 bf f8 b8 37 3f
       -0.52230185 -0.46923786 -0.5793166 0.71766615
0002c0 c3 bb c9 bd 32 aa 55 3e 56 5b 4d 3f b4 9b 80 bd
       -0.09850266 0.20865706 0.8021749 -0.06279698
0002d0 d5 4f c7 3e 6e 4e b4 bd 33 12 10 3e 65 b3 9c bd
       0.38928095 -0.08804022 0.14069442 -0.07651404
0002e0 1f 75 e4 be 91 42 09 3f f4 58 14 3f 17 d3 25 3e
       -0.44620606 0.536172 0.5794823 0.16193806
0002f0 5f e2 75 3e ec b0 0f 3f 1d 40 21 bf 1c 63 d5 be
       0.24012135 0.56129336 -0.62988454 -0.41677177
000300 41 ce 11 bf a4 81 10 3d d0 53 e9 bd 15 26 01 3d
       -0.56955343 0.035279885 -0.11392939 0.03153046
000310 d3 b9 36 3e 99 07 97 3e ec 69 22 3f 78 51 e3 3e
       0.17844324 0.29497984 0.63442874 0.44398093
000320 09 91 07 3f ed 14 ba be d7 9c 3c 3f 47 18 22 be
       0.5295568 -0.3634409 0.7367682 -0.15829574
000330 35 45 3d bc 26 79 b7 3d d7 4a ee 3d 57 94 28 3f
       -0.011552145 0.08958654 0.11635368 0.6585135
000340 a2 26 a0 bd fa e6 96 3d ec 7d d9 bc f8 bc 24 3f
       -0.078198686 0.07368274 -0.026549302 0.64350843
000350 a6 9e c6 be 7d 83 e2 be ec dc 32 bf 17 2e 8e 3e
       -0.38792914 -0.44240943 -0.6986835 0.2776954
000360 f3 e5 12 3f 08 c8 42 3e b2 6a fe bc 75 d9 d9 3e
       0.57382125 0.19021618 -0.031056736 0.4254872
000370 cc 0a d9 3d aa 07 fd be 01 8b e0 be d2 e8 36 bf
       0.105977625 -0.4941991 -0.43856052 -0.71449006
000380 b6 c4 28 be 74 16 03 3e 6f 78 1a bf a9 73 9f be
       -0.1648129 0.12801534 -0.6034002 -0.3114293
000390 78 44 f6 be 66 9d ce bd f4 d5 d4 be 15 37 a9 3e
       -0.48099113 -0.10088615 -0.41569483 0.33049837
0003a0 52 ca 34 3e d9 9a e5 be aa b7 cc be 21 61 29 be
       0.17655304 -0.44844702 -0.39983875 -0.16540958
0003b0 30 db f3 3c f6 21 2f 3d 02 b2 0a bf 4b e1 ec be
       0.029767603 0.042756997 -0.5417787 -0.46265635
0003c0 eb 4a 18 3f 4d 41 cf 3e 57 db 98 3e 6a 77 6b be
       0.59489316 0.40479508 0.29854843 -0.22994772
0003d0 25 d8 4d bf 68 bb 40 bb 3e 5a 13 3f ee 66 75 bd
       -0.80407935 -0.0029408578 0.57559574 -0.059912615
0003e0 c7 46 bb 3e 2d aa 74 be 20 d5 cc be 14 b7 ce be
       0.36577436 -0.23893042 -0.4000635 -0.40374053
0003f0 a7 9b c0 be ae be 10 bf 05 65 11 3e 03 1d d1 be
       -0.37618753 -0.56540954 0.14198692 -0.40842447

layers.0.bias f4 [128]
000000 16 3d d8 be 4c 83 f8 be 27 77 a8 be eb 8c e6 be
       -0.42234105 -0.48537672 -0.32903406 -0.45029387
000010 e7 c1 09 3f 3a 46 53 be 9f 16 d0 3e f7 42 36 3d
       0.53811496 -0.20632258 0.4064226 0.044497456
000020 a8 65 b2 3d af 03 1b 3e 61 61 1c 3e a6 33 d6 3e
       0.08710796 0.15138124 0.15271522 0.4183628
000030 4c dd 74 3e 6e d2 11 3f 04 65 23 3e cb 26 a6 bc
       0.23912543 0.56961715 0.15956503 -0.02028217
000040 1a b4 24 be e0 ec 94 bd 6f a0 f2 be b0 6d bd 3e
       -0.16084328 -0.07271743 -0.47388026 0.36997747
000050 29 3d 01 be 2e b3 a1 3e 46 ea 4f 3e e2 51 9e bd
       -0.12620987 0.31582016 0.20304212 -0.07730462
000060 24 92 17 3f 73 a3 de 3e 4b f3 5c 3e 07 36 9d be
       0.5920737 0.43484077 0.21577184 -0.30705282
000070 d8 66 eb 3e 6f 92 09 3f 31 ce b4 3e 5e ba ef bb
       0.459769 0.53739065 0.35313562 -0.007315918
000080 4c 15 b8 be 42 aa 00 bb cd 91 95 be ad b2 ac 3e
       -0.35953748 -0.0019632732 -0.292128 0.3373007
000090 77 12 89 be 6c 05 09 bf 0c 25 80 be 96 f2 55 be
       -0.267719 -0.535239 -0.25028265 -0.2089332
0000a0 e4 a9 07 bf e4 23 40 be ea c5 6a be 9b 42 b0 be
       -0.5299361 -0.18763691 -0.2292706 -0.34425816
0000b0 31 27 78 3e b2 e7 90 be 46 0d bf 3e de 01 1b bf
       0.242337 -0.2830177 0.37314814 -0.60549724
0000c0 7d c0 93 3e 85 27 d5 3e ec 62 26 3f 0a ff 63 be
       0.28857794 0.41631714 0.6499469 -0.22265258
0000d0 87 1f c8 3e 70 7c ea 3d 09 ad dd 3e 44 a3 11 be
       0.39086553 0.11449516 0.43296078 -0.14222437
0000e0 a3 e3 f0 bd a2 5a 63 be 8e eb 8e be de 42 cd 3e
       -0.11762168 -0.22202542 -0.2791409 0.40090078
0000f0 26 65 8d bc ac ae b8 be 43 c6 02 bc 6f 53 da be
       -0.017260145 -0.36070764 -0.00798184 -0.4264178
000100 80 6e 05 3c f5 53 b4 be e6 95 92 bd 5d d0 96 be
       0.008144021 -0.35220304 -0.07157497 -0.29455844
000110 ea 89 9f be 5e d8 e7 3e 62 df 3f 3e 7a 88 0c 3f
       -0.31159908 0.45282263 0.18737558 0.54895747
000120 a6 7b 1c 3e 5c ba 75 3e 1b 20 ce 3e ab 57 9f be
       0.15281543 0.23996872 0.4025887 -0.31121573
000130 f0 f4 9f 3e 98 f0 f2 be 7d 51 27 3e 38 54 45 be
       0.3124156 -0.47449183 0.16339679 -0.19270408
000140 1b 9f 38 bd 3b 78 af 3d 99 b6 db bd 6d 83 7b 3e
       -0.04507361 0.08567854 -0.10728187 0.24561854
000150 5c 45 46 3c 88 9a ac 3e 33 c6 b6 be f9 86 7a 3e
       0.0121014975 0.33711648 -0.3569809 0.2446555
000160 99 9d ac 3e 65 c8 45 bd cd 67 ae 3e df 85 32 3f
       0.33713987 -0.048286814 0.3406357 0.6973552
000170 e1 64 05 bf c6 3b c1 3d df e4 80 3d b6 08 d7 be
       -0.52107054 0.09435229 0.06293654 -0.41998833
000180 7f 95 72 be 1b d8 e4 bc 71 0a 65 3e f4 fe e5 3e
       -0.2368984 -0.027935078 0.22367264 0.44921076
000190 2c 10 f7 3e 75 b4 d5 3e 7a 5a db 3d dc ad c9 be
       0.48254526 0.4173924 0.107106164 -0.39390457
0001a0 41 b4 bf 3e 4e f3 bb be 68 c6 95 3e 59 af d1 3d
       0.3744221 -0.36709064 0.29252934 0.10238523
0001b0 9c a5 0b bf 45 8a f3 be b8 83 79 3b 6a 20 47 3e
       -0.54549575 -0.4756643 0.0038072895 0.19445959
0001c0 4c 16 c3 be 0c 3d a9 bd 3b b5 02 3f 06 fe f5 be
       -0.3810295 -0.08263597 0.51057786 -0.48045367
0001d0 64 2f f7 3e 5b e5 cc 3e e3 0b 07 bf d3 ae a1 3e
       0.48278344 0.40018734 -0.5275251 0.31578693
0001e0 a3 02 cf be b5 78 0e bf 86 34 e7 be dd a9 8b 3e
       -0.404317 -0.55652934 -0.4515726 0.27278033
0001f0 31 e3 6c 3e f1 6e f5 3e 79 f1 09 bf 06 b8 bf be
       0.23133542 0.47936204 -0.53884083 -0.37445086

layers.1.weight f4 [128, 128]
000000 aa 5b fe 3d c0 60 76 3d 80 e1 1e 3d c8 05 4c 3d
       0.12419827 0.06015086 0.038789272 0.0498102
000010 fa ea 12 3e d5 e1 0f 3b 37 96 b2 3c 89 f6 b6 3d
       0.14347449 0.0021954675 0.021800144 0.089337416
000020 23 db 6e bb 09 51 98 3b 63 7e 89 bd b6 b9 a9 bd
       -0.0036446534 0.004648332 -0.067135595 -0.08287375
000030 fe 7b d1 3d 6c 85 43 3d 82 c5 9e bc 5a b1 53 3d
       0.10228728 0.047734663 -0.019381288 0.051682808
000040 69 36 59 bb a6 06 cb 3c 63 61 63 bd a5 16 06 3e
       -0.0033144003 0.024783444 -0.055512797 0.13094576
000050 44 42 72 bd 6c cb 89 3c e9 3c 8c bd 5a 75 e9 bc
       -0.059145227 0.016820632 -0.06847555 -0.02849834
000060 b9 e5 66 bc b5 84 70 3d ab 94 7f 3d 1d 4e cf 3c
       -0.014092856 0.05872031 0.06239764 0.025305802
000070 24 49 f6 3c c5 01 0a 3c 53 1f 46 3d 52 9e be bc
       0.030064173 0.008423273 0.048369717 -0.023268852
000080 78 b2 17 bd 6f b5 80 3c 51 cd 12 bd 2b 60 ba 3d
       -0.037035435 0.015711514 -0.035840336 0.09100374
000090 0b 53 d2 bd b0 7d 91 3c e9 7d de bd ae e9 6c bd
       -0.102697454 0.017760128 -0.10863859 -0.05784004
0000a0 0d 46 7e bd c4 43 05 3d 2c 2e d8 3d 50 95 9a bd
       -0.062078524 0.03253533 0.105556816 -0.0754801
0000b0 58 a4 33 bd fd 98 85 bd 00 4c 9a bd 6f e6 24 bd
       -0.043857902 -0.06523321 -0.07534027 -0.04025882
0000c0 f9 3a 82 3d 7c a0 24 bd e3 40 74 bd fb 85 84 3c
       0.063589044 -0.040192112 -0.059632193 0.016177168
0000d0 84 5e d1 3d 26 c4 f5 3d ea 92 83 bd 25 52 15 bd
       0.102231055 0.12000303 -0.06424506 -0.036455292
0000e0 da df 9f bc 15 c1 e5 bb ba 8e e7 bd 71 b3 00 be
       -0.01951592 -0.0070115426 -0.1130652 -0.12568451
0000f0 42 96 ac 3d 8f f7 08 bc 7b 4b 42 3d 0f 87 7f 3d
       0.08427097 -0.008359804 0.047435265 0.06238466
000100 cc 77 7a bc fe 52 99 bd 71 ef a3 3c 72 c5 98 3c
       -0.015287351 -0.07486533 0.020011635 0.018648837
000110 3f 1f b1 3c a8 a2 bb 3d 05 11 47 bd 53 c1 7e bd
       0.021621345 0.091618836 -0.048600215 -0.062196087
000120 e7 ce 96 3d b6 71 f8 bc 6e 0a d0 bc c5 86 93 3d
       0.07363682 -0.03032766 -0.025395598 0.072034396
000130 d8 29 1b 3c 78 ee 0b 3e b3 20 b5 bd bc cb 03 3e
       0.009470426 0.13665187 -0.088441275 0.12870687
000140 34 47 e4 bc 71 a2 13 3e 33 19 c2 3b 60 1d d0 bc
       -0.027865984 0.14417435 0.005923414 -0.025404632
000150 c7 17 64 bd 9f 65 9c bd 9b a9 15 bd 37 51 37 3e
       -0.05568674 -0.0763657 -0.0365387 0.17902075
000160 52 23 2c 3d 37 5b e6 3c 87 9b 64 3b 00 0c f4 3c
       0.04202587 0.028119667 0.003488274 0.029790878
000170 fb 5c 80 bd 46 82 c6 bd 4d 68 e4 3c 64 66 07 bc
       -0.062677346 -0.096928164 0.027881766 -0.008264158
000180 5d d3 f2 bc 91 12 1f 3d 43 77 8f 3d f2 31 60 bd
       -0.029641801 0.038836066 0.07005169 -0.05473513
000190 d1 c7 b2 3d 9c 4e e9 bb bb 4d 2d 3e 91 fe 43 bd
       0.08729518 -0.0071199667 0.16924183 -0.047850195
0001a0 42 2f cc 3c 5d d2 d3 bc 6b aa 83 ba f1 76 86 bd
       0.024924878 -0.025857145 -0.0010045295 -0.06565655
0001b0 d3 89 5e bd ab 1d e0 3d 6c 7f 96 bc 06 62 2c 3c
       -0.05433066 0.10943159 -0.018371306 0.0105214175
0001c0 b9 61 79 3d c6 ac 07 3d d7 4c 95 3d 1a 56 9b 3d
       0.06088421 0.033123754 0.07290047 0.07584782
0001d0 07 ed 93 3d b8 bb 22 bc d7 ec bb bc e6 47 b6 3d
       0.07222944 -0.009932451 -0.022940082 0.08900432
0001e0 08 70 58 3d 36 ab 5a 3d 05 67 1a bd b3 fc 96 bc
       0.052841216 0.053385936 -0.037695903 -0.018431043
0001f0 2a 83 a5 bb c8 99 04 3e 1e 4e 64 3d c1 43 79 3d
       -0.0050510364 0.12949288 0.05573856 0.06085563
000200 60 67 fd 3d 35 47 f0 3d c5 1f 23 3d ef 87 d8 3d
       0.12373233 0.11732332 0.03982522 0.10572802
000210 18 fb 8b 3c 83 d0 8e 3d 0f 70 0d 3e 76 e7 46 bd
       0.017087504 0.06973364 0.13812278 -0.048560582
000220 0b d6 39 bd e0 d4 9a 3c 98 40 da 38 6c 66 83 3c
       -0.045370143 0.018900335 0.000104070816 0.01604005
000230 fe 7f e1 bd f7 4c c5 3d 00 bd 5d bd 13 dd 2b 3d
       -0.11010741 0.096338205 -0.054135323 0.04195888
000240 6d 94 08 bc 67 36 50 3d 97 f8 9e bd 6d 97 30 3e
       -0.008336169 0.050833132 -0.077622585 0.17245264
000250 3c 8f 7f bd 24 88 b8 3d 57 eb 62 bd 65 af 0b 3e
       -0.06239246 0.09010342 -0.05540022 0.13641126
000260 4d e7 94 bd 23 08 5c 3b 26 e7 c2 bc 1e 2d 54 3d
       -0.072706796 0.0033574186 -0.02379186 0.05180084
000270 4f 87 be 3d 47 e2 df 3d 0e 2a 0b 3e c7 56 6e bb
       0.09303152 0.10931831 0.13590261 -0.0036367641
000280 2b 94 42 bd 75 80 62 bd 76 58 e4 3d dc 7d ec bc
       -0.047504585 -0.055298287 0.11149685 -0.028868608
000290 46 01 85 bc 05 7f 55 bd f0 72 5b bc 18 66 5a bd
       -0.016235959 -0.05212309 -0.013394102 -0.05332002
0002a0 73 00 b0 bc b8 7a a3 3d 9c 79 9f 3d 54 52 ea bd
       -0.02148459 0.07982391 0.07786867 -0.11441484
0002b0 9f 7f 67 3d 4b ac bb bd 91 72 8e 3d 3a d6 45 bd
       0.056518193 -0.09163722 0.069554456 -0.048300005
0002c0 52 44 a6 bb ff 34 a7 3d fa 92 80 bc af b7 17 bc
       -0.0050740624 0.08164405 -0.015695084 -0.009260102
0002d0 d1 3a 04 bd 71 b2 bc 3d 65 5c 24 bd 3b 9e 76 bc
       -0.032282654 0.092137225 -0.040127177 -0.0150523735
0002e0 c7 22 09 bc c4 be f3 3d 5a 60 ff bd 01 4e fe bd
       -0.008370108 0.1190162 -0.124695495 -0.12417222
0002f0 af 51 d2 3c b0 fd 28 bc be cd 51 bd b1 7c 97 3d
       0.025673715 -0.01031439 -0.0512216 0.0739683
000300 64 3f 1d 3c 8e a9 26 3d 51 e2 bd bd c9 f4 c0 bd
       0.009597633 0.040689044 -0.09271682 -0.09421689
000310 ea e0 59 bd ec cc 5c bd dd 39 99 bd e5 1b bb 3c
       -0.05319301 -0.053906366 -0.0748174 0.02284045
000320 b0 03 a9 bd dd 08 66 3d 86 1a ff 3d 8a e9 80 3d
       -0.082526565 0.056160796 0.12456231 0.06294544
000330 c8 49 e0 bb f9 d8 9b 3d 08 8b 1b bc a4 93 28 3e
       -0.006844733 0.076097436 -0.009493597 0.1646257
000340 0d fc a0 bd f3 bf db 3d 01 d6 d7 bd e7 d1 94 3d
       -0.07860575 0.10729971 -0.10538865 0.07266598
000350 d9 20 e5 3d cb 0a 4e 3a cc 84 8a bd 5c f6 e1 3d
       0.11187906 0.00078598846 -0.0676361 0.110333174
000360 1b 4c 8d bd b8 bf 97 3d b2 3e 2a 3c d5 1b 5f bc
       -0.068992816 0.07409614 0.010390924 -0.0136174755
000370 c3 61 b2 bd 4c c2 f7 bd 64 f4 e3 bc 3d dd 45 3d
       -0.08710053 -0.12097606 -0.027826495 0.048306692
000380 c7 dd 01 3d 4d b5 c5 3b 8c 77 3f 3d 11 c2 95 3d
       0.031705644 0.0060335756 0.04674487 0.07312406
000390 0d a2 97 bd dd c8 0b 3d fd 36 18 3e 96 3a 5d bc
       -0.074039556 0.034127105 0.14864726 -0.0135027375
0003a0 b8 ff 03 3e be 84 0f 3d 88 ec 74 3d 17 a9 37 3a
       0.12890518 0.035038702 0.059795886 0.00070060923
0003b0 fa 36 01 bd 06 57 b0 3c 01 8c 59 bd db e3 b7 3d
       -0.03154657 0.021525871 -0.053112034 0.08979007
0003c0 c4 b7 b2 bc c2 0f a9 bd a5 06 fc 3d 8b 5d 30 3e
       -0.021816142 -0.08254959 0.12305955 0.17223184
0003d0 56 5f 97 bc eb 08 32 3d 70 8d aa bd 18 d3 c8 3c
       -0.018478077 0.043465536 -0.08327758 0.02451472
0003e0 b8 4d 82 3c 72 57 91 3d 68 97 01 3e a1 8e b1 bd
       0.0159062 0.07096757 0.12655413 -0.086697824
0003f0 ed 86 b3 bd 61 02 ce 3c 40 6d c2 bd 7d 45 b0 3d
       -0.087659694 0.025147619 -0.09493494 0.08607004
