Homework9/Gym-DDPG-solution/results/DDPG_LunarLander-v2_1500-eps0.3-t32-l0.0001-s1.pth (torch, 180667 bytes, 13 tensors)

layers.0.weight f4 [128, 10]
000000 62 81 8e 3e a8 76 1c be 8a e8 12 3d 16 de 10 3f
       0.27833086 -0.15279639 0.035866298 0.56588876
000010 9e c4 88 3d b5 ee f6 3d 0a 21 e0 bc ac bd 00 3e
       0.06678127 0.120572485 -0.027359504 0.12572354
000020 f8 06 97 3d 0d ca 2b 3d 08 cd 2b 3d 59 8d 9f 3d
       0.07374376 0.041940738 0.04194358 0.07790632
000030 c9 1b b1 3d d1 35 8b be 37 66 03 3e de 88 18 be
       0.08647878 -0.27189496 0.1283196 -0.1489596
000040 16 b2 a9 3c 2e 37 9d bc d5 a0 a0 3e 8d 71 01 3d
       0.0207148 -0.01919135 0.31372705 0.03160243
000050 49 12 5f be ed a5 50 be 0e 71 48 be 30 a8 13 bf
       -0.21784319 -0.20375796 -0.19574377 -0.5767851
000060 65 87 02 bf a4 87 9c 3d aa 53 82 3e 8a 71 40 3e
       -0.50987846 0.07643059 0.25454456 0.18793312
000070 40 1c a7 be 6d b8 27 3e cf a9 12 3e 7c 2b b6 3e
       -0.3263874 0.16378947 0.1432259 0.3558005
000080 fe c5 99 3e 4c 4b a0 be e3 74 00 bf 1b 94 58 be
       0.3003387 -0.31307447 -0.50178355 -0.21150248
000090 38 85 86 3e 80 88 36 bd fb a7 0f 3e e7 3b 81 bd
       0.26273513 -0.04456377 0.14028923 -0.063102536
0000a0 c3 ef 9f 3e f4 cc 1c be 19 43 54 3e aa 9a 5f bd
       0.3123761 -0.15312558 0.2072872 -0.05459086
0000b0 f0 0c ce bd 1f 8c 71 3e 8a e1 17 be 0e 97 f2 3d
       -0.100610614 0.23588608 -0.1483213 0.11845218
0000c0 ca 56 b5 bd f1 98 d3 3a f1 0d 8b be f1 c9 59 be
       -0.08854444 0.0016143603 -0.27159074 -0.21268441
0000d0 16 21 5e 3e b2 4d 07 bc 73 ac c2 3e b1 7a 09 3f
       0.21692309 -0.00825827 0.38022193 0.5370284
0000e0 f6 f1 09 39 d9 c0 69 be 6f d7 46 3e 42 98 02 3e
       0.00013155476 -0.22827472 0.19418119 0.12753394
0000f0 03 f5 7b be c4 31 86 3e 4b c0 61 3e 82 80 bd 3e
       -0.24605183 0.26209843 0.2204601 0.37012106
000100 5c d8 76 be b9 6d 82 bd 91 d2 4e bd 94 23 2b 3d
       -0.24105972 -0.06368584 -0.05049378 0.041781977
000110 50 d8 4c be 77 28 92 be aa 45 20 3e 5c 9f 6a bd
       -0.20004392 -0.28546497 0.15651575 -0.057280883
000120 de 6c 29 3e d3 25 35 3d 69 af 76 3e 79 b9 95 bd
       0.16545436 0.044225525 0.24090351 -0.07310767
000130 46 6f 5b 3e f4 22 8d 3e 69 d7 9d be 19 0a 2a 3e
       0.21429166 0.2756573 -0.30828407 0.16605414
000140 16 42 4a be f7 21 68 be 2a 5b 98 3c b2 19 a8 bd
       -0.19751772 -0.22669207 0.018598158 -0.08208026
000150 64 f6 68 3e 56 01 27 be 1c b4 96 be 5b bd 3f 3e
       0.2275024 -0.16309103 -0.29434288 0.18724577
000160 a7 56 2b bd 58 7b 34 3e 0a c9 fd 3d ae 41 8a be
       -0.041830685 0.17625177 0.12391861 -0.27003235
000170 6e 32 fa 3d 92 28 12 3e 24 0d a2 be ac e4 aa be
       0.1221665 0.14273289 -0.3165065 -0.33377588
000180 e9 c9 bb 3d 41 7d 95 3d 13 5e d7 bd 6c ed 6f bd
       0.09169371 0.07299281 -0.1051599 -0.058576033
000190 32 3b 82 3e 32 d8 1b be 5b dc 9a 3d 2d cf 64 3e
       0.25435787 -0.1521919 0.07561561 0.22344656
0001a0 09 04 59 be 67 36 43 bf 5f 0c 7f 3e 85 34 23 3d
       -0.21192946 -0.76254886 0.24907063 0.03984501
0001b0 0c c2 16 3e cc 95 f7 3c 5d 2f ac 3d 76 5c 87 3e
       0.1472246 0.030222796 0.08407471 0.2643773
0001c0 8a 97 b5 3e ea 0f a8 be 96 79 05 be cd df 37 bd
       0.35467178 -0.3282464 -0.13034663 -0.044891167
0001d0 20 33 8c 3e 32 1f 41 3e c0 a3 22 be d2 71 58 be
       0.27382755 0.18859556 -0.15882778 -0.21137169
0001e0 3a 02 4a be e3 ed b8 3d ae e8 9f 3e a2 d0 0c bf
       -0.19727412 0.09029748 0.31232208 -0.5500585
0001f0 fa c6 88 3e 59 de 07 bf fe 17 96 be 2d 7c 62 bd
       0.26714307 -0.5307365 -0.2931518 -0.055294205
000200 28 3f 54 3e 3e 98 27 3e 17 de 37 be 01 85 de 3c
       0.20727217 0.1636667 -0.17955814 0.02716303
000210 e7 99 90 3e 6b f4 d2 3e cb 8a af 3e e8 73 80 3e
       0.28242418 0.412021 0.34285578 0.2508843
000220 aa 79 53 3e f6 6f f4 3d 85 2e 18 be 0e 42 5d be
       0.2065188 0.11935417 -0.14861496 -0.21607229
000230 cb 63 77 be 6b d1 0d bd f8 52 85 be 2d 0e d8 3e
       -0.24159162 -0.034623545 -0.26039863 0.42198315
000240 d1 0a 04 3f db b5 0d 3d bc 2d 21 3e 9f 9d b0 3d
       0.51579005 0.03459726 0.15740103 0.08623814
000250 7d a2 1d 3e 83 d1 1f 3e 51 42 55 bd ff 62 a0 3e
       0.15394016 0.15607266 -0.052065197 0.31325528
000260 6b b3 a7 3d 03 d9 be bc c0 d8 f8 be 3a 91 e5 be
       0.08188518 -0.023296839 -0.48602867 -0.44837362
000270 b9 a9 38 be f5 41 01 be ff c2 56 3e 51 e3 36 3c
       -0.18033494 -0.12622817 0.20972823 0.011162595
000280 1b e3 5e be 05 66 8d 3d 90 e0 c3 3d 5f 6c b9 3e
       -0.21766321 0.06904224 0.09564316 0.36215493
000290 92 74 1a be 2c dc 6a 3e 3b 19 04 be fe b4 cf bd
       -0.1508353 0.22935551 -0.1290025 -0.101419434
0002a0 20 5e 86 be 68 01 0e be 6c 1c 6b bd e6 67 ce 3d
       -0.26243687 -0.13867724 -0.057400152 0.10078411
0002b0 96 bf 6c 3e c7 e6 c7 3e 97 14 49 3f 3c f9 11 3f
       0.23119959 0.39043257 0.7854704 0.57020926
0002c0 c8 50 c0 3e 88 8a c1 3d 2d b2 62 be 86 e8 bc 3e
       0.3756163 0.09450251 -0.22138281 0.3689615
0002d0 ee 7f 90 bd 39 28 2e bd 46 14 72 be b8 18 6a be
       -0.07055651 -0.042518828 -0.23640546 -0.22860992
0002e0 6e 5c b3 be 6c 35 ae 3e a5 76 33 be f4 d0 35 be
       -0.35031456 0.34025133 -0.17525728 -0.1775549
0002f0 59 41 73 bc 32 ec fd bd c2 84 06 3e 6c d7 3a be
       -0.014847123 -0.12398566 0.1313658 -0.1824624
000300 d4 b1 38 be ef 30 e0 3d 84 52 3d 3e 30 71 57 bd
       -0.18036586 0.10946833 0.18488508 -0.05259818
000310 71 f7 1f 3e 63 ca 65 3e 7b 03 8d 3e 67 4e 6b be
       0.15621735 0.22440486 0.27541718 -0.22979127
000320 b5 9e 13 3e 34 e1 86 be 17 78 9d 3e a0 ec 68 be
       0.1441601 -0.2634369 0.30755684 -0.22746515
000330 96 45 bd 3e da 25 3a be 99 76 de bc 00 3d 51 bd
       0.36967152 -0.18178502 -0.027156161 -0.051083565
000340 70 e2 95 3d 47 3a 1e 3e ff d9 0b 3d ac 77 c7 3c
       0.0731858 0.15451919 0.034143444 0.024349056
000350 eb 1d 99 be 6f fe d6 3e 6d f8 e6 3e ee ad d5 3e
       -0.29905638 0.41990992 0.4511141 0.4173426
000360 ee c0 54 3e 95 19 62 be 22 d7 1c be e0 6a 76 3e
       0.20776722 -0.22080071 -0.15316442 0.24064207
000370 c2 85 4f be db f3 9c 3e d6 ed 96 be 0a c7 e9 be
       -0.20265868 0.30654797 -0.2947833 -0.45659667
000380 31 f4 d3 3c e9 96 c8 be ba 4c 13 be 27 27 3e 3e
       0.025873275 -0.39177635 -0.14384738 0.18569623
000390 cf 04 53 3e f7 4b 52 3e eb 6f 8e 3c cb 58 93 be
       0.20607303 0.20536791 0.017387351 -0.2877868
0003a0 fc 9e c4 3e b8 ed 63 be ba dd c9 bd 99 72 b8 bc
       0.38402545 -0.22258651 -0.09856744 -0.022515582
0003b0 c6 27 5c be f4 f9 16 3e 24 83 88 3e a7 11 4e be
       -0.21499547 0.14743787 0.26662552 -0.20123921
0003c0 9a e4 94 be 97 86 7b 3b ff e3 b5 3d 5f 19 8e bd
       -0.2908066 0.0038379782 0.088813774 -0.06938433
0003d0 ca 7b 62 be 8e 0e 5c 3b 86 25 9d be eb 08 7e be
       -0.22117534 0.0033578011 -0.3069269 -0.2480809
0003e0 b3 37 46 be 23 09 92 3e 2e b7 76 3e 21 64 c3 bd
       -0.19357185 0.28522596 0.24093315 -0.095405824
0003f0 a8 d4 b8 bc 3b 83 00 3e 81 42 da 3d ad f3 fd be
       -0.02256234 0.1255006 0.10657216 -0.49599972

layers.0.bias f4 [128]
000000 4d f2 ac bd f6 52 7b 3d 9b 54 a6 3d c2 49 90 3d
       -0.08444653 0.061358415 0.08121606 0.07045318
000010 c7 60 3f 3e 0f ad 1c bd 4f f8 96 3e b3 3f ef 3d
       0.18689261 -0.03825098 0.2948632 0.116820715
000020 7b e6 63 bc a9 84 26 bc 01 94 01 3e e2 72 c3 3d
       -0.013909931 -0.010163465 0.12654115 0.095433965
000030 17 f5 a0 3e e9 5b be bd db 50 2c bd 4f 0f 99 3e
       0.3143699 -0.09294874 -0.042069297 0.29894492
000040 35 7e bc be fb 94 1a 3b 02 d5 a9 3e ff 60 6f be
       -0.36815038 0.0023587334 0.33170325 -0.23376845
000050 1a 34 c1 bd ad b3 ee bd d0 00 11 3e 42 f6 aa 3d
       -0.09433766 -0.11655364 0.14160466 0.08347751
000060 e9 2a 0b 3e b7 17 21 3e 32 05 02 be 86 03 9f 3d
       0.13590588 0.15731703 -0.12697294 0.07764344
000070 02 ca 83 bd 38 bf 21 3e 05 6c 83 bd a1 fe 79 be
       -0.06435014 0.157956 -0.064170875 -0.2441354
000080 b2 f8 b2 3d e4 e5 76 3e ba 79 a5 bd 8f f5 02 3c
       0.08738841 0.24111134 -0.08079858 0.007993116
000090 cc ef 85 bd 71 d7 6c 3e e9 f5 82 3b 4f 2f 94 be
       -0.06539878 0.2312906 0.0039966 -0.28942344
0000a0 83 b5 4e be 91 77 05 3d 1b 23 f2 bc 22 36 a6 3e
       -0.20186429 0.03258473 -0.029557755 0.32463175
0000b0 4d 31 3d bd a7 bc 82 3e 71 b4 a1 be 48 58 b9 be
       -0.046189595 0.25534555 -0.31582978 -0.36200166
0000c0 6e e6 c0 bd 0a f8 ac bd d0 0c 43 bd b9 e4 9a 3c
       -0.09418951 -0.08445747 -0.04761964 0.018907892
0000d0 92 26 7c be d7 6c a4 3e 5a 8b 41 be 33 a5 8b 3e
       -0.24624088 0.32114288 -0.18900815 0.27274475
0000e0 5a 13 07 3e 78 e5 fd bc 68 ca 9d be 54 77 b2 3d
       0.13190976 -0.030993208 -0.30818486 0.08714166
0000f0 16 38 8d be 44 db 73 3e a6 02 96 be 7e cf 9e bb
       -0.27581853 0.23814112 -0.29298896 -0.0048465123
000100 44 02 84 be 58 14 23 be 37 75 40 bd ec a8 04 be
       -0.2578298 -0.1592573 -0.046986785 -0.12955064
000110 8a 06 d6 3d 6c 97 65 3d 3f 67 ba 3d 05 b9 82 bd
       0.10450466 0.05605261 0.09101724 -0.06382946
000120 5c a1 39 be e7 9c 12 bd ba 04 a4 3e 0c e1 d6 3c
       -0.1812796 -0.035794165 0.32034856 0.026230358
000130 5e 47 83 be 81 d5 b5 3e 6c b3 0f 3e 3e aa 99 bc
       -0.25640386 0.35514453 0.14033288 -0.018757936
000140 a4 69 6e 3d 94 5e 84 3e 64 9c 3a be 7d 68 97 3e
       0.058206216 0.25853407 -0.18223721 0.29571906
000150 15 18 ba 3e c4 47 10 be fc fe 4c 3e cf ca 4a 3e
       0.36346498 -0.14089876 0.20019144 0.19803928
000160 79 a2 8f 3e 13 e0 92 3b fe 3b 12 be 70 3e 32 be
       0.28053644 0.004482278 -0.14280698 -0.1740663
000170 cc d8 81 be 5c 32 65 bd 62 81 a5 3e da 7d 5b 3e
       -0.25360715 -0.05595623 0.32325274 0.21434727
000180 86 ba 8e 3e 16 a7 da 3d 9b 6d cf 3c 47 1c 8b 3e
       0.2787668 0.106764 0.025320819 0.2717001
000190 eb 0b 18 3e c5 a9 74 bb 12 d1 2a bd e3 13 0b 3e
       0.14848296 -0.0037332636 -0.04170329 0.13581805
0001a0 d2 dd c8 bd de 38 94 be 4a 38 a6 bd af c6 ab 3e
       -0.09807934 -0.28949636 -0.08116205 0.3355002
0001b0 7b a5 6e 3e 63 67 c8 bd d8 5d 16 be 9e 97 7c be
       0.23305313 -0.097853445 -0.14684236 -0.24667212
0001c0 a0 35 7f bc 9e 7c a5 3e ed 3b a8 be c9 79 50 3e
       -0.01557675 0.32321638 -0.3285822 0.20358957
0001d0 90 85 95 be 68 78 42 be a4 19 e1 bd 53 c2 88 3d
       -0.29203463 -0.18991244 -0.10991219 0.066776894
0001e0 1f e2 2e bd 72 ff 82 be 5b fa 51 be 0b 88 27 be
       -0.042696115 -0.25585514 -0.2050566 -0.1636049
0001f0 56 6a 39 be 77 e1 3d be 48 20 b7 3e 92 95 32 be
       -0.1810697 -0.1854304 0.35766816 -0.17439869

layers.1.weight f4 [128, 128]
000000 6a 7a d3 bd 62 53 be 3d fc 4f df 3c 53 c8 2b 3d
       -0.10326083 0.09293248 0.02725982 0.04193909
000010 b9 0d ce bd 89 ce df bd 5a 75 f1 bc 6d ee b3 bd
       -0.10061211 -0.10928065 -0.029474903 -0.087857105
000020 f5 de 35 bd 85 6a 34 3d b0 4f 99 3c 9e 78 42 bd
       -0.04440208 0.044046897 0.018714756 -0.04747831
000030 5d 74 8b 3d e2 b1 8f bd 33 87 ec bc 7f cf 01 3c
       0.06809304 -0.0701635 -0.028873062 0.007923006
000040 24 47 69 bd cf e9 36 bb cb 17 31 3d fe 43 02 3d
       -0.05695261 -0.0027910357 0.04323558 0.031803124
000050 cd 8a 11 bd a5 4e d7 3d e8 57 7b 3d 22 a9 98 bd
       -0.03553276 0.10513047 0.06136313 -0.074541345
000060 97 c1 18 3d 19 f4 88 bd c3 df 89 3d 24 d0 19 bb
       0.037293997 -0.06687183 0.06732132 -0.0023470009
000070 1f bf 1d 3d ab 65 f2 bd 82 12 6e bb b9 f3 97 bd
       0.038512345 -0.11835798 -0.003632695 -0.07419533
000080 00 08 d5 3d fa 7a 05 3d c7 2e 67 bb 38 4f 4f bd
       0.104019165 0.032587983 -0.0035275684 -0.05061266
000090 f5 ea 14 be 0b 0c ce 3d 50 2f 8d bd 7c 24 82 3c
       -0.14542754 0.10060891 -0.0689379 0.015886538
0000a0 7b 95 42 bd 19 d1 04 3c 93 fc 54 bc e9 ff 5c 3d
       -0.047505837 0.008106493 -0.0129996715 0.053954992
0000b0 3e e0 9b 3d 5a 94 34 bc e0 b2 ba bd e1 fc 09 bb
       0.0761113 -0.011021698 -0.09116149 -0.0021055269
0000c0 4b e3 2b bd 15 b6 96 bd 10 46 20 bd ae 5e cc bd
       -0.04196481 -0.07358948 -0.039129317 -0.09978996
0000d0 11 88 5d bc 8e 2c 15 bd d5 de 94 3c 2f bb 08 3e
       -0.01352121 -0.036419444 0.01817266 0.13352655
0000e0 81 f5 28 bd 23 ea 89 3d c6 a5 9a bd d2 1a d5 3c
       -0.041249756 0.06734111 -0.0755115 0.026013765
0000f0 2b 94 99 3c 9e cc 83 bd 11 b6 88 bd 3b ff 89 3c
       0.01874741 -0.06435512 -0.066753514 0.016845336
000100 1e e4 b6 3c 20 c6 c1 bb 16 c6 16 3d b3 6b 67 bd
       0.022325572 -0.005913511 0.036810003 -0.056499194
000110 c5 27 a7 3d 69 99 52 bd 18 85 07 be af 35 0e 3d
       0.08161882 -0.051415835 -0.13234365 0.034719165
000120 6b 67 fb 3c 2a 66 d0 3d ee 86 99 3d 21 58 ec bc
       0.030688962 0.10175736 0.07496439 -0.028850617
000130 bb ef 44 bd f6 28 24 bd dd 4f 8a bd 8e ec b6 bd
       -0.048080187 -0.040078126 -0.06753514 -0.08931838
000140 5f e8 7b bc 2e 45 50 3c 61 0a 12 3d 7a da 08 3e
       -0.015375226 0.012711806 0.03565443 0.13364592
000150 8c e9 8a 3c c4 58 8d 3d 0a 99 e0 3c e7 18 d8 3b
       0.016957067 0.06901696 0.027416725 0.0065947655
000160 ab f1 4c be bb 0f b4 bd b2 c7 1b 3c 8b 31 35 bd
       -0.20014064 -0.08792063 0.00950806 -0.0442367
000170 75 e1 8b bd c8 dd f6 bd 32 ac 02 bb 39 8b a1 bd
       -0.06830112 -0.1205402 -0.0019939062 -0.07887883
000180 93 13 ff bc cf 48 bc bb 9a 72 7a 3b fa bf 0e 3e
       -0.031137263 -0.005745984 0.003821528 0.13940421
000190 5d df bd 3d 1d 38 00 3d a2 f0 3f bc 88 1b 2b bd
       0.09271119 0.031303514 -0.011715086 -0.041774303
0001a0 fc 46 a1 bc 0f 84 e2 bb 80 bd 47 3e 3a 49 11 bb
       -0.019687168 -0.0069127153 0.19505882 -0.002216889
0001b0 61 5f 71 3d b5 06 f9 3d 53 d9 48 3d 24 bc 77 3c
       0.05892885 0.121594824 0.04903538 0.01512054
0001c0 01 81 03 3c 9a 7f 9e 3d 10 46 e2 bd c3 55 17 3d
       0.008026362 0.07739182 -0.110485196 0.036947023
0001d0 15 91 48 bd f9 e6 b9 3b b2 35 55 bc 96 8d fc 3d
       -0.048966486 0.005673286 -0.01301329 0.12331693
0001e0 fc dc b3 3d 36 38 2b 3c b8 0c 37 bd 59 57 ee 3c
       0.08782384 0.010450413 -0.044689864 0.029094385
0001f0 ad 6f 47 bd 81 85 25 bd ab 51 ec 3b 1b f4 fa 3c
       -0.048690487 -0.040410522 0.007211884 0.030633977
000200 f9 98 48 bb dc ec 3e 3d 59 2f 46 3d cf ab 2c bd
       -0.0030608757 0.046612605 0.048384998 -0.042156037
000210 24 89 13 bb 18 cd 66 3d 0b 2a 5c bd 1d 43 98 bd
       -0.0022512162 0.056347936 -0.053751033 -0.07434676
000220 02 0f 7d bd e1 5e d5 3d 33 74 99 bd 33 35 9e bd
       -0.06178189 0.10418487 -0.07492866 -0.07724991
000230 ad d6 88 3d fc f0 bc 3d 5f a1 7e bd d9 77 d8 bb
       0.06681571 0.092256516 -0.062165614 -0.006606084
000240 7d 57 25 bd 11 43 2b 3d f2 57 c2 bd fe d6 31 bb
       -0.04036664 0.041812006 -0.094894305 -0.0027136202
000250 3f 8c 25 bb 23 06 04 3e ad fe 8d 3d 34 c5 95 bd
       -0.0025260595 0.12892966 0.06933341 -0.07313004
000260 c9 80 b4 bd 94 07 93 bc 49 ab 8a 3a ef 50 7f 3d
       -0.08813626 -0.01794795 0.0010579611 0.062333044
000270 57 a6 b5 bd 15 9b 2b bd 6e 61 d5 3b 78 46 35 bd
       -0.088696174 -0.041895945 0.0065118587 -0.044256657
000280 20 98 24 3d 74 ca 52 bd 89 1c ce bd 48 70 9c bd
       0.04018414 -0.051462606 -0.100640364 -0.076386034
000290 7e 6d bc bb 34 9d 3c bd e6 5f 06 ba 25 be b5 3d
       -0.005750357 -0.046048358 -0.00051259843 0.08874158
0002a0 64 8b d6 bc e1 01 35 bd 72 81 a0 3d 9f 8b b2 3d
       -0.026189514 -0.044191245 0.0783719 0.08718037
0002b0 0e 11 72 3d 69 a7 89 bc cf 4e 8b bc 5c ce 3c bb
       0.059098296 -0.01680346 -0.017005352 -0.0028809523
0002c0 83 07 24 bc c8 73 9a 3d b6 a2 69 bc 1d 44 4e bd
       -0.010011557 0.07541615 -0.014259985 -0.050357927
0002d0 8b 92 67 3d 82 97 de 3c 3a 8c 73 3d 51 61 b1 3b
       0.05653624 0.027171854 0.059459902 0.0054132123
0002e0 85 53 ae bc dd f2 d4 bc 8e 10 9d bc 65 93 4e bc
       -0.02128006 -0.025994712 -0.019172933 -0.012608384
0002f0 18 78 1c 3e 41 b4 8a bb 44 6d c0 3d fc 83 a4 bd
       0.15280187 -0.0042329137 0.09395841 -0.080329865
000300 42 c7 09 bc a4 c4 e1 bc 62 28 ea bd d0 6e 99 3d
       -0.008409323 -0.027559586 -0.11433484 0.07491839
000310 f3 d4 93 3d 3d a5 1b bd f5 25 b5 3d 17 c9 68 3d
       0.07218351 -0.03799938 0.0884513 0.0568324
000320 b2 3b 8a bd ae 2d 1c bd 22 19 df 3d ee 2f 51 bd
       -0.06749667 -0.0381295 0.108934656 -0.0510711
000330 8c 1c a8 bc 1f e7 ce bd 10 c2 42 3d a4 a0 8d 3d
       -0.020521425 -0.101026766 0.047548354 0.069154054
000340 10 fa 45 3d 35 90 8f 3d eb 4c 10 bd ac 25 74 bd
       0.04833418 0.07009927 -0.035229605 -0.05960624
000350 77 91 17 3c 5c c0 88 bc 64 aa 0d 3d c1 0a 81 3d
       0.00925099 -0.016693287 0.034586325 0.06300879
000360 32 ce ba 3b 94 27 75 bd a1 f1 51 3d 6c d0 96 3d
       0.00570085 -0.059852198 0.051255826 0.07363972
000370 12 f9 10 3d 34 4e 88 3c be 6d 42 3d 97 89 3d bd
       0.035393782 0.016638853 0.04746794 -0.046273794
000380 91 92 03 bd fd 2c df bc 04 12 9e bd 1d d6 10 3d
       -0.0321222 -0.027243132 -0.0771828 0.035360444
000390 b4 32 22 3c a2 08 41 3d b6 18 d1 bd 7b 00 8c 3d
       0.009899784 0.047127374 -0.10209791 0.06836029
0003a0 0b 20 ff 3b 8a 98 11 3d 78 61 5d 3d 91 1b 6c bd
       0.0077858022 0.035545863 0.05404803 -0.057643477
0003b0 ef 6a 0c 3c f9 bc 31 bd 09 42 1c bd 17 74 77 3d
       0.008570417 -0.04339311 -0.038148914 0.060413446
0003c0 d4 48 9c 3c 63 02 40 3d b7 76 94 bd 59 06 30 3d
       0.019077696 0.046877276 -0.072492056 0.042974804
0003d0 bf e8 15 3d 58 30 35 bd f7 8b 1f 3d 1c 31 3a 3b
       0.036598917 -0.044235557 0.03895184 0.002841062
0003e0 71 82 80 3c 6e ee d1 bc 81 82 c2 bd 95 ef 3b 3c
       0.0156872 -0.025626387 -0.09497548 0.011470695
0003f0 06 25 91 bd e7 87 75 3d 62 0a f7 3c ea 63 a4 3c
       -0.0708714 0.05994406 0.030156318 0.020067174

layers.1.bias f4 [128]
000000 f9 71 f3 3d d9 ba 97 3d 14 70 49 bd 41 1a f2 3d
       0.11886973 0.07408685 -0.04917915 0.11821414
000010 24 b3 93 bd 2c 26 0d 3d de 73 bc b9 d1 a2 da 3d
       -0.07211903 0.03446023 -0.00035944482 0.10675586
000020 54 49 dd 3d 44 d1 7a bd 9b b5 10 be 79 49 7a 3d
       0.10805002 -0.061234728 -0.14131777 0.061105225
000030 62 bc d2 bd 0d 27 8b bd 76 3b c0 3c d9 17 03 3d
       -0.102898374 -0.06794558 0.023465853 0.032005165
000040 3e c9 ab 3d 7f ad 80 bd a0 db a8 bd 21 e1 ca bd
       0.08387993 -0.06283092 -0.08245015 -0.09906221
000050 12 68 a7 3d 22 71 e7 3c 42 65 66 bd fc cc 4e 3d
       0.08174147 0.028252188 -0.05624891 0.050488457
000060 1a cf d9 bc 71 e4 c7 bd 49 8e 45 3d 04 0a 92 3d
       -0.026588012 -0.097603686 0.048231397 0.071308166
000070 f2 44 5d 3d 4d c6 85 3d fb d0 ac 3d d5 1d dc bd
       0.05402083 0.065319635 0.08438297 -0.107478775
000080 d3 6f 7b 3d d9 75 cc 3d ab 6b 02 3e 05 74 c7 3d
       0.06138594 0.09983415 0.12736385 0.09738926
000090 2f 62 e9 3d e4 20 46 bd 2a 8b 6d 3d 61 db c4 3d
       0.1139568 -0.04837121 0.057994045 0.09612156
0000a0 ba d7 b0 bd 59 0b bb bd 7e 06 9c bb d1 88 b9 3c
       -0.086348966 -0.09133024 -0.004761516 0.022648247
0000b0 5b 98 0a 3d 5d ad 6a 3b ae 26 c1 bd 32 19 c3 bd
       0.033836704 0.00358089 -0.09431206 -0.0952629
0000c0 f9 b8 0f 3d 07 ac c4 3c 68 a0 00 bd a1 54 90 bc
       0.035088513 0.02400781 -0.031402975 -0.01761848
0000d0 b2 ed ab bc fd c2 b6 3d 4b 6d c0 3d 64 dc 01 be
       -0.020987365 0.0892391 0.09395846 -0.12681729
0000e0 92 62 53 3d c1 c7 59 3c 3f f3 00 3e 1d 0b a2 bd
       0.051607676 0.013292254 0.12592791 -0.07912276
0000f0 cf 79 f3 3c eb 07 b8 bc 43 2a b9 bd 12 b7 ce bd
       0.029721169 -0.022464713 -0.09041264 -0.10093512
000100 47 9d 13 3d 54 06 1a 3e 12 41 01 be 73 f6 7b 3d
       0.036038663 0.15041476 -0.12622479 0.06151433
000110 82 8f ae 3d a9 22 c5 3d 3b 12 a0 3d ea 87 84 3d
       0.08523466 0.096257515 0.07815977 0.06471236
000120 d2 19 b4 bd 81 ae fa 3d 68 bf 13 bd dc ab 52 3d
       -0.08793987 0.12240315 -0.03607121 0.05143343
000130 d9 29 23 bd b4 d6 81 3c e4 6c 78 bd 96 2c 4a 3d
       -0.03983483 0.015849449 -0.06065072 0.049358927
000140 16 c0 c9 3d f3 dd 64 bc cf 16 ba bd 04 09 af 3c
       0.098510906 -0.013968932 -0.09086382 0.021366604
000150 3e d4 8e bd b3 14 26 3d 93 27 7f bc a0 45 02 3d
       -0.06974076 0.040547084 -0.0155734 0.03180468
000160 7a 50 fb 3b 3d 24 99 bc b5 82 22 3d 46 af c5 3d
       0.0076695057 -0.018694038 0.039675433 0.096525714
000170 5e c7 86 3d 00 de 71 3c c3 d9 40 bd d1 c1 c0 bc
       0.06580995 0.014762402 -0.047082674 -0.023529919
000180 c5 2f bf 3c 3b 04 c0 3d db f2 08 bd b7 3d ca bd
       0.023338208 0.09375807 -0.03343473 -0.098750524
000190 8d 65 26 3d 6e f0 dc bb e0 57 a1 3b 6c d4 d1 bc
       0.04062419 -0.0067425286 0.0049238056 -0.025613986
0001a0 7e a2 29 bd be 5e a7 bd 33 d0 05 bd 51 eb 96 bd
       -0.04141473 -0.081723675 -0.032669257 -0.07369102
0001b0 c6 47 b7 3d 99 e3 9e bd 5f 9c 2b be 86 a4 f6 bb
       0.089492366 -0.077582546 -0.1675887 -0.007526937
0001c0 28 63 0e 3d bc e2 6e bd 8e b2 88 bd c8 21 bc bc
       0.03476253 -0.0583217 -0.066746816 -0.022965327
0001d0 0f 63 c4 bc ef 4c f2 3d ac 53 cd 3c e6 6c b2 bd
       -0.023973016 0.1183108 0.025064312 -0.08712177
0001e0 d6 7c 04 3c e2 38 02 be 13 5d 69 bb c9 ab b1 bd
       0.008086404 -0.12717012 -0.0035608455 -0.086753435
0001f0 bf fe 2f bd 1d 3a ae bc ce 3e 4e 3d f5 52 f9 3d
       -0.042967554 -0.021267945 0.050352864 0.12174026

layers.2.weight f4 [64, 128]
000000 f4 95 78 3d 22 42 82 3d 6a c1 58 3d 72 fd 81 3d
       0.06068988 0.0636027 0.05291883 0.06347169
000010 18 6b a0 bd e0 42 f8 3d 27 d4 e3 bd d7 95 a7 3d
       -0.078329265 0.121221304 -0.11124449 0.081828766
000020 e8 f1 83 3d 8f f5 1a bd 92 b5 cd bd 05 f2 87 bc
       0.06442624 -0.03783184 -0.100443974 -0.016594896
000030 39 65 63 bd 6f 4a ce bd 54 a4 a4 3d 93 c1 b9 ba
       -0.055516455 -0.10072791 0.080391556 -0.001417207
000040 e1 cc bd 3d 06 de 74 bd 83 77 17 bc e6 0c f2 3c
       0.09267593 -0.05978205 -0.009244802 0.029547166
000050 f1 f4 0c 3e f1 ec 3a bc 73 2f c3 bc 09 7a 2a 3d
       0.13765313 -0.01140903 -0.023826336 0.041620288
000060 e4 00 90 bd 4d 84 98 bd ce 0c 84 bc ac 4f 7f bc
       -0.0703142 -0.07447109 -0.016119387 -0.01558296
000070 89 8c 75 bc d8 bd f1 3a cf 0f 9d 3d ef 75 ea bd
       -0.0149871195 0.0018443419 0.07669031 -0.11448275
000080 81 54 e2 3d a7 54 bf 3d 62 39 ac 3d f8 47 b0 bd
       0.11051274 0.09342318 0.084093824 -0.08607477
000090 0d 83 aa 3d 84 88 f4 bd e9 67 d3 3d f3 57 7d 3d
       0.08325777 -0.11940101 0.10322554 0.061851453
0000a0 ce 8b b0 3b 41 02 c0 3c 3c b7 00 3e 2a 5d 87 bd
       0.00538776 0.023438575 0.12569898 -0.066095665
0000b0 e0 8f 84 bd c5 73 6e bd 16 0e b5 bd e4 78 97 3d
       -0.064727545 -0.058215875 -0.08840577 0.07396105
0000c0 7c b3 18 bd 69 54 11 3d 30 82 03 bd e6 94 f7 3c
       -0.037280545 0.03548089 -0.03210658 0.030222367
0000d0 f9 3a 73 3b 9c 2f 28 bb 37 fc 04 3e c9 0d 86 3d
       0.0037114008 -0.0025663143 0.12986837 0.06545598
0000e0 f3 dd 9d bd 6a 5f 6f bd fb 56 4b 3d 6b e5 00 be
       -0.07708349 -0.058440603 0.049643498 -0.12587516
0000f0 ca 22 9e 3c f2 24 e2 3c e3 34 28 bd a0 c0 05 be
       0.019303698 0.027605508 -0.04106606 -0.13061762
000100 57 0e 78 3d 44 60 aa 3c ab c4 cf bd 2c 66 3d 3c
       0.06056055 0.020797856 -0.10144933 0.011560004
000110 a2 18 8b 3c f1 df 98 3c 1d f5 9d 3c 15 53 0b be
       0.01697952 0.018661471 0.019281918 -0.13605912
000120 bf aa ab bd b8 f3 95 3d 72 5e 24 bd 9c 3e f1 3d
       -0.083821766 0.07321876 -0.040129133 0.1177952
000130 16 c0 a2 bc 7a a9 85 3c 89 53 11 3d 6a f9 85 3d
       -0.019866984 0.016316164 0.035480056 0.065417126
000140 91 22 89 3d b7 1c 18 3d 92 67 a3 3d a2 9d df bc
       0.06696046 0.03713676 0.07978739 -0.027296845
000150 7c 08 10 bd e4 a2 fe 39 64 8e 37 bd 40 64 a1 bc
       -0.03516434 0.00048568018 -0.04481353 -0.019701123
000160 1f 64 db 3d ba f7 95 bd 61 59 3f bd 6c c3 ae 3d
       0.10712456 -0.07322641 -0.046716098 0.085333675
000170 d5 bc 10 3d 94 ef be 3c da 6e 12 3e 8b 5b 5f 3d
       0.035336334 0.0233076 0.14300099 0.05453066
000180 ec 94 52 bd 6c ce 44 3d c1 e5 fc 3d 4b 4b e0 bc
       -0.051411554 0.04804842 0.123485096 -0.027379652
000190 c0 e8 cf bd b8 7f f8 3c 08 cc cf 3d 1c 4a c9 3d
       -0.101518154 0.030334339 0.10146338 0.09828588
0001a0 aa 65 46 3d 77 fe ed bc 03 01 02 3e e2 f7 cc bd
       0.0484368 -0.029052002 0.12695698 -0.100082174
0001b0 be 0d 34 3c fb 67 7b bd 67 a7 2a 3d d7 63 d1 bd
       0.0109896045 -0.06137846 0.041663554 -0.10224121
0001c0 6a 8e d8 3d 3e 74 ff bd 86 5e e5 bd db 63 b7 bd
       0.10574038 -0.12473343 -0.111996695 -0.08954593
0001d0 d9 2c 7a bd 3b 6f cd 3b a4 5e 90 3d ed 4b f8 bc
       -0.061077926 0.006269363 0.07049301 -0.030309642
0001e0 50 7a e1 3c a7 99 f5 bd ed 0f 64 3a 53 d7 20 3d
       0.027524143 -0.119921975 0.0008699883 0.03926785
0001f0 bc 62 3b bd 5e 31 a2 bd 57 1d 90 bd ab 37 b5 3d
       -0.045748457 -0.07919572 -0.07036846 0.088485084
000200 9d 21 cf bd 84 55 17 3a b5 62 0f 3d 2b 3e 00 3d
       -0.10113833 0.00057729357 0.035006244 0.031309288
000210 ce 93 f6 3d 27 52 f9 bd a7 3b 0c 3e 12 3a c5 bd
       0.1203991 -0.121738724 0.1369463 -0.09630217
000220 3b c6 6e bd 74 07 24 bd 83 bd 15 3e b5 de b5 3d
       -0.058294516 -0.04004617 0.14623074 0.088803686
000230 1e 44 7a 3d fa 70 2e 3e fb c1 b7 bd a0 68 99 bc
       0.061100118 0.17035285 -0.08972546 -0.018726647
000240 10 2b b9 bd 59 1a 58 bb d6 d6 01 3d d0 9b 8e 3d
       -0.09041417 -0.0032974689 0.031699024 0.069633126
000250 ad a2 74 bd c4 1a 81 ba de e5 f6 bd 2d 77 18 3c
       -0.059725452 -0.0009849896 -0.120555624 0.0093057575
000260 44 2b 0b bc b6 14 da 3d e6 37 d0 bc 6e ba ec 3c
       -0.008494202 0.106484815 -0.02541728 0.02889749
000270 1c cc 82 bd 89 6b 52 ba ad 80 45 bd f2 b5 08 3d
       -0.06386587 -0.0008026888 -0.048218418 0.03337664
000280 dd 4b 03 3d 66 a8 45 3d 12 b9 36 bd f4 1f 95 3d
       0.03205477 0.0482563 -0.04461009 0.07281485
000290 ed e5 d7 bd 20 16 87 3d 8b 26 b8 bd 0e 3f 17 3d
       -0.10541902 0.06596017 -0.089917265 0.036925368
0002a0 93 df f5 bc 10 d0 bc 3d c3 35 f1 bd 41 01 ab bd
       -0.030013835 0.09219372 -0.11777832 -0.083498485
0002b0 0e 11 1d 3d 44 28 12 3e 7c 3d ae 3d 6c cf b8 3d
       0.038346343 0.14273173 0.08507821 0.090239376
0002c0 3c e6 ec 3b 7a b7 c5 bd 77 42 53 bb 10 d4 55 bd
       0.0072295945 -0.09654136 -0.003223566 -0.05220419
0002d0 33 50 b3 3d d4 a4 b3 3d 69 4a 3e bd 84 73 c2 ba
       0.08755531 0.08771673 -0.04645768 -0.0014835452
0002e0 c2 0d 3a 3e e0 83 57 3d 48 b5 e7 bd 42 08 b5 3c
       0.1816931 0.052616 -0.113138735 0.022098664
0002f0 ea 81 14 be 14 01 92 3d 5a fd b2 3c 6b 6a a4 3d
       -0.14502683 0.07129112 0.021849323 0.0802811
000300 76 af 89 bd ae 71 de bd ae 4a 93 3d fa 54 a9 bd
       -0.0672292 -0.108615264 0.071919784 -0.08268161
000310 d0 41 bc bd bc 75 4b bd b2 8c bf bc 7c ea 44 3b
       -0.0919224 -0.049672827 -0.023382518 0.003004699
000320 3c 5c a1 3d 79 0b 78 3d 2e a7 8e bc 23 51 aa bd
       0.078789204 0.060557816 -0.017413702 -0.08316257
000330 67 c0 85 3d 86 01 86 bd e4 38 a4 bd 76 29 3b bd
       0.065308385 -0.06543259 -0.080186635 -0.045693837
000340 b2 d7 e2 bd e4 5e 08 bd bd 30 d7 bc e7 eb ad bb
       -0.11076297 -0.03329362 -0.026268357 -0.0053076628
000350 88 0a 8e 3d 29 23 ef 3d 89 e6 ba bd 1d c6 0a 3d
       0.069356024 0.11676628 -0.09126002 0.03388034
000360 5e 9a be bd 7c 9c 53 3d 55 e7 bb 3c ea 8c 7e 3c
       -0.09306787 0.051662907 0.022937456 0.015536526
000370 d1 5c ef bd c2 18 e5 bc d6 f2 14 be 40 6f c9 bc
       -0.11687625 -0.027965907 -0.1454576 -0.024589181
000380 7f 0c f7 3d f8 3a e5 bc d2 0f b7 bd 92 6f aa 3d
       0.1206293 -0.02798222 -0.08938564 0.083220616
000390 85 0f 42 3d 18 2b 43 3b 80 9d cf bc 15 a5 8c bc
       0.04737808 0.0029780325 -0.025343657 -0.017168561
0003a0 35 75 02 be 22 72 ff 3d 8c 5f a1 bd ef bc a7 3d
       -0.12740023 0.12472941 -0.07879552 0.08190333
0003b0 36 48 a3 bd ed 49 fc 3d 34 29 66 bc f2 0d 07 3e
       -0.079727575 0.12318788 -0.0140479095 0.13188913
0003c0 19 da 80 bd c1 0b 1f bd 99 cd 8a 3c 3a 2c bb 3d
       -0.06291599 -0.03882957 0.01694374 0.09139295
0003d0 0a a2 9a 3d f5 b1 91 bd 91 28 05 3c 60 7d d2 3c
       0.07550438 -0.07114021 0.008127348 0.02569455
0003e0 e3 bb 58 bc 32 1e a0 3d c8 e3 c7 3d 22 3c aa 3c
       -0.013228389 0.07818259 0.09760243 0.020780627
0003f0 f7 9d bf 3c 0f 7c 86 3d b4 7b 0e bc b6 85 03 3d
       0.023390753 0.06566631 -0.008696485 0.03210994

layers.2.bias f4 [64]
000000 53 2a 91 3d 04 73 b4 3c ac e5 30 3d df 5e 8c 3d
       0.07088151 0.0220275 0.043187782 0.06854033
000010 8c 1c 7b bd 1e d3 eb 3d 9c 93 33 3d 32 91 cd bc
       -0.06130652 0.11514877 0.043841943 -0.025093649
000020 30 63 d2 3d 59 bc f2 bd 8a 28 53 bc 58 ab 2a bc
       0.10272825 -0.11852331 -0.012888083 -0.010416828
000030 50 06 03 be b0 a9 91 3d bc 02 59 3a 98 e8 d8 bd
       -0.12795377 0.071124434 0.00082783005 -0.10591239
000040 0d 50 7b bc 41 ea 91 3d d0 57 54 3d c3 ee 8c 3d
       -0.01533891 0.071247585 0.051841557 0.06881478
000050 b1 51 b8 3d f4 c2 a8 3d cc 8d 6f 3b 83 43 7c 3d
       0.089999564 0.08240309 0.0036553023 0.06158782
000060 81 31 aa bd 99 f1 f9 bc 86 06 2d 3c 20 13 9d 3c
       -0.08310223 -0.03051071 0.010560637 0.019174159
000070 3d 68 6c bd 8f 49 ce 3c b9 bb 2a 3d a6 5c 9c bd
       -0.057716597 0.02518156 0.041682933 -0.07634859
000080 09 65 13 3c 25 0d 5f 3d f7 2a f1 bd 87 ef 60 bd
       0.008996257 0.054455895 -0.11775773 -0.05491593
000090 bf 38 1b 3d 75 63 fc 3c 21 5f 8b 3d 4a 9d 18 bb
       0.037895914 0.030809144 0.06805254 -0.002328711
0000a0 de f7 09 bd d2 47 c7 3d 1b 6b ed 3c af 64 cc bd
       -0.03368365 0.097304955 0.028981736 -0.09980141
0000b0 be 3e 57 3c b7 20 e1 3d d3 07 66 3d 14 40 8c 3d
       0.0131375175 0.10992568 0.056159806 0.068481594
0000c0 72 2e 49 3d 01 22 15 3d c7 7b c0 3d 79 f5 a6 bb
       0.04911656 0.03640938 0.09398609 -0.0050951806
0000d0 86 35 95 3d 1a 25 22 bd 08 e5 b5 3d f0 c2 0d 3d
       0.072855994 -0.039586164 0.08881575 0.034609735
0000e0 15 bf 06 3e e9 3f a8 bc 5b a0 d9 3c 34 06 6b bc
       0.1315883 -0.020538287 0.026565721 -0.014344741
0000f0 a9 9f f3 3c d3 fd 35 3d 1a df 4e bc 0d 10 ae bd
       0.029739218 0.04443152 -0.012626434 -0.08499155

readout.weight f4 [1, 64]
000000 ae 1a 84 bf 34 4f 69 3f 07 ba 04 bf 57 98 65 bf
       -1.0320642 0.9113648 -0.51846355 -0.8968558
000010 a7 07 6e 3f d1 a7 44 bf 68 e9 3f 3f 5e 48 60 bf
       0.92980427 -0.7681857 0.74965525 -0.87610424
000020 cb bc 0c bf ce 7e 05 3f 19 d9 33 bf fc 29 07 bf
       -0.54975575 0.52146614 -0.7025314 -0.5279844
000030 5c 7e 6d 3f 79 b1 2f bf f6 19 81 bf fb 60 27 3f
       0.92770934 -0.68630177 -1.0086048 0.65382355
000040 fe cd 77 3f be 7d 07 3f 60 8a 0f 3f 60 09 e7 be
       0.96798694 0.5292624 0.5607052 -0.4512434
000050 8d 51 69 bf 4b d5 3a bf b0 f3 81 3f 42 af 19 bf
       -0.9114006 -0.7298171 1.0152493 -0.6003305
000060 c2 0d 49 3f 3a 4f c5 3e d4 40 45 bf 4e e4 03 3f
       0.7853662 0.38537008 -0.77052045 0.5152024
000070 5c 5c 5f 3f 1c 00 6a 3f f8 09 10 3f cd 74 0c 3f
       0.87250304 0.91406417 0.5626521 0.54865724
000080 b4 72 fa 3e 16 76 57 bf 8d b1 e4 3e 27 45 d9 be
       0.48915637 -0.8416456 0.4466671 -0.42435572
000090 f2 cb 13 bf 32 da bf 3e 9f d7 06 bf c0 d7 f2 be
       -0.5773307 0.37471157 -0.5267276 -0.4743023
0000a0 c4 74 f1 3e 9b 6f 5b bf 1d 38 38 bf d6 3b 3e 3f
       0.47159398 -0.8571717 -0.7196062 0.7431005
0000b0 a6 cd 36 bf 15 d3 ed be 47 c8 e1 be 5d c1 09 bf
       -0.71407545 -0.46450105 -0.44098112 -0.53810674
0000c0 74 84 72 bf f5 83 23 3f 1c 09 04 bf c3 59 1a 3f
       -0.9473336 0.63873225 -0.515764 0.60293216
0000d0 19 d9 29 bf e9 09 6f 3f dd d8 03 bf 81 6d 63 bf
       -0.6634689 0.93374497 -0.5150278 -0.88838965
0000e0 1e 69 39 bf 1c 05 73 3f c3 75 18 3f 90 d8 28 3f
       -0.7242602 0.9492967 0.5955469 0.6595545
0000f0 c9 ce f5 be 61 aa 42 bf 03 36 83 bf 58 34 e5 3e
       -0.48009327 -0.7604123 -1.0250858 0.44766498

layers.0.weight f4 [128, 8]
000000 cb 6d 01 3e 5c e5 b7 bd 92 a7 7a 3e 0d 32 28 bf
       0.12639539 -0.08979294 0.24477986 -0.6570137
000010 0c d7 38 bf d0 69 cc be c6 d4 1d be 21 92 32 be
       -0.72203135 -0.3992448 -0.15413198 -0.17438556
000020 6f fa 2f 3e 22 fe 0a 3e bc 9b bf bd 6e 73 09 3f
       0.17185377 0.13573506 -0.09355876 0.53691757
000030 8b 92 0e 3e 46 a0 61 3e 85 8c 28 be e3 1b 53 be
       0.13923089 0.22033796 -0.16459854 -0.20616107
000040 71 85 ca 3e c6 3a c8 3b 5a 75 84 3e 9b 69 2e be
       0.39554933 0.006110522 0.25870782 -0.17032473
000050 c4 ba 0e 3f 45 08 5c 3d 81 d7 c1 be 58 80 d3 bd
       0.5575373 0.053718824 -0.3785973 -0.10327214
000060 62 ef f8 3d 87 f9 0b 3e c2 55 2b 3e f1 84 a1 3c
       0.12155034 0.13669406 0.16731933 0.019716712
000070 b8 13 3c bf e5 0e 87 3d f8 1d 38 be dd 82 2d be
       -0.7346759 0.06594638 -0.17980182 -0.16944452
000080 20 60 6c be 44 05 62 3e 9e 41 c1 3d db fd 69 be
       -0.23083544 0.22072321 0.094363436 -0.22850744
000090 b2 7a f3 be 5c 28 02 bd ff d9 e9 3d 49 a4 1d 3c
       -0.47554547 -0.03177677 0.114185326 0.009621688
0000a0 84 62 3f 3e cb de 6e 3d f1 54 bb 3e cc f8 2b bf
       0.18689924 0.05831794 0.36588243 -0.6717651
0000b0 7a b2 9d be 52 85 68 be 6d bb cd bd ee 25 82 be
       -0.3080023 -0.22707108 -0.10045514 -0.25419563
0000c0 56 55 02 be b8 40 30 3e 74 5d ca 3e 7a 0e 3c bf
       -0.12727866 0.17212188 0.39524424 -0.7345959
0000d0 d3 f8 a2 be 0d 42 a1 3e f9 54 11 be 76 25 b6 3e
       -0.31830463 0.31495705 -0.14192571 0.35575455
0000e0 09 c6 76 3d 1e dd 94 3e 85 5c ae 3b 9d c8 1c bf
       0.060247455 0.2907495 0.005321088 -0.6124361
0000f0 14 e7 b0 be fa 3b b3 be df 66 b8 3d bb 6a 35 bd
       -0.345513 -0.35006696 0.09003996 -0.04429124
000100 4a 63 c8 3e 02 64 16 bd 21 9c 22 bd ae a7 2b be
       0.39138252 -0.03671647 -0.039699677 -0.16763183
000110 0f 6e 5b 3f 62 7c 5d 3e e2 63 ba 3d 83 9c 28 3e
       0.8571481 0.2162948 0.091010824 0.16465954
000120 45 7b ae 3d 88 95 8a 3e 0b 20 9d 3e 11 68 4e bf
       0.085196055 0.27067208 0.3068851 -0.8062754
000130 05 b1 05 bf 5c 38 90 3e 1b ea 8e 3e a8 f4 74 3e
       -0.52223235 0.28168 0.27912983 0.23921454
000140 12 a2 9b be a9 01 73 3e 5f ed 34 3e 99 92 84 3f
       -0.30397087 0.23731102 0.17668675 1.0357238
000150 ce 97 3b 3f 1f db 28 3e 59 cc ea 3d a9 68 5f be
       0.7327851 0.16489838 0.114647575 -0.21817268
000160 da 6a 93 3e cd 6d a9 3e 77 b0 77 3e 94 fd 38 3f
       0.2879246 0.33091584 0.2418841 0.7226193
000170 0d 4a b9 3e 1c 48 7a bd 6f 2e 9b 3e 7d 89 a6 3e
       0.3618931 -0.061103925 0.30308864 0.3252677
000180 9e 2d 49 3e e6 2c b0 3e b8 d7 56 be ba 7e 6e be
       0.19646308 0.34409255 -0.20980728 -0.2329053
000190 68 41 23 3f dd 8a 50 be 4e f3 64 bd 43 41 23 bd
       0.63771677 -0.20365472 -0.055896096 -0.03985716
0001a0 75 bc 90 be 01 d9 41 3e b4 b5 92 bb 5e 5d 8e 3f
       -0.2826878 0.18930437 -0.004477227 1.1122243
0001b0 88 10 a7 3e 18 56 01 3f 66 b1 ad be dc f2 89 3e
       0.326298 0.50521994 -0.33924407 0.269431
0001c0 f9 cf e0 3e a6 b6 1b 3e b0 50 9d 3e 26 89 02 bf
       0.4390867 0.15206394 0.30725622 -0.5099052
0001d0 a5 d4 e4 3e 67 d4 b3 be f2 b4 18 3e d4 17 87 be
       0.44693485 -0.35122988 0.14912775 -0.26385367
0001e0 5e 19 67 3d cb c9 ef 3d cc a2 11 3f cb 3a 37 bf
       0.056420676 0.11708411 0.56889033 -0.71574086
0001f0 f9 36 16 3f e7 45 4d bd 6d 57 69 3e 77 ce 85 3e
       0.5867763 -0.050115492 0.22787257 0.26134083
000200 0a 30 e4 3c 0d 88 ad 3e 24 bc 17 3e b5 30 b0 3e
       0.027854938 0.3389286 0.14817864 0.3441216
000210 96 08 36 3f be c6 a3 bc cc 9d 35 be 51 74 10 3e
       0.7110685 -0.019992229 -0.17735976 0.14106871
000220 ec c3 05 be ee 95 29 3e 23 6d 85 3e c5 11 a3 3f
       -0.1306302 0.165611 0.26059827 1.2739798
000230 ce b2 1f bf ae ce 1f 3c 94 77 52 3e 16 90 9f 3e
       -0.6238221 0.009753866 0.20553428 0.31164616
000240 c2 a6 c5 3d e7 fa 3d 3e 46 ce d8 3d 1f 64 76 3f
       0.09650947 0.18552743 0.105862185 0.9624652
000250 d9 07 8d bf be 12 ac 3e d0 0d f6 bc c1 66 2d 3d
       -1.101802 0.3360805 -0.030035883 0.042334322
000260 cc 33 9a be a5 84 95 3e 93 2b 0d 3f a7 7f 61 bf
       -0.30117643 0.29202762 0.55144614 -0.88085407
000270 ee 43 f6 be 3a d2 2f 3e bc 1e bd bd 14 3f 81 3e
       -0.480987 0.17170039 -0.09234378 0.25243437
000280 da 09 6c bc 52 7d b8 bb 7e 4f 15 3f 79 dd 04 bf
       -0.014406646 -0.0056301737 0.5832442 -0.5190044
000290 e8 4a 9c 3e b4 66 a3 3e 76 c2 9e be b9 e0 71 3e
       0.305259 0.31914294 -0.31007737 0.23620881
0002a0 77 f0 9d 3e 4f 5e 62 3d f3 93 92 3e 24 d4 49 be
       0.30847523 0.05526572 0.286285 -0.19709831
0002b0 b6 fa 51 be f8 ca 55 be 7c fb 70 be 17 41 bd bd
       -0.20505795 -0.20878208 -0.23533434 -0.092409305
0002c0 50 4d 04 3f 95 51 95 3e f4 7d 26 3e a6 24 66 be
       0.5168047 0.29163805 0.16258985 -0.22474918
0002d0 1b 6d 8b bf 97 08 80 be bf c5 bd bd 20 74 ca 3d
       -1.0892671 -0.25006554 -0.09266233 0.0988543
0002e0 37 ca d3 bd e4 94 f5 bd 6d 72 a3 be 60 c3 bb 3e
       -0.10341304 -0.11991289 -0.31923237 0.36672497
0002f0 f9 b2 a1 be b7 82 c0 3d 6e a0 af 3e 50 62 0c be
       -0.31581858 0.09399932 0.34302086 -0.13709378
000300 90 ca ba 3e f0 b0 2c 3e 92 9a f0 3e 4f 26 02 bf
       0.36482668 0.16864371 0.46992928 -0.50839704
000310 e3 65 79 be 8d a8 e7 3c d8 fa 5b 3e e7 19 91 be
       -0.24355273 0.028278613 0.21482408 -0.28340074
000320 06 40 b7 3d e5 ca 1a be 4e 36 c6 bd 62 bb 71 3e
       0.089477584 -0.1511646 -0.096783265 0.23606637
000330 01 15 17 3f b0 16 d9 3d 7b 52 72 bd a1 ad 69 be
       0.59016424 0.106000304 -0.05916069 -0.2282014
000340 75 a0 bf 3d c2 32 61 3d 87 ca 29 3f 29 e8 7b be
       0.093567766 0.054980047 0.6632466 -0.24600281
000350 f9 9d 82 3f 4d b1 37 3e fb 1d 51 be 8d 7a 07 3e
       1.020446 0.17938729 -0.20421593 0.13230343
000360 f6 8f ce bd 67 e6 ec 3d 05 27 5c be a1 38 b3 3f
       -0.10086052 0.11567383 -0.2149926 1.4001657
000370 c5 74 98 be 9a d3 a3 3e bc f2 31 be 76 b5 0f 3e
       -0.29776588 0.31997377 -0.17377752 0.14034066
000380 de 5d 87 be f5 ec 1c 3e 96 ee d1 3e fa ca a6 3d
       -0.26438802 0.15324767 0.4100234 0.081441835
000390 5c 44 53 bf ff 65 93 3f 0e 41 38 3d 1c dd 2e 3c
       -0.82526183 1.1515502 0.044983916 0.010672834
0003a0 f5 eb b2 be ca 08 9c 3d 69 89 c0 be 34 77 63 be
       -0.34945646 0.07618864 -0.37604836 -0.22213441
0003b0 07 85 87 be 28 0c 81 be d2 8e 74 bd cb 4b 38 3e
       -0.2646868 -0.25204587 -0.059706517 0.17997663
0003c0 a7 e2 e7 3d 6f c1 b1 3e 15 a8 e1 3c 52 bd 04 bf
       0.113225274 0.3471789 0.027545968 -0.5185138
0003d0 47 4b 6c bd 29 39 ca be 1e 63 75 3e 24 9f 33 bd
       -0.057688978 -0.39496735 0.23963591 -0.04385294
0003e0 a5 2d 94 3d d2 bf 98 bd fc ad 99 3e e5 7b 90 3f
       0.072352685 -0.07458462 0.30015552 1.128781
0003f0 3e 76 0c 3f bd 8b 1b be 25 b4 5f 3e a8 b4 2a be
       0.54867923 -0.15190025 0.21846063 -0.16670477

layers.0.bias f4 [128]
000000 ac 72 00 3e 1d cd 34 3e c0 2b e1 3d eb 49 4c 3e
       0.12543744 0.1765637 0.10994673 0.19950072
000010 17 de 26 be 4c a8 9c 3e cc 04 14 be 29 db 42 3d
       -0.16295658 0.3059715 -0.14454955 0.04757229
000020 91 9d 08 3d 40 32 ed bd 6a 8e fc 3d 46 36 34 be
       0.033353392 -0.1158185 0.12331851 -0.17598829
000030 c2 79 2b be e9 ce 03 3e 50 1d 50 bd 37 6b 91 bd
       -0.16745666 0.12871899 -0.050809205 -0.07100528
000040 d1 fe 85 be 46 be 64 be 9a 4a 61 be f9 41 09 be
       -0.26170972 -0.22338209 -0.22001114 -0.13404073
000050 98 ef e3 3d b6 e7 85 3e 51 ce 52 be 44 23 98 3e
       0.11129683 0.26153344 -0.20586516 0.29714406
000060 77 76 52 3e b9 ea b7 3e 95 d6 82 be 0b 40 7d 3a
       0.20553003 0.35921267 -0.25554338 0.0009660727
000070 b4 58 a1 b9 d6 f3 8a bd 58 bd 23 be e8 da 88 3e
       -0.00030774402 -0.06784789 -0.15990198 0.26729512
000080 d7 b7 25 3d 1a 76 04 bc 24 ca 82 be 55 68 3b be
       0.040458526 -0.008084798 -0.25544846 -0.18301518
000090 64 55 93 3e c2 38 41 3e af bd 14 3e 07 bb ea 3c
       0.28776085 0.18869308 0.14525484 0.028653635
0000a0 da e0 18 3e 37 2f ff bd 4b 0e cf bd 16 a6 94 3e
       0.14929524 -0.124601774 -0.10110148 0.29032964
0000b0 c0 44 11 bc 7b 13 5d 3e 5c 90 2a be ff 57 b3 bd
       -0.008866489 0.21589462 -0.16656631 -0.08757018
0000c0 0e f9 bc 3d 24 ff 7e 3d 2c 1e c8 bd b8 69 40 3e
       0.09227191 0.06225504 -0.0977138 0.18790329
0000d0 5c a7 a2 3e e6 ff 29 3e ed 9e 46 3e ea 15 d6 3d
       0.3176831 0.16601524 0.19396563 0.104533985
0000e0 e1 96 03 3e 75 69 46 be 83 66 e2 3c 3e 05 c6 3e
       0.12850524 -0.19376166 0.027636772 0.38675874
0000f0 08 c2 05 3d 0b 54 03 3e 5d 6d 94 bc 31 51 13 3c
       0.032655746 0.12825029 -0.018118555 0.0089915255
000100 2b 1f 7a 3e 32 9b 00 3e 6d a6 0f be 63 e6 fb 3c
       0.24425952 0.12559202 -0.1402833 0.030749505
000110 21 dc 37 be 2c 03 81 bd aa 50 26 3e a3 f7 11 3e
       -0.17955066 -0.06299433 0.16241708 0.14254622
000120 0c 50 b1 3d 05 e8 b1 bd f6 bc 1c bd d8 1c 30 3d
       0.08657846 -0.08686832 -0.038266145 0.042996258
000130 1a 2a c4 3e 28 47 43 bd 5f b9 04 bb b7 da 49 be
       0.3831337 -0.04767528 -0.0020252091 -0.1971234
000140 6f 3f 83 bc f9 93 9a be 22 1f 77 3d 11 03 33 3e
       -0.016021458 -0.3019102 0.060332425 0.17481638
000150 b2 f0 7e be 1f 6e 91 be 1c da df bd a5 4b b5 3e
       -0.24896505 -0.28404328 -0.10930273 0.35409275
000160 f0 15 a3 be 11 bb 28 be 87 e9 28 be 0f 21 82 3e
       -0.31852674 -0.1647761 -0.16495334 0.25415847
000170 da 99 84 3e a7 75 8f 3e fd 45 59 3e 39 95 06 3e
       0.2589863 0.2801945 0.21218105 0.13142861
000180 7c 7f 28 be 7e 50 5b 3e 62 4f 16 3e 6a a8 b9 3c
       -0.16454881 0.21417424 0.1467872 0.022663314
000190 b0 8e 1c 3e 7b 9a 93 be 4d 05 ce 3d f4 6a e3 bd
       0.15288806 -0.28828797 0.10059605 -0.11104384
0001a0 d4 d0 89 be 20 cb 89 bd b1 5e 46 be 53 8f 42 bd
       -0.26917136 -0.06728196 -0.1937206 -0.047499966
0001b0 90 75 13 be 21 56 51 be f5 e9 69 3e 74 7d a6 be
       -0.14400315 -0.20443012 0.22843154 -0.32517588
0001c0 2a af 3c bc df 3c 47 3e 08 0d 7c be c8 b5 a9 bd
       -0.011516372 0.19456814 -0.24614346 -0.08286625
0001d0 95 10 52 3c e1 c0 f7 bd 36 4c 0a be 75 b0 af 3b
       0.012821336 -0.120973356 -0.13505635 0.0053616115
0001e0 11 d2 33 3e 3f 4c e0 3e 97 07 2b 3e 31 bb ab 3d
       0.17560603 0.4380817 0.16702114 0.08385313
0001f0 d3 53 9f 3e 97 a8 85 3e ca 4a a9 3e 64 46 c5 bd
       0.3111864 0.26105186 0.33064872 -0.096325666

layers.1.weight f4 [128, 128]
000000 70 63 a1 be 83 0d c2 bd 22 3c ca 3d 51 bd 98 bd
       -0.31521177 -0.094752334 0.09874751 -0.07457984
000010 55 2b c3 bd 7a 30 78 3d 08 9f d8 3d c3 fd ee 3c
       -0.09529749 0.060593106 0.10577208 0.029173737
000020 80 dd 3a 3d 22 7e 2c bd b1 b5 de 3d 86 68 1a 3d
       0.045621395 -0.042112477 0.10874499 0.037697338
000030 97 b2 c0 3d 3d 7c 33 3c 69 b8 37 3d b2 6d 96 3e
       0.09409063 0.010954914 0.0448536 0.29380566
000040 76 78 f5 3c fb 05 f2 be 8d d1 d0 be fd 69 27 3e
       0.029964667 -0.47270188 -0.40784875 0.16349025
000050 f1 a3 6d 3e 63 45 3e 3d 67 ee 1f be 80 af 41 be
       0.2320707 0.04645289 -0.15618287 -0.18914604
000060 85 58 15 bd 96 70 b2 bc 50 21 ae 3e 12 e0 7f be
       -0.036461372 -0.0217822 0.3400979 -0.2498782
000070 f9 20 dd bd 2d 30 d2 bd d2 92 2b 3c a6 31 9c bd
       -0.10797305 -0.10263095 0.010472016 -0.07626657
000080 c2 91 28 bf d5 a8 20 be e5 e1 51 be c5 a7 a5 be
       -0.6584741 -0.15689404 -0.20496328 -0.3235456
000090 8d 87 d3 3c 8b 7a 1d 3e 5a 2b 8c be b2 7a f0 3d
       0.025821472 0.15378778 -0.27376825 0.11742152
0000a0 d3 19 21 3c 82 6b 14 be 80 e5 1d be 46 79 48 3c
       0.009832817 -0.14494136 -0.15419579 0.012235945
0000b0 67 e5 b0 be 4b 1c 01 3e 61 80 cb 3d ac a5 5c be
       -0.3455002 0.12608449 0.09936596 -0.21547574
0000c0 7c 89 a0 be 10 e7 bf bd f1 99 de bb 45 b1 aa bd
       -0.31354892 -0.093702435 -0.0067932536 -0.08334593
0000d0 3c fe 82 3d e6 6f 81 be 1c 54 46 3c 0f 17 57 be
       0.063961476 -0.25280684 0.012105014 -0.2100489
0000e0 0a 0d 02 3e 30 ef 8a be 5f af 03 bd c7 94 3d 3d
       0.12700287 -0.2713561 -0.03214967 0.046284463
0000f0 ae c6 84 bd c3 86 fa be be a1 5f 3c 8c c2 e9 3d
       -0.06483208 -0.4893094 0.013649402 0.1141406
000100 71 46 bf bd f5 7a 45 3e 99 b2 25 be e6 d9 38 3b
       -0.093396075 0.19285186 -0.16181411 0.002820605
000110 a5 b0 e9 bd 09 42 d3 bd f4 e7 07 3e 37 1b 4c 3d
       -0.114106454 -0.103153296 0.13272077 0.04983064
000120 26 82 8f bd 20 1a ce bc 80 02 0c be ca 17 64 3e
       -0.07007246 -0.025158942 -0.13672829 0.222747
000130 79 b2 83 3e 15 41 af bc 42 b0 e0 be ac b1 ae 3d
       0.257221 -0.021393338 -0.43884474 0.08529982
000140 2c db 15 bf e4 a2 f0 be dd a6 24 bc 0d 68 a4 3d
       -0.58537555 -0.46999276 -0.010049549 0.080276586
000150 46 c7 b7 bd dd 41 04 3e 04 4e 07 3d b9 2a a3 3c
       -0.08973555 0.1291575 0.033033386 0.019917833
000160 e9 6f 1f bf f0 d1 1f be eb 95 98 bd a7 5b ab 3d
       -0.62280136 -0.15607429 -0.074504696 0.08367091
000170 f1 01 2f 3d 22 a5 cc 3d b7 39 99 3e 8b 66 1c be
       0.04272646 0.09992434 0.29926845 -0.15273492
000180 48 88 35 3c b7 de 9d 3e 06 7a 54 bd 86 e8 e7 be
       0.011079855 0.3083398 -0.051874183 -0.4529459
000190 70 52 30 3d 7a 26 c8 3d 57 66 3a be 2d 93 26 bf
       0.04304737 0.09772964 -0.18203102 -0.6506832
0001a0 69 b3 e4 be 6e 80 00 3e d3 24 ea be f3 d7 44 bd
       -0.4466813 0.12548992 -0.4573122 -0.048057508
0001b0 1b 93 15 bd 8b fc c1 be e2 f0 eb 3d be 5b 40 3e
       -0.036517244 -0.37887987 0.11520554 0.18784997
0001c0 d7 0a 9c bd 7a 86 8e be 6d 05 58 be df 3c 39 be
       -0.07619255 -0.27836972 -0.2109582 -0.18089627
0001d0 1a 4b cb bd 91 85 95 bd c7 8a 9d bc cf 6d a4 bb
       -0.09926434 -0.073008664 -0.019231213 -0.005017973
0001e0 ad 2d a5 3d 93 e9 0b 3e 6a da 54 bd b8 b0 45 3c
       0.080653526 0.1366332 -0.05196611 0.012066059
0001f0 6b 03 31 3d 2c 13 26 be 64 9c 3b bd f8 e1 10 be
       0.04321615 -0.16218251 -0.045803443 -0.141487
000200 ee df 30 bc 5c 71 93 bd cf d9 55 3d f8 22 42 3d
       -0.0107955765 -0.07199356 0.05220967 0.04739663
000210 70 15 a3 3d f5 e3 8c 3d b7 4d 47 3c 97 1b 6f 3d
       0.07963073 0.06879417 0.012164525 0.05837592
000220 9a df a9 3d 17 b1 a6 bd 56 e9 cc 3c fd fe cc ba
       0.08294602 -0.08139246 0.025013607 -0.0015639957
000230 86 35 6f bd bc bc bd bc f0 ff e3 3a 3e 6f 2c bc
       -0.058400653 -0.023161285 0.0017395001 -0.010524569
000240 6e c9 0c bd a0 19 d6 bc 08 9e 95 bc 32 1d e1 3c
       -0.034371786 -0.026135266 -0.018263832 0.027479742
000250 97 bf 3f bd 73 7d 79 3d df 3f a6 bd e1 88 43 3d
       -0.046813574 0.060910653 -0.08117651 0.04773796
000260 f8 33 98 bd 7b 7c fb bb 8f 30 c8 bc d1 94 c7 bc
       -0.07431787 -0.0076747513 -0.024437217 -0.024362953
000270 72 34 87 3a 3f 74 8a bd 4a 7f a4 3d 54 60 aa bc
       0.0010315313 -0.067604534 0.08032091 -0.020797886
000280 56 aa 88 3c ca 86 82 3d 49 cc be bb f8 5f c1 3b
       0.016682785 0.06373365 -0.0058226925 0.005901333
000290 5d db 38 bc ff d8 aa bb 7f aa 79 bc 97 50 b0 bd
       -0.011282769 -0.005213856 -0.015238403 -0.08609121
0002a0 ba 6f c3 3c 3e ee 6d 3b de c0 ef 3b cb f8 62 3a
       0.023856986 0.0036305333 0.0073166927 0.0008658289
0002b0 d3 98 4a bc 3a 37 80 bd 22 b5 9b bc df 2e a8 bd
       -0.012365538 -0.06260534 -0.01900727 -0.08212065
0002c0 0a 4e 98 3d 6e 4d 25 bd f5 e5 04 3c e8 ea a1 bc
       0.0743676 -0.040357046 0.008111467 -0.019765332
0002d0 0b 26 b4 bd 1e 47 35 3d cc 7d fb 3a 96 98 34 3b
       -0.087963186 0.044257276 0.0019187271 0.0027556769
0002e0 12 15 bb 3c 04 58 f2 bb 10 01 ab bd 93 c6 aa bd
       0.022837196 -0.007395746 -0.08349812 -0.08338656
0002f0 00 b0 a9 3d 00 ca 39 bd 74 51 06 bd 04 94 83 3c
       0.082855225 -0.045358658 -0.032792524 0.01606179
000300 97 fc 32 bc 51 22 40 bd 0a 66 90 3d 14 37 9a 3d
       -0.01092448 -0.046907727 0.070507124 0.075300366
000310 69 32 4f bd 23 ab 79 bd 03 73 18 bc 18 d7 b6 bd
       -0.050585184 -0.060954224 -0.009304765 -0.089277446
000320 2a ca 90 bd 77 ad 00 bd 60 12 af bd 90 11 d3 bc
       -0.0706981 -0.03141543 -0.08548427 -0.02576521
000330 30 6c 81 3d 95 72 1e bd ab 9d 97 3d 97 9c a1 3d
       0.06319463 -0.038683493 0.0740312 0.07891195
000340 ad 4a b0 bd e8 f2 84 3d f5 42 86 3b e4 30 5e bd
       -0.08607993 0.06491643 0.0040973374 -0.054245844
000350 34 58 d2 bc 14 7d f2 3c e5 3b 90 bd ba 9c a9 bd
       -0.025676824 0.029600658 -0.07042674 -0.08281846
000360 58 2c 06 bd 55 5a fb bc 8b fa 7a bb 28 cf b1 bd
       -0.032757133 -0.030682722 -0.0038296308 -0.0868209
000370 cd 26 5d bd 22 d0 d9 3c 8f fb 23 bc cd 72 5a bc
       -0.05399208 0.026588503 -0.010008707 -0.013333035
000380 04 54 86 bd 0a 3d 10 bd 07 e2 3a 3d 2c 6c 22 3c
       -0.065589935 -0.03521446 0.045625713 0.0099134855
000390 92 82 0d bd 21 9b e6 3c db 60 c3 3c 39 2b 81 3d
       -0.03454835 0.028150143 0.023849895 0.06307072
0003a0 5c 57 5e 3d e4 b5 93 bd 40 84 ad 3c 6b dd da bc
       0.05428253 -0.07212427 0.021181226 -0.026716908
0003b0 5b 7e a5 3d 0b 92 a0 3d 94 0d 78 3d ec 54 89 bc
       0.08080741 0.078403555 0.060559824 -0.016764127
0003c0 95 7a 2d 3d f8 66 4f 3d 25 78 88 3d c0 f5 bc 3c
       0.04235323 0.050635308 0.06663541 0.023066401
0003d0 66 a0 ea 3c 0f 55 ae 3d 2b 8f 4e 3d e7 5a 66 3d
       0.028640937 0.085123174 0.050429504 0.056239035
0003e0 cf c4 e9 bc 2f bc 60 3c b0 27 04 bd b4 11 8f bd
       -0.028536228 0.013716741 -0.03226441 -0.069857985
0003f0 88 f3 b9 bc 7b ca a1 3c d5 b1 74 3d c5 dd ac bc
       -0.022699133 0.01974987 0.059739906 -0.021101842
