Homework9/Gym-DDPG-solution/results/DDPG_Pendulum-v1_2000-eps0.1-t32-l0.0001-s100.pth (torch, 174523 bytes, 12 tensors)

layers.0.weight f4 [128, 4]
-0.4982909 0.57001966 -0.12622166 0.012805264 0.4046789 0.40361756 -0.06383676 -0.43466708
-0.44772428 -0.74289376 -0.29646686 0.25084206 0.4380496 0.35607693 -0.13709816 0.34462497
0.57382876 0.3364061 -0.08862224 -0.1397639 -0.2821479 0.46876082 -0.0030969908 0.4039553
-0.053085536 0.8614129 0.09899656 0.004223839 -0.35100156 0.2885197 0.019381857 -0.22472443
0.26962093 -1.093215 -0.42651117 -0.14734009 0.8252739 0.15412739 -0.16379413 0.33000553
0.020777686 -0.59997797 0.06149628 -0.17568211 -0.21956718 -0.26491126 -0.4001899 0.04341983
0.5919617 0.028196374 -0.03919018 0.18931806 -0.07867883 -0.20170437 0.009031459 -0.005051259
0.020982074 0.04596929 0.23656589 0.22851919 -0.06798643 0.2759628 0.008904741 0.3592367
0.40193903 0.62160087 0.25209808 0.0006573958 -0.30964848 -0.17250954 0.54522043 0.17164089
-0.51308227 0.12193614 -0.16419886 -0.42421797 0.58487 0.21971573 0.23916838 -0.03259181
-0.63119006 0.6046871 -0.089987285 -0.5254313 0.6165727 -0.40226242 -0.17196758 0.40462044
0.24234134 -0.478023 0.029599983 -0.18332927 0.46903518 -0.8740543 -0.117428765 -0.13175201
-0.35980004 0.17600006 -0.3228825 -0.046847902 0.059711505 -0.08198302 0.012033119 -0.077636145
-0.45767388 0.6495277 -0.13253418 0.10059508 0.45218536 -0.36636707 -0.38267535 0.096042715
0.3096545 0.80476195 0.27908725 0.29835936 -0.018305281 0.6381627 -0.068589814 -0.20656188
-0.14726268 0.8951168 0.12772942 0.11368917 -0.25709373 -0.30949292 0.0011647977 0.04555405
-0.56902534 0.24761622 -0.2665551 -0.110909715 -0.3122665 -0.006295492 -0.16878714 0.5023097
0.5282604 0.10864881 -0.11245563 0.47545505 0.39143786 0.4646103 -0.4342914 0.027969526
-0.09737984 -0.12010017 -0.009235955 0.05706508 0.5518638 -0.85669696 -0.15805101 0.011701157
-0.17485318 -0.4004796 -0.30951288 -0.35800114 0.12973452 -0.12741144 0.11904118 0.21814561
-0.24334753 0.49446714 0.1556566 -0.11700675 -0.4110587 0.13052103 0.3838185 -0.34889233
-0.46947327 -0.14663042 0.33019307 0.08376239 -0.45211127 0.5015868 -0.34259766 -0.51750034
-0.45511743 0.061277773 -0.24319759 -0.14255631 -0.2176795 -0.23439544 0.47872338 0.0059444704
-0.012983942 0.12085436 -0.81993675 -0.041776024 0.4555614 -0.54357177 0.1480896 -0.35578036
-0.37584633 -0.6726259 -0.27897078 0.021217177 -0.39895245 -0.24555242 -0.09945192 -0.18201776
-0.19659896 0.0074608824 0.02502381 -0.13170385 -0.4247283 0.31267753 -0.36273146 0.47767794
-0.09860176 -0.4669481 -0.5270724 0.11238071 -0.5608448 0.40827408 0.073588856 -0.390152
0.6152642 0.017026102 0.050736487 -0.11272023 0.6532836 -0.33907384 -0.16276821 0.19238962
-0.13714524 -0.12713309 -0.2793098 0.28676862 -0.50401497 0.0026642103 -0.1419673 -0.42593762
0.08738833 -0.09658817 0.1287887 -0.39894333 0.39263466 -0.80699694 -0.14768532 -0.21915494
-0.4479566 0.14307152 -0.093390666 0.2108078 0.1458473 0.6312976 -0.053463496 -0.108913146
-0.6475665 0.29934177 0.23972285 -0.4128885 -0.6207511 0.30904055 -0.02095093 0.35450664
00000000: fc1f ffbe cfec 113f 4040 01be 2ccd 513c
00000010: 1332 cf3e f6a6 ce3e d9bc 82bd af8c debe
00000020: 1e3c e5be 492e 3ebf 81ca 97be 5f6e 803e
00000030: 0a48 e03e b74f b63e 7663 0cbe af72 b03e
00000040: 71e6 123f 6c3d ac3e 947f b5bd 451e 0fbe
00000050: b175 90be 6b01 f03e e2f6 4abb 3bd3 ce3e
00000060: 3870 59bd 8e85 5c3f b5be ca3d 2168 8a3b
00000070: 7ab6 b3be dbb8 933e b3c6 9e3c 291e 66be
00000080: c10b 8a3e 78ee 8bbf ac5f dabe 52e0 16be
00000090: 2645 533f 92d3 1d3e a6b9 27be 7cf6 a83e
000000a0: f735 aa3c 2898 19bf 86e3 7b3d 03e6 33be
000000b0: 38d6 60be 73a2 87be b1e5 ccbe fed8 313d
000000c0: cd8a 173f 15fc e63c e285 20bd 98dc 413e
000000d0: 5e22 a1bd 978b 4ebe aff8 133c 0885 a5bb
000000e0: 99e2 ab3c 4b4a 3c3d 543e 723e ef00 6a3e
000000f0: 783c 8bbd ff4a 8d3e 31e5 113c dfed b73e
00000100: f4ca cd3e 3c21 1f3f 0013 813e 1655 2c3a
00000110: 3f8a 9ebe 57a6 30be 9193 0b3f a1c2 2f3e
00000120: 5c59 03bf a8b9 f93d bf23 28be 1933 d9be
00000130: 0aba 153f 29fd 603e 8ee8 743e fd7e 05bd
00000140: ac95 21bf c6cc 1a3f 414b b8bd aa82 06bf
00000150: b5d7 1d3f 57f5 cdbe 4518 30be 692a cf3e
00000160: 5428 783e 6ebf f4be aa7b f23c abba 3bbe
00000170: 6125 f03e 06c2 5fbf 7e7e f0bd 00ea 06be
00000180: b637 b8be 5c39 343e db50 a5be 96e3 3fbd
00000190: 0d94 743d b7e6 a7bd 8f26 453c b3ff 9ebd
000001a0: 3b54 eabe 7347 263f 0ab7 07be cb04 ce3d
000001b0: d784 e73e 7794 bbbe 06ee c3be 0bb2 c43d
000001c0: 098b 9e3e e104 4e3f 86e4 8e3e 8fc2 983e
000001d0: f5f4 95bc a15e 233f d178 8cbd f584 53be
000001e0: 07cc 16be 6026 653f 80cb 023e ded5 e83d
000001f0: caa1 83be db75 9ebe 20ac 983a e296 3a3d
00000200: a5ab 11bf 1b8f 7d3e e979 88be a224 e3bd
00000210: 65e1 9fbe 6a4a cebb 89d6 2cbe 5e97 003f
00000220: 133c 073f 4483 de3d 234f e6bd d86e f33e
00000230: 8b6a c83e 67e1 ed3e 715b debe 5920 e53c
00000240: 156f c7bd 14f7 f5bd 6752 17bc 13bd 693d
00000250: f246 0d3f 7e50 5bbf 20d8 21be 36b6 3f3c
00000260: b60c 33be aa0b cdbe 7978 9ebe ed4b b7be
00000270: 20d9 043e 2578 02be ddcb f33d 9061 5f3e
00000280: 1830 79be cc2a fd3e 7264 1f3e 3ca1 efbd
00000290: 4976 d2be 4ea7 053e dc83 c43e 04a2 b2be
000002a0: cd5e f0be 4926 16be 110f a93e 9e8b ab3d
000002b0: 217b e7be fe67 003f f668 afbe e77a 04bf
000002c0: 2705 e9be 67fe 7a3d ca08 79be 48fa 11be
000002d0: 60e7 5ebe 5c05 70be 3b1b f53e d5c9 c23b
000002e0: 9aba 54bc 7e82 f73d 60e7 51bf 561d 2bbd
000002f0: 583f e93e 8527 0bbf cda4 173e d828 b6be
00000300: ee6e c0be 3631 2cbf 42d5 8ebe a5cf ad3c
00000310: 7f43 ccbe 1872 7bbe 73ad cbbd dd62 3abe
00000320: 3d51 49be 6b7a f43b bcfe cc3c 60dd 06be
00000330: fd75 d9be 4517 a03e f0b7 b9be 3492 f43e
00000340: b8ef c9bd d213 efbe 38ee 06bf dc27 e63d
00000350: 8693 0fbf 4d09 d13e c1b5 963d 01c2 c7be
00000360: f481 1d3f 537a 8b3c 10d1 4f3d ddd9 e6bd
00000370: 983d 273f 169b adbe b6ac 26be c901 453e
00000380: cd6f 0cbe 2d2f 02be b201 8fbe 56d3 923e
00000390: 2007 01bf 089a 2e3b e05f 11be 7f14 dabe
000003a0: a7f8 b23d 05d0 c5bd 2fe1 033e 4d42 ccbe
000003b0: 6907 c93e 5a97 4ebf d23a 17be 276a 60be
000003c0: 915a e5be 5781 123e 9b43 bfbd 00de 573e
000003d0: ff58 153e b89c 213f 8afc 5abd db0d dfbd
000003e0: ebc6 25bf 5343 993e e879 753e 1f66 d3be
000003f0: 8be9 1ebf 903a 9e3e 49a1 abbc e581 b53e

layers.0.bias f4 [128]
0.19178602 -0.2737696 -0.11394559 0.16092111 0.3034496 -0.005597864 -0.03737129 0.13959049
0.22280201 -0.3185471 0.32478762 -0.101817615 0.08683005 0.51290035 0.72702765 -0.38532028
0.51661104 0.03097912 -0.026194163 0.4267335 0.35193884 -0.16319346 -0.26835215 -0.18805638
-0.45127547 0.2824588 0.45920134 0.23777771 -0.35810265 0.49417055 0.019171523 0.50897366
-0.3145554 -0.48833016 -0.5627774 -0.21611641 0.4870508 -0.27683818 -0.31446832 -0.3995025
-0.38015172 -0.11340644 0.61500645 0.38446158 -0.41316032 0.13971063 0.07753868 -0.05266783
-0.5914851 0.4717725 -0.48983186 -0.069567725 0.3568432 -0.3103898 0.4956358 -0.6324307
-0.46503177 -0.5417105 0.41296795 -0.040485945 0.5618471 -0.26303127 -0.6255105 0.4091149
0.2991788 -0.2643236 -0.07333468 0.40951043 0.024267431 -0.58764744 0.25358364 -0.60808134
0.31694648 0.41336066 0.5698602 0.3951672 0.5310232 -0.3001254 -0.70653 -0.33307162
-0.02284175 0.11039128 0.5837981 0.27516255 0.46666667 0.44658458 -0.8249782 0.26928145
0.037216164 0.056913216 -0.39845404 -0.6486646 -0.0059596584 -0.52888817 0.39996052 -0.24523258
0.44623673 -0.2600492 0.11200191 0.015153138 -0.48559305 0.23007804 -0.27939144 0.25716838
-0.51290965 -0.043901246 -0.3935047 0.3352045 0.1288463 -0.42355675 0.43144232 -0.29351917
0.4709971 -0.4241014 -0.5304607 0.1165004 0.405793 -0.51291263 -0.45552185 0.14392988
-0.577725 0.0067280377 -0.30954745 -0.11832441 -0.29538456 0.5943939 0.30455136 -0.03146635
00000000: 8e63 443e 872b 8cbe 4e5c e9bd 81c8 243e
00000010: bf5d 9b3e 496e b7bb a312 19bd cff0 0e3e
00000020: 3626 643e 9b18 a3be 904a a63e c185 d0bd
00000030: f4d3 b13d 704d 033f 7c1e 3a3f b348 c5be
00000040: 9f40 043f ecc7 fd3c 2495 d6bc d07c da3e
00000050: 5431 b43e 301c 27be 7465 89be da91 40be
00000060: 940d e7be 719e 903e 701c eb3e 007c 733e
00000070: 3b59 b7be ec03 fd3e 990d 9d3c 194c 023f
00000080: 680d a1be 6906 fabe 2e12 10bf 9f4d 5dbe
00000090: b95e f93e bcbd 8dbe fe01 a1be 978b ccbe
000000a0: 3fa3 c2be a341 e8bd 1071 1d3f 26d8 c43e
000000b0: c089 d3be 4e10 0f3e 99cc 9e3d 39ba 57bd
000000c0: 916b 17bf 2a8c f13e 3ecb fabe 8679 8ebd
000000d0: 27b4 b63e 69eb 9ebe fac3 fd3e fae6 21bf
000000e0: a518 eebe 8aad 0abf 8970 d33e 97d4 25bd
000000f0: 36d5 0f3f 09ac 86be 7521 20bf 8277 d13e
00000100: f72d 993e 6c55 87be 7e30 96bd 5aab d13e
00000110: 7ecc c63c 1070 16bf b7d5 813e 38ab 1bbf
00000120: cf46 a23e 02a4 d33e 5ce2 113f 5b53 ca3e
00000130: 23f1 073f 09aa 99be 26df 34bf 5d88 aabe
00000140: 9f1e bbbc d314 e23d cb73 153f 1be2 8c3e
00000150: efee ee3e bca6 e43e c531 53bf 42df 893e
00000160: fa6f 183d d51d 693d 2b02 ccbe e20e 26bf
00000170: 3d49 c3bb 3765 07bf a0c7 cc3e 401e 7bbe
00000180: 2479 e43e 2b25 85be 4261 e53d de44 783c
00000190: a79f f8be 9499 6b3e 650c 8fbe 93ab 833e
000001a0: 0c4e 03bf cbd1 33bd 7379 c9be ed9f ab3e
000001b0: 49f0 033e 6edc d8be 02e6 dc3e 2548 96be
000001c0: 8826 f13e d223 d9be 46cc 07bf c397 ee3d
000001d0: 1ac4 cf3e 3e4e 03bf 293a e9be 5b62 133e
000001e0: c9e5 13bf df76 dc3b 017d 9ebe 1154 f2bd
000001f0: a53c 97be 332a 183f 28ee 9b3e dce2 00bd

layers.1.weight f4 [128, 128]
0.05304921 0.05301517 -0.09714913 -0.063062884 0.0358104 -0.03995245 0.18703967 0.12286994
-0.2560881 0.02807297 0.044683404 -0.09407127 -0.0285716 0.03159456 -0.0035419492 0.11223406
-0.06319749 0.06407521 -0.024556143 -0.057059124 0.04242736 -0.1266131 -0.055436574 -0.16560666
0.036717247 0.033064984 0.13054173 -0.15785605 0.11409826 -0.036601387 0.42850286 -0.06576499
-0.052093446 0.06630328 -0.07633869 0.050295543 0.020214492 -0.10782696 -0.10296456 0.0014832853
0.20836104 0.10440733 -0.017512523 -0.044974994 -0.013078217 0.08355833 -0.096294135 -0.07604243
-0.0016493531 -0.011844825 0.013868056 0.030636214 -0.017717952 0.111743756 -0.0035001237 -0.004753481
-0.051780928 0.019813782 0.01268712 -0.15005696 0.009178605 -0.013657787 0.1264142 0.01670229
-0.036523208 -0.07773072 0.102361724 -0.08893976 0.0729357 -0.03023423 -0.022364343 -0.08755776
0.05588971 -0.08162362 -0.17196497 0.016827516 0.041000593 0.067410566 -0.057738416 -0.12645067
0.016572846 -0.08418858 -0.10872895 0.15875782 0.02235484 -0.038147107 0.10269492 0.09139045
0.220779 -0.13974658 0.018699372 0.046246666 -0.041860126 0.06892533 -0.024270557 0.024115145
-0.014316629 0.09950111 -0.024642013 -0.05716901 0.015063215 0.051933754 0.07040339 0.0076175444
-0.13266607 0.005651345 0.14965512 -0.032080293 0.09280035 0.21415494 0.08394609 0.09199979
-0.09542791 -0.10945244 -0.073973514 0.05404672 -0.0419687 0.038317386 0.18342704 0.0347066
0.12928711 -0.09121176 0.033738572 0.025667988 -0.109471135 -0.10012787 0.09026504 -0.026625097
0.14640193 -0.14908221 -0.0043617743 0.036641 -0.03425721 0.012954901 -0.13549884 -0.025381584
0.013618536 -0.13429853 0.07844066 0.02803858 -0.03372671 0.1533301 0.0037915977 -0.06863927
-0.044074956 -0.058443315 0.0825001 0.018016696 0.098595165 0.030571843 -0.0057494356 -0.06938209
-0.04216673 0.097496666 0.11409124 -0.025629768 -0.14162919 0.06566465 -0.08003752 0.15738626
0.042081956 -0.032008283 -0.18536931 -0.032251075 0.12954912 -0.06584175 -0.05456154 -0.050719433
-0.16572553 0.062453672 0.008277664 0.16099477 -0.018819902 -0.0038447543 0.0909958 -0.091896206
-0.05233614 0.2771877 -0.095915765 -0.07290109 0.12705335 -0.022355223 0.0044701444 -0.05790175
-0.027851738 -0.054356325 -0.02596478 0.01599453 0.32804593 -0.050953463 -0.012670687 0.10140253
0.076677516 0.041374616 -0.012307617 0.054266147 0.061033882 -0.025416307 0.07931439 0.1244146
0.010941851 0.009732606 0.01562841 0.10448668 0.19829907 -0.07165111 -0.082337625 -0.023567505
-0.022658244 -0.0104452325 0.13911037 0.061212648 0.03071747 0.13841219 -0.3135008 0.099931695
-0.04265784 0.012769918 -0.09403486 -0.0790524 0.033036426 0.011334032 0.17748602 0.053528942
0.13689119 -0.1091407 0.06576308 0.021600792 0.015584101 0.02450128 -0.16217072 0.15453927
-0.010465536 -0.11083289 -0.22072747 0.10242995 -0.10638527 -0.15886655 0.116372965 0.07516616
0.07796666 -0.028093636 0.118636824 0.13931169 0.11446615 -0.084739305 -0.16829233 -0.021331137
-0.1472494 0.089667395 -0.09057792 0.0010108339 0.015680475 0.038374268 0.19593078 -0.00031971384
00000000: 214a 593d 6f26 593d 20f6 c6bd 1d27 81bd
00000010: edad 123d 2ea5 23bd 5487 3f3e 3ca3 fb3d
00000020: fb1d 83be 49f9 e53c f205 373d 70a8 c0bd
00000030: fd0e eabc 4c69 013d 0c20 68bb f9da e53d
00000040: b06d 81bd dd39 833d f729 c9bc d4b6 69bd
00000050: 50c8 2d3d dda6 01be 7611 63bd cb94 29be
00000060: d364 163d 266f 073d bbac 053e 04a5 21be
00000070: 59ac e93d 56eb 15bd ba64 db3e ccaf 86bd
00000080: f05f 55bd 04ca 873d 7657 9cbd b302 4e3d
00000090: dd98 a53c 62d4 dcbd 15df d2bd cc6a c23a
000000a0: 995c 553e 83d3 d53d 6c76 8fbc b337 38bd
000000b0: 0546 56bc a120 ab3d dc35 c5bd 22bc 9bbd
000000c0: 1b2f d8ba cc10 42bc d836 633c ccf8 fa3c
000000d0: 3d25 91bc e9d9 e43d 5562 65bb 17c3 9bbb
000000e0: 3d18 54bd 8350 a23c a3dd 4f3c 88a8 19be
000000f0: dc61 163c e9c4 5fbc b972 013e 3ed3 883c
00000100: 5c99 15bd 4931 9fbd 06a3 d13d 0d26 b6bd
00000110: 505f 953d c7ad f7bc 6d35 b7bc 7c51 b3bd
00000120: 9cec 643d 492a a7bd 9617 30be dcd9 893c
00000130: 3df0 273d 8d0e 8a3d 1e7f 6cbd 497c 01be
00000140: c7c3 873c 106b acbd 49ad debd 6991 223e
00000150: 7f21 b73c 2440 1cbd b751 d23d eb2a bb3d
00000160: e413 623e ba19 0fbe 6d2f 993c 256d 3d3d
00000170: 8675 2bbd b928 8d3d 0cd3 c6bc 208d c53c
00000180: 4b90 6abc 3dc7 cb3d 0cde c9bc 0d2a 6abd
00000190: b4cb 763c 7db8 543d a72f 903d 989c f93b
000001a0: 9dd9 07be eb2e b93b 313f 193e a066 03bd
000001b0: 1c0e be3d 6f4b 5b3e edeb ab3d 636a bc3d
000001c0: b56f c3bd 9a28 e0bd 6d7f 97bd 1860 5d3d
000001d0: 5fe7 2bbd b1f2 1c3d 4cd4 3b3e 8228 0e3d
000001e0: d763 043e 3bcd babd 7531 0a3d ac45 d23c
000001f0: 6732 e0bd d70f cdbd e1dc b83d e01c dabc
00000200: 63ea 153e 02a9 18be 37ed 8ebb e014 163d
00000210: 4a51 0cbd cb40 543c 35c0 0abe 0aed cfbc
00000220: 4820 5f3c 8e85 09be 7fa5 a03d 2ab1 e53c
00000230: 0525 0abd 9102 1d3e 747c 783b bf92 8cbd
00000240: f187 34bd 4262 6fbd d0f5 a83d c097 933c
00000250: 43ec c93d cd71 fa3c c365 bcbb 3218 8ebd
00000260: 05b7 2cbd 55ac c73d aba8 e93d 85f5 d1bc
00000270: 3e07 11be 307b 863d b6ea a3bd dd29 213e
00000280: 215e 2c3d 1e1b 03bd 74d1 3dbe b419 04bd
00000290: 86a8 043e 0ad8 86bd ec7b 5fbd 2ebf 4fbd
000002a0: f4b3 29be 6ccf 7f3d 0a9f 073c d0db 243e
000002b0: 322c 9abc 46f8 7bbb 025c ba3d 1434 bcbd
000002c0: 6c5e 56bd 8ceb 8d3e 7c6f c4bd 2b4d 95bd
000002d0: 461a 023e 4d22 b7bc 4a7a 923b 632a 6dbd
000002e0: 5429 e4bc bda4 5ebd 17b4 d4bc f606 833c
000002f0: a3f5 a73e 94b4 50bd b798 4fbc 21ac cf3d
00000300: 1a09 9d3d 6e78 293d e3a5 49bc 2e46 5e3d
00000310: aafe 793d dc35 d0bc 956f a23d 15cd fe3d
00000320: 7345 333c 8275 1f3c 2707 803c 1dfd d53d
00000330: e90e 4b3e d1bd 92bd a1a0 a8bd a410 c1bc
00000340: c89d b9bc 7b22 2bbc f372 0e3e 1dba 7a3d
00000350: 34a3 fb3c edbb 0d3e 2d83 a0be fda8 cc3d
00000360: fdb9 2ebd eb38 513c 5995 c0bd 3ae6 a1bd
00000370: 3451 073d 60b2 393c e5be 353e 2a41 5b3d
00000380: 342d 0c3e 2985 dfbd cbae 863d 25f4 b03c
00000390: 7554 7f3c e9b6 c83c 1510 26be 8b3f 1e3e
000003a0: a477 2bbc 5bfc e2bd 6206 62be cbc6 d13d
000003b0: 85e0 d9bd eaad 22be f354 ee3d b7f0 993d
000003c0: fcac 9f3d a024 e6bc ddf7 f23d b9a7 0e3e
000003d0: 3b6d ea3d cd8b adbd d354 2cbe a3be aebc
000003e0: 8cc8 16be 8aa3 b73d eb80 b9bd f57d 843a
000003f0: 5774 803c 562e 1d3d 14a2 483e 449f a7b9

layers.1.bias f4 [128]
0.023058753 0.11255339 0.056189656 -0.1355281 -0.06732573 -0.069782704 0.15106411 -0.02482701
-0.14093788 0.12607698 0.032691456 -0.14536501 -0.029923964 0.16471042 -0.08164361 0.10184552
0.20056675 -0.059276383 0.050437428 -0.10091649 -0.0147948265 -0.16383077 -0.036907848 0.019582901
-0.19562599 -0.13634343 -0.09875888 0.01686246 0.14594229 0.12228645 -0.04777526 0.038745373
0.15701324 -0.13911273 -0.13348883 -0.2417824 -0.043398295 0.108679116 0.045516398 -0.18486045
-0.16048448 -0.15377125 0.01711267 -0.007661743 -0.1983674 -0.17667034 0.11972265 0.11920695
-0.06649873 0.20429961 0.036256906 -0.01852785 0.11505734 0.038570937 0.13599466 -0.06383703
-0.09722081 -0.04430765 0.06328865 0.0370519 -0.017009927 -0.15895487 0.13449602 -0.052448645
0.03658859 -0.010891639 0.08005751 0.1779999 -0.0035332583 -0.10837804 0.20773752 0.029526142
0.103589 0.1646433 0.05249495 0.049495388 0.0948325 0.1620327 0.17538746 0.018800652
-0.036091484 0.13468835 -0.15765694 0.08893767 -0.15396999 0.06794376 0.15271063 0.11217525
0.08187111 0.12051297 -0.16775604 -0.039885353 0.06856114 -0.036554005 0.09640327 -0.184438
-0.032384247 -0.113893464 -0.1015896 -0.013950576 -0.17505126 -0.022334266 -0.02822046 -0.13938342
0.15418965 -0.059675477 0.070633896 0.1165879 -0.019438485 -0.1099374 -0.07479405 -0.13853292
-0.09068198 -0.0604478 0.07234597 -0.08131292 -0.17539002 0.14044605 0.107877344 -0.04487313
0.018165192 -0.022970343 -0.072543465 0.10858009 0.1465268 0.19206694 -0.14663543 0.12791122
00000000: b6e5 bc3c 6482 e63d 2027 663d e1c7 0abe
00000010: 13e2 89bd 3cea 8ebd 8db0 1a3e 0462 cbbc
00000020: 0552 10be 531a 013e 7ae7 053d 91da 14be
00000030: 1a23 f5bc d9a9 283e c434 a7bd 6294 d03d
00000040: 5f61 4d3e cbcb 72bd 7a97 4e3d 4ead cebd
00000050: 0066 72bc 41c3 27be af2c 17bd 526c a03c
00000060: 2e52 48be 9d9d 0bbe 1842 cabd 2423 8a3c
00000070: e571 153e 5171 fa3d feaf 43bd 78b3 1e3d
00000080: 14c8 203e 9173 0ebe 4cb1 08be ce95 77be
00000090: 69c2 31bd 2893 de3d 676f 3a3d 0f4c 3dbe
000000a0: 0b56 24be 3676 1dbe df2f 8c3c 5c0f fbbb
000000b0: d320 4bbe 12e9 34be 2631 f53d c622 f43d
000000c0: 7c30 88bd eb33 513e 1f82 143d b8c7 97bc
000000d0: 2fa3 eb3d 8ffc 1d3d 2f42 0b3e fdbc 82bd
000000e0: b41b c7bd f07b 35bd 7b9d 813d bcc3 173d
000000f0: 6758 8bbc 11c5 22be 53b9 093e 64d4 56bd
00000100: ebdd 153d d872 32bc 31f5 a33d 9b45 363e
00000110: 3d8e 67bb 4ef5 ddbd 25b9 543e cfe0 f13c
00000120: 7826 d43d 4198 283e f204 573d adbb 4a3d
00000130: 8b37 c23d e6eb 253e c598 333e d303 9a3c
00000140: aad4 13bd beeb 093e d270 21be f424 b63d
00000150: 4faa 1dbe 1926 8b3d 2d60 1c3e 23bc e53d
00000160: 0aac a73d 81cf f63d 3dc8 2bbe d35e 23bd
00000170: c869 8c3d a7b9 15bd 146f c53d 51dd 3cbe
00000180: 58a5 04bd fa40 e9bd 350e d0bd f590 64bc
00000190: a340 33be 5af6 b6bc 982e e7bc 87ba 0ebe
000001a0: e4e3 1d3e 466e 74bd 81a8 903d a3c5 ee3d
000001b0: 753d 9fbc dc26 e1bd 9f2d 99bd 93db 0dbe
000001c0: 79b7 b9bd 1d98 77bd 202a 943d 6387 a6bd
000001d0: 7199 33be 17d1 0f3e ccee dc3d e3cc 37bd
000001e0: 2bcf 943c 4d2c bcbc ab91 94bd 3d5f de3d
000001f0: 1f0b 163e 32ad 443e 9927 16be 29fb 023e

layers.2.weight f4 [64, 128]
0.15717253 -0.11641131 0.056111377 0.016134478 -0.1464499 -0.015178614 0.007061157 -0.0032755842
-0.06263536 0.015232527 0.038109392 -0.2837374 -0.1068528 0.055819575 -0.06468006 0.12544604
0.09490075 0.010330988 0.206122 0.047953926 0.03410555 -0.06477766 0.12301012 0.054363873
-0.08412964 0.050209954 -0.020832852 0.030077565 0.016040964 0.22863731 -0.020217763 0.3557358
0.046437003 -0.12085969 -0.13393325 -0.12590836 -0.19665755 0.10520341 -0.033680305 -0.08566503
-0.11446494 -0.044830915 -0.13030732 0.094707325 -0.115699336 -0.052721728 0.069105215 0.11523689
-0.16222692 0.057468984 -0.124314174 -0.10906337 0.070054635 0.022594845 0.27840304 -0.09671278
-0.14737521 -0.1519768 0.1412956 -0.21445517 -0.035204776 -0.05451488 0.12038379 -0.13160591
0.07757575 -0.0076585915 0.018867245 0.012858846 -0.055609718 -0.09541669 0.09307098 0.18513615
-0.11482783 -0.021055533 0.1191505 0.082348295 -0.0048352475 0.026506158 0.19996294 -0.25337112
0.017035754 0.094003566 0.031276084 0.016077856 -0.19607286 0.040551644 -0.009131794 0.16493715
0.0010600678 0.03612727 -0.048452523 -0.09209674 0.08604391 0.24970628 -0.30091557 -0.045772433
-0.1698661 -0.08710828 -0.1172799 0.06256327 -0.016100375 -0.17620572 -0.061164275 -0.13883334
0.12357541 0.018978167 -0.021136368 0.07029194 -0.11443552 -0.07303937 -0.20792826 -0.092956126
-0.062285196 -0.07031404 0.083799176 -0.014939418 -0.0034821208 0.14680038 -0.18965837 -0.21960953
-0.013219162 0.105202176 -0.1325766 0.12275968 -0.06855165 0.050872676 0.096319266 0.069793604
-0.08795068 0.07494111 -0.11293235 0.050682146 0.08677608 0.13986695 -0.08877231 0.07778446
0.07454415 0.01399922 -0.16192622 0.050751325 -0.009018001 -0.012082288 0.029278424 -0.015170161
-0.098424256 0.18372488 -0.049807783 -0.020300109 -0.0040214523 0.052549444 0.07502175 -0.0071503003
0.017311163 0.029803079 0.08213786 -0.017541427 -0.10222193 -0.1041874 0.102227725 0.016429247
-0.09465087 0.06818396 0.054376867 0.07926592 0.12733835 0.03155051 -0.062027447 0.06598958
0.13952674 0.18935743 -0.013916898 -0.18195936 0.13119984 -0.0036253973 0.03737395 -0.14262602
0.06107279 -0.041744437 0.14267214 -0.06619521 -0.0919122 -0.0030929453 -0.10567583 0.06361061
0.0783272 0.072891064 -0.092554845 0.12092953 0.07919056 0.020406244 -0.13407165 0.0047020027
-0.08495887 0.084445775 -0.088539824 -0.09163502 0.08900925 0.0024136319 -0.12594928 -0.1314042
0.11402795 -0.03932003 0.034582846 -0.133159 -0.028605029 -0.059068054 -0.10195973 0.17981505
0.066520914 -0.03778248 -0.005005534 -0.09986661 0.11419947 -0.099496424 -0.11289209 -0.0022106413
-0.13003352 -0.13777089 -0.057987247 -0.00939325 -0.09413302 -0.033846825 0.09542012 0.1063027
-0.0091757225 0.016697453 0.05064707 0.04481673 0.14104888 0.11539807 0.19452001 0.052741982
-0.11493358 -0.10619986 -0.03183378 -0.049562342 0.15484479 0.1166445 0.03428723 0.08239791
0.08165221 0.08267015 0.013646489 0.06410858 0.089705914 0.011481161 0.048570372 0.090890154
0.1237734 0.04799019 -0.051343318 -0.09407603 -0.15897025 -0.049483392 0.05997009 -0.06849195
00000000: d6f1 203e 0e69 eebd 0bd5 653d 742c 843c
00000010: f6f6 15be b9af 78bc 4761 e73b 2fab 56bb
00000020: f846 80bd d991 793c 9818 1c3d 0746 91be
00000030: a4d5 dabd 11a3 643d fb76 84bd ed74 003e
00000040: 535b c23d 4e43 293c a511 533e 566b 443d
00000050: 43b2 0b3d 26aa 84bd bbec fb3d a7ac 5e3d
00000060: 294c acbd f4a8 4d3d a8a9 aabc 3a65 f63c
00000070: 5768 833c e61f 6a3e b99f a5bc 0123 b63e
00000080: ba34 3e3d 4985 f7bd cc25 09be 1fee 00be
00000090: 9960 49be e374 d73d 5cf4 09bd 2671 afbd
000000a0: 986c eabd 9fa0 37bd 486f 05be eaf5 c13d
000000b0: c6f3 ecbd bdf2 57bd 0987 8d3d 5201 ec3d
000000c0: d01e 26be 9964 6b3d 6e98 febd 9e5c dfbd
000000d0: ce78 8f3d d318 b93c d88a 8e3e 5a11 c6bd
000000e0: 87e9 16be ce9f 1bbe cbaf 103e 239a 5bbe
000000f0: e232 10bd ff4a 5fbd c78b f63d b3c3 06be
00000100: 09e0 9e3d ecf4 fabb 7b8f 9a3c e9ad 523c
00000110: 04c7 63bd d369 c3bd ff9b be3d 5594 3d3e
00000120: da2a ebbd a77c acbc 2d05 f43d 39a6 a83d
00000130: ff70 9ebb 7123 d93c 16c3 4c3e dcb9 81be
00000140: 918e 8b3c f184 c03d 5a1b 003d b5b5 833c
00000150: 53c7 48be 7b19 263d 859d 15bc 49e5 283e
00000160: f9f1 8a3a 30fa 133d 2776 46bd 379d bcbd
00000170: ca37 b03d 01b3 7f3e 9b11 9abe e07b 3bbd
00000180: 61f1 2dbe d365 b2bd 7230 f0bd 2c21 803d
00000190: efe4 83bc 466f 34be 6487 7abd 542a 0ebe
000001a0: 1b15 fd3d 1a78 9b3c 2d26 adbc 38f5 8f3d
000001b0: 2b5d eabd aa95 95bd 25eb 54be c85f bebd
000001c0: c31e 7fbd cf00 90bd e79e ab3d 76c4 74bc
000001d0: 4b34 64bb d752 163e ce35 42be 52e1 60be
000001e0: 2f95 58bc 3d74 d73d 29c2 07be 6d69 fb3d
000001f0: cf64 8cbd de5f 503d 0943 c53d f3ef 8e3d
00000200: 7c1f b4bd ba7a 993d 1349 e7bd 1598 4f3d
00000210: a8b7 b13d 4839 0f3e 42ce b5bd 754d 9f3d
00000220: 9aaa 983d fc5c 653c fdcf 25be 9fe0 4f3d
00000230: 3dc0 13bc caf4 45bc 4ed9 ef3c 448c 78bc
00000240: a892 c9bd 6022 3c3e 3f03 4cbd 6a4c a6bc
00000250: 63c6 83bb 163e 573d 01a5 993d 114d eabb
00000260: 24d0 8d3c 9625 f43c e537 a83d 0ab3 8fbc
00000270: bb59 d1bd 3460 d5bd c55c d13d a196 863c
00000280: 51d8 c1bd 08a4 8b3d 47ba 5e3d 2c56 a23d
00000290: fc64 023e 1c3b 013d 7e10 7ebd 8b25 873d
000002a0: 19e0 0e3e eae6 413e b303 64bc 8e53 3abe
000002b0: 4059 063e 1398 6dbb 6d15 193d 8e0c 12be
000002c0: 7627 7a3d 37fc 2abd a518 123e 5b91 87bd
000002d0: 773c bcbd 03b3 4abb 926c d8bd 4846 823d
000002e0: 036a a03d e947 953d 658d bdbd e7a9 f73d
000002f0: a92e a23d ff2a a73c 144a 09be 4213 9a3b
00000300: ebfe adbd e8f1 ac3d 5e54 b5bd 24ab bbbd
00000310: 7b4a b63d 062e 1e3b d9f8 00be d38e 06be
00000320: 7c87 e93d 0a0e 21bd bea6 0d3d d55a 08be
00000330: 1855 eabc 58f1 71bd 43d0 d0bd 7021 383e
00000340: 1e3c 883d cdc1 1abd 7605 a4bb dd86 ccbd
00000350: 69e1 e93d c8c4 cbbd f833 e7bd 68e0 10bb
00000360: 8227 05be d013 0dbe 0984 6dbd 25e6 19bc
00000370: d0c8 c0bd f8a2 0abd a06b c33d 3bb5 d93d
00000380: c555 16bc 19c9 883c 4d73 4f3d bf91 373d
00000390: 1e6f 103e d355 ec3d 4130 473e fa07 583d
000003a0: 4c62 ebbd 507f d9bd 2364 02bd e201 4bbd
000003b0: a28f 1e3e 50e3 ee3d c470 0c3d 3cc0 a83d
000003c0: 4639 a73d f84e a93d 8695 5f3c 5c4b 833d
000003d0: bcb7 b73d 7b1b 3c3c baf1 463d 9e24 ba3d
000003e0: e97c fd3d 5d91 443d 5f4d 52bd efaa c0bd
000003f0: 19c9 22be 19af 4abd 32a3 753d 8245 8cbd

layers.2.bias f4 [64]
0.082039714 0.01016835 0.011880632 0.02993081 -0.007125623 -0.080374 0.07467424 -0.07822472
0.028571177 0.1296389 -0.037715066 0.059805997 0.07553337 0.12172237 0.03763323 0.071173504
-0.0378743 0.020269053 0.020782249 0.036973067 -0.036490276 0.076858126 0.01552042 0.011787867
0.006141034 -0.15096676 -0.07502485 -0.02339302 0.1316374 0.11048405 -0.12157444 -0.138174
0.2351855 -0.06517208 -0.030080236 -0.016018284 -0.051444847 0.13787316 -0.14820093 -0.15407397
-0.059012983 -0.040359076 0.08730924 0.030673042 0.021657092 -0.1008888 -0.09309198 -0.04742622
0.066251315 0.10651092 -0.04456086 0.11195562 -0.061722282 0.098594226 -0.07579353 -0.078222185
0.004913734 0.08356556 0.13177446 0.0028327694 -0.12000677 -0.08340762 0.07310406 0.11547929
00000000: 7004 a83d 2799 263c fba6 423c 7531 f53c
00000010: 0f7e e9bb 209b a4bd cfee 983d 4834 a0bd
00000020: 1a0e ea3c 0fc0 043e 1d7b 1abd 22f7 743d
00000030: 3db1 9a3d 9449 f93d 4d25 1a3d 6ac3 913d
00000040: 1522 1bbd 490b a63c 893f aa3c 1271 173d
00000050: d476 15bd cb67 9d3d 5c49 7e3c e621 413c
00000060: ba3a c93b 0897 1abe a1a6 99bd b8a2 bfbc
00000070: f4cb 063e 7645 e23d 05fc f8bd 7c7d 0dbe
00000080: 78d4 703e f178 85bd d46a f6bc c738 83bc
00000090: d5b7 52bd 9f2e 0d3e fcc1 17be 91c5 1dbe
000000a0: 99b7 71bd 8f4f 25bd 30cf b23d 0846 fb3c
000000b0: 376a b13c ca9e cebd 02a7 bebd ff41 42bd
000000c0: c5ae 873d 6622 da3d 7385 36bd fd48 e53d
000000d0: 81d0 7cbd c5eb c93d a339 9bbd f432 a0bd
000000e0: 6303 a13b 6c24 ab3d e2ef 063e fca5 393b
000000f0: 1cc6 f5bd 9dd1 aabd 95b7 953d 6880 ec3d

readout.weight f4 [1, 64]
-1.723124 1.6945229 -1.612346 -1.7817978 -1.7629158 1.7596879 -1.5871593 1.6740956
-1.6741184 -1.7351494 1.6615125 -1.6373725 -1.6665399 -1.6490222 -1.6410999 -1.7173613
-1.645127 -1.7185293 1.6829331 -1.6938448 -1.789156 -1.6819371 -1.636321 1.7037123
1.796801 1.605311 1.6582528 -1.7363065 -1.5200751 -1.6320834 1.6929097 1.698774
-1.6387004 1.6209022 1.9038274 -1.8061513 1.6925725 -1.7038461 1.6297265 1.6368103
1.7145835 1.6914921 -1.7231679 -1.6090523 -1.7016435 1.5538968 1.7225045 1.7053474
1.7427987 -1.6121705 1.8419652 -1.6767383 1.6739445 -1.6540735 1.7223537 1.6815631
1.6588364 -1.8092222 -1.7119614 1.7574325 1.7358104 -1.6728508 -1.7018713 -1.7147186
00000000: 548f dcbf 20e6 d83f 5b61 cebf f311 e4bf
00000010: 3aa7 e1bf 743d e13f 0928 cbbf c448 d63f
00000020: 8349 d6bf 6019 debf 71ac d43f 6c95 d1bf
00000030: 2e51 d5bf 2913 d3bf 900f d2bf 7fd2 dbbf
00000040: 8693 d2bf c5f8 dbbf 5a6a d73f e8cf d8bf
00000050: 1003 e5bf b749 d7bf f772 d1bf 3f13 da3f
00000060: 93fd e53f d57a cd3f a141 d43f 4b3f debf
00000070: d291 c2bf 1ce8 d0bf 44b1 d83f 6d71 d93f
00000080: efc0 d1bf b979 cf3f 9eb0 f33f f72f e7bf
00000090: 37a6 d83f a117 dabf e19a d03f 0083 d13f
000000a0: 7977 db3f d082 d83f c490 dcbf 6df5 cdbf
000000b0: 74cf d9bf 17e6 c63f 077b dc3f d348 da3f
000000c0: 0714 df3f 9a5b cebf 84c5 eb3f 5c9f d6bf
000000d0: d043 d63f aeb8 d3bf 1676 dc3f 763d d73f
000000e0: c054 d43f 9894 e7bf 8d21 dbbf 8cf3 e03f
000000f0: 092f de3f fa1f d6bf ebd6 d9bf e67b dbbf

layers.0.weight f4 [128, 3]
-0.006306658 0.32401237 -0.15114093 0.33519706 -0.2709543 -0.23268878 -0.60436773 0.83229154
0.16096836 0.73362195 0.42845798 -0.6273954 0.2370801 -1.0401192 -0.14134997 -0.46826878
0.7375428 0.44109574 -0.2734909 -0.4917879 -0.10399839 -0.17229225 -0.011220796 0.31573406
-0.38794363 0.39994225 -0.14339045 0.1772762 -0.3494132 0.58983386 0.17297305 0.5961034
0.09155024 0.4634164 0.18849224 -0.39134708 0.6434325 -0.052899357 0.0008399212 0.6666945
-0.73777676 -0.45143119 -0.47547165 0.27678794 -0.34376535 0.78299946 -0.66062546 0.20710024
0.7600321 0.7356617 0.113773 0.19870493 0.251926 0.45699787 -0.44254413 0.77494645
0.4633076 0.13051666 -0.9892794 -0.1419392 0.91345996 -0.61277 0.22660865 -0.070634715
0.093882985 -0.056492943 -0.7054436 0.5033947 -0.1999723 0.4788782 -0.16604163 -0.3182537
0.37676957 0.5223181 -0.4516745 -0.7231573 0.7728427 -0.40102658 -0.11448793 -0.2273766
0.7500214 -0.5918875 0.6609485 -0.00013496753 0.34247893 -0.81149715 0.14375238 0.24690232
-0.47739735 -0.013681796 -0.5270586 -0.41768453 0.14342788 0.49674824 0.28455666 -0.64617383
0.57591075 1.0808115 0.09698291 0.059324797 -0.26987353 0.55183405 -0.12206658 0.1264228
-0.369139 -0.779396 -0.82307863 -0.48774624 -0.6048011 0.80601466 -0.009264577 -0.42207628
0.11104583 0.35256246 -0.4728261 0.79556394 0.19490726 -0.15793003 -0.3097343 0.5298323
0.78430545 -0.28748167 0.24776767 0.6869349 -0.61325115 -0.2955457 -0.3547678 -0.5600626
-0.57051116 0.48425117 -0.24771868 0.517973 -0.4535238 -0.4334609 0.3071087 0.41983396
0.97671163 0.10542204 0.3980602 0.43171018 0.08664249 0.6995794 -0.41679043 0.2852281
-0.11014738 -0.64163834 -0.4506928 -0.13371208 0.119252995 0.6946569 -0.4122923 0.120701045
-0.12736772 0.64822936 0.76129234 -0.26547778 0.030908123 -0.6335272 -0.6256402 -0.66896576
-1.1054899 -0.4519167 -0.72142756 0.0125729935 -0.080296695 0.4669909 0.64486635 0.32013905
-0.4250176 -0.45062357 0.3509929 0.44279665 -0.5267618 -0.45543277 -0.81354725 0.4189193
-0.11080692 0.1961765 0.6566583 -0.14039133 0.4558486 -0.0048726867 -0.031940855 -0.1868285
0.05749928 0.6428634 0.63245887 0.47420168 0.022146646 0.77177685 -0.5954394 -0.39052942
-0.73751485 0.04185733 -0.10606585 -0.21238789 0.61469907 0.3201045 0.66035306 0.8598265
0.5106631 -0.545267 0.47352406 -0.23747694 -0.018256446 0.010863458 0.08863396 0.6909546
0.07594023 0.056177277 -0.03304616 0.39886177 -0.49147868 -0.45132938 -0.6264386 0.4045024
0.6539995 0.12823944 0.051524084 0.21695165 -0.13426848 -0.6587353 -0.4097606 -0.6823614
-0.11359139 0.34498912 -0.54038167 -0.3192537 -0.5678066 -0.4334139 -0.48730657 0.56076956
0.34503612 -0.4499244 -0.57044995 0.26550075 0.139119 0.17100696 -0.44497663 -0.46022737
0.62588334 0.83565253 0.18880598 -0.25926378 -0.67447007 0.14795867 0.54674727 0.2869345
0.4933679 -0.39759195 -0.89343005 -0.3740817 -0.3973279 -0.30513516 0.35508668 -0.43701577
00000000: 15a8 cebb f3e4 a53e b0c4 1abe f39e ab3e
00000010: 86ba 8abe f845 6ebe d8b7 1abf 0f11 553f
00000020: e4d4 243e a6ce 3b3f d85e db3e fc9c 20bf
00000030: 20c5 723e a022 85bf 0cbe 10be edc0 efbe
00000040: 9bcf 3c3f 4dd7 e13e 0007 8cbe a0cb fbbe
00000050: 1cfd d4bd 616d 30be 6ed7 37bc e5a7 a13e
00000060: 8ca0 c6be 3bc5 cc3e f2d4 12be e487 353e
00000070: 49e6 b2be 5aff 163f d91f 313e 3c9a 183f
00000080: b17e bb3d ea44 ed3e 1c04 413e a55e c8be
00000090: feb7 243f ffac 58bd 282e 5c3a 7eac 2a3f
000000a0: f0de 3cbf fd21 e7be 0571 f3be 26b7 8d3e
000000b0: 0302 b0be a772 483f c01e 29bf 1612 543e
000000c0: 7791 423f 5354 3c3f d201 e93d 4e79 4b3e
000000d0: 72fc 803e a0fb e93e 2595 e2be e462 463f
000000e0: a736 ed3e 29a6 053e 6a41 7dbf 8258 11be
000000f0: 83d8 693f 7fde 1cbf 190c 683e efa8 90bd
00000100: b945 c03d 2565 67bd f497 34bf 7ade 003f
00000110: 8ac5 4cbe 862f f53e d106 2abe 26f2 a2be
00000120: f1e7 c03e a4b6 053f e141 e7be d620 39bf
00000130: 05d9 453f 5b53 cdbe a678 eabd 69d5 68be
00000140: 6701 403f f085 17bf ec33 293f 1286 0db9
00000150: 6659 af3e 47be 4fbf d333 133e f6d3 7c3e
00000160: 6d6d f4be 9d29 60bc 50ed 06bf bfda d5be
00000170: c2de 123e c955 fe3e 69b1 913e a66b 25bf
00000180: e36e 133f 0858 8a3f fa9e c63d 8ffe 723d
00000190: dd2c 8abe ff44 0d3f 0bfe f9bd fa74 013e
000001a0: c9ff bcbe 7f86 47bf 48b5 52bf e0b9 f9be
000001b0: 3fd4 1abf fa56 4e3f 74ca 17bc 621a d8be
000001c0: ff6b e33d 1183 b43e 4316 f2be 14aa 4b3f
000001d0: c595 473e 69b8 21be 7f95 9ebe 17a3 073f
000001e0: 3ec8 483f cc30 93be cfb6 7d3e f7da 2f3f
000001f0: 07fe 1cbf c451 97be 20a4 b5be 4360 0fbf
00000200: 050d 12bf c5ef f73e f7a9 7dbe e199 043f
00000210: 4634 e8be 96ee ddbe 5a3d 9d3e 7af4 d63e
00000220: c609 7a3f 83e7 d73d 8cce cb3e 1e09 dd3e
00000230: 9e71 b13d a317 333f 8e65 d5be 6b09 923e
00000240: f394 e1bd 6942 24bf 35c1 e6be d2eb 08be
00000250: ea3a f43d 09d5 313f fa17 d3be 1c32 f73d
00000260: af6c 02be 5cf2 253f 0ee4 423f b4ec 87be
00000270: 0833 fd3c d72e 22bf f529 20bf 5741 2bbf
00000280: b180 8dbf a061 e7be 7aaf 38bf f5fe 4d3c
00000290: 9872 a4bd 6e19 ef3e f615 253f 44e9 a33e
000002a0: e89b d9be 22b8 e6be 57b5 b33e 3eb6 e23e
000002b0: dcd9 06bf 7c2e e9be a244 50bf 977c d63e
000002c0: bdee e2bd 7ee2 483e c21a 283f bfc2 0fbe
000002d0: fd64 e93e 0fab 9fbb 6ad4 02bd f84f 3fbe
000002e0: 5d84 6b3d b292 243f d3e8 213f 90ca f23e
000002f0: e26c b53c 2b93 453f b76e 18bf 79f3 c7be
00000300: c6cd 3cbf 9772 2b3d 0d39 d9bd 367c 59be
00000310: eb5c 1d3f bde4 a33e e60c 293f 971d 5c3f
00000320: d1ba 023f 9e96 0bbf bf71 f23e 282d 73be
00000330: 8b8e 95bc a5fc 313c b985 b53d 67e2 303f
00000340: 8d86 9b3d 251a 663d 695b 07bd 9c37 cc3e
00000350: 18a3 fbbe a514 e7be 485e 20bf f01a cf3e
00000360: 836c 273f 3351 033e eb0a 533d 9328 5e3e
00000370: ad7d 09be e0a2 28bf 24cc d1be 3daf 2ebf
00000380: 9aa2 e8bd 6aa2 b03e 7456 0abf 3975 a3be
00000390: c65b 11bf 6de8 ddbe 3f80 f9be 988e 0f3f
000003a0: 93a8 b03e 7e5c e6be 0209 12bf b7ef 873e
000003b0: 3675 0e3e 731c 2f3e fad3 e3be eca2 ebbe
000003c0: e439 203f 53ed 553f 5b56 413e 39be 84be
000003d0: 12aa 2cbf 7a82 173e a1f7 0b3f 14e9 923e
000003e0: b89a fc3e 2c91 cbbe d5b7 64bf a387 bfbe
000003f0: 906e cbbe ad3a 9cbe eccd b53e 88c0 dfbe

layers.0.bias f4 [128]
-0.57549155 -0.51178545 -0.21872567 -0.36887744 0.553227 -0.16577499 0.5043852 -0.026269048
0.15053464 0.26441517 0.07174567 0.50797945 0.21052456 0.5035718 0.15613596 -0.08995217
-0.15261935 -0.059795063 -0.2972722 0.35684398 -0.22021776 0.37000522 0.22540176 -0.053044517
0.56046426 0.4541768 0.26350018 -0.20152004 0.44967544 0.57602555 0.3655359 0.051798757
-0.33496454 0.12001664 -0.29097316 0.41359082 -0.15046823 -0.5819273 -0.13563502 -0.3406481
-0.599699 -0.23429616 -0.018703632 -0.32337376 0.2032812 -0.23950228 0.29076165 -0.5878957
0.320011 0.4368424 0.69043034 -0.2140944 0.42392063 0.14820972 0.5786071 -0.112900175
-0.11709308 -0.2015616 -0.11198116 0.3566285 -0.01513247 -0.37385917 -0.011848382 -0.42919487
-0.07415867 -0.09522237 -0.05776283 -0.2954132 -0.48579714 0.39977455 0.16605966 0.6141521
0.10360579 0.35254252 0.51531905 -0.2518662 0.28657514 -0.45273972 0.20584738 -0.21890934
-0.03816655 -0.0046282047 -0.09784495 0.23462194 0.005593693 0.47991166 -0.527135 0.20576362
0.27915794 -0.03365095 0.33437443 0.6570707 -0.38728967 0.14773536 0.065557525 -0.2684123
-0.20320305 -0.052856524 0.3177105 0.48833415 0.5227973 0.4295052 0.16869535 -0.32378906
0.5717473 -0.34892705 0.17393504 0.13411517 -0.6238732 -0.5343049 -0.04735272 0.21559304
-0.38647965 -0.07423457 0.46500126 -0.5790209 0.543629 0.4811643 -0.76151603 0.39034313
-0.27830312 -0.68567127 -0.55351645 0.342547 0.24577436 0.56107396 -0.18793614 -0.45410398
00000000: 6a53 13bf 5f04 03bf 9ff9 5fbe 81dd bcbe
00000010: 49a0 0d3f ebc0 29be 631f 013f 3032 d7bc
00000020: c125 1a3e 6d61 873e 65ef 923d f10a 023f
00000030: c093 573e 15ea 003f 1be2 1f3e d838 b8bd
00000040: 3f48 1cbe abeb 74bd 1034 98be 41b4 b63e
00000050: c480 61be 5371 bd3e b8cf 663e 3545 59bd
00000060: 967a 0f3f dd89 e83e 7fe9 863e 455b 4ebe
00000070: dc3b e63e 6976 133f 8627 bb3e ef2a 543d
00000080: 7980 abbe 49cb f53d 6ffa 94be 2dc2 d33e
00000090: 5814 1abe 30f9 14bf e8e3 0abe 6e69 aebe
000000a0: e085 19bf 55eb 6fbe 5c38 99bc 3f91 a5be
000000b0: f228 503e 1640 75be b6de 943e 5580 16bf
000000c0: 7bd8 a33e cfa9 df3e 0bc0 303f 903b 5bbe
000000d0: 200c d93e 4ac4 173e 981f 143f 3538 e7bd
000000e0: 7fce efbd 2a66 4ebe 6156 e5bd 0398 b63e
000000f0: 2eee 77bc 786a bfbe b71f 42bc 6ebf dbbe
00000100: 80e0 97bd f203 c3bd b898 6cbd 6640 97be
00000110: 67ba f8be 40af cc3e 8b0b 2a3e 1239 1d3f
00000120: 462f d43d 7480 b43e f3eb 033f 9bf4 80be
00000130: fab9 923e 80cd e7be a8c9 523e c529 60be
00000140: 8754 1cbd 32a8 97bb ef62 c8bd bc40 703e
00000150: 4c4b b73b fbb6 f53e 52f2 06bf b3b3 523e
00000160: caed 8e3e 94d5 09bd 2033 ab3e c935 283f
00000170: d54a c6be f047 173e 0643 863d 566d 89be
00000180: 7614 50be 1580 58bd f3aa a23e ef06 fa3e
00000190: 0bd6 053f 1be8 db3e 79be 2c3e aec7 a5be
000001a0: 085e 123f 91a6 b2be 071c 323e 7d55 093e
000001b0: 27b6 1fbf 35c8 08bf edf4 41bd 6cc4 5c3e
000001c0: a9e0 c5be 4b08 98bd a514 ee3e b73a 14bf
000001d0: 452b 0b3f 2b5b f63e b7f2 42bf 0edb c73e
000001e0: bf7d 8ebe 2788 2fbf 41b3 0dbf 5262 af3e
000001f0: 46ac 7b3e 8ba2 0f3f 5572 40be 5180 e8be

layers.1.weight f4 [128, 128]
0.24723174 0.20594175 -0.2388191 0.12150669 0.19150901 -0.014119796 0.0034249949 0.12156929
-0.04772765 0.025439212 -0.25204793 -0.029458852 0.14868218 0.0866672 -0.046282135 0.1282041
-0.039797816 -0.02188365 -0.036643177 0.16842945 -0.0016062843 -0.011116256 -0.13409002 0.061681695
0.022262592 0.016745446 0.07837883 0.06658394 0.14162073 0.050286196 0.009800855 0.031611077
-0.24690899 0.04172907 0.0023214696 0.020737262 -0.03180526 0.10865885 -0.36609933 -0.013795084
-0.039988425 0.17871091 0.07738834 -0.069460265 0.001837428 -0.3428055 -0.12511322 -0.025343388
0.06498501 -0.05984288 -0.107396476 0.1558965 0.10991258 0.03780176 -0.15089872 -0.08678749
0.069938146 0.040192377 -0.22439554 -0.09478632 0.1068128 0.010556717 0.028929835 0.19784911
-0.16051802 -0.08047745 -0.04950787 -0.04086729 -0.084002994 0.1423474 -0.055595897 -0.012351231
0.09479613 0.00937511 -0.06246012 0.099744834 -0.05034978 0.21206546 -0.2711196 0.13070767
-0.09214602 0.3370081 0.002681727 -0.06023884 -2.4508168e-05 -0.19977559 -0.07319236 0.26691502
0.08110261 -0.0015050838 -0.0909558 0.05098474 0.011174376 -0.15377724 0.10322463 0.013118924
0.04375045 0.030649852 -0.020174906 -0.11943742 0.0373287 0.05479196 0.28819278 -0.15539636
-0.0025229556 0.020977609 0.0032310693 -0.02428419 -0.009392122 0.13674475 -0.07806032 0.072939724
0.14171974 0.044702936 0.11092292 0.02833118 0.15088676 -0.05266158 0.097177364 0.034953617
-0.092414275 0.12553787 0.009575385 -0.3074462 -0.047179043 0.098846294 0.008016054 0.08775288
0.24776864 0.262209 0.19094445 0.17729835 0.016182989 0.156576 0.1517341 -0.018175095
-0.019703558 0.03616543 -0.006184582 0.06321202 -0.12607636 0.11440905 0.02721567 0.001494546
0.021823697 0.016391968 -0.03795503 0.1451928 -0.10258096 0.14163207 -0.057089146 0.22700275
-0.0069013694 0.041662067 0.022624856 0.29917422 0.13671942 0.11929734 0.11873295 0.04899962
-0.021992564 -0.042130407 0.14979205 -0.08978937 0.24023424 -0.048335724 0.12782931 -0.034072757
-0.14567879 0.22583961 -0.0065024514 -0.028975736 0.08470566 -0.11391443 0.070628665 -0.064742506
-0.06518569 0.13794133 0.049635183 0.122100376 -0.07289333 -0.06571111 -0.024477188 -0.0278449
0.003900329 0.16643354 -0.15170732 -0.068815894 -0.033682853 -0.011273597 -0.022914069 0.20924406
0.052155524 0.045083307 -0.13229366 -0.014861512 -0.56756675 -0.01162783 -0.05969046 0.08188334
-0.016919993 0.07710583 0.13470513 0.091219135 -0.059979 0.15157889 0.009076189 0.164014
-0.09507914 0.14803818 -0.09450231 -0.041143194 0.14286844 0.027476572 -0.092871934 0.15910672
-0.06747576 0.20978358 -0.019505536 0.0435971 -0.10245447 -0.11601052 0.047885455 0.015984498
0.103302285 -0.022912966 0.08085916 0.11588401 -0.032488987 0.12469643 0.17300788 0.03661948
0.13870849 0.08228009 0.11281747 -0.0010330831 0.01343988 0.049354393 -0.02693173 0.10251796
-0.0596528 -0.15122813 0.13780724 0.12670887 0.01862755 0.10784772 -0.31825316 0.048823435
0.083981454 0.14355774 0.16005729 -0.009514647 -0.056339417 0.03621821 -0.05767563 0.11370384
00000000: 512a 7d3e 65e2 523e ff8c 74be 80d8 f83d
00000010: f01a 443e b856 67bc e175 603b 52f9 f83d
00000020: 117e 43bd e565 d03c 6d0c 81be b153 f1bc
00000030: 2440 183e 937e b13d 5692 3dbd f047 033e
00000040: 0903 23bd 5745 b3bc 2817 16bd c578 2c3e
00000050: f589 d2ba f520 36bc e54e 09be f2a5 7c3d
00000060: 0a60 b63c bf2d 893c 1485 a03d 295d 883d
00000070: 0605 113e e6f8 4d3d c493 203c 9e7a 013d
00000080: b6d5 7cbe 1aec 2a3d cc23 183b 31e1 a93c
00000090: 3b46 02bd 8888 de3d 5f71 bbbe c704 62bc
000000a0: e7ca 23bd feff 363e c77d 9e3d 2f41 8ebd
000000b0: dad5 f03a 3484 afbe ae1d 00be f09c cfbc
000000c0: dc16 853d cf1d 75bd aff2 dbbd 55a3 1f3e
000000d0: d919 e13d 05d6 1a3d 3285 1abe a4bd b1bd
000000e0: bb3b 8f3d c3a0 243d f2c7 65be 551f c2bd
000000f0: abc0 da3d 15f6 2c3c 43fe ec3c f598 4a3e
00000100: d65e 24be 5cd1 a4bd c4c8 4abd 7664 27bd
00000110: c309 acbd 84c3 113e 86b8 63bd d15c 4abc
00000120: 7924 c23d 109a 193c 2fd6 7fbd 0547 cc3d
00000130: 923b 4ebd b027 593e 30d0 8abe 3bd8 053e
00000140: 0db7 bcbd 538c ac3e eabf 2f3b 00bd 76bd
00000150: e496 cdb7 f991 4cbe e0e5 95bd 16a9 883e
00000160: 2019 a63d 3b46 c5ba 0947 babd 60d5 503d
00000170: bb14 373c c877 1dbe 6f67 d33d c1f0 563c
00000180: ac33 333d 6615 fb3c d845 a5bc 9b9b f4bd
00000190: fbe5 183d 896d 603d 018e 933e 3920 1fbe
000001a0: 2c58 25bb 3cd9 ab3c 59c0 533b a3ef c6bc
000001b0: 6ae1 19bc d106 0c3e 17de 9fbd 6c61 953d
000001c0: fb1e 113e 6d1a 373d 8e2b e33d ca16 e83c
000001d0: 0f82 1a3e abb3 57bd ed04 c73d 862b 0f3d
000001e0: b243 bdbd 008d 003e 13e2 1c3c 9769 9dbe
000001f0: d03e 41bd ed6f ca3d c455 033c c8b7 b33d
00000200: 10b7 7d3e 4240 863e f186 433e b38d 353e
00000210: 3092 843c 7555 203e 2f60 1b3e f0e3 94bc
00000220: 5b69 a1bc 3422 143d 09a8 cabb 4e75 813d
00000230: 291a 01be 4b4f ea3d 66f3 de3c a4e4 c33a
00000240: 9cc7 b23c 7348 863c bc76 1bbd 6cad 143e
00000250: f715 d2bd ff07 113e 4fd6 69bd 6973 683e
00000260: e224 e2bb d8a5 2a3d c357 b93c 5d2d 993e
00000270: 2d00 0c3e 2a52 f43d 432a f33d d3b3 483d
00000280: c029 b4bc ef90 2cbd 1663 193e 7de3 b7bd
00000290: f7ff 753e aefb 45bd b0e5 023e e08f 0bbd
000002a0: d22c 15be 8042 673e 8412 d5bb 865e edbc
000002b0: 297a ad3d f84b e9bd c3a5 903d b897 84bd
000002c0: 1380 85bd 7e40 0d3e 434e 4b3d c30f fa3d
000002d0: 1949 95bd 8c93 86bd 6284 c8bc fd1a e4bc
000002e0: a99c 7f3b 8e6d 2a3e 2a59 1bbe 59ef 8cbd
000002f0: 08f7 09bd e5b4 38bc 49b6 bbbc 1344 563e
00000300: 08a1 553d 46a9 383d fd77 07be b37d 73bc
00000310: 0e4c 11bf a782 3ebc fc7d 74bd 74b2 a73d
00000320: cc9b 8abc a9e9 9d3d 24f0 093e 19d1 ba3d
00000330: 8aac 75bd 7f37 1b3e 4cb4 143c 49f3 273e
00000340: dab8 c2bd 5297 173e 6d8a c1bd c485 28bd
00000350: 1b4c 123e 8c16 e13c a433 bebd dfec 223e
00000360: bb30 8abd 82d1 563e 13ca 9fbc df92 323d
00000370: a6d3 d1bd ec96 edbd 8a23 443d ecf1 823c
00000380: 2690 d33d f9b3 bbbc 7d99 a53d 9954 ed3d
00000390: 2c13 05bd d860 ff3d fa28 313e 4ffe 153d
000003a0: 9909 0e3e 7782 a83d d90c e73d 8468 87ba
000003b0: f132 5c3c d527 4a3d ee9f dcbc f0f4 d13d
000003c0: 7f56 74bd 8cdb 1abe 571d 0d3e f8bf 013e
000003d0: ce98 983c 44df dc3d 14f2 a2be 15fb 473d
000003e0: 78fe ab3d cd00 133e 0fe6 233e 52e3 1bbc
000003f0: 29c4 66bd 8c59 143d 483d 6cbd 8fdd e83d

layers.1.bias f4 [128]
-0.066116415 0.10442759 0.03233793 0.0390097 0.015614696 0.09550529 0.04190824 0.070794754
0.079056375 0.032860707 0.07656841 0.06716165 0.1762381 -0.049879715 -0.019950243 0.049607877
-0.0048961686 0.025071241 0.084538266 -0.05782271 -0.053840343 0.12856881 0.06920839 0.13525303
-0.040937707 -0.030709637 0.027332613 -0.0046879747 -0.038913086 -0.10798279 -0.020781215 -0.10718723
-0.011679028 0.035978027 -0.13410813 -0.010195443 -0.09465729 -0.07203941 -0.055486135 0.15131554
-0.019621707 -0.09673894 0.05676583 -0.07207034 -0.04280983 0.0024638525 -0.080044046 0.043147136
-0.012657514 0.029838324 0.060348134 -0.043971192 -0.02397469 0.023779958 0.020554675 0.04743663
0.06634448 0.005668382 -0.081348576 -0.009685725 -0.002999498 0.050871395 0.05714287 -0.011133691
0.081044994 -0.016809788 -0.0140065765 -0.069140896 -0.094439 0.040799443 -0.020558674 -0.10550817
0.012035332 -0.22420584 0.094798826 0.09320949 0.03408631 0.010397383 -0.0113538625 0.062515005
-0.021963008 0.017892174 0.011336208 -0.03700907 -0.004311162 -0.05025058 -0.2135519 0.090842485
-0.08689687 0.08112408 0.059053283 0.017702892 -0.092220396 0.014953415 0.0692878 0.12220041
0.08293298 -0.071502596 -0.05902879 0.050217636 -0.025598591 0.14647983 -0.0073212837 0.016752267
0.15149698 -0.0027776503 0.08833042 -0.088773444 0.012064064 0.07275801 0.065086044 0.020811027
-0.108789995 0.014092934 0.0056683808 0.11882424 0.016871568 -0.055177372 0.06888697 -0.014018127
-0.08179214 -0.09758221 0.00039059203 0.037391532 -0.0035378374 0.06479625 0.059456702 0.008460843
00000000: 0b68 87bd 22de d53d c774 043d a3c8 1f3d
00000010: c8d4 7f3c 4798 c33d faa7 2b3d d7fc 903d
00000020: 4fe8 a13d f398 063d e6cf 9c3d 0c8c 893d
00000030: c377 343e ac4e 4cbd b16e a3bc a131 4b3d
00000040: 0a70 a0bb 3462 cd3c 6622 ad3d 82d7 6cbd
00000050: b187 5cbd 8ba7 033e 21bd 8d3d c57f 0a3e
00000060: 4cae 27bd c792 fbbc a5e8 df3c 959d 99bb
00000070: 5463 1fbd 1526 ddbd 5e3d aabc fa84 dbbd
00000080: 6559 3fbc b25d 133d a453 09be ca0a 27bc
00000090: aedb c1bd 6689 93bd 6e45 63bd 76f2 1a3e
000000a0: b4bd a0bc 111f c6bd 4983 683d 9d99 93bd
000000b0: 5c59 2fbd 9678 213b 22ee a3bd 0dbb 303d
000000c0: 7661 4fbc 806f f43c 9b2f 773d 231b 34bd
000000d0: 9266 c4bc 30ce c23c 4762 a83c e94c 423d
000000e0: 9ddf 873d d6bd b93b 159a a6bd e0b0 1ebc
000000f0: 3a93 44bb 865e 503d a40e 6a3d 166a 36bc
00000100: ebfa a53d aeb4 89bc d77b 65bc be99 8dbd
00000110: 3c69 c1bd 511d 273d aa6a a8bc ab14 d8bd
00000120: d72f 453c 3796 65be e325 c23d 9ee4 be3d
00000130: 169e 0b3d c959 2a3c 8d05 3abc de07 803d
00000140: c4eb b3bc 9c92 923c 81bb 393c d396 17bd
00000150: a644 8dbb 8dd3 4dbd 59ad 5abe a00b ba3d
00000160: fcf6 b1bd 6224 a63d dbe1 713d a805 913c
00000170: 0cde bcbd 2bff 743c c3e6 8d3d 3544 fa3d
00000180: c4d8 a93d f46f 92bd 2cc8 71bd 02b1 4d3d
00000190: 23b4 d1bc cffe 153e 61e7 efbb 0d3c 893c
000001a0: 0622 1b3e 3d09 36bb 94e6 b43d dace b5bd
000001b0: 5aa8 453c 2702 953d d54b 853d e37b aa3c
000001c0: 4acd debd 0de6 663c d3bd b93b 205a f33d
000001d0: 3e36 8a3c ab01 62bd 9d14 8d3d 49ac 65bc
000001e0: a382 a7bd 2fd9 c7bd 60c8 cc39 dd27 193d
000001f0: 10db 67bb e5b3 843d df88 733d 599f 0a3c

readout.weight f4 [1, 128]
0.21113223 0.22991274 -0.33769685 -0.061966788 0.11711988 -0.55627745 -0.5051678 -0.72849417
-0.33407882 0.15074158 0.057005864 -0.62741446 0.3963595 0.19856031 0.20297885 0.18059959
0.1933014 0.22518688 0.04337268 -0.24303927 -0.13187712 -0.2496574 0.04306695 0.18104124
0.088126086 0.04223345 -0.9332525 -0.64024043 -0.0791526 0.15866528 0.07452634 -0.41289312
0.1881433 -0.6178951 -0.34218284 -0.27945888 -0.1124521 -0.24751349 -0.2904388 0.2487655
-0.0844407 -0.5538688 -0.56989646 -0.10969126 -0.21168339 0.050459016 0.02354422 -0.25599465
0.08169402 -0.23386307 0.17188671 -0.26448038 -0.0684162 0.028873054 -0.121799156 -0.1435061
-0.6591391 0.07307424 -0.26415217 -0.28179786 -0.038844157 0.1493297 0.1994643 -0.20727356
-0.6714027 0.18538837 -0.12777136 -0.22204886 -0.27512634 0.10342598 -0.108707845 0.10114686
0.030485138 -0.4874358 0.1303727 -0.22400387 0.20137148 0.13066423 0.1747253 -0.26265264
0.060662266 0.024317294 0.1302132 -0.6064042 0.21444511 0.06848283 -0.590126 0.20173123
-0.05423329 0.39433262 -0.10592758 -0.1522613 -0.6370273 0.19672579 0.21777393 0.22459249
0.07874711 -0.25380483 -0.05182684 0.21758999 0.16700187 0.23560779 -0.110845774 0.15124224
0.2361406 0.19966695 0.27123293 -0.026903909 0.05521008 -0.13652642 0.048478782 -0.34155154
0.17322826 -0.034524433 0.19770114 0.3327098 0.16964018 -0.20866379 -0.2669195 0.013748527
-0.22175957 0.19387007 0.17595203 -0.7080547 -0.061163563 0.14342397 -0.684427 0.15073094
00000000: 0c33 583e 3f6e 6b3e 9ae6 acbe e3d0 7dbd
00000010: 8cdc ef3d 3368 0ebf ad52 01bf 987e 3abf
00000020: 610c abbe 005c 1a3e fb7e 693d 3c9e 20bf
00000030: a2ef ca3e 6553 4b3e b0d9 4f3e 19ef 383e
00000040: cdf0 453e 6497 663e 8da7 313d 49df 78be
00000050: cc0a 07be 31a6 7fbe f866 303d e062 393e
00000060: 737b b43d fbfc 2c3d a3e9 6ebf cce6 23bf
00000070: c21a a2bd 2779 223e 44a1 983d ba66 d3be
00000080: a3a8 403e 602e 1ebf 9732 afbe 3c15 8fbe
00000090: 494d e6bd 2d74 7dbe 65b4 94be 62bc 7e3e
000000a0: 3fef acbd 58ca 0dbf bce4 11bf d0a5 e0bd
000000b0: 88c3 58be 1dae 4e3d cfdf c03c bb11 83be
000000c0: 324f a73d cd79 6fbe 1203 303e f969 87be
000000d0: cb1d 8cbd 2f87 ec3c d671 f9bd 43f3 12be
000000e0: 57bd 28bf f2a7 953d f43e 87be cf47 90be
000000f0: 0d1b 1fbd e3e9 183e 5f40 4c3e 853f 54be
00000100: 0ce1 2bbf 73d6 3d3e 7fd6 02be c760 63be
00000110: 5cdd 8cbe 00d1 d33d 38a2 debd 1626 cf3d
00000120: f8bb f93c 2f91 f9be 6c80 053e 4561 65be
00000130: 5334 4e3e d8cc 053e 30eb 323e 687a 86be
00000140: ff78 783d 1035 c73c 9c56 053e 4e3d 1bbf
00000150: 8097 5b3e ba40 8c3d 7f12 17bf a292 4e3e
00000160: ba23 5ebd f7e5 c93e 8ff0 d8bd 63ea 1bbe
00000170: 3914 23bf 7c72 493e 2100 5f3e 93fb 653e
00000180: 2a46 a13d b5f2 81be 6148 54bd e9cf 5e3e
00000190: 8a02 2b3e 2b43 713e 1c03 e3bd 3fdf 1a3e
000001a0: d7ce 713e 7e75 4c3e 0bdf 8a3e 9665 dcbc
000001b0: f723 623d 95cd 0bbe b091 463d d8df aebe
000001c0: c062 313e 7e69 0dbd 2b72 4a3e f058 aa3e
000001d0: 28b6 2d3e f6ab 55be aca9 88be 8041 613c
000001e0: f114 63be e085 463e c52c 343e 1343 35bf
000001f0: a586 7abd bcdd 123e 9c36 2fbf 3659 1a3e
