Homework9/Gym-DDPG-solution/results/DDPG_Pendulum-v1_1500-eps0.3-t32-l0.0001-s1.pth (torch, 174523 bytes, 12 tensors)

layers.0.weight f4 [128, 4]
000000 ea f5 a1 3e d2 34 6d be c2 fe 21 bd 7c 9f 33 3e
       0.3163293 -0.2316468 -0.039549597 0.17541307
000010 d6 39 0c bf 95 7c a3 3e 51 2c bf bc 1f af 67 3e
       -0.5477575 0.31930986 -0.023336561 0.22625397
000020 8f 5c 31 3d 52 4c 43 be 6c 33 31 3d d7 a5 81 bd
       0.04330116 -0.19072083 0.04326193 -0.063304596
000030 fa f3 6e 3e d6 94 60 be 68 51 6f 3c 76 34 5b bc
       0.23335257 -0.21931776 0.014606811 -0.013379207
000040 bb e0 81 3e 12 3a a6 3e 8a 57 5e 3e 41 ab 9e 3d
       0.25366768 0.3246618 0.21713081 0.07747508
000050 58 97 2b be 06 fc e0 be e7 9c 74 3c bb 15 21 be
       -0.16756952 -0.4394228 0.014929987 -0.15730946
000060 b1 88 0d be dc 49 70 3e f8 63 8a 3e 49 d9 20 3e
       -0.13821675 0.23465675 0.27029395 0.15707888
000070 57 e5 01 bf 97 39 ad 3e de 32 09 3e a3 81 c8 3e
       -0.5074057 0.33833 0.1339831 0.39161405
000080 a7 8d 0f 3f e8 50 32 bf 1b f2 30 be 6e 09 a4 3b
       0.5607552 -0.69654703 -0.17279856 0.005006007
000090 fa 40 00 3f 93 32 9c bd 4f e8 8e 3d 4d 84 a3 be
       0.50099146 -0.07626834 0.06977903 -0.31936875
0000a0 78 5c 1c 3f fd 62 ea bc 33 2b bf 3e 85 ab 97 bd
       0.61078596 -0.028611654 0.37337646 -0.07405762
0000b0 a6 1f 93 be d4 ea d0 3e 65 ef 37 be bc d5 79 3e
       -0.28735083 0.4080416 -0.17962416 0.2439794
0000c0 cf 39 a5 bd de aa 06 bf b2 35 ee be 7d f4 ce bd
       -0.08067667 -0.5260447 -0.4652534 -0.10105226
0000d0 20 d0 10 3f 6a de 61 3e e0 3d ac 3e 3e a6 59 3e
       0.56567574 0.220575 0.33640957 0.21254823
0000e0 68 20 25 3d 5f 2b b9 be 36 ca f1 3e ad 05 ff 3d
       0.040314108 -0.36165902 0.47224587 0.124522544
0000f0 fb ab ca be c4 89 0b 3f bd 35 a9 3e 6b 7e 9c 3e
       -0.39584336 0.5450709 0.33048812 0.305652
000100 97 7a 7f be 2d 3a 10 be df 2e fe bb ff 02 24 3d
       -0.24949108 -0.14084692 -0.0077570523 0.04004192
000110 fb 37 ab be 68 44 a2 be 80 f8 b4 3e 3e 22 fe bd
       -0.33441147 -0.31692815 0.3534584 -0.12408875
000120 a6 ee 65 3e 44 a2 52 3e 1f 1f e6 3d 87 fd 83 3d
       0.22454318 0.20569712 0.11236405 0.06444841
000130 d9 7b aa 3e 18 e7 9d 3c e9 ca e5 be 99 7a 58 3e
       0.33297613 0.019275233 -0.4488137 0.21140517
000140 de 7f d0 be 5a b3 be be c0 f7 b5 3c c4 b8 74 bd
       -0.40722555 -0.3724621 0.022212863 -0.05974652
000150 52 ea bf 3e cf 84 07 bf bb 74 bf be 9f a2 ae 3e
       0.3748346 -0.52937025 -0.37393746 0.34108445
000160 d5 64 0c be 19 89 0e 3f b4 5f 22 3e 2c 6a 84 be
       -0.1371034 0.55677944 0.1585682 -0.25862253
000170 29 4a d7 3d 50 3c 4a 3e 47 7b b1 be 8d bc 83 be
       0.10512192 0.1974957 -0.34664366 -0.2572979
000180 dc 92 e1 3d 2e 16 35 bd 31 f1 6c be 40 01 7c bd
       0.11014339 -0.044210605 -0.23138882 -0.06152463
000190 8f 40 09 3f 90 1f a8 3d cf 34 c4 3e bc f5 14 3e
       0.53614134 0.08209145 0.3832154 0.14546865
0001a0 ac da 9e be 03 22 ab be 95 4f ff 3e e9 43 41 bd
       -0.31026208 -0.33424386 0.49865404 -0.047183905
0001b0 58 1a 86 3e 4a ab 27 3e 79 88 89 3d 50 c3 9d 3e
       0.26191974 0.16373935 0.06715483 0.30813074
0001c0 35 b1 f2 3e ef d6 0d bf 92 a1 da 3c 70 8c 7b 3e
       0.47400823 -0.5540609 0.02668837 0.24565291
0001d0 23 48 bb 3e 90 02 9c 3e 8e fe 9f be fb 1a cf be
       0.36578473 0.30470705 -0.31248897 -0.40450272
0001e0 0f 3f 80 be 6c bb b6 3e 30 43 10 3f 0f b2 79 be
       -0.2504811 0.35689867 0.5635252 -0.2438433
0001f0 60 63 c3 3e f6 30 25 bf 4f 56 e1 be cb 80 d4 bd
       0.38161755 -0.64527833 -0.4401116 -0.10376128
000200 ec e8 a5 3e ad 9a 01 3f 43 42 b8 be ac f4 95 3d
       0.32404268 0.5062664 -0.35988054 0.07322058
000210 c6 81 ed 3e 70 69 f9 3e c6 16 43 3e 6e 2d 92 3e
       0.46388072 0.48713255 0.19051656 0.28550285
000220 83 fe 3d 3e 9d f4 b6 3d 6b 0b aa bd 25 35 15 bf
       0.1855412 0.08933375 -0.08302959 -0.5828422
000230 1e be de be be 7e b0 be 4d 09 34 be fd ee e1 3d
       -0.43504423 -0.34471697 -0.17581673 0.110319115
000240 bc 77 5e 3e 07 3a 18 be d1 14 50 3e b7 37 02 3e
       0.21725363 -0.14865886 0.20320441 0.12716566
000250 84 d6 92 3e cb 35 a4 3e eb cb 3c be 41 0e f5 3e
       0.28679287 0.3207229 -0.18437164 0.47862437
000260 9b 04 68 be c1 c5 c3 be 8c f0 20 bf cf 5b 3b be
       -0.22658007 -0.38236812 -0.62867045 -0.18296741
000270 58 aa b8 be 99 b4 2c be ba dc b0 3e ae d0 1e be
       -0.36067462 -0.16865768 0.345434 -0.15509292
000280 5d 88 fa be a7 15 87 3e d2 a8 9e 3d 2c df 4b 3e
       -0.48932162 0.26383707 0.07747044 0.19909352
000290 65 bf 90 be bf 04 81 3d 3f 39 29 be 13 80 4c bb
       -0.28271022 0.06299733 -0.16525744 -0.0031204268
0002a0 2b ff c7 be 84 a8 fd be 15 be e4 bd 5e 1f 36 3e
       -0.39061865 -0.4954263 -0.11169068 0.17785403
0002b0 10 5b 73 3e 4b ba 26 3f 87 b8 ce 3e 2b a1 a5 3e
       0.23765206 0.6512801 0.40375158 0.32349524
0002c0 c6 a1 d8 3e d3 d9 cd bb 88 9f 80 be 69 96 c5 3e
       0.42310923 -0.00628207 -0.25121713 0.38591316
0002d0 e7 bc 4a bc d2 18 2d bf b3 29 dc be 9a 6c 12 bc
       -0.012374139 -0.67616 -0.43000564 -0.008937025
0002e0 3c 16 eb be 00 9d 8a 3e 55 12 17 bf 54 95 da be
       -0.459154 0.27072906 -0.5901235 -0.42692053
0002f0 7a 23 a5 bb 0a 8b ba be 46 f0 c8 3d ee f9 82 be
       -0.0050396295 -0.36434203 0.098114535 -0.25581306
000300 a7 1d dd be fe 22 a6 3e 6f e9 98 3e a9 d0 89 be
       -0.43186685 0.32448572 0.29865596 -0.26917008
000310 1a ec 85 3e ea fe fd 3e fb 8e eb 3e 9d c4 89 be
       0.26156694 0.49608546 0.46007523 -0.26907817
000320 77 58 e0 3d dd cd 98 be 08 35 f8 3e bb 43 1e be
       0.10954373 -0.2984456 0.4847796 -0.15455525
000330 5f 10 bb 3e 38 50 6a 3a c8 4d 3b bb 17 f4 5b 3b
       0.36535928 0.0008938345 -0.0028580297 0.0033562237
000340 27 8e 31 3d bc 83 c6 3e f5 03 2e 3c 33 a0 e9 3d
       0.043348458 0.3877238 0.010621061 0.11407509
000350 04 74 55 be 59 ba 26 3f 70 59 97 3e e7 ed 10 3f
       -0.20845038 0.65128094 0.29560423 0.5661301
000360 30 19 c3 3e dc ef cc be d2 30 1e be 63 88 d1 3e
       0.38105154 -0.40026748 -0.15448311 0.40924367
000370 62 bf 02 bf 89 53 be 3e bd 81 3a be 2d 1c 0e bf
       -0.51073277 0.37173107 -0.18213554 -0.5551174
000380 76 83 91 3e 8f 69 25 bf fd fd 89 bd 8c 00 b1 3e
       0.2842061 -0.64614195 -0.067378975 0.3457073
000390 12 7b f6 3e c0 db e8 3e 84 00 82 bd 16 f1 af be
       0.4814077 0.45480156 -0.063477546 -0.3436362
0003a0 77 9a f2 3e b1 a6 9c be fc 63 8b be 0f ce 54 3d
       0.47383472 -0.30595925 -0.2722472 0.051954325
0003b0 13 c4 0f bf 77 f3 0f 3f b6 68 4e 3e 38 72 b7 be
       -0.5615856 0.5623087 0.20157132 -0.3582933
0003c0 9d c6 ce be 23 12 a8 3d 60 e3 7e 3e 58 15 95 bc
       -0.40385905 0.08206584 0.24891424 -0.018198654
0003d0 9a b0 84 be 22 91 2f bf 71 54 25 bf 4b 8d ee bd
       -0.25915986 -0.6858083 -0.6458197 -0.11648043
0003e0 19 35 2d bf 22 4e 20 3f bb fc 14 3e da 27 57 be
       -0.67659146 0.6261922 0.14549534 -0.21011296
0003f0 80 dd 95 3d ca 5f 70 3e d5 04 57 3d 8d fe 81 be
       0.073176384 0.2347404 0.052494843 -0.2538952

layers.0.bias f4 [128]
000000 96 05 fc be 3c c1 dd 3e 79 7d c7 3e 69 21 1b bf
       -0.49223012 0.4331149 0.38962916 -0.60597855
000010 e8 9a 1a bf 3b 29 d6 be b2 c4 c5 be 7e d6 d4 bc
       -0.6039262 -0.4182833 -0.3862663 -0.025981184
000020 bc f0 51 bf 51 ed dc be 0f ce 92 3e 62 85 b7 be
       -0.82007957 -0.43149808 0.28672835 -0.3584395
000030 73 87 93 be 5b fc 39 bf e8 0a e5 3d f3 57 91 3d
       -0.28814277 -0.7265069 0.11183721 0.07096853
000040 f7 1d af be 4a 0b fd be d5 35 82 3e ca 8d bb 3d
       -0.3420255 -0.49422675 0.25431696 0.091579035
000050 27 ec 9c 3e 65 8b 67 3c 71 ea 14 3d 06 28 b5 be
       0.3064892 0.014132355 0.036356393 -0.35382098
000060 31 29 01 3f 2a 23 dd 3b e1 b5 f2 be 0c 34 1b 3f
       0.5045348 0.0067485766 -0.47404388 0.6062629
000070 02 53 e4 3e b2 6b 9e be 18 95 66 be a0 e0 75 be
       0.4459458 -0.3094154 -0.22517812 -0.24011469
000080 d6 85 40 be 15 07 9d 3e 7d ec 25 be 30 0d 23 3f
       -0.18801054 0.30669466 -0.16203494 0.63692
000090 6a 92 63 be a9 cc b9 3e d1 71 28 3e e9 9b a5 be
       -0.22223821 0.36288956 0.16449668 -0.32345513
0000a0 10 11 cf 3e b4 3d 01 bf 36 8b bb be 4a 41 d2 bd
       0.40442705 -0.50484776 -0.36629647 -0.10266359
0000b0 8f b8 eb 3e c0 d1 86 be 15 2f 57 be 6f 44 ce be
       0.46039245 -0.26331902 -0.21014054 -0.40286586
0000c0 f1 75 7c bd a1 94 97 bd 33 2a 3d bd e7 22 c5 be
       -0.061635915 -0.074013956 -0.046182822 -0.3850319
0000d0 8d 76 89 3e b4 a2 9d be b4 02 ec be d2 57 ce bd
       0.2684826 -0.30788195 -0.46095812 -0.10075344
0000e0 f1 d6 32 bd 05 77 2a 3d 8c 41 f2 3e d3 13 02 3e
       -0.043662015 0.041617412 0.47315633 0.12702875
0000f0 56 a0 0c bf e2 65 b8 be 67 92 01 3e e7 9d 47 be
       -0.54932153 -0.3601523 0.12653504 -0.19493829
000100 7a f7 94 bc 85 51 31 be 6d 9b ce 3e 42 6a 6e be
       -0.018184412 -0.17316253 0.40352955 -0.23282722
000110 57 7a 10 3f ca a0 f2 3d fc 0e 5d be 68 5a a8 3e
       0.56436676 0.11847074 -0.21587747 0.32881474
000120 44 07 62 3e dd 5d ce be e3 b1 ed be b5 72 dc 3e
       0.22073084 -0.40305987 -0.4642478 0.43056265
000130 ba fb f7 3d 28 aa 01 3f 95 33 d2 bb 68 3f 16 3f
       0.1210856 0.5065026 -0.0064148405 0.586905
000140 53 b7 90 3e df aa 53 3e 31 8e 39 be 62 88 1b 3f
       0.28264865 0.20670651 -0.18120648 0.6075498
000150 1f 31 3a 3e 08 c4 c4 be df d9 6b bd e1 64 f9 3e
       0.181828 -0.3843081 -0.057580825 0.48709777
000160 23 4e 93 3e e2 25 e3 3b e7 b8 f6 3e e9 0a c8 3e
       0.2877055 0.006932006 0.48187944 0.39070824
000170 05 38 e9 be 16 d0 04 bf d6 61 03 3f 47 41 11 3f
       -0.45550552 -0.51880014 0.5132116 0.5674023
000180 a1 9f d6 be ba 15 81 3e 74 25 bb bd c4 4c 99 be
       -0.41918662 0.2521189 -0.09138003 -0.2994138
000190 a2 2f 81 be 40 69 0a 3c 0f fd 22 3d 26 d3 da 3e
       -0.25231653 0.008447945 0.039792117 0.42739218
0001a0 ea 53 e5 3e 9d dc 93 3e 7e 32 2e 3f 6b 45 58 3e
       0.44790584 0.28879252 0.68045795 0.21120231
0001b0 eb b6 72 3e de 72 da be 18 cf 1b 3f 94 cc 00 3e
       0.2370259 -0.42665762 0.60862875 0.1257804
0001c0 f9 35 9b 3e 4b 48 bb 3e ca d1 1e be df 55 9b 3e
       0.30314615 0.36578593 -0.15509716 0.30338952
0001d0 db a8 a0 3c d6 0d 09 3f b8 18 03 3f 6f 09 1f be
       0.019611767 0.53536737 0.5120959 -0.15530942
0001e0 9b b9 c3 3d cf 0d f5 be 26 d4 6e be 0f d1 3e be
       0.09556886 -0.47862098 -0.23323116 -0.18634437
0001f0 3e 23 2f 3d 72 16 ee bd 38 c4 21 bf 0b cf 08 bf
       0.04275822 -0.11625375 -0.6319003 -0.5344092

layers.1.weight f4 [128, 128]
000000 01 72 eb bd 39 a1 f2 3c 08 57 4f 3e c7 a5 9d bd
       -0.11496354 0.029617893 0.20248044 -0.07697635
000010 0f 41 a2 3d ca 0c e4 bc 25 4c 74 bd 31 7a d7 3d
       0.07922565 -0.02783813 -0.05964293 0.10521353
000020 2c 96 26 bd 30 01 ab bd 2e 93 9b bd 3c 63 68 3c
       -0.04067056 -0.08349836 -0.07596432 0.014183816
000030 39 d0 b1 bd a4 d5 70 bd 08 a9 39 bd 41 df cd bc
       -0.086822934 -0.058797494 -0.045327216 -0.02513087
000040 d9 59 3d be 18 17 c8 3d 51 92 92 3a 0e 3e 04 3c
       -0.18491305 0.0977003 0.0011182522 0.008071436
000050 06 ea 40 3d 30 6a b7 3d c8 a1 78 bd 5b 82 ce bd
       0.047098182 0.089558005 -0.06070116 -0.10083457
000060 4a 3a 54 3d 99 15 12 bd 5e 6a b6 3d d0 f9 4c bd
       0.0518134 -0.03566513 0.08907007 -0.050042927
000070 df 2b 29 bc 10 15 b7 bd 6f 1f 4f 3d a0 a6 49 bd
       -0.010325401 -0.08939564 0.050567087 -0.04923117
000080 20 ae d6 bd c6 32 85 3c d5 bc ee bc b5 7d b0 bb
       -0.104824305 0.016259562 -0.029142777 -0.005386079
000090 9c 37 85 bd 48 74 8b 3c 4c 1f 72 3d 17 3c c1 bc
       -0.06504747 0.01702322 0.05911188 -0.023588223
0000a0 88 7c a1 3d 9d cc f1 3c c9 20 c0 bd a8 1a 30 bd
       0.078850806 0.029516513 -0.09381253 -0.04299417
0000b0 ab d8 9b 3c b4 a9 b6 bd 18 71 bd 3c 25 c7 0b be
       0.019024214 -0.08919087 0.023125216 -0.13650186
0000c0 85 a7 1d bd a3 02 a1 bd cd 83 2d 3d e3 5c 42 be
       -0.038489837 -0.07861831 0.042362023 -0.18980746
0000d0 7f 6c 9f bc 5d 89 ba ba d8 f4 be bd be 4f c1 bd
       -0.019460915 -0.0014231611 -0.09324044 -0.09439038
0000e0 26 89 c9 3d ed ea 40 bd 67 1b 1f 3d a1 90 07 3d
       0.09840612 -0.047099043 0.038844492 0.033096913
0000f0 1d 43 30 bd 7c 12 85 bd ff 3c 6c bd 99 d3 3c bd
       -0.043032754 -0.06497666 -0.057675358 -0.046100233
000100 0d c0 e2 bc e7 ca 7d bc 18 d3 23 3d 7a ff 5d 3d
       -0.027679468 -0.01549027 0.039996237 0.05419872
000110 d7 ed aa 3d ec 10 77 bd ca bb c3 3c 45 a4 6a bc
       0.083461456 -0.060318872 0.023893256 -0.0143213915
000120 b5 44 24 3e fd de 15 be 03 cb 56 bd 62 3f 13 3e
       0.16041835 -0.14635845 -0.0524397 0.14379647
000130 97 fa 67 bc f5 52 39 3e 34 f8 c8 3c 91 36 8b bd
       -0.014158866 0.18098052 0.024532415 -0.06797517
000140 d0 49 f3 3d 4e a2 70 3c 2e 05 35 3d 40 a8 c3 3d
       0.11879313 0.014687134 0.044194393 0.095535755
000150 ac 9b be 3d 81 ce a4 3d dd ad c9 3c 9f 51 0e 3c
       0.09307036 0.080472 0.024619037 0.008686452
000160 e7 0f d0 3c 7e b1 1b bd 1f 75 e0 3d 8e 44 ab 3d
       0.025398208 -0.038011067 0.10959839 0.08362685
000170 55 03 92 39 e3 6a d6 bd da cc e5 3c 2a 03 33 3d
       0.00027849773 -0.10469606 0.028051782 0.04370419
000180 94 bb ad 3d e6 65 30 bd 90 ee f6 3c b1 87 fa bc
       0.08483043 -0.043065928 0.030143052 -0.03058228
000190 61 d4 0a be 07 5e a3 bd f0 05 8f 3d 5a 4d 4b 3d
       -0.13557579 -0.07976919 0.06983554 0.049634315
0001a0 48 e9 63 bd da 5a 12 3d 52 12 a6 3d 3e bb 04 3e
       -0.055642396 0.035731174 0.08108963 0.12962052
0001b0 21 ea 5c 3d d5 21 83 bc 52 d9 76 3d 40 de a8 3d
       0.05393422 -0.016007343 0.060265847 0.08245516
0001c0 f9 a1 97 3d 6e 4b 4f bd a4 ad b1 bc 76 9b a0 3d
       0.07403941 -0.050609045 -0.021689244 0.07842152
0001d0 f6 84 80 3d bb d2 40 3e 7a d0 f1 bc 08 02 9f bd
       0.0627536 0.18830387 -0.029518355 -0.07764059
0001e0 33 7a a8 bd 0c b5 fd bc c7 1b d8 3b 65 4d e4 bd
       -0.08226433 -0.030970119 0.006595108 -0.11147574
0001f0 7e 1e 2f bd 92 18 e9 3c 9b 83 2f bd 7f 9c 1d 3d
       -0.04275369 0.028454099 -0.042850118 0.038479324
000200 27 88 69 3d 38 c1 64 bd 31 b3 d6 bd 71 04 f1 3d
       0.05701461 -0.05584833 -0.10483397 0.11768425
000210 b1 66 ed bd d6 4c 19 3e 71 e0 a4 3d ec 92 45 bd
       -0.115918525 0.14970717 0.08050621 -0.04823582
000220 ca 84 83 bc f5 f3 bb bc f8 0c d1 3c 73 01 c0 bd
       -0.01605453 -0.022943476 0.02551888 -0.093752764
000230 8e a0 7c bd cb 4b ea 3a 27 05 a2 3c a6 31 d6 bc
       -0.061676554 0.0017875371 0.019777847 -0.026146721
000240 77 46 08 3d 91 d5 04 bd ff 3c 9c bd fa 1c a5 bd
       0.033270326 -0.032430235 -0.076288216 -0.080621675
000250 28 4a 30 3d 49 bc 96 3c 2c 98 a4 bd 47 45 c0 bc
       0.04303947 0.018400328 -0.08036837 -0.023470534
000260 99 e5 bc 3c 5c 48 90 3d 2d 9c e6 3d 39 0c 1e 3d
       0.0230587 0.070450515 0.11260257 0.038585875
000270 e0 77 cc 3d 40 18 2d bd 92 b8 e8 3b b4 07 9b bc
       0.09983802 -0.042259455 0.0071020806 -0.018924572
000280 c3 05 e2 bb 46 f7 ab 3d 9e 6d 1b 3d 8f e2 1e 3e
       -0.0068976595 0.08396773 0.037946336 0.15516113
000290 00 a3 25 bd 1b 34 e1 bd 34 55 9f bc 5f 6a c0 3d
       -0.040438652 -0.109962665 -0.019449808 0.09395289
0002a0 d7 95 d1 bd b3 39 a0 bd 31 43 e4 3c 21 90 af bc
       -0.10233658 -0.07823505 0.02786407 -0.02143103
0002b0 a3 79 3f 3c 2d 3c 13 bd 30 ed 84 bd 3b 5a 1d 3e
       0.011686715 -0.03594606 -0.064905524 0.15366451
0002c0 e8 61 a4 3d 71 93 e9 3d 62 b1 bd 3d ba 54 96 3d
       0.08026487 0.11405075 0.09262349 0.07340379
0002d0 55 fb ce bc 56 57 9a 3d 37 72 7a 3c 68 3f 33 3c
       -0.025266329 0.07536189 0.01528602 0.01094041
0002e0 3e d2 42 3d f1 7c 7c bd 6d 33 93 bb a1 56 c8 bb
       0.047563784 -0.06164259 -0.0044922144 -0.0061138426
0002f0 17 b5 99 bd b6 e5 3e bd e8 63 4e 3d 18 2f b7 3d
       -0.07505243 -0.04660579 0.050388247 0.08944529
000300 d1 eb 50 3c 02 01 ea bd 9a 49 97 3d d9 6c 10 3d
       0.0127515355 -0.114259735 0.07387085 0.035260055
000310 03 a2 96 3d 0a bb 6d bd d5 61 f3 bc 1e d3 88 3d
       0.0735512 -0.058039702 -0.029709736 0.066808924
000320 a5 f3 74 bc 35 7e cd bc 38 45 bb bd b8 37 40 bd
       -0.0149506675 -0.025084594 -0.09144062 -0.046928138
000330 35 ba 60 3c ca 0a 78 be 95 80 4a bd 94 c7 1f 3c
       0.01371627 -0.24222866 -0.04943903 0.009752173
000340 c9 19 8a bc aa 4c 89 3d 68 a7 c6 bd f0 13 a6 bd
       -0.016857998 0.06704076 -0.09699899 -0.081092715
000350 4f 25 b1 bd aa 9f 21 bc c0 e4 a1 bc 7a 5c 5c 3d
       -0.08649694 -0.009864727 -0.019762397 0.05379913
000360 27 cc 8e bd 34 4f 9b bd f2 94 d2 bc 57 17 d4 bd
       -0.06972533 -0.07583466 -0.025705788 -0.10356014
000370 61 70 1f 3d 3d db b6 3a 28 02 38 bd 6e f6 c7 3d
       0.038925532 0.0013950836 -0.04492393 0.097637996
000380 18 34 a8 bd 5d c1 58 3d de 7c 42 3d 58 84 cb bd
       -0.08213061 0.05291878 0.047482364 -0.09937352
000390 6c 5a 06 3b f6 b4 bf 3d 35 90 80 bd b1 e3 1b 3d
       0.0020500673 0.093606874 -0.06277505 0.03805894
0003a0 ed 5d 32 3d a6 c4 40 bd 69 cc 04 3a 9b 6e 06 bd
       0.043546606 -0.04706254 0.000506586 -0.032820325
0003b0 05 fc cf bd 56 3c 19 bc a4 e0 dc bc 8b 47 df bd
       -0.10155491 -0.009352764 -0.026962586 -0.109023176
0003c0 c2 d6 66 bc 29 82 2b 3b ed ad 55 3d 16 f2 e1 3d
       -0.014089288 0.002617011 0.05216782 0.11032502
0003d0 68 14 fa 3c 19 e8 a2 bd f4 76 72 3d e6 42 94 3d
       0.030527309 -0.07954425 0.059195474 0.07239322
0003e0 6a b0 16 3d 0f 08 0a 3d 0f e8 18 3d a0 60 2a 3e
       0.036789335 0.03369909 0.037330683 0.16638422
0003f0 78 18 25 3d c0 98 ee bc c5 46 19 bd d2 7a a1 bd
       0.04030654 -0.029125571 -0.037421007 -0.07884754

layers.1.bias f4 [128]
000000 64 06 56 3e 0e ec 17 be fe 89 93 3d 33 30 a8 3b
       0.20900875 -0.14836141 0.07204054 0.005132699
000010 f2 8b 7e bc 8c e9 ae 3d e0 3d e5 3d 4c cc 73 3d
       -0.015536295 0.08540639 0.11193442 0.059521005
000020 3a 97 00 3e b8 50 b7 bd 34 9d 5b bd 19 94 bd 3d
       0.12557688 -0.08950943 -0.053616717 0.09256763
000030 ba 5f d7 bd c8 1c 66 3d 0a 25 77 bd 8a 7d 04 be
       -0.10516305 0.05617979 -0.060338058 -0.12938514
000040 42 7a cc 3d 98 1b 63 bd b3 f2 26 3d f3 94 6f 3d
       0.09984256 -0.055446237 0.0407588 0.05849166
000050 c8 a0 2d 3e dd e4 01 be 66 2e 73 bd 6d eb 29 3e
       0.16955864 -0.1268496 -0.05937042 0.16593714
000060 30 95 38 3e a8 99 e2 3d 5a 92 f5 3d 05 9d 53 3d
       0.1802566 0.11064464 0.11990805 0.051663417
000070 23 d1 c8 3d b5 b7 73 bd b1 2e bf bb 84 64 e8 bd
       0.09805515 -0.05950137 -0.0058344235 -0.11347297
000080 77 0f 73 bd e1 65 85 bd 8e f5 8c 3d 45 64 b1 3d
       -0.05934092 -0.065135725 0.06882773 0.08661703
000090 d9 d4 25 bd 65 1b 98 3d 33 8c 1d be da 3a 36 3e
       -0.04048619 0.074271 -0.15385513 0.17795888
0000a0 e8 b6 93 3d b2 eb 2a be a7 a0 25 be 70 dc af bd
       0.07212621 -0.16691473 -0.16174565 -0.08586967
0000b0 17 13 4a be 12 17 2c 3e 9c 29 f8 bd d0 48 1f 3e
       -0.19733845 0.16805676 -0.12117311 0.1555512
0000c0 44 fd 4a 3e 02 6d 0c be 30 9b 3a bc 05 ab d2 3d
       0.19823176 -0.13713458 -0.011389539 0.10286526
0000d0 ba 11 2a 3e 11 74 b8 3d 7c c4 9c bd 45 30 90 bc
       0.16608325 0.09006513 -0.07654664 -0.017601142
0000e0 be e8 ca 3d e6 a6 07 bd 19 27 8c 3d a3 0e 36 be
       0.09907673 -0.03311815 0.06843395 -0.17779021
0000f0 0c 11 40 3b a8 a0 2a 3d ad ce c3 bd 9f 4b eb bc
       0.0029307036 0.04165712 -0.09560905 -0.028722582
000100 68 11 b5 bc 97 2b e7 3c f8 ff 34 3e 60 71 89 bd
       -0.022103027 0.028219027 0.1767577 -0.06711078
000110 2d 66 1c 3e 6e 1a 31 3e 25 87 f1 3c 17 a7 28 3e
       0.15273352 0.17295238 0.029483387 0.1646999
000120 79 7b ac 3c b4 e4 90 bd 08 5a 2f be 24 e8 53 3e
       0.02105497 -0.07074872 -0.17124188 0.20694023
000130 5a a8 4b 3e 73 02 ea bd 0b 14 c9 3d 3c 68 2c 3d
       0.1988844 -0.114262484 0.09818276 0.042091593
000140 5b 44 33 bd 09 8e 75 3d 18 a1 82 3d d4 4e f0 3d
       -0.04376636 0.05994991 0.063783824 0.11733785
000150 38 69 29 be a9 99 41 3e f3 ea 11 be a6 1e 1d bc
       -0.16544044 0.18906273 -0.14249782 -0.009589827
000160 a4 6f 31 3e c5 fe da 3d 86 28 0f 3e d6 8d 3f be
       0.17327744 0.10693125 0.13980302 -0.1870645
000170 ca fb 05 3e 5c 33 e0 bd e3 03 9f bd a9 f8 d3 3c
       0.13084331 -0.10947296 -0.07764413 0.025875406
000180 25 cf dc bd 84 6e 0b 3e 17 ad 30 be 6f 72 02 3d
       -0.10781697 0.13616377 -0.17253529 0.031847414
000190 b1 89 40 be 73 24 69 3e 04 83 db 3d 3e 08 14 be
       -0.18802525 0.2276781 0.107183486 -0.14456269
0001a0 8a c7 ec 3d 0b 1b 07 bc 13 f1 b3 bd 20 10 d1 bd
       0.115614966 -0.008246194 -0.08786216 -0.10208154
0001b0 8d 99 43 bd 1a 20 9c bd ea 57 91 bd 58 06 96 bb
       -0.04775386 -0.076233104 -0.070968464 -0.004578393
0001c0 d4 79 3c 3e d4 07 1f 3e 3a 4a d9 bd 1a af cf 3d
       0.18405849 0.1553033 -0.10609861 0.1014082
0001d0 07 ba 94 3d a8 fe f9 3d ac 13 38 3d bc e9 4a 3e
       0.072620444 0.12206775 0.044940636 0.19815725
0001e0 40 c4 3b be 76 26 9f bd 31 a4 c6 3d 9c 5f 36 3e
       -0.18336582 -0.07771008 0.09699286 0.1780991
0001f0 2b c7 37 3e 83 18 03 be 77 92 f4 3d c3 cc 04 bd
       0.1794707 -0.12802319 0.119419985 -0.03242184

layers.2.weight f4 [64, 128]
000000 d1 0d 36 bd 17 7f 22 3e 7e e6 23 bc d8 45 f3 b9
       -0.04444677 0.15868793 -0.010003684 -0.0004640061
000010 ea eb 75 bd b0 01 df bc 19 8e 6f bd d4 c1 d2 3d
       -0.06003944 -0.027222484 -0.058485124 0.10290876
000020 f2 de 27 3d 4b ef 1a 3e 06 91 10 3c 56 e5 b0 bd
       0.0409841 0.15130346 0.008823639 -0.08637492
000030 e1 f5 39 3e 62 09 a5 3d 5f d6 92 3d 17 71 18 3e
       0.18160202 0.0805843 0.07169794 0.1488689
000040 5f ca f7 bc 3d 33 9d 3d 0a ab 80 bd b3 64 79 bd
       -0.030247865 0.076757886 -0.06282623 -0.06088705
000050 79 79 c7 bd ad 90 27 3e 5c 08 20 bd 09 f9 81 bd
       -0.09739966 0.16363783 -0.039070472 -0.06346328
000060 1f fd ca bd 7c 3e 0a be cf ca dd bc 02 76 3a bd
       -0.0991156 -0.13500398 -0.027074246 -0.045522697
000070 44 b1 1c be ea 9f 95 3d 41 ee bd bd 03 e9 1b 3d
       -0.15301996 0.07305892 -0.09273959 0.038064014
000080 72 1a c1 3d bc 95 84 3d 3a 2f 00 bd 62 ba 2d be
       0.09428872 0.06473872 -0.03129504 -0.1696563
000090 e2 45 49 3c bd 30 56 3d e4 8e 82 3d 17 54 05 bd
       0.012284728 0.052292574 0.063749105 -0.032550897
0000a0 2c 00 25 be 81 b6 5e 3d c9 23 6f 3c 1e 5f 07 3e
       -0.16113347 0.054373268 0.014595934 0.13219878
0000b0 7b 8b 1b 3d 06 5e b2 bd b4 fe 2a 3e c3 68 e0 bd
       0.037974816 -0.0870934 0.16698724 -0.10957482
0000c0 6b 5c 49 be 96 d4 21 3d 52 cc ad 3d fb d1 e4 bd
       -0.19664161 0.03950938 0.08486237 -0.11172863
0000d0 dd cc 3c be 0f db 42 3c ca 87 1e 3e 52 55 8c 3d
       -0.18437524 0.011893048 0.15481487 0.06852211
0000e0 0c d5 e3 bd fc 31 44 3b ac c9 ef bd 17 59 60 3d
       -0.1112462 0.002993702 -0.11708388 0.054772463
0000f0 40 67 0b 3d d1 b3 8c bc 2b 0f fc 3b 5f e2 dd 3d
       0.034034014 -0.017175587 0.007692238 0.108341925
000100 2f 85 3c bb e6 1a ad bd 11 f3 25 be 6c ba 12 3e
       -0.0028765907 -0.08452396 -0.16206004 0.14328927
000110 02 c2 e2 3c be ce 2b be 7c 2e b8 bd 0f 11 c6 bd
       0.0276804 -0.16778085 -0.08993241 -0.096712224
000120 d1 89 0b be d0 c8 f0 b9 a7 71 6b 3d de a0 90 be
       -0.13626792 -0.00045925984 0.057481434 -0.28247732
000130 1d 75 00 be a7 29 e0 3d 07 34 27 be 72 cc 68 3d
       -0.12544675 0.109454446 -0.1632844 0.0568356
000140 e2 00 ac 3b 90 ee fb bd ba 09 91 bc 69 0b 0f bd
       0.0052491287 -0.123013616 -0.017704833 -0.03492299
000150 e5 d5 4c 3c 8c 72 a6 bc 6a 5d c9 3d 31 60 af 3c
       0.012502168 -0.020318292 0.098322704 0.021408172
000160 14 cb 15 be 91 f5 75 be bf 46 22 be bb e9 05 3e
       -0.1462825 -0.24019457 -0.158473 0.13077442
000170 32 2f 27 be bf 39 70 3e a2 bb e2 3d ed b9 72 bd
       -0.16326597 0.23459528 0.11070944 -0.059259344
000180 c5 92 64 3e 82 f8 06 be f2 a1 16 3e 7a 73 11 3b
       0.22321613 -0.13180736 0.14710215 0.0022194074
000190 2f 20 be 3d 88 33 41 bd d5 58 1f be e7 62 0b 3e
       0.09283482 -0.047168285 -0.1556123 0.13611947
0001a0 cc 74 9c bd b1 0f 3b bd 43 01 9a 3d e5 06 eb ba
       -0.07639465 -0.04566926 0.07519772 -0.0017931132
0001b0 f5 ed 6f 3c dc 55 a5 3d bb 48 85 bc 24 23 40 3c
       0.014644136 0.08073017 -0.016270032 0.011727128
0001c0 73 8a 05 be 60 9e 64 be fe 6a 28 3e 28 25 4b bd
       -0.13041095 -0.2232604 0.16447064 -0.04959598
0001d0 b8 96 05 be 22 05 2e be d2 68 97 3d 99 9d 83 be
       -0.13045776 -0.16994146 0.0739304 -0.25706175
0001e0 f1 17 e9 3d 15 3d d3 3c 84 81 fa bd a0 d7 3b be
       0.113815196 0.025785962 -0.122317344 -0.18343973
0001f0 2c 95 19 be 05 2e a0 3b 95 a1 6d bd 74 f4 ed 3d
       -0.14998311 0.0048882985 -0.058015425 0.11618891
000200 26 fb c8 bc ab 35 05 3e 7f 61 26 be aa 18 e3 3c
       -0.02453382 0.13008754 -0.1624813 0.027721722
000210 37 0a a6 bb 88 e0 84 bc bb ec f8 bd 7f 5d c1 bd
       -0.0050671357 -0.016220346 -0.12154528 -0.09441661
000220 53 bf 1c bc 52 17 ec 3d e2 e9 d3 bd bb 06 00 be
       -0.0095671 0.115278855 -0.10347344 -0.12502567
000230 2d 6c 83 3d 27 25 34 3e b6 0e 1d 3e 0d ed dc 3c
       0.06417117 0.17592297 0.15337643 0.026968503
000240 a5 1b 2a bd 55 37 b3 bc 45 f5 15 be f6 9f 08 be
       -0.04153027 -0.02187697 -0.14644344 -0.1334227
000250 c8 d8 be 3b 25 95 d4 3d 6d 0a 90 3d 2d e2 c7 bc
       0.005824182 0.103800096 0.070332386 -0.024399841
000260 e3 1e 79 bd 8d ce cd bd 44 d9 e5 bd 85 5a d9 bd
       -0.06082047 -0.10049162 -0.11223081 -0.10612968
000270 b0 f6 b7 bd c6 bc ea 3d 47 5e df bd cf 65 4d 3e
       -0.08982599 0.11461787 -0.10906654 0.20058368
000280 e8 eb 84 3d d8 c5 9c 3d 9c d7 11 be 88 c7 dc 3b
       0.06490308 0.07654923 -0.14242405 0.006737653
000290 6d 5a 03 3d c6 49 5b bd 3a 71 de 3d dc 5a f0 bd
       0.03206866 -0.053537153 0.1086144 -0.1173608
0002a0 15 c7 38 bd 08 65 ce bc 35 01 b4 3d 79 d7 0b 3d
       -0.045111734 -0.02519466 0.08789293 0.034141038
0002b0 fe 62 4a 3d 78 63 91 3c 2f c2 5e 3c a5 42 03 be
       0.049410813 0.017747626 0.013596102 -0.12818392
0002c0 e9 58 76 bd be 70 3d 3e cf 44 a0 bd d8 62 d9 bd
       -0.060143385 0.18500039 -0.07825624 -0.10614556
0002d0 94 e9 bf bd 2a 55 fd bd 50 ad 07 3e 7f c8 3e bc
       -0.09370723 -0.123697594 0.13249707 -0.011644482
0002e0 7c 94 d4 bd 5f 8a ab bd b7 0b 61 bd cb 69 c5 3d
       -0.10379884 -0.083760016 -0.054942813 0.09639319
0002f0 97 b7 52 3d 91 96 10 be 4d 51 f7 3d 70 0e 00 bc
       0.051444616 -0.14119937 0.12076054 -0.007815942
000300 d8 22 5e 3d ac 04 a0 3c e9 f1 37 3c f3 f6 04 3c
       0.05423245 0.019533478 0.0112271095 0.008115518
000310 10 7d d7 bb 7e af 84 bd a7 c1 21 3d 32 cb 9a bc
       -0.006576188 -0.06478785 0.039491322 -0.01889572
000320 9a d0 91 3c 0e 86 41 3e c4 b1 9b 3d 28 73 0d be
       0.017799664 0.18898794 0.076022655 -0.1381346
000330 02 5e d1 bd 0e 4a dd bc be 4c 75 bc 18 76 a3 3a
       -0.10223009 -0.027012851 -0.01497191 0.0012471108
000340 de d4 e7 3d df 70 cd bd 7c ce c6 bc 40 d4 09 bd
       0.11319898 -0.10031294 -0.024268381 -0.033649683
000350 41 a3 28 3e 17 67 0d be 07 e3 1f 3e 67 d4 b1 bd
       0.16468526 -0.13808857 0.15613948 -0.08683091
000360 74 46 eb bd 23 2d 9a bc 49 81 c7 bd ed 27 05 3e
       -0.11488047 -0.018820351 -0.09741456 0.13003512
000370 a0 a3 0e bd 90 00 73 3d f7 ce 1c 3e 66 66 37 bd
       -0.034824014 0.05932671 0.15313326 -0.04477539
000380 47 a9 16 bd ad 34 e9 3c a1 67 16 3e b2 b4 6b bd
       -0.03678253 0.0284675 0.14687969 -0.05754537
000390 1d 34 ee 3d f1 56 c4 bd 65 39 10 bd a0 99 54 3d
       0.116310336 -0.09586895 -0.035210986 0.05190432
0003a0 0d 6e 0c be 01 d6 94 3d 53 1a fc 3d 06 6c c7 bb
       -0.13713856 0.072673805 0.123097084 -0.0060858754
0003b0 99 28 dc bd b9 ff 42 3e 1e a8 c5 3d 5f 36 17 3d
       -0.10749931 0.19042863 0.096512064 0.036917087
0003c0 47 2a 02 be b9 a8 1c 3b 46 70 33 3e f2 ee 03 be
       -0.1271144 0.0023904277 0.17523298 -0.12884119
0003d0 2a c6 98 bc bb 69 f5 bd a1 e4 15 be 99 c6 8f bd
       -0.01864918 -0.11983057 -0.14637996 -0.07020301
0003e0 61 fa c7 3d f1 a9 ce bd ad f3 f4 bd 33 e7 e2 bd
       0.09764553 -0.100910075 -0.1196054 -0.11079254
0003f0 c8 57 b3 bd 02 8e 3f 3d 1e 23 d4 bc c0 af 39 bc
       -0.08756977 0.04676629 -0.025895651 -0.011333406

layers.2.bias f4 [64]
000000 52 8b ff bc b7 c6 7a 3c ad a4 1e be 28 de 4f 3c
       -0.031194363 0.015306166 -0.15492506 0.0126872435
000010 d3 83 75 bd bc b6 f9 3d 76 db ec bd 85 0b 54 bd
       -0.05994017 0.12193057 -0.11565296 -0.0517688
000020 78 ce a1 3c 28 c9 b2 bd b0 9b 92 3c 8d 9f e1 3d
       0.019751772 -0.08729774 0.017896503 0.1101676
000030 19 67 07 bd 4b 16 26 bd ad 71 1a 3e 05 d2 c6 bb
       -0.033057306 -0.040548604 0.15082426 -0.0060675167
000040 5b 66 dc bc 91 89 90 3c 4f 61 b9 3d e9 c1 04 3d
       -0.026904276 0.017643722 0.09051763 0.03241149
000050 c5 f8 d4 3d f6 28 90 bb f0 a5 b4 bd 02 47 f2 bc
       0.103990115 -0.004399414 -0.088207126 -0.029574875
000060 f1 03 2b 3c 3a f9 8f 3d 18 fb b1 3c bf 4c e3 bc
       0.010437951 0.07029958 0.021726176 -0.027746556
000070 b7 fc 1f 3e 95 25 c1 3d 8a 71 d7 bd 35 cb 1f 3e
       0.15623747 0.09430996 -0.10519703 0.15604861
000080 09 1e 1b be c8 5e 22 3e 39 cb a4 bd 9a 93 8e bc
       -0.15148176 0.15856469 -0.08046574 -0.017404366
000090 c2 21 c9 bc b1 25 02 3e 8d 9a ce 3d a2 d7 73 3b
       -0.02455223 0.1270969 0.10088072 0.0037207385
0000a0 54 a0 a8 bd fa 1e 10 be 69 10 d8 bd 4d 67 0c 3e
       -0.08233705 -0.14074317 -0.10550005 0.13711281
0000b0 ec ba 39 3e b4 bc 3d 3e 19 c7 92 bd 2e 2b 09 3d
       0.18137711 0.18529016 -0.07166881 0.033488445
0000c0 72 d5 33 bd c0 d1 8f bd 28 b9 90 3c 66 b5 0f bd
       -0.04390473 -0.070224285 0.017666414 -0.035085104
0000d0 33 b7 2d 3e ad d0 cc bd b3 7b d5 3b 76 56 89 3d
       0.16964416 -0.10000739 0.0065149902 0.06705944
0000e0 03 33 e4 bd 3c d0 f0 bd d0 c8 5d bd 50 c5 80 bd
       -0.11142542 -0.117584676 -0.054146588 -0.062876344
0000f0 c7 63 bd 3c c1 8d 2c 3e a8 26 f4 bd fb 42 1d be
       0.023118867 0.1685095 -0.119214356 -0.15357582

readout.weight f4 [1, 64]
000000 10 4d b3 3f 4e a3 b8 3f 95 a2 b4 3f dd 59 c7 bf
       1.4007893 1.4424837 1.4112116 -1.5574299
000010 ae 12 cd bf 99 c0 ba bf bb 9a b4 3f 38 2d c3 3f
       -1.6021326 -1.4590026 1.410972 1.5248175
000020 04 01 cc bf 3f e1 b9 3f 76 48 b3 bf be 2b b9 bf
       -1.593781 1.4521865 -1.4006488 -1.4466474
000030 61 3a b6 3f 70 eb b0 3f 0a a0 be bf e0 f0 b7 3f
       1.4236566 1.382185 -1.489259 1.4370384
000040 b8 69 b1 3f 90 42 be 3f 7c d9 b3 bf 5e 09 cc bf
       1.3860388 1.4864063 -1.4050746 -1.5940359
000050 63 99 b8 bf c0 08 ce 3f a2 8a cb 3f e0 5c c6 3f
       -1.442181 1.609642 1.5901682 1.5497093
000060 12 6d b7 bf ad 79 c1 bf e6 5f b2 bf 76 0d c4 3f
       -1.4330161 -1.5115258 -1.3935516 1.5316608
000070 ae 38 b7 bf 88 e2 b8 bf 98 77 d1 3f f6 45 ae bf
       -1.4314172 -1.4444132 1.6364622 -1.36151
000080 0a 05 af 3f 5a fc c3 bf 62 98 b7 3f 8c e8 b1 bf
       1.3673413 -1.5311387 1.4343379 -1.3899093
000090 6f 62 b7 3f a2 01 d3 bf f1 65 b9 bf 75 6f ba bf
       1.4326915 -1.6484873 -1.4484235 -1.4565264
0000a0 35 70 b7 3f 26 f9 d2 3f f2 2d c2 3f b5 f6 ae bf
       1.4331118 1.6482284 1.5170271 -1.3669039
0000b0 c7 7b c5 bf 24 51 af bf a2 19 b3 3f ad 55 c7 bf
       -1.5428399 -1.3696637 1.3992198 -1.5573021
0000c0 9b 07 cb 3f cc c1 d8 3f 3a f6 b5 bf cc fc bf 3f
       1.5861696 1.6934142 -1.4215767 1.4999022
0000d0 26 a6 c2 bf ee f8 bb 3f f0 70 d0 bf 29 c9 bf bf
       -1.5206954 1.4685342 -1.6284466 -1.4983264
0000e0 55 d5 ac 3f 79 7c bc 3f f7 e7 d2 bf 8a 7d b5 3f
       1.3502604 1.4725486 -1.647704 1.4178936
0000f0 61 ca b8 3f 46 37 d0 bf b2 ca ba 3f fa 00 b4 3f
       1.4436761 -1.6266868 1.4593108 1.4062798

layers.0.weight f4 [128, 3]
000000 d4 57 d5 3e 23 25 dc 3e b2 3f 3f 3f 2f ce 06 bf
       0.4166857 0.42997083 0.74706566 -0.5265836
000010 81 9d e4 3e ac 9d db be 15 a9 ae 3e bc 3d 76 3d
       0.44651416 -0.42893732 0.34113374 0.06011747
000020 4e c3 2f bf 7d 2f ce 3d 2a 7e 48 bf a2 e7 39 3f
       -0.68657386 0.100676514 -0.7831751 0.7261907
000030 bc ef 87 be 26 bb f1 be ca c0 4b 3f 6f d1 91 bd
       -0.2655009 -0.47213095 0.7959105 -0.071200244
000040 06 9d 6f bf 9c 40 4d 3d 72 88 b7 be 55 9d 3d bf
       -0.93598974 0.050110444 -0.35846287 -0.74068195
000050 63 14 95 3e 1e e7 cc be 88 b5 c5 bd 2c cf 38 3f
       0.29117116 -0.40020078 -0.09653765 0.7219112
000060 98 d6 34 bc b7 84 07 bf 7c a0 05 3f da d4 fd be
       -0.011037491 -0.5293688 0.52198005 -0.49576455
000070 88 66 cc 3e b1 96 0a bd 7c 68 21 3f 29 8c 10 bf
       0.39921975 -0.033835117 0.63050056 -0.5646387
000080 7e 08 ce be 4b 27 c1 3e b1 6f 3f be 27 ac 0b bf
       -0.40240854 0.3772529 -0.1869495 -0.5455956
000090 94 57 8b 3e 26 35 0e 3f 36 7a ab bd d8 b7 a1 3e
       0.27215254 0.5554985 -0.08372919 0.31585574
0000a0 06 d4 62 bf d2 9f fd 3e fb ba 3f 3f d8 6f 28 be
       -0.8860477 0.49535996 0.74894685 -0.16448915
0000b0 87 cf b0 bc 7f cc ed be 65 a1 31 bf 62 ed ad 3e
       -0.021583332 -0.4644508 -0.69386894 0.3397017
0000c0 a0 e6 29 bf 7a cf 97 3f 51 a9 08 3f 19 36 1c be
       -0.6636753 1.1860192 0.53383356 -0.15255012
0000d0 03 90 ae be 0c c6 dd be 9c 99 20 3f 37 72 da 3e
       -0.34094247 -0.4331516 0.6273439 0.42665264
0000e0 cd 63 26 3e 36 04 35 be 61 29 7d be dc aa 20 bf
       0.16249008 -0.17677388 -0.24722816 -0.6276071
0000f0 a5 f5 0c 3d 95 2b 84 3f 3d 28 8c 3e b1 e1 24 bf
       0.034413952 1.03258 0.2737445 -0.6440688
000100 c8 2b 95 3e d4 b9 91 3d 96 bd 56 3e 52 b5 b7 3e
       0.29134965 0.07115522 0.20970759 0.35880524
000110 21 92 1c bf b6 15 db bb 56 31 2b be d8 91 c2 be
       -0.61160475 -0.0066859378 -0.16718039 -0.38001895
000120 eb 28 f6 3d 11 c3 35 bf 35 b7 28 bf da e2 e9 be
       0.12019523 -0.7100077 -0.6590455 -0.45680887
000130 ba 8d c3 bd e8 93 de 3b cb 9f b5 3e 84 3f 06 bf
       -0.095485166 0.006792534 0.35473475 -0.5244067
000140 60 0e d7 3e 7f a7 22 3f c0 2a 8c be de 05 ff bc
       0.42003155 0.6353683 -0.27376366 -0.031130727
000150 ac 1b f3 be 04 09 1e be 22 04 83 bd 87 1a 0d bf
       -0.4748205 -0.15433127 -0.06397273 -0.551186
000160 cd 59 d5 3e 69 ae 46 bf de 9c fa be 2e c4 9b 3e
       0.41670075 -0.7760988 -0.48947805 0.3042311
000170 53 92 10 3f a1 96 ad 3d 23 49 1a 3f 43 81 e8 bc
       0.56473273 0.08475996 0.6026785 -0.02838195
000180 83 28 87 3e a1 0e d1 be 24 ed d0 be 89 bf ad 3e
       0.26398095 -0.40831473 -0.40805924 0.33935192
000190 26 6b e7 3e fa 17 27 3f be 65 9d be 86 33 33 bd
       0.45198935 0.6527096 -0.30741686 -0.04375031
0001a0 05 86 21 3f 01 35 d4 3e 06 37 22 3f d2 ef 4f bc
       0.6309512 0.4144669 0.6336521 -0.012691455
0001b0 bd 4a 77 3e c8 c6 77 3f 59 6d 41 3e ca 11 67 be
       0.24149604 0.9678769 0.18889369 -0.2256538
0001c0 bb b4 47 be 89 cf 17 bf 6d 0e 11 bf be 10 0c bf
       -0.19502537 -0.5930105 -0.56662637 -0.54713047
0001d0 33 0b 16 be 2d 21 22 3f b4 23 cf be 6f 71 0d bf
       -0.1465271 0.6333187 -0.40456927 -0.5525121
0001e0 64 00 85 bd 75 d9 9a 3e c5 19 17 bf fc 1e 29 bf
       -0.06494215 0.30244032 -0.59023696 -0.66062903
0001f0 13 b0 f0 be 59 2c 88 3e f2 ed 2d 3e 79 ae 52 3f
       -0.47009334 0.26596335 0.169853 0.82297474
000200 75 44 b9 be 49 5d 6c 3c c7 f5 f3 3c fc 3e 26 bf
       -0.3618504 0.014426538 0.029780282 -0.64939857
000210 4e d0 49 be ae 25 4b bf 11 36 d1 3e f6 86 50 3f
       -0.19708368 -0.7935437 0.40861562 0.81455934
000220 0d c9 24 bf a1 a5 30 bf 62 f6 04 3e dd c2 37 3f
       -0.6436928 -0.6900273 0.12984613 0.7178171
000230 80 33 bf bb 65 34 d7 be 03 6c 43 bf a1 84 0a bf
       -0.0058349967 -0.4203216 -0.7633669 -0.54108626
000240 bf 37 2c 3d e3 7d 26 3f 06 fb e6 3e 4f 43 c7 be
       0.04204535 0.6503584 0.4511339 -0.3891854
000250 f4 2d 2e 3f 2a 91 82 3d 28 36 a8 be ad 3c 60 3e
       0.6803887 0.06375344 -0.32853818 0.21898146
000260 6f d3 28 bf a1 73 a9 3d 52 a3 1b 3f 4f 6e 79 3d
       -0.6594762 0.082740076 0.6079608 0.060896214
000270 6e b3 a8 be f7 ac 39 bf 63 b2 a0 be d0 a4 a5 be
       -0.32949394 -0.7252955 -0.31386098 -0.32352304
000280 70 0f 10 bf d9 28 2d bd 41 db e2 3e a1 96 48 3f
       -0.56273556 -0.042275283 0.44307902 0.7835484
000290 a4 37 79 bd c4 55 1f 3f 33 8c 86 3f 5c 18 8d 3d
       -0.06084408 0.6224024 1.0511535 0.06889412
0002a0 d9 1d 3d 3e a1 05 8c be b0 bd a0 3e 90 0b 11 3f
       0.18468417 -0.27348045 0.3139472 0.5665827
0002b0 53 40 be bc fa 3c 15 bf 49 1e f5 be 3a f9 e5 be
       -0.023224032 -0.5829617 -0.47874668 -0.44916707
0002c0 0d a4 65 3e 70 1d bd be da 57 2c 3e 0f ad 06 bf
       0.22425862 -0.36936522 0.16830388 -0.52607816
0002d0 ae 31 1a 3f 62 36 f8 3e 68 88 0a bf b0 ca b1 be
       0.60232055 0.4847899 -0.5411439 -0.3472495
0002e0 56 b6 98 3e ce 75 a6 bd c1 95 0f bf 01 12 00 be
       0.2982661 -0.08127938 -0.5608788 -0.12506868
0002f0 06 20 be bd 98 4a a4 bd dc 61 0e 3f e6 22 48 3e
       -0.09283452 -0.0802204 0.5561807 0.19544563
000300 4c b7 61 bc 4a c0 78 3f e3 05 4d 3e 35 f9 9e be
       -0.013776612 0.9716841 0.20021777 -0.31049505
000310 10 1d 5a bf 35 e4 b8 be 84 2e 9a 3e 69 76 b4 3d
       -0.85200596 -0.36111608 0.30113614 0.088116474
000320 79 5c cd 3e 13 63 0b be b2 8b 65 3f 23 0b ec bd
       0.40109614 -0.13612013 0.89666283 -0.11525562
000330 37 5f 35 bd 64 ff 6e bf 47 be c9 be bf b4 11 3d
       -0.044280257 -0.93358445 -0.39402983 0.035572764
000340 34 7e 0d 3f fb c2 3d bf 6a 01 19 3e 0c f4 24 bf
       0.55270696 -0.7412564 0.14941946 -0.64434886
000350 09 29 01 3f e5 a4 04 bf 64 bb a2 3d 67 29 f4 be
       0.5045324 -0.5181411 0.07945898 -0.47687837
000360 5c a5 cf be 17 d5 b3 be c4 42 cd bd f0 12 2a 3f
       -0.40555847 -0.35123512 -0.100225 0.66435146
000370 f7 22 13 3f f8 21 15 3d 07 2b cf bc e3 9f 0a 3f
       0.5747523 0.03640935 -0.025289072 0.5415022
000380 b7 8a 15 bd 74 68 07 bf a5 34 94 3e 89 06 2b bf
       -0.036509242 -0.5289376 0.28946415 -0.66806847
000390 b6 54 63 3e fc 10 f8 be a4 6f f1 3e 38 ab 5f 3e
       0.22200283 -0.48450458 0.47155488 0.21842659
0003a0 58 8f 19 3f 67 21 10 3f 0f c8 29 be b5 ae 94 3e
       0.5998435 0.5630097 -0.16580223 0.2903954
0003b0 8f dc 08 3d 2e f2 1c bf cd 4d cc 3e b1 2b 69 3d
       0.033413466 -0.61307037 0.39903107 0.056926433
0003c0 11 22 52 bd 73 a0 ef be e7 50 9a be de 01 95 be
       -0.05130202 -0.468021 -0.3013985 -0.29102987
0003d0 8d 22 51 3f 2a 09 1e 3f 7d 34 b6 be 6d 03 e6 be
       0.81693345 0.61732733 -0.3558692 -0.4492449
0003e0 e0 4e d2 bd 84 15 35 be 67 52 1e bd 2f 21 0e bf
       -0.102689505 -0.17683989 -0.038652804 -0.55519384
0003f0 f3 22 6a 3e 55 61 92 3f 7e 01 8f 3e 52 b0 7c 3e
       0.22864895 1.1435953 0.27930826 0.24676636

layers.0.bias f4 [128]
000000 86 9a 8f be 8a 1e b3 be 68 d5 db be 64 1c e7 3e
       -0.2804758 -0.34984237 -0.42936254 0.45138848
000010 dd 38 23 3d 57 61 b5 bd 11 26 a4 bd c4 19 8a 3e
       0.03984915 -0.08856457 -0.08015073 0.26972783
000020 17 e3 cc be fc 7c 16 bd 47 bc 89 bc 9b 04 d0 be
       -0.40017006 -0.03674029 -0.01681341 -0.40628514
000030 40 4c f7 bd c5 24 2b 3f e4 b5 16 3f a3 38 9d 3d
       -0.120750904 0.6685298 0.58871293 0.07676818
000040 1f b5 23 be 1a 52 0e 3f 3f 90 9a 3e e6 24 cc 3e
       -0.15987061 0.5559403 0.30188176 0.398719
000050 4f 61 5a 3d f0 2b 18 3e e0 f4 8e be 5d 73 f7 be
       0.053315457 0.14860511 -0.279212 -0.48330203
000060 c9 e2 b3 3e 65 84 df 3c fc 98 98 3c 97 53 d4 3e
       0.3513396 0.02728481 0.018627636 0.41470024
000070 47 17 fe bd e8 6d 0c be b6 d4 7d be 0a 73 ea 3d
       -0.124067836 -0.13713801 -0.24788174 0.11447723
000080 4a c7 a3 3d dc 0c 48 be c0 6e e4 3e 96 8c d9 3e
       0.07996996 -0.19536155 0.44615746 0.4249007
000090 3c c3 57 3e 6b b2 8f 3b b3 fe f3 3e b1 50 1c bc
       0.2107057 0.0043852828 0.47655258 -0.009540723
0000a0 6b f9 10 3e e0 e0 7e be dd 0b c9 3e 57 f3 3c 3e
       0.14157645 -0.2489047 0.39266863 0.18452202
0000b0 61 53 80 3e 3d a2 0e be 19 12 0d 3e 01 8b 2c 3f
       0.25063613 -0.13929076 0.13776435 0.67399603
0000c0 6e 87 7f 3e 21 84 17 3f 7c 14 20 be 83 b7 09 bf
       0.24954006 0.5918599 -0.15632814 -0.5379564
0000d0 cd 60 70 bc 6c 83 af 3e aa d5 94 be 96 3c 13 be
       -0.014671517 0.34279954 -0.29069263 -0.1437858
0000e0 c5 5c cd bc 75 a8 34 3e 94 ce af bc 64 d3 53 be
       -0.02506865 0.17642386 -0.021460809 -0.20686108
0000f0 65 28 d9 bd 01 95 e3 be c3 49 8a 3e fd 1a f9 bd
       -0.10603408 -0.44449618 0.270094 -0.12163351
000100 58 5a 02 3f 6b b8 50 bd 8c c7 07 3e 89 02 43 3e
       0.50919104 -0.050957125 0.13259715 0.19043936
000110 d3 e7 a2 3e 61 9b 90 3e 99 79 9a be 06 fd 2e 3e
       0.31817493 0.28243545 -0.30170897 0.17088708
000120 57 10 a7 3e ba 0b 83 3c 46 d7 e5 be b9 35 98 be
       0.32629654 0.015996803 -0.44890803 -0.29728487
000130 2c f8 13 3f c9 2f 8e bd 93 d6 d6 3e a5 cc ec 3e
       0.57800555 -0.06942708 0.41960582 0.4624988
000140 2b 69 96 3e c1 e4 1e 3e da 48 ab 3e 20 2f 17 bf
       0.29377112 0.1551695 0.3345402 -0.5905628
000150 ca 86 c5 3e 9c d5 f8 be 1e 3c 13 b9 06 d0 ec be
       0.38579398 -0.4860047 -0.00014041408 -0.4625246
000160 da 60 c2 be 70 62 15 3e 36 bf db be 49 03 14 3f
       -0.37964517 0.14588332 -0.4291932 0.5781751
000170 5f da e2 3e 3f 8e 03 3e 86 6c 6f 3e 6b a6 e6 bd
       0.4430723 0.12847231 0.23381242 -0.112622105
000180 ce f3 09 3e 07 58 58 bc 2a 70 85 be 8b 9f 80 bc
       0.1347191 -0.013204581 -0.26062137 -0.015701076
000190 99 7d 05 bb 10 35 db be 6b 4d e2 3d 67 30 24 3f
       -0.0020369051 -0.4281392 0.110499226 0.64136356
0001a0 d6 3b 17 be 8d e4 30 3e c1 40 eb bd 31 6c 91 bd
       -0.1476892 0.17274685 -0.1148696 -0.07100714
0001b0 cf 08 21 bd 4b bb 85 be e8 2c 01 3f 03 97 f5 be
       -0.03931504 -0.26119456 0.50459146 -0.47966775
0001c0 1f 89 f4 3e bb a5 9b be 1b 62 a7 3e e0 bf 7c be
       0.47760865 -0.3039988 0.32692036 -0.2468257
0001d0 6a 35 04 3f 19 12 20 3f 95 4b b3 be a1 b9 c8 3e
       0.51644003 0.62527615 -0.35018602 0.39204124
0001e0 d1 52 54 be 32 c7 f9 3d 35 04 8d 3e 04 cb c8 3e
       -0.20734717 0.121961966 0.27542272 0.3921739
0001f0 bb 80 86 3e 6a 70 01 be 4c cf a5 3b 66 db 42 3d
       0.2627009 -0.12640539 0.005060112 0.047572516

layers.1.weight f4 [128, 128]
000000 f3 96 d1 3e d9 40 9f 3d 31 2f 1a be bb db bc bd
       0.40935478 0.077760406 -0.15057065 -0.09221598
000010 62 50 46 be a8 d0 1f 3e 32 62 04 be 41 bf dd bd
       -0.19366601 0.1560694 -0.12928084 -0.108274944
000020 43 a5 06 3e 81 ca 61 bd c9 1f b3 bd ca 2b c9 bd
       0.1314898 -0.055124763 -0.08746297 -0.09822805
000030 7c 7d c4 bd cb 67 b9 bc e9 74 d7 3c 28 1d 1e be
       -0.09594247 -0.0226325 0.026300864 -0.1544081
000040 54 8e a7 be 65 4e 59 3d 10 e3 dc 3d 00 d8 ad 3d
       -0.32725775 0.05305328 0.10785496 0.08488464
000050 2f e3 2f 3d a7 97 81 bd 16 76 d6 bd b0 25 42 bd
       0.04294127 -0.063277535 -0.10471742 -0.047399223
000060 1a 57 75 bd 2b fc b5 3d 1d 85 99 3d d2 94 6e bd
       -0.05989752 0.08885988 0.074960925 -0.058247395
000070 4c de 3f 3d 70 2f 16 3e 06 b8 9f be 9e 65 e1 3d
       0.04684286 0.14666533 -0.31195086 0.1100571
000080 81 77 9a 3c 44 da aa 3e 3d 34 09 be ad 4d db 3c
       0.018855812 0.33369648 -0.13398834 0.026770437
000090 85 2b 96 3e 86 49 22 3e aa c2 98 3d 6f 95 b6 bd
       0.29330078 0.1584836 0.07459004 -0.08915221
0000a0 f0 34 79 3d 03 c8 b4 bd 58 d7 96 bd 38 f2 97 3d
       0.0608415 -0.08827212 -0.07365292 0.074192464
0000b0 08 6f 3f be bc 3e dd bd f3 b4 fa 3d 0b 9f 6d 3d
       -0.18694699 -0.10802981 0.122415446 0.058013003
0000c0 88 0a a7 3d e3 1f 4f 3d ba 71 b4 3d d7 32 94 be
       0.081563056 0.05056752 0.08810754 -0.28945038
0000d0 e9 48 81 3e 60 b3 0e 3d bf 69 b2 3e 9b b0 f4 3d
       0.2525094 0.034839034 0.34846303 0.11947747
0000e0 47 89 5b 3e 9d e0 1b be f1 e5 b1 3b b3 a9 54 3c
       0.21439086 -0.15222402 0.0054290225 0.012979913
0000f0 c7 9f c0 bd b8 e5 81 3e 84 8e 56 3b 35 68 9f be
       -0.09405475 0.25370574 0.0032738755 -0.3113419
000100 ba f2 a7 3d 64 f8 04 3e 9b 4a cd 3d 1f e3 53 bd
       0.08200593 0.12985379 0.100239955 -0.05173027
000110 fd 45 dc 3b d7 80 d6 3d 98 b1 a0 3e d4 c4 cf 3d
       0.0067222104 0.10473793 0.31385493 0.10144964
000120 72 07 cc 3d 02 a1 6c 3e ea 72 65 be f2 47 84 3d
       0.099623576 0.23108295 -0.22407117 0.06459035
000130 2a 7b 11 3d 03 fc 7e 3e ab b9 a1 3d 1f ed 5e 3d
       0.03551785 0.24900822 0.078967415 0.054425355
000140 16 7f d2 3b 2f d6 b2 bd ee 11 0a 3e 9a 8e bf bd
       0.006423841 -0.087322585 0.13483402 -0.09353371
000150 b6 65 c0 3d 6b 80 07 be 6d 38 d0 3c ef a2 5e be
       0.093944 -0.13232581 0.02541753 -0.21741842
000160 e6 dd 54 be 1b c4 1f be ad 6e ed bd a4 e0 bd 3c
       -0.20787773 -0.15602152 -0.11593375 0.023178406
000170 ca 8d 9a 3d 11 04 85 be 96 a3 f0 bd 0e 76 1e 3e
       0.07546575 -0.25979665 -0.117499515 0.15474722
000180 f6 cb 2e 3d b9 19 55 3e 67 39 26 3c b4 36 e2 bc
       0.04267498 0.20810594 0.010145522 -0.027613975
000190 f4 40 46 be b3 ac 10 be fa 43 6f bd d9 e6 9e 3d
       -0.19360715 -0.1412838 -0.058414437 0.077588744
0001a0 75 3a ab be af 80 f6 bc 23 2b e9 3d a7 11 11 be
       -0.33443037 -0.030090658 0.11385181 -0.1416689
0001b0 be 54 b0 3e 53 7a 34 be ae 66 2c 3d 5f b2 65 be
       0.34439653 -0.17624788 0.04209011 -0.22431324
0001c0 55 9a 69 3d d0 d2 81 3e 02 ce b7 3d a2 5a 58 3e
       0.057031948 0.2535615 0.0897484 0.21128324
0001d0 28 b3 0c 3d 53 9d 63 bd d2 dc 79 be 31 c7 8b 3d
       0.034350544 -0.055569958 -0.24400643 0.06825102
0001e0 8c 31 43 3e d7 d7 9b be 8e 38 97 3c de e2 02 3d
       0.1906187 -0.3043811 0.018459585 0.03195464
0001f0 e1 d1 1e be 9c a1 36 3e 0c f9 cd 3d 32 58 1d 3e
       -0.1550975 0.17835087 0.100572675 0.15365675
000200 d2 55 6b 3c c5 11 34 3e 24 ec 81 bd fd 20 a6 3d
       0.014363723 0.17584904 -0.063438684 0.08111761
000210 dd b7 ab bc b2 27 06 3e c1 90 44 3e 52 d8 9e bd
       -0.020961696 0.1310108 0.19195844 -0.077561036
000220 8a ac a8 3c a0 3d a6 be 24 ae 64 bd cf 0c da 3c
       0.020590086 -0.3246889 -0.055830136 0.026617436
000230 1a f2 31 3e 23 f5 24 3d d4 a3 b4 3d 89 d9 3f 3d
       0.1737751 0.040272843 0.0882031 0.046838317
000240 6d 89 25 be 9d 9b ae bd 7b 62 c5 3d bc 78 a5 bd
       -0.16165705 -0.08525775 0.09637924 -0.08079669
000250 02 fe 3a 3d 6d 68 28 be f4 b7 9f 3d 15 b7 ac 3d
       0.045652397 -0.16446085 0.07798758 0.084333576
000260 25 ea 2f be 60 be 66 be c3 0a d3 ba da 60 3d bd
       -0.17179163 -0.2253356 -0.001610123 -0.046234943
000270 52 0c 48 be 59 7c 31 3e 4b 9c 3b bd 20 ca 5e 3d
       -0.1953595 0.17332591 -0.04580335 0.05439198
000280 3d 54 0a be 4c 18 4c 3d 95 50 5e bd 8a b3 90 3d
       -0.13508697 0.04982786 -0.054276068 0.07065494
000290 96 4f 90 bd 97 d8 cd 3d fe 8e 63 be 2d a7 93 bc
       -0.0704643 0.10051077 -0.22222516 -0.018024052
0002a0 e7 39 e4 3d b5 66 52 bd 65 f1 1e bd 38 64 49 3c
       0.111438565 -0.05136748 -0.03880443 0.01229196
0002b0 e3 3a 30 bd 96 74 e2 bd 50 d8 50 3e 35 94 95 bd
       -0.04302491 -0.11057393 0.20395017 -0.07303659
0002c0 a0 fe 41 3c 17 79 04 be de c0 97 3d 71 7b 14 be
       0.0118404925 -0.12936817 0.07409833 -0.14500214
0002d0 24 c9 5e 3d 89 4c b8 bd 3b bc 8c 3e e3 87 49 3e
       0.05439104 -0.08998973 0.27487358 0.19680743
0002e0 58 d4 18 3e b9 da 26 3d b3 9a 11 bc 0c 89 16 3e
       0.14924753 0.040735934 -0.008886981 0.14700717
0002f0 bf d5 6c bc 2f 6c 0e be 0c 85 f9 bd 94 57 2a be
       -0.014455258 -0.13908456 -0.1218358 -0.16634971
000300 05 0e c4 bd fb 23 db 3d f3 42 54 bd 8c 57 8c 3e
       -0.095729865 0.10700222 -0.05182166 0.27410543
000310 cc f9 a2 bd ed 38 c6 3d 2b ee 07 3e 2d 6a 2e 3d
       -0.07957801 0.096788265 0.13274448 0.042581726
000320 13 65 a2 bc 8c 02 a5 3d fa 63 ba 3d 00 90 06 3e
       -0.019823587 0.080571264 0.091011 0.13140869
000330 19 fc 47 3d d0 a2 6e bd 69 77 9a bd fb 65 8c bd
       0.048824403 -0.05826074 -0.07542307 -0.06855389
000340 3b 5e 38 bd f6 c2 8e bd da 78 81 bd 56 e0 4c 3d
       -0.04501174 -0.069707796 -0.06321879 0.05001863
000350 e9 65 68 3d 6e 7a 01 be 2c 9a 13 bb b0 f7 4c be
       0.056737814 -0.1264436 -0.0022522314 -0.2001636
000360 d2 83 db bd 31 8b c9 3c e3 71 b6 3d a3 f7 64 bd
       -0.10718502 0.024602504 0.08908441 -0.055900227
000370 d1 dc c6 3d c0 8f 10 be ff dc c6 bd 4f 9e 6e 3d
       0.09710086 -0.14117336 -0.097101204 0.058256444
000380 d5 52 58 be 6d de ec 3d d1 ad 1c 3c 3d a5 4b 3e
       -0.21125348 0.11565862 0.009562925 0.19887252
000390 1b 5a 33 be c8 27 8b 3c 57 f3 25 bd 78 31 d2 bc
       -0.17514841 0.016986743 -0.04051527 -0.025658354
0003a0 ed 29 fa be c5 9d 81 3c ef 36 a1 3d 87 45 35 be
       -0.48860112 0.0158223 0.07871806 -0.17702304
0003b0 42 64 c3 3d 59 4e d9 3d 4e 7f a8 3d 16 18 0e 3d
       0.09540607 0.10610647 0.082274064 0.03469094
0003c0 1b 52 dc 3c 49 63 6a 3e 7c b6 a6 3d 86 ff 0d bc
       0.02689462 0.22889437 0.08140275 -0.008666879
0003d0 2f 30 26 be 4c bf b8 3d a6 e6 3f 3c 4d 6f ba 3d
       -0.16229318 0.09020862 0.011712706 0.0910326
0003e0 8f 39 27 3e 06 7c fb bd b1 52 29 be cb e3 c0 bb
       0.1633055 -0.12279515 -0.1653545 -0.00588653
0003f0 d1 45 bf 3d 6d 46 c8 3d b6 96 6a bd 17 8b 01 3e
       0.09339488 0.09779058 -0.057272635 0.12650715
