Homework9/Gym-DDPG-solution/results/DDPG_LunarLander-v2_500-eps0.3-t32-l0.0001-s2.pth (torch, 180667 bytes, 13 tensors)

layers.0.weight f4 [128, 10]
00000000: 775a 183e 5998 40bd 163e d03d 0e23 81bd
00000010: 2957 fc3d 21a1 2d3e 79eb bfbd 6e02 c5be
00000020: 99d8 df3d 1b6d 95be f1c2 db3c 95a7 093d
00000030: c915 88bd 726b 993e 08d8 ec3c c305 c23d
00000040: 8bed fd3d 7c4b 4dbe 1324 1dbe 5766 8f3e
00000050: 26f0 cbbe 0020 1c3c 4cbd e8bd fb9a a83e
00000060: fe7c 153e 8a84 623e 6344 4ebd abb7 edbd
00000070: b6e1 d7bd e9e3 4bbe df10 97be 33ca 75be
00000080: 1459 a13d 247a 943e 74b3 68bc efd9 70bc
00000090: 47f5 d93d bf7d 3dbe 2a38 c2bd cc89 69be
000000a0: 5344 e4bd 33b2 9ebe 6f43 403e d4ef ff3d
000000b0: 2f0f b23d 3681 453e 8be9 e33d c7e7 9bbc
000000c0: f751 923c 2878 763d 8fd7 403e 7521 7d3e
000000d0: 259a 793e 8812 b23e bffa 213d be9f 27bc
000000e0: 36c4 d3bc a17e 8a3e f089 dc3c a6fb 843e
000000f0: 779c 753e d605 8abe 1856 073e fca8 ca3e
00000100: 0466 b43e 3b8d 33be 59d2 c03d 52b5 a8be
00000110: 7b78 04be 7dc2 5d3e 3b22 c2be e6a6 873e
00000120: 8b3e 79be ed0d 473e eb4b 823d 2fcd 823e
00000130: f761 c83b e94c 56be e40d 0ebc 2f29 5abe
00000140: b78e 573e 7921 2dbd 7ff5 afbe eaa6 063e
00000150: 77b9 8d3e 936b bcbd d802 163d c232 983e
00000160: 8664 21be 4cf6 3fbe 4b82 24be 251c 20be
00000170: 6204 d13e 212a 11be 619f 813e 9e75 be3e
00000180: 8d83 9cbe aa26 06be 3f97 82be fde9 81bd
00000190: 1eed 3bbe 70b9 fcbc 16d5 b5be 0dff 5a3e
000001a0: bd2c a33e bbfd 6a3e 610c 7c3e af7a b83e
000001b0: e72a 8cbe ce47 303a 4662 883e fc2c 99be
000001c0: 563d 9abd bc18 0b3d 0f5b 1fbe 741b cebd
000001d0: 65cd 483c 78ab ea3e 1752 a7bd dbc0 1f3e
000001e0: 26f4 393e ce70 1b3e c71a 94be fdd7 9c3e
000001f0: a591 e83e e5fb 6dbd 8891 d3bd 8d0c e13e
00000200: 4fbe 88be 4bb2 8dbe 39de 91be f468 0b3e
00000210: eabc 3ebe 68ea a3be 13fc 7b3e 8517 e03d
00000220: 35b3 763d e3e7 05bf 7a37 b53e 00d3 9ebc
00000230: 2887 81be 4fa2 32bd cff6 9c3e fc4f a73d
00000240: b40d 90bd c417 623e 6716 94be c3a4 af3e
00000250: ed00 b03e fe75 26be 8f41 49bd aa68 95bd
00000260: 86ec aabe 4acb d53d 7cb8 0fbe a314 d0be
00000270: 3282 42be d500 55bb 8886 a53e 1ad6 c43d
00000280: 2984 0bbe 78dc 803e be33 8d3a 1c23 bdbe
00000290: ddf4 ab3d ab1a 8b3e ec93 66be 66df 9bbd
000002a0: 3ada d9bd 7748 4fbe 6875 1fbe 8d0f 3b3a
000002b0: 677e 5f3e 8d00 04be 02b2 d4be eb7a dbbd
000002c0: 4537 93be 8d90 bfbd a473 2e3e 5661 2b3e
000002d0: 4fb7 73be ccf2 08be e049 bc3d 5588 2d3e
000002e0: f89f a4be 7232 77be 59ed 23bd 4119 863e
000002f0: a2ad 5b3e e8f6 2b3e cd5f 083d 9bbc 9dbe
00000300: 7029 5b3e cc10 ee3d 24b4 00bd 5a55 0abe
00000310: 2b36 d93d 88de 1cbe 9dfe b83d 90c2 4b3e
00000320: 4d0f 17be 16e9 71be e7d3 e2bd 5b94 75be
00000330: 5bd6 cf3d edba 583e 74a9 e03d d139 1cbd
00000340: bba7 63bb 92a7 28be fcda 8fbe c535 92bd
00000350: 4f10 9a3b 5450 84be 0223 abbe a261 943d
00000360: 71d0 5abc 8863 b2be b2dd 873d 72cf a23e
00000370: fe6c 53bb 9dac 65be bfba 9a3e e1c8 8e3e
00000380: 40ac a4bd d1a0 6abe e381 09be 9613 483e
00000390: 90f8 103e cc86 53be 5d35 c63c efee 8e3d
000003a0: fc2c b63a 8ce8 6cbd edfc e0be c89a 7bbd
000003b0: 78eb 13bd ef78 6bbd abed 70be c678 20be
000003c0: 7999 09be 30ff 6b3e 0e9a 8cbe 6837 bcbe
000003d0: c2bc 893e 9641 963d 35d0 1f3e f888 e03b
000003e0: 0b50 efbc d16c 57be fcac 93be 0e31 963b
000003f0: 7a8a 3e3c 8ff4 cfbe ea9b b7be e409 693e
0.1487826 -0.04702029 0.10168092 -0.06305514 0.12321312 0.16955997 -0.09371085 -0.38478416
0.109299846 -0.29184803 0.026826354 0.033607084 -0.0664478 0.29964787 0.028911605 0.09473755
0.12398823 -0.20048326 -0.15345792 0.28007767 -0.39831656 0.009529114 -0.113642305 0.3293074
0.14598462 0.22120872 -0.050358187 -0.116072975 -0.10541098 -0.1991116 -0.2950506 -0.24002914
0.078783184 0.28999436 -0.014202941 -0.014700397 0.10642486 -0.18505 -0.09483369 -0.22806472
-0.11145844 -0.3099533 0.18775724 0.124969155 0.08694302 0.19287571 0.11128529 -0.019031418
0.01786135 0.060173184 0.18832229 0.24719794 0.24375208 0.34779763 0.03954577 -0.010230957
-0.025850397 0.27049735 0.026921242 0.25973243 0.23985468 -0.26957577 0.13216436 0.3958205
0.35234082 -0.17534344 0.09415121 -0.32950836 -0.12936585 0.21656223 -0.3791674 0.2649452
-0.24340264 0.19438906 0.063621365 0.25547168 0.006115194 -0.20927776 -0.008670304 -0.21304773
0.21050535 -0.04226825 -0.34366986 0.1314961 0.2768056 -0.09200206 0.036623806 0.29726225
-0.15761003 -0.18746299 -0.16065328 -0.15635736 0.40823656 -0.14176227 0.2531691 0.3719911
-0.30569115 -0.13100687 -0.25506017 -0.06343458 -0.18352172 -0.030850142 -0.35514134 0.21386357
0.3187007 0.22948353 0.24614097 0.360311 -0.27376482 0.0006724567 0.26637477 -0.29917133
-0.0753123 0.033959135 -0.1556208 -0.1006383 0.012256001 0.45833945 -0.08169954 0.15600912
0.18159541 0.1517975 -0.2892668 0.30633536 0.45423618 -0.058101553 -0.10330492 0.43954888
-0.26707694 -0.2767509 -0.28489855 0.13614255 -0.18626752 -0.32014775 0.24607877 0.10941986
0.0602295 -0.52306956 0.35393888 -0.019387722 -0.2529843 -0.04361182 0.3065705 0.08169553
-0.07033864 0.22079378 -0.28923342 0.3430539 0.34375706 -0.16255948 -0.049134787 -0.07295354
-0.33383578 0.10439165 -0.14035219 -0.40640745 -0.18994978 -0.0032501717 0.32329202 0.09611149
-0.13624634 0.25168204 0.0010772867 -0.3694085 0.08396313 0.27168784 -0.22517365 -0.07610969
-0.106373265 -0.20242487 -0.1557213 0.0007135801 0.21825562 -0.12890835 -0.4154206 -0.10716804
-0.28753105 -0.09353743 0.17036301 0.1673635 -0.23800395 -0.1337387 0.09193778 0.16946538
-0.32153296 -0.24140337 -0.040021274 0.26191142 0.21452954 0.16793406 0.033294488 -0.30807957
0.21402526 0.116242975 -0.031421795 -0.13509122 0.10606035 -0.15319264 0.09032939 0.19898438
-0.1475193 -0.23624071 -0.110755734 -0.23982374 0.10148307 0.21165057 0.109698206 -0.038141076
-0.0034737426 -0.16470173 -0.2809676 -0.07139162 0.004701651 -0.25842535 -0.33425146 0.072451845
-0.01335536 -0.3484156 0.06634082 0.31798893 -0.003226101 -0.22429128 0.302206 0.27887633
-0.080406666 -0.22912909 -0.13428454 0.19538721 0.14157319 -0.2065689 0.024195367 0.06979167
0.0013898904 -0.05783896 -0.43942967 -0.061426908 -0.036113232 -0.057488378 -0.23528163 -0.15671071
-0.13437451 0.23046565 -0.27461284 -0.36761022 0.26901823 0.07336728 0.15606768 0.0068522654
-0.029212972 -0.21037604 -0.28842914 0.0045834845 0.011629695 -0.4061627 -0.3586114 0.22757679

layers.0.bias f4 [128]
00000000: e65b 843e f969 763e 547f 05be 6a36 27be
00000010: 1e83 753e 60a5 3ebe 21f1 d7bc 1c73 98be
00000020: e5b1 813e d3b0 543e 3d65 6dbe c751 e1bc
00000030: 9e97 8c3e 376b aa3d fc7b 843e 39fa 88be
00000040: 17d7 be3d d808 51be d2e1 1ebe 5149 3a3e
00000050: 892a 8abe 3896 46bd 7bb5 2d3e 0472 3dbe
00000060: 7de3 2dbd 46ad 823e 9b8d 8f3e 5712 a9be
00000070: fd07 8b3e 498c 3ebe f49c 9e3c ce57 81be
00000080: f983 a5be 0f87 1ebe be4f fabc cf2e 73bc
00000090: c52c e0bc 93b5 933c 2927 a23e c1f8 c03d
000000a0: 860d 97be f3c9 5b3e d1c0 ebbd 9f9c 9f3e
000000b0: 4696 7abe f104 90be ed72 913e ec93 033e
000000c0: 1578 9ebe 13c0 b63c 63d6 483e 0eb0 bb3d
000000d0: 60a4 5b3e a4af ed3d 35f7 843e 22c3 30be
000000e0: 5667 c73e 3581 a0be 3b3c 003d a0f0 103e
000000f0: df82 a63e b2e5 e7bd ce99 9dbd 594c 18be
00000100: cec3 bf3c fd7d 8ebe 62b5 093e 9731 afbe
00000110: 3cc2 64be f156 12be 7006 163c 4659 5dbe
00000120: 3d41 163e 7697 18be 4ae3 20be 0b21 9c3e
00000130: 3758 423e 16d7 67be d470 2dbe 9aee 07be
00000140: 9a47 d3bd 4d5a 3e3d ff03 4fbb ede5 a33e
00000150: 303c c43e 6a10 a6bd 9774 a63d 3865 1dbe
00000160: cf18 99bd 84eb 553e dc06 75be 5d85 953e
00000170: 3de0 59bd 1156 4dbd 1b63 84be 1eb6 18be
00000180: 78ed 803e 5d8b 9fbe 656e e2bd 5025 5dbe
00000190: 8b5f 9a3e ddf9 843e 3381 913e 78e2 31bd
000001a0: 7abb 13be 5679 ac3d 1fee 81bc dc8f abbe
000001b0: 4f34 62be 76ae 95be 7d2e 4e3e bfd4 073d
000001c0: c69e 473d 08d4 b3bc 6811 1c3e ca62 a83e
000001d0: 836f 723e 78d2 4bbe ec9c 5abc fee9 8cbe
000001e0: 9615 81be 584f a23e 7600 a5be fcc2 0e3e
000001f0: eae4 e63d c0bb 593e d1d0 983d caf5 4cbe
0.25851363 0.24063863 -0.13036853 -0.16329351 0.23975798 -0.18617773 -0.026360096 -0.2977532
0.25331035 0.20770578 -0.2318315 -0.027504815 0.27459425 0.08321231 0.25875843 -0.26753405
0.09318369 -0.2041353 -0.15515831 0.1819203 -0.26985577 -0.048483104 0.1696376 -0.18500525
-0.042453278 0.25522822 0.28037724 -0.33021805 0.27154532 -0.18608202 0.01936195 -0.25262302
-0.3232725 -0.15481208 -0.030555602 -0.014842703 -0.027365098 0.018030917 0.31670502 0.09422446
-0.29502505 0.21463756 -0.11511386 0.3117418 -0.24471387 -0.2812877 0.28407994 0.12849396
-0.3095099 0.022308385 0.19613032 0.09164439 0.21449423 0.116057664 0.25969854 -0.17261937
0.38946027 -0.31348577 0.03130744 0.14154291 0.32521722 -0.11323108 -0.076953515 -0.14872874
0.023408797 -0.27830496 0.13448098 -0.34217522 -0.2233972 -0.14290978 0.009156808 -0.21616086
0.14673324 -0.14901528 -0.15711704 0.3049396 0.18978964 -0.22640643 -0.16937572 -0.13274613
-0.10316391 0.046472836 -0.0031588075 0.32011357 0.3832717 -0.081085995 0.081277065 -0.15370643
-0.07475435 0.20890623 -0.23928398 0.2920331 -0.053192366 -0.050130907 -0.2585686 -0.14913222
0.25181174 -0.31161013 -0.11056212 -0.21596265 0.30151019 0.2597188 0.28418884 -0.043428868
-0.14426985 0.084215805 -0.015860615 -0.33508193 -0.22090267 -0.29234666 0.20134921 0.033161875
0.048735403 -0.02195169 0.15241015 0.3288787 0.23675351 -0.19904506 -0.013343077 -0.27522272
-0.2521178 0.3170116 -0.32226914 0.13941568 0.11274131 0.21263027 0.074617036 -0.20015636

layers.1.weight f4 [128, 128]
00000000: beb4 4dbc f428 14bd c297 81bd e0a1 83bd
00000010: e014 73bd 43ec 513d 15e3 883d b79b 8f3d
00000020: 258c a4bb 2dd8 6a3d 6091 c63d ef19 a3bc
00000030: 58b5 d3bb b1bb 04bd 8f62 0f3d bc3d 1b3d
00000040: 0aba 1e3d d536 583d b23d 033e a549 763d
00000050: f78f 5fbc 232a a7bd e783 653d 6591 96bc
00000060: e475 e9bd ab53 5ebd 2992 91bd d440 8f3c
00000070: 4345 70bd cc66 773d 81e4 ac3d c111 f6bc
00000080: 0e4a c9bd c5d2 aa3d 4903 45bd 270d 8abd
00000090: 494a 4d3c ab5b 193d 2dc3 53bd 35db a9bc
000000a0: 6c01 2fbc ec70 9e3d 4400 603d 2c1f 7f3d
000000b0: 13c6 0b3d b205 703c 9b64 bf3d c62a e1bc
000000c0: d53a 023e 5cae d6bd 2be0 15bc 9cb8 3e3d
000000d0: 7ec0 7a3c 3138 9bbd fa7d 37bd 98f6 233d
000000e0: 34cc cfbd 1166 993d e433 ce3b 7166 623c
000000f0: ee33 47bd 6c87 efbd ab8a 883c 52c1 19bd
00000100: 62fd 19bd bfe7 9d3d 9d72 a6bd 2b51 ec3d
00000110: ddaf 013a 13af 0dbd ad5b e03d 1beb 3dbd
00000120: d234 803d 38b2 a1bd 1d57 90bc c5ac bfbd
00000130: d4a3 1d3d 1b05 6abc f886 d33d 39fd 88bd
00000140: 7c22 043d 4640 b8bd ada8 e83d 9b25 703d
00000150: ad69 f3bd 9a75 53bd 6be9 35bd f1f3 813d
00000160: 1c33 dfbd 9bc0 58bc 7521 433c 9611 4bbd
00000170: a20c 983d 3a2a 62bd 06b6 753d 0c08 ddbd
00000180: 586d c23c 6c42 a4bd ff2a b4bd 2642 84bd
00000190: 18a7 c1bd ac9d 59bd 9e84 c93a d59d 783c
000001a0: 8d72 c4bd 6781 8dbd 7abc 033d 46c0 b739
000001b0: ee49 e83c 5a1e 54bd c790 ca3c d4ce c83d
000001c0: fbc0 61bd a015 843d 23cd 0ebd a3cf 763d
000001d0: 4de7 50bc 919e 2f3d 5d75 f7bb e2b7 a53d
000001e0: 678d 48bd a3da e73d 0434 f1bb 921e a3bc
000001f0: 715d b0bd ed7a afbd 2e37 e6ba c246 833d
00000200: c07f 943d 1f67 09bc 6c6e 953d b280 363c
00000210: 8fe1 1a3d ebde a1bd 72f6 09bd 97ae 9dbc
00000220: b942 a73c 6f7a 613c 2e81 f6bd 22a1 a6bd
00000230: 9a59 393d 4533 013e c746 adbd a087 33bd
00000240: a9f6 0ebd 1fcf aa3c 3ab3 c8bd 4736 a43c
00000250: 7a21 27bb 4caa d93d 6255 da3d 640c ec3c
00000260: a87c a7bc acee cabd c554 92bd 78c1 32bc
00000270: 489e dcbd 8cbc bb3c e79c 9e3c f2e2 073e
00000280: 67a7 803c e332 7f3d 1e74 9b3d 3d3d 423c
00000290: d39c a9bd 61c1 a13c e32d 643d c6a6 efbd
000002a0: 41ac 60bc 099e 5e3d b75f 4abd 6d9d 573d
000002b0: 2655 333b e429 853d 5f3c 6ebc b64a 0abd
000002c0: ff82 a43d 46ca ee3d 8823 d3bc 2363 d73d
000002d0: 6fab 58bd 1766 16bd 2698 003c 3637 843c
000002e0: a835 ef3c 4e27 12bd 4481 7cbd 4757 413c
000002f0: d2ef 06bd ff4d d93d 9b3d c8bd 790e e1bc
00000300: a0e6 b5bd a950 debc a786 23bd 5cd1 633c
00000310: 42a9 a3bc 6ba9 463c ecc7 f93a 9918 d63d
00000320: 06ae bc3d 94d8 1b3c d84f 1d3a d878 9c3d
00000330: 738a 4a3c 3e35 a53c 2a90 49bd 2e69 c03d
00000340: 21e0 303b 1385 9c3c 0374 1d3d 49c5 d83d
00000350: 52ad e63d 2b47 b33d bc98 b83d d202 2a3d
00000360: 00f6 6c3d 0711 6cbd f721 56bd 976e 83bc
00000370: 28a9 91ba dd5d b4bd 00cb bc3b e04c 923d
00000380: 2ffa e83b 8bab 873d 866b 8f3d ec17 733d
00000390: a733 12bd 7953 85bd e6a1 f63c e3cb 933d
000003a0: 94f7 c0bc 3dc1 4ebd b960 56bc 57da 563d
000003b0: bed6 473d 526d b33d eabf f0bd 54db 57bd
000003c0: facc 8abd 368c c8bb 88a3 2c3c b464 0c3d
000003d0: a94d 4dbd 96d2 d4bc 97ca 6c3c abbb b3bd
000003e0: 362a 64bd 7e02 cabd c8e4 403d a014 d5bd
000003f0: e7d1 bf3d 7a20 983d 26cb e5bb ed1e eebb
-0.012555299 -0.03617187 -0.06327774 -0.064273596 -0.05934608 0.051250707 0.066839375 0.07012122
-0.0050215893 0.057335068 0.09695697 -0.019909827 -0.006460827 -0.03240556 0.035006102 0.03790067
0.03875164 0.052786667 0.12816504 0.060128827 -0.013645164 -0.08162334 0.056033995 -0.018379876
-0.11399439 -0.05427901 -0.07107956 0.017486967 -0.058659803 0.06040077 0.08442021 -0.030037763
-0.09828578 0.08340982 -0.048098836 -0.0674079 0.012529918 0.037440937 -0.051699806 -0.020734409
-0.010681491 0.07736382 0.054687753 0.062285587 0.034124445 0.014649795 0.09345361 -0.027486216
0.12717755 -0.10482475 -0.009147684 0.046562776 0.015304683 -0.07579077 -0.044797875 0.040030092
-0.101463705 0.07490171 0.006292807 0.013818369 -0.04863351 -0.116957515 0.016667685 -0.03753788
-0.03759516 0.07710218 -0.081273295 0.11538919 0.0004947165 -0.034590792 0.10954986 -0.046366792
0.06260075 -0.07895321 -0.017619664 -0.09359125 0.038486317 -0.014283444 0.103284776 -0.066889234
0.03225945 -0.08996634 0.11360297 0.058629613 -0.118853904 -0.051625825 -0.044412058 0.06345356
-0.1089842 -0.0132295145 0.011909832 -0.049577318 0.074242845 -0.05521605 0.059988044 -0.107925504
0.02373378 -0.080204815 -0.08797263 -0.06457929 -0.09455699 -0.053128883 0.0015374606 0.015174349
-0.09592161 -0.06909447 0.032162167 0.00035047735 0.028355565 -0.051786758 0.024727238 0.09805074
-0.05511568 0.06449437 -0.034863602 0.06025661 -0.012750459 0.04287583 -0.0075518326 0.080917135
-0.048962977 0.113209985 -0.007360937 -0.019912038 -0.086115725 -0.08568368 -0.0017564052 0.0640998
0.07250929 -0.008386402 0.07296452 0.011139082 0.037812766 -0.07903846 -0.033682294 -0.01924829
0.020417558 0.013762101 -0.12036358 -0.081362024 0.045251466 0.12617214 -0.08460765 -0.043830514
-0.034903202 0.020850716 -0.0979981 0.020045413 -0.0025502131 0.10628185 0.10660817 0.028814502
-0.020445183 -0.09908804 -0.07145075 -0.010910384 -0.10772377 0.022917055 0.019361926 0.13270167
0.015704824 0.06230439 0.07590507 0.011855421 -0.08281865 0.01974553 0.055707823 -0.117017314
-0.0137129435 0.054349933 -0.049407687 0.052640367 0.0027363985 0.06502131 -0.014540761 -0.033762656
0.08032798 0.11659674 -0.025773779 0.10516956 -0.052897867 -0.036718454 0.007848775 0.016139608
0.02920039 -0.035682015 -0.061646715 0.011800594 -0.032943554 0.1061058 -0.09777375 -0.027472721
-0.08881879 -0.027138071 -0.039923336 0.013904896 -0.01997817 0.012125353 0.0019056774 0.104539104
0.0921288 0.0095120855 0.00060009724 0.076402366 0.01236211 0.02016699 -0.04920975 0.093950614
0.002698906 0.019106423 0.038440716 0.10584504 0.11263527 0.087538086 0.09013507 0.041506596
0.05785179 -0.057633426 -0.052278485 -0.016043944 -0.0011113035 -0.088069655 0.005761504 0.07143569
0.0071099023 0.06624516 0.0700293 0.059348986 -0.03569379 -0.06510062 0.030106496 0.07216623
-0.023555554 -0.050477255 -0.013084584 0.05245432 0.04878878 0.087610856 -0.11755355 -0.052699402
-0.067773774 -0.00612023 0.010537036 0.034275725 -0.05012289 -0.025979321 0.014452598 -0.08776029
-0.055704318 -0.098637566 0.047093183 -0.104043245 0.093662076 0.074280694 -0.0070127426 -0.0072668702

layers.1.bias f4 [128]
00000000: c4c1 d03d 903b 83bc 1103 9d3d 0361 01be
00000010: 8c3c fcbd 01ca 09bd 5903 29bd c3bf b83d
00000020: 5354 a6bd 51a6 fdbd bb43 d7bb 5359 d5bc
00000030: c5ba 3ebd 3ee5 a739 7983 943b 095d 95bd
00000040: 362f 7abd 0809 623c 473b 79bd 7a37 29bd
00000050: 58ef 63bd 0ded 823d bae3 7bbc 210f 593d
00000060: 21f1 303d ca50 9bbc 4edb bcbd 48d9 813d
00000070: 551d 01bd 5770 b63d 3968 75bd 6610 6bbd
00000080: a56a 86bc dcfb 2a3d 56bf ad3d e04e e53d
00000090: e718 843c 582f 9c3d dd69 343c d1e4 c63d
000000a0: 18d6 08bd 0341 313c ebac 22bd 10ef 7c3d
000000b0: af77 84bd cd50 95bc 3716 cf3d b3ca e03d
000000c0: d9d3 84bd 2e0a fcbc 08c9 f03b 2224 463d
000000d0: a66c 05bd 9cc4 9f3d 1bee 1dbd 8261 2fbd
000000e0: 3744 a63d 53bc bb3b 944a cebc 97f1 a33d
000000f0: 5c1f 9ebd 8434 17bd 3358 8b3d 142f 453d
00000100: 6419 11bc 7adc e03c ca54 54bd 8246 073d
00000110: 8367 b83b d91e a93d d3fe 9a3c ac86 6c3d
00000120: 5446 94bd c991 703d a1ac 39bd 66c9 cf3c
00000130: b761 a83c 1ce2 81bd ce4e 303d ff38 08bd
00000140: ec17 7e3d f3a2 e6bd ff55 de3a 42c4 233d
00000150: 8e50 a53c 6144 f63c 344d 193d b2f9 c7bc
00000160: e4c9 5fbd 0bb2 61bc 44f4 013d 8a6b a6bb
00000170: 2ef1 9fbc 3817 1abd b2f0 783d a252 ca3c
00000180: 446f 7a3d 72fe 26bd 446d 263d a606 3d3c
00000190: b579 9f3d 667f 15bb de26 e83d 5d83 b73d
000001a0: 825c a0bd d141 483c 89a0 283c b009 a53d
000001b0: 6904 d2bd f647 98bd 1237 87bb aee0 4a3c
000001c0: db42 bdbc be44 68bc 66e6 323d e318 fe3c
000001d0: 28e5 f23c 58ad dd3c d404 07bd 93c9 1f3d
000001e0: 1d45 153d cd08 cebc 523e 083d 33a8 d6bc
000001f0: 5145 cd3d bd12 adbd b019 a93c fcb4 5b3b
0.10193208 -0.016019613 0.076666005 -0.12634663 -0.12316236 -0.03363991 -0.04126296 0.09020951
-0.08121552 -0.12385238 -0.0065693534 -0.02604357 -0.046564836 0.0003202352 0.0045322743 -0.07293136
-0.06108018 0.0137960985 -0.060847547 -0.041312672 -0.055648178 0.0639287 -0.015374118 0.052992944
0.04319871 -0.018959422 -0.092215165 0.06340271 -0.031522114 0.08908146 -0.059913848 -0.057388686
-0.016408274 0.041744098 0.0848376 0.11196685 0.016125156 0.076262176 0.011011568 0.09711612
-0.0334073 0.010818723 -0.03971569 0.061751425 -0.0646814 -0.018227005 0.10111659 0.10976162
-0.06485719 -0.030766573 0.0073481835 0.048374303 -0.03257432 0.07801172 -0.038557153 -0.0428176
0.0811848 0.005729237 -0.025182046 0.08005064 -0.07720825 -0.036915317 0.06803932 0.0481406
-0.008856151 0.027448881 -0.051838674 0.033026226 0.005627574 0.08257837 0.018920338 0.05774562
-0.072399765 0.05873278 -0.045330647 0.025364589 0.020554407 -0.06341955 0.043043904 -0.03325748
0.062034532 -0.11261549 0.0016962885 0.039982088 0.020180013 0.030061902 0.037427142 -0.024411056
-0.054635897 -0.013775359 0.03172709 -0.0050787376 -0.019524183 -0.0376198 0.06077642 0.024697606
0.061141267 -0.04077 0.040631548 0.01153723 0.07786886 -0.002281153 0.11335538 0.089606024
-0.078301445 0.012222723 0.010292181 0.08058488 -0.102547474 -0.074356005 -0.004126438 0.012382669
-0.023103168 -0.014176546 0.043676756 0.031017726 0.029650286 0.027060196 -0.03296359 0.039010596
0.036442865 -0.02515068 0.03326256 -0.02620325 0.10022987 -0.0845084 0.020642132 0.0033524623

layers.2.weight f4 [64, 128]
00000000: ef8d c4bd 0939 203d 41b1 3fbc ff0a e1bc
00000010: bca5 eabd 88f0 d23d 872c 9c3c 43c8 22be
00000020: 1d00 4c3b c5ab be3c 70a7 c33d 26f5 c33d
00000030: a038 553b 76da ab3d c4fd c43d a1ca b4bd
00000040: cfe0 893d d1b5 f3bd ce02 a8bc cd1f a13d
00000050: 6fc6 2bbe 139d 41bc 29ea 133d 84ac 1ebc
00000060: c59b 83bd 8fd9 bfbd 51fb 8ebd c61b 493c
00000070: c6e4 bcbc a719 0abe 4c17 0dbd 7b67 ba3d
00000080: 6337 973c a36b 9eb9 5da7 ebbd 6e93 95bd
00000090: ca4e 543d 01b6 aa3d 229b b73d 9abf 7b3c
000000a0: fb91 4d3e f045 32be c374 db3c b598 45bd
000000b0: 0215 8cbc e598 6bbd 655f 07be b432 36bd
000000c0: 80e9 fa3d 7d35 04be a277 00bd 1046 373d
000000d0: 813b 24bd 6d2a c9bc 9cd6 d9bb c220 fbbd
000000e0: e2de 7dbd 21ed 2bbe 869f 5f3e 382d f5bc
000000f0: 0408 bdbd 3a3d 8dbc 5a94 59bd 96d3 bdbd
00000100: 273d be3a 199c 183e 93a2 7d3c 62fa 8ebd
00000110: cd4c c8bc da17 a7bd 045d 89bc 9be7 b33b
00000120: 6588 83bc 7f03 18be 0c38 cd3d 9091 41bd
00000130: 83bd 373d a9d8 0bbb 3570 ad3d 89a8 0fbe
00000140: 6b5e 8a3c 5617 883c 5357 dbbd f76d 10be
00000150: 2ab3 e33c 8129 ac3d aba4 9e3d cd49 a83d
00000160: ec62 533d 3dd5 31bc 31cc b8ba 14f9 e73d
00000170: 5466 20be 0488 61bd b367 973d 43ee 3bbe
00000180: 41b3 28be ebba 90bc 8f32 fdbd 3364 043e
00000190: 69e4 51bb d673 903d e5c6 f23d 3d25 a1bd
000001a0: de0f f3bc 1497 fdbd 7778 b3ba b456 79bd
000001b0: 629b cc3d 57b2 623d f7bc 02bc 5429 89bd
000001c0: ca11 0ebd 4cb1 8aba e734 11be 5eec 1e3d
000001d0: f5ff 023e ad93 44be 40b9 09bc 44b1 653d
000001e0: 0e26 41bd 5d2d b9bc dce6 f8bd 0b5b 393c
000001f0: ec1b 25bd 9c78 713d 3ae5 3c3c 8fa8 173e
00000200: d4aa b33d 987b 74bd 0d4e 373d 07c6 fe3c
00000210: 1df7 463d 3689 9cbd 00d8 83bd 0f28 b63d
00000220: b568 8cbd bbcf 42bd 6a97 9a3c 7d2c 63bd
00000230: c25b 853d cbb3 4ebe 81f5 6ebd 704f 023e
00000240: 0592 66bd 9cd6 c63d 9765 c23b d5bc d0bd
00000250: d2e3 0f3e ee6a b839 f73e 3f3b 6290 fa3d
00000260: 824a c23c 8388 5e3d e566 18bd 2aeb e43d
00000270: 67d5 57bb f4e5 0f3e 8f5f 4a3d b0b4 0dbe
00000280: cd91 a5bd 0954 3d3c d008 2dbc 2264 0e3d
00000290: 34e9 d8bd 0939 a7bd b17d 28be ced4 153d
000002a0: e62c 13be d45e 373e e293 523d 2144 b43d
000002b0: 2250 71bd f671 4b3d c53e ea3d b217 cb3c
000002c0: 72e8 583c 554c 823d 2783 093d b9ff a93c
000002d0: 7d17 b23d 4b02 4e3d 96f9 d13d 11a0 a13c
000002e0: 1b16 063e c9a1 2b3d 25d1 39bd 2a1e 643d
000002f0: 2d5f 803d 5e7c a6bc 356e ffbb fc8f c83d
00000300: b383 5ebc 02b7 86bd eb85 76bc c58c 373d
00000310: ebf5 083d dbda 8d3d 0c76 223d 68a5 2a3d
00000320: 82b2 993c 1bd0 b63d f687 adba b500 e43d
00000330: 7b01 5fbd d483 8d3c 15e2 9fbd b053 bc3d
00000340: 07f5 093e 5f55 60bd 6be7 55bd 499e c43d
00000350: cdd3 98bd 3e36 c6bd e4c0 f43c 7d83 803c
00000360: 2c85 78bd 6963 bf3d b488 bc3d 6195 c53c
00000370: bff6 f03d 35ad 203e d55e 8abd dcab 513d
00000380: 1eca 863d fed5 383c 26f3 6639 dcd1 5d3d
00000390: 0af6 1bbd 375d eabd 4eee c4bd e292 d53d
000003a0: 44da f1bd 0b6f 953d 411d 9e3d 86b9 813d
000003b0: 614f edbc ef0c 2b3a 7595 bebd 8049 ec3d
000003c0: b7e4 8fbc 237c 033d 8ed4 1abd 6f61 d03d
000003d0: 9cd2 a9bd 4319 303d eb38 b0bb cd0f 80bd
000003e0: ec75 f2bc 2758 9e3c 0967 893d 1057 8f3d
000003f0: 91d4 113e a547 9ebc 2517 bd3d 11ad 013d
-0.09597384 0.039116893 -0.0116999755 -0.027471064 -0.114573926 0.10299784 0.019064201 -0.15896706
0.0031127997 0.023275265 0.095534205 0.09568243 0.0032534972 0.083912775 0.096187145 -0.08827711
0.06732332 -0.11899913 -0.02050915 0.07867394 -0.16774915 -0.011817235 0.036111984 -0.009684686
-0.06426195 -0.09367668 -0.069815286 0.012274688 -0.023058306 -0.13486348 -0.034446046 0.091017686
0.018459028 -0.00030216304 -0.115065314 -0.073035106 0.05183295 0.08335496 0.08965136 0.015365506
0.20075218 -0.17409492 0.026789075 -0.048241336 -0.017099861 -0.05751886 -0.13219984 -0.044481948
0.12251568 -0.12911029 -0.03136409 0.04474455 -0.04009581 -0.024556363 -0.006647898 -0.122621074
-0.061980136 -0.16789676 0.21838197 -0.029928789 -0.092300445 -0.01724111 -0.053119995 -0.092688724
0.0014514074 0.14903297 0.015480655 -0.069813505 -0.024450684 -0.08158846 -0.016767986 0.005490256
-0.016056249 -0.14845084 0.10020456 -0.04725796 0.044858467 -0.0021338856 0.084686674 -0.14029135
0.016890725 0.01661269 -0.10710015 -0.14104448 0.027795393 0.08406354 0.07746252 0.082172014
0.05160801 -0.010854063 -0.001409894 0.11326805 -0.15664035 -0.055061355 0.07392826 -0.18352608
-0.1647463 -0.017667254 -0.12363159 0.12928848 -0.0032027012 0.07053344 0.11854342 -0.07868431
-0.029670652 -0.123823315 -0.0013692518 -0.060873702 0.099905744 0.05534586 -0.007979623 -0.06697336
-0.034684934 -0.0010581403 -0.14180337 0.038799636 0.12792952 -0.19196959 -0.008405983 0.056077257
-0.047155432 -0.022604639 -0.12153408 0.01131321 -0.04030983 0.058952913 0.011529261 0.14810394
0.08772817 -0.05968818 0.04475217 0.031100286 0.04857551 -0.076433584 -0.06437683 0.08894359
-0.06855909 -0.04756139 0.018871028 -0.05546235 0.06511642 -0.20185773 -0.0583396 0.12725616
-0.0562916 0.09708902 0.0059325206 -0.10192267 0.1405175 0.00035174884 0.0029181817 0.1223457
0.023717169 0.054329406 -0.037207503 0.111776665 -0.0032933594 0.14052564 0.049407538 -0.13838458
-0.0808445 0.01155568 -0.010561183 0.034763463 -0.10591355 -0.081651755 -0.16454197 0.0365799
-0.14372596 0.17907268 0.051410563 0.08802057 -0.05891431 0.04966923 0.114377536 0.024791572
0.013239013 0.063622154 0.033572342 0.02075182 0.08695886 0.050295155 0.10252683 0.019729646
0.1309437 0.041902337 -0.04536547 0.05569283 0.06268153 -0.020322975 -0.00779512 0.09793088
-0.013581204 -0.06577875 -0.015046577 0.044811983 0.03343765 0.06926509 0.03966336 0.04166165
0.018761877 0.08926412 -0.0013239372 0.11132947 -0.05444477 0.017274775 -0.078067936 0.091956496
0.13472377 -0.054768916 -0.05222265 0.09600503 -0.07462273 -0.096783146 0.029877134 0.015687698
-0.060673878 0.09345133 0.092057616 0.024119081 0.11765813 0.15691073 -0.06756369 0.05118929
0.065815195 0.011281488 0.00022025089 0.054155216 -0.038076438 -0.114435606 -0.096157655 0.10428406
-0.11809209 0.072965704 0.077204235 0.06334214 -0.028968515 0.00065250596 -0.093058504 0.115374565
-0.017565114 0.032100808 -0.037800364 0.10174834 -0.08292124 0.04299284 -0.005377879 -0.06253014
-0.029597245 0.019329144 0.067091055 0.06999028 0.14241244 -0.019321272 0.0923293 0.03165919

layers.2.bias f4 [64]
00000000: 1fac 48bd 8f7e d63d 47b8 48bb f9bc 22bc
00000010: 7ad7 5fbd f41b 183d 1232 b1bc 715d 843c
00000020: 051a 3b3d 1654 ec3b e2a8 82bd 7ded e6bc
00000030: c1f9 863b 68d8 73bd 6219 e83b 4b12 ccbd
00000040: b6d9 c63d 6d8f 013d 140d e1bd cfdc db3c
00000050: be84 de3b cc02 e4bd 2315 dcb9 5857 c93d
00000060: 2862 5b3b 3659 80bd 4fd6 b23c 3bb1 27bd
00000070: 7e24 a5bd abc1 a1bd b9fb f73d 5fab 3dbd
00000080: 5905 03bd a09d f33a e8e2 b9bd 9379 c7bc
00000090: 36dd 7a3b e5a3 d73c 48de 20bd beaa fc3d
000000a0: 873f 97bd 964e ae3b 0820 05bd c0d1 413d
000000b0: bc40 80bc 2621 8c3c c8be d13b d05c cd3b
000000c0: 51d4 30bc ee33 703d cf80 17bd b5e0 71bd
000000d0: 304f 883d df4d 8fbd 0003 413d bef6 4a3d
000000e0: 2806 2fbd d714 90bc 0d20 acbd b698 cebd
000000f0: 1e8d 053c 4634 b63d b0fe 103d 4e8f a43d
-0.048992272 0.10473358 -0.0030627416 -0.00993275 -0.054648854 0.037136033 -0.02163032 0.016157838
0.04567911 0.0072121723 -0.06379868 -0.028189415 0.0041191285 -0.059532553 0.007083104 -0.099644266
0.09709494 0.031630922 -0.109888226 0.026838688 0.0067907264 -0.11133346 -0.00041977418 0.098311126
0.0033475254 -0.06267016 0.021830706 -0.040940505 -0.08063601 -0.07898267 0.12108559 -0.04630601
-0.03198752 0.0018586405 -0.09076482 -0.024349963 0.0038278825 0.026323268 -0.039274484 0.12337254
-0.07385164 0.005319427 -0.03250125 0.047319174 -0.015655868 0.01710565 0.0064009167 0.0062671676
-0.010792808 0.058643274 -0.036988076 -0.059052188 0.06655729 -0.069972746 0.047122 0.049551718
-0.04273048 -0.017588062 -0.08404551 -0.10087721 0.008151321 0.08896689 0.03539914 0.08035146

readout.weight f4 [1, 64]
00000000: 5374 c93e 06d2 12bf 19b7 d63e e3c7 a83e
00000010: ef1b d03e 6a87 f8be fb02 c63e b988 043f
00000020: da58 063f 0bf0 05bf 14da f23e 6b66 f23e
00000030: 9cb9 c13e 047d d2be 099c b63e ba5c ba3e
00000040: a472 10bf e01e b63e 80f8 1f3f d063 03bf
00000050: be17 9b3e adc8 b83e 8cf8 be3e e481 0fbf
00000060: 7d11 12bf d140 a03e 4aa7 03bf 8a72 d1be
00000070: dab0 e63e 69ff b93e 5f83 f3be a71c b13e
00000080: da9e ac3e 3249 e43e faa5 d83e 673d 133f
00000090: 4464 253f b2c7 aabe 95c6 143f 6424 c2be
000000a0: 7741 1d3f 1ebd c6be 8a65 1c3f d35c e0be
000000b0: fd2c 24bf 6583 e0be 228d a13e 2f71 bbbe
000000c0: e8d4 f93e c44c febe 06eb cdbe f3ba 323f
000000d0: 6995 f7be 5f4b cdbe b20a eabe 1b8c 20bf
000000e0: 4c5e cfbe 998b b7be 41fa b23e c6c6 e43e
000000f0: fb41 f23e da00 0dbf ee38 f7be 70c7 0cbf
0.3934656 -0.5735172 0.41936567 0.32965 0.40646312 -0.48540813 0.3867415 0.5177112
0.52479327 -0.523194 0.47432005 0.47343764 0.3783692 -0.41111004 0.3566592 0.3639887
-0.5642493 0.3557043 0.62488556 -0.51324177 0.3029155 0.36090603 0.37299 -0.5605757
-0.57057935 0.3129945 -0.5142714 -0.409077 0.45056802 0.36327675 -0.47561166 0.34592173
0.33714944 0.44587094 0.4231413 0.5751557 0.6460612 -0.3335548 0.5811551 -0.3791839
0.61428016 -0.3881616 0.61092436 -0.4382082 -0.64131147 -0.43850246 0.31552988 -0.3660979
0.48795247 -0.49667943 -0.4021837 0.6981651 -0.48356178 -0.40096566 -0.45711285 -0.62713784
-0.4050163 -0.35848692 0.34956554 0.44682902 0.47315964 -0.55079424 -0.4828562 -0.5499182

layers.0.weight f4 [128, 8]
00000000: 568d 933d 6096 923c ee8c 09bf 6be8 4b3f
00000010: 7222 5c3d 871d 113f 2aff a93e 18a5 79be
00000020: 15dd 93be b957 983e 04cf e0bb 625c 173f
00000030: 512e c6bd ef75 923e 4c4b d03e 1429 c43e
00000040: 4166 aabe 80ee 7f3c d58a a93e bbbc 9d3e
00000050: c411 c5be bd0e aabe f19d 3abd c4f2 20be
00000060: 270c 9ebe 796a df3d 7021 e23e a775 bdbe
00000070: ccc4 d13d 99b5 8dbe ebf3 5fbe 62ca 12be
00000080: 79f4 4ebe c59d cebd a4b2 aabe 6f1e bf3e
00000090: f6bc 273f fd23 c93e 144e aabc 9e00 8b3d
000000a0: a549 ad3d fc1c 193d ac52 38be 092b b03d
000000b0: e325 013f 1c0e 1b3e ce59 673e dde0 41be
000000c0: b2b5 b7bc 7374 6c3e d39d cc3d a059 14bf
000000d0: ce32 7dbe ad4e 32be 743c 613d 0df8 343e
000000e0: ce5b 623d 32b6 80be b302 543e a26d 85bc
000000f0: f7dc d6be 0528 8b3c 434e 333c 3201 03bd
00000100: e6ea 9e3d 2da7 0d3e 85a0 19bc 2ec2 03bf
00000110: 4409 fabd 4324 80be 599a cfbc 73ea 2b3e
00000120: d91d 5b3e 367e 843e 65a7 3f3e 9f00 d9be
00000130: 09d3 88be 8c6c 87be daca bc3e 594d 1b3e
00000140: ae80 973e 10ed b13e 3573 febe b35a 9c3c
00000150: c18a 703e e8da cd3e 9a4a debd e7d2 8e3d
00000160: ace2 153f d039 72be 92f8 d33e c4b7 9cbc
00000170: 40e5 2cbe f73b f8be 95ed b1bd 45d6 86be
00000180: 64ff d03d d298 4f3e b4d7 95bd 5c8b bebe
00000190: 2b19 e8be 7317 bf3d 7908 9b3c dbcf 6cbe
000001a0: 3374 c2bd 3877 1a3c 6ca7 87be 5e7d 8c3e
000001b0: 4f5f 093f 0891 b1bb 6a57 9c3d 170f 3cbd
000001c0: a9d2 edbd 98bc 68be d135 213d 6719 00bf
000001d0: d63a 1cbf 9a58 03bf b87e c4bc 666f a03e
000001e0: 4174 423e 6b36 0b3e 9586 5cbd 9d1f 96be
000001f0: d95a d73e 5a30 023e c5ed 2c3e 705b 87be
00000200: 1658 af3e e2fe 203e 026b 683e 460c 843e
00000210: b9b2 01bf 79e1 68be 9912 d13e bd42 2fbe
00000220: 987b 08bc f808 d93d 345f 9b3e 7008 f7be
00000230: 2664 0d3e 1d34 8f3e cf55 3fbe fd69 04bd
00000240: bdac 5bbe 8d04 563d 1d27 8c3e 7d11 6dbd
00000250: dcd6 cf3c 3f7e e7bd 0f30 a93e 29c0 b83e
00000260: acd4 5e3e f60e b6bc 869a aebe d822 a13e
00000270: a89f 513e e439 423e e9c2 93bd 2ccc 1fbe
00000280: a1d5 89be db68 3c3c 35ca 113e 9584 1d3f
00000290: 76ce e3be fde1 d6bd bd9a 913d 04db ab3e
000002a0: 5d7d 24bc 36db 4b3d d2da 983e 7986 073f
000002b0: 19fd dfbe 6dbe 9dbd ad25 153e 63fb 34bd
000002c0: 9e51 cabe de8c 7c3d ab9c 9fbe 84a5 563f
000002d0: 891f 0a3e abc1 7d3d fbc6 a9be 1a5a 92be
000002e0: a80d 6a3e 70d2 aa3d 72a0 bd3e e242 d33e
000002f0: dd47 1d3d ba30 903e b463 a63e aec3 953e
00000300: 41bd 903e 5312 963d 543f 68be 37f6 b8be
00000310: 8cc8 503e 4d1f 543e 0b3d 3b3e 6281 1dbe
00000320: 81d7 a43e febb a0bd f1c4 fd3e 4623 b43e
00000330: fb76 1bbf 3488 afbe f9dc 0e3e f4f5 933e
00000340: 9930 49be 3c99 723d ba71 9f3e 65e5 b43c
00000350: ae72 18bf 8c3f e83c 0b7b 26be c11a 9c3e
00000360: 4a87 d3be bdee eb3c d3fc b53e f1dd da3e
00000370: ad23 da3c 1595 68be e063 a83e c64e 46bd
00000380: 0ce3 b1be 7d47 8a3e 28fe 15be 668b fb3e
00000390: db9d ae3e 2777 f43e a021 923e c6a2 83be
000003a0: c3b7 63be 4980 233e 3c15 93be 1aa7 ccbe
000003b0: 4a3c e03b 6299 953e 138f 8abd 1437 87bc
000003c0: 5a7d 93be 622b 8abd 1919 3dbf 2392 283b
000003d0: 0601 003f def2 ce3e 37d3 2bbd 4bfa 87be
000003e0: e07f 7cbe d973 5b3e 8c2e 10be 35ab e23e
000003f0: 6f38 f0be 9f3a 803c 3e31 763e 683b 36be
0.07204692 0.01789397 -0.53730667 0.79651517 0.053743787 0.5668568 0.33202487 -0.24379385
-0.2887961 0.29754427 -0.0068606157 0.5912534 -0.09676803 0.286056 0.40682447 0.3831259
-0.3328114 0.015620828 0.33113733 0.30808052 -0.38490117 -0.3321437 -0.04556078 -0.15717608
-0.30868647 0.1090898 0.44166136 -0.37003824 0.10242614 -0.2767761 -0.21870391 -0.14335015
-0.20210446 -0.10088686 -0.33339417 0.37327906 0.65522707 0.3928527 -0.020789184 0.06787227
0.08461312 0.037381157 -0.18000287 0.08601958 0.50448436 0.15142101 0.22592852 -0.18933435
-0.022425506 0.23091297 0.0999104 -0.57949257 -0.24726412 -0.17412825 0.054989293 0.17672749
0.055263333 -0.25139004 0.20704155 -0.016287629 -0.41965458 0.016986856 0.010943952 -0.03198356
0.07759647 0.13833304 -0.00937665 -0.5146817 -0.122087985 -0.25027665 -0.025342153 0.16788654
0.21398105 0.2587754 0.187162 -0.42383286 -0.26723507 -0.26450002 0.36873513 0.15166225
0.29590362 0.34751177 -0.4969727 0.019086218 0.2349043 0.40206075 -0.10854073 0.0697382
0.58549 -0.23654866 0.41400582 -0.019130595 -0.16884327 -0.4848325 -0.08687893 -0.2633535
0.10204962 0.2027314 -0.07316533 -0.37215698 -0.45331702 0.093306445 0.018924939 -0.23126166
-0.094948195 0.009427838 -0.2649492 0.27439398 0.53661054 -0.0054189004 0.076338604 -0.04591283
-0.11612446 -0.22728193 0.039357964 -0.5003876 -0.61027277 -0.5130707 -0.023986205 0.3133499
0.1898966 0.13594978 -0.053839285 -0.29320994 0.420615 0.12713757 0.16887577 -0.2643695
0.34246892 0.1572223 0.2269707 0.25790614 -0.50663334 -0.22742261 0.408345 -0.17115302
-0.008330248 0.10597414 0.30346072 -0.48248625 0.13807735 0.27969447 -0.18685077 -0.03232764
-0.21452613 0.052250434 0.2737359 -0.057878006 0.025371008 -0.113033764 0.33044478 0.36084107
0.21760815 -0.02222393 -0.34102267 0.31471896 0.2047106 0.18967396 -0.072149105 -0.15605229
-0.26920798 0.011499609 0.14237292 0.6153043 -0.44493455 -0.104923226 0.07109592 0.33565533
-0.010039655 0.049769603 0.29854447 0.52939564 -0.43747786 -0.077023365 0.14565153 -0.044185054
-0.39515394 0.06165778 -0.31174216 0.83846307 0.13488592 0.061952274 -0.33159623 -0.28584367
0.22856772 0.08340919 0.37036473 0.41261965 0.038398612 0.28162175 0.32497942 0.29250854
0.2826939 0.07327714 -0.22680408 -0.36125347 0.20389003 0.20715065 0.18285005 -0.15381387
0.32195666 -0.07848357 0.49564317 0.35183161 -0.60728425 -0.34283602 0.13951482 0.28898585
-0.19647445 0.059228167 0.31141454 0.02208204 -0.5954999 0.028350614 -0.16257875 0.30489162
-0.41314155 0.028800363 0.35544452 0.42747453 0.02662834 -0.2271312 0.328887 -0.048414968
-0.34743536 0.27007666 -0.14647734 0.4912979 0.3410481 0.47747156 0.2854128 -0.25710124
-0.22238068 0.15966906 -0.28727138 -0.39971238 0.0068431245 0.29218584 -0.067655705 -0.016505755
-0.28806573 -0.06746556 -0.7386642 0.002572187 0.5000156 0.40419668 -0.041949477 -0.26558146
-0.24658155 0.21430911 -0.14080256 0.44271246 -0.46918055 0.015652953 0.24042222 -0.17796099

layers.0.bias f4 [128]
00000000: 543a 403d 6539 8abe 786d 4e3e 2cb1 b73e
00000010: cae8 903e 0876 cb3d 11ca adbd 3187 9cbc
00000020: 5e31 043d d660 833e 028e 57be 3d02 fa3d
00000030: 4a3e ab3e 76ed 933c 27e5 ae3e 38c0 29bd
00000040: f027 02be 9e32 52bd a5a9 e33d 7828 333e
00000050: 5923 7a3e f966 6e3c 3bd0 a33d 38b4 d3bd
00000060: 8b1e ed3d 8193 2f3e 6583 833d e81c 883e
00000070: af72 0dbc 86d7 cf3e 2f22 263e 4057 103e
00000080: 746b f2bd 94b3 993e f1f7 b03e 7309 0abe
00000090: 0a7f 2bbd 41cb 4cbe 0669 f9bd ade9 a7bd
000000a0: 72b4 23bc 53fa 53be e9d3 c23e c377 b93e
000000b0: 2682 a43e c508 073c dcd8 67bc ba41 26bd
000000c0: ed2c 9b3d c07d 84be f48f 133c c209 1abe
000000d0: e159 15be 9ad3 933e 314e 913e 607b ba3d
000000e0: 1bd1 d43e d159 08bd 5c47 5d3e c8ad 163e
000000f0: 84de 42be 6ae3 e2bd f46d 12bd 79b9 ae3c
00000100: 4c2c 703e 9d73 7cbe e1c8 483e 97f8 a1be
00000110: 051b 49be 296c 44bd 84cb 923e 867a 553e
00000120: 08b8 043e c1ae 02be 5aa2 ca3e f8eb 41be
00000130: d8b2 a33e 022a 9cbe 458b 9fbd dbf6 d23d
00000140: 1ae8 43be 94ee c13d 9bc4 1bbe 486e b73e
00000150: ece9 b53e 82b7 ca3e 8a7d 46be bd02 eebd
00000160: 06d4 d43e fc6f b03e 9ee3 1ebe c571 8d3e
00000170: eeee adbd be2d d2bd 2c6f 433e 83a7 373d
00000180: 6e73 af3e 5658 a73e 4b41 313d d455 8dbd
00000190: 3304 963d edc0 b13d 23ab ffbd 396f 7abe
000001a0: ec77 533e 1a03 423e 559d c9bd 1786 29be
000001b0: 93be b63d 6651 993e e668 ab3e e824 673e
000001c0: c583 dd3d 26c3 853e f581 723e 7aaa d13e
000001d0: 8e4f b73e 11ae 4f3e 78fd 70be 2baa 0abd
000001e0: 5f0e 893e 6d0e 77be acae 0a3e db59 263d
000001f0: f4af 21be 9a4b 0d3d 47b6 263e 142b c63e
0.046930626 -0.26996914 0.20158947 0.3587736 0.28302604 0.09934622 -0.08485807 -0.019107433
0.032273643 0.25659817 -0.21050265 0.12207458 0.3344596 0.018057566 0.34159204 -0.04144308
-0.12710547 -0.051317804 0.111163415 0.17495906 0.24427547 0.014550918 0.07998701 -0.103371084
0.11578091 0.17146112 0.06421546 0.26584554 -0.0086333 0.4059412 0.16223978 0.14095783
-0.11836901 0.3001982 0.34564164 -0.13480167 -0.0418692 -0.1999941 -0.12178235 -0.08198867
-0.009991752 -0.2070096 0.380523 0.36224183 0.32130545 0.008241837 -0.014150824 -0.040590025
0.07576928 -0.2587719 0.009006489 -0.15042785 -0.14585067 0.28872377 0.28379968 0.09105563
0.41565785 -0.03328878 0.21609253 0.1471473 -0.19030195 -0.11078532 -0.03574939 0.021328675
0.23454398 -0.24653478 0.19607879 -0.31634971 -0.19639213 -0.047954712 0.28670895 0.2084752
0.12960827 -0.12761976 0.3957699 -0.18937671 0.31972384 -0.305008 -0.077902354 0.1030099
-0.19131508 0.09469333 -0.15211718 0.35826325 0.3553003 0.3959313 -0.19383827 -0.11621616
0.4156801 0.34460437 -0.15516517 0.27625862 -0.08492838 -0.10262631 0.19085377 0.044837486
0.34267753 0.32684582 0.04327516 -0.06901136 0.0732502 0.08679376 -0.124838136 -0.2445649
0.20651215 0.18946496 -0.09844462 -0.16555057 0.08923068 0.29944915 0.3347847 0.22572672
0.10816149 0.2612545 0.23682387 0.40950376 0.35802883 0.20281245 -0.2353419 -0.03385369
0.26768777 -0.24126597 0.13543195 0.040613037 -0.15789777 0.034495927 0.16280471 0.3870474

layers.1.weight f4 [128, 128]
00000000: 3a12 12bd 1b7b 49be 3bba 843d 6f7a ac3c
00000010: 7f40 86bd c078 e73c ca96 3dbc 9980 903b
00000020: 4f6f c93c 053e a93c ce63 76bd 1e00 d4bd
00000030: e9b4 b53d 6efe abbd 4305 183e 74b5 733d
00000040: e569 7cbd 7d3e c73b c518 023d 227a 523d
00000050: 7175 6fbd fb86 07bd 4983 0fbe ab29 113c
00000060: 7a93 763d 4e03 97bc c806 d9bd 2001 ab3d
00000070: a4d1 1bbd 5b48 7f3b 028b 27be c2be 113c
00000080: 064e babc a677 053e ab78 55bc dedd 6dbd
00000090: 64a8 95bd 6c34 8cbc 5cf8 a7bd 008f 1ebd
000000a0: 22eb 983d 9166 67bd 03b9 893d dbf0 ef3d
000000b0: 2ce3 193d dd59 2bbd df16 04be 59ee ebbc
000000c0: c2ac eebd 2933 47be 2784 ea3d 3aad 2e3d
000000d0: b1a6 07be 4845 513d 92f0 e93d 883c 773d
000000e0: 8315 d43c 79c4 3a3b bba0 58bc 48d6 de3c
000000f0: b618 61bd 8621 13be d29b ea3c 69a4 6f3d
00000100: f09e 143d b96c f8bc b344 ca3d 1956 513d
00000110: c455 d43a 69db 513d 5565 c43d 6564 e3ba
00000120: 2756 26ba 18f6 0abe c29a 1fbd 903b f5bc
00000130: 6e28 1b3d 6391 50be fda1 ce3c 5112 073c
00000140: 0213 42be fd59 533d 532d 56bd ccd0 a83d
00000150: 50fa a23d 1c2c 813d 29df b4bd 6a5d 18bd
00000160: d889 2d3d 71aa 383d 2a37 06be a53c 4c3d
00000170: 077d 093d 023a 9bbd 6b3e ab3c 24ec 393e
00000180: 41af 8bbc 38e2 ea3d e66f 80bc 1a1d a7bd
00000190: 1e1c 18be 8c59 033d 691f 45bd 7fd4 7abc
000001a0: 613a c6bb c50f 92bd b45f f3bd e690 24be
000001b0: 9d9f 88bb c988 883a 348f 32bd fea0 80bd
000001c0: 180a b83d 85b0 573d a382 9dbd c52b 1b3e
000001d0: 9dbb 4d3d bed9 183d 4315 04bd 7a7b d5bb
000001e0: f260 6dbd cad0 41be cef0 65bd e0bf 9cbc
000001f0: 510c ad3c 2ba1 e73b c433 933c 826f c33d
00000200: 92e9 4bbe fef7 563d 6403 153e 6bd2 b73d
00000210: 0945 2dbe 740b 78be 739b 093e c24f f6bd
00000220: 2173 883d 7331 df3d bc79 a73b 5e1d 21be
00000230: f93c 573d 68ba 8abe 99f2 7f3d e550 93bd
00000240: b083 fdbd 212a f23c 48d2 0f3e 9769 24be
00000250: 335b b63d d37c 28bc 279e 04bd dde3 dabd
00000260: 2627 62ba 68c9 39bb 915f 553e 7aa6 c53d
00000270: 1f1c 8c3d 18c8 c4bb feaf 64be 1866 cd3c
00000280: 0847 ef3d e59a 41be 76d1 69be 376f 1c3e
00000290: adbb fbbd f9f2 9cbd 8afc 43bd 021c 163e
000002a0: 53b8 95be a4fa 8e3c 1ff5 dabd 501d 4e3d
000002b0: 1d71 01be 2b25 a2be b0a4 e2bd 98f2 c73d
000002c0: 48a0 33be 1122 b6bb b06d ad3d 0b08 223e
000002d0: c996 e73d 38af 313e 21b0 313e 4a59 713e
000002e0: 04e2 12be a28d 10be 8d3f 183d a198 e13d
000002f0: 3c3f 883d 9e53 13be 4aca 52bd b6e8 043e
00000300: b5aa 09bd 506d ba3c 6887 eebd 5b32 133d
00000310: b4a3 0fbc 5b27 a53d 531c a43d 187d 0ebe
00000320: 67b3 183c 0d2b 1abe f5ea 13be ccd0 803e
00000330: 2b84 12be 1b7f 8fbd 943a 1a3e 2ec6 bb3d
00000340: 36c9 033e 05af 9e3e 02c3 7fbc 8979 8a3c
00000350: 8e89 3e3d 592b c33d 28f0 ca3c 9b4d 6e3d
00000360: df3f 883e 53da 253e 07be 96be 0644 e93b
00000370: 3546 13be de4b a33c 28ff 1d3c 9b4a 73bd
00000380: 94c5 06be 610d 383e e914 67bd a6e7 4e3e
00000390: 2d6e a63e 9c76 15bc 5df8 523e ca74 11be
000003a0: 2746 103c 3aab 8ebd ca3e b3bc c5b1 653c
000003b0: 5f3b 373e feef 833c c71d e33b 71af 843d
000003c0: 5d17 cc3e 5686 69bc 44fe bfbd 12e6 4c3e
000003d0: 3f58 2ebe 2334 c63d 50c8 013d 1f48 443e
000003e0: e876 ea3c 5baf 1f3d 2c78 d2bd 6ffe b93d
000003f0: 4608 61bb 7dd5 05bc 4253 81be 83c6 fb3d
-0.035661913 -0.19675867 0.06480833 0.021054475 -0.065552704 0.02825582 -0.011571595 0.0044098613
0.024589209 0.020659456 -0.060153775 -0.10351585 0.088723965 -0.08398138 0.14845757 0.05949922
-0.061624426 0.006080447 0.031761903 0.051386006 -0.05846161 -0.03308771 -0.14014925 0.008860032
0.06019924 -0.018434193 -0.105969965 0.08349824 -0.038041726 0.003895304 -0.16361621 0.008895578
-0.022742283 0.13033924 -0.013029258 -0.058072917 -0.073075086 -0.01711484 -0.08201668 -0.038710594
0.07466723 -0.0564943 0.06724741 0.117158614 0.037570164 -0.041833747 -0.1289935 -0.028800176
-0.11654045 -0.1945311 0.11450987 0.04264567 -0.13247181 0.051091462 0.11422838 0.06036046
0.025889164 0.0028498454 -0.013221915 0.027201787 -0.054955207 -0.14368257 0.028638754 0.058506403
0.036284387 -0.03032528 0.098763846 0.0511075 0.0016199877 0.051234636 0.0958964 -0.0017348645
-0.0006345235 -0.1357044 -0.038965948 -0.029935628 0.037880354 -0.2036796 0.025223726 0.008244113
-0.18952563 0.05159949 -0.05228932 0.0824295 0.079578996 0.06307241 -0.08831627 -0.03719846
0.042367786 0.04508442 -0.13106981 0.049862523 0.0335665 -0.075794235 0.020903787 0.18156487
-0.017051341 0.11468929 -0.015678357 -0.081598476 -0.14854476 0.03206782 -0.04812566 -0.015309452
-0.00604944 -0.07131914 -0.11883488 -0.160709 -0.004169418 0.0010416742 -0.0435936 -0.06280707
0.089863 0.052658577 -0.076909326 0.15153416 0.05022775 0.03731703 -0.03224684 -0.0065149637
-0.057953782 -0.18927303 -0.056137852 -0.019134462 0.021124037 0.0070687733 0.01796902 0.09542753
-0.19913319 0.052482598 0.14552075 0.08975681 -0.16920866 -0.24223119 0.13438205 -0.12026931
0.06662584 0.108981036 0.0051109474 -0.15733859 0.052548382 -0.27095342 0.06248722 -0.07193164
-0.12378633 0.029561104 0.1404506 -0.16055904 0.089041136 -0.010283667 -0.03237739 -0.10687993
-0.00086270494 -0.0028348807 0.20837237 0.096508935 0.06841301 -0.0060052983 -0.2233276 0.025073096
0.1168347 -0.18906744 -0.2283381 0.152768 -0.12291656 -0.07663531 -0.047848262 0.14659122
-0.2924219 0.0174535 -0.106912844 0.050320923 -0.12640806 -0.31668982 -0.11066568 0.09763068
-0.17541611 -0.0055582603 0.08468187 0.1582338 0.11308057 0.17351997 0.17352344 0.23569217
-0.1434403 -0.14116529 0.03716998 0.1101544 0.06652686 -0.14387366 -0.05146245 0.12979397
-0.033610065 0.022757202 -0.116469204 0.035936695 -0.008767057 0.08064147 0.08013215 -0.13914907
0.009320117 -0.15055485 -0.14445098 0.251593 -0.1430823 -0.07006665 0.15061408 0.09168659
0.12869725 0.30992904 -0.015610458 0.016903656 0.0465179 0.09529752 0.024772719 0.05817948
0.2661123 0.16196565 -0.29441854 0.0071187047 -0.1438225 0.019933637 0.0096433535 -0.05939732
-0.13161308 0.17973854 -0.056416426 0.20205554 0.32505932 -0.009122517 0.20602556 -0.14204708
0.008805788 -0.069662526 -0.021880526 0.014019434 0.17893742 0.016105648 0.00693104 0.06478775
0.39861575 -0.01425322 -0.09374669 0.2000964 -0.1702585 0.09677913 0.031685174 0.19168137
0.028621152 0.03898559 -0.10276827 0.090817325 -0.0034337207 -0.008168575 -0.25258833 0.122937225

layers.1.bias f4 [128]
00000000: dc8f eabc 8711 4abd 425a 063b be72 733c
00000010: 8705 25bd ffb0 1d3d fb35 933d 8d1b ad3b
00000020: ff80 d2bd ab83 95b9 2659 82bd 6594 aa3d
00000030: 691e 8abd e5db 1ebd 6911 7f3b 0e01 963d
00000040: 5f57 4b3d f97a c83d 02e0 213d 8011 19bc
00000050: a5c5 e5bc 4d34 b03d 396e f03d 6d90 223d
00000060: 6e59 a33d 91b9 3ebd 0d7a 75bd 6751 d63d
00000070: c7c3 33bd 1dc9 bebc 5b55 5dbb 4635 c83c
00000080: 2f80 973d 9ec9 a4bc 50c5 05bc f0b6 6cbd
00000090: 8957 c7bc 397a 88bd 84ed 70bd c99b adbd
000000a0: eaa5 ec39 b763 853d d026 ac3d c483 8cbd
000000b0: 901c 78bd b69e 673d e302 a13d 088a a4bd
000000c0: 41e8 f43d dbb3 e23c b711 ce3c 588f 873d
000000d0: a93b 24bd 9481 79bd 0204 bdbd 64c1 96bc
000000e0: 259c 24bd 5c5c 843b 2182 873d 0901 ee3d
000000f0: ae96 93bd 8ccd 95bc ba55 ab3d bd6a 203c
00000100: abf7 9bbd 1580 d33d 9dd2 663d c2c8 07bd
00000110: 27d1 243d 9835 22bd 6297 eebc 2a28 34bd
00000120: e1aa 18bb fa8b da3b 2cab 2ebb a9cb 163c
00000130: b645 2e3a ed8c e73b 3498 80bb 8969 4dbd
00000140: d6f2 26bd c77d e7bc 30d3 cabd e959 8c3d
00000150: 02a9 3e3d c0ec 163d 7ba2 a7bc a4c6 3b3c
00000160: bab8 0ebd 8268 0e3b fe94 42bd 461b 623d
00000170: 7ac8 8fbc 3a20 b7bc afc8 023e 9ce8 a1b8
00000180: 9bd7 e33d 8a59 403d 4905 5a3c 50d9 8ebd
00000190: 3c64 09bd be2f 3ebc 5420 b63c 2588 7a3d
000001a0: 1785 8a3d e4b6 be3c d840 94bd dee4 9dbd
000001b0: 5f46 7a3c af8c 99bd 7836 bf3d 447d 703c
000001c0: e99d cd3d 0974 dc3a 98fd 713d 5dc0 c03c
000001d0: aabc 6dbb 0252 203d 9b90 113d beef 31bd
000001e0: a884 e7bc e009 7ebd 2fd1 b83d 1b91 87bd
000001f0: f9c8 233d 131d 973d 5107 883d 5c2a 5a3d
-0.02863305 -0.04933312 0.0020500575 0.0148589 -0.040288474 0.038498875 0.0718803 0.0052828253
-0.1027851 -0.00028517595 -0.0636466 0.08329085 -0.067440815 -0.038783927 0.003892029 0.0732442
0.04964387 0.0978908 0.03952027 -0.009342551 -0.028048346 0.086037256 0.11739773 0.039688516
0.07976042 -0.04656369 -0.05993085 0.10464745 -0.04388788 -0.023289258 -0.00337728 0.024439465
0.07397496 -0.02011567 -0.008164719 -0.05779165 -0.024333732 -0.06663937 -0.058820263 -0.08476979
0.00045137043 0.0651316 0.084058404 -0.0686107 -0.060574114 0.056547843 0.07861879 -0.0803414
0.119583614 0.027673652 0.025154931 0.066191375 -0.04009596 -0.06091459 -0.0922928 -0.018402763
-0.040187974 0.0040393304 0.06616617 0.11621291 -0.07206474 -0.018286489 0.083659604 0.009791073
-0.07615598 0.10327164 0.0563532 -0.033150442 0.040238526 -0.039601892 -0.02912492 -0.043983616
-0.002329521 0.0066695185 -0.002665232 0.00920383 0.0006647961 0.00706636 -0.003924394 -0.050149474
-0.04075893 -0.028258217 -0.09903562 0.068530865 0.046547897 0.036846876 -0.020463219 0.011460934
-0.034844138 0.0021729772 -0.04750537 0.05520179 -0.01755165 -0.022354234 0.12771867 -7.720405e-05
0.11125108 0.04696039 0.013306924 -0.06975043 -0.033542857 -0.011608062 0.022232212 0.061164994
0.06763666 0.023280568 -0.072389305 -0.077096686 0.015275567 -0.074975364 0.09336561 0.014678303
0.100398846 0.0016819249 0.059079736 0.023529226 -0.0036275783 0.03914071 0.035538297 -0.043441527
-0.028261498 -0.062021136 0.090242736 -0.066194735 0.039986584 0.07378592 0.066420205 0.053263053
