Homework9/Gym-DDPG-solution/results/DDPG_LunarLander-v2_1500-eps0.1-t32-l0.0001-s2.pth (torch, 180667 bytes, 13 tensors)

layers.0.weight f4 [128, 10]
000000 d4 f1 f0 3d 3b ab 05 be b1 bb 41 3e 1e 36 77 bd
       0.11764875 -0.130536 0.18919255 -0.060354345
000010 9c 58 00 3e e0 98 c1 3d 16 2f 1f 3e e4 a0 6a be
       0.12533802 0.09452987 0.15545306 -0.22912937
000020 79 45 ba 3d 08 78 46 be 84 95 49 3d 49 05 e7 3c
       0.09095282 -0.19381726 0.049214855 0.028200762
000030 05 62 62 bd 05 a6 59 3e 70 d3 3c bc ee 44 26 3e
       -0.05526926 0.21254738 -0.01152502 0.16237232
000040 f4 c0 81 3c 76 0f 14 be f2 19 f1 bd ad f0 c0 3e
       0.015839078 -0.14459023 -0.11772527 0.3768362
000050 0a 47 7c be 3c f7 82 bd 9b 9f 3d bd 91 a4 a5 3e
       -0.24636474 -0.063948125 -0.04629479 0.32352117
000060 a5 b5 1b be 10 b6 21 3e 88 e1 2c be d6 02 cb bd
       -0.1520601 0.15792108 -0.16882908 -0.0991265
000070 8f a1 27 be d4 5c f9 bd df 0a 7d be 70 ad 6d be
       -0.16370223 -0.12175909 -0.24711178 -0.23210692
000080 69 91 df 3d 2d 01 a8 3e 29 19 a3 3a 58 d6 93 bd
       0.10916407 0.32813397 0.0012443411 -0.07218617
000090 61 e5 78 3c 56 c9 ad bd a0 e3 13 bd b9 cd 21 be
       0.015191407 -0.084856674 -0.036105752 -0.15801133
0000a0 a7 e1 e7 bd 16 48 a6 be f6 34 dc 3d ef 18 4a 3e
       -0.11322337 -0.32476872 0.10752289 0.19736074
0000b0 17 82 3c 3e 39 4e 85 3e 18 51 e8 3d 5b 63 e6 bd
       0.18409 0.26036242 0.113435924 -0.11249419
0000c0 e8 9b 83 3d 53 c0 d0 3d 94 82 9d 3d 7c c4 66 3e
       0.06426221 0.10192933 0.076909214 0.2253589
0000d0 8b e7 39 3e b8 8f 29 3e c8 f3 0e 3b 7e 28 a1 3c
       0.18154733 0.1655873 0.0021812785 0.019672628
0000e0 f5 d3 71 be f7 80 36 3e eb b8 68 3d 64 21 9f 3e
       -0.23616011 0.17822634 0.056816977 0.31080163
0000f0 fe 80 61 3e 9a 01 98 be 31 48 20 3e 97 6a e1 3e
       0.22021863 -0.29688722 0.15652539 0.44026634
000100 a5 71 22 3f 13 0b 83 be aa 6a 94 bb 17 34 70 be
       0.6345466 -0.25594386 -0.004529317 -0.2345737
000110 71 0e 99 bd 1d 86 52 3e a3 ba dd be ce d3 86 3e
       -0.074734576 0.20558973 -0.43306455 0.2633347
000120 7c ea b4 be 36 5f a5 3e 5b aa 94 3c 24 b2 1f 3e
       -0.35335147 0.32299203 0.018147638 0.15595299
000130 29 50 aa 3d ed 40 c3 be 13 01 3b bd 6b 68 56 be
       0.083160706 -0.38135472 -0.04565532 -0.2093827
000140 1c 87 a5 3e af dd 84 bd c1 11 93 be aa a6 6c 3e
       0.32329643 -0.06487595 -0.28724483 0.23110452
000150 70 b8 90 3e be 18 d5 3c 3c fb 91 3d f2 40 1b 3e
       0.28265715 0.026012775 0.07127997 0.15161493
000160 91 14 07 be f9 34 42 be 71 b7 c5 3d 49 ff 29 be
       -0.13191439 -0.1896552 0.09654129 -0.1660129
000170 03 30 8b 3e e0 cd 95 bd c6 94 65 3e 17 7f ae 3e
       0.27185068 -0.07314658 0.22420034 0.34081337
000180 e0 c6 c2 be da 7b 24 be bb ce 67 be 15 78 5d bd
       -0.38042355 -0.1606287 -0.22637455 -0.054069597
000190 1c 33 45 be ea 52 60 bc cb ad da be 49 79 8a 3e
       -0.19257778 -0.013691643 -0.4271072 0.27045658
0001a0 09 31 ac 3e e7 09 23 3e da f2 49 3e 1b 7f 6b 3e
       0.3363116 0.15921746 0.19721547 0.22997706
0001b0 5e 77 a9 be f5 0d 11 3c 99 3c 91 3e 28 6a 85 be
       -0.33098882 0.008853425 0.28366545 -0.26057553
0001c0 f7 31 0d be e5 73 6f 3d ef f9 84 be ed 4a 37 be
       -0.13788591 0.058460135 -0.25971934 -0.17899676
0001d0 cc 4f c8 3d 6a 26 a0 3e e9 1c 6f bd 44 e1 1e 3e
       0.09780845 0.31279308 -0.05837718 0.1551562
0001e0 4b 14 92 3e 8b 92 3a 3e 0d 75 aa be 3b 2a 3d 3e
       0.28531107 0.18219964 -0.33292428 0.18473141
0001f0 b3 8d 7d 3e b8 88 96 be b4 83 37 be cb 30 36 3e
       0.24761085 -0.29401183 -0.17921335 0.1779205
000200 5b c9 8b be 55 fa a2 be 2a d6 5a be ad e9 b2 3d
       -0.2730206 -0.31831613 -0.2137076 0.08735976
000210 43 bd 19 be f3 d6 dc be 96 38 32 3e 11 bd 82 3e
       -0.15013604 -0.43132743 0.17404398 0.2553487
000220 d8 8b 66 3c 5b d0 7e be 22 7b a8 3e 24 a3 72 3b
       0.014071427 -0.24884169 0.32906443 0.003702351
000230 c9 ac 80 be 8a 0e c5 bd c7 f4 6e 3e 87 bb 63 3d
       -0.25131825 -0.09621914 0.23335563 0.055598762
000240 8f bd 23 3a 13 4b c1 3e 40 73 44 be 12 5e 7e 3e
       0.0006246203 0.3775259 -0.1918459 0.24840572
000250 fd 54 8b 3e 07 04 bd bd 58 ca f3 3c b6 8f 34 bd
       0.27213278 -0.09229284 0.029759571 -0.044082366
000260 7b ee 81 be ea 80 9d 3d d6 63 07 be 00 cc eb be
       -0.2537726 0.07690604 -0.13221678 -0.46054077
000270 2c 4a 0e be b7 ed 7a bd 53 b9 80 3e 6e 5f 34 3d
       -0.13895482 -0.06126186 0.2514139 0.04403632
000280 2a 7d 5e be 87 9d 79 3e 9f 3f 02 bc 2e 71 bd be
       -0.21727434 0.24376498 -0.007949739 -0.37000412
000290 89 36 3c 3e e1 d7 b0 3e 1b 76 98 be 44 d5 73 3b
       0.18380179 0.34539703 -0.29777607 0.0037205974
0002a0 3b 92 9d bd c7 41 a2 be 54 62 fa bd 83 01 21 bd
       -0.07693907 -0.3169081 -0.12225786 -0.039308082
0002b0 f6 8f 90 3e ba 92 81 bc 41 20 e2 be 33 a7 a4 bd
       0.28234833 -0.015817035 -0.44165233 -0.08039703
0002c0 fc bc 36 be f0 cb 24 bc ac 9b 3f 3e 87 ae 04 3e
       -0.1784553 -0.010058388 0.18711728 0.12957202
0002d0 54 96 73 be c5 fe 15 be 28 c1 f9 3d 6e 38 82 3e
       -0.23787814 -0.14647968 0.12195045 0.25433677
0002e0 bd 71 8e be 8e 3f 97 be 2a ca ce 3b 53 76 97 3d
       -0.2782115 -0.29540676 0.006310721 0.073956154
0002f0 a2 7f 61 3e 4e 7b 3f 3e 40 19 58 3e 95 14 5d be
       0.22021344 0.18699381 0.21103382 -0.21589883
000300 28 81 d5 3e 0f d4 0f 3d a5 d0 b5 3d 2d 3e cc be
       0.417001 0.035114344 0.088776864 -0.39891186
000310 71 52 ba bc 7a 3d ac bd 2b e1 62 3d 4e 9e 52 3e
       -0.02274439 -0.08410163 0.05539052 0.20568201
000320 9a ce 37 be d5 c7 6b be b0 b8 cf bd 57 37 01 be
       -0.17949906 -0.23025449 -0.10142648 -0.12618767
000330 54 84 6e 3e 36 e7 9c 3e f0 8c 82 3e 14 5c cf bd
       0.23292667 0.3064515 0.25498152 -0.101249844
000340 90 01 0f bd e3 cc 6d be f8 64 b6 be 21 62 3f bd
       -0.0349136 -0.2322269 -0.35623908 -0.046724442
000350 e9 93 c5 bc a2 2f b5 be 9e 35 c6 be fc 87 2b bc
       -0.02411838 -0.35387903 -0.38712782 -0.010469433
000360 39 b6 1e bd df 86 34 be 39 18 90 3d f8 c5 88 3e
       -0.038748 -0.17629574 0.0703587 0.26713538
000370 85 b1 b3 3b 56 14 72 be f6 aa a9 3e 09 4f af 3e
       0.0054838085 -0.2364057 0.33138245 0.34239987
000380 cc ca 05 bd a4 e1 fc bd b5 78 78 be 05 1d 81 3e
       -0.032664105 -0.12347725 -0.24264796 0.25217453
000390 9a 43 6e 3e 6d 0a 70 be 2e ea 59 3a 99 d3 e9 3d
       0.23267975 -0.23441477 0.00083127886 0.11417312
0003a0 9b b2 c0 bc 8d ca 9e 3c cb b2 89 be 3d f8 8c 3c
       -0.023522666 0.019383693 -0.2689422 0.017208213
0003b0 bf c2 ea bd ac 55 c0 3c 7b a1 45 be 32 cf 69 be
       -0.11462926 0.023478352 -0.19299881 -0.22832945
0003c0 91 1b 16 be 98 81 41 3e 49 08 81 be ba 79 eb be
       -0.14658953 0.18897092 -0.25201634 -0.45991307
0003d0 b5 8f aa 3e e1 1f 1e 3e 20 c7 a7 3d ff f2 74 3e
       0.33312765 0.15441848 0.08192277 0.2392082
0003e0 06 c1 15 bd 8f 50 81 be 54 8c 90 be 27 e8 b3 bd
       -0.036561035 -0.25256774 -0.28232062 -0.08784514
0003f0 58 1c 15 3d a6 ac 4b bf 5a 98 c4 be a5 b6 e8 3d
       0.036403984 -0.79560316 -0.38397485 0.11362962

layers.0.bias f4 [128]
000000 91 09 69 3e 64 c3 86 3e d9 1f 1c be c4 75 45 be
       0.22757556 0.26320946 -0.15246524 -0.19283205
000010 7b 78 55 3e 0f 4b 33 be cc a5 80 bd da 2c 91 be
       0.20846741 -0.17509101 -0.06281623 -0.28354532
000020 8b a3 83 3e b3 51 35 3e be 91 52 be 0b 57 89 bc
       0.2571071 0.17706947 -0.20563409 -0.016765138
000030 12 71 8a 3e 93 98 b3 3d ed f1 6a 3e 10 dc 56 be
       0.2703939 0.087693356 0.2294385 -0.20982385
000040 8b f6 c2 3d c1 24 73 be c1 ad 3b be 3f a1 3f 3e
       0.095196806 -0.23744489 -0.18328 0.18713854
000050 b1 1a 8d be 81 58 38 bb 14 eb 00 3e c2 7b 47 be
       -0.27559426 -0.0028128924 0.12589675 -0.19480804
000060 b7 b3 09 bd 17 e8 50 3e 33 ea 98 3e 38 a4 91 be
       -0.033618655 0.20401035 0.2986618 -0.284456
000070 d8 18 90 3e f6 9e 1e be f2 73 e4 bc 6c b4 5f be
       0.28143954 -0.15490326 -0.027887318 -0.21846169
000080 c8 15 ad be 6e a3 1b be e3 7e 1d bd 57 b1 2e b9
       -0.3380568 -0.15199062 -0.038451087 -0.00016659997
000090 50 4d 81 3d ad 91 43 bd 93 d6 ad 3e cb a2 18 3d
       0.06313574 -0.04774635 0.3395277 0.037264626
0000a0 a8 9e b1 be 2a 02 81 3e 28 52 67 be 5f 6c a5 3e
       -0.34691358 0.25196964 -0.22589934 0.32309243
0000b0 36 1d 9b be c6 46 92 be 68 f4 97 3e b9 22 00 3e
       -0.30295724 -0.2856962 0.29678655 0.12513246
0000c0 01 1c b1 be e8 8c eb 3c fa cc 5e 3e 17 b9 a9 bc
       -0.34591678 0.028753713 0.2175788 -0.02071814
0000d0 69 91 6b 3e 2f 11 c1 3d 55 f2 8b 3e f8 c3 87 be
       0.23004688 0.09427106 0.27333322 -0.265167
0000e0 82 e0 ad 3e ab 2b 7f be b8 d7 92 3d 0a 57 12 3e
       0.33960348 -0.24919002 0.07170051 0.14291015
0000f0 48 77 b0 3e 47 c8 d0 bd 6b 27 b3 bd 82 20 19 be
       0.34466004 -0.1019445 -0.08747753 -0.14953807
000100 13 1f 1a 3d 27 31 a4 be d6 92 07 3e 5c 93 ad be
       0.03762729 -0.3206875 0.13239607 -0.3390149
000110 4b 0b 19 be fc 2e 21 be bd 2a 08 3d 69 82 75 be
       -0.14945714 -0.1574058 0.033243883 -0.23975529
000120 c2 4b 34 3e ff 74 4b be a6 07 f7 bd 26 34 b2 3e
       0.17607024 -0.19868849 -0.12062006 0.3480541
000130 06 26 68 3e 13 e3 82 be 4d e2 33 be 88 63 6c bd
       0.22670755 -0.2556387 -0.17566796 -0.057712108
000140 42 2f b0 bd d3 42 72 3d af a9 f9 bb f5 0a ad 3e
       -0.08602764 0.05914576 -0.007619105 0.33797422
000150 d4 3d ca 3e de 28 a3 bd 24 ed fa 3a 30 8b 0a be
       0.39500296 -0.07966779 0.001914416 -0.13529658
000160 9e 9d 7f bd ad 26 69 3e 71 d9 60 be ac 8c a9 3e
       -0.062406175 0.2276866 -0.21957947 0.33115137
000170 38 1b 90 bd 23 10 f0 bd 89 5e 80 be 05 b6 31 be
       -0.070364416 -0.11721828 -0.25072125 -0.17354591
000180 2d 2b 91 3e af 62 ac be b4 d2 dd bd ad 1f 40 be
       0.28353253 -0.3366904 -0.10831204 -0.18762083
000190 4a d6 7c 3e 93 ab a6 3e b3 44 b0 3e 42 5f 3a 3c
       0.2469112 0.32552776 0.34427413 0.01137525
0001a0 66 a2 73 bd 93 0f 5f 3d f2 02 2a bd 7b e7 96 be
       -0.059481047 0.054458212 -0.041506715 -0.2947348
0001b0 35 3c 85 be 8a fe 91 be a9 8a 64 3e e4 69 36 3d
       -0.26022497 -0.2851451 0.2231852 0.04453458
0001c0 25 da c5 3d 44 d8 3b bd 8a f6 23 3e 1e 87 b4 3e
       0.096607484 -0.045860544 0.16012016 0.35259336
0001d0 47 e5 53 3e 40 ff 5c be 59 ec 29 bc e2 c8 7e be
       0.20692931 -0.21581745 -0.010371291 -0.24881318
0001e0 20 d9 9d be b5 01 ae 3e 64 75 97 be d6 b0 1f 3e
       -0.30829716 0.33985677 -0.2958175 0.15594801
0001f0 cf e7 a5 3d 2b eb 59 3e ef fa c7 3d 8c ae 7b be
       0.081008546 0.21281116 0.09764659 -0.24578303

layers.1.weight f4 [128, 128]
000000 e7 0b b4 3c 9c f6 10 bd b5 5c dc bd d3 2e 3d bd
       0.021978332 -0.035391435 -0.1075987 -0.046187233
000010 6a 3f 10 bd 33 dd 07 bc 6f d4 49 3d c1 b4 a9 3d
       -0.035216726 -0.008292484 0.049274858 0.08286429
000020 cb 57 88 bb f2 7f c2 3c dc 9d ee 3d 2c 57 ea bb
       -0.0041608564 0.02374265 0.11651203 -0.007151505
000030 f0 49 1d bd dc f0 56 bc 26 a2 de 3b fa 81 13 3d
       -0.03840059 -0.013118949 0.006794232 0.036012627
000040 7d 09 03 3c 57 ae 8c 3d e5 85 06 3e f7 c2 80 3d
       0.007997868 0.0686919 0.13137014 0.062871866
000050 b1 6d 25 3c c3 7a d3 bd cb b5 1c 3d 27 bc 8c bd
       0.010096953 -0.10326149 0.03825931 -0.06871825
000060 17 0b d2 bd 1c eb 8e bd dd f0 b3 bd ad 7c d1 3a
       -0.102560215 -0.06978437 -0.087861754 0.0015982591
000070 70 6e 49 bd 28 b3 84 3c 18 1c b8 3d 8f f3 97 bc
       -0.049177587 0.01619871 0.089897335 -0.018548755
000080 1e e7 c0 bd a7 c0 e7 3d 10 16 7d bd 25 10 87 bd
       -0.09419082 0.113160424 -0.06178862 -0.06594876
000090 8b 62 dc 3b a1 33 e3 3c a4 49 c2 3b c7 ec a1 bd
       0.0067256144 0.02773458 0.005929189 -0.0790649
0000a0 d6 69 3d bd ac 29 f3 3d 69 c6 92 3d 17 8f 6c 3d
       -0.04624351 0.11873183 0.0716675 0.05775365
0000b0 98 37 d1 3c ab 89 40 bd 1a ae bb 3d 31 c3 26 bd
       0.025539204 -0.04700629 0.091640666 -0.040713493
0000c0 06 82 f4 3d d6 60 97 bd d8 04 77 bc 02 ad fa 3d
       0.119388625 -0.07391517 -0.015076838 0.1224003
0000d0 4d c1 96 3c 47 35 b0 bd ea eb 64 bd 8c 79 05 bd
       0.01840272 -0.08603912 -0.055889048 -0.03258662
0000e0 53 13 9d bd a4 c2 07 3d 57 85 1c bc e2 3f 35 3c
       -0.076697014 0.03314461 -0.009553275 0.011062594
0000f0 97 13 09 bd 97 68 eb bd 4c 2c 9a 3b db ed 7d bd
       -0.033465948 -0.11494558 0.0047049876 -0.061994415
000100 70 c3 58 bd b9 50 aa 3d 87 bb 8b bd 56 d6 c0 3d
       -0.05292076 0.08316178 -0.068228774 0.09415881
000110 f7 3f 3a bd 36 9c 5d bd ff 73 03 3e 42 33 fa bc
       -0.045471158 -0.054104052 0.12837218 -0.03054202
000120 27 63 2f 3d d1 ac 7d bd e5 74 f0 bc f2 6f ea bd
       0.04281917 -0.06193239 -0.029352615 -0.11447133
000130 d1 4e 67 3d e2 92 d2 bc 25 1f af 3d b7 af cc bd
       0.05647165 -0.025704805 0.08550862 -0.099944524
000140 76 7b ab 3c 0a 1f ca bd 2a 21 c2 3d 09 f1 1f 3d
       0.020932894 -0.098692015 0.09478982 0.03904823
000150 a0 08 04 be f1 42 05 bd 71 00 84 bc 92 ec af 3d
       -0.12893915 -0.032534543 -0.016113492 0.08590044
000160 6e 39 a8 bd 5b ef 49 bb dc cb 83 3c 8b d8 6c bd
       -0.08214079 -0.0030812833 0.016088419 -0.0578237
000170 d6 04 91 3d 86 0d 84 bd 15 e1 79 3d 02 5e d7 bd
       0.070810005 -0.06447892 0.06100567 -0.105159774
000180 48 06 a7 3c 5a 41 96 bd 19 18 f4 bd b8 17 67 bd
       0.020388737 -0.073366836 -0.11918659 -0.056419104
000190 51 dc 95 bd b2 d2 99 bc 75 82 e2 3b 09 b7 5f 3b
       -0.07317413 -0.018777225 0.0069125243 0.0034136197
0001a0 c1 ae a0 bd 96 0d ba bc 31 0d d3 3b 36 4d 51 bd
       -0.07845832 -0.022711556 0.0064407815 -0.051099025
0001b0 d3 22 22 ba ea f5 5f bd e0 0d 14 bb 74 b2 fa 3d
       -0.0006184999 -0.05467788 -0.0022591278 0.122410685
0001c0 d3 63 a3 bd 74 75 ac 3d 02 9f 35 bd d5 5e 68 3d
       -0.07978024 0.0842084 -0.044341095 0.056731064
0001d0 67 27 ca 3c d0 32 8f bc 10 1d 6d 3c a6 67 7d 3d
       0.024676992 -0.017480284 0.014472261 0.061866425
0001e0 81 8a 1c bd 6c 91 e6 3d 11 7e e4 bb 07 5c 24 bc
       -0.038218025 0.11258206 -0.006973036 -0.010031707
0001f0 03 b5 ff bc 97 2c b3 bd 73 02 51 3c e9 59 16 3d
       -0.031214243 -0.08748739 0.012756932 0.03670684
000200 78 b2 5d 3d f9 0b 20 bd ac 88 bb 3d a6 63 bb bc
       0.05412528 -0.039073918 0.091569275 -0.022874665
000210 bc a1 8d bc 0d 2f 9a bd 97 34 24 bd 06 7f 90 bd
       -0.017289035 -0.075285055 -0.040089216 -0.07055478
000220 51 c3 07 3d 1a 67 cc 3c 15 a5 24 be d3 c1 b2 bd
       0.033145253 0.024951506 -0.16078599 -0.08728375
000230 79 1d 9f 3d 04 18 f4 3d ba 9a b3 bd 8c 0a 89 bc
       0.07769293 0.11918643 -0.08769746 -0.016728662
000240 6e 1b 49 ba 48 3a 29 3c 8a 95 d9 bd 3e 39 03 3d
       -0.0007671629 0.010328837 -0.106242254 0.032037012
000250 ea 38 00 bd 1f e5 0a 3e d6 f1 e8 3d 7c b1 8e 3d
       -0.031304277 0.13563965 0.113742515 0.06967446
000260 80 30 81 bc 55 d4 82 bd 5b 18 62 bd 1e 42 1e 3c
       -0.015770197 -0.06388155 -0.05519901 0.009659318
000270 45 9e 6b bd 74 96 9b 3d a5 ef df bc 70 fd c6 3d
       -0.057523984 0.07597056 -0.027335951 0.09716308
000280 54 db 14 3c 5e 88 a7 3c 1b 88 a0 3d 9d b2 3a bc
       0.009085495 0.020450767 0.0783846 -0.011395124
000290 dc 4f a2 bd 65 c1 16 3c 25 37 81 3c 37 3d 2c bd
       -0.07925388 0.009201382 0.015773365 -0.042050567
0002a0 ae 89 21 bd 0a 63 2e 3d 77 2e 88 bd d8 95 71 3d
       -0.039437942 0.04257492 -0.066494875 0.058980793
0002b0 1e 54 21 bd 64 57 f8 3d cf 7a 90 3c bd 75 5d ba
       -0.03938686 0.121260434 0.017636685 -0.00084480253
0002c0 db 0a 23 3c a9 87 04 3e 21 c2 48 bc ed b1 65 3d
       0.009951319 0.12942375 -0.012253315 0.056077886
0002d0 4c 92 12 bd 22 5b 07 bd 2e 40 fb 3c 77 0d 22 3d
       -0.03578405 -0.033045895 0.030670252 0.039563622
0002e0 f0 ca 09 3d 6b de 5d bd 16 43 ca bc 90 a0 1f 3c
       0.033640802 -0.054167192 -0.024690192 0.009742871
0002f0 21 f4 3d bd 9a 01 91 3d 02 42 b4 bd 4d 02 86 bc
       -0.046375398 0.070803836 -0.088016525 -0.016358519
000300 6e bb 26 bd 27 ee 89 bd 2a b8 c5 bc 90 a5 d6 3b
       -0.04070609 -0.06734877 -0.024135668 0.0065504983
000310 c6 63 da 3b 9e 52 9a 3c f8 59 81 3a 61 8e b1 3d
       0.006664726 0.018838223 0.0009868732 0.08669735
000320 3a 5f cb 3d 68 9f c7 bc e0 4d 71 3d e8 7a e4 3d
       0.099302724 -0.024368003 0.058912158 0.11156255
000330 b1 6e 19 3b b0 e0 19 3d ff 45 b4 bd 22 e8 e1 3d
       0.0023411924 0.037567794 -0.08802413 0.11030604
000340 33 fb 24 3d ed 42 97 3d 18 fc 83 3d 11 50 f6 3d
       0.040278625 0.07385812 0.064445674 0.1202699
000350 ca 16 f3 3d 4f e9 3b 3d d0 f5 bf 3d 25 4f 1c 39
       0.11869581 0.045876797 0.09373057 0.00014906803
000360 67 7c 33 3c 56 c0 9f bd 29 c1 48 bd 11 b3 01 3c
       0.010954953 -0.07800357 -0.049012337 0.007916228
000370 d7 e1 19 3c b3 3b 8e bd c3 a6 9a 3d 11 7f 31 3d
       0.009392223 -0.069449805 0.075513385 0.04333407
000380 40 cd bb 3c 3c 1e 6d 3d 5f f8 91 3d 9b 66 e0 3d
       0.02292502 0.057890162 0.07127451 0.109570704
000390 48 98 cc bc a7 24 3e bd f1 dd 4c 3d 01 0c a2 3d
       -0.024974957 -0.046421673 0.050016347 0.07912446
0003a0 94 0e 20 bd ab 72 e5 bd e7 25 72 3c f9 28 d8 3d
       -0.039076403 -0.11203512 0.014779544 0.1055469
0003b0 ca 89 49 3d 4a 3d a4 3d 44 bd dc bd 51 22 ce bd
       0.04920367 0.080195025 -0.10778287 -0.10065139
0003c0 81 67 22 bd 2d 49 db bc 58 3a d6 3c 88 33 74 3d
       -0.03964949 -0.026768291 0.026150867 0.059619457
0003d0 92 56 34 bd 77 75 6b bd 7d 51 2e bd 98 d6 af bd
       -0.044027872 -0.05748507 -0.042558182 -0.085858524
0003e0 99 26 b9 bd 5c 80 bd bd 44 85 06 3d 0f 29 02 be
       -0.09040565 -0.09252998 0.032841936 -0.12710975
0003f0 35 9a 66 3d bf fc 89 3d b6 ba 45 bc 5b ce 52 3c
       0.056299407 0.067376606 -0.012068441 0.012866582

layers.1.bias f4 [128]
000000 7a 8e ea 3d 2c 40 73 bc 32 bb a2 3d ef 5c 03 be
       0.114529565 -0.014846843 0.07945861 -0.1282842
000010 36 d2 ff bd ca 4f 01 bd fc ed 04 be ba 59 f3 3d
       -0.124912664 -0.031570233 -0.12981409 0.11882348
000020 be c9 ce bd a5 13 e7 bd bd de d2 bc 5c b1 2f bd
       -0.10097073 -0.11283044 -0.025740976 -0.042893752
000030 a5 35 94 bd df 16 94 bc 1c 29 bd bc 60 45 bf bc
       -0.072367944 -0.018077312 -0.023090892 -0.02334851
000040 a1 dc 82 bd 26 dc 10 3d 31 b7 7c bd f2 34 80 3d
       -0.06389738 0.0353662 -0.061698142 0.062600985
000050 a9 8b aa bd 27 e6 db 3d 5b 09 fd 3c a4 c6 76 3c
       -0.08327419 0.107372575 0.03088825 0.015062008
000060 2a bb 9d 3d 75 27 77 bd 92 e3 06 3b 8d 41 a7 3d
       0.07701714 -0.060340364 0.002058242 0.081668
000070 98 54 99 bd 3e 03 d8 3d f7 7d 74 bd 90 d8 97 bd
       -0.07486838 0.105474934 -0.059690442 -0.07414353
000080 1b 0f 07 bd 48 65 89 3d f6 55 09 3d 3a ca bd 3d
       -0.03297339 0.06708771 0.033529244 0.09267087
000090 9c d3 c0 bc de 9b 8d 3d a1 8c 0f 3d 60 dc a7 3d
       -0.023538403 0.06914495 0.035046224 0.0819633
0000a0 7b 74 8c 3c fe 66 3b 3d 89 20 29 bd b3 3c d9 3d
       0.017145386 0.045752518 -0.041290794 0.106072806
0000b0 69 d0 d1 bd ec 0a 4c bd 63 a2 f5 3d f4 d2 06 3e
       -0.10244829 -0.049815103 0.119938634 0.1316641
0000c0 a0 f6 a1 bd 67 76 0e bd 49 14 ff 3c 09 cd 62 3d
       -0.07908368 -0.034780886 0.031137602 0.055371318
0000d0 61 84 9c bd 95 08 f7 3c a1 00 39 bd a8 00 ac bc
       -0.07642437 0.03015546 -0.045166615 -0.020996407
0000e0 24 4c f0 3d 38 9a 0e bd ab 20 57 bd 6f a2 de 3d
       0.11733273 -0.034815043 -0.05252139 0.108708255
0000f0 b4 5d 03 be 80 c1 04 bd a8 da b0 3d 52 cb 94 3d
       -0.12828714 -0.0324111 0.08635455 0.07265343
000100 96 00 a1 bc b4 8f 48 3d 75 74 81 bd 68 51 a1 3c
       -0.0196536 0.04896517 -0.063210405 0.019692138
000110 52 72 7c bd 6c 7a a2 3d 87 71 08 3d 13 15 b6 3d
       -0.06163246 0.07933506 0.033311393 0.08890738
000120 ef a8 a2 bd 65 0f a8 3d e9 d0 52 bd 6b d0 20 3d
       -0.07942378 0.08206061 -0.051468764 0.039261263
000130 41 af f4 3b 32 a3 ae bd b0 26 68 3d 7c ae b6 bd
       0.007467181 -0.08527221 0.05667752 -0.08919999
000140 f4 de a1 3d 66 f7 ff bd 43 3e 4f bd 95 dd fd 3c
       0.07903853 -0.124983594 -0.050596487 0.030989448
000150 4d b1 e3 3b 74 bc ee 3b f0 2d 53 3d 87 c5 1b bb
       0.006948626 0.007285649 0.05155748 -0.0023768859
000160 2b fc 20 bd f6 a8 48 bd 68 1f a9 3c 56 e0 97 bc
       -0.039302986 -0.04898926 0.020644858 -0.018539589
000170 87 1a 16 bd 25 5b 92 bc 57 53 d6 3d 2e fe 78 3d
       -0.036646392 -0.017865727 0.104651146 0.06078928
000180 55 c7 a4 3d a9 2f bb bc b3 23 3b 3d 8e df 08 3d
       0.08045832 -0.022849875 0.045688342 0.033416323
000190 59 33 93 3d f8 e8 e6 bc 25 c7 c3 3d f5 66 c8 3d
       0.07187528 -0.02818726 0.09559468 0.097852625
0001a0 6d e7 94 bd 48 9c 13 bd d3 37 67 bd 4f b7 cc 3d
       -0.072707035 -0.036037713 -0.056449722 0.09995901
0001b0 d4 1d f9 bd 64 ca 36 bd 05 71 c4 bc 29 c3 b8 3c
       -0.121638924 -0.04462661 -0.023979673 0.022553997
0001c0 1c d5 21 bd d2 ed a4 3c c4 66 a4 bc 45 db 38 3d
       -0.039509878 0.020132933 -0.020068534 0.045130987
0001d0 00 66 29 3d 41 a6 a9 3c ff db d8 bc fd d5 f4 3c
       0.04135704 0.020709159 -0.02647209 0.029887194
0001e0 e2 f4 f8 3c b1 86 cd bc c3 e8 b1 bd ee 35 19 3b
       0.030390207 -0.02508864 -0.08686974 0.0023378092
0001f0 28 26 fa 3d cf 1c d6 bd d1 54 3f 3d 7b a1 47 bc
       0.12214309 -0.104547136 0.046711747 -0.012184496

layers.2.weight f4 [64, 128]
000000 85 14 3b be 51 1c e2 3d 1e 59 d0 3d 28 3f 25 3e
       -0.18269546 0.11040557 0.10173248 0.16137373
000010 88 23 c7 bd de 93 04 3e 06 a6 ac 3c 5b aa 0a be
       -0.09723574 0.12947032 0.02107526 -0.13541548
000020 93 a6 ad 3c 15 e5 72 3d a1 78 de bc d8 d2 bd 3d
       0.021197593 0.0593005 -0.02715713 0.09268731
000030 bd a3 0f bd 6c 55 64 3d e9 df 0e 3e 06 0a bc bd
       -0.035068262 0.055745527 0.13952602 -0.09181599
000040 50 73 9a 3d b0 79 f1 bd a4 dc b7 bc 62 76 30 3b
       0.07541525 -0.11790788 -0.022444077 0.002692603
000050 9f 88 0c bb 7e af c1 3d 4c a0 a6 bc 11 ef fd bc
       -0.0021443737 0.094573006 -0.020340107 -0.030997785
000060 ab 85 fa bd 24 92 87 3c 74 5a 8d bd 3c d7 11 3d
       -0.122325264 0.016549177 -0.06902018 0.035605654
000070 63 96 c6 bc 32 70 1b be 62 97 ef 3b 0f 2c 26 3e
       -0.024241632 -0.15179518 0.0073117474 0.16227745
000080 84 9b 07 3d 9e 52 58 3d 85 15 31 be 23 ec 76 bc
       0.033107296 0.052813165 -0.17293365 -0.015070948
000090 f7 4a 8f 3d ac 06 04 bd de c0 a5 bd a4 09 cf ba
       0.0699672 -0.032232925 -0.08093427 -0.001579572
0000a0 ae 55 20 3e d6 e7 14 be ea a9 53 bd cc 83 19 3e
       0.15657684 -0.14541563 -0.051675715 0.14991683
0000b0 4b da cc 3c 41 b8 63 bd 2b ef 1a be bf e4 6c bd
       0.025006434 -0.05559564 -0.15130298 -0.057835337
0000c0 17 49 12 3e 76 bd 2a be 1f d6 9f bd 48 66 a7 3d
       0.14285694 -0.16673836 -0.07804512 0.081738055
0000d0 fb 0e e2 bc 58 84 93 bd 21 2e 5c 3d 16 8b 07 be
       -0.027595034 -0.07202977 0.05375493 -0.13236651
0000e0 08 63 d1 bd 09 fb 22 be eb 4a 44 3e e2 34 d8 bd
       -0.10223967 -0.15916075 0.19169204 -0.105569616
0000f0 a2 d9 fb 3d 35 6f cc 3c 7b 79 c0 bd 6f db 2b be
       0.122973695 0.024955371 -0.093981706 -0.16782926
000100 5f a4 2e bc 47 da 32 3e 2d f2 d5 3d 32 18 30 bd
       -0.010659306 0.17466079 0.10446582 -0.042991824
000110 0b 5d 27 bd 6f cb b2 bd f7 9d 91 bd 15 a4 89 bc
       -0.040860217 -0.08730208 -0.071102075 -0.016801873
000120 e6 28 51 3d d2 b0 23 be 86 36 30 3d 2f fb 1f bd
       0.051064394 -0.1598542 0.043020748 -0.039057907
000130 27 02 44 bd ab b3 9b bd 9a 03 b8 bd 4c 27 c5 3d
       -0.047853615 -0.07602628 -0.08985062 0.09626636
000140 5c 49 cd ba 1c 5d 6a 3d 15 81 83 3c e0 cd 45 be
       -0.0015662122 0.057217702 0.016052762 -0.19316816
000150 36 0d 24 3d 90 0e fb 3d 09 aa 40 bd b9 6f 94 bd
       0.04005166 0.12258637 -0.04703716 -0.07247872
000160 64 07 b9 3d 7a 99 fe 3c 49 63 95 bc 39 8d ed 3d
       0.09034613 0.031079043 -0.01823582 0.11599202
000170 bd 4c 1f 3d 33 2a 2e bd fb 08 fa 3d 77 b2 1b be
       0.038891543 -0.042520713 0.12208744 -0.15204798
000180 b6 d7 13 be 53 a6 bf bc 7b 8a 26 be 67 34 27 3e
       -0.14437756 -0.02339474 -0.16263764 0.16328584
000190 0a 1a 93 3c e1 99 a5 bd c8 04 53 bd 92 86 a7 bd
       0.017956752 -0.08085991 -0.05151823 -0.08179964
0001a0 5f 60 0d bd c1 f8 ab 3d 77 6b 84 bd 84 59 75 bd
       -0.034515735 0.083970554 -0.0646581 -0.059899822
0001b0 18 6e b4 bd 1b 39 c1 3d 24 76 86 3b c2 bf fc bd
       -0.08810061 0.0943472 0.004103439 -0.123412624
0001c0 7a 96 df bb 48 56 e6 3d 6c 1a 46 bc d1 d8 ea 3c
       -0.006823358 0.112469256 -0.01209126 0.02866784
0001d0 c0 c8 23 3e 0e 4f 49 be e7 c9 13 bd 1d ed 8d bd
       0.15994549 -0.19659063 -0.03608122 -0.069299914
0001e0 59 9d a4 bd cd 1e 09 be ad c8 a0 bd ab 4d f2 3c
       -0.08037824 -0.13390656 -0.07850776 0.02957805
0001f0 cf 94 de bc 7a e5 da 3c e1 e8 41 3b 39 9c 68 3e
       -0.027170567 0.026720751 0.002958827 0.22715844
000200 6e 5a 27 3e aa 3e d1 bd e6 ae bc bc e0 d3 e3 bd
       0.1634309 -0.1021703 -0.023032617 -0.11124396
000210 1d 4f 06 3d f5 cd a8 bd a5 a1 5f bd ab d4 58 3d
       0.032790292 -0.08242408 -0.054597516 0.05293719
000220 26 0d 88 bd 0e 66 a9 bd 90 ed f9 3d c2 b4 1b bd
       -0.06643133 -0.082714185 0.122035146 -0.03801418
000230 0b ff a2 3d c0 0d 3a be 16 f0 de bd 54 89 07 3e
       0.07958802 -0.18169308 -0.108856365 0.1323598
000240 da 58 a7 bd 89 e5 b8 3d 8f e3 7a 3b 2a d9 6f bd
       -0.08171244 0.09028155 0.0038282608 -0.058556713
000250 6d 31 70 ba df 2f b0 bd fb 5d 1c 3d 20 1d 00 3e
       -0.00091626385 -0.08602881 0.038175564 0.1251111
000260 8b c4 90 3d e5 a4 56 bc 62 7b 13 bd 64 a5 98 3d
       0.070687376 -0.013100837 -0.03600634 0.07453421
000270 40 1b 5d bb f7 55 08 3e 02 93 ba 3c 73 42 30 be
       -0.0033738166 0.13314043 0.022775177 -0.17212848
000280 a8 a0 88 bd d7 da 12 bd 3e ed 3a 3d 18 b3 10 3c
       -0.06671268 -0.035853233 0.045636408 0.008831762
000290 33 c9 fe bd 51 7c 38 bb c0 73 e5 bc e6 f9 0f 3d
       -0.124407195 -0.002815027 -0.028009295 0.03515043
0002a0 83 e1 14 be 82 92 00 3e 03 4d f4 3d c0 4f 3e bd
       -0.14539151 0.12555888 0.11928751 -0.046462774
0002b0 0a 5a 92 bd 9a 50 3c 3d f2 a6 d8 3d b7 e0 68 3c
       -0.0714608 0.045975305 0.10578717 0.014213732
0002c0 95 c9 92 3b 59 a4 b4 3d 6e 3b 4c 3d 8c ae e8 bb
       0.004479597 0.08820409 0.049861364 -0.0071008857
0002d0 ae 83 b8 3d 24 f6 f5 3d c6 aa 32 3d a4 fb a7 3c
       0.09009491 0.12009838 0.043619893 0.020505734
0002e0 ba 42 2b 3e 72 c1 a3 3d 05 f1 51 bc b4 ff 0f 3e
       0.16724673 0.07995881 -0.012813811 0.14062387
0002f0 3f 45 9a bd ef 4f 56 bd c5 1f f6 3c 1b 3e 29 3e
       -0.07532739 -0.052322324 0.030044446 0.16527598
000300 c6 39 f2 3b eb 8e b9 bd 42 5d c1 bd 2c 32 d8 3c
       0.007392141 -0.090604626 -0.09441616 0.026391111
000310 cc 3a 82 3d 54 cc 7a 3d 8f a2 9c 3d f1 6d 35 3d
       0.06358871 0.06123002 0.07648193 0.0442943
000320 b6 54 82 3c 8a 22 cf 3d 7c cc a3 3c 78 77 cf 3d
       0.015909534 0.1011401 0.019994967 0.10130209
000330 64 85 81 3b 3d 48 73 3d 8a 0b 0e 3d 2f 01 8a bd
       0.003952669 0.059395064 0.034678973 -0.06738507
000340 eb 2a 06 3e 63 89 a1 bd 62 a4 ef bd 23 93 10 3e
       0.1310231 -0.078875326 -0.117012754 0.14118628
000350 b9 56 80 bd 97 23 b9 bd 33 24 e7 3d 04 83 ff 3d
       -0.06266541 -0.09039991 0.11286201 0.12476161
000360 d9 41 ed bd 7c c4 49 3d 7e 36 ee 3d 7d a9 20 3d
       -0.11584825 0.049259648 0.11631487 0.039224137
000370 c3 bc 11 bd 54 2a 23 3e 9d 0f c8 bd 6a 9b cb 3b
       -0.035580408 0.15934116 -0.09768603 0.006213595
000380 3a b2 84 3d d6 e6 da 3b 51 70 36 3d 77 09 53 3c
       0.064793065 0.00668035 0.044540707 0.012880675
000390 72 21 76 bd b0 10 b1 3c cc 67 49 3d f5 8c 9b 3d
       -0.06009049 0.021614403 0.049171254 0.07595245
0003a0 69 2a 02 be a9 90 5b bd 5a b0 06 3e 75 7c 5a 3d
       -0.1271149 -0.053604756 0.1315321 0.053341348
0003b0 bb 7b f8 3d b5 71 22 bd d8 e3 ac bd 26 16 2b 3e
       0.12132975 -0.03965922 -0.08441895 0.16707668
0003c0 03 16 ad bc 33 f5 9e bd 7c db f5 bd f8 d1 c8 3d
       -0.02112866 -0.07761612 -0.12004754 0.09805673
0003d0 cc ad c5 bd 68 fd 7a 3d 94 45 f2 3b 9e 88 0d 3d
       -0.0965229 0.061276823 0.0073935483 0.034554116
0003e0 7a 29 ee ba 4e 47 d9 3d d3 d7 91 3d a0 91 d7 3c
       -0.001817032 0.106093034 0.07121243 0.026314557
0003f0 26 0f f1 3d 1c 7d 28 3d fb 17 98 3d 80 28 04 bd
       0.117704675 0.04113494 0.07426449 -0.032265186

layers.2.bias f4 [64]
000000 ec 77 6b bd 8c 0f bb 3d e2 2a c9 bc 8e 89 48 bd
       -0.057487413 0.09133825 -0.02455658 -0.048959307
000010 d7 47 8b bd 15 fc 2e 3d 5a 66 ba bc 25 22 ac 3a
       -0.06800812 0.042720873 -0.022753883 0.0013132734
000020 8c 26 2a 3d 7e d7 67 3c 68 8e 65 bd a6 ed 2e bd
       0.041540667 0.014150498 -0.056044012 -0.042707108
000030 12 9a 38 bc 3f de e2 bd c0 be d6 bc 5c d4 a9 bd
       -0.011267202 -0.11077546 -0.026214004 -0.082924575
000040 4e 98 ee 3d 3b 73 39 3d a0 ba 05 be ac 67 42 3d
       0.116501436 0.045275908 -0.13059473 0.04746215
000050 bf 58 36 bd a2 e1 d9 bd 98 16 1c 3c e4 ec ad 3d
       -0.04451823 -0.10638739 0.009526871 0.08492449
000060 1f 6e 37 3c c0 6a ee bc e7 de 76 3c 47 e2 36 be
       0.0111956885 -0.029103637 0.0150677925 -0.17859755
000070 a7 e3 c1 bd b4 04 80 bd e6 4a 0c 3e d8 29 6c bd
       -0.09467249 -0.06250897 0.13700446 -0.057657093
000080 99 ad a1 bd 01 fd ac 3c 10 d4 c4 bd d3 9e 10 bd
       -0.07894439 0.021116735 -0.0961076 -0.035307717
000090 14 de 8c 3c 6c c0 0b 3d 63 b1 78 bd 4f 5f 0b 3e
       0.017195739 0.034119055 -0.060716044 0.13610576
0000a0 41 c7 c9 bd 38 a9 78 3c 49 2d 2c bd a5 bd 82 3d
       -0.09852458 0.015177064 -0.042035375 0.06383828
0000b0 5e fd 5a bb 20 d6 d0 3c 8d 9b 4e bd 19 ad 31 3c
       -0.0033415179 0.025492728 -0.050441314 0.010844492
0000c0 fb 5c 73 bc 2c 21 97 3d 3b c3 96 bc ce 83 7a bd
       -0.014853711 0.07379374 -0.01840364 -0.061160855
0000d0 91 bb a3 3d 92 f8 23 bd 5e bc 5b 3d 0d a6 58 3d
       0.0799476 -0.040031977 0.053646438 0.052892733
0000e0 4d e3 95 bc 92 e9 e4 b9 47 34 e0 bd 18 1f d0 bd
       -0.018296862 -0.00043661572 -0.10947471 -0.10162181
0000f0 30 b2 cb 3b 07 ec a3 3d f2 a3 da 3c ae f4 95 3d
       0.00621631 0.08004003 0.026689503 0.073220596

readout.weight f4 [1, 64]
000000 6e 79 8e 3f bb 1b 44 bf 90 d1 36 3f a0 d9 0a 3f
       1.1130807 -0.76604813 0.71413517 0.5423832
000010 9d 32 59 3f 66 98 78 bf 76 e2 39 3f ce e6 41 3f
       0.84842855 -0.9710754 0.72611177 0.75742805
000020 8c cf 69 3f b5 43 20 bf a6 70 10 3f 43 5b 82 3f
       0.91332316 -0.6260331 0.5642189 1.0184101
000030 94 14 73 3f 3c 20 77 3e 92 d6 42 3f e0 1b ed 3e
       0.94953275 0.2413339 0.7610866 0.4631033
000040 67 40 27 bf 84 15 03 3f 7d e9 26 3f 33 21 2c bf
       -0.65332645 0.51204705 0.65200025 -0.6723816
000050 6d e6 22 3f da a8 03 3f fb 73 5a 3f 5a 88 03 bf
       0.6363285 0.5142952 0.8533322 -0.5137993
000060 21 3e 90 bf 9d c7 51 bf a2 6a 25 bf 79 49 8a 3e
       -1.126896 -0.8194521 -0.64615834 0.2700918
000070 5f ea 1d 3f 38 eb 06 3f 1f 92 73 bf 25 10 87 3f
       0.61685747 0.52702665 -0.9514484 1.0551802
000080 55 ab 1d 3f 5b 6c 23 3f 5e ba 59 3f 3a aa 8d 3f
       0.61589557 0.6383721 0.8505 1.1067574
000090 3d 2a 26 3f 39 55 29 bf 4f b8 39 3f c3 00 20 bf
       0.649082 -0.66145664 0.7254686 -0.6250116
0000a0 56 32 1e 3f 19 c3 60 bf c1 62 8c 3f fc ba 6d bf
       0.61795557 -0.87797695 1.0967637 -0.9286344
0000b0 c0 ac 41 bf 50 a3 8c bf c8 6d 4d 3f f1 c6 5e bf
       -0.7565422 -1.0987339 0.8024564 -0.8702231
0000c0 11 7e 67 3f 90 62 33 bf 0f 6c 42 bf 90 31 97 3f
       0.9042674 -0.7007227 -0.75946134 1.1812
0000d0 74 fd 33 bf 6f 4c 54 bf a0 3e 50 bf 3e 4d 88 bf
       -0.70308614 -0.8292913 -0.8134556 -1.0648572
0000e0 c8 07 2d bf 9e db 58 bf 45 4a 79 3f b9 48 53 3f
       -0.6759 -0.8471011 0.9737895 0.8253284
0000f0 c8 7b 70 3f dc 1e 5e bf f3 dd 7c bf 95 53 84 bf
       0.93938875 -0.8676584 -0.9877617 -1.0338007

layers.0.weight f4 [128, 8]
000000 39 04 58 3e 7c a2 5c be 74 11 04 be 68 7e 49 3e
       0.21095361 -0.21546358 -0.12897283 0.19677126
000010 df 49 02 bf 72 0d 0f 3e d9 c3 fe 3d 0e 3d 77 be
       -0.5089397 0.13969973 0.12439699 -0.24144384
000020 21 93 5c bd 23 d7 94 3e bb f0 20 be 92 f9 e9 3e
       -0.05385125 0.29070386 -0.15716831 0.4569822
000030 9f d8 96 3c e1 ff 42 3e 3f d1 2e 3e e8 9b 62 3e
       0.01841384 0.19042923 0.17072009 0.22129786
000040 b9 78 95 be 97 44 28 3d f7 dd 1f 3e 2d 14 66 be
       -0.29193667 0.041081037 0.15612017 -0.22468634
000050 d1 94 65 bf 5d 86 5d be b9 29 e8 3c ff 09 91 be
       -0.896802 -0.21633287 0.028340207 -0.2832794
000060 dd a6 95 be 92 5d a7 3d 95 f7 b6 3e b2 97 c2 be
       -0.2922887 0.08172144 0.35735765 -0.3800636
000070 69 eb ff 3d 7e 39 c6 bd 76 79 cb bd 28 0d 81 bd
       0.12496073 -0.096789345 -0.09935276 -0.063013375
000080 73 55 d4 bd 35 60 be bd c7 3e 11 be b6 8c 02 3f
       -0.10367861 -0.09295694 -0.14184104 0.5099596
000090 b2 c1 fe 3e a1 83 0b 3e f9 60 5e 3c 29 17 27 3e
       0.49757153 0.13624431 0.013572925 0.16317429
0000a0 8b 3b 14 be a2 9b 14 39 ef cb 24 be d0 69 b2 3e
       -0.14475839 0.00014172358 -0.1609342 0.34846354
0000b0 26 a0 90 3e cc d0 40 bb 9a 0f 2b 3e 16 e4 68 be
       0.28247184 -0.0029421328 0.1670517 -0.22743258
0000c0 a6 65 17 3c 3c b0 85 3e a6 7d 7e 3c 7b 68 2e bf
       0.0092405435 0.2611102 0.015532887 -0.68128175
0000d0 ea 5b bb be cf b8 10 be b6 11 85 3e 58 f0 81 3e
       -0.36593562 -0.14132999 0.25990075 0.2537868
0000e0 4b af 56 3d 4f ab 4f bb ed 48 d4 3e e9 f4 07 3e
       0.052413266 -0.0031687801 0.41461888 0.1327702
0000f0 51 2e 0a bf c0 92 f5 bb f5 3f 0d be 87 ab b8 3b
       -0.53976923 -0.0074943006 -0.13793929 0.005635682
000100 63 71 63 3d 75 32 27 3e 2b 5b 9c bd e3 49 f7 be
       0.055528056 0.16327842 -0.076345764 -0.4829856
000110 15 3b 81 be 89 1f 13 be 7e ac fd 3d b4 d8 95 3e
       -0.2524039 -0.14367498 0.12386416 0.29266894
000120 c2 b5 86 3e 42 72 39 3e dd 43 32 3d 54 62 e6 be
       0.26310545 0.18109992 0.04352175 -0.44996893
000130 6b e5 ac be b0 9e 5d be 5a 49 02 3f 4f 98 4d 3e
       -0.33768782 -0.21642566 0.50893176 0.20077632
000140 45 bb d9 3d 13 4e ab 3e 10 07 bd be 62 88 28 3f
       0.10631422 0.33458003 -0.3691945 0.65833104
000150 fe 49 fe 3d f0 f8 12 3e f8 a8 32 be 06 3f 9b 3d
       0.12416457 0.14352775 -0.17447269 0.0758038
000160 a9 5d 9e 3d 33 db ee bd 54 13 dc 3e b9 82 23 be
       0.07732708 -0.11662903 0.42983496 -0.15967835
000170 41 5a b5 3d e9 ce ee be 63 f2 7b be 23 dc d9 be
       0.08855105 -0.46642235 -0.24604182 -0.42550763
000180 e7 e2 75 3e 2a 74 09 3e b6 6d e4 bd 73 52 4d be
       0.24012338 0.1342322 -0.11153738 -0.20050983
000190 d4 fc c6 be 67 ad df 3d aa 3a 2d 3e a4 23 65 be
       -0.38864768 0.10921746 0.1691691 -0.22376877
0001a0 09 9d 3a be 82 0e d0 bb 40 84 84 be 00 68 b5 bd
       -0.18223967 -0.0063493857 -0.2588215 -0.08857727
0001b0 2d d2 de 3e 16 d6 ad bd 98 8b db bb ae f5 fc 3b
       0.43519726 -0.08488099 -0.0066999905 0.007719717
0001c0 86 3b d3 3c 86 70 7d bd 10 00 8b be bf ed 11 bf
       0.025785219 -0.06187489 -0.27148485 -0.57003397
0001d0 12 4d dd be 34 d3 be be 95 a9 95 3d 83 45 ea 3e
       -0.43222862 -0.3727051 0.07307736 0.45756158
0001e0 fa fa 88 3d 24 01 10 3d dc db 66 3e 64 76 1c be
       0.06688495 0.035157338 0.22544807 -0.15279537
0001f0 16 64 58 3f 20 65 8e 3e 1f 56 32 3e 48 a1 ba be
       0.8452772 0.27811527 0.17415665 -0.36451173
000200 f6 49 0f 3e 4e 39 82 3e 63 5b 9d be 73 3f af be
       0.13993058 0.25434345 -0.30733785 -0.34228095
000210 27 27 e0 be 4f db 85 be 1d c4 0b 3f 78 d4 44 be
       -0.4377987 -0.26143882 0.5459612 -0.19221675
000220 a3 4d a2 bd 7b c4 79 3d 71 ad 9a 3d 0b a6 26 bf
       -0.07924964 0.060978394 0.075526126 -0.6509711
000230 2d fc 35 3f a7 0a 1f 3e dd 06 56 be 6f e0 9e bd
       0.71087915 0.15531407 -0.20901056 -0.07757651
000240 97 41 4b be 04 6e 0f 3c 90 b6 b1 3e f6 97 68 be
       -0.1984924 0.008754257 0.34709597 -0.22714218
000250 33 fc 6b 3d 90 6b 6e 3d 96 db ce 3e ac 01 f0 3e
       0.057613563 0.05820805 0.40401906 0.46876276
000260 6d e7 3a 3e d7 29 8c bd 03 d9 92 3e 95 3d 08 3f
       0.18252344 -0.06843918 0.28681192 0.53218967
000270 39 1f e8 be 6d 3c b3 bd d0 99 61 bd 24 12 0e be
       -0.4533632 -0.0875176 -0.055078328 -0.13874108
000280 1e a3 7c be cd 52 50 3b e1 79 c5 bc 5a a7 49 3f
       -0.246716 0.0031787634 -0.024105968 0.78770983
000290 68 06 75 bf 1e 3c 6e bd ef 07 ab 3c 70 06 68 3e
       -0.957129 -0.0581628 0.020877806 0.22658706
0002a0 7a 62 b6 bd 3a 47 9c 3d f7 c1 ff bb 2b 09 ba 3e
       -0.08905502 0.07630773 -0.007805105 0.3633512
0002b0 fa 3a 47 be fc e7 24 3d bf c1 0b bd 99 d3 05 be
       -0.19456092 0.0402603 -0.034120318 -0.13069
0002c0 ca a3 81 be fc 13 b0 3d 58 63 8a be a6 c2 78 3f
       -0.25320274 0.08597562 -0.27028918 0.9717201
0002d0 bd 6b ad bd 6d 2d f8 bd 59 ee a6 be 7b 99 91 be
       -0.08467815 -0.12118039 -0.3260372 -0.2843741
0002e0 13 61 18 be 44 e6 d3 3c 8a 72 09 3f f7 3d 11 3e
       -0.14880781 0.025866635 0.536904 0.14183794
0002f0 a4 f3 26 3e 14 c8 32 3f de 0f 9d 3e a1 0a b7 3e
       0.16303879 0.69836545 0.30676168 0.35750297
000300 f4 8a 38 3e 97 6f e9 bd 49 67 d2 bd 5a 64 68 be
       0.18021756 -0.11398237 -0.10273606 -0.22694531
000310 8d b7 92 3e 55 26 c8 3e ec 25 f4 3d 07 e0 88 be
       0.28655663 0.39091745 0.119212955 -0.2673342
000320 55 3d 6b 3d 21 b1 db bd 2a 86 66 bd 6e 2f 11 bf
       0.057431538 -0.10727144 -0.056280293 -0.56712997
000330 79 e2 a3 bf 2b 81 ab 3c dd 91 e3 3d 4f 88 88 3e
       -1.2803489 0.020935616 0.111118056 0.26666495
000340 1f 25 6a bd df a3 a5 3d a0 7a 4b 3e 8a e8 84 3e
       -0.057164308 0.080878966 0.19870996 0.25958663
000350 35 4c 0f bf 7e 2c 9c bd 3a 01 9a be 76 b4 0c 3e
       -0.5597566 -0.07625674 -0.3007906 0.13740715
000360 b4 be f3 be 97 08 d4 3a cd 99 d6 3e 52 68 9d 3e
       -0.47606432 0.0016176876 0.41914216 0.30743653
000370 84 71 54 bd 98 42 81 bd af dd ce 3e c5 54 72 bd
       -0.05186607 -0.0631153 0.40403506 -0.059162874
000380 44 d6 b7 be a2 3c 8e 3e 37 24 f4 bd 5d ab f7 3e
       -0.3590566 0.27780634 -0.1192097 0.48372927
000390 5e 75 ae 3e d6 f1 76 3e 61 c6 1f 3e e1 0a 21 be
       0.3407392 0.2411569 0.1560302 -0.15726806
0003a0 c3 1d 23 be e0 c4 db 3d ba f0 a9 be 11 16 9b bc
       -0.15929322 0.1073091 -0.33191472 -0.01893142
0003b0 64 f0 8e bd a3 20 96 3e f8 a8 6b 3d ae e7 77 bd
       -0.069794446 0.29321775 0.057534188 -0.06052368
0003c0 bf 30 84 be b5 cf bb bd ca d8 12 bf 42 41 1d 3e
       -0.2581844 -0.09170476 -0.57362044 0.15356925
0003d0 8d cc 1e 3f 86 df 36 3e f1 79 fd bd 0f 05 86 be
       0.6203087 0.17858705 -0.12376774 -0.26175734
0003e0 d5 8f d1 bd ce 68 1a 3e 86 cb 8e be 84 28 7d 3f
       -0.10232512 0.15079042 -0.2788965 0.98889947
0003f0 12 2e a3 bd ac 40 cf be 3a 7c ab 3d ca 12 66 be
       -0.079677716 -0.40479028 0.08373304 -0.22468105

layers.0.bias f4 [128]
000000 34 83 2d be 62 f3 8a be 7d 46 88 3e 81 d9 b2 3e
       -0.16944581 -0.2713881 0.26616278 0.34931567
000010 d5 93 64 3e 40 b1 97 bc fd cd 6d bd c7 fe 01 3e
       0.22322018 -0.018517137 -0.058057774 0.12694846
000020 f5 db 62 3d 03 e0 44 3e 20 22 a4 be ca 1d 13 3e
       0.05538555 0.19226079 -0.32057285 0.14366832
000030 fe c2 91 3e 97 e1 35 bc b4 16 d3 3e 7a 21 e1 bd
       0.2846908 -0.011101148 0.4122826 -0.10992713
000040 51 a7 08 3d 38 a0 4e bd 4c 3a b5 3d 13 3d de 3d
       0.03336269 -0.050445765 0.0884901 0.10851493
000050 e1 66 74 3e 10 47 02 3d a0 f8 a6 3d af c2 05 be
       0.2386737 0.03180605 0.0815289 -0.13062547
000060 6c ed 6f bd 14 3c 40 3e 41 46 97 3d 9d 20 7c 3e
       -0.058576033 0.18772918 0.07386447 0.24621816
000070 5b a3 68 bb ae b2 b7 3e a8 86 93 3d 4a 6f 85 3d
       -0.0035497758 0.3587851 0.07203418 0.06515367
000080 17 20 10 be 82 d4 07 3e ee 02 8a 3e 76 a6 ca bd
       -0.14074741 0.13264659 0.2695536 -0.09895031
000090 8d e2 32 bd ec 36 b6 bd c5 5c b7 bd a0 4f ec bd
       -0.043673087 -0.08897194 -0.08953241 -0.11538625
0000a0 58 73 34 bd d6 11 73 be 42 a6 b0 3e 70 6d ab 3e
       -0.044055313 -0.23737273 0.34501845 0.33481932
0000b0 d5 e5 8c 3e 8d 55 22 be a9 e7 5a 3d 31 f8 f8 bd
       0.27519098 -0.15852948 0.053443585 -0.12156714
0000c0 e8 d4 a6 3d 88 8e 98 be 07 17 34 bc a3 50 28 be
       0.081460774 -0.29796243 -0.010991818 -0.1643701
0000d0 40 72 a4 be 29 a3 6c 3e 56 05 2a 3e ee 14 2a 3e
       -0.32118416 0.23109116 0.16603598 0.16609547
0000e0 9e 62 b1 3e 8d 65 14 be 5a a0 46 3e 68 b3 15 3e
       0.3464555 -0.14491864 0.19397107 0.1461922
0000f0 d9 15 71 be ee 67 50 be 84 0c 2d be 31 ea 4c 3c
       -0.2354349 -0.20352146 -0.16899306 0.012507007
000100 4b 61 2a 3e 21 67 70 be b7 9b 40 bd 3e 6a 47 be
       0.16638677 -0.2347684 -0.0470235 -0.19474122
000110 30 53 85 be 3c 9a 83 bd ec 8a 86 3e 50 d1 35 3e
       -0.2604003 -0.06425902 0.26277864 0.17755628
000120 17 c1 ca bc d7 51 43 bd 1f fa b6 3e 8a 7a 4f be
       -0.024750276 -0.04768547 0.35737702 -0.20261589
000130 0e 06 97 3e 12 16 bf be 5b 49 41 be 51 28 6c 3d
       0.29496807 -0.37321526 -0.18875639 0.057655636
000140 e7 c0 9f bd 2d d5 93 3c ca 07 eb bd 71 51 a2 3e
       -0.07800465 0.018045986 -0.11476095 0.3170276
000150 f0 6a 98 3e c2 8f b4 3e 02 63 92 be b7 a7 c2 bd
       0.29769087 0.35265929 -0.28591162 -0.09504645
000160 1c fb a1 3e d3 31 50 3e ff bf 78 be a9 c1 8e 3e
       0.31636894 0.20331506 -0.2429199 0.27882126
000170 e2 01 ef bd 24 f6 2c be f6 86 03 3e 33 d2 d8 3d
       -0.11670281 -0.1689077 0.12844452 0.10586967
000180 8a c8 c0 3e b7 ce 55 3e 34 1a 9e bc 37 62 f7 bd
       0.37653 0.20879637 -0.019299604 -0.1207928
000190 1f b9 2b bb 52 a2 96 3d 2a d0 c7 bd 80 88 8f be
       -0.002620287 0.07355179 -0.09756501 -0.2803383
0001a0 68 26 0d 3e 08 69 b5 3d 61 b1 be bd e5 e0 a4 bd
       0.13784182 0.08857924 -0.09311176 -0.08050708
0001b0 e6 5a a9 3d 1f b3 97 3e 3a fa 8b 3e 77 06 3e 3e
       0.082692906 0.29628846 0.27339345 0.18557154
0001c0 7a b7 c2 bc de 3c f3 3d f2 fb 4f 3e 7c b1 85 3e
       -0.023769129 0.11876844 0.20310953 0.26111972
0001d0 4b f5 b5 3e 36 36 1d 3e 49 d1 a1 bd d3 b0 a4 bc
       0.35538706 0.15352711 -0.07901246 -0.020103848
0001e0 a1 69 76 3e d5 76 00 be 81 2d 2d bd 8b 0e 2b 3d
       0.24063732 -0.12545331 -0.042279724 0.041761916
0001f0 58 81 49 be d8 16 98 ba 23 14 6f 3d ca 46 45 3e
       -0.19678247 -0.0011603488 0.058368813 0.19265285

layers.1.weight f4 [128, 128]
000000 4d 27 6a 3d 94 2c 9a be 20 f0 4c be b9 d6 64 3d
       0.057166386 -0.30112135 -0.20013475 0.055868838
000010 9b 4b 88 3e e0 bc 8c 3e af 05 02 be 3c 49 14 bd
       0.26620182 0.2748785 -0.1269748 -0.036202654
000020 9e ba e8 bb 2b 56 ce bc cd d7 5c be 53 25 00 3e
       -0.0071023246 -0.025187572 -0.21566696 0.12514238
000030 18 62 16 3d f1 5a 31 be 3c 9c 98 3d 83 cc 93 3e
       0.036714643 -0.17319848 0.07451674 0.28866968
000040 a3 fa 3e 3b 26 81 e7 3c 93 38 ee 3d 72 f9 a6 bd
       0.002914109 0.028259825 0.116318844 -0.08153047
000050 68 16 d6 be ba 0a 3c be 9d 4d 81 be 31 cd fe 3e
       -0.4181397 -0.18363467 -0.25254527 0.49765924
000060 65 40 97 3e ca 18 b1 be 6d cb e6 be 39 3e 37 3e
       0.29541317 -0.34589225 -0.45077077 0.1789483
000070 49 83 04 3e b4 2c 4c 3d 1b b3 ea bd 2e bc 0f bd
       0.12940706 0.04984732 -0.11459943 -0.03509157
000080 ab 70 8c bd 98 2b ab 3e 88 40 a4 3e 63 73 2e bc
       -0.06857427 0.33431697 0.32080483 -0.0106476275
000090 cd 00 5f be d3 9c a9 3e b4 52 c6 bd 5d 90 63 be
       -0.21777649 0.3312746 -0.09683743 -0.22223039
0000a0 15 99 76 3e 66 3a 5b 3d ea 3b a2 3e 02 dc 98 3c
       0.24081834 0.05352249 0.31686336 0.018659595
0000b0 90 f3 be 3e 2e b9 70 be 5f 36 9b be 3f d6 20 bf
       0.37295198 -0.2350814 -0.3031492 -0.62826914
0000c0 c3 56 ab bd c7 af 67 be 28 de 94 3e fe 60 70 3e
       -0.08366158 -0.22625647 0.29075742 0.234745
0000d0 9d 34 0b bd 09 88 18 3e 63 8c 4d be 48 95 85 bd
       -0.033985723 0.14895643 -0.20073085 -0.06522614
0000e0 57 25 b7 3e 4e bf 0e 3e ec b5 3c 3d 40 7e 2a 3d
       0.35770676 0.13940164 0.04607193 0.041624308
0000f0 1b fb 23 3c 60 44 d9 be 5b fa 67 3e 1e 29 67 3d
       0.010008599 -0.42434978 0.22654097 0.056435697
000100 49 64 66 3e 53 a8 80 3d 0d ed 17 3c 4c fd 83 3e
       0.22499193 0.06282105 0.009272826 0.25779188
000110 d3 88 83 3d 49 e5 40 3b 99 20 d0 3d 80 e3 e2 bd
       0.064225815 0.002943354 0.101624675 -0.110785484
000120 c9 e9 2d bc e0 ce 91 be 68 4f 56 3e ad 9d 9c be
       -0.010614821 -0.28478146 0.20928729 -0.30589047
000130 c4 16 5a 3e 73 b6 cb be 2c 52 33 be 21 f5 6d 3e
       0.21297747 -0.39787635 -0.17511815 0.2323804
000140 19 27 87 be d4 17 af bd f2 11 ba bd a0 4f e0 3d
       -0.26397017 -0.08549467 -0.09085454 0.10952687
000150 ce ea cc 3d 75 28 0b 3e df a1 33 be 95 38 04 3d
       0.10005723 0.13589652 -0.17542218 0.032280523
000160 1a bc a2 be bb 5e 48 bd 66 bb a4 bd 4e 92 d2 3d
       -0.31784135 -0.048918467 -0.08043556 0.10281812
000170 c9 75 ac 3e d5 2b 2c 3d ea 64 a7 bc dd d0 5f 3e
       0.33683613 0.04203399 -0.020433862 0.21857019
000180 64 23 3b 3e 83 a1 2e be df 44 a1 3d 1c ae 93 be
       0.18275219 -0.170538 0.07874464 -0.28843772
000190 05 bc 0d be ab ff e0 bd d5 e6 d3 be 88 54 a2 ba
       -0.13841255 -0.10986265 -0.41387048 -0.0012384811
0001a0 62 5a 31 bd 97 39 41 3d ed 16 26 be 0e 19 96 be
       -0.043299086 0.047174063 -0.16219683 -0.2931599
0001b0 a0 80 34 be 90 5d 46 3d 66 91 76 3c 47 0e db bb
       -0.17627192 0.048429072 0.015049314 -0.0066850516
0001c0 89 4f 66 be fc 27 9b bd 42 90 0a be d9 fc 43 3e
       -0.22491278 -0.07575986 -0.13531592 0.19139422
0001d0 f6 29 82 3e 9c cf d2 3d f4 8e 98 bd ea 00 3e bd
       0.2542264 0.102935046 -0.07449141 -0.04638759
0001e0 61 92 65 3d 37 85 82 be fc 13 a0 b9 06 71 a0 bd
       0.0560478 -0.2549226 -0.00030532468 -0.078340575
0001f0 cc 99 f2 3b 08 88 0a 3d cc 27 1a 3e 98 ff 2f be
       0.007403588 0.033821136 0.15054244 -0.17187345
000200 1c 47 92 bc 79 58 fe be d0 d9 87 3e e1 72 1f bb
       -0.017856173 -0.49676874 0.26533365 -0.0024329948
000210 a8 6e b7 be 3e 3f a0 be f9 46 0e 3e 30 48 08 be
       -0.35826612 -0.3129825 0.13894261 -0.13308787
000220 bf 3b 15 3e 8b 48 c8 3d 54 8c 00 bf c2 05 cc bd
       0.14573573 0.097794615 -0.50214124 -0.09962036
000230 f0 1b 4c bb 1c 3f 82 bd a9 65 eb 3d f4 40 55 3d
       -0.0031144582 -0.063596934 0.114939995 0.052063897
000240 af 97 f7 3d fe 18 c5 bd 95 25 34 3c fb 2f 0e 3e
       0.12089478 -0.096239075 0.010995288 0.1388549
000250 0b bc 87 3e fe be e4 bd 3e 04 ce 3d 17 ae 80 3e
       0.26510653 -0.11169241 0.10059403 0.2513282
000260 80 9f a9 3d 5c 92 3d 3e 2d 25 85 3e 10 35 d2 3d
       0.08282375 0.18512863 0.26004925 0.10264027
000270 7b 70 3f be 7a c2 09 be 9b 47 4e be fe 7a e0 3d
       -0.18695252 -0.13453093 -0.20144503 0.10960959
000280 4d 3b 32 3e bc 9c 89 3c 58 30 cc be fa f1 9c bc
       0.17405434 0.01679837 -0.39880633 -0.019158352
000290 5b 17 9a 3c 88 31 8d bc 96 e9 7c be c1 8c 4a be
       0.018809965 -0.017235532 -0.24698481 -0.19780256
0002a0 0a 70 05 bf fc c4 12 bc 10 31 9c be 14 6c eb 3d
       -0.52124083 -0.008958098 -0.30506182 0.11495224
0002b0 0e 88 92 be d4 85 42 3e 01 66 1f 3e c6 eb b7 3e
       -0.28619426 0.18996364 0.15566255 0.35922068
0002c0 0f 9e 82 be 1f 09 09 bf 0c 67 23 bf ca 37 09 bd
       -0.25511214 -0.5352954 -0.6382911 -0.03350047
0002d0 47 b9 f6 3c 3a 65 9f 3d 2c 4b 15 3e 4f c1 42 3d
       0.030117644 0.07782979 0.14579457 0.047547635
0002e0 39 14 c8 be e4 44 5c be 96 77 95 bd 95 81 bb 3d
       -0.3907793 -0.21510655 -0.072982 0.09155575
0002f0 dc 75 84 bd 01 04 ad 3d d1 6a 1d 3e 46 be 15 3c
       -0.064677924 0.08448029 0.15372778 0.009139603
000300 d1 3f 6e be fe 20 43 be 5d d5 f5 bd 7a 39 22 3e
       -0.23266532 -0.19055554 -0.120035864 0.15842238
000310 72 53 39 bd 65 a3 90 3d 2a 57 c8 3a a6 27 09 be
       -0.045245595 0.07062415 0.0015284766 -0.13394031
000320 11 e8 2b bc 57 14 f8 bb 26 a6 c4 be 4d 66 df bc
       -0.010492341 -0.007570784 -0.3840801 -0.02727046
000330 5b 3e a4 bc e9 05 1b be 6b a5 50 3d df b0 f5 bd
       -0.020049265 -0.15138973 0.050939005 -0.11996626
000340 a5 df 2a 3e 6d 79 c6 3e 68 6e 22 3f 88 c7 95 bd
       0.16686876 0.38764516 0.63449717 -0.07313448
000350 47 b3 a3 3d 20 3f 2d bc 6d 76 87 bc e6 20 6a be
       0.07993179 -0.010574132 -0.016535962 -0.22864112
000360 6a 96 6d 3e 6c e7 d0 3d 2b 70 dd bd ae f1 9d bd
       0.2320191 0.1020039 -0.1081241 -0.07712112
000370 da 7c 81 bc 48 5b ab bd 0b 60 d6 3c 73 26 0b bf
       -0.015806604 -0.0836702 0.026168844 -0.54355544
000380 16 9f 76 bd eb 89 5e be e6 81 84 bd 1d 9a 49 3e
       -0.06021031 -0.21732299 -0.06470089 0.19687696
000390 7a e5 7a 3d 76 60 1f 3e 38 1e 13 3e d3 c1 38 3e
       0.061254002 0.1556414 0.14366996 0.18042688
0003a0 c1 ee cc 3d c0 99 6d bd 26 8d b2 bd 65 7c 33 3e
       0.10006476 -0.058007956 -0.08718328 0.17527921
0003b0 a6 91 b7 bd e7 34 32 3e ff b1 27 be 12 2c f8 bd
       -0.08963327 0.17402993 -0.16376494 -0.12117781
0003c0 a1 51 ed 3d b6 86 96 be 20 42 11 bc bb b2 35 3d
       0.11587835 -0.2939965 -0.008865863 0.044359904
0003d0 c0 12 30 be b1 fe f6 bd 8b d8 61 3d 44 50 aa 3e
       -0.17194653 -0.12060297 0.055138152 0.33264363
0003e0 44 14 70 be 97 c0 09 3e a3 c2 f2 bd 18 35 fa 3d
       -0.2344523 0.13452373 -0.1185353 0.12217158
0003f0 c0 f0 53 3d 27 1a 2d be 83 d8 01 bf c0 c0 24 3f
       0.05174327 -0.16904508 -0.50720996 0.64356613
