Homework9/Gym-DDPG-solution/results/DDPG_LunarLander-v2_2000-eps0.3-t32-l0.0001-s2.pth (torch, 180667 bytes, 13 tensors)

layers.0.weight f4 [128, 10]
00000000: 1945 0a3e ecd2 1abd f8c9 6a3e 00e9 06be
00000010: 87e0 123e f2d2 1b3e 1809 1ebe c4da d5be
00000020: 0d29 0e3e 607a 93be 7a14 c63c b53c 113d
00000030: d43c e1bd a9e4 cb3e 537b 143e 7016 0e3e
00000040: 5779 cc3d b27a e6bd 222e 14be f86b 933e
00000050: 7261 d0be 817a 4bbb 3ec0 03be c318 cf3e
00000060: e47f 0a3e 11f8 833e 32d6 afbd a5c2 33be
00000070: dec5 bdbd 0dfc 51be 6e5e 85be ad02 77be
00000080: cb29 9b3d 8473 a63e 24fe f8bc 508e e3bb
00000090: aaf0 9e3d 686b 10be 89f3 9cbd 7f24 37be
000000a0: 3aef d8bd 5b52 a2be 6396 5f3e a719 1c3e
000000b0: 0969 eb3d cc74 b03e 8e80 f13d 5726 e4bd
000000c0: f9d0 4b3c 0342 083d f735 d23d 56ce 733e
000000d0: b816 f93e 3d8e 863f 4ef0 8f3e 6d90 7abe
000000e0: 2365 47be 975c 8b3e ed14 7a3d 02ec 2d3e
000000f0: 6799 5f3e c554 8bbe 069f 293e 22cb e63e
00000100: ae4b 0c3f 0453 92be 464f cf3d c284 83be
00000110: ab9f d0bd 1f90 403e 26ab cdbe 5191 843e
00000120: beae a5be 9b4d 943e 2929 a53c 81f5 a33e
00000130: 9b43 84bc 3ae2 45be 17ed 8d3c af68 5dbe
00000140: dc4c 4d3e ca24 37bd 3fba b8be d753 0a3e
00000150: b39d a33e 713b e6bd ba95 b83d b8f6 773e
00000160: 846c 26be ea56 3ebe 92e0 7dbe 4761 0ebe
00000170: 47ef 2a3f 1867 d9be 4694 633f f32d e33e
00000180: 134b a5be 11ec ebbd 2d8f 57be cdad 573c
00000190: a981 1cbe 22dc 11bd 4b78 e1be d871 983e
000001a0: 1916 c43e 4039 893e f310 1b3e 679b 6f3e
000001b0: 7e9b 7abe 9447 f23b 1357 9a3e 6708 98be
000001c0: 39b1 aabd 4500 063d d43b 20be 5e21 12be
000001d0: 0065 103d 56d2 e33e 46f2 c0bd 8814 3d3e
000001e0: 50c3 363e f9ce 103e 2497 85be 1efe b83e
000001f0: 3701 123f 0419 94bd bf8b ebbd 6c2f b73e
00000200: 8c75 87be 8899 83be 8435 88be c669 073e
00000210: b208 48be dab5 bfbe 23fe 6b3e 67fb 9b3d
00000220: 6d3d 3b3d 4adc fcbe 9793 a63e 9e08 57bd
00000230: 47b0 88be 5ad0 42bd 68c5 933e 760a c33d
00000240: 3de2 53bd 15ee 943e de72 92be d4a3 a43e
00000250: 1624 a23e 0b7b f2bd 354b 54bd 329c 93bd
00000260: 861c a0be e50f 0d3e 8330 85be b41a f9be
00000270: dbbe 14be 1175 10be 58d3 9f3e 7493 773d
00000280: f9f4 2cbe db28 7a3e 7d07 eb3c 303f cfbe
00000290: 72b1 373e de11 b33e 13fb 69be 8cf3 da3c
000002a0: 3aec e7bd 797f 42be f443 1cbe f54d c83b
000002b0: ba82 593e 8871 5ebe 3787 29bf b446 bebd
000002c0: 12ba a3be 1e3d aa3c 9bf4 2e3e a8e2 1d3e
000002d0: c82d 77be 8d60 06be 43c4 a73d ba00 3b3e
000002e0: c9fa c8be 2bce 9dbe fee8 03bd 6955 1a3e
000002f0: 9918 653e 7a6d 193e aa71 023d 6453 9abe
00000300: 6c29 5e3e 121c 153e 2b81 fc38 d230 5ebe
00000310: 4ce1 9f3d 7718 70be be66 be3d 1c6e 503e
00000320: dc00 1bbe b11e 7bbe 5411 a7bd 1863 57be
00000330: 8699 093e a956 a53e 29f7 c23d 5eaf 03be
00000340: f94c 043c a263 28be 5e3b 98be 60e2 8fbd
00000350: dab5 9bbd 78af bcbe 56aa d0be ae46 e33d
00000360: 1cfe 0f3c 4a43 afbe 730b 913d 0f19 953e
00000370: 5150 c1bd 4838 58be 8c29 d23e 9983 a43e
00000380: cb47 acbe 66fa 08bf 8e93 2cbd dd13 c63e
00000390: ace8 d73d 7ad7 6ebe 0243 4e3d f43f d93d
000003a0: b09c 2d3d 33fd aabe 2020 cbbf 095b e8bd
000003b0: 1aae 853d 3a52 623d 4d78 1abe d8fa 1dbe
000003c0: d1d9 1bbe 6348 673e 131a 8cbe 8a9d bebe
000003d0: b399 a23e 74a4 f03d d1e7 1a3e 10d3 093e
000003e0: ce63 edbc 565d 49be 871a 9ebe ae16 983b
000003f0: 38c8 d8bc faef ffbe 2a44 fdbe 45ee 903e
0.13502921 -0.037798807 0.22928607 -0.1317482 0.14343463 0.15217188 -0.15433156 -0.41768467
0.13882847 -0.28804302 0.024179686 0.035458285 -0.1099793 0.3982289 0.1450017 0.13875747
0.09984081 -0.11253871 -0.14470723 0.2879331 -0.40699345 -0.003104836 -0.12866303 0.4044858
0.13525349 0.25775197 -0.085857764 -0.1755472 -0.09266256 -0.20506306 -0.26048607 -0.24122114
0.07576331 0.32510006 -0.030394621 -0.006944455 0.07760747 -0.14103472 -0.07663638 -0.17885016
-0.10592504 -0.31703457 0.21834712 0.1524416 0.11494643 0.3446411 0.11792098 -0.11140125
0.01243996 0.03326608 0.10264199 0.2380918 0.48650146 1.0512158 0.28113025 -0.24469157
-0.19472174 0.27219078 0.061055113 0.16984561 0.21835862 -0.27213112 0.16564569 0.45076853
0.5480298 -0.2857896 0.10122542 -0.25687224 -0.10186704 0.18804978 -0.40169638 0.25892118
-0.3235988 0.28965458 0.020161228 0.32023242 -0.016145518 -0.1932458 0.017324967 -0.21621965
0.20048851 -0.04471282 -0.36079594 0.13508545 0.31956252 -0.11241806 0.09012933 0.2421521
-0.16252333 -0.18587843 -0.24792698 -0.13904296 0.6677136 -0.42461467 0.8889812 0.44370994
-0.3228384 -0.115196355 -0.21050711 0.013163996 -0.15283836 -0.035610326 -0.4403709 0.29774356
0.3829811 0.2680149 0.15143184 0.23399125 -0.24473378 0.0073937867 0.30144557 -0.2969391
-0.08334584 0.0327151 -0.15647823 -0.14270541 0.03525257 0.4449641 -0.0942121 0.18464863
0.17847943 0.14141454 -0.26091874 0.36131376 0.57033104 -0.07231334 -0.11501264 0.35778368
-0.2645687 -0.25703073 -0.2660333 0.13223943 -0.19534567 -0.3744343 0.23046164 0.076163106
0.045712877 -0.49386817 0.32534477 -0.052498452 -0.2669699 -0.04756198 0.28861547 0.0952348
-0.05172943 0.29087892 -0.28603262 0.3215624 0.31668156 -0.11839875 -0.051829536 -0.07207526
-0.31271762 0.13775595 -0.26013574 -0.48653185 -0.1452593 -0.14107157 0.3121593 0.060443357
-0.16890325 0.24429648 0.028690094 -0.40477896 0.17938784 0.3497457 -0.22849683 0.02672746
-0.113243535 -0.1899394 -0.15260297 0.006112809 0.21241274 -0.21722996 -0.66221946 -0.09290829
-0.31977898 0.020781096 0.17085497 0.15418494 -0.24138558 -0.13122769 0.08191731 0.18261996
-0.39253834 -0.30821356 -0.03220462 0.15071644 0.22372665 0.14983168 0.03184668 -0.30141747
0.21695489 0.14561489 0.00012040356 -0.21698311 0.07806644 -0.23446833 0.0929694 0.20354503
-0.15137047 -0.24523427 -0.08157602 -0.21033895 0.13437471 0.3229268 0.09519798 -0.12859866
0.008074992 -0.16444257 -0.29732794 -0.070255995 -0.07603045 -0.36852622 -0.40754956 0.110974655
0.008788612 -0.34231025 0.07082262 0.2912068 -0.09439147 -0.2111522 0.41047323 0.3213165
-0.33648524 -0.5350708 -0.042132907 0.3868703 0.105424255 -0.23324385 0.050356872 0.10607901
0.042385757 -0.333963 -1.5869179 -0.113454886 0.06527348 0.0552542 -0.15084954 -0.1542772
-0.15219809 0.22586207 -0.27363643 -0.37229568 0.31757888 0.11750117 0.15127493 0.1345942
-0.028978255 -0.19664511 -0.30879614 0.0046413755 -0.02646266 -0.49987775 -0.49466068 0.28306785

layers.0.bias f4 [128]
00000000: 2bc9 8c3e 9af6 713e 70f9 0cbe cd01 2fbe
00000010: 5647 743e 32bb 68be 1c2e 1cbd b67f 98be
00000020: fd22 823e 2eb6 6b3e a07b 7ebe 152c ccbc
00000030: e06e 873e ce8f b13d ae5c 863e b59a 88be
00000040: 25ca bd3d 7424 4bbe a65c 22be ba66 413e
00000050: 3648 8bbe cfea 39bd 9054 3d3e f025 11be
00000060: b16d 3abd df2f 863e ebca 913e 5571 adbe
00000070: f9b2 8f3e a263 3bbe 7d9c 2d3c 1bf3 86be
00000080: 8045 b0be 15ae 06be c333 20bd 126a 10bc
00000090: b950 15bd ce72 ba3c c557 a03e 5ad5 e03d
000000a0: d99f 96be 74f5 f73d eb9f e2bd 169a a53e
000000b0: cd60 75be d0d2 92be 685c 9a3e b2ad 1b3e
000000c0: e428 a3be 644e eb3c 381c 483e c166 dc3d
000000d0: 0c80 673e 6ff7 e43d 3d47 873e 7e7b 2dbe
000000e0: 7854 c73e 19f8 aabe d372 e03c 1086 0c3e
000000f0: e206 a63e 8fc1 f8bd 188d a4bd ec06 24be
00000100: d918 2b3d caac 8ebe b4f0 1d3e 419a b2be
00000110: 69c3 64be a732 18be b330 123d d2cd 55be
00000120: 8e95 083e aedd 26be 540f 1ebe 5dc7 9f3e
00000130: 9c63 483e 5e20 68be 7181 30be b876 14be
00000140: 2c8a dcbd 15f8 153d bd37 843b e110 a23e
00000150: 0d30 c93e 28b8 bebd 589a 943d 5bc3 44be
00000160: 18a8 b0bd 388b 773e bd3a 73be 9140 a03e
00000170: 19e0 38bd 37ba 8bbd 697c 84be be86 25be
00000180: 4da7 803e 1cec a1be db66 81bd 5049 6ebe
00000190: 0de0 9d3e 1bb2 7e3e 7deb 983e 7bfc 4fbd
000001a0: a93d 06be eb9f cb3d ee90 f2bc 6d76 b7be
000001b0: 942f 5fbe df91 9ebe de44 5a3e 4acb 9f3c
000001c0: f315 813d c2b0 44bc 3956 1a3e 25dc a83e
000001d0: 1f10 793e 9931 4fbe 24af 14bd 8f6c 8fbe
000001e0: dc6b 80be 2540 a73e 0c27 abbe 16bb 133e
000001f0: 2243 0e3e 822d 543e fa23 0c3d bc55 4fbe
0.2749723 0.23629227 -0.13767028 -0.1709053 0.23855338 -0.2272766 -0.03812991 -0.29784936
0.2541732 0.23018715 -0.24851847 -0.024923364 0.26451778 0.08670007 0.26242584 -0.26680532
0.09267072 -0.19838125 -0.15855655 0.18886843 -0.2720353 -0.045389947 0.1848929 -0.14174628
-0.045514766 0.26208398 0.28475127 -0.33875528 0.28066233 -0.18299726 0.010596392 -0.2635735
-0.34428024 -0.13152345 -0.039111864 -0.008814352 -0.036453936 0.022759821 0.31316963 0.109781936
-0.2941883 0.12107363 -0.11065658 0.3234412 -0.23962708 -0.28676462 0.30148625 0.15202978
-0.31867135 0.028723903 0.19542015 0.10761786 0.2260744 0.11180007 0.26421538 -0.1694164
0.38931632 -0.33392408 0.027398502 0.13723016 0.32427126 -0.12146293 -0.08034724 -0.16018265
0.041771743 -0.27866203 0.15423852 -0.3488331 -0.22340168 -0.14863072 0.035690974 -0.20879295
0.133383 -0.16295502 -0.15435535 0.3120679 0.19569248 -0.22668597 -0.17236878 -0.14498413
-0.10768542 0.036613543 0.004034965 0.31653503 0.39294472 -0.09312469 0.07256001 -0.19215147
-0.08625811 0.24174201 -0.23752876 0.3129926 -0.04513559 -0.06822627 -0.25876167 -0.16164681
0.2512764 -0.3162545 -0.06318446 -0.23270154 0.30835 0.2487263 0.29867163 -0.050777894
-0.13109459 0.09942611 -0.029610123 -0.3583254 -0.21795493 -0.30970666 0.21315333 0.019506115
0.063030146 -0.012005033 0.15071954 0.32980457 0.24322556 -0.20233764 -0.03629984 -0.2801251
-0.2508229 0.32666126 -0.33428228 0.14426836 0.13892797 0.20720485 0.034213997 -0.20247549

layers.1.weight f4 [128, 128]
00000000: bd6c 8bbc 6b99 0dbd df1d 67bd 7dd2 70bd
00000010: 7aa9 9abd 3027 873d d12a 883d eb17 8c3d
00000020: cd85 0ebc 4993 483c 7635 db3d d2fb 8abc
00000030: ca6f 54bc 888f 08bd 5874 7f3c 20c1 343d
00000040: 0c5c 073d caac 843d 879a 083e 265d 5d3d
00000050: 42e0 77bc da9c bebd 44fa 9c3d b9e6 8dbb
00000060: 7b62 f2bd f62a 82bd 4791 82bd 896a 133d
00000070: 3fcb 8ebd c87d 5b3d cf30 973d d542 10bd
00000080: f607 d5bd 4af9 cf3d ed53 34bd dbed 94bd
00000090: 2b35 523c 6b85 1a3d 0311 87bd c860 04bd
000000a0: 32ab 8bbb f25b 9c3d a011 823d 0f41 753d
000000b0: 781f 2c3d c027 de3b 3a48 bc3d 389e 0fbd
000000c0: b43e 233e 70d2 98bd 8a19 63bc 586a 7a3d
000000d0: 308f 163c 9746 9cbd 4678 49bd ad61 823d
000000e0: cad2 e2bd 3ad6 723d 2fc9 ac3c 1ce4 bb3b
000000f0: d1c9 38bd 3d61 f2bd 972f 9b3c 17b3 b4bc
00000100: 6b51 33bd 1031 e63d 3184 98bd d955 f53d
00000110: 54bc 84bc c460 ebbc b281 1e3e cdab bebd
00000120: ce4b 913d 7ccf a2bd d61b 263c eac5 b7bd
00000130: 9584 2c3d d4b0 dcbc 491a f03d 6294 5fbd
00000140: 76b1 0b3d 034c d6bd 499a e83d 09ab 713d
00000150: 2f1b 04be 986e 4abd eb04 e9bc fda1 553d
00000160: 8a52 d5bd 50e9 46bd e75b 8b3c 2d72 97bd
00000170: 0ba9 843d 3f26 50bd df21 a13d a55a debd
00000180: d5bd c43c fcb6 98bd e7ff 06be d062 8ebd
00000190: 0a36 02be b7a5 42bd 949d 1dbb 7df2 b63c
000001a0: 56a5 abbd 73f1 ebbd 99d5 6e3d 97d4 a03d
000001b0: 5ae4 223d 811b 6abd a96e 783c eed6 cf3d
000001c0: 7e68 89bd da5b 803d 74ad 1abd 671f 633d
000001d0: 1298 e23b 8dce 523d 8d17 5dbb 2e94 cf3d
000001e0: dcf3 2cbd b621 d63d 5aa0 75bb c491 a2bc
000001f0: bb2b 80bd a221 cbbd 7051 dfbb c7a1 a53d
00000200: 4f23 473d 6d94 b1bc a9be 873d 6853 983c
00000210: 357e db3c e145 b4bd e763 debc a829 5cbc
00000220: e11d 273c 29ab a3bc 76b5 edbd 57d8 7ebd
00000230: d908 083d 4cce d23d 60bb c4bd 4d93 dabc
00000240: 73ba 42bd 814b 303d e59d aebd 794a 9d3c
00000250: a1b5 373c d7a2 073e eedc c63d a9ad b33d
00000260: 5e31 13bd 8fa5 dfbd e02b 5fbd ba41 fd3b
00000270: 06dc fdbd fc88 993c a71a dc3c b9c8 2c3e
00000280: 224b 013d a5dd a43d 5fe0 a93d b22e 9ebc
00000290: 46e6 8abd aa09 ee3c 1512 be3d ec74 04be
000002a0: 911e 813a 5a19 803d 9de0 5ebd 0fae 253d
000002b0: 44a7 8e3c 58f6 933d f5b2 12bd 75cd 62bd
000002c0: e6f3 183e 414a de3d 526b 05bd 2ccb b43d
000002d0: c9d4 7dbd b90b 41bd f96f 403b 171b 0c3d
000002e0: 3c9d b73c 6622 1cbd 221e b0bd 78e5 c0ba
000002f0: 1019 57bd 52cb 033e e676 d6bd ac3d 47ba
00000300: 7cff cebd ad40 80bc e406 1bbd d3ab 333c
00000310: eeba e33c 82c1 d33c bf13 713d b08b bf3c
00000320: 4e02 9f3d e208 e53c 951e 8a3c 9bc8 a83d
00000330: 7a7d a8bb c137 733b f5ee 88bd d1d0 863d
00000340: 0093 ee3b 1a16 8c3d 9059 db3c 37b8 bc3d
00000350: fec8 d53d 5c8d da3d 2262 db3d fa56 783d
00000360: cea3 9e3d d1bb 02be ecf1 28bd 9e9a 44bd
00000370: c465 62bc 872a 99bd 6cf2 ab3c 6ec3 c23d
00000380: 9eea 4abc 8d49 8a3d 8542 623d 2614 323d
00000390: c2fb 3abd e5c9 afbd 2c83 8b3c 6c0d 9f3d
000003a0: d0ff 32bb 393d 6abd c010 043b c425 853d
000003b0: 928d 0f3d 3f4b cd3d adb6 11be a668 6bbd
000003c0: 90d5 8ebd a830 8fbc 3375 41bb c707 2d3d
000003d0: 56e0 77bd 0b5b f9bc 2793 093c c054 6ebd
000003e0: 8b1d 64bd 9dee dbbd 01ea 493d 8109 a7bd
000003f0: 0de8 ba3d 3bc7 f23d a44a 123c 516c e2bc
-0.017019624 -0.03457014 -0.05642497 -0.058794487 -0.07551856 0.06599271 0.066487916 0.068404995
-0.008698893 0.012242147 0.10703556 -0.01696578 -0.012966106 -0.033340007 0.015591703 0.04412949
0.033046767 0.064782694 0.13340198 0.05404391 -0.015129151 -0.09307261 0.07664922 -0.004330483
-0.1183519 -0.063558504 -0.06375366 0.03599027 -0.0697236 0.05358675 0.073823564 -0.035219986
-0.10401909 0.1015497 -0.04402535 -0.0727193 0.012830059 0.037724894 -0.065950416 -0.03231886
-0.0042623514 0.07634725 0.06351018 0.059876498 0.0420222 0.006779641 0.091934636 -0.035063
0.15941888 -0.07462013 -0.013861069 0.061136574 0.009189412 -0.076306514 -0.049186967 0.063662864
-0.11075361 0.059286334 0.021092026 0.00573398 -0.045114342 -0.11834953 0.018943591 -0.022058053
-0.043778818 0.11239827 -0.074470885 0.11979265 -0.016203083 -0.028732665 0.15479162 -0.09310112
0.07094537 -0.07949731 0.010138473 -0.08973296 0.042118628 -0.026939787 0.117237635 -0.05458487
0.034104787 -0.10463717 0.113575526 0.059001002 -0.12900995 -0.049421877 -0.028444728 0.052156437
-0.10416134 -0.048562348 0.017011596 -0.07394824 0.06477555 -0.050817724 0.078677885 -0.10857133
0.0240163 -0.074567765 -0.13183556 -0.06952441 -0.12715927 -0.04752132 -0.0024050223 0.022332424
-0.08381145 -0.11520662 0.05830917 0.07853048 0.039768554 -0.057155136 0.015163102 0.101484165
-0.067093834 0.06267519 -0.037763074 0.05544987 0.006915101 0.051466513 -0.0033735961 0.10135685
-0.04222475 0.104556486 -0.003747961 -0.019844897 -0.06258341 -0.09918524 -0.006815128 0.08087497
0.048617657 -0.02167722 0.066281624 0.018594459 0.026793579 -0.08802391 -0.027147247 -0.013437666
0.010199995 -0.019979076 -0.116068766 -0.062218037 0.033211563 0.10293254 -0.096060514 -0.026681567
-0.047541093 0.043040756 -0.0852621 0.01920055 0.011212737 0.13245712 0.09710108 0.087733574
-0.035935752 -0.1092025 -0.0544852 0.0077287825 -0.12395482 0.018742077 0.026868178 0.16873445
0.031565793 0.08050088 0.082947485 -0.019309375 -0.067822024 0.029057343 0.092807926 -0.12935227
0.0009851028 0.062548354 -0.054413427 0.0404492 0.017413743 0.07224721 -0.035815198 -0.05537172
0.1493679 0.108540066 -0.03257305 0.088278145 -0.061970506 -0.04713032 0.0029363616 0.034205522
0.022413842 -0.038118742 -0.085994974 -0.0014716825 -0.052514136 0.1287053 -0.10471897 -0.00076004374
-0.101073235 -0.01565584 -0.03784837 0.010966259 0.027799096 0.025849108 0.058856722 0.023382038
0.077641115 0.027958337 0.016860286 0.082413875 -0.005141911 0.003711209 -0.066862024 0.06582797
0.0072807074 0.06840153 0.026776105 0.09214824 0.10438727 0.106714934 0.10712077 0.060629822
0.07746087 -0.12766959 -0.04124634 -0.047999017 -0.013818208 -0.074788146 0.02098962 0.095099315
-0.012385039 0.0675231 0.05523922 0.043476246 -0.04565025 -0.0858343 0.017030321 0.07766232
-0.002731312 -0.057187293 0.0020151585 0.06501344 0.03504712 0.10024118 -0.14229842 -0.057472847
-0.069743276 -0.017479256 -0.002951932 0.042243745 -0.060516678 -0.03043892 0.0083969 -0.058186293
-0.055692237 -0.10738871 0.04929543 -0.081561096 0.091262914 0.118544064 0.0089289285 -0.02763954

layers.1.bias f4 [128]
00000000: 24cf d23d bf91 2cbd f160 9c3d 5f59 e9bd
00000010: 4c34 1fbe d577 5bbd df1c 24ba 899f da3d
00000020: 88f0 f0bd 6d8a 16be e498 6bbc 45f9 92bd
00000030: 72de 8cbd 6db3 49bc 2ae4 03bc f866 88bd
00000040: 57fc 96bd 1baf d8ba f0b0 eabc 794e 61bd
00000050: f9ad 8dbd 8e2d 9b3d b152 35bd e5f7 073d
00000060: dd91 7e3d f04c 23bd 6f34 cfbd 2f7e a83d
00000070: 5b55 0abd 21b7 e23d 3b67 b5bd 6b93 a1bd
00000080: 6915 d8bc 8bad 9e3d c984 c13d fcd4 013e
00000090: ee9d a93c 9716 a83d 2f36 b53c 9745 e73d
000000a0: 2f02 28bd 2f29 833c d37d 44bd fc13 3a3d
000000b0: f69e a2bd b31a fdbb 9e68 ec3d 5690 103e
000000c0: f210 b2bd 42af 6fbc a96f a13c 0d21 f63c
000000d0: c522 8bbc 5456 b33d 2c83 48bd e6bb 45bc
000000e0: a069 9f3d a2ff 993c ecb3 f1bc 13f1 a13d
000000f0: b639 98bd 7391 0dbd ca65 ad3d 2b93 4c3d
00000100: 6c6a a0bc 6e31 cb3b 444c 78bc 114a d03c
00000110: 4210 64bb 6dd7 d93d 20fc 243d 9c50 6e3d
00000120: 890d bbbd 16b5 973d b762 8cbc 885f 1c3d
00000130: 7292 0e3c a674 4dbd f85d 903d f5e6 b8bc
00000140: 1f1b 713d 9ba3 e1bd 51dd 933c 9dbc 653d
00000150: 14bf dc38 e43a a63c b48d de3c 9046 bdbc
00000160: 97f6 05bd adad a23b b829 d1bc 2d7e 03bd
00000170: adc8 00bd 81eb 46bd f56e 893d 4dd9 353d
00000180: 919f 8e3d 04e0 45bd 8fdb 743d e9e8 73bc
00000190: 8bd7 993d e582 69bc ccb9 ac3d 7531 db3d
000001a0: 8a06 c1bd 43f4 c73c 19ca a13c e918 b43d
000001b0: 97d2 dbbd fe03 a3bd 7635 cfbc ea65 5b3d
000001c0: c8b8 28bd 6ee3 60bc 3f11 813d 055c 0a3d
000001d0: 5cc8 ae3c b646 fe3c 4046 09bb b69c d43c
000001e0: 7cf6 a83d 8857 1dbd e4ba 153d 93f3 c2bc
000001f0: 3609 e13d fd53 55bd 9f18 1d3d 5ef9 db3b
0.10293415 -0.04213118 0.076356776 -0.11393999 -0.15547293 -0.053581078 -0.00062604056 0.1067496
-0.11764628 -0.14701243 -0.014379714 -0.07176451 -0.068783656 -0.012310845 -0.008050004 -0.06660265
-0.07372349 -0.0016531678 -0.028648823 -0.055006478 -0.06917948 0.07577048 -0.044268314 0.033195395
0.062150825 -0.039868295 -0.10117423 0.082271926 -0.033772808 0.11070085 -0.0885758 -0.07889446
-0.026377397 0.077479444 0.09449155 0.12678903 0.02070519 0.08207434 0.022120563 0.1129257
-0.041017707 0.016010849 -0.047971558 0.045429215 -0.07940476 -0.00772413 0.11543392 0.1411756
-0.08694638 -0.014629187 0.019706564 0.030045057 -0.016984353 0.087567 -0.04895322 -0.012068724
0.07783818 0.018798653 -0.029504739 0.079073094 -0.074328825 -0.03456254 0.0846668 0.049945038
-0.019581996 0.006200961 -0.015154902 0.025425943 -0.003479973 0.10636792 0.040279508 0.058182344
-0.09133441 0.07407586 -0.017136915 0.038177043 0.0087019075 -0.050160073 0.07049173 -0.022571066
0.058863755 -0.110175334 0.018049868 0.05608808 0.000105260086 0.020291753 0.027167179 -0.023104936
-0.03270587 0.0049645514 -0.025532588 -0.032102752 -0.03144138 -0.048564438 0.067106165 0.044396687
0.069640286 -0.04830934 0.0597797 -0.014887073 0.07511815 -0.014252399 0.084338754 0.107027926
-0.09425075 0.024408465 0.019749688 0.08793814 -0.10733526 -0.07959746 -0.025294047 0.05356399
-0.041191846 -0.013726098 0.063021176 0.033779163 0.021335773 0.031039577 -0.0020946413 0.025953632
0.08250138 -0.038413554 0.036555186 -0.023797786 0.10988085 -0.05208205 0.03835356 0.0067130765

layers.2.weight f4 [64, 128]
00000000: 6177 f4bd cfec fb3c 71c7 b63c ca1b 82bd
00000010: 57f6 15be 2f87 ca3d 1ced 563d fd8d 00be
00000020: 0e26 4a3d e29a dd3c 8424 b23d 36d0 e63d
00000030: 4954 3bbc b5ce 9d3d 5ced a03d eae3 b1bd
00000040: 310c c63c 5c17 3bbe f693 813b 7ae6 483d
00000050: 0bc4 39be fc9b 1d3a 9d06 653d a96e ffbc
00000060: 53c7 92bd 8f5d dabd 03a6 bcbd 832b 1a3c
00000070: a8e4 7cbc 3744 edbd 1d94 65bc 60c9 aa3d
00000080: 7c39 5f38 8c74 f93c d0e6 dcbd 0e79 b4bd
00000090: cb3f 753d feb0 a63d c657 f73d e7e3 1239
000000a0: 4303 4b3e a3da 1cbe a1d9 ae3c 3606 a0bd
000000b0: 93e6 31bd 01e2 acbc a4b6 14be bcb3 89bd
000000c0: 6cd9 1e3e d5cb f0bd 66cf 1cbd 443c 343d
000000d0: 2241 1ebc baab 21bd 4fda 53bc 4db3 febd
000000e0: fe45 6fbd 0729 25be 9db0 623e c684 25bd
000000f0: 7767 c0bd bb82 8abc 2b89 8dbc 346c ffbd
00000100: f941 21bd 14dd 203e 8cd2 0c3c 35db 94bd
00000110: d1ef 88bd 9d0e aebd dbd3 0abd 0abb 39bd
00000120: c7a2 8abc d7da 13be 1dc7 973d 3ab3 14be
00000130: bf04 673d 43be da3b b531 053e c9e5 09be
00000140: 3c4e 8abd 6fc3 3e3d 175d f0bd 4c94 0cbe
00000150: 55da c53c bcd3 5e3d 443e 5a3d fc5d ce3d
00000160: 4fcc 633d a355 c2bb 2796 08bd 80db 1c3e
00000170: a52b 35be f486 8fbd 13b9 b33d 674b 4dbe
00000180: 64cc 25be b8e8 36bd 4652 ddbd 14ab 073e
00000190: fa2c a13b baa5 283d 3f54 4f3e 05d0 abbd
000001a0: f7c8 c2bc 8941 03be 9838 363c 098b afbd
000001b0: df17 d43d 442d 6f3d c200 b53d 5b07 d0bd
000001c0: 5884 72bb af16 18bd 55e8 e4bd 2daa 0b3d
000001d0: 44e4 083e ac11 38be c475 a7bc 99bf 5e3d
000001e0: b0f8 64bd 91ab 18bd 0c7c 01be e3ee 80bc
000001f0: 19cb b9bb 7640 a93d b616 b83c 2196 273e
00000200: d8ba c43d 562d 84bd d919 123d fd98 943d
00000210: d908 9c3d f18b a6bd 43fc aabd 7926 4b3d
00000220: c4a9 c1bd 8ea6 75bd 8436 013d 7158 9fbd
00000230: afd4 8f3d 2b01 31be 515e 63bd d017 ec3d
00000240: d84e dabc 2b5d 3f3e b31a 03bc c403 bdbd
00000250: dc3a 1a3e 2150 0cbd 4d08 88bc 13b8 053e
00000260: c0bc 083d 45cd 383d 7167 0ebd c42d fb3d
00000270: c165 433b 19bc 0c3e edb6 0a3d 424a 13be
00000280: f2b5 92bd 41e1 35bc 7fca 57bd c237 1d3d
00000290: 87c8 ddbd 03f6 97bd 9691 39be 7241 823d
000002a0: 284c 02be b233 203e bd1e bc3d d740 143e
000002b0: b062 7ebd daf2 153d 6a8c 0e3e af0c 553d
000002c0: b4f3 20bc f833 583d 6bbd 423d 2ee9 6d3c
000002d0: 57ac 523d 026a 8f3d cfe5 ba3d f30e 0e3d
000002e0: 090a 043e 125f 2a39 14d4 e8bc bb2b 6b3d
000002f0: 355d 473d 26e9 a3bc 7c45 5abd 20df 0c3e
00000300: f5d7 443c aff7 9ebd 2471 783b f87e 223d
00000310: 5a4c 693d 1e9f aa3d 3165 5c3d 6952 c33d
00000320: 7219 6f3c f0a0 793d 2c05 393d 6a8c 303e
00000330: 98a9 73bd 82fc 023d bf47 f9bd 0378 4e3d
00000340: 6a5b 2f3e ab61 6bbd 3fb9 87bd 9634 503d
00000350: e5b1 a4bd 9187 46bd e65a 603d 924d fc3b
00000360: 8ed6 3cbd 1e57 ba3d 0499 d13d de03 90bc
00000370: 48c5 f03d 1139 263e 74eb 9ebd 1372 9e3d
00000380: 7d8f 2a3d 9d08 103d a7a7 2b3a fbaa 3d3d
00000390: ff26 cdbc 74f9 88bd 8d32 34be 8aec e83d
000003a0: 509b 03be b195 573d 50ef 333d 7c69 c63d
000003b0: b39b c2bc eb84 c9bc 985f 40be d5aa 193e
000003c0: 431b 5abd c419 163d 7ab8 64bd c596 f93d
000003d0: e7d9 90bd 615f fa3c 65cf 4c3c 6d61 65bd
000003e0: de45 20bc e58d 253d 28d9 573d 6371 a93d
000003f0: fde8 ec3d 3ce8 debc 7b5d bc3d a4d5 163d
-0.11936832 0.030752568 0.022311898 -0.063529566 -0.14644752 0.098890655 0.05247222 -0.12554164
0.049352698 0.027051393 0.08698371 0.11270182 -0.011433669 0.07705442 0.07857773 -0.08686049
0.024175735 -0.1827063 0.003954406 0.049047925 -0.1814119 0.0006012318 0.05591451 -0.031180697
-0.07166924 -0.10662376 -0.09211352 0.009409788 -0.015435375 -0.115852766 -0.014012364 0.083391905
5.322088e-05 0.030451082 -0.107862115 -0.08812152 0.05987529 0.08139227 0.12077288 0.00014008545
0.19825463 -0.15317778 0.021344008 -0.07813685 -0.043432783 -0.02110386 -0.14522797 -0.06723735
0.15512627 -0.11757628 -0.038283728 0.044002786 -0.009659084 -0.03947041 -0.012930467 -0.12436543
-0.05841636 -0.16128932 0.22137685 -0.040409826 -0.09394734 -0.01690804 -0.01727732 -0.1247181
-0.039369557 0.15709335 0.00859512 -0.07268373 -0.06686366 -0.08498881 -0.033893447 -0.04534439
-0.016923321 -0.1443895 0.07411025 -0.14521495 0.05640101 0.006675513 0.13007243 -0.13466562
-0.06753203 0.0465731 -0.117365055 -0.13728446 0.02415196 0.054401144 0.053282037 0.1007652
0.055614766 -0.005930619 -0.03334632 0.15318108 -0.1769243 -0.07008162 0.087755345 -0.20048295
-0.1619125 -0.04465553 -0.10806708 0.13248855 0.0049186917 0.041173674 0.20246981 -0.08389286
-0.023777468 -0.12817968 0.011121891 -0.08571441 0.103561155 0.058392778 0.08838035 -0.10157653
-0.0037005153 -0.037131008 -0.11177126 0.03409784 0.13368326 -0.17975491 -0.020441897 0.05438194
-0.05590123 -0.037272993 -0.12644976 -0.01573891 -0.005669963 0.08264248 0.022471767 0.16365863
0.0960595 -0.0645396 0.03566918 0.07255743 0.07618875 -0.081321605 -0.08348896 0.049597237
-0.09456208 -0.059973292 0.03154613 -0.07780541 0.07022988 -0.17285602 -0.05550987 0.115279794
-0.026648924 0.18687885 -0.008001971 -0.09229234 0.15061516 -0.034256104 -0.01660552 0.130585
0.03338313 0.045117635 -0.03476662 0.122645885 0.0029815289 0.13743629 0.033865858 -0.14383796
-0.071636096 -0.011101068 -0.05268335 0.038383253 -0.10829263 -0.0741997 -0.18121943 0.06360139
-0.12724364 0.1564472 0.0918555 0.1447786 -0.062105834 0.036608554 0.13920751 0.05201405
-0.009823728 0.052783936 0.047543924 0.014520926 0.051433887 0.07002641 0.09125864 0.034682225
0.12894453 0.0001624788 -0.02842144 0.05741475 0.048672874 -0.020008635 -0.05328892 0.1375699
0.012014379 -0.07762086 0.0037909234 0.039671868 0.05695758 0.083311304 0.05380744 0.09537203
0.014593469 0.060944498 0.045170948 0.17241064 -0.05948791 0.03197909 -0.121718876 0.05040742
0.17124715 -0.05746619 -0.0662713 0.0508314 -0.08041743 -0.04846913 0.054774188 0.007699677
-0.046103053 0.090986475 0.102342635 -0.017579969 0.117563784 0.16232707 -0.07759753 0.07736602
0.041640747 0.035164464 0.00065481145 0.046305638 -0.025043009 -0.066882044 -0.17597409 0.11373241
-0.12852216 0.05263299 0.043929398 0.09688088 -0.023755884 -0.024599513 -0.18786466 0.15006573
-0.053248655 0.036645666 -0.055839993 0.1218696 -0.070728116 0.030563058 0.012500619 -0.056001116
-0.009782283 0.040418524 0.05269733 0.0827358 0.115678765 -0.027210347 0.091975175 0.036824837

layers.2.bias f4 [64]
00000000: 613b 83bd f9a8 f83d 1838 85bc f038 f6bc
00000010: 0399 88bd b59c 333d c8c3 e1bc 9c68 ffba
00000020: 30eb 0f3d 8581 aa3c dc08 aebd 8521 2dbd
00000030: e2ea a938 6d73 3dbd 5046 edba 382e ebbd
00000040: 59ee d73d 4323 843c d244 01be 7636 113d
00000050: 717a 7bbd e0b8 dfbd f418 edbb 5be1 eb3d
00000060: 379b 713c f535 33be f29e fd3c f4e7 edbc
00000070: 9263 babd 9cf0 e0bd c2e2 0d3e c3c3 8bbd
00000080: 94a6 acbd 4767 a0bb a00f e3bd 60b9 1abd
00000090: a53e 64bc 3334 513d 3bfa 67bd a42e 0b3e
000000a0: c0b7 bdbd 70a5 bd3c c60b 54bd 9820 653d
000000b0: ac8e 663b 4e46 fb3c 058f 263d 97ac cb3c
000000c0: 35e6 aabc d966 b23d 87d2 0dbd f285 97bd
000000d0: 632b b43d 17ec ddbc d407 793d bed0 a33d
000000e0: c32d ffbc a259 4d3c 16cd eabd 1323 f3bd
000000f0: a753 e0bb 0ab9 bb3d 6d59 3c3d a85e d93d
-0.0640781 0.12141604 -0.0162621 -0.030056447 -0.0666981 0.04385062 -0.027559176 -0.0019486132
0.0351364 0.020813713 -0.084977835 -0.042268295 8.102298e-05 -0.046252657 -0.001810262 -0.11483425
0.10543508 0.016130095 -0.12623909 0.03545233 -0.061396066 -0.10923934 -0.0072356407 0.115175925
0.014746479 -0.17501052 0.03095958 -0.029041268 -0.09101023 -0.109833926 0.13856032 -0.06824448
-0.0843021 -0.004895124 -0.110869646 -0.037774444 -0.013930951 0.05107517 -0.056635123 0.1359201
-0.09263563 0.023150176 -0.05176904 0.055939287 0.0035180254 0.030673172 0.040663738 0.02486257
-0.020861724 0.08711023 -0.034624603 -0.07398595 0.08797338 -0.027090115 0.06079848 0.07998799
-0.03114975 0.012533577 -0.11464898 -0.11871924 -0.0068459096 0.09166153 0.04598372 0.10613757

readout.weight f4 [1, 64]
00000000: 49f7 1c3f 722b 85bf 071f 353f b810 073f
00000010: 7875 513f 775b 64bf 5d36 293f be9a 3e3f
00000020: f212 3e3f ea98 42bf 01b6 2e3f c0f8 4c3f
00000030: 1865 093f 2a94 59bf 1a16 1f3f e1b9 083f
00000040: 112a 87bf 04be 0e3f cc38 8e3f e8e2 54bf
00000050: e066 c63e c90b 1c3f 142a 073f 3439 81bf
00000060: 3cea 53bf 6915 cd3e bdeb 6dbf 4023 22bf
00000070: f24a 3b3f 01ec 0a3f f980 32bf b154 fc3e
00000080: 3786 e83e 76de 2e3f f0fe 323f a759 833f
00000090: 20fb 863f 6053 00bf b7f3 5d3f faec 30bf
000000a0: c2f3 833f 4733 38bf 40c7 8d3f 4851 4cbf
000000b0: e083 89bf 7c94 67bf 355d ad3e b6b7 08bf
000000c0: 7de7 603f 86aa 43bf 5caa 2fbf 49c5 a73f
000000d0: 16f0 2bbf 456a 06bf 6466 31bf 8326 69bf
000000e0: 53fa 0abf 9698 0bbf 4085 063f 13d4 5f3f
000000f0: f8c9 6f3f 5aec 75bf 1078 3abf 13aa 42bf
0.6131483 -1.0403883 0.7075047 0.52759886 0.8181987 -0.89202064 0.66098577 0.7445487
0.7424766 -0.7601458 0.68246466 0.8006706 0.5366988 -0.84991705 0.621431 0.5340863
-1.0559713 0.5575869 1.1111083 -0.8315873 0.38750362 0.6095548 0.5279858 -1.0095582
-0.8277929 0.40055397 -0.92937833 -0.6333504 0.7316123 0.54266363 -0.69728047 0.49283364
0.45414898 0.683082 0.69920254 1.0261735 1.0545387 -0.5012722 0.86700004 -0.691116
1.0308764 -0.71953243 1.1076431 -0.79811525 -1.074337 -0.90460944 0.33860174 -0.5340532
0.87853223 -0.76432073 -0.6861932 1.3107082 -0.6716322 -0.52505904 -0.6929686 -0.9107439
-0.54288214 -0.545297 0.52547073 0.87432975 0.93667555 -0.9606377 -0.7283945 -0.7604076

layers.0.weight f4 [128, 8]
00000000: 0a20 8d3d 940f 42bb 06cd cbbe b39f 673f
00000010: 2dbe bf3e 1d47 c93e c1f9 823e c077 bfbe
00000020: aa5e 3dbe 22ce ad3e 3a0e d8bd f364 473e
00000030: e8de 01be 9f68 023d 88b4 a63e cfe0 973e
00000040: d740 a7be 2a0a 7fbc 1b2b 033e 95b6 403e
00000050: d7b5 d8be 305b efbe f66b 09be 453e cbbd
00000060: f7c5 8cbe e9d2 8c3d 3361 083f 37eb 42be
00000070: 1ac6 4c3e 4195 2abe 54cc 08be bff8 01be
00000080: f964 1abe bace 25be e494 c3be f384 d03d
00000090: daa7 233f ba6f 113f 4193 3cbd 3926 ba3d
000000a0: 022d b4bd ae78 b43c 1f8b 41bd 3863 2fbe
000000b0: 3137 fb3e 77b7 a23e f452 6b3e 95fa 58be
000000c0: e58e 22bd 6f2f 723e fb63 cc3c 2b9e cfbe
000000d0: c758 a2be 44c1 75be c9d4 e33d eb35 423d
000000e0: 5ee3 ab3c da4d acbe 4590 883e b3e6 41be
000000f0: afcc ffbe 5a35 1b3e 405b d2bd 9e9d 51bc
00000100: 92d5 e43d a4f4 0c3e 1fbc e5bd 6e4b 8dbe
00000110: 0989 6dbe 90f1 d9be de13 ba3c 29c9 c23d
00000120: 587e 823e 741a 693e 2c8c 363e 8781 72be
00000130: 5666 f0bd 00b8 ffbd e42c ef3e febd c03d
00000140: d39d 5f3e 15d9 a43e a13e d3be b83e 60be
00000150: 72ca 8b3e acfd 0f3f 1c55 96bd 72aa 893d
00000160: 19d7 d63e 9c07 26be 062f 173f f4ec 8fbe
00000170: 1d2c c5be 4256 e8bd 2dab 27be 3ee3 81be
00000180: 2373 0e3e 6a33 363e 9b7c 62bd 1403 60be
00000190: 3804 a9be 42d3 873e 2221 ed3d 4460 abbe
000001a0: cbb2 b23d 5e8f b43a 6416 fcbe 7676 ef3d
000001b0: cdfb 273f 6f8f 7bbe 67ed c83d 2f90 edbd
000001c0: 3008 b63e 450c f4be 3aaa 12be 01bb 8fbe
000001d0: 3ec2 83bf e71e 29bf 4b81 913d bf73 8d3e
000001e0: 0c97 413e 37a5 063d 71d8 973e 1216 a2be
000001f0: 7808 8a3f b00f c5be 0a86 2b3e 8738 78be
00000200: fcae 823e caa1 e13d 65ac d43e fbf4 6a3e
00000210: 86ba 11bf 9a4b c8ba cb37 9c3e 895a a5bd
00000220: be22 74be d53c 0e3e 93d3 ef3e a09d dcbe
00000230: 3458 133f dd4a c33e c272 c9bd 8f88 083d
00000240: 494e ddbd 9f8f 2fbb f42e 703e 3f3e e63d
00000250: 0c76 8c3d 02ab 64be 9d84 d93e 1f62 d93e
00000260: a1cc f83d bef2 afbd 0a92 8abe c391 bf3c
00000270: 34e6 5f3e e745 be3e 33b1 05be 9614 32be
00000280: ea87 99be 8093 4a3d 27ca 3cbc c0dc d73e
00000290: f2ec 85be d6d9 25be 0022 d7bc 502b 903e
000002a0: b815 1ebd d8d2 183d 92fc d63e e806 183f
000002b0: d8d1 1cbf 665c 783d 78e4 073d 772e 843d
000002c0: c8f2 f8bd ebf4 a93d 684e c8be 24af 673f
000002d0: 3611 2a3d eb68 ccbd 4a3a abbe 83d8 91be
000002e0: cd03 0c3e a604 c73d 95e9 0f3f c2cf 183f
000002f0: 9420 76be d5aa 843e ac9a 863e 8f99 dd3e
00000300: cf2b 6b3e 7c14 b03d ec53 35bd c23b 7dbe
00000310: 541e 683e ef13 c53e f538 963e 36f8 12be
00000320: d30b da3d 1773 7fbd 511e 123f b5ae e53e
00000330: 77f7 55bf a172 d93d 4e45 2b3d 9f7c c43e
00000340: 4ad0 763d 5c82 863d 50f9 4bbd b660 0f3e
00000350: ad56 d9bf 08e8 023e 2c0a e0bd 9b57 8c3e
00000360: c6bf f5be ce88 183b 4c17 5c3e 4ea3 043f
00000370: fc67 a3bd 6132 91be fe70 753e 9159 9fbc
00000380: d145 adbe 9edf 7f3e eb1e f9ba b22e f73e
00000390: f2f0 f03d 8a28 133f e0ef 883e 3eba c0bd
000003a0: 67c3 98be 46a1 f03d 4697 a2be c843 92be
000003b0: 0c9c b33c 0396 773e 4d25 163d 4a6b 893c
000003c0: fcb3 76bd 2a73 95bd 05dd 4ebf 7b8d 0fbe
000003d0: aac0 3f3f 231b a93e 5bb2 8dbc d645 b3be
000003e0: 4994 2fbe 982e 703e 80e9 bbbe 0863 ce3e
000003f0: 1fe2 afbe 0877 fdbc 793c 163e 4542 1fbe
0.068908766 -0.0029611336 -0.39804858 0.90478057 0.3744978 0.39312068 0.25581172 -0.3739605
-0.18493143 0.3394633 -0.105495885 0.19472103 -0.12682688 0.031838056 0.3255961 0.29663703
-0.32666656 -0.015566388 0.12809412 0.1881965 -0.42326233 -0.46749258 -0.1342009 -0.09923986
-0.27494785 0.068761654 0.53273314 -0.1903504 0.19997445 -0.16658498 -0.13359195 -0.12692545
-0.1507758 -0.16192141 -0.38199532 0.10181608 0.63927996 0.56811106 -0.04603887 0.09089322
-0.08797647 0.0220302 -0.047251817 -0.17127693 0.49065545 0.31780598 0.22980863 -0.2118934
-0.039687056 0.23650907 0.024950018 -0.4055036 -0.31708357 -0.23999506 0.1112457 0.0474147
0.02098244 -0.33653146 0.2667257 -0.18935661 -0.4996085 0.15157071 -0.10271311 -0.0127939265
0.11173548 0.13765198 -0.11217522 -0.2759661 -0.23196806 -0.4256711 0.022714552 0.095110245
0.25487018 0.22763997 0.17826909 -0.23682223 -0.11738269 -0.12486267 0.46713936 0.09411238
0.21837549 0.3219687 -0.4125872 -0.21898925 0.2730289 0.5624645 -0.07340452 0.06721963
0.4196098 -0.1621384 0.5905613 -0.28110468 -0.38510218 -0.11344577 -0.16373892 -0.25368685
0.13911109 0.1779305 -0.055294614 -0.21876174 -0.3301103 0.26528364 0.11578585 -0.33471882
0.08725508 0.0013775637 -0.49235833 0.116925165 0.6561859 -0.24566434 0.09810906 -0.115997665
0.35553122 -0.4766561 -0.14322749 -0.2807236 -1.0293653 -0.6606278 0.07104739 0.2762737
0.18905276 0.032872405 0.2965732 -0.31657463 1.0783834 -0.3848853 0.1675035 -0.24240313
0.25524127 0.11017187 0.41537777 0.22945015 -0.5692524 -0.001528132 0.30511317 -0.08073909
-0.23841378 0.13890393 0.46841106 -0.43089008 0.5755646 0.38143054 -0.098363414 0.033333357
-0.10805947 -0.0026788486 0.23455411 0.11242341 0.06858453 -0.2233086 0.42483988 0.42457673
0.12148405 -0.08591221 -0.27064544 0.023384934 0.2186516 0.37162706 -0.13055877 -0.17390665
-0.29986507 0.049457073 -0.011522806 0.42160606 -0.26157337 -0.16196379 -0.02626133 0.28158045
-0.03859493 0.03731045 0.4198957 0.5938554 -0.61257696 0.060634993 0.03317687 0.06454175
-0.12155682 0.082986675 -0.3912232 0.9050162 0.04152032 -0.09980949 -0.3344291 -0.28485498
0.13673325 0.097176835 0.5621579 0.59692013 -0.24035865 0.25911584 0.2628988 0.43281218
0.2296593 0.08597657 -0.044269487 -0.24729827 0.2266782 0.3849177 0.2934033 -0.14352497
0.106467865 -0.062365618 0.5707751 0.44859853 -0.83580726 0.10617567 0.04181414 0.38376328
0.060257234 0.06567833 -0.04979831 0.14001736 -1.6979576 0.12783825 -0.1093944 0.27410588
-0.47997874 0.0023274901 0.21493262 0.51811683 -0.07978818 -0.2835875 0.23968884 -0.019451888
-0.33842328 0.24987647 -0.0019006407 0.48277813 0.11764707 0.5748373 0.2674551 -0.09410523
-0.2983658 0.117495105 -0.31756037 -0.28567338 0.021924995 0.24178319 0.036656667 0.016774792
-0.06023024 -0.072973564 -0.80806 -0.14018814 0.7490336 0.33028516 -0.01729696 -0.35014218
-0.1714641 0.23455274 -0.36701584 0.4030993 -0.34352204 -0.030940548 0.14671506 -0.15552624

layers.0.bias f4 [128]
00000000: 330a 503d 3e0d 3abe 3bbd 433e 7576 a83e
00000010: 515a 713e c95a 9a3d 0b5a dcbd 6c64 37be
00000020: a3fd 8d3b 042a 613e cea7 80be ace2 233e
00000030: 3ba2 9e3e dee4 eb3c f650 ab3d 3046 08be
00000040: 1de0 22be 4f34 9dbb dc21 bc3d d65c 083e
00000050: 5b1c a03e a30b 553c 6bb5 0f3e 833b 8cbd
00000060: c772 e53d 5131 503e 84fe 783d b258 823e
00000070: 341e 323c fe84 bd3e 2bd0 2d3e a5ed 4b3e
00000080: e8f8 2fbe 0aae b53e 3d00 a63e c728 17be
00000090: 5c09 19bd 18fd 8bbe 02a7 55bd dd5b cfbd
000000a0: 6348 0cbd 6cb3 63be db63 c13e 5314 a23e
000000b0: b72a 993e b77b 1b3c 8b77 3bbd ecf6 8d3c
000000c0: 9d61 5c3d 2534 2abe a028 10bd c566 2abe
000000d0: 5eb7 a9be 8b2c 843c c2a2 a03e f9a9 e9bc
000000e0: fd72 da3e 662c 29bd c253 053e 37a4 143e
000000f0: 06ae 61be f05d fdbd 2dc0 90bc e401 97bc
00000100: 281f 5f3e c276 81be d412 023e 8c13 21be
00000110: 80b5 b2be 0d13 edbc 9139 5e3e 5682 e33d
00000120: 134a aa3d b0c6 cebd 0d41 cb3e 4051 c1be
00000130: 4c73 be3e cc39 82be 670d e5bd 3254 f6bd
00000140: 8f93 5bbe 1687 e23d faa8 9cbe c058 a03e
00000150: feaf b03e b635 b93e ffe5 56be 4806 83bd
00000160: 96d3 b03e 9472 a03e 77b1 08be 27cf 6d3e
00000170: 30fb debd 2b4d 1abf 7c54 043e 7648 c03d
00000180: 165f ab3e 3252 9a3e 8896 b3bc 6f30 1bbe
00000190: fd32 aebd 5a78 913d f735 0cbe 855c 4cbe
000001a0: 65ac 283e b067 393e 9257 edbc 7706 39be
000001b0: 4625 5e3d 5f73 953e 9546 a33e 4979 4f3e
000001c0: db2e 8a3d be40 843e 8241 8e3e 15ab bf3e
000001d0: 9dbe b53e e157 393e a699 a3bd c8f4 01be
000001e0: f71f 8a3e 663c 94be 2e0a 3a3e d8a9 29bd
000001f0: c2b5 f9bb 022d 773c 41f3 d33d 22d5 bb3e
0.050790977 -0.18169114 0.19115154 0.32902876 0.23569609 0.07536847 -0.10759362 -0.17909402
0.0043332144 0.21988684 -0.25128025 0.16004437 0.30983147 0.028795656 0.083650514 -0.13308024
-0.15905805 -0.0047974954 0.09186146 0.13316664 0.31271634 0.013003263 0.14034049 -0.068472885
0.11203533 0.20331313 0.0607896 0.25458294 0.010871459 0.37015527 0.16973941 0.19914873
-0.17184794 0.35484344 0.32422057 -0.14761649 -0.03736244 -0.27341533 -0.052161224 -0.101249434
-0.03424872 -0.22236413 0.37771496 0.3165613 0.299154 0.009489945 -0.045768302 0.017329656
0.05380403 -0.16621454 -0.035194993 -0.16640766 -0.3314771 0.016134521 0.31374174 -0.028523432
0.42665854 -0.041302107 0.13020232 0.14515768 -0.22039041 -0.12371433 -0.017669762 -0.018433519
0.21789229 -0.25285918 0.12702495 -0.15730113 -0.349041 -0.028939748 0.21701647 0.11108844
0.0831491 -0.100964904 0.39698067 -0.377573 0.3719734 -0.2543472 -0.11184197 -0.12027778
-0.21443008 0.11060922 -0.3059767 0.3131771 0.3450927 0.3617379 -0.20986174 -0.063976824
0.34536427 0.31337416 -0.13348947 0.23223554 -0.10887754 -0.60274 0.12922853 0.09388821
0.33470982 0.30140835 -0.021922365 -0.15155195 -0.08505819 0.07103033 -0.13692461 -0.19957168
0.16472013 0.1810596 -0.02897242 -0.18068872 0.054234765 0.29189584 0.31889787 0.2026111
0.06747218 0.25830644 0.27784353 0.37435213 0.3549699 0.1809993 -0.079882905 -0.12691033
0.26977512 -0.2895233 0.18167946 -0.04142174 -0.007620544 0.015086414 0.103491314 0.36686045

layers.1.weight f4 [128, 128]
00000000: f6b5 6d3d 3431 1e3c 9bab be3d ef15 1c3c
00000010: 252d d73d f1a2 f43d ec30 b6bd 5880 77bc
00000020: b239 19be 6bb0 85bd bbab 08bd 6e7b a0be
00000030: cc9e 56bc 89a6 d6bd 2d76 a23d 177e 253e
00000040: b65c d7bb 7154 783e 2cd3 393e e2c7 383d
00000050: 0603 25be 253b ee3e 886e a0be 2a7c 093f
00000060: 2eae 933c b66f 0b3d 79d8 48be 2aab 4c3e
00000070: dca4 3c3e 4b9a f5bd 3386 6abe 19af a4be
00000080: a50e 2fbe c6f0 613e a3e9 0ebd 110f f73c
00000090: aa76 213e 0305 e73d dfb1 c03e 5d78 8bbe
000000a0: b082 cdbc 435c a6bd 5fc7 f43d e91a e5bd
000000b0: 0248 aa3c 9bc4 21be 5c35 a73e 2156 b63c
000000c0: a9a4 393d 13a1 dabc 9145 73bb 0282 0abe
000000d0: c597 69bd e233 983e bce6 0a3e 1a56 3bbc
000000e0: 9141 2e3e a36b 803d 1114 9c3d 7bca 983e
000000f0: c776 1bbe beb5 273e 9125 4e3e f710 02bd
00000100: 8160 42bc f70d d0bd 82b1 d43d d0a7 6d3e
00000110: f9f1 1fbf aa6f 183e d6ac 14bc 3d6b a53e
00000120: 961b 98be 777f fd3d 2c79 ccbd 7624 c13d
00000130: c794 733d 9f32 67be f191 3cbd 96e1 55be
00000140: dae3 1a3e b89b cb3b 4c18 f5be 9b4b e0bc
00000150: a4ab e4bd 260f be3d 53e9 a83d d964 01be
00000160: e01e 50be 69de 2cbe ad93 89be fda6 183e
00000170: e611 943e c744 ebbe 36c8 8abd d0b3 c33e
00000180: 564e 073c adb4 86be f189 ddbe a70c 8e3d
00000190: c297 acbe 18c9 063f 4503 9abe 3b32 7a3d
000001a0: 5c5c 4ebe 7c36 80be 8b1f 8d3e 2b9e 273e
000001b0: 23fa a0bd 4a3c c2be 0357 1dbe b036 77be
000001c0: 3b36 c2bc 9b40 dcbd ee70 2dbe 6a09 0f3d
000001d0: 669b a33e 1cee 213d ed7f d53d 9b47 e6be
000001e0: 65d7 143d 6a31 6d3e 75ca 68be 0943 09bd
000001f0: 3337 a93d dc32 7ebe 4198 443e 1eab febd
00000200: 2d6b adbd abf0 4a3e 4f62 873d 14fa a13b
00000210: 2d87 89be de9a 8bbe ef55 093e 2b19 b6be
00000220: 8584 e33d 2a01 0a3e bce4 5a3e ff4c dabd
00000230: 2d21 ce3d 9053 4abf 072a 613e 39f4 20be
00000240: fd20 81bd a0dc 6c3d ee00 233d a63c d0bd
00000250: 5098 963d 65e4 94be 7537 8a3c 1fe6 2dbe
00000260: f943 103e 6e20 90bd 538f c53e 4b38 233a
00000270: 8a30 173e 5998 81bb 59b7 a1be 6ec0 b23d
00000280: ff47 3f3e fd49 58be 2501 adbe fc29 1e3e
00000290: 4c16 e53d 713b 8dbe adfb 583d c7b8 db3d
000002a0: dc6f 3bbe 78ef c83c 9c93 b4bd d6a3 af3c
000002b0: 79d7 08be 71ba dcbe 0eb9 25be 167c ae3d
000002c0: 6496 24bd b659 1d3e 8ac9 503d ba0d 383e
000002d0: bc41 8f3d 220d 4b3e 3f7e 853e 25fe a53e
000002e0: db9f 47be 5342 cebd cbbf a33c dc05 7c3b
000002f0: fe9f 1c3e 1306 623d f739 cabd 2bab 1a3e
00000300: ef15 f0bc 9ac3 293d 6389 e2be 90f3 943d
00000310: f8fb e5bc 254c a93c 0961 c93d 1718 9bbe
00000320: c41e 6e3c 2317 153d 1fd6 44be 47db 6a3e
00000330: 9c3f 1fbe 7ed8 003e 0f48 2f3e 1d7d 123b
00000340: 234b 7b3c 7edc a33e 15b2 863c 8d66 a53c
00000350: a933 8cbc 0ced de3d 534b cebc e090 b23d
00000360: 74c3 233e 57d8 1b3e c591 f7be 3450 72bb
00000370: 3003 5cbe 87d6 933b ea33 79bc 1594 a7be
00000380: 689d d8be fe13 963e de8b 9fbd b14c e23e
00000390: d37c 9a3e f41f 2fbe 49b7 423e bb46 113e
000003a0: b9ce 6b3d c318 e9bd 4293 a73d fe08 ca3d
000003b0: 14a5 923e ed3b 193d f9b9 32ba 1ae3 9b3d
000003c0: 8352 ca3e 4941 be3c 89e1 44bc 6088 ae3e
000003d0: 0652 e9bd f166 f73d e34f 66bd 598e d7be
000003e0: 1201 92bc 61ad 9cbd 00d8 abbd 892e 193e
000003f0: 7ff4 263e 1c24 92bc 6388 a1be 9caa 803d
0.05803486 0.009655286 0.09310075 0.009526714 0.105066575 0.11945141 -0.0889605 -0.015106283
-0.14963415 -0.0652779 -0.0333669 -0.3134417 -0.013099384 -0.10480983 0.079326965 0.1616138
-0.0065723313 0.24250962 0.18146962 0.045112498 -0.16114435 0.465295 -0.3133433 0.53705084
0.018027391 0.034042083 -0.19613828 0.19987169 0.18422264 -0.1199232 -0.22902755 -0.3216484
-0.1709543 0.22064504 -0.034890782 0.030158551 0.15767923 0.11280253 0.37635705 -0.27240267
-0.02508673 -0.08123066 0.119520895 -0.11186773 0.02078629 -0.15797655 0.32657897 0.022257866
0.045323048 -0.026688134 -0.0037120322 -0.13526157 -0.057029504 0.29727083 0.1356458 -0.011434102
0.17017199 0.0627053 0.07621015 0.2984198 -0.15182029 0.16377923 0.20131518 -0.03175446
-0.011863829 -0.101589136 0.103854194 0.23208547 -0.62478596 0.14886346 -0.00907441 0.3230838
-0.29708546 0.123778276 -0.09984049 0.094307825 0.059468057 -0.22577904 -0.046037618 -0.20886835
0.15125981 0.0062136315 -0.478701 -0.027379801 -0.1116555 0.09280233 0.08247628 -0.12636127
-0.20324278 -0.16881718 -0.2687048 0.14907451 0.28919905 -0.4595091 -0.067764685 0.38223124
0.008258423 -0.2630972 -0.43269303 0.06936007 -0.33709532 0.52650595 -0.3008062 0.06108306
-0.2015242 -0.25041568 0.27563128 0.1636893 -0.0786021 -0.37936622 -0.15365224 -0.24141955
-0.0237075 -0.1075451 -0.1693761 0.034921087 0.31954497 0.03953372 0.104247905 -0.44976506
0.03633823 0.23163381 -0.22733481 -0.033511195 0.082624815 -0.24824089 0.19198705 -0.12434982
-0.08467708 0.1981837 0.06610548 0.0049431417 -0.26860943 -0.27266592 0.13411687 -0.35566077
0.111092605 0.13477007 0.21376318 -0.10659217 0.100649215 -0.79033756 0.21988688 -0.15718164
-0.0630512 0.057827592 0.03979581 -0.10167818 0.0735327 -0.290805 0.016872147 -0.16982315
0.1408843 -0.070374355 0.3858591 0.0006226345 0.1476461 -0.003954929 -0.31585196 0.08728109
0.18679808 -0.21121974 -0.33789936 0.15445703 0.111858934 -0.27584413 0.05297439 0.10728603
-0.1830439 0.02452825 -0.08817217 0.021440428 -0.13363446 -0.43110994 -0.16183874 0.08519761
-0.040182486 0.15366253 0.050973453 0.17973986 0.0699496 0.19829229 0.2607288 0.3242046
-0.19494574 -0.10071244 0.019988915 0.003845564 0.15295407 0.055181574 -0.09874337 0.15104358
-0.029307334 0.041446306 -0.44245443 0.07273018 -0.02807425 0.020666191 0.09832961 -0.30291817
0.014533702 0.036399018 -0.19222306 0.2293521 -0.15551609 0.12582585 0.17117332 0.0022352405
0.015337738 0.3200416 0.016442338 0.020190502 -0.017114477 0.10885057 -0.025182402 0.08719039
0.15992528 0.15219246 -0.483534 -0.0036974074 -0.21485591 0.0045116576 -0.015210131 -0.32730165
-0.4230759 0.29312128 -0.077903494 0.44199136 0.30173358 -0.17102033 0.1901523 0.14187138
0.057570193 -0.11381676 0.08182384 0.098649964 0.2864157 0.037410665 -0.0006817873 0.076116756
0.39516076 0.02322449 -0.012016662 0.3408842 -0.11392598 0.120801814 -0.05622853 -0.4210079
-0.017822776 -0.07650257 -0.08390808 0.14959158 0.16304205 -0.017839484 -0.31549367 0.06282541

layers.1.bias f4 [128]
00000000: 2c35 11bd b70e 32bd c45e 533a 3983 15be
00000010: abdf 9dbb 6898 f3bb db6e 933d 7c67 40bc
00000020: 971c 31be dbd8 e7bc 0f86 a1bd d862 8c3d
00000030: 1881 b5bd be4d c2bc 7275 6a3c 1181 ab3d
00000040: fd3e 423d 6b6c b93d db1a 353d 5f00 91bc
00000050: 13db 15bd fc6a 473d 06d4 d53d 771c d33c
00000060: 056e 833d 4f58 66bd 0d7a 75bd 7ba1 bb3d
00000070: dd4e 08be ee4b 87bc 9dc6 06bd 3d5c fd3b
00000080: 553c 2b3d 11d6 05be e41e 5dbd a2a8 9abd
00000090: 6cf2 683c b371 08bd 2fb1 47be 335e c3bd
000000a0: 40a2 443d 4c19 613d bf75 a03d 2939 85bd
000000b0: cfb8 46bd a656 243d 8fee 6f3d 4d0e a9bd
000000c0: 6d31 e83d a13e a8bc c1c8 493c f870 d93c
000000d0: a93b 24bd fb86 82bd f059 5fbd 7df7 83bd
000000e0: 2cbf efbc c896 23bc 5457 7c3d 9e99 563d
000000f0: f566 95bd a020 f5bc e0bf 963d ebdf 08bc
00000100: 2411 16be 5331 b13d 0d03 bf3d 438a 153a
00000110: 7a53 b53c 8e25 c63b 0f08 19bd fa7e 3cbc
00000120: 8afb dbbc 6364 21bc 02f1 4ebb 46a9 0d3c
00000130: 2824 b0bc e368 353d fb3e ddbc 51f6 d9bc
00000140: 554a 5dbc c256 28bd ac9d afbd a99f 8b3c
00000150: d086 143d 821c 8a3c 9373 5cbd 0c0c dd3b
00000160: 8b2e c9ba 76fc c73c 0713 9abd 8f79 8cbb
00000170: 9cb1 77bd 8eed 41bd 603e dc3d f3ce 30be
00000180: 7fc6 c63d cb36 1c3d 8186 2d3c d5cb bfbd
00000190: c12f 8bbb fb7e 05bc 8f05 2f3d dcb6 c43d
000001a0: ef45 5b3d 051f 60bb 043a 1bbd a556 c3bd
000001b0: ae30 443c ff3c d5bd 45c4 ac3d 8366 cfbb
000001c0: 3c85 a43d 35d0 15bc f14c 973d 6bb5 303c
000001d0: eb6c 34bc e9da 963c 2ba0 8cbd 7f84 32bd
000001e0: 7341 f9bb d841 8ebd 7d4d b23d 0841 07be
000001f0: 7c6a 923d d15b 393d 415d 563d 5674 573c
-0.0354511 -0.043471064 0.00080631324 -0.14600839 -0.004817923 -0.0074339397 0.071988784 -0.011743423
-0.17296062 -0.028301647 -0.07886898 0.068547904 -0.08862513 -0.023718711 0.014310228 0.08374227
0.04742335 0.09053882 0.044215064 -0.017700372 -0.03658588 0.048686013 0.10440831 0.025770409
0.06417469 -0.05623656 -0.05993085 0.09161659 -0.13311334 -0.016515698 -0.032904256 0.007731943
0.041805584 -0.13069941 -0.053984538 -0.075516954 0.014217954 -0.033311557 -0.19501184 -0.095394515
0.048006296 0.054955766 0.07834958 -0.06505043 -0.04851609 0.040121697 0.058577117 -0.08254681
0.11337552 -0.020537676 0.01231593 0.026543126 -0.04009596 -0.06373402 -0.05452913 -0.06443689
-0.029265963 -0.0099846795 0.06160672 0.052392595 -0.07295028 -0.029922783 0.07360816 -0.008354167
-0.14654976 0.08651986 0.09326754 0.00057045015 0.022134531 0.0060469573 -0.0373612 -0.011504883
-0.026853342 -0.009850594 -0.0031576757 0.008646315 -0.021501616 0.04428948 -0.02700757 -0.02660671
-0.013506492 -0.041098364 -0.085749954 0.017043905 0.03626138 0.016859297 -0.053821158 0.006745821
-0.0015348954 0.024412375 -0.075231604 -0.004286952 -0.060472116 -0.04734569 0.107540846 -0.17266445
0.09705829 0.038138192 0.01059115 -0.0936505 -0.004247636 -0.00814795 0.04272991 0.0960519
0.05353349 -0.0034198177 -0.037897125 -0.095380105 0.011974497 -0.10412025 0.08435873 -0.006329359
0.08033225 -0.009143879 0.07387722 0.010785441 -0.011012296 0.018414931 -0.06866487 -0.04358339
-0.007606679 -0.069461524 0.08706186 -0.13208401 0.071492165 0.04525358 0.052335028 0.013150295
