Homework9/Gym-DDPG-solution/results/DDPG_Pendulum-v1_500-eps0.3-t32-l0.0001-s1.pth (torch, 174523 bytes, 12 tensors)

layers.0.weight f4 [128, 4]
0	0x3ea13b47	0.31490538
1	0xbe6b59b2	-0.22983435
2	0xbd351b00	-0.044215202
3	0x3e40b791	0.18820025
4	0xbf0f36f5	-0.5594323
5	0x3e9e0b95	0.3086821
6	0xbd5ac768	-0.053412825
7	0x3e796a4a	0.24356952
8	0x3cc8a229	0.024491386
9	0xbe4627fe	-0.19351193
10	0x3d12e0d5	0.035858948
11	0xbd8cf019	-0.068817325
12	0x3e73a229	0.23792328
13	0xbe6225e2	-0.22084764
14	0x3c290e85	0.010318403
15	0xbc7af4c3	-0.015317145
16	0x3e6099c0	0.21933651
17	0x3e3ce9d6	0.18448576
18	0x3e942019	0.2893074
19	0x3dc6fa9b	0.09715768
20	0xbe3bf9f2	-0.18357065
21	0xbeec1492	-0.46109444
22	0xbc18728e	-0.009304656
23	0xbe23587d	-0.15951724
24	0xbd983942	-0.07432796
25	0x3ca45187	0.020058407
26	0x3e8dd1de	0.27699178
27	0x3e4eefb9	0.20208634
28	0xbf0005d0	-0.5000887
29	0x3e8f7df7	0.2802579
30	0x3d531ffa	0.051544167
31	0x3ec5b5ce	0.38615268
32	0x3f039391	0.51397043
33	0xbf2a7fcb	-0.66601247
34	0xbe6354d4	-0.22200328
35	0xbc669ed6	-0.014075955
36	0x3efe12bb	0.49623665
37	0xbdac8bd1	-0.08425105
38	0x3db5740c	0.08860025
39	0xbea3ab8a	-0.3196681
40	0x3f0f374c	0.5594375
41	0xbded1e17	-0.11578005
42	0x3eabe22e	0.33571
43	0xbd5fa6fc	-0.054602608
44	0xbe800e72	-0.2501102
45	0x3ed8afbd	0.42321578
46	0xbe339407	-0.17536937
47	0x3e87c162	0.26514727
48	0xbe128cf2	-0.14311579
49	0xbe8e8a4e	-0.27839893
50	0xbf10f14c	-0.5661819
51	0xbe062f58	-0.13103998
52	0x3eff7273	0.49892005
53	0x3e0ba61a	0.13637581
54	0x3ebecbaf	0.37264773
55	0x3e8b7213	0.2723547
56	0xbbaee4c5	-0.00533733
57	0xbef18cea	-0.4717782
58	0x3eb66fa1	0.3563204
59	0x3e103a17	0.1408466
60	0xbebd8875	-0.3701817
61	0x3ec74d27	0.3892605
62	0x3ea9d296	0.33168477
63	0x3ebfff2c	0.37499368
64	0xbe68156d	-0.22664423
65	0xbe1cfaeb	-0.15330093
66	0xbc395635	-0.011312057
67	0x3d5b17b5	0.053489406
68	0xbe94039b	-0.28909
69	0xbf0430d5	-0.5163701
70	0x3e9fe210	0.3122716
71	0xbdafd8b8	-0.08586258
72	0x3e798941	0.24368764
73	0x3e4cc0d1	0.19995429
74	0x3dc325b8	0.09528679
75	0x3d874ac8	0.0660606
76	0x3e9bda72	0.30440098
77	0x3e613cdf	0.21995877
78	0xbef57a7d	-0.47945014
79	0x3e88379b	0.26604924
80	0xbed4beea	-0.41551906
81	0xbecb52f0	-0.39711714
82	0x3caeb20a	0.02132513
83	0xbd684cd9	-0.056713913
84	0x3ebf803f	0.37402532
85	0xbedf84fc	-0.43656147
86	0xbeb0abd8	-0.34506106
87	0x3edf397f	0.43598554
88	0xbdf3261a	-0.11872502
89	0x3f02d8fd	0.5111235
90	0x3e1f2bc2	0.15544036
91	0xbe9ccbe7	-0.30624315
92	0x3df8233d	0.12116096
93	0x3eaa2d19	0.33237532
94	0xbe946b8a	-0.28988296
95	0xbe853815	-0.2601935
96	0x3d8286ec	0.063733906
97	0x3ddb4f82	0.10708524
98	0xbe809aec	-0.25118196
99	0xbdb3f4f7	-0.08786958
100	0x3f024541	0.50886923
101	0xbd0cd757	-0.03438505
102	0x3e93a8f4	0.28839839
103	0x3e4a6a6d	0.1976716
104	0xbe79728b	-0.24360101
105	0xbf140eb1	-0.5783492
106	0x3ec56397	0.38552544
107	0x3c424714	0.011857767
108	0x3e9f74e7	0.31143877
109	0x3e35e495	0.17762978
110	0x3d60703a	0.054794528
111	0x3e909d01	0.28244784
112	0x3ee525cf	0.44755408
113	0xbf0b5cf6	-0.5443872
114	0x3c3a080d	0.0113544585
115	0x3e7fb423	0.2497106
116	0x3ec016e3	0.3751746
117	0x3ef34e5f	0.4752073
118	0xbe8ac46b	-0.2710298
119	0xbebb6f10	-0.3660817
120	0xbe9df37b	-0.30849823
121	0x3defe8c1	0.11714316
122	0x3f045111	0.516862
123	0xbea92e84	-0.330433
124	0x3e991986	0.29902285
125	0xbee96532	-0.45585018
126	0xbecf1f05	-0.40453354
127	0xbe0f5c19	-0.13999976
128	0x3ea3134c	0.3185066
129	0x3f12f6d1	0.5740786
130	0xbea77c09	-0.3271182
131	0x3daa2f4a	0.08309801
132	0x3ee9eefb	0.4569014
133	0x3ee1c8c1	0.44098476
134	0x3e2f83fe	0.17140195
135	0x3e97e4f1	0.29666856
136	0x3e55984d	0.2085888
137	0x3e8af2d8	0.271384
138	0xbde66808	-0.11250311
139	0xbf15f5b2	-0.58578026
140	0xbecac4e6	-0.39603347
141	0xbea475b1	-0.3212104
142	0xbe79d1a2	-0.24396375
143	0x3e09385c	0.13400406
144	0x3e3cc3e9	0.18434109
145	0xbe375907	-0.17905055
146	0x3e2b949d	0.1675591
147	0x3e09d6eb	0.13460891
148	0x3e88353d	0.26603118
149	0x3eaf19fe	0.34199518
150	0xbe3152ec	-0.17316788
151	0x3f03ebd9	0.5153175
152	0xbe017ba2	-0.12644818
153	0xbdeac73d	-0.11463783
154	0xbf0566e0	-0.521101
155	0xbe95fd98	-0.2929504
156	0xbe973fb3	-0.29540786
157	0xbeb594f1	-0.35465196
158	0x3ea8fbcb	0.33004603
159	0xbe21331b	-0.15742151
160	0xbedf1e5b	-0.43577847
161	0x3e89cd92	0.2691465
162	0x3d960a05	0.0732613
163	0x3e63b0a1	0.22235347
164	0xbe91b935	-0.28461614
165	0x3df9abcf	0.12190973
166	0xbdfeb3ec	-0.12436661
167	0xbc8df3cc	-0.017328165
168	0xbeda5adc	-0.42647445
169	0xbefd28c7	-0.49445173
170	0xbe059fb7	-0.13049208
171	0x3e216bf0	0.15763831
172	0x3e559225	0.20856531
173	0x3e8cfc33	0.27536163
174	0x3eccca4b	0.39998087
175	0x3ee974bb	0.4559687
176	0x3ed869ee	0.42268318
177	0x3ddf8b34	0.10915223
178	0xbe968c29	-0.2940381
179	0x3ed70cc8	0.4200194
180	0xbdc3b53e	-0.095560536
181	0xbe9b3fbb	-0.3032206
182	0xbed0f466	-0.4081146
183	0xbbc65902	-0.006053091
184	0xbeddf007	-0.4334719
185	0x3ef8064f	0.48442313
186	0xbee55c92	-0.44797188
187	0xbec287e2	-0.37994295
188	0x3c90f5eb	0.017695388
189	0xbebca25a	-0.36842614
190	0x3dcb2e56	0.09920947
191	0xbe8842e3	-0.2661353
192	0xbebf5980	-0.3737297
193	0x3e091dd2	0.13390282
194	0x3ea7b873	0.3275791
195	0xbeae1c98	-0.3400619
196	0x3e5fcec6	0.21856222
197	0x3ed29348	0.41127992
198	0x3edbac39	0.42904833
199	0xbec30bc1	-0.38094905
200	0x3d87ec8d	0.06636915
201	0xbec3825e	-0.381854
202	0x3ec0ecf8	0.37680793
203	0xbe331390	-0.17487931
204	0x3ebf9c39	0.37423876
205	0x3c2f2613	0.01069023
206	0xbbce3bf9	-0.0062937704
207	0xbb393243	-0.0028258718
208	0x3d81c2bb	0.0633597
209	0x3ec6a634	0.38798678
210	0x3cbb600b	0.022872945
211	0x3de4ad54	0.11165872
212	0xbe90852c	-0.28226602
213	0x3eaca6d0	0.33721018
214	0x3eb48825	0.3526012
215	0x3f1458ef	0.579482
216	0x3ec8fda2	0.39256006
217	0xbed71c67	-0.42013857
218	0xbe0d4f60	-0.1379981
219	0x3eddda7d	0.43330756
220	0xbefd4441	-0.49466136
221	0x3ed59e16	0.41722172
222	0xbe699f73	-0.22814731
223	0xbf0a2c72	-0.5397407
224	0x3e7ef05c	0.24896377
225	0xbf260787	-0.64855236
226	0xbdd1a251	-0.102360375
227	0x3eb1cd30	0.34726858
228	0x3ef5fe36	0.4804551
229	0x3f0c0b3b	0.54704636
230	0xbd8dc407	-0.06922155
231	0xbeb0651c	-0.3445214
232	0x3ee1c229	0.44093445
233	0xbdccd820	-0.1000216
234	0xbe5c8261	-0.2153411
235	0x3d1f6d54	0.038922623
236	0xbf033527	-0.5125298
237	0x3f0eb1c6	0.5574001
238	0x3e699367	0.22810136
239	0xbec29f06	-0.3801195
240	0xbeb25cbf	-0.34836385
241	0xbdc0f7a8	-0.09422237
242	0x3e6cf377	0.2313975
243	0x3b55a346	0.003259854
244	0xbe721423	-0.23640494
245	0xbe582b10	-0.21110177
246	0xbf005c01	-0.50140387
247	0xbe957438	-0.2919023
248	0xbf177546	-0.5916332
249	0x3f0c068c	0.5469749
250	0x3e779696	0.24178538
251	0xbe6cab61	-0.23112251
252	0x3dbcc93f	0.09218072
253	0x3e7abe3e	0.24486634
254	0x3d85f63f	0.06541108
255	0xbe85b3c4	-0.26113713

layers.0.bias f4 [128]
0	0xbef06e82	-0.4695931
1	0x3ecc5116	0.39905614
2	0x3ebcb71d	0.36858454
3	0xbf150516	-0.58210886
4	0xbf0e6a8f	-0.55631346
5	0xbecf3525	-0.40470234
6	0xbecad08b	-0.3961223
7	0xbc4c3c4a	-0.012465546
8	0xbf3ce97a	-0.73793757
9	0xbecd0017	-0.4003913
10	0x3ea76eb4	0.32701647
11	0xbeaa6b32	-0.3328491
12	0xbe8bb25d	-0.27284518
13	0xbf20ce18	-0.62814474
14	0x3de4cf05	0.11172298
15	0x3d4c1478	0.049824208
16	0xbea6577f	-0.3248863
17	0xbedfe452	-0.43728882
18	0x3e8b91ba	0.27259618
19	0x3da1f99f	0.079089396
20	0x3e915b9a	0.283902
21	0xbbd9be0e	-0.0066449707
22	0x3cfb78ab	0.030697187
23	0xbeb7027e	-0.3574409
24	0x3eff3aad	0.49849454
25	0x3cc0373e	0.023463842
26	0xbee764b4	-0.45194018
27	0x3f1d8a71	0.6153937
28	0x3ed8bef9	0.423332
29	0xbeb8206b	-0.35962233
30	0xbe51d8fb	-0.20492928
31	0xbe45b85a	-0.19308606
32	0xbe446051	-0.19177367
33	0x3eb033bb	0.34414467
34	0xbe4b41eb	-0.19849364
35	0x3f131d23	0.57466334
36	0xbe5d83c4	-0.21632296
37	0x3eb13621	0.3461161
38	0x3daabc1c	0.0833666
39	0xbe9ca742	-0.30596358
40	0x3ebe4a5b	0.37166104
41	0xbf00c86e	-0.5030583
42	0xbeb877ac	-0.36028802
43	0xbd3afdd2	-0.04565222
44	0x3ed4bcd8	0.41550326
45	0xbe8e86e3	-0.27837285
46	0xbe482198	-0.19544065
47	0xbec59b87	-0.3859522
48	0xbd79d177	-0.060990777
49	0xbd5569af	-0.05210274
50	0xbc13e928	-0.009027757
51	0xbeb703cb	-0.3574508
52	0x3e83060a	0.25590545
53	0xbe4b4ea8	-0.19854224
54	0xbede8dbe	-0.43467516
55	0xbe1b03e6	-0.15138206
56	0xbd063fa0	-0.03277552
57	0xbc4c839c	-0.01248255
58	0x3ef5f065	0.4803497
59	0x3dccc868	0.09999162
60	0xbf0d06c6	-0.5508846
61	0xbed36d67	-0.41294405
62	0x3dd4d05e	0.103913054
63	0xbe352c49	-0.17692675
64	0xbc1bd8ef	-0.00951217
65	0xbe320ed5	-0.1738847
66	0x3ecc5b2b	0.39913306
67	0xbe4f7e81	-0.20263101
68	0x3f0c4ff5	0.54809505
69	0x3d6ceaca	0.0578411
70	0xbe6aaded	-0.2291791
71	0x3e9a1624	0.30095017
72	0x3e509281	0.20368387
73	0xbec7e888	-0.39044595
74	0xbef215dc	-0.47282302
75	0x3ed1d190	0.40980196
76	0x3da2d0f9	0.079500146
77	0x3efa68f3	0.48908195
78	0x3cabf1ad	0.020989263
79	0x3f09ba18	0.5379958
80	0x3e895d2c	0.26828897
81	0x3e436350	0.19080853
82	0xbe483a5b	-0.19553511
83	0x3f17647d	0.5913771
84	0x3e28c262	0.16480401
85	0xbea8d79d	-0.32977
86	0xbd7b7daa	-0.06139914
87	0x3ef330c0	0.4749813
88	0x3e932762	0.28740984
89	0x3d700c62	0.05860556
90	0x3eef9daf	0.4679999
91	0x3ea7a217	0.32740852
92	0xbeddb37d	-0.43301
93	0xbf004e6a	-0.5011965
94	0x3ee8bbcb	0.45455775
95	0x3f13ef3a	0.57786906
96	0xbeda95b6	-0.42692345
97	0x3e751782	0.23934749
98	0xbd0f6f83	-0.035018455
99	0xbe795d25	-0.24351938
100	0xbe677a0f	-0.22605155
101	0x3b907b4c	0.0044092294
102	0x3d802507	0.062570624
103	0x3eca2a9a	0.39485627
104	0x3ed76ca1	0.42075065
105	0x3e7fb230	0.24970317
106	0x3f20e8f3	0.6285545
107	0x3e460408	0.19337475
108	0x3e56070f	0.2090113
109	0xbec538d9	-0.38519934
110	0x3f08edba	0.5348774
111	0x3da7e835	0.08198587
112	0x3e9d172c	0.3068174
113	0x3eed97ef	0.4640498
114	0xbdf46646	-0.119335696
115	0x3ea8fdda	0.33006173
116	0xbcc1b310	-0.023644954
117	0x3f0407a3	0.5157415
118	0x3f125bcb	0.57171315
119	0xbe21ca84	-0.1579991
120	0x3dc51874	0.09623805
121	0xbedf1f3a	-0.4357851
122	0xbe63b7d8	-0.222381
123	0xbe29785b	-0.16549818
124	0x3c910410	0.017702132
125	0xbe6da26f	-0.23206495
126	0xbf20e0db	-0.628431
127	0xbef5fc30	-0.48043966

layers.1.weight f4 [128, 128]
0	0xbde97308	-0.113988936
1	0x3cf472d2	0.029839907
2	0x3e300074	0.17187673
3	0xbd5ad2a4	-0.05342354
4	0x3d9aef21	0.075651415
5	0x3b88450c	0.0041586217
6	0xbd772f68	-0.060347944
7	0x3da9cb77	0.08290761
8	0xbd83b705	-0.064313926
9	0xbda83e3e	-0.08214997
10	0xbd8c0b43	-0.068380855
11	0x3c963e02	0.018340115
12	0xbdb531a8	-0.08847362
13	0xbd1bdb86	-0.03805115
14	0xbd3bc286	-0.04583981
15	0xbd259e78	-0.04043433
16	0xbe1b66b8	-0.15175903
17	0x3db48a66	0.0881546
18	0xbc9d505f	-0.019203363
19	0x3cb1110e	0.021614578
20	0x3d4980d4	0.049195126
21	0x3dbc9589	0.09208209
22	0xbd554f9a	-0.052077867
23	0xbdb9e12e	-0.09076153
24	0x3d5f1283	0.054461014
25	0xbcbf49a4	-0.023350544
26	0x3db47599	0.088114925
27	0xbd8d0c0c	-0.068870634
28	0xbd14a60f	-0.03629118
29	0xbd9d4575	-0.076792635
30	0x3d1c82a1	0.038210515
31	0xbca5e612	-0.020251308
32	0xbdb928e1	-0.09041
33	0x3c0f9991	0.00876464
34	0xbc0ce8ec	-0.008600455
35	0x3c2fd05e	0.010730831
36	0xbd807129	-0.062715836
37	0xbafdb974	-0.0019357638
38	0x3d3fbef4	0.046812966
39	0xbd25af19	-0.04045019
40	0x3d9d0b91	0.07668222
41	0x3d3bf253	0.045885395
42	0xbda5564c	-0.080731004
43	0xbd0196a3	-0.0316378
44	0x3ced9537	0.029001815
45	0xbdbb05f8	-0.09131998
46	0x3c419a2b	0.011816542
47	0xbde459f0	-0.11149967
48	0xbd51a3fc	-0.05118178
49	0xbd99cb4a	-0.075094774
50	0x3d3ce4cd	0.04611664
51	0xbe37ac66	-0.17936859
52	0xbd4ff442	-0.05077005
53	0xbc8c3336	-0.017114263
54	0xbddd4480	-0.10804081
55	0xbdbae736	-0.09126131
56	0x3da65ffa	0.08123775
57	0xbd139f79	-0.036040757
58	0x3d8f7f45	0.070066966
59	0x3d3afd15	0.045651514
60	0xbd725e28	-0.059171826
61	0xbd928df1	-0.071559794
62	0xbd428f75	-0.047500093
63	0xbd1097dc	-0.035301074
64	0xbd5e8e56	-0.05433496
65	0xbcf24087	-0.029571785
66	0x3d4a662c	0.049413845
67	0x3d23b4ce	0.03996735
68	0x3d9b0417	0.075691395
69	0xbd659983	-0.056054603
70	0x39203f8c	0.00015282462
71	0xbc4ed6f5	-0.012624492
72	0x3e2e4e4e	0.17022058
73	0xbe11cce6	-0.14238319
74	0xbd162a61	-0.03666151
75	0x3e02e99b	0.12784426
76	0xbc7a7fb9	-0.0152892405
77	0x3e260704	0.16213614
78	0x3b50980c	0.0031828908
79	0xbd7ed059	-0.062210415
80	0x3df8133a	0.12113042
81	0x3d55c902	0.05219365
82	0x3d055515	0.032551844
83	0x3d71a72d	0.058997322
84	0x3dcbb1a1	0.099459894
85	0x3d9ebb5e	0.07750581
86	0x3d3d497f	0.04621267
87	0xbcb5eabf	-0.022206662
88	0x3ca6a691	0.020343097
89	0xbd2df25e	-0.042467467
90	0x3dbae2de	0.09125303
91	0x3d97593b	0.07390066
92	0xbb25acfd	-0.002528011
93	0xbdcf0bb0	-0.10109651
94	0x3d24c6be	0.040228598
95	0x3d11f2d2	0.035631962
96	0x3d5ba47b	0.053623658
97	0xbd5b9bb1	-0.053615276
98	0x3d37cdf2	0.04487414
99	0xbca7fe05	-0.020506868
100	0xbdeb718e	-0.11496268
101	0xbd47ebdf	-0.04880893
102	0x3d0b4c3d	0.034008253
103	0x3d084fd8	0.03327927
104	0xbd9052c5	-0.07047037
105	0x3d35b388	0.044360667
106	0x3db933c6	0.09043078
107	0x3e00a60b	0.1256334
108	0x3d7fe7eb	0.062477034
109	0xbc7c54b5	-0.015401055
110	0x3d340584	0.043950573
111	0x3da3492b	0.0797294
112	0x3d6fa99f	0.058511373
113	0xbd336cd8	-0.043804973
114	0xbcfbeaa0	-0.030751526
115	0x3d9d4e47	0.07680946
116	0x3d70cd1a	0.05878935
117	0x3e2476e2	0.16060975
118	0xbd24dfff	-0.04025268
119	0xbd57ed7a	-0.05271671
120	0xbdb3d8ab	-0.087815605
121	0xbd2c0bca	-0.04200343
122	0xbb21362c	-0.002459894
123	0xbdf9dcd0	-0.1220032
124	0xbc705b69	-0.014670231
125	0x3bbabb6e	0.005698613
126	0xbcfc8cee	-0.03082892
127	0x3cfa88d6	0.030582827
128	0x3d4bd586	0.04976418
129	0xbd6a6579	-0.057225678
130	0xbdad47a2	-0.084609285
131	0x3dcd0ffd	0.10012815
132	0xbdf61464	-0.12015608
133	0x3df66a05	0.1203194
134	0x3d8a88d8	0.06764382
135	0xbd1d05c8	-0.03833559
136	0xbceada5b	-0.028668573
137	0xbca7574e	-0.020427372
138	0xbcb9ecf6	-0.022696
139	0xbdc5a435	-0.09650461
140	0xbd2dd8bd	-0.042443026
141	0xbb3ea1a6	-0.002908805
142	0x3c6f9f64	0.014625404
143	0xbc30bd67	-0.010787345
144	0xbb48d4c2	-0.0030644392
145	0xbd3c8660	-0.046026587
146	0xbd87c713	-0.06629767
147	0xbd8d1523	-0.06888797
148	0x3d24c401	0.040225986
149	0x3cdfd926	0.027325224
150	0xbdb884b2	-0.090096846
151	0xbd08c6db	-0.03339277
152	0x3d06752a	0.03282658
153	0x3d1f6acd	0.038920213
154	0x3dbd0ae0	0.0923059
155	0x3d5fde9e	0.054655664
156	0x3e043160	0.1290946
157	0xbd68ec26	-0.056865834
158	0xbbc9f89b	-0.0061636693
159	0xbd492ab3	-0.049112987
160	0xbcbd1f66	-0.023086261
161	0x3d9d522c	0.07681689
162	0x3d013a79	0.031549904
163	0x3e1ad506	0.15120324
164	0xbd27c4c5	-0.04095914
165	0xbdad4529	-0.08460457
166	0x3ca456a9	0.020060854
167	0x3daa6901	0.08320809
168	0xbdb5b718	-0.08872813
169	0xbdb4c087	-0.08825784
170	0x3d24990e	0.040185027
171	0xbd55f48c	-0.05223517
172	0x3cff1cae	0.031141605
173	0xbc6a2ba3	-0.01429263
174	0xbd29dc4d	-0.04146986
175	0x3e04e650	0.12978482
176	0x3d999dda	0.07500811
177	0x3db9ec01	0.09078217
178	0x3d6dae93	0.058027815
179	0x3d88bfb6	0.06677191
180	0x3b8eb479	0.00435501
181	0x3d8b16b3	0.06791439
182	0x3c6ee863	0.0145817725
183	0x3c612c57	0.013743482
184	0x3d613858	0.054985374
185	0xbd965c54	-0.07341829
186	0xba40ed87	-0.0007359613
187	0xbc6d6ae0	-0.014490813
188	0xbdaaa88e	-0.083329305
189	0xbcdb2bb9	-0.026754247
190	0x3d4c5840	0.04988885
191	0x3da25a23	0.079273485
192	0x3cc448ed	0.023960555
193	0xbdd5d2ff	-0.10440635
194	0x3d9e632a	0.07733758
195	0x3d4231f9	0.04741094
196	0x3da67643	0.081280254
197	0xbd7a8ac4	-0.061167493
198	0xbd33cd5c	-0.043897018
199	0x3da4fc43	0.080559276
200	0xbcc0d072	-0.023536894
201	0xbd0a52c5	-0.03377034
202	0xbdd4ce4b	-0.1039091
203	0xbd1aeaee	-0.037821703
204	0x3d072648	0.032995492
205	0xbe5b1d5c	-0.21397918
206	0xbd34d6d4	-0.04415019
207	0x3cb4b0d4	0.022056974
208	0xbce091a1	-0.027413191
209	0x3d9519b4	0.07280293
210	0xbdb73d32	-0.08947219
211	0xbd6278a5	-0.055290837
212	0xbda75fc5	-0.081725635
213	0xbc964a13	-0.018345868
214	0xbd405d1f	-0.046963807
215	0x3da0ce8a	0.07851894
216	0xbd7c0c19	-0.061534975
217	0xbdc7911c	-0.09744474
218	0xbb027eaf	-0.0019911935
219	0xbd9fcd35	-0.07802812
220	0x3cc19b79	0.023633705
221	0xbc12b434	-0.008954097
222	0xbd188ba3	-0.037242543
223	0x3df0d1be	0.11758755
224	0xbd9d43f3	-0.07678976
225	0x3d8881de	0.06665395
226	0xbc80bc59	-0.015714811
227	0xbde4842c	-0.11158022
228	0xbc879e4e	-0.016554978
229	0x3da03d84	0.07824233
230	0xbd0ae8fd	-0.0339136
231	0x3d821d0f	0.06353199
232	0x3d2ee9a6	0.042703293
233	0xbd3d0ced	-0.046154905
234	0x3c904b8c	0.017614149
235	0xbd17aed2	-0.037031956
236	0xbdbf2ec7	-0.09335094
237	0xbbff7ffa	-0.0077972384
238	0xbcfbbe3f	-0.030730365
239	0xbdc7e899	-0.09761161
240	0x3be55b70	0.0069994256
241	0xbd4eb76b	-0.05046789
242	0x3d5906cf	0.05298501
243	0x3dc36506	0.09540753
244	0x3d53a2ae	0.051668815
245	0xbd877f3e	-0.066160664
246	0x3d23a491	0.039951865
247	0x3d3c338b	0.045947593
248	0x3d706110	0.058686316
249	0x3cfb4b41	0.030675532
250	0x3d072fcd	0.03300457
251	0x3e352357	0.17689262
252	0x3d160b8b	0.036632102
253	0x3d49b33a	0.04924319
254	0xbd4ef371	-0.050525133
255	0xbdc8b012	-0.09799208

layers.1.bias f4 [128]
0	0x3e33c682	0.17556193
1	0xbdfceeab	-0.1235021
2	0x3d615c62	0.055019744
3	0xbc535c55	-0.012900432
4	0xbc9f4919	-0.019444035
5	0x3daac5fd	0.083385445
6	0x3d9def5b	0.07711669
7	0x3d2e47fb	0.042549115
8	0x3de85bea	0.11345656
9	0xbda38a12	-0.07985319
10	0xbd246329	-0.04013363
11	0x3d8f3d0e	0.06994067
12	0xbdac3a9b	-0.084096156
13	0x3d4088e6	0.047005557
14	0xbd3aec00	-0.045635223
15	0xbdce35ec	-0.100688785
16	0x3d80d1f8	0.06290048
17	0xbd84ead5	-0.06490103
18	0x3cc58b3c	0.024114244
19	0x3d152ee7	0.036421683
20	0x3e253c3a	0.16136256
21	0xbde6f217	-0.11276644
22	0xbd097c28	-0.03356567
23	0x3e151026	0.14556941
24	0x3e20760f	0.15670036
25	0x3d8e6a0d	0.06953821
26	0x3dc324a1	0.09528471
27	0x3d0d6e6a	0.034529127
28	0x3d9b05a9	0.07569439
29	0xbd437f20	-0.047728658
30	0x3cfcb980	0.030850172
31	0xbdcd218b	-0.100161634
32	0xbd61575a	-0.055014946
33	0xbd58cea3	-0.05293144
34	0x3d82d569	0.06388361
35	0x3d9af0d2	0.07565464
36	0xbd56799f	-0.05236208
37	0x3d791ce1	0.060818557
38	0xbe0c9b26	-0.1373106
39	0x3e2a5ef1	0.1663778
40	0x3da30bfa	0.07961269
41	0xbe18d4ba	-0.14924899
42	0xbe0a14a0	-0.1348443
43	0xbdad12d6	-0.08450858
44	0xbe39a7b5	-0.18130381
45	0x3e0dc584	0.13844877
46	0xbdfbbf53	-0.122923516
47	0x3e008c17	0.1255344
48	0x3e3489c5	0.1763068
49	0xbdfc2a76	-0.12312786
50	0x3c6ef1f2	0.014584051
51	0x3da6e84f	0.08149778
52	0x3e1493c1	0.14509489
53	0x3da025e7	0.07819729
54	0xbd660888	-0.05616048
55	0x3b8e748e	0.0043473905
56	0x3dbfbf0e	0.09362613
57	0x3ba697bb	0.0050840057
58	0x3d48c178	0.04901263
59	0xbe226904	-0.15860373
60	0x3c344138	0.0110018775
61	0x3cc92894	0.024555482
62	0xbd9e1d67	-0.07720452
63	0xbac90094	-0.0015335255
64	0x3b81d55e	0.003962203
65	0x3c3ed509	0.011647471
66	0x3e1a3d75	0.15062506
67	0xbd27c7e2	-0.040962107
68	0x3e09d023	0.13458304
69	0x3e26ed3c	0.16301435
70	0x3b88020f	0.004150636
71	0x3e09047d	0.13380618
72	0x3c2822fb	0.010262246
73	0xbd8c7e2e	-0.06860004
74	0xbe2f887f	-0.17141913
75	0x3e4a4d88	0.19756138
76	0x3e30d934	0.17270356
77	0xbdc5409d	-0.09631465
78	0x3d87070a	0.065931395
79	0x3d032be7	0.03202429
80	0xbcca71f2	-0.024712536
81	0x3d24ab7f	0.040202614
82	0x3d78451c	0.060612783
83	0x3dc80663	0.09766843
84	0xbdfe0b17	-0.12404459
85	0x3e3143ad	0.17310973
86	0xbe085375	-0.13313086
87	0xbbf79ace	-0.007556296
88	0x3e0a453a	0.1350297
89	0x3dc0316c	0.093844265
90	0x3de5585b	0.11198493
91	0xbe375fa3	-0.17907576
92	0x3df7c776	0.12098591
93	0xbdba854e	-0.09107457
94	0xbd8079d2	-0.062732354
95	0x3bbdc488	0.0057912506
96	0xbd9b9e63	-0.07598569
97	0x3de4807e	0.111573204
98	0xbe05145c	-0.12996048
99	0x3cba3766	0.022731494
100	0xbe2195ca	-0.15779796
101	0x3e45a341	0.19300558
102	0x3da4032a	0.08008416
103	0xbdf7b4ae	-0.12095009
104	0x3debf1aa	0.11520703
105	0xbca236cc	-0.01980152
106	0xbd721ae3	-0.059107672
107	0xbda691a5	-0.08133248
108	0xbcc6d61d	-0.024272019
109	0xbd99e8b5	-0.075150885
110	0xbd42ee3b	-0.047590476
111	0x3c3235cb	0.010877083
112	0x3e20eae6	0.15714607
113	0x3e11339b	0.14179842
114	0xbdba8627	-0.09107619
115	0x3d9e9514	0.07743278
116	0x3d631010	0.05543524
117	0x3dee3136	0.1163048
118	0x3d6f49c8	0.058419973
119	0x3e311630	0.1729362
120	0xbe34ecd6	-0.1766847
121	0xbdb9c601	-0.090709694
122	0x3dc32b61	0.09529758
123	0x3e2a04b8	0.16603363
124	0x3e20c1ea	0.15698972
125	0xbddfe99d	-0.1093323
126	0x3dc601b5	0.09668294
127	0xbcb011a7	-0.021492792

layers.2.weight f4 [64, 128]
0	0xbd454225	-0.048158783
1	0x3e19e952	0.15030411
2	0x3c9d0416	0.019166987
3	0x39ddbf6c	0.00042295025
4	0xbd695903	-0.056969654
5	0x397c761a	0.00024076589
6	0xbd9306c4	-0.07179025
7	0x3decdc6a	0.11565478
8	0x3c40c1b1	0.01176493
9	0x3dc188fb	0.09449955
10	0xbb52a4ea	-0.0032141753
11	0xbd6c6f58	-0.057723373
12	0x3e25a1f3	0.1617506
13	0x3d096d9e	0.033551805
14	0x3d7ebeae	0.062193565
15	0x3dffbdfe	0.1248741
16	0x3c112c29	0.008860626
17	0x3da7881d	0.081802584
18	0xbd7595aa	-0.059957184
19	0xbd037e28	-0.032102734
20	0xbdb6c6ce	-0.08924638
21	0x3e1f20ba	0.15539828
22	0xbce42df5	-0.027853945
23	0xbd808a0a	-0.06276329
24	0xbdf6342d	-0.120216705
25	0xbd90690b	-0.07051285
26	0xbcd8c39a	-0.026460458
27	0xbd2c5168	-0.042069823
28	0xbe1a9ce6	-0.15098915
29	0x3d732ef4	0.05937095
30	0xbd9cbc0a	-0.07653053
31	0x3db9bf43	0.090696834
32	0x3da7e5af	0.081981055
33	0x3d73680f	0.05942541
34	0xbcd152d0	-0.025552183
35	0xbe3863f4	-0.18006879
36	0x3c8612a4	0.01636631
37	0x3da2afca	0.07943685
38	0x3d81e119	0.06341762
39	0xbc0cbe0f	-0.008590235
40	0xbdac6d7e	-0.084193215
41	0x3d438b9c	0.047740564
42	0x3c7497f7	0.014928809
43	0x3d4a6849	0.04941586
44	0x3ccb0951	0.024784716
45	0xbd7d48a6	-0.06183686
46	0x3e1dfc8a	0.15428367
47	0xbde59250	-0.112095475
48	0xbe1c921e	-0.15290114
49	0x3d0e0f0b	0.034682315
50	0x3d8cb221	0.06869913
51	0xbdc3a2e0	-0.0955255
52	0xbe3330dc	-0.17499107
53	0x3ca27b0a	0.01983406
54	0x3e0e6d32	0.13908842
55	0x3d9d3dfa	0.07677837
56	0xbd83e7f8	-0.06440729
57	0x3b51056e	0.0031894105
58	0xbdeea405	-0.11652378
59	0x3d2b2e50	0.041792214
60	0x3cc058d9	0.023479866
61	0xbc8e4853	-0.017368471
62	0x3989efaf	0.00026309254
63	0x3de420c8	0.11139065
64	0xbbdbe9a1	-0.0067112003
65	0xbdae57e2	-0.08512856
66	0xbe1de686	-0.15419969
67	0x3e1280aa	0.14306894
68	0x3d1f784d	0.038933087
69	0xbe04d6ed	-0.12972613
70	0xbdd50519	-0.10401363
71	0xbdb2ab7a	-0.08724113
72	0xbdf14cd7	-0.11782234
73	0x3c800fa3	0.015632456
74	0x3d5635ff	0.05229759
75	0xbe3465d2	-0.17616966
76	0xbdfe8862	-0.12428357
77	0x3df92473	0.12165155
78	0xbe2d8825	-0.16946466
79	0x3cb6c36f	0.022309987
80	0x3cf2f455	0.029657522
81	0xbdb8df76	-0.09026997
82	0xbd7b6cd8	-0.0613831
83	0xbcfd21c2	-0.030899886
84	0xbcd135b9	-0.025538312
85	0xbc98ad38	-0.018637285
86	0x3db7000f	0.08935558
87	0x3cdbc915	0.026829282
88	0xbe14b520	-0.14522219
89	0xbe45745d	-0.1928267
90	0xbde6788e	-0.11253463
91	0x3dc371c5	0.09543184
92	0xbe059b28	-0.13047469
93	0x3e1e3394	0.15449363
94	0x3dda213a	0.10650869
95	0xbd2a39a9	-0.041558895
96	0x3d53c7c5	0.051704187
97	0xbe07e900	-0.13272476
98	0x3e176920	0.14786196
99	0x3c8aa9df	0.016926704
100	0x3d9af80a	0.07566841
101	0xbd673080	-0.056442738
102	0xbe1d9bf4	-0.15391523
103	0x3e01fc4d	0.12693901
104	0xbd867205	-0.06564716
105	0xbd2504e4	-0.040287867
106	0x3d8a9200	0.067661285
107	0xbbbebca0	-0.0058208257
108	0x3c639bef	0.013892158
109	0x3da7a960	0.081866026
110	0xbc1f0b36	-0.009707263
111	0xbada9897	-0.0016677555
112	0xbe055ef4	-0.13024503
113	0xbe19a6be	-0.15005013
114	0x3e21f61d	0.15816541
115	0xbd088c41	-0.03333688
116	0xbcaa2daa	-0.020773727
117	0xbe16cd3a	-0.14726725
118	0x3d7a2358	0.061068863
119	0xbe417d38	-0.18895423
120	0x3de95397	0.113928966
121	0x3cba0c62	0.022710983
122	0xbdc068f6	-0.0939502
123	0xbe4041e5	-0.18775137
124	0xbe1ffc18	-0.1562351
125	0xbbbf5a07	-0.0058395895
126	0xbd6dca48	-0.05805424
127	0x3dc50204	0.09619525
128	0xbcf23f50	-0.029571205
129	0x3e020c6c	0.12700051
130	0xbe1036d7	-0.1408342
131	0x3d17e449	0.037082944
132	0xbce00f6a	-0.0273511
133	0x3b4db77b	0.003138988
134	0xbdff1518	-0.12455195
135	0xbda177c6	-0.07884173
136	0x3c994c53	0.018713152
137	0x3de38034	0.11108437
138	0xbdd84e44	-0.10561803
139	0xbe05fc59	-0.13084544
140	0x3d688b0c	0.05677323
141	0x3dea7c11	0.11449445
142	0x3e091b6d	0.13389368
143	0x3cdbd51a	0.026835013
144	0xbccb1eeb	-0.024795016
145	0x3d07250d	0.03299432
146	0xbe0781cc	-0.13233107
147	0xbdf49edb	-0.11944362
148	0xbcc75f0c	-0.024337314
149	0x3ddf82b6	0.10913603
150	0x3da31292	0.079625264
151	0xbc1148f9	-0.008867496
152	0xbd2fb9ad	-0.042901684
153	0xbdcfedec	-0.10152802
154	0xbdf3a31e	-0.118963465
155	0xbdab8312	-0.08374609
156	0xbdc60ce0	-0.096704245
157	0x3dbe092c	0.09279093
158	0xbd8418f3	-0.06450071
159	0x3e24507b	0.16046326
160	0x3d52137d	0.051288117
161	0x3dbba73f	0.09162759
162	0xbdd011d6	-0.10159652
163	0x3c947f9c	0.018127255
164	0x3d2739ad	0.04082649
165	0xbd3ec096	-0.046570383
166	0x3dd67248	0.10471016
167	0xbde80b26	-0.113302514
168	0xbd89a33c	-0.067205876
169	0xbca4cd88	-0.020117536
170	0x3db8c2b8	0.09021515
171	0x3d841217	0.06448763
172	0x3d122462	0.03567923
173	0x3cdc2fa3	0.026878184
174	0x3c59acbb	0.013285811
175	0xbe0a6c81	-0.13517953
176	0xbd8088b5	-0.06276075
177	0x3df0b49d	0.11753199
178	0xbd172bc8	-0.036906987
179	0xbd9e3533	-0.07724991
180	0xbd672f83	-0.056441795
181	0xbdf6ff30	-0.12060392
182	0x3e08cc43	0.1335917
183	0xbc9a8ed9	-0.018866943
184	0xbdaaeb38	-0.08345646
185	0xbd959c20	-0.07305169
186	0xbd47cdc6	-0.048780225
187	0x3d9829f1	0.07429875
188	0x3b4bd93a	0.003110482
189	0xbe05d55b	-0.1306967
190	0x3d9c7979	0.076403566
191	0xbba14c9a	-0.0049224617
192	0x3dc38130	0.09546125
193	0x3d1c01a9	0.03808752
194	0xbb87fb19	-0.004149806
195	0x3bd0f2d2	0.0063766027
196	0x3ad225a9	0.0016032952
197	0xbd8ce64c	-0.06879863
198	0x3d1a8094	0.037720278
199	0xbcc4b562	-0.024012271
200	0x3a035d71	0.0005011177
201	0x3e17bbe0	0.14817762
202	0x3d44af6b	0.048018854
203	0xbe12ce74	-0.14336568
204	0xbdc90184	-0.09814742
205	0xbd021c59	-0.031765316
206	0xbca7f5db	-0.020502975
207	0xbb937962	-0.004500554
208	0x3dd84eab	0.1056188
209	0xbdb69ca3	-0.08916595
210	0x3b63009a	0.003463781
211	0xbce74058	-0.028228924
212	0x3e12940c	0.14314288
213	0xbe05a269	-0.13050236
214	0x3ded289c	0.11580011
215	0xbd95f37a	-0.0732183
216	0xbdef6799	-0.116896816
217	0x3c1b9bac	0.009497564
218	0xbda69d3c	-0.08135459
219	0x3e022aaa	0.12711588
220	0xbd1f4717	-0.038886156
221	0x3d8441d5	0.06457869
222	0x3e19f4b3	0.15034752
223	0xbd0a5071	-0.03376812
224	0xbcd476d2	-0.025935564
225	0x3cd0de79	0.025496708
226	0x3e0b2c7b	0.13591187
227	0xbd5c41ff	-0.053773876
228	0x3de8298b	0.11336049
229	0xbdc9fb5e	-0.098623976
230	0xbc720f70	-0.014774188
231	0x3d6de8ec	0.05808346
232	0xbe06051f	-0.13087891
233	0x3d9fae6b	0.077969395
234	0x3de53741	0.111921795
235	0xbcd37289	-0.02581145
236	0xbd979e93	-0.074032925
237	0x3e244385	0.16041382
238	0x3d953af9	0.07286639
239	0x3cecfc5e	0.028928932
240	0xbdda27f0	-0.10652149
241	0x3bc8e46a	0.0061307447
242	0x3e0a7219	0.13520087
243	0xbe0661b1	-0.13123204
244	0xbd6a5e7b	-0.05721901
245	0xbde19080	-0.11013889
246	0xbde9a6ff	-0.11408805
247	0xbd92e036	-0.07171671
248	0x3dc46e87	0.09591394
249	0xbcf96622	-0.030444209
250	0xbde39b01	-0.11113549
251	0xbdd842e3	-0.10559633
252	0xbdb15863	-0.086594366
253	0x3cfa9034	0.03058634
254	0xbc934ca7	-0.017980887
255	0xbc9e48e8	-0.019321874

layers.2.bias f4 [64]
0	0xbcee9c6f	-0.029127328
1	0x3bde350b	0.0067812256
2	0xbe1ab6cf	-0.15108798
3	0xbd561f0f	-0.052275714
4	0xbd6c43e2	-0.057681926
5	0x3de9832d	0.11401973
6	0xbde5a285	-0.11212639
7	0xbd11a01b	-0.03555308
8	0x3d228d0f	0.039685305
9	0xbd8b439c	-0.06800005
10	0x3cbb65f9	0.022875773
11	0x3dc8b008	0.097992
12	0xbce7d673	-0.0283005
13	0xbd1f29d6	-0.038858257
14	0x3e18016f	0.14844297
15	0x3d5f0996	0.0544525
16	0xbd5efa64	-0.05443801
17	0x3ce68717	0.028140588
18	0x3d95202c	0.07281527
19	0x3c103688	0.008802064
20	0x3dd6d80c	0.104904264
21	0xbb1becc1	-0.002379224
22	0xbdc1a4e9	-0.09455282
23	0xbd31ee18	-0.043439955
24	0x3cbb3f22	0.022857253
25	0x3d79789a	0.06090603
26	0x3cf81d24	0.030287333
27	0x3b8a3817	0.004218112
28	0x3e151af0	0.14561057
29	0x3d8bfcb7	0.06835311
30	0xbdcba603	-0.099437736
31	0x3e13c2be	0.14429757
32	0xbe13930f	-0.14411567
33	0x3e34801c	0.17626995
34	0xbd7a0d9d	-0.06104814
35	0xbd715099	-0.058914755
36	0x3b9c2c44	0.004766019
37	0x3db5aae9	0.08870489
38	0x3dbd2ea4	0.092374116
39	0xbc816ded	-0.015799487
40	0xbd96df3d	-0.07366798
41	0xbdd33295	-0.10312382
42	0xbda78302	-0.08179285
43	0x3e19e358	0.15028131
44	0x3e1bb6e7	0.1520649
45	0x3e2adbde	0.16685435
46	0xbd947695	-0.0724918
47	0xbbeba900	-0.007191777
48	0xbce653bd	-0.028116101
49	0xbd46d223	-0.048540246
50	0x3c9bfafb	0.019040575
51	0xbc63b23a	-0.013897473
52	0x3e1f4620	0.15554094
53	0xbd8e6131	-0.069521315
54	0xbbccb15b	-0.0062467284
55	0x3d5efe42	0.054441698
56	0xbddeeca4	-0.10884979
57	0xbddd78cd	-0.108140565
58	0xbd584666	-0.052801512
59	0xbd9a47ff	-0.075332634
60	0x3cba9dee	0.022780385
61	0x3e131446	0.14363202
62	0xbdbd0ef6	-0.09231369
63	0xbe1461da	-0.14490452

readout.weight f4 [1, 64]
0	0x3f5af96c	0.8553684
1	0x3f5d3b72	0.8641883
2	0x3f5cc890	0.86243534
3	0xbf6a5afe	-0.91545093
4	0xbf5d34bb	-0.86408585
5	0xbf64d923	-0.89393824
6	0x3f54460b	0.8291938
7	0x3f70fb5a	0.9413353
8	0xbf5d79da	-0.86514056
9	0x3f63b2d4	0.88944745
10	0xbf5a7188	-0.85329485
11	0xbf641da7	-0.89107746
12	0x3f57b1d5	0.84255725
13	0x3f4d33bf	0.80157083
14	0xbf64cc9e	-0.8937472
15	0x3f59adc3	0.85030764
16	0x3f52e2f8	0.82377577
17	0x3f67b4c2	0.9051019
18	0xbf58cbd0	-0.84685993
19	0xbf6f86f0	-0.93565273
20	0xbf5d431b	-0.8643052
21	0x3f5f25f5	0.8716729
22	0x3f632d47	0.8874096
23	0x3f6d9c05	0.9281619
24	0xbf5e111b	-0.8674485
25	0xbf645e30	-0.8920622
26	0xbf54ebba	-0.8317219
27	0x3f5eba6a	0.87003195
28	0xbf621133	-0.88307494
29	0xbf632164	-0.88722825
30	0x3f6c63c2	0.9233972
31	0xbf4cb943	-0.79970187
32	0x3f4fa4b4	0.8111069
33	0xbf5f230b	-0.87162846
34	0x3f5b013c	0.8554876
35	0xbf5dce68	-0.86643076
36	0x3f5fc6a1	0.8741246
37	0xbf6cedd0	-0.92550373
38	0xbf6378a1	-0.8885594
39	0xbf5cb2b7	-0.862102
40	0x3f60a9a2	0.8775884
41	0x3f680e00	0.9064636
42	0x3f5ff0a8	0.8747659
43	0xbf526926	-0.82191694
44	0xbf5d71b3	-0.86501616
45	0xbf4e3366	-0.8054718
46	0x3f5a9523	0.85383815
47	0xbf73b365	-0.9519561
48	0x3f5eb10d	0.8698891
49	0x3f6a9a65	0.9164184
50	0xbf5cf40e	-0.863099
51	0x3f5ed5d4	0.87045026
52	0xbf6f0010	-0.9335947
53	0x3f51de0c	0.8197944
54	0xbf66bcf6	-0.9013208
55	0xbf66d02e	-0.90161407
56	0x3f4d7dee	0.8027028
57	0x3f5d8560	0.8653164
58	0xbf65371c	-0.89537215
59	0x3f572342	0.84038174
60	0x3f653a98	0.8954253
61	0xbf60156f	-0.87532705
62	0x3f651c18	0.8949599
63	0x3f5a1fd4	0.85204816

layers.0.weight f4 [128, 3]
0	0x3ebd6477	0.3699071
1	0x3e269241	0.16266729
2	0x3f30706f	0.6892156
3	0xbf15e9c2	-0.5855981
4	0x3f515e77	0.81784767
5	0xbe4783d1	-0.19483878
6	0x3e5c6fc9	0.21527018
7	0x3e08c2e0	0.13355589
8	0xbf0bab2d	-0.5455807
9	0x3e2ea9f9	0.17057027
10	0xbf6a1dc4	-0.9145167
11	0x3f08d9d1	0.5345736
12	0xbe31ff93	-0.1738265
13	0xbf3df41a	-0.74200594
14	0x3ede35d7	0.43400452
15	0x3bb0db25	0.005397218
16	0xbf40167d	-0.75034314
17	0x3e0dc2d9	0.1384386
18	0xbeb6b3df	-0.35684106
19	0xbf897445	-1.0738608
20	0x3d9d9bae	0.07695709
21	0xbebabcc5	-0.36472145
22	0xbef8be4a	-0.4858268
23	0x3ee9ad35	0.4563996
24	0x3bd4a2d2	0.0064891363
25	0xbf08d4a3	-0.5344946
26	0x3efbce05	0.49180618
27	0xbef58f70	-0.47960997
28	0x3efa7322	0.48915964
29	0x3d85bc22	0.06530024
30	0x3f2de3ee	0.6792592
31	0xbebdef1a	-0.37096483
32	0xbe607d68	-0.21922839
33	0x3ecf2fbc	0.40466106
34	0xbd4db3b9	-0.050220225
35	0xbecbc09d	-0.3979539
36	0x3e8b2fa2	0.27184778
37	0x3ee5a4b7	0.4485223
38	0xbd9e9407	-0.07743078
39	0x3eb22315	0.3479239
40	0xbf851f48	-1.0400171
41	0x3eadb0d6	0.33923978
42	0x3f351556	0.7073568
43	0xbdca2cd2	-0.0987183
44	0xbd3b9247	-0.045793798
45	0xbedf8100	-0.43653107
46	0xbf80142c	-1.0006156
47	0x3e14d8d6	0.14535841
48	0xbf1929c7	-0.5982937
49	0x3f8274f9	1.0191947
50	0x3f01861a	0.5059525
51	0xbe167325	-0.14692362
52	0x3dc968b7	0.09834426
53	0xbe93f982	-0.28901297
54	0x3f1be849	0.60901314
55	0x3e203079	0.15643491
56	0x3e0d85cd	0.13820572
57	0xbe502f97	-0.20330654
58	0x3dfeb757	0.12437313
59	0xbedaa9d6	-0.427077
60	0xbdd59e01	-0.104305275
61	0x3f1b132e	0.6057614
62	0x3e9bfffa	0.30468732
63	0xbf190787	-0.5977711
64	0x3ee647a9	0.44976547
65	0x3dc38c85	0.09548286
66	0x3e254441	0.16139318
67	0x3ed342b5	0.4126183
68	0xbef40d29	-0.4766629
69	0x3e015f4f	0.12634014
70	0xbd01ac93	-0.03165872
71	0xbe922e0a	-0.2855075
72	0x3e269730	0.16268611
73	0xbead1a14	-0.3380896
74	0xbef8796a	-0.48530132
75	0xbee41343	-0.44545946
76	0x3e57cc1e	0.21073958
77	0x3ce9fefb	0.028563967
78	0x3ee133a6	0.43984717
79	0xbf167fa5	-0.5878852
80	0x3ec3b9ca	0.38227683
81	0x3f03acc5	0.514355
82	0xbe4ed527	-0.20198499
83	0xbe07eaea	-0.13273206
84	0xbef02502	-0.46903235
85	0x3e4caa90	0.1998694
86	0xbc50defb	-0.012748475
87	0xbf1793c5	-0.59209853
88	0x3f567358	0.8376975
89	0xbf0e5252	-0.5559436
90	0xbe96e291	-0.2946973
91	0x3dce85d4	0.100841194
92	0x3f101fe0	0.5629864
93	0x3ced622b	0.028977474
94	0x3f19ac34	0.60028386
95	0xbd054755	-0.03253873
96	0x3e218eb5	0.15777095
97	0xbec665f2	-0.38749653
98	0xbed8d115	-0.42347017
99	0x3e88b485	0.26700225
100	0x3e496f0b	0.19671266
101	0x3f19eeeb	0.60130185
102	0xbe8593c9	-0.26089314
103	0xbe793cca	-0.24339595
104	0x3ee3c0a1	0.44482902
105	0x3eb42392	0.35183388
106	0x3f1872a9	0.5954996
107	0x3b98835a	0.00465433
108	0x3df30bc4	0.118674785
109	0x3f504fdb	0.8137185
110	0x3e4e9e39	0.20177545
111	0xbe0865cc	-0.13320082
112	0x3e501750	0.20321393
113	0xbec5ab26	-0.38607138
114	0xbf064734	-0.524524
115	0xbe69b61f	-0.2282338
116	0xbe2679a7	-0.16257344
117	0x3f10faf8	0.5663295
118	0xbeb97629	-0.36222962
119	0xbef26950	-0.47345972
120	0xbe0422ba	-0.12903872
121	0x3f139c54	0.5766041
122	0xbeb5133b	-0.35366234
123	0xbf212d05	-0.6295932
124	0xbf5ad00b	-0.854737
125	0x3d8ab01b	0.06771871
126	0x3dfe6792	0.12422098
127	0x3f76f7be	0.96471775
128	0xbe55afdb	-0.20867865
129	0x3d913db9	0.07091851
130	0x3e960571	0.29301026
131	0xbec76ab3	-0.38948593
132	0xbe2bc6d5	-0.16775067
133	0xbf6e0196	-0.9297117
134	0x3e4ec0e1	0.20190765
135	0x3f481d44	0.78169656
136	0xbf063fa0	-0.52440834
137	0xbf13dc50	-0.57758045
138	0x3d847a4b	0.06468638
139	0x3f33bd7d	0.7021101
140	0xbcd75cae	-0.02628931
141	0xbef9a70b	-0.48760256
142	0xbeaba388	-0.33523202
143	0xbf072412	-0.52789414
144	0xbccc8486	-0.024965536
145	0x3f1516d4	0.5823796
146	0x3ee50375	0.447292
147	0xbec7acd2	-0.3899904
148	0x3f5918a3	0.8480322
149	0x3e393361	0.18086006
150	0xbe9d873b	-0.30767235
151	0x3f228b62	0.6349393
152	0xbecf1087	-0.40442297
153	0xbe0c5839	-0.1370553
154	0x3f0c0ffb	0.54711884
155	0x3e1b8a00	0.15189362
156	0xbe9f17de	-0.31072897
157	0xbf411a3a	-0.75430644
158	0xbed37c8a	-0.41305953
159	0xbe943e1e	-0.28953642
160	0xbeb6e5e5	-0.3572227
161	0xbd846aa2	-0.06465651
162	0x3ed0f60a	0.40812713
163	0x3f0b81a8	0.54494715
164	0x3d8584fb	0.06519505
165	0x3f16b522	0.58870137
166	0x3f3374ad	0.7009991
167	0x3e39ea0b	0.18155687
168	0x3e5f2305	0.21790703
169	0xbebe3c4a	-0.37155372
170	0x3e8bf8db	0.273383
171	0x3ee19588	0.44059396
172	0xbd65726a	-0.056017317
173	0xbf07cf1a	-0.53050387
174	0xbeeea1d1	-0.4660783
175	0xbf3a93d9	-0.7288185
176	0x3d55c895	0.052193243
177	0xbecca87b	-0.3997229
178	0x3f156a59	0.583654
179	0xbe9431f6	-0.28944367
180	0x3f111edd	0.5668772
181	0x3f17c937	0.59291404
182	0xbedb5081	-0.42834857
183	0xbedbec10	-0.4295354
184	0x3f029db0	0.5102186
185	0xbc9d2c05	-0.01918603
186	0xbf0bb675	-0.5457528
187	0x3d9094b6	0.07059614
188	0xbcbc5dec	-0.022994004
189	0xbd39b194	-0.045335367
190	0x3ef272ca	0.47353202
191	0x3e485e83	0.19567303
192	0xbd322b6b	-0.043498438
193	0x3f4dffe5	0.8046859
194	0x3e957c02	0.29196173
195	0xbe9997ad	-0.29998532
196	0xbf530df7	-0.82443184
197	0xbece70c6	-0.40320414
198	0x3e7e730a	0.24848571
199	0x3cfd4efb	0.03092145
200	0x3ebf697d	0.3738517
201	0xbe047e9a	-0.1293892
202	0x3f6bdccc	0.92133784
203	0xbe0dc93a	-0.13846293
204	0xbd894f06	-0.06704526
205	0xbf382b98	-0.7194152
206	0xbefc9a89	-0.4933665
207	0x3d44b593	0.048024725
208	0x3f4bdeb7	0.7963671
209	0xbf03ae8e	-0.51438224
210	0x3e66ad29	0.22526993
211	0xbf219861	-0.63123137
212	0x3eeea11c	0.46607292
213	0xbf035060	-0.5129452
214	0x3ee197e9	0.4406121
215	0xbeb12c41	-0.34604076
216	0xbe92e3a2	-0.28689295
217	0xbe6dfbaa	-0.23240533
218	0xbe800880	-0.25006485
219	0x3f2332a9	0.63749176
220	0x3e8862e7	0.26637957
221	0x3da7edb9	0.08199639
222	0xbd0fa8e9	-0.035073195
223	0x3f1d2f3d	0.61400205
224	0xbd63fda6	-0.05566182
225	0xbf0ed4da	-0.55793536
226	0x3f35d132	0.7102233
227	0xbed7e059	-0.4216335
228	0x3e78d979	0.24301709
229	0xbf2e5e30	-0.6811247
230	0x3e956f2d	0.29186383
231	0x3daf5d7e	0.08562754
232	0x3eced912	0.40399987
233	0x3f0d3355	0.5515645
234	0xbe3555fd	-0.17708583
235	0x3ee83c01	0.4535828
236	0x3dc7f535	0.097635664
237	0xbf1eabea	-0.6198107
238	0x3f01eed8	0.5075507
239	0x3df0ac61	0.11751629
240	0xbd6a45a9	-0.05719534
241	0xbd3efd9d	-0.046628583
242	0xbe60b8b6	-0.21945462
243	0xbe7f0b4a	-0.2490665
244	0x3f05e509	0.52302605
245	0x3f0bb2fb	0.5456998
246	0xbeaea0eb	-0.34107146
247	0xbe606bea	-0.21916166
248	0xbd1ad602	-0.03780175
249	0xbe57ac19	-0.21061744
250	0x3d713d4e	0.058896355
251	0xbf02e095	-0.51123935
252	0x3dd419a1	0.10356451
253	0x3f515177	0.8176493
254	0x3eade602	0.33964545
255	0x3cf49ba0	0.029859364

layers.0.bias f4 [128]
0	0xbeba9ef4	-0.36449397
1	0xbe9f4a8c	-0.31111562
2	0xbf2d5e3f	-0.67721933
3	0x3ee9a1ad	0.4563116
4	0x3ceffa0f	0.029294042
5	0xbe51a7df	-0.20474194
6	0xbd75ba06	-0.05999186
7	0x3eab050a	0.33402282
8	0xbf042ea7	-0.51633686
9	0xbcf6a454	-0.030107655
10	0xbd1b9b01	-0.03798962
11	0xbef1884f	-0.47174308
12	0xbe0a2338	-0.13489997
13	0x3f2ce262	0.6753293
14	0x3ef7c196	0.48389882
15	0x3dcddf4f	0.10052358
16	0xbe987a9d	-0.29781047
17	0x3f0a04c4	0.5391352
18	0x3e9155ad	0.28385678
19	0x3ee22fbf	0.44177052
20	0x3de60229	0.11230881
21	0x3e04fe1f	0.12987565
22	0xbea9f7e0	-0.33196926
23	0xbf19bda4	-0.60054994
24	0x3e899658	0.26872516
25	0x3d0427fd	0.0322647
26	0xbd3c221c	-0.045930967
27	0x3f040744	0.51573586
28	0xbde66d6f	-0.112513416
29	0xbdaca57a	-0.0843
30	0xbeb3f6ce	-0.35149235
31	0x3e0f78d5	0.14010938
32	0x3e160678	0.14650905
33	0xbe8c1168	-0.2735703
34	0x3eff1139	0.49817827
35	0x3eeb95d1	0.46012738
36	0x3e98fd29	0.29880646
37	0xbd25eb0f	-0.040507372
38	0x3ee1f7d2	0.44134384
39	0x3d961a34	0.073292166
40	0x3df23f50	0.11828482
41	0xbe917db9	-0.2841623
42	0x3ed16f8b	0.40905413
43	0x3e2b7612	0.16744259
44	0x3e8ff234	0.28114474
45	0xbdeb08b8	-0.11476272
46	0x3e249f6c	0.1607644
47	0x3eff862f	0.4990706
48	0x3e980735	0.29693
49	0x3f143741	0.5789681
50	0xbe23a638	-0.15981376
51	0xbea760fe	-0.32691187
52	0xbd92b4a4	-0.07163361
53	0x3eb75283	0.3580514
54	0xbe9ae48b	-0.3025249
55	0xbe22e15d	-0.15906282
56	0xbdeecb32	-0.1165985
57	0x3ea45592	0.32096535
58	0xbc0851f5	-0.008320321
59	0xbe3498b1	-0.17636372
60	0xbe18c153	-0.14917497
61	0xbeb8676c	-0.36016405
62	0x3e7ba88e	0.24576017
63	0xbe488a99	-0.19584121
64	0x3f0b3f77	0.54393715
65	0xbdc25893	-0.094895504
66	0x3e4014ce	0.18757936
67	0x3e2b7e50	0.16747403
68	0x3e6e0308	0.23243344
69	0x3e9d858a	0.30765945
70	0xbeb5348a	-0.35391647
71	0x3e41751f	0.18892334
72	0x3e4802f0	0.1953237
73	0xbb293c34	-0.0025823237
74	0xbeac840b	-0.3369449
75	0xbe8a3691	-0.26994756
76	0x3f18be67	0.5966553
77	0xbdb89b63	-0.09014013
78	0x3ed43977	0.41450092
79	0x3ed91d5c	0.42405212
80	0x3ea69da8	0.32542157
81	0xbc8d4f70	-0.017249793
82	0x3eb059a3	0.34443387
83	0xbf0e12cd	-0.5549744
84	0x3ef757d1	0.48309186
85	0xbebbb4e4	-0.36661446
86	0x3d2f676e	0.042823248
87	0xbe5ee0d1	-0.21765448
88	0xbf00052a	-0.5000788
89	0x3e3b3113	0.18280439
90	0xbf181fa8	-0.59423304
91	0x3f1e2cd3	0.61787146
92	0x3f0aa10a	0.54151976
93	0x3e6144bf	0.21998881
94	0x3e991d82	0.29905325
95	0xbd853968	-0.0650509
96	0x3e21f119	0.15814628
97	0x3ba0e7bf	0.004910439
98	0xbeb6d647	-0.35710356
99	0xbd93a082	-0.07208349
100	0xbd317f7d	-0.043334473
101	0xbef75f8d	-0.48315087
102	0x3e2af209	0.16693892
103	0x3f25ba38	0.6473727
104	0xbdd1a164	-0.10235861
105	0x3e42b61d	0.19014783
106	0xbd7eef9a	-0.06224022
107	0xbab71421	-0.0013967791
108	0xbdb30d6c	-0.087427944
109	0xbe860a5e	-0.26179785
110	0x3ebfd612	0.3746801
111	0xbf082c8a	-0.5319296
112	0x3f04c2ff	0.5186004
113	0xbea3f8a4	-0.32025635
114	0x3eaf9702	0.34294897
115	0xbe46112f	-0.19342493
116	0x3eca2f99	0.3948944
117	0x3f25d29c	0.6477449
118	0xbeb47916	-0.3524863
119	0x3ec8dc74	0.39230692
120	0xbea814ba	-0.32828313
121	0x3dab17fd	0.08354185
122	0x3e8f97a2	0.28045374
123	0x3eee3010	0.46521044
124	0x3e9a7ac1	0.3017178
125	0xbd548f7e	-0.051894657
126	0x3cef87bb	0.029239526
127	0x3d00afaa	0.031417526

layers.1.weight f4 [128, 128]
0	0x3dd6e4d4	0.10492864
1	0x3d8b62b1	0.06805933
2	0xbd3aa3e4	-0.045566455
3	0xbe053c63	-0.13011317
4	0xbdefcc70	-0.11708915
5	0xbdc38b9d	-0.095481135
6	0xbe7de897	-0.24795757
7	0xbd118c61	-0.035534266
8	0xbd235f7d	-0.039885987
9	0x3d33db8a	0.04391054
10	0xbcefa236	-0.029252153
11	0x3d393981	0.045220856
12	0xbd8c5a41	-0.06853152
13	0xbd982062	-0.074280515
14	0xbb9912b3	-0.0046714186
15	0xbe4f4f92	-0.20245197
16	0x3cc719a8	0.024304226
17	0x3c91eb4d	0.017812395
18	0x3d1c925e	0.038225524
19	0x3ce6a013	0.028152501
20	0x3d2ee4d4	0.042698696
21	0x3b6d0c85	0.0036170792
22	0x3c059c83	0.008154991
23	0x3cbfd2c5	0.023415932
24	0xbdd4c9d4	-0.10390058
25	0x3dc0a482	0.094063774
26	0xbd8b5209	-0.06802756
27	0xbdb253df	-0.087074034
28	0x3cc7eab0	0.0244039
29	0x3d950a1c	0.07277319
30	0xbd3f4fe2	-0.04670704
31	0x3e1163dd	0.14198251
32	0x3cc69713	0.02424196
33	0x3d31a35d	0.043368686
34	0xbdc6c8bf	-0.09706258
35	0x3b82c08d	0.003990239
36	0x3e72ed9e	0.23723456
37	0x3d5458b7	0.051842418
38	0x3c1d88e0	0.009615153
39	0xbac298d3	-0.001484657
40	0x3c108fa7	0.008823312
41	0xbde9d6cc	-0.114179224
42	0xbd7b4000	-0.061340332
43	0x3cea09fd	0.028569216
44	0xbe781faf	-0.24230836
45	0x3bcfccca	0.0063415514
46	0x3e0e333d	0.13886733
47	0xbc30dc17	-0.010794661
48	0x3d4685d0	0.048467457
49	0x3dd2e787	0.102980666
50	0x3b61f8ea	0.003448064
51	0xbe024b90	-0.12724137
52	0x3d8d6538	0.069040716
53	0xbd153294	-0.03642519
54	0x3e4a7a61	0.19773246
55	0x3ceb0607	0.028689397
56	0x3ce959e7	0.028485252
57	0xbde07700	-0.109601974
58	0xbcc181f7	-0.023621542
59	0xbd93b283	-0.07211783
60	0xbc9121c0	-0.017716289
61	0x3eb1bfce	0.34716648
62	0xbc89a3ed	-0.016801799
63	0xbc749cd5	-0.01492997
64	0x3e01426c	0.12622994
65	0xbd878197	-0.06616514
66	0xbca38a5d	-0.019963438
67	0x3cd15fdf	0.02555841
68	0xbdad39f7	-0.084583215
69	0x3da84544	0.08216336
70	0xbd452d7f	-0.04813909
71	0x3d2b3177	0.04179522
72	0x3c804143	0.01565612
73	0x3e27b268	0.1637665
74	0xbe5e2a7a	-0.21695891
75	0xbcaabe9d	-0.020842845
76	0xbbbefb59	-0.005828303
77	0x3cda98d4	0.026684202
78	0x3dc7e1fa	0.097598985
79	0x3de02a29	0.109455414
80	0xbd3a5e66	-0.04550018
81	0x3d8944f1	0.06702603
82	0x3d970111	0.0737325
83	0xbd35b7fc	-0.044364914
84	0x3d99dd0b	0.07512864
85	0x3d80e2ca	0.062932566
86	0xbc62a24b	-0.013832639
87	0x3c55d671	0.013051615
88	0xbd26bb96	-0.04070624
89	0xbe0091e0	-0.12555647
90	0xbc826a9e	-0.01591998
91	0xbd41e50c	-0.047337577
92	0xbb9e00d3	-0.0048218756
93	0xbd6f762f	-0.058462318
94	0xbd89874e	-0.067152604
95	0x3da098cf	0.07841646
96	0x3b7701ee	0.003769036
97	0x3e0351cb	0.1282417
98	0x3ceb71ca	0.028740782
99	0xbcc8dd16	-0.024519484
100	0x3de087b6	0.10963385
101	0xbce55112	-0.027992759
102	0xbe3845fb	-0.17995445
103	0x3d0bc33a	0.03412173
104	0xbd83787b	-0.06419464
105	0x3d07f863	0.033195864
106	0x3d3433dd	0.043994773
107	0xbd3afb02	-0.045649536
108	0xbb8840c7	-0.0041581127
109	0xbd9fd9cf	-0.078052156
110	0x3c3bfb08	0.011473425
111	0xbd6fed20	-0.05857575
112	0xbc8e9872	-0.017406676
113	0x3daa072f	0.083021514
114	0x3dc95e17	0.09832399
115	0x3ce34d81	0.027746918
116	0xbc62948e	-0.0138293635
117	0xbde2a43f	-0.11066484
118	0x3d26d04d	0.040725995
119	0x3dd2bfd7	0.10290497
120	0xbd305e60	-0.043058753
121	0x3bf18357	0.0073703933
122	0x3db91616	0.09037416
123	0xbcf59877	-0.029979927
124	0xbe19413a	-0.14966288
125	0x3d5da328	0.054110676
126	0x3cbc8171	0.023010941
127	0x3c832cad	0.016012514
128	0x3acd4293	0.00156601
129	0x3d4d3207	0.050096538
130	0xbdc60418	-0.096687496
131	0x3dbf336c	0.0933598
132	0x3c1544c7	0.009110636
133	0x3e1db52e	0.15401146
134	0x3e745186	0.23859224
135	0xbd3195c1	-0.043355707
136	0x3d59334d	0.05302744
137	0xbe3a2bb0	-0.18180728
138	0xbd01c194	-0.03167875
139	0x3d34c5e7	0.044134047
140	0x3dfe7240	0.12424135
141	0x3d438a3b	0.04773925
142	0x3d9b190a	0.07573135
143	0x3dcf1ffe	0.10113524
144	0xbdca8f35	-0.09890596
145	0xbd6b3092	-0.057419367
146	0x3d8bcb52	0.0682589
147	0xbd71a9f6	-0.058999978
148	0x3b70df9c	0.0036754375
149	0xbdc72df3	-0.09725561
150	0x3d91717b	0.07101723
151	0xbce3869a	-0.027774144
152	0xbde14ea2	-0.11001326
153	0xbdbb6768	-0.091505826
154	0xbc7bd800	-0.015371323
155	0xbd62fbb4	-0.055415824
156	0xbda9dbc1	-0.08293868
157	0x3d6ce041	0.057831053
158	0x3c5d5b10	0.0135104805
159	0xbc831675	-0.01600192
160	0xbd7993b6	-0.060931884
161	0x3d1d05aa	0.03833548
162	0xbcc3a660	-0.023883045
163	0x3d03cc55	0.032177288
164	0xbdd703f6	-0.10498802
165	0x3d27c3da	0.040958263
166	0xbd81c656	-0.06336658
167	0x3cdbc090	0.02682522
168	0x3c986664	0.018603511
169	0xbbd59491	-0.0065179546
170	0xbd95af91	-0.07308877
171	0x3c48ba92	0.012251513
172	0x3c46357a	0.012097711
173	0xbd4fbe91	-0.050718848
174	0x3e033bf9	0.12815847
175	0xbc3c00a5	-0.011474763
176	0xbb9f23a8	-0.0048565455
177	0xbe03da39	-0.12876214
178	0xbd0aef01	-0.033919338
179	0xbd009dd3	-0.031400513
180	0x3aeee50a	0.0018226218
181	0x3d73c591	0.059514586
182	0x3e12ea9c	0.14347309
183	0x3e038810	0.12844872
184	0x3e185156	0.14874777
185	0x3d87afbf	0.06625318
186	0x3d540a3b	0.05176757
187	0x3cd6f883	0.026241546
188	0xbc655aa4	-0.013998661
189	0xbe368efe	-0.17827985
190	0x3c9dcf43	0.01926387
191	0xbdf711a9	-0.12063915
192	0xbddc0ca1	-0.10744596
193	0x3d80dd51	0.06292213
194	0xbd88b56e	-0.0667523
195	0x3d93aaa8	0.072102845
196	0x3d66239e	0.05618631
197	0x3d99ae01	0.07503892
198	0x3e03142d	0.12800665
199	0xbd84616d	-0.06463895
200	0xbdac9574	-0.084269434
201	0x3d3542dc	0.044253215
202	0xbcc9420c	-0.024567626
203	0x3c0306f6	0.007997265
204	0x3d615287	0.055010345
205	0xbd8a46c8	-0.06751782
206	0xbd896a38	-0.06709713
207	0xbbc89b19	-0.0061220047
208	0xbb9effb2	-0.0048522586
209	0xbcf9ce67	-0.030493928
210	0x3d7f7ae8	0.062373072
211	0xbd8f04f0	-0.06983364
212	0x3d0e1c58	0.034695
213	0xbe10176b	-0.14071433
214	0xbd4cfe97	-0.050047483
215	0xbdd2ad0c	-0.10286912
216	0xbd7097fa	-0.058738686
217	0x3db69216	0.089145824
218	0x3d9695b0	0.073527694
219	0xbd35972c	-0.04433362
220	0x3daac557	0.08338421
221	0xbdb2d57c	-0.08732125
222	0xbdb6040d	-0.088874914
223	0xbd7c37fd	-0.061576832
224	0xbcd03eb3	-0.025420522
225	0x3d65ea10	0.056131423
226	0x3d59c2d7	0.05316433
227	0x3ddeff6e	0.10888563
228	0xbe12aaff	-0.14323042
229	0x3c63d7a8	0.013906397
230	0x3a8473a7	0.0010105268
231	0xbd4e2699	-0.05032978
232	0xbe12f106	-0.14349756
233	0x3db36f81	0.08761502
234	0xbd24bf73	-0.040221643
235	0xbd6853ef	-0.05672067
236	0x3dbca3af	0.09210908
237	0x3da1ba6e	0.07896887
238	0x3d487080	0.048935413
239	0x3db4c631	0.088268645
240	0x3d2732ed	0.04082005
241	0x3da17451	0.07883514
242	0x3d1b7a3a	0.03795836
243	0xbdaba839	-0.08381695
244	0xbdb3f642	-0.08787204
245	0x3dcac366	0.099005505
246	0x3d831e0e	0.06402217
247	0x3d7ff560	0.062489867
248	0x3e422bdd	0.18962045
249	0xbd2e3018	-0.042526335
250	0xbdff7d73	-0.124750994
251	0x3c75759d	0.0149816545
252	0x3e07153f	0.13191698
253	0x3d279439	0.04091284
254	0xbe020f16	-0.12701067
255	0x3c652678	0.013986222
