Homework9/Gym-DDPG-solution/results/DDPG_LunarLander-v2_3000-eps0.1-t32-l0.0001-s1.pth (torch, 180667 bytes, 13 tensors)

layers.0.weight f4 [128, 10]
000000 ce 98 a2 3d 05 9c 29 be 09 8d 4d be 13 e5 8a 3e
       0.079393014 -0.16563423 -0.20073332 0.27127895
000010 36 19 48 bf 46 fe 4f 3e 23 61 2f be b6 0a 0c 3f
       -0.7816347 0.20311841 -0.17126898 0.54703844
000020 d9 63 99 3c fa ea ba bc 06 df 89 3d c7 ec ef 3b
       0.018724369 -0.022817124 0.067319915 0.007321927
000030 da f1 aa 3d 0b a4 60 be c5 da b0 3d 69 b6 7a bc
       0.08346911 -0.21937577 0.08635477 -0.015302279
000040 5a 0d b1 3d 31 8e 9d 3c ad 16 92 3e db ba a2 3d
       0.08645125 0.019232841 0.28532925 0.07945796
000050 42 27 65 be a1 bc 2f be 70 5e 11 be 13 76 8f be
       -0.22378257 -0.171618 -0.14196181 -0.2801977
000060 36 e3 59 be b1 3e a5 3b cc 4a 76 3e d7 9b 5d bd
       -0.2127808 0.005042874 0.2405197 -0.0541037
000070 58 0a 9c be db bc 1b 3e 66 9f 0e 3e f2 dc 95 3e
       -0.30476642 0.15208761 0.13927993 0.2927013
000080 fc 7f 85 3e 79 80 c3 be a7 ae ce be e3 fa bd be
       0.26074207 -0.38183954 -0.40367624 -0.37105474
000090 42 d1 7f 3e dd f1 39 bd a5 e0 02 3e c7 89 0c be
       0.2498217 -0.045396674 0.12781008 -0.13724433
0000a0 bd 70 bc 3e e8 aa c2 bd ee 61 9f 3e d7 78 63 be
       0.36804762 -0.09505254 0.31129402 -0.22214065
0000b0 ba 0f c3 be 06 f1 2e 3e 73 90 00 be 21 7b 79 be
       -0.38097936 0.1708413 -0.12555103 -0.24363376
0000c0 b6 d9 04 bd 0e 35 8d 3d f6 85 a5 bd e8 32 2d be
       -0.032434188 0.06894885 -0.08082192 -0.1691395
0000d0 4b 19 de 3e 71 ed 28 be 24 16 9d 3f 9e 7f 1a 3f
       0.43378672 -0.16496827 1.2272382 0.6035098
0000e0 b8 ce 63 3e c2 0a 07 bf 0b f3 5f 3d 7c ca 24 3e
       0.22246826 -0.5275079 0.054675143 0.16092867
0000f0 65 35 8b be 04 6b 5d 3e 40 f7 8f 3d 86 5c ed 3e
       -0.27189174 0.21622854 0.07029581 0.46359652
000100 c0 9f dc be 80 99 54 3d f0 76 10 be dd 12 35 3e
       -0.4309063 0.0519042 -0.14107871 0.17682977
000110 1d 51 07 be 7d cc 87 be 64 6f 2f 3e 07 52 66 bd
       -0.13214536 -0.265232 0.17132336 -0.05623057
000120 fa c2 62 3e 66 a8 c8 3c 69 17 c8 3d e4 5e 09 3e
       0.2214469 0.024494361 0.0977009 0.13415104
000130 24 e1 c8 3d 16 e4 a7 3d 50 b5 a9 be 38 33 44 3e
       0.09808567 0.08197801 -0.33146143 0.19160163
000140 13 12 61 be ac 2f 81 be 7d c1 8b 3d 31 59 0e bd
       -0.21979551 -0.25231683 0.06824014 -0.03475303
000150 37 1b 7e 3e 46 df cb be 9a 5a 0b bf 42 98 3b 3c
       0.24815069 -0.39818782 -0.5443512 0.011449875
000160 6c 42 88 bd 1b 8c 20 3e 90 f6 e5 3d 27 4b 86 be
       -0.06653294 0.15678446 0.11228669 -0.26229212
000170 0d eb 2b 3d 82 7a 11 3e 9f 12 8f be 2c b0 44 be
       0.04197221 0.1420689 -0.27943894 -0.19207829
000180 61 14 73 3d dd cf 26 3e d6 1d 10 be 6b 3a 5c bd
       0.059345607 0.16290231 -0.14073882 -0.05376665
000190 c4 90 70 3e e5 c3 d8 bc f5 d8 96 3e f7 9a 8f 3d
       0.23492724 -0.026460597 0.294624 0.07011979
0001a0 c8 f8 ef be 56 1f da be 8d 18 a5 3e a4 10 3e bd
       -0.46869493 -0.42602032 0.32245293 -0.04640259
0001b0 45 94 5e 3e 77 ed bb 3d a2 b7 f1 3c 20 50 8b 3e
       0.21736248 0.09176152 0.029506508 0.27209568
0001c0 18 df bd 3e d6 8b 78 be 83 0d 9f bb 2e d0 31 3e
       0.3708427 -0.24272093 -0.0048539056 0.1736457
0001d0 8b c2 81 3e e8 a4 33 3e 9f 64 35 be 76 38 42 be
       0.25343737 0.17543375 -0.17714165 -0.1896685
0001e0 ff b6 2c be 01 4e 16 3d 59 18 c1 3e a9 12 c5 be
       -0.16866682 0.036695484 0.37713888 -0.384908
0001f0 a8 6f 91 3e ac 46 1e be 80 14 6e be 74 f5 68 bd
       0.284055 -0.15456647 -0.23250008 -0.056874707
000200 2e c6 38 3e 82 14 6b 3e b8 7c b6 bd ad e9 d7 3c
       0.1804435 0.22957042 -0.08910507 0.026356542
000210 eb 5b cb 3e 0f 2b 00 3f 6e 89 a9 3e e1 b5 d3 3e
       0.39718565 0.500657 0.33112663 0.413497
000220 90 a5 8b 3e 94 6c a5 3e be 3b 58 be ce cf 6d be
       0.27274752 0.323094 -0.2111654 -0.23223802
000230 bf af 6e be ec 89 bc bd 22 f8 15 bf c1 38 c7 3e
       -0.2330923 -0.09205994 -0.58581746 0.38910487
000240 61 bc 9f 3e d7 2e 87 be 19 fb 69 3c 58 56 28 3f
       0.3119841 -0.26402923 0.014281058 0.6575675
000250 80 65 1c 3e fe 0d 16 3e 6b 09 b6 bd 44 d8 aa 3e
       0.15273094 0.14653775 -0.08888515 0.33368123
000260 1f c2 e1 3b 38 86 24 be c5 57 b3 be 67 1e 0c bf
       0.006889596 -0.16066825 -0.350279 -0.5473389
000270 45 0b 10 be 2f 63 0b be 1a c6 2f 3e 95 c9 4c bd
       -0.14066799 -0.13612054 0.17165413 -0.04999693
000280 7e c3 9d be 5a a1 d8 3d 44 b9 cf 3b 8e 74 65 3e
       -0.3081321 0.1057765 0.006339224 0.22407743
000290 b4 24 68 be 88 f1 bd 3d 71 9b 32 be 42 67 82 bd
       -0.22670251 0.09274584 -0.17442109 -0.06367351
0002a0 47 e1 4e be 4c cb f8 bd 1e be 90 bd de ba 36 3e
       -0.20203124 -0.12148151 -0.07067512 0.17844722
0002b0 e8 1b 26 3e 5f 7d f6 bc 84 e1 b0 3e ca 4a f7 3e
       0.16221583 -0.030089078 0.34547055 0.48299247
0002c0 db b6 b4 3e b3 d8 c0 bc 95 c0 74 be 16 df 82 3e
       0.35295758 -0.02354083 -0.23901589 0.25560826
0002d0 54 67 65 bd 07 3b c4 3a 19 fb 8e be 7b d5 53 be
       -0.056006745 0.0014971205 -0.27925947 -0.20686905
0002e0 f3 57 9c be 1c 9c e9 3e c3 b1 26 be c7 36 7d be
       -0.3053585 0.45626915 -0.16278748 -0.24727927
0002f0 11 53 0b 3d 2a 58 1a be 2a a8 ec 3d 85 44 24 be
       0.034014765 -0.15072694 0.11555512 -0.16041763
000300 4e 12 02 be ef 3a 09 3e 87 c1 69 3e f5 fb 01 be
       -0.12702295 0.13401388 0.22827731 -0.1269377
000310 ce b7 01 3e e2 07 b4 3e 21 11 8d 3e 24 f0 a2 be
       0.12667772 0.35162264 0.2755213 -0.31823838
000320 75 ad 1c 3e c5 ed 83 be 47 9b be 3e 0b e8 4c be
       0.15300544 -0.2576734 0.37227842 -0.20010392
000330 34 ba bf 3e 78 ca c3 bd ef 72 7f bd c9 d7 02 be
       0.3744675 -0.09560102 -0.06236547 -0.12777628
000340 ff ae c0 3c 68 f3 f8 3d c2 26 0c 3c 42 f4 cf 3d
       0.023520945 0.12155801 0.008554162 0.1015401
000350 29 c3 d5 be ba 1a bb 3e 09 55 f6 3e 2e 5a 0d 3f
       -0.41750458 0.36543828 0.48111752 0.5521573
000360 13 07 3d 3e 4b 8d 5d be 3d c4 39 be eb d4 68 3e
       0.1845973 -0.2163593 -0.18141265 0.22737472
000370 84 bb c5 bd d9 67 9d 3e b7 3b 5b be 48 cf d9 be
       -0.096549064 0.30743292 -0.21409498 -0.42540956
000380 82 d2 e9 3d 61 64 15 be bc af 5e bc b5 f2 92 3e
       0.11417104 -0.14589073 -0.013591703 0.28700796
000390 f0 a4 38 3e af ba 82 3e 30 61 4f 3c 2b 97 83 be
       0.18031669 0.25533053 0.012657449 -0.2570127
0003a0 0c 52 0a 3f 01 a2 15 be b1 94 81 be 2d 2d aa 3d
       0.54031444 -0.14612581 -0.25308755 0.08309398
0003b0 bb 42 3e be fa 20 d9 3e bd 74 f8 3d fa 84 6b be
       -0.18580143 0.42407972 0.12131641 -0.22999945
0003c0 43 af cf be 6a 74 6d 3b 8f 75 40 3c 5c f4 15 be
       -0.40563402 0.0036232718 0.011746778 -0.14643997
0003d0 95 fa 85 be 47 22 a6 be 99 ff c2 be 1c e8 ab be
       -0.2616774 -0.32448027 -0.3808563 -0.33575523
0003e0 7c ef 09 be f8 22 8a 3e 82 77 51 3e 61 39 df bd
       -0.13470262 0.26979804 0.20455745 -0.10899616
0003f0 23 42 08 be 51 9e f9 3e 84 6a ae 3d f2 3f 25 bf
       -0.13306479 0.48753598 0.0851641 -0.645507

layers.0.bias f4 [128]
000000 f3 e0 04 bd 8b 74 17 3b 65 cc 67 3d 00 8f 47 bd
       -0.03244109 0.0023110237 0.05659141 -0.04872036
000010 fc 79 55 3e a2 ea cf 3d 21 12 6b 3e e3 ac af 3d
       0.20847315 0.101521745 0.22956134 0.085778974
000020 75 ec 34 bd 4a 5f f5 3b 58 09 65 3e 59 34 b9 3d
       -0.044170815 0.007488166 0.22366846 0.09043188
000030 29 8f 7c 3e 08 60 95 bd 3b 5f 04 bd 24 a6 95 3e
       0.24663986 -0.07293707 -0.03231738 0.29228318
000040 54 98 ab be 99 9c d1 3d 06 b8 aa 3e 00 84 4f be
       -0.33514655 0.10234947 0.33343524 -0.20265198
000050 ac 5b 8d bd 16 a4 3e 3c c3 6e 22 3e f4 69 f9 3d
       -0.06902251 0.011635801 0.15862565 0.12178412
000060 43 8c 94 3d ea 8e 7d 3d 2d 57 0d be 9f 10 20 3e
       0.07253315 0.06190387 -0.13802786 0.1563134
000070 a3 4d 0e be ba 12 03 3e a2 ce 02 be a5 37 8b be
       -0.13896804 0.12800112 -0.12774137 -0.2719089
000080 e3 9b bd 3d 03 59 58 3e 99 4f 65 bd 09 0f 84 3d
       0.09258249 0.21127705 -0.055984113 0.0644818
000090 c8 a9 d4 bc e1 70 5f 3e 47 6b 3e bd 44 a0 97 be
       -0.025959864 0.21820404 -0.046489026 -0.2961446
0000a0 6c 04 72 be d9 07 73 3d 6b 44 e5 3c 3b a0 a1 3e
       -0.236345 0.059333656 0.027986726 0.3156756
0000b0 88 63 fb 3b ba 67 85 3e 43 f0 9f be 8e d3 99 be
       0.007671777 0.260557 -0.31237993 -0.30044216
0000c0 fa 51 9e bd f6 b4 4a be 95 c5 b6 bd 05 e1 f2 3b
       -0.077304795 -0.19795594 -0.089244045 0.0074120783
0000d0 7a 40 9c be 86 b6 81 3e 83 a7 84 be 0a 0f 6e 3e
       -0.30517942 0.25334567 -0.2590905 0.23247924
0000e0 87 c9 11 3e 75 fa 76 bd 62 3e b2 be ca 16 e8 3d
       0.14237033 -0.06029745 -0.3481322 0.11332472
0000f0 a8 64 8c be d8 7a 95 3e 93 79 8b be 5f 82 d5 bd
       -0.27420545 0.29195285 -0.2724119 -0.10425257
000100 6c 9d 4b be 81 a6 70 be 2c a7 dd bd cf 97 01 bd
       -0.1988427 -0.23501016 -0.10822901 -0.031638917
000110 99 6e 9b 3d 17 29 b6 3d 83 f7 fc 3d 52 7b 2a be
       0.07589454 0.08894556 0.123518966 -0.16648605
000120 50 71 27 be 76 c6 7c bd 8c 72 70 3e fe d7 a5 3b
       -0.16351819 -0.061712705 0.23481196 0.0050611487
000130 65 61 93 be fb 2c a6 3e dc 81 cf 3d 38 a9 02 bb
       -0.28785244 0.32456192 0.101321906 -0.0019937288
000140 49 25 13 3d 36 71 90 3e 70 20 24 be c1 c2 91 3e
       0.03592423 0.28211373 -0.16027999 0.28468898
000150 ac 47 a0 3e 7b 00 7d bd af 62 43 3e 7c af 3e 3e
       0.3130468 -0.061768036 0.19080614 0.1862163
000160 aa 93 99 3e fc eb f2 bd ad 77 61 be c2 1f ba bd
       0.2999547 -0.11861417 -0.22018309 -0.090880886
000170 74 8a 86 be 07 ee 26 bd 77 54 bf 3e 25 11 71 3e
       -0.26277506 -0.040754344 0.3736913 0.23541696
000180 f4 b3 a5 3e ea 4d 06 3c a5 26 2c 3b d3 ee 83 3e
       0.32363856 0.008197287 0.002626815 0.25768146
000190 e8 2f 62 3e f2 4e 80 bd fc fe e8 bc 30 9d e4 3d
       0.22088587 -0.062650576 -0.028441899 0.11162794
0001a0 6a 76 49 3d f8 b7 8c be 15 5a 1f be 33 8c 7b 3e
       0.049185194 -0.27484107 -0.15561707 0.245652
0001b0 98 08 8b 3e f5 8b d1 bd 52 05 0f bd 0e 36 2d be
       0.27154994 -0.10231773 -0.034917183 -0.16915151
0001c0 55 32 d9 bd 41 c9 bb 3e 6f 25 8c be 9d cb 40 3e
       -0.10605303 0.36676982 -0.2737231 0.18827672
0001d0 3c 85 5e be e8 53 3a be 99 d0 51 bd 13 f7 7c 3d
       -0.21730512 -0.1819607 -0.051224325 0.061759066
0001e0 d1 ef 23 bc 2a 8c cd bd 71 aa 3d be f0 3b 35 be
       -0.010005907 -0.100365 -0.1852205 -0.17698646
0001f0 77 5e 6f be 18 d1 11 be 6b 58 ba 3e b1 cd 5b be
       -0.23375879 -0.14239919 0.36395583 -0.21465184

layers.1.weight f4 [128, 128]
000000 6b 19 d7 be 53 64 43 3e 8f 49 ca 3b 6c 3f 95 bc
       -0.4201158 0.1908124 0.0061733196 -0.018218718
000010 3d db 57 be d8 c3 b4 3d df 2b e7 bd c1 3c 6e bd
       -0.21079727 0.08826417 -0.112876646 -0.05816341
000020 b0 67 05 3c 0a 72 6f bd 97 54 d2 bd 5d 11 3c bd
       0.008142397 -0.058458365 -0.102700405 -0.045914996
000030 d3 bb 3c 3e 60 ca 81 3c f0 c3 5d 3d d8 45 d6 bc
       0.18431024 0.01584357 0.05414194 -0.026156351
000040 ca 11 10 be 5d 86 e1 3d 69 91 46 3c 80 ab 1f 3e
       -0.14069286 0.11011956 0.012119629 0.15592766
000050 56 5f 0e 3d a5 5d 61 3e 2a a0 d3 3d 3b 01 ff bd
       0.03475889 0.22008379 0.10333283 -0.124514066
000060 16 61 ae bd bd b3 72 bd df 0b 20 3d 7a 99 de bd
       -0.085146114 -0.059253443 0.03907382 -0.10869117
000070 e3 4a 34 bd 03 df 42 be db 58 47 3d 38 ff 21 bd
       -0.04401673 -0.19030385 0.048668724 -0.039550036
000080 c1 d1 36 3e 7e 25 cc 3d f5 ea 3e bd 02 9f e4 bb
       0.17853452 0.099680886 -0.04661079 -0.006976963
000090 82 a6 db bd c2 d9 dd 3d 05 17 f1 bd 14 13 6f 3e
       -0.10725118 0.1083255 -0.11771969 0.23347121
0000a0 58 94 c5 bb cc 12 90 3c 5a a4 cd bc 0a 50 50 3e
       -0.006029647 0.017587088 -0.025102783 0.20343032
0000b0 7b 87 0c 3d 3c 69 d2 3b c1 17 cc bd e3 24 74 3d
       0.03430889 0.0064212363 -0.09965468 0.05960549
0000c0 f5 bb 77 3d fc 39 43 bd b0 8b 63 bd 17 18 26 bd
       0.060481984 -0.04766272 -0.05555314 -0.040550318
0000d0 69 33 35 bc 6f 21 e2 bd 22 c2 08 bb bd 8c 12 bc
       -0.01105962 -0.11041533 -0.0020867665 -0.008944687
0000e0 df 35 41 3d 0b 60 cc 3c 1a 56 8e bd f2 65 70 bd
       0.047170516 0.02494814 -0.06950016 -0.058690973
0000f0 b9 ee 09 bd 6f 94 22 bd 3a 9f 15 bd d8 00 ea bd
       -0.03367493 -0.03969234 -0.036528803 -0.11425942
000100 10 36 9b 3c ad f9 58 bd b3 2f dd 3d bb a2 61 bd
       0.018946677 -0.052972484 0.108001135 -0.055086832
000110 53 82 ca 3d ac d6 e0 bd 62 e2 95 bd 4c 80 0e be
       0.098881386 -0.109784454 -0.0731857 -0.13916129
000120 a2 78 40 3c a3 e2 f7 3d 3d a0 88 be 4e f1 6a bd
       0.011747511 0.121037744 -0.26684752 -0.057359032
000130 9a 39 96 bc 5c ae 0e 3c 86 e6 0a be 82 3d 1f 3e
       -0.018338013 0.008708563 -0.135645 0.15550807
000140 f4 8f 99 bd f0 1d e1 3d cd 85 01 bd 10 d9 1e 3e
       -0.0749816 0.10992038 -0.031621743 0.1551249
000150 76 e8 ba 3d 5c 92 b7 bd 1d 94 e2 bd 3d 6e 13 39
       0.0912637 -0.08963463 -0.110634066 0.0001406008
000160 da e2 d6 3d 7a 0d 1d be 90 7b 85 3d a2 27 c0 bd
       0.10492487 -0.15337172 0.06517708 -0.09382559
000170 dd e2 a6 bd a0 f9 0d be 5c a9 10 3d c2 a4 bb be
       -0.081487395 -0.13864756 0.035317764 -0.36649138
000180 c7 9f 1f 3e 31 77 17 3d e9 c9 12 be 94 d3 d4 3d
       0.15588294 0.036978904 -0.14334835 0.10391918
000190 a2 3f e5 3b be 07 33 3c 6f 29 5f 3d 7d ad a3 bc
       0.006996111 0.010927139 0.054482874 -0.019980187
0001a0 21 c8 24 bd 0d 22 8d 3c 6e e9 63 bd c5 fd 9e bd
       -0.04022992 0.01722815 -0.055642538 -0.077632464
0001b0 f9 dc 6d 3e 70 e9 b1 3e 6f f2 a4 bd 85 42 7c 3c
       0.23228826 0.3474841 -0.08054053 0.015396719
0001c0 c7 75 98 bd 67 2d dc 3c 9b 6b d3 ba 0a 8a 92 3d
       -0.07444339 0.026877118 -0.0016130091 0.07155235
0001d0 98 de 8f bd 8d 1a 2b 3d 65 71 2a bb 2d 37 04 3e
       -0.07024878 0.041773368 -0.002600753 0.12911673
0001e0 bf 68 06 3e 65 3c 85 3d 85 d5 05 bd 03 4e 1d 3e
       0.13125895 0.0650566 -0.03267433 0.1536179
0001f0 46 80 07 bd 3d b8 53 3d cc c6 ad 3d e3 f7 a0 bd
       -0.033081315 0.051689375 0.08485183 -0.07859781
000200 64 88 87 bc 48 f9 bd 3c 7f b4 71 3d b3 b9 0e bd
       -0.016544528 0.023190156 0.059010025 -0.034845065
000210 91 81 f5 3c 78 c1 40 3d e2 71 4b bd 4b 89 ac bd
       0.029969009 0.047059506 -0.049669154 -0.08424624
000220 b4 e4 67 bd 2e 00 b6 3d 75 b5 1c be 55 21 88 bd
       -0.056614593 0.08886753 -0.15303595 -0.066469826
000230 cf f5 7c 3d f0 56 be 3d 18 c0 a9 bd d6 0d fa 3b
       0.06175786 0.09293926 -0.08288592 0.007631044
000240 ec c4 ce bc 4f 75 91 bc 96 df 14 bd 7a a7 a0 3c
       -0.025240384 -0.017756132 -0.03634604 0.019611109
000250 57 ef ca bc 95 b9 01 3e 15 dd 8d 3d ce d0 1c bd
       -0.02477233 0.1266845 0.06926934 -0.03828507
000260 a1 5b b0 bd 1d 5e 49 bc 33 e3 da bc 01 03 7c 3c
       -0.08611227 -0.012290505 -0.026719665 0.015381576
000270 7b c4 ba bd 42 76 9c 3c df c9 fb 3c 21 b9 18 bd
       -0.09119507 0.019099358 0.030735908 -0.037285928
000280 58 2a a6 3d 8b 0f 9a bc 14 6f b6 bd 78 54 be bd
       0.08113545 -0.01880624 -0.08907905 -0.09293455
000290 1c 21 54 bb 2a 0d 4c bd 87 b1 d2 3c e9 51 67 3d
       -0.0032368368 -0.04981724 0.025719417 0.0564746
0002a0 c2 da 10 bd d7 a1 5f bd 70 4a 83 3d 13 09 bb 3d
       -0.035364874 -0.054597702 0.06410682 0.0913259
0002b0 df 2d 1e 3d 4e 45 08 bd c8 1c c5 bc 34 f4 b8 bc
       0.038617965 -0.03326922 -0.024061576 -0.022577383
0002c0 d7 eb 2e bc 8c 6f 85 3d e4 e0 6d bc 4d 51 87 bd
       -0.010676346 0.065154165 -0.01451895 -0.06607304
0002d0 f0 e9 a6 3d bb e2 48 3c 21 7f 96 3d f6 5f d4 ba
       0.08150089 0.012261088 0.07348467 -0.0016202915
0002e0 71 4e 89 bc f8 91 50 3d 70 68 63 bd f5 60 75 bd
       -0.016761037 0.050920457 -0.05551952 -0.05990692
0002f0 b5 8b 11 3e 0c 4d 00 bc 4c b0 d8 3d ea e6 42 bd
       0.1421345 -0.007830869 0.10580501 -0.047583498
000300 23 74 a1 bc 49 b5 9b bb 2f 88 a8 bd 16 f0 b1 3d
       -0.019708699 -0.0047518355 -0.082291 0.08688371
000310 12 5c bd 3d 01 c1 2b bd f5 7c f1 3d a9 73 92 3d
       0.09246077 -0.04193211 0.11791412 0.07150967
000320 5e 2e d4 bd c3 ec d6 bc 22 99 94 3d 0a fa 62 bd
       -0.10360406 -0.026235944 0.0725577 -0.055414237
000330 9e 3b a2 3b 78 d0 97 bd 7a b5 80 3c 32 fb a4 3d
       0.0049509546 -0.07412809 0.015711535 0.08055724
000340 69 ba 89 3d 63 c2 d3 3d 25 02 7c bd 5a 74 8a bd
       0.06725008 0.10339811 -0.061525483 -0.067604735
000350 09 2c 30 3d 64 cb 44 3c c6 61 79 3c 54 40 7b 3d
       0.043010745 0.012011383 0.015221065 0.061340645
000360 f6 e8 55 bc 2f e9 02 bd 7a 3c 9b 3d d4 4f 9e 3d
       -0.0130560305 -0.031960662 0.07579894 0.0773007
000370 7e 0f 27 3d d2 cd 5e 3c 80 48 22 3d dd 30 5a bd
       0.04078626 0.013598876 0.039619923 -0.053269256
000380 e7 34 7d bd 10 f8 48 bc 38 a4 3a bd 4d ab ad 3c
       -0.06181803 -0.012266174 -0.045566767 0.021199847
000390 ad 80 08 bb e5 25 b6 3d 24 f5 7d bd a5 df 80 3d
       -0.002082865 0.088939466 -0.062001362 0.06292657
0003a0 b7 80 82 bd 7d 32 04 3d fd 04 95 3d de ab 77 bd
       -0.06372207 0.032274712 0.07276342 -0.06046664
0003b0 0d e4 1a bd 8b 6a ef bb ae e2 87 bd 8f ea 81 3d
       -0.037815142 -0.007306402 -0.066350326 0.063435666
0003c0 c3 48 93 3a 15 d4 6f 3c 83 2f 85 bd 40 08 7b 3d
       0.0011236895 0.014637967 -0.06503203 0.061287165
0003d0 32 e3 9c 3d 04 30 50 bc e1 7f 15 3d 7e a6 9f bc
       0.076605216 -0.01270676 0.036498908 -0.01948857
0003e0 38 ce 0e 3d b2 01 74 bd e6 ac bc bd be 1f d6 bc
       0.034864634 -0.05957193 -0.09212665 -0.026138183
0003f0 83 4b f8 bc 33 85 20 3c 0e 44 00 3d 34 4d e7 3c
       -0.030309444 0.009797382 0.031314902 0.028235056

layers.1.bias f4 [128]
000000 f3 85 df 3d 63 5c 8f 3d 14 61 3f bd a4 a9 07 3e
       0.10914221 0.07000043 -0.04672344 0.13248307
000010 5d 78 a8 bc 25 02 9e bd d1 aa 16 be be e8 c9 3d
       -0.020565206 -0.07715253 -0.14713599 0.09858845
000020 07 23 e4 3d e0 b0 84 3c 26 e7 c9 bd 7f 32 fc 3c
       0.111394934 0.016197622 -0.09858541 0.030785797
000030 43 e9 f7 bd 13 9f d3 bc 6c 64 81 3c 1f 06 a8 3c
       -0.12105038 -0.025832688 0.015794955 0.020510731
000040 46 b5 d4 3d 6b e5 e6 bd 83 ba b3 bd fe c0 aa bd
       0.10386138 -0.11274227 -0.08775809 -0.083375916
000050 27 a1 05 3e 91 0c 86 3d c9 11 86 3c a3 93 6c bc
       0.13049756 0.065453656 0.016365902 -0.014439496
000060 51 4b 7b bd 69 3a 03 be e3 4c e6 bc 0c 0d 20 3b
       -0.061351124 -0.1281525 -0.028112834 0.002442184
000070 f0 de 7b 3d 99 74 88 3d e8 8b 9f 3d 4f 86 fa bd
       0.061491907 0.06662864 0.07790357 -0.122326486
000080 66 3c 04 3e c4 5b 1e 3e 9d 8b c6 3d fe 95 33 3c
       0.12913665 0.15464693 0.09694598 0.010961054
000090 71 47 e4 3d ba 1b 9a bd c6 e9 43 3d 9a c1 d1 3d
       0.11146439 -0.0752482 0.047830366 0.10242005
0000a0 53 4b bf bd 33 ce 3f be 33 01 13 bd 4c 9c a5 3d
       -0.09340539 -0.18731003 -0.035889816 0.08086452
0000b0 1f 57 1d 3d 77 b1 22 bd e9 9e 99 bd a0 59 df bd
       0.038413163 -0.039720025 -0.07501013 -0.109057665
0000c0 2b 8b 7d 3d 4c 4f 95 bd df 6d a3 bd 6a d9 9c bc
       0.0619003 -0.07290515 -0.079799406 -0.01914664
0000d0 3e 1b 8a bd 76 f8 a8 3c 5e 1c c2 3d d1 91 1c bd
       -0.06743477 0.020626288 0.09478067 -0.038225
0000e0 61 e0 5c bc f5 f6 af bd 0b 4e 08 3e e8 7e c4 bd
       -0.0134812305 -0.08592025 0.13311021 -0.09594518
0000f0 2a fc 89 3c ef d3 6e 3d de 0c b1 bd f5 0d e6 bd
       0.016843874 0.058307584 -0.08645032 -0.11233131
000100 ee 39 63 3d 46 77 f6 3d 06 3c fa bd 52 99 de 3d
       0.055475168 0.12034468 -0.1221848 0.10869087
000110 95 01 e8 3d f0 d6 df 3d 5a a5 5c 3d 8f fd fa bb
       0.11328427 0.10929668 0.05386863 -0.007659621
000120 d3 27 a2 bd 8d 7f 04 3e 20 f5 d8 bc a1 05 2c bd
       -0.07917752 0.12939282 -0.026484072 -0.041997556
000130 4e b6 2c bd 82 9d ad 3c 48 10 20 3d a8 8c 38 3c
       -0.042166047 0.02119327 0.039078027 0.011264004
000140 23 b5 eb 3d 21 2c 57 3d 3f 92 a0 bc 79 05 da 3b
       0.115091585 0.05253232 -0.019600986 0.0066534844
000150 34 61 08 bd df 21 8e 3d ba ed e6 bb f3 55 08 3d
       -0.033295825 0.06940054 -0.007047382 0.033285093
000160 8f 0e 92 bc 9e 5a e9 bd e2 bf 53 3d c5 e6 f7 3d
       -0.017829208 -0.11394237 0.051696666 0.12104563
000170 69 fa 88 3d f2 d4 a3 3b 4c 1c 2a 3d 74 9c ca bd
       0.06688387 0.0049997503 0.041530892 -0.09893122
000180 52 f2 12 3d b0 e1 bb 3d 3c 52 e0 bc 70 cc bd bd
       0.035875626 0.09173906 -0.027382962 -0.09267509
000190 cd d0 b7 bd 83 0f 43 ba b2 5d 45 3d a4 2f 60 bb
       -0.089753725 -0.0007440971 0.048185058 -0.0034208084
0001a0 8c 90 a0 bc d6 c4 ac bd 9f c1 24 be 9d 11 a7 bd
       -0.019600175 -0.08435981 -0.16089486 -0.08157656
0001b0 cb e9 da 3b dd 4f f4 bc 41 ea 02 be 6e 17 3e bc
       0.0066807023 -0.029823238 -0.12784673 -0.011602266
0001c0 80 89 12 3d fd 00 87 bd 97 cc 86 bd e0 33 12 bd
       0.03577566 -0.065919854 -0.06581991 -0.035694003
0001d0 59 25 1f bd a7 83 ca 3d 6c 4a 9b bd 9e 02 67 bd
       -0.038853977 0.09888392 -0.07582554 -0.05639898
0001e0 76 4c d1 3c 9f 17 09 be 5d 9b f1 bc 83 b5 60 ba
       0.025549155 -0.13387917 -0.029493028 -0.0008571969
0001f0 5b 79 3b bd 88 a0 21 bd ff 03 11 3e 2e 95 04 3e
       -0.04577003 -0.039459735 0.1416168 0.12947533

layers.2.weight f4 [64, 128]
000000 36 57 f9 3d e3 93 8e 3d 85 ea 52 3d 0f cb 63 3e
       0.12174837 0.06961801 0.051493187 0.2224543
000010 46 af b3 bd 08 54 38 3e 78 ce ac bd 8b 3d 62 3d
       -0.08773665 0.18000805 -0.08437818 0.055234473
000020 df 11 ce 3d 1e 5c ac bd 87 7b b0 bd fb 38 36 bc
       0.100620024 -0.084160075 -0.08617311 -0.011121984
000030 32 7e a8 bd 9d 24 9b bb 92 86 ed 3c ac fa 34 3d
       -0.08227195 -0.0047345893 0.028994832 0.04418437
000040 10 9f ed 3d d8 8c 07 3d 47 de 51 bd 30 61 a2 3d
       0.116026044 0.033093303 -0.05123737 0.07928693
000050 70 43 14 3e ed 83 ca bd eb 22 b2 3c 4d 80 62 bd
       0.1447885 -0.09888444 0.021745166 -0.05529814
000060 33 49 93 bd 28 2d 38 3d 49 09 e1 3d 6c 05 ff 3c
       -0.07191696 0.04496494 0.10988099 0.031130515
000070 0b b9 8b 3b be 52 a5 3d 63 70 bc 3d f0 b2 e3 bd
       0.004264002 0.080724224 0.092011236 -0.11118114
000080 51 a1 dd 3d 34 ea 22 3d f4 80 37 3d 1a 65 63 3d
       0.10821784 0.039774135 0.044800714 0.05551634
000090 87 d2 a5 3d 3e 59 f7 bd 2a 2f a6 3d a1 5e d1 3d
       0.080967955 -0.120775685 0.081144646 0.10223127
0000a0 84 c0 a3 ba e6 9f 1d 3e c3 4e 08 3e 13 4a 32 bb
       -0.0012493287 0.15393028 0.13311295 -0.0027204796
0000b0 35 1b 1e bd 6c c7 7c bc c7 9a 12 bd 69 31 f3 bc
       -0.038600165 -0.015428405 -0.03579214 -0.029686647
0000c0 ee 4f c4 bd f5 d0 84 bd fa 96 c5 3c 6f be e6 3d
       -0.09585558 -0.06485168 0.024119843 0.11266791
0000d0 36 9d ee bc f0 8b b8 ba 0f 0b 02 3e 6e 32 ed bc
       -0.029127698 -0.001407979 0.12699531 -0.02895471
0000e0 4d d5 7b 3c 49 08 b6 3b a5 16 20 3d 8a 88 96 bd
       0.015370679 0.005555187 0.039084096 -0.073502615
0000f0 ea 06 3f 3d 85 8c 78 bc 9b fd 6d bd 73 19 08 be
       0.046637453 -0.015170221 -0.058103185 -0.13290958
000100 98 2f 7e 3e ba 39 8f 3a ff 67 c8 bd 76 4a b8 3d
       0.24822843 0.0010927238 -0.09785461 0.08998577
000110 7a b6 5d bc 17 d0 cc bc b6 e0 82 39 58 37 ca bd
       -0.013532275 -0.025001569 0.00024962955 -0.09873837
000120 e7 c7 c2 3c 5b f4 01 3e 9a 89 ea bc 93 f4 6b 3d
       0.023776961 0.1269087 -0.028630067 0.05760629
000130 30 d8 1f bd d1 2e 94 3d f8 16 02 3d 1f 70 ac 3d
       -0.03902453 0.07235492 0.031760186 0.08419823
000140 30 7a e1 3d 57 43 3f 3c 1e f3 90 3d fb 3a b5 3c
       0.110096335 0.01167377 0.07077621 0.02212285
000150 14 a9 0d 3d d9 1a 1d 3d 21 fa 57 bc 2b 7f 0b bd
       0.034585074 0.038355682 -0.013182194 -0.034056824
000160 73 03 a6 3d fe 78 81 3b ca 58 b6 bd 35 29 03 3e
       0.08106127 0.003951191 -0.08903654 0.12808688
000170 14 9a f5 3c 87 0a 7d 3d fb 81 2d bd 82 0b 85 3d
       0.029980697 0.061777618 -0.042360287 0.064963356
000180 dc 70 10 bd d2 33 d1 3d 28 ac 07 3e a3 2a 28 3e
       -0.03526388 0.10214962 0.13249266 0.16422515
000190 c7 ff f7 3c dc 71 d5 bb 9e 34 e6 3a 1c d8 af 3d
       0.030273331 -0.0065138172 0.0017563289 0.085861415
0001a0 f9 ef b6 3d 2b fc 06 bc 7c f9 16 3e d2 82 ca 3d
       0.0893249 -0.0082388325 0.14743608 0.09888233
0001b0 0b ec c5 3d 9c 4f 38 bd 1a 82 92 bd a2 8f 5a 3c
       0.09664162 -0.044997796 -0.07153721 0.013339909
0001c0 63 db 51 3c 7b 2d 18 be b2 e1 e6 bd 6d 33 04 be
       0.0128086535 -0.148611 -0.11273517 -0.12910242
0001d0 77 7e 96 bd ed 62 a6 bd 45 dd 9c bd a8 4c 32 be
       -0.0734834 -0.08124337 -0.07659391 -0.17412055
0001e0 6e bf a2 3d f8 6d ed bd 3f fe 56 bd 44 7b de bd
       0.079466686 -0.115932405 -0.05248856 -0.10863355
0001f0 37 ac 9d bc 88 90 23 3d 54 95 eb bd 76 fb e6 3d
       -0.019247157 0.039932758 -0.115030915 0.11278431
000200 68 c1 24 be 9f 40 f8 3c cc 80 38 3d 84 2c da bd
       -0.16089404 0.030304251 0.045044705 -0.10653022
000210 38 fe e0 3d 2a 55 24 be a1 b9 f2 3d 71 68 9d bd
       0.109859884 -0.16048113 0.11851812 -0.07685936
000220 12 5b 02 be 4e a6 ac bc e1 ee 06 3e 4b e1 c7 3d
       -0.12730053 -0.021075394 0.13177063 0.09759768
000230 1b 6d ca 3d 3e cb 61 3d 0e 1b a9 bd 57 fe 7b bb
       0.098840915 0.055125467 -0.082571134 -0.003845116
000240 d1 28 de bd fc 99 97 bd 47 9c ab 3d 67 93 56 3d
       -0.10847629 -0.07402417 0.08379417 0.052386668
000250 9c 6b 8c bd 95 db 82 3d 29 be 1f be fe 0a c2 3d
       -0.06856462 0.06389538 -0.15599884 0.09474753
000260 40 2c d6 3c 8e 78 9c 3c 5d 74 0b be a0 34 50 3c
       0.026144147 0.019100454 -0.13618608 0.012707859
000270 fc 0e d3 bd c4 cb a2 bd 37 8a 83 bd ae 08 3f 3d
       -0.103055924 -0.079490215 -0.06422847 0.046639137
000280 cb fe d7 bb a8 19 ab 3d d0 7d 9a bc ce 80 49 bd
       -0.006591653 0.08354503 -0.01885882 -0.049195103
000290 07 20 db bd 57 75 b5 3d a5 a3 a2 bd 3b b8 58 bc
       -0.10699468 0.088602714 -0.07941369 -0.013227518
0002a0 47 c4 4e bc 62 26 b2 bb c1 00 d7 bd 34 ff 28 be
       -0.012620038 -0.0054367045 -0.10498191 -0.16503602
0002b0 0c eb 9c bb e4 47 be 3d b7 79 da 3c e8 0e 48 3e
       -0.004788762 0.09291056 0.026669366 0.19536936
0002c0 ed a5 76 3d 1b a2 39 bc 9c 00 8c bd d5 88 0c be
       0.060216833 -0.011330153 -0.06836054 -0.13724072
0002d0 04 e9 e7 3d 33 b2 e7 3d 88 c1 68 bd e3 34 57 3d
       0.11323741 0.11313286 -0.05682519 0.05254067
0002e0 12 67 85 3d a2 15 79 3c d2 ea fe bd e4 aa 82 bc
       0.065138 0.015202912 -0.12447132 -0.015950628
0002f0 da 65 18 be a3 48 c6 3d 17 60 21 3d ca 33 91 3d
       -0.14882603 0.09681823 0.03939828 0.07089956
000300 f0 f2 5f be 23 bb 9d bd a9 95 47 3d f5 b0 29 be
       -0.21870017 -0.07701709 0.04872671 -0.1657141
000310 f5 0a 92 bd 88 cf c1 bc 1f 09 7f bc 87 40 f6 bc
       -0.07130996 -0.023658529 -0.0155661395 -0.030060066
000320 be 7e 6a bc 4a 2c a9 bc 53 ab 3d 3b ca b5 61 3c
       -0.014312444 -0.020651001 0.0028941229 0.013776252
000330 ef b6 d9 3d 31 83 e1 bd 3d 31 cf bd c2 2b 79 bd
       0.10630595 -0.11011351 -0.10116813 -0.060832746
000340 69 83 1b be 99 b2 34 3c 43 44 d3 bc 64 f0 64 bd
       -0.15186848 0.011028909 -0.025789386 -0.055893317
000350 a7 b9 16 3d cd 64 2f 3d 16 6d 00 be 9c c9 dc 3c
       0.036798146 0.04282074 -0.12541613 0.026951604
000360 b7 a5 95 bd 5c 6b cd 3a 26 8c 90 3d 04 e3 bb bc
       -0.07306998 0.0015672254 0.07057981 -0.022935398
000370 3e 34 f6 bd 12 61 83 bd f4 e3 04 3d 0e 26 a7 bc
       -0.12021683 -0.06414999 0.032443956 -0.020403888
000380 52 1a f3 3d 8f a8 9c bd 6b 3e 91 bd 0e 40 c6 bd
       0.118702546 -0.076493375 -0.070919834 -0.09680186
000390 23 37 8d bd 15 a2 78 3c 9e 54 81 3d ee f5 76 bc
       -0.06895282 0.015175362 0.063149676 -0.015073283
0003a0 d1 65 17 be 54 7e 11 3e a7 d2 93 bd 46 09 ad bd
       -0.14784934 0.14208347 -0.07217913 -0.084490344
0003b0 1b a7 07 be e0 d2 ab 3d 2c 23 ca 3d 67 e0 82 3c
       -0.1324734 0.083898306 0.0986999 0.015976144
0003c0 b5 58 86 3d ff 14 39 bc 7a 06 6e bc 00 63 f8 3d
       0.06559888 -0.01129651 -0.014527911 0.12128258
0003d0 ac 36 db 3d 4f 91 c6 ba a0 9f 46 3e 93 e2 2b 3e
       0.10703787 -0.0015149507 0.1939683 0.1678565
0003e0 1e e1 70 bd 04 03 a7 3d 36 7b 22 3e db 76 4d 3e
       -0.05880844 0.08154872 0.15867314 0.20064871
0003f0 f5 57 94 3c 88 4f 51 bd ba b5 6c 3d c4 0d 40 bc
       0.018108347 -0.051101238 0.057790495 -0.011722032

layers.2.bias f4 [64]
000000 16 03 8e 3d 84 c4 47 3c 82 5a 40 3d ed f4 98 3d
       0.06934182 0.012192849 0.046961315 0.07468591
000010 6d 56 30 bd a8 87 f6 3d 8e 73 78 3d 43 fe e1 bc
       -0.043051172 0.12037593 0.060657077 -0.027587062
000020 8a e3 23 3e e4 a3 fc bd 0d ec e1 3c e6 65 19 3c
       0.16004768 -0.12335947 0.027578378 0.009362673
000030 2f dd 08 be 05 9d 08 3d cd 4e fb 3a 84 8d 03 be
       -0.13365625 0.03335287 0.0019173265 -0.12846953
000040 72 4e f1 bb 75 d9 4e 3d 80 1e 74 3d 47 c8 70 3d
       -0.0073640877 0.050500352 0.0595994 0.05878475
000050 ac 97 c2 3d d9 f4 98 3d 95 9a 12 ba 9e da 89 3d
       0.09501585 0.07468576 -0.00055924925 0.06731151
000060 2c 1a b6 bd 1a 25 0e bd 2a 55 00 3c ec 0f 0d 3c
       -0.08891711 -0.03470335 0.007832805 0.008609753
000070 4e ba 70 bd 20 aa 07 3c 98 0e 73 3c ae c4 8a bd
       -0.058771424 0.008280307 0.014835022 -0.06775795
000080 d2 c8 8f 3c 2e 65 8f 3d a8 70 e1 bd f9 69 7c 3c
       0.017551813 0.0700172 -0.110078156 0.015406125
000090 d4 ce 88 bb de b3 75 3b e6 2a 90 3d a5 af b5 3b
       -0.0041750465 0.0037491242 0.07039432 0.00554462
0000a0 44 bb 0c bd 52 72 d0 3d b4 d4 b8 bd 90 23 bf bd
       -0.034358278 0.10178055 -0.09024945 -0.09332955
0000b0 31 1e 69 3c 5a c2 c5 3d 0b c5 a9 3d 71 5c c1 3d
       0.01422839 0.0965621 0.08289536 0.0944146
0000c0 c6 69 68 3d 0a 91 8a 3c 16 7e c4 3d ac d8 9a bc
       0.0567415 0.016914863 0.095943615 -0.018902145
0000d0 fa 89 85 3d 30 99 73 bd 88 e3 d0 3d e7 f3 6d 3d
       0.065204576 -0.059472263 0.10199648 0.05809393
0000e0 c7 b0 23 3e d6 69 be bc c3 46 80 3c aa 2e fd bc
       0.15985404 -0.023243826 0.015658742 -0.03090604
0000f0 fd 1e ee 3c 57 ca 2d 3d 4e f1 e1 bc f6 53 be bd
       0.02906751 0.042429294 -0.027580883 -0.09293358

readout.weight f4 [1, 64]
000000 14 ad 44 bf 20 66 8d 3f be 65 5f bf 63 e9 21 bf
       -0.76826596 1.1046791 -0.8726462 -0.63246745
000010 56 10 59 3f 4d 42 3f bf 74 d0 98 3f a0 67 7a bf
       0.8479055 -0.7471054 1.1938615 -0.9781437
000020 c1 a3 6d bf dd f8 4f 3f 17 ec 8d bf fe c4 48 bf
       -0.92827994 0.8123911 -1.1087674 -0.78425586
000030 ba f5 98 3f 2a 31 34 bf b6 8c 64 bf 22 27 51 3f
       1.194999 -0.7038752 -0.8927721 0.81700337
000040 50 ae a3 3f 7a 5a 54 3f 0a 7b 24 3f c9 56 87 bf
       1.2787571 0.82950556 0.6425024 -1.057336
000050 21 5a 3e bf 61 d7 59 bf 23 e3 46 3f c5 9c 33 bf
       -0.74356276 -0.8509427 0.77690333 -0.70161086
000060 32 ef 43 3f 96 c3 7e 3f 94 cd 82 bf 05 5c 93 3f
       0.7653686 0.9951719 -1.0218987 1.1512457
000070 78 c9 7a 3f 29 03 80 3f 8b a3 16 3f 83 09 4c 3f
       0.97963667 1.0000964 0.58843297 0.79702014
000080 60 08 60 3f c0 6c 38 bf 32 af 30 3f 19 f8 1b bf
       0.8751278 -0.7204094 0.69017327 -0.6092544
000090 08 46 21 bf dd 61 30 3f f1 f0 82 bf 39 9c 09 bf
       -0.62997484 0.6889933 -1.022978 -0.53754
0000a0 f5 2f 8b 3f d7 a4 22 bf f5 e3 7d 3f 7a 08 ad 3f
       1.087401 -0.63532776 0.9917596 1.3518212
0000b0 41 4e b0 bf c0 14 6f bf 3e 5b 3d bf 3c d7 7f bf
       -1.3773881 -0.93391037 -0.7396735 -0.99937797
0000c0 d3 a6 3e bf 22 a2 8e 3f 4f 2e 84 bf 81 8f 23 3f
       -0.74473304 1.1143229 -1.0326632 0.63890845
0000d0 a2 8e 80 bf 59 4e 72 3f 3b a2 9e bf d0 d5 5d bf
       -1.0043528 0.946508 -1.2393259 -0.86654377
0000e0 36 22 5f bf 81 ea 8c 3f 7d 7f 0d 3f 8e 0a 63 3f
       -0.87161577 1.1009065 0.55272657 0.8868798
0000f0 95 63 85 bf 1d 94 7a bf d5 2c 91 bf 74 ee 86 3f
       -1.0421015 -0.9788225 -1.1341807 1.054152

layers.0.weight f4 [128, 8]
000000 75 a3 b6 3d 4b 18 06 be 1c 9b 42 3f be e7 04 bf
       0.08917896 -0.13095205 0.7601793 -0.5191611
000010 6f fe 23 3c ac 19 07 bf 34 f6 75 be d0 e7 61 be
       0.010009392 -0.5277355 -0.240197 -0.22061086
000020 4b 5f e3 3d 48 77 f3 3d 69 8e a5 be 76 30 dd 3e
       0.1110216 0.118879855 -0.32335213 0.43201035
000030 57 54 3a 3f e9 c7 dd 3e 0d e5 65 be 7a 6e c0 be
       0.7278494 0.43316582 -0.22450657 -0.37584287
000040 f2 5e 5c 3e 3c 22 6a bd eb b8 55 3d 4f 99 63 be
       0.21520594 -0.057161555 0.052178305 -0.22226451
000050 65 54 12 3f 7a a7 23 3f 64 b7 5e be 45 a2 ab be
       0.57160026 0.63927424 -0.21749645 -0.3352224
000060 fe c1 e1 3d 3c 21 01 3e 62 80 d5 3c 4f 0d 07 3f
       0.11023329 0.12610334 0.026062194 0.5275468
000070 53 fa 50 bf f4 95 9d bd 31 46 47 be 43 79 88 be
       -0.81631964 -0.07694617 -0.1946037 -0.26655015
000080 dd bd 5a 3d 66 e9 1e 3e b0 3e 0c 3f 50 c3 31 3d
       0.053403724 0.15518722 0.54783154 0.043399155
000090 35 6c 73 bd f8 82 bd be 8f b8 ed 3d 55 2c 56 bd
       -0.059429366 -0.37013984 0.116074674 -0.052288372
0000a0 ba 41 1f 3e ed 48 89 3c d4 d0 cf 3e 98 cb 02 be
       0.15552416 0.016758407 0.4058901 -0.12772977
0000b0 00 87 8c bd a7 c2 1a 3e 05 67 76 be 8b c5 8f 3d
       -0.06861687 0.15113316 -0.24062736 0.070201
0000c0 5b b7 2c 3c 8c b7 3b 3e c3 3e c1 be 3e 0e 79 bf
       0.010541762 0.18331736 -0.37743196 -0.97287357
0000d0 0a d3 a7 bf cb 39 e7 3d 2a 64 a8 bd c3 fe bd 3e
       -1.3111279 0.1129032 -0.0822223 0.3710843
0000e0 1d 54 9a 3d b0 5d 9f 3e 60 4c af be 9a 19 51 3e
       0.075355746 0.31126165 -0.34237957 0.20419922
0000f0 0f 77 c0 be 8e 66 dd bc 6c c3 cd bd db a4 be 3d
       -0.37590834 -0.027026441 -0.100470394 0.093087874
000100 dd c8 7a bd 0c e9 c2 bb 69 67 16 bf 55 cc 59 bf
       -0.061226714 -0.0059481915 -0.5875154 -0.8507741
000110 c3 7d c4 3e ee 79 bb 3e 44 11 8b 3d cd 5b 07 be
       0.383772 0.36616462 0.067904025 -0.13218613
000120 4a 1c ff 3d 15 aa 4d 3e 9a 3b 3b 3e f8 9e 46 bf
       0.124565676 0.20084412 0.18284455 -0.7758632
000130 55 41 b7 3e 4b bf 65 3f eb b4 43 3e 9f 43 b0 3e
       0.35792032 0.89745015 0.19111983 0.3442659
000140 f5 50 80 be fb 77 8c 3e c2 06 9e 3e a8 d4 d6 3d
       -0.25061765 0.27435288 0.3086453 0.1048978
000150 e4 2e a0 3e 9a 94 05 3f 97 0f af 3e 05 39 43 3d
       0.31285775 0.52179873 0.34191582 0.0476618
000160 e0 a9 68 3e 3f c0 95 3e 43 e2 e7 3d c4 1a 22 3f
       0.22721052 0.29248235 0.11322453 0.6332209
000170 da bb 87 3f ae 61 82 bd 71 af ab 3e e7 15 29 3d
       1.0604203 -0.06366287 0.3353229 0.041280653
000180 fd 80 32 3e ad a3 d9 3e 76 cf 4f be 5e bc be be
       0.17432018 0.42507687 -0.20293984 -0.37253088
000190 fc 41 13 3f 90 d1 20 3e e0 e5 36 3e 60 2f fa bd
       0.5752256 0.15704942 0.17861128 -0.12216067
0001a0 3a 17 5a be 1a df 41 3e 0b 6d 5e bd c0 e3 2f 3f
       -0.21297923 0.18932763 -0.05430321 0.68706894
0001b0 ae f5 16 be 8a 1d 02 3f 40 e2 8d be 6d 53 c3 3d
       -0.14742157 0.50826323 -0.27711678 0.095373966
0001c0 c1 0d ba 3e b6 43 49 3e 4a 75 df 3e c5 85 50 be
       0.36338618 0.19654736 0.43644172 -0.20363529
0001d0 04 73 0f 3f 66 64 9d be 97 71 96 3e 1b 38 04 be
       0.56034875 -0.3074066 0.29383537 -0.12912028
0001e0 fa dd 07 3e 74 80 35 3e 2b 4c 1c 3f ee 88 39 bf
       0.13268271 0.17724782 0.61053723 -0.72474563
0001f0 17 4e a8 3e 7e 0d b8 be d2 07 f0 3e 9f 47 fd 3e
       0.32872078 -0.35947794 0.46880966 0.49468705
000200 b1 12 75 3d ed 48 cd 3e d3 46 36 3e 93 fa 98 be
       0.05983228 0.400947 0.17800455 -0.29878673
000210 54 d9 64 3f b7 09 36 3e 4c 9e dd bd e9 18 9a bc
       0.89394116 0.17777143 -0.10821208 -0.018810706
000220 5d c8 1e 3d 9e eb 6c 3e bd c7 aa 3e 88 06 31 3f
       0.0387653 0.23136756 0.33355513 0.6915059
000230 0e 1b 33 bf 54 97 dd 3d d3 cd 3f bc b1 b2 a4 3e
       -0.6996316 0.10819879 -0.011706787 0.3216758
000240 39 56 04 3e 1d 3a 76 3e 39 a4 6e be 24 60 33 bf
       0.12923516 0.24045606 -0.23304833 -0.70068574
000250 d6 c7 88 be 28 e7 8c 3e cb a5 5e 3e a6 a8 0b be
       -0.26714963 0.27520108 0.21742932 -0.13638553
000260 4d 25 76 3d 6a 96 8d 3e 30 db f8 3e 23 6e 6a bf
       0.060094167 0.2765382 0.48604727 -0.91574305
000270 a0 b4 54 bf c5 98 e8 3c 23 de 9a bd c9 6e e3 3e
       -0.8308811 0.028393159 -0.075619005 0.4442046
000280 e0 af 92 3e 8b f8 32 bd 0e e5 01 3f 34 06 8a be
       0.28649807 -0.04369406 0.50740135 -0.26957858
000290 3e b7 b3 3e c9 e2 fb 3e 01 63 ab bd 62 f3 c4 3e
       0.3510074 0.4919646 -0.08368493 0.38466936
0002a0 47 b3 47 3e 89 b0 7f bc 68 f3 a4 3e c0 0e 29 3f
       0.19501983 -0.015606054 0.32216954 0.6603813
0002b0 89 5e 5c be 02 ec 89 3e 9f ee 9a be 49 e5 58 3e
       -0.21520437 0.26937872 -0.30260178 0.21181215
0002c0 27 f6 89 3e 63 61 34 3e c7 e9 a4 3e c1 f8 fe 3b
       0.26945612 0.17615275 0.32209608 0.0077811186
0002d0 b4 fe 03 bf a1 06 5b bf 4c 8c 05 be fd 11 0e 3c
       -0.5156052 -0.8555699 -0.130418 0.008671281
0002e0 30 2a 51 3e e4 81 0a bd 76 6f a8 bd a5 f0 bc 3e
       0.2042625 -0.03381528 -0.082243845 0.36902347
0002f0 2e 1e 3a bf f1 85 83 be 77 98 c2 3d 9d f5 58 bc
       -0.727023 -0.25688127 0.095017366 -0.0132421525
000300 4e 69 61 3e 98 43 8e 3e 24 3a cf 3e 97 0e 11 be
       0.22012827 0.27785945 0.40474045 -0.14165722
000310 86 d0 84 bd 88 e4 a1 3d c8 78 5f 3e 47 a8 c8 3d
       -0.06485085 0.07904917 0.21823418 0.09797721
000320 14 01 a5 3e 15 fc 95 be a0 5b 11 3d 10 9c c7 be
       0.32227385 -0.29293886 0.03548777 -0.38986254
000330 23 4b 35 3f e0 a2 3d 3f b1 0a 07 3e 53 0a e1 be
       0.70817775 0.7407665 0.13187672 -0.4395319
000340 34 ca bd be 43 86 61 3e e0 d1 6d 3e a4 35 bf be
       -0.3706833 0.22023873 0.23224592 -0.37345612
000350 f7 0a 06 3f 58 98 5f 3e 42 fd 93 3c 1e 0b 20 3d
       0.5236048 0.21835458 0.018065099 0.039073102
000360 d9 37 1f bc 89 7a 40 3e f6 13 66 bd a0 4e 20 3f
       -0.009717905 0.18796743 -0.05617138 0.6261997
000370 24 74 3c bf 92 81 5a bd 76 a1 3e be 27 3f b9 3d
       -0.73614717 -0.053346224 -0.1861628 0.090452485
000380 55 91 2c bd 4d 26 5b 3e 1b c4 b6 3d a1 54 6b be
       -0.042130787 0.2140133 0.08924123 -0.22981502
000390 75 38 27 bf ae 2d 96 3e f4 01 e4 3d 25 97 36 be
       -0.6532052 0.29331726 0.11133185 -0.17831095
0003a0 1f 65 f8 3b dc d5 df 3d 9f 5f fe bd d8 36 1b be
       0.007580414 0.10929462 -0.12420582 -0.1515764
0003b0 2e db b8 bf 9a 1b 28 be 1e 13 45 be 35 a4 2a 3e
       -1.4441888 -0.16416779 -0.19245574 0.16664203
0003c0 fe d9 d8 3d ce 9d b0 3e e1 17 a1 bd c0 c9 7d bc
       0.10588454 0.34495395 -0.07865883 -0.0154899955
0003d0 76 5a da 3d bc 64 7a be 2f bd bc 3e 83 21 05 bd
       0.10661785 -0.2445249 0.36863086 -0.032502662
0003e0 ca 8e a1 3d e8 fd f0 bd a8 c8 29 3f 4b fc 61 3f
       0.07888563 -0.11767179 0.663218 0.88275594
0003f0 dc 57 57 3f f4 d2 0d bf d5 91 6a bd c2 a8 00 be
       0.8411844 -0.55400014 -0.057267983 -0.12564376

layers.0.bias f4 [128]
000000 b3 cc de 3d 91 16 16 3e 69 c2 70 3d 2a 3c 30 3e
       0.10878887 0.14657046 0.058779154 0.17210451
000010 6f 28 8b be 91 65 8a 3e 0f b0 51 be 9d 83 46 bd
       -0.27179286 0.27030614 -0.20477317 -0.04846536
000020 26 83 86 bc c1 8b 40 be 10 13 f7 3d bb f4 5f be
       -0.016419958 -0.18803312 0.12064183 -0.21870701
000030 10 d5 cd bd 5f c6 08 3e f3 7f 61 bd 46 4d cf bd
       -0.10050404 0.13356923 -0.055053663 -0.101221606
000040 0c 53 3e be fe fa 1f be b1 8e 45 be e4 d3 36 be
       -0.18586367 -0.1562309 -0.19292714 -0.17854267
000050 0d 9c 4b bc 5d a7 0d 3e 0b 6d a2 be ba 85 ba 3e
       -0.012427342 0.13833375 -0.31723818 0.3643015
000060 1d 35 88 3e 7e 9e 92 3e 53 b0 d0 bd 8e 57 7e 3d
       0.26603022 0.28636545 -0.10189881 0.062095217
000070 65 4c de bc 3a 7f 8e 3b ac fc 48 be 37 05 61 3e
       -0.027136037 0.0043486627 -0.19627637 0.21974646
000080 f2 73 c5 3d 52 6f 87 3d 2b 64 24 be f9 1d 49 be
       0.096412554 0.066130295 -0.16053836 -0.1964034
000090 7f 6c 8e 3e 6c 34 37 3e 6b 0a 6a 3e 47 13 c6 bb
       0.2781715 0.17891091 0.22855537 -0.0060447785
0000a0 fc 64 5d 3e 8a 31 98 be 1b 76 3f be e9 44 78 3e
       0.21620554 -0.29725295 -0.18697397 0.24245037
0000b0 71 32 98 3d fe 66 d9 3d 50 b0 20 be d3 3b 87 be
       0.07431496 0.10615347 -0.15692258 -0.2641283
0000c0 da b5 d5 3d 8d 46 b4 3d 33 4b 0a be a7 61 5c 3e
       0.10435076 0.08802519 -0.13505249 0.21521626
0000d0 54 70 b3 3e bf 07 34 3e 4f 7a f5 3d ea 5f 76 3e
       0.35046637 0.1758108 0.11986219 0.24060026
0000e0 df a5 06 3e 38 eb 8f be 4d a6 3b bc b4 0b d0 3e
       0.13149212 -0.28109145 -0.011453223 0.4063393
0000f0 e0 4a cd bd d3 9f 62 3e f1 8d b7 3c 32 d3 6b bc
       -0.10024047 0.2213128 0.02240655 -0.014393615
000100 84 77 62 3e ce 30 62 3e ac 95 3a be ed fe 51 3a
       0.22115904 0.2208893 -0.18221158 0.0008010704
000110 84 2e cf bd 8b 6a 5a bd 4f 6f 26 3e 56 ba 8c 3d
       -0.10116294 -0.053324264 0.16253398 0.06871478
000120 75 48 ad 3d 93 51 90 bd 21 5c 3c be 0a 2f c5 3d
       0.08461086 -0.07046809 -0.1839452 0.096281126
000130 ee 6d c9 3e e1 6a c6 3c 2b 54 92 bc e5 d1 7b be
       0.39341682 0.024220886 -0.0178624 -0.24591787
000140 7a 16 4d 3d 83 6b 32 be d9 04 01 3e cc 88 22 3e
       0.050070263 -0.17423825 0.12599505 0.15872496
000150 32 03 d9 bc f2 52 71 be 2a e0 ce bc 6f 5a dd 3e
       -0.026490781 -0.23566797 -0.025253374 0.43233058
000160 de b6 89 be c1 04 82 bd 06 09 60 be 54 89 b8 3e
       -0.2689733 -0.06348563 -0.21878442 0.36042273
000170 8b 3a 98 3e c3 b7 64 3e d0 d9 7b 3e 52 26 a6 3d
       0.29732165 0.22335725 0.24594808 0.08112778
000180 da fc 04 be c5 b9 25 3e 9e a6 10 3e fd 43 8c 3d
       -0.1298708 0.16184147 0.1412606 0.06848905
000190 99 3f 0e 3e 42 71 c5 be 07 7d 60 3d ea f0 07 be
       0.13891448 -0.3856297 0.054806735 -0.13275495
0001a0 3d 75 7a be f6 88 8d bd 94 b6 b7 bd c2 e3 3a bc
       -0.24458785 -0.06910889 -0.08970371 -0.011406841
0001b0 27 29 0c be 42 f2 f9 bd 3e 16 1c 3e e6 5b 62 be
       -0.13687573 -0.1220441 0.1524286 -0.22105369
0001c0 88 04 00 3d a3 22 60 3e 9d 7a 7e be 94 ff 84 be
       0.03125432 0.21888213 -0.24851461 -0.2597624
0001d0 c7 ed 5c bd 26 29 1d bc 73 14 54 be e2 7b cc 3c
       -0.0539377 -0.00959233 -0.20710926 0.024961416
0001e0 e7 50 56 3e 16 a3 ce 3e 6e ce d1 3d 2e df 25 3e
       0.209293 0.403588 0.102444515 0.16198418
0001f0 6c 1a d1 3e 1f e6 7c 3e 55 07 94 3e 4c 20 26 be
       0.4084047 0.24697159 0.28911844 -0.16223258

layers.1.weight f4 [128, 128]
000000 17 b8 0a 3f 69 ae 52 be 5c 24 9a be bd 09 5a 3c
       0.5418715 -0.20574345 -0.30105865 0.013307986
000010 0a 7a a6 3e e4 a7 1c bd ee b2 2b bd ad 21 18 be
       0.32514983 -0.03824605 -0.041918688 -0.14856596
000020 ab e9 29 3e 48 96 37 be 26 cb d2 bd e0 4d 99 bd
       0.16593044 -0.17928421 -0.10292654 -0.074855566
000030 0f ad b2 be b0 39 96 3d 8d 7d 8f be 8d b9 d9 bd
       -0.34897658 0.07335222 -0.28025475 -0.10631094
000040 3d 14 b7 be 68 40 ac 3e 30 0f 48 be 16 4c 1f 3b
       -0.35757628 0.33642888 -0.19537044 0.0024306825
000050 80 12 42 be 1c af c6 3d 47 97 27 3d ac ae 23 bd
       -0.1895237 0.09701368 0.040915754 -0.039961502
000060 6a 9b 39 be b3 2c 6b be 6e 54 05 bf 4a ec 79 3d
       -0.18125692 -0.2296627 -0.52081954 0.06101636
000070 27 e0 75 be f8 aa 0d bc 84 74 9e be 04 08 08 3d
       -0.24011289 -0.008646719 -0.3094827 0.03321077
000080 29 9c ba 3e ec 93 4e 3d f3 26 7b be 3d 58 29 3e
       0.36447266 0.050434038 -0.24526577 0.16537566
000090 27 1c 3f 3c f5 80 33 bd 1c a5 11 3e 2e dc a1 bc
       0.011664427 -0.043824155 0.1422314 -0.01975831
0000a0 e7 27 f6 bd 1a f5 34 3e 6f 23 80 3d 35 14 13 be
       -0.120193295 0.17671624 0.062567584 -0.14363177
0000b0 99 bb 94 be c5 dd 9f bd c9 b7 b0 be 6f a5 32 bd
       -0.29049376 -0.07805971 -0.34515217 -0.0436148
0000c0 e9 4f 48 bd 19 9b e8 3d 98 c5 c4 bd 72 fe 1a 3e
       -0.048904333 0.113577075 -0.096080005 0.15136126
0000d0 7f ed 3a be 4a 18 d1 bd b0 c4 04 3e 8e 61 e3 3c
       -0.1825466 -0.10209711 0.12965655 0.027756479
0000e0 29 99 60 be 02 b8 15 3e a2 13 07 bf 60 75 99 3d
       -0.21933426 0.14620975 -0.5276433 0.07493091
0000f0 8c 1d aa 3e fe 30 eb bc c5 34 17 be 34 cd 62 bd
       0.33225667 -0.028709885 -0.14766224 -0.05537148
000100 eb df 54 bd ee 48 05 be 94 51 09 ba e6 17 a7 be
       -0.051971357 -0.13016102 -0.00052382913 -0.3263542
000110 4d 63 0b bf 94 7a bc bc e5 19 53 bd 79 27 1d be
       -0.54448396 -0.023007669 -0.051538367 -0.15347089
000120 1b 1c 98 be 11 f4 d9 bd fc 4d e7 3e c5 69 91 be
       -0.29708943 -0.10642255 0.45176685 -0.28401008
000130 e6 8e f7 be 0d ef 38 be d5 7e 50 3e 23 eb 67 be
       -0.4835121 -0.1805994 0.20360883 -0.22648291
000140 a1 c9 1b 39 ec c5 95 3e 88 08 8e be a9 86 0a 3d
       0.00014857065 0.29252565 -0.27740884 0.03381983
000150 c4 05 57 3e 5d b2 f7 be 0f 10 c1 bd 89 1e f9 3d
       0.20998293 -0.48378268 -0.09426891 0.12164027
000160 30 dd 98 3d 04 fe 8b 3e 6a dd 16 bf 7c 54 10 bd
       0.07464063 0.27342236 -0.589316 -0.03523682
000170 31 7c ce bd 4c 0f 4a bd e8 5a 18 3c 6d 87 d7 3e
       -0.100822814 -0.049330994 0.0092990175 0.4209551
000180 56 19 80 be c3 ff a2 be a3 1c 4f 3e 52 66 14 3e
       -0.2501933 -0.31835756 0.20225768 0.14492157
000190 37 f8 dd be ba 30 01 be 39 2b 64 3e 3c 52 b9 be
       -0.43353435 -0.12616244 0.22282113 -0.36195552
0001a0 02 25 70 be fc 60 56 bd 4f 01 28 3e 64 60 a5 be
       -0.23451617 -0.052338585 0.16406749 -0.32300103
0001b0 91 94 5a be 17 8d de 3d 64 67 55 3c 1c 72 9f 3e
       -0.21345736 0.108667545 0.0130251385 0.31141746
0001c0 36 8e d0 be 57 18 c4 bd 3b 7e 60 3e a7 57 a6 3e
       -0.40733498 -0.09574955 0.21923153 0.32488748
0001d0 d1 f4 d9 3d e6 d4 df be 03 07 17 3e a2 4f c4 3e
       0.10642398 -0.43717116 0.14748769 0.38342005
0001e0 27 f2 af be 2e 3c 32 3e 46 1d 7e be 26 31 5e be
       -0.34364435 0.17405769 -0.24815854 -0.21698436
0001f0 7b 32 de 3e ad 41 8b 3d 4b 04 8f be 97 ac 00 bf
       0.4339789 0.06799636 -0.27932963 -0.5026335
000200 a1 f1 93 be eb 65 40 3c d9 dd 7b 3d ed f0 d2 3d
       -0.28895286 0.011743049 0.061490867 0.10299859
000210 d6 ff 17 be 33 2b 73 3d b3 1d 44 bf 1d 25 81 3c
       -0.14843687 0.05936737 -0.7660782 0.015764767
000220 54 b2 a8 be ec 2b 75 be 9b 48 32 3a 93 9d 08 bc
       -0.32948554 -0.23942536 0.000680098 -0.00833835
000230 b3 fb 14 be 3c f0 89 3d 6f 51 84 bc 9b 2e 6e be
       -0.1454914 0.06735274 -0.016152112 -0.23259966
000240 09 66 74 bd 08 9c a9 3e 6c 08 1a be 5c 02 18 be
       -0.05966762 0.33126855 -0.15042275 -0.1484465
000250 54 af 79 be 56 13 a6 3d 20 99 b9 3b 42 69 9e 3d
       -0.24383289 0.08109157 0.005664006 0.0773492
000260 9c 2e dd bd eb 24 ff bd 03 87 d0 bd 1f 31 d6 3d
       -0.10799906 -0.124582134 -0.101820014 0.10458588
000270 29 3c 60 bc 88 a0 9c be 09 ce f8 bb 87 35 20 be
       -0.013686218 -0.30591226 -0.0075929207 -0.15645419
000280 57 d2 d3 3e f1 56 00 3c 04 b5 1f 3d 2e d8 d9 3d
       0.41371414 0.007833228 0.03899099 0.10636936
000290 d8 97 aa 3d 37 34 e7 3d 56 7a 35 3e df 43 12 be
       0.08329743 0.11289256 0.17722449 -0.14283703
0002a0 95 42 b5 3c 42 ad 3c 3e 08 10 7f 3e 82 a4 15 bd
       0.022126475 0.18425468 0.24908459 -0.03653384
0002b0 e3 d1 8c bb 96 95 0d bc 37 76 dc bd 71 51 3a 3d
       -0.0042974814 -0.008641621 -0.10764735 0.045487825
0002c0 87 eb 07 bf 0c 33 7b be e7 e4 08 3f 13 00 34 3e
       -0.5309376 -0.24531192 0.5347428 0.17578153
0002d0 80 ce f7 bd b9 d9 81 3c 05 4a 0e 3e c4 a7 0d 3e
       -0.120999336 0.015850889 0.13895424 0.13833529
0002e0 e6 ac 16 bd 3d af 74 3d f9 e9 06 be 87 24 0e be
       -0.036785983 0.059737433 -0.13175191 -0.13881122
0002f0 5e f2 24 3e 9f 93 0c 3f 4d 00 af bd 17 0e 06 be
       0.1610808 0.5491275 -0.08544979 -0.13091312
000300 aa f9 e7 3d be b5 df bc c2 4b 8c 3e 8b 78 42 be
       0.113269165 -0.027308341 0.2740155 -0.18991296
000310 9e 94 1a 3e a7 e9 f5 3d 0f 77 9a bc 9f 4e b9 be
       0.15095755 0.12007456 -0.0188556 -0.36192796
000320 5d a8 4e be 12 93 3b 3e 01 0a 96 3d 60 db 06 be
       -0.20181413 0.18317822 0.07326127 -0.13169622
000330 64 4b b3 3d 36 01 00 be a1 b1 09 3f b7 b0 10 bd
       0.08754614 -0.12500462 0.53786665 -0.03532478
000340 a3 77 44 3e 4c 03 95 3e 4b a4 0b bd 99 01 04 bf
       0.19186263 0.29104078 -0.03409223 -0.5156494
000350 55 ef b5 bd 09 ee b0 bd 19 68 e0 bc 39 1c a8 3d
       -0.088835396 -0.086391516 -0.027393388 0.08208508
000360 31 e1 e1 3d f6 1a 96 be 25 b5 c7 3c f2 82 ed bd
       0.1102928 -0.29317445 0.024378369 -0.115972415
000370 de 49 a1 bd 4b a1 41 bc 24 d9 1d bd f1 13 1c bf
       -0.07875417 -0.01181824 -0.03853716 -0.6096793
000380 fc ce 1f be 01 9f 47 be d3 e9 63 3e 0f d8 74 3e
       -0.15606302 -0.19494249 0.22257166 0.23910545
000390 d2 e8 a6 bd 6b 83 17 3e b5 e8 1b 3e 66 77 e7 3e
       -0.08149876 0.14796226 0.1522549 0.4520828
0003a0 9b a6 be bd 56 58 86 be fb ca 8e 3e 34 00 b9 bd
       -0.09309121 -0.2623927 0.27889237 -0.09033242
0003b0 67 d6 46 3d d3 92 f0 3e 99 a1 b0 bf 01 98 65 3a
       0.048544314 0.46987018 -1.3799316 0.0008758307
0003c0 c7 35 25 be 87 2a b6 3d b1 ef b9 3e bd 84 69 3e
       -0.16133796 0.0889483 0.36315683 0.22804542
0003d0 7b 93 e8 3d 24 97 33 be 93 f4 8a 3e 8b 68 fd 3e
       0.11356255 -0.17538124 0.2713972 0.49493822
0003e0 74 99 ce bd 9a ac e3 bd c6 00 ff bc 0b b4 ea bd
       -0.100878626 -0.111169055 -0.031128298 -0.11460122
0003f0 ff be 93 3e 90 7b b8 3d 3a 30 13 3d 85 a7 b0 3e
       0.28856656 0.09007943 0.035934664 0.34502807
