Homework9/Gym-DDPG-solution/results/DDPG_LunarLander-v2_2000-eps0.3-t32-l0.0001-s1.pth (torch, 180667 bytes, 13 tensors)

layers.0.weight f4 [128, 10]
000000 5d f4 98 3e dd a0 12 be d5 9b 01 ba 90 85 3c 3f
       0.29873934 -0.14319177 -0.000494418 0.736413
000010 0e 27 92 3d 82 aa e9 3d e5 61 ce ba 5b 62 1f bb
       0.07136355 0.11409475 -0.0015745728 -0.00243201
000020 2a 21 c5 3d 20 06 38 3d 39 ad 3a 3d 05 58 9b 3d
       0.09625466 0.044927716 0.045575354 0.07585148
000030 f6 50 c1 3d b9 82 95 be de 7d fe 3d bd 0d 1c be
       0.0943927 -0.29201296 0.12426351 -0.15239616
000040 71 fd c2 3c 60 93 1e bd 76 bf 9b 3e f6 70 dc 3c
       0.02380249 -0.038714767 0.3041951 0.026909333
000050 45 5e 68 be c7 9c 53 be 14 91 14 be 25 36 1a bf
       -0.22692211 -0.20665275 -0.14508468 -0.6023887
000060 3d d9 1e bf a1 50 41 3d db f8 75 3e 0a 6f 40 3e
       -0.6205023 0.047196034 0.24020712 0.18792358
000070 1b e1 b5 be c3 88 1f 3e 4c b5 14 3e 05 e0 b2 3e
       -0.35523304 0.15579514 0.14522284 0.34936538
000080 28 3e ae 3e 33 3e 9b be 98 94 02 bf bb 1e 70 be
       0.34031796 -0.30320892 -0.51007986 -0.23449223
000090 e3 64 96 3e 69 48 ae ba 80 e4 0f 3e 3f f1 3e bd
       0.29373845 -0.0013296726 0.1405201 -0.04661679
0000a0 00 30 a1 3e 71 33 1d be 98 1b 5c 3e 7a 4e d9 bc
       0.31481934 -0.15351655 0.21494901 -0.026526678
0000b0 4b 55 dd bd af af 62 3e 81 7c 24 be a8 bd e8 3d
       -0.10807284 0.2213733 -0.1606312 0.11364299
0000c0 58 e2 ae bd 5b d8 3b 3c c7 06 86 be 3e a6 56 be
       -0.085392654 0.011465157 -0.26177046 -0.20961854
0000d0 e2 59 70 3e 76 15 ca 3c 71 66 b1 3e d0 db 07 3f
       0.23471788 0.024668436 0.3464847 0.5306978
0000e0 12 3e 53 3c 98 60 83 be e9 db 4a 3e f2 86 ed 3d
       0.012893217 -0.25659633 0.19810452 0.115980044
0000f0 5d bc 8f be ca cc 85 3e 35 93 7d 3e 6c e7 eb 3e
       -0.28073397 0.26132804 0.24763186 0.46074998
000100 00 c7 b9 be 5f fe 48 bd 2f 58 9d bc 33 ae c7 3d
       -0.36284637 -0.049070712 -0.019207088 0.09750023
000110 30 ca 35 be c4 65 8d be 31 bc 2e 3e 73 a1 6e bd
       -0.1775291 -0.27616704 0.17063977 -0.05825944
000120 32 62 29 3e 24 52 4e 3d 18 e9 96 3e 99 73 94 bd
       0.16541365 0.050371304 0.2947471 -0.07248611
000130 93 12 1e 3e 97 07 5b 3e 29 da a3 be ef 25 28 3e
       0.15436773 0.21389614 -0.3200238 0.1642072
000140 bb 53 4e be 52 15 69 be 94 c4 d2 3c f2 e8 d4 bd
       -0.20149128 -0.2276204 0.025728501 -0.10395993
000150 b2 bb 82 3e 95 fc 2f be be 6d 92 be 48 97 57 3e
       0.25533825 -0.17186196 -0.28599352 0.21053803
000160 5f 88 46 bd 2c 11 34 3e 7a 16 f9 3d 75 88 8c be
       -0.048469897 0.17584676 0.1216249 -0.27447858
000170 06 65 0e 3e 21 1f 5a 3e d1 33 a5 be 67 ee c3 be
       0.13905725 0.21300937 -0.32266095 -0.38267824
000180 4b ce c3 3d 5d 21 27 3d 10 43 c6 bd 2b 57 82 bd
       0.09560832 0.040803302 -0.0968076 -0.06364282
000190 5a e4 73 3e 71 32 20 be 91 40 c2 3d a7 1b 71 3e
       0.23817578 -0.15644242 0.09484971 0.23545705
0001a0 13 b0 5f be df eb 3e bf dc 5c a0 3e 54 df c1 3d
       -0.2184451 -0.7457866 0.31320846 0.094664246
0001b0 2a 68 1b 3e c2 ef 02 3d 19 ff 2b 3d ec e5 87 3e
       0.15176454 0.031966932 0.041991327 0.26542604
0001c0 f7 76 c3 3e 52 38 91 be 16 9a 5e be 46 c7 10 bd
       0.381767 -0.2836328 -0.21738467 -0.035346292
0001d0 f2 44 86 3e 86 fa 76 3e 1e 87 08 be a2 11 4b be
       0.26224476 0.24119005 -0.13332793 -0.19830945
0001e0 84 54 42 be c3 6f b3 3d 6e 12 ac 3e b5 d5 25 bf
       -0.18977553 0.08761551 0.3360781 -0.64779216
0001f0 97 34 82 3e df 12 01 bf 86 da 94 be 5a c3 94 bd
       0.25430748 -0.5041942 -0.2907297 -0.07263823
000200 c0 15 34 3e a9 af 12 3e ef cb 2d be 13 b4 ca 3c
       0.17586422 0.14324822 -0.16972326 0.02474407
000210 b5 22 96 3e 30 74 e1 3e ec 22 b3 3e 19 eb 8b 3e
       0.29323354 0.44033957 0.3498758 0.27327803
000220 57 0e 70 3e a2 5d bb 3d 3c 8c 23 be e2 67 71 be
       0.2344297 0.091487184 -0.15971464 -0.23574784
000230 45 18 3f be 48 23 e7 bc c0 92 bf be dd 47 74 3e
       -0.18661602 -0.028215066 -0.3741665 0.23855539
000240 65 19 65 3f a1 c5 32 3e 7b 71 5e 3e e9 3b 4d 3e
       0.89491874 0.17458202 0.21722977 0.20042385
000250 70 8b f3 3d 42 ab 0e 3e 70 4d 58 bd 94 d1 9f 3e
       0.1189183 0.13932517 -0.052808225 0.31214583
000260 2f c1 db 3d 69 8f 88 bc 9a 79 00 bf 56 05 f9 be
       0.10730206 -0.016669946 -0.5018555 -0.48636883
000270 5e 06 2c be 69 92 96 bd d2 f8 58 3e 97 32 7d 3c
       -0.16799304 -0.07352144 0.21188667 0.015453956
000280 8a 84 76 be 5d b1 8a 3d 3e a6 da 3d c6 c9 cc 3e
       -0.24073997 0.067721106 0.106762394 0.3999769
000290 04 88 2e be d4 78 68 3e 02 7c 12 be ac 30 d0 bd
       -0.17044073 0.22702342 -0.14305118 -0.101655334
0002a0 62 4c 77 be db 19 08 be c7 d5 0d 3d 1e 9e e3 3d
       -0.24150231 -0.13291113 0.034627702 0.11114143
0002b0 6e 9e 85 3d 3e db 8b 3e cb 88 a0 3f b1 e8 0b 3f
       0.06524359 0.27315706 1.2541746 0.54651934
0002c0 dc f4 e6 3e 2c 66 bf 3b 29 e3 65 be 8b 5f be 3e
       0.45108688 0.0058410373 -0.22449936 0.37182269
0002d0 29 5c 84 bd fe aa 33 bd fc e9 56 be a1 92 95 be
       -0.06462891 -0.043864243 -0.20987695 -0.2921343
0002e0 49 00 b1 be fe 09 a4 3e a1 66 55 be da b0 1c be
       -0.3457053 0.32038873 -0.20839931 -0.15301839
0002f0 d9 c8 84 bd 20 97 0b be 11 66 11 3e d1 cc 37 be
       -0.06483621 -0.13631868 0.14199091 -0.17949225
000300 74 f3 46 be 84 c4 e7 3d 89 bf 4a 3e 2a ab 90 bd
       -0.19428807 0.11316779 0.19799627 -0.07063897
000310 28 30 11 3e 53 f9 2e 3e 65 02 91 3e 87 96 7a be
       0.14178526 0.17087297 0.2832214 -0.24471484
000320 76 d3 17 3e f7 f1 87 be 13 23 95 3e a5 59 73 be
       0.1482676 -0.26551792 0.29128322 -0.23764665
000330 27 6a c4 3e 56 f5 46 be 22 81 e1 bc 7f 10 62 bd
       0.38362238 -0.19429526 -0.027527396 -0.055191513
000340 70 61 8a 3d 2e 7e 16 3e ab a0 87 3d 5b 64 db 3c
       0.06756866 0.14696571 0.06622442 0.026781252
000350 42 6f b4 be 9d 07 c4 3e c8 c3 0f 3f 76 5f df 3e
       -0.35241133 0.38287058 0.56158113 0.43627518
000360 71 9c 56 3e fe 05 7b be 6f 5e 16 be 14 a5 72 3e
       0.20958115 -0.24514005 -0.14684461 0.23695785
000370 06 38 30 be a0 31 9c 3e 25 b8 9a be 9f cd 10 bf
       -0.17208871 0.3050661 -0.30218616 -0.5656375
000380 fa ac 26 3d c2 d7 b5 be 68 66 16 be a3 78 6a 3e
       0.040692307 -0.35516173 -0.14687502 0.22897582
000390 5e 3f 29 3e f3 86 3b 3e 72 3c 63 bb 06 aa 90 be
       0.16528079 0.18313198 -0.003467348 -0.28254718
0003a0 b4 4d d4 3e 48 b1 2b be a0 03 27 be ed d0 ab 3b
       0.41465533 -0.16766846 -0.16309977 0.0052434118
0003b0 cf 5f 5a be 3f f3 38 3e 97 9f 86 3e 9b 42 46 be
       -0.2132561 0.18061541 0.26293632 -0.19361345
0003c0 f4 0b 9b be d1 e0 00 3c 1d a4 c7 3d ea b6 84 bd
       -0.30282557 0.0078661 0.09748099 -0.064802006
0003d0 9d 53 77 be 87 fd 0e 3c 95 2e a3 be a2 3c 77 be
       -0.2415299 0.008727438 -0.31871477 -0.24144223
0003e0 c9 0f 45 be 02 c5 91 3e e9 a5 7c 3e 43 bc ce bd
       -0.19244303 0.28470618 0.24672665 -0.10094502
0003f0 5a 87 17 bd 1a 7d b2 3d 3c 88 2f 3e 19 ed 01 bf
       -0.036994316 0.087152675 0.17141813 -0.5075241

layers.0.bias f4 [128]
000000 7a 64 c5 bd 1e 71 7b 3d 30 d7 a4 3d 04 28 91 3d
       -0.09638305 0.061387174 0.08048856 0.070877105
000010 3b f6 3e 3e 01 f6 3a bd 5c 67 97 3e ed 73 e8 3d
       0.18648617 -0.045644764 0.29571044 0.11350236
000020 88 b5 7e bc 00 1d 92 bc 6c d6 ff 3d 7c 10 ce 3d
       -0.01554621 -0.017836094 0.124920696 0.10061738
000030 4e d0 a2 3e 9e 48 cc bd 19 7c 11 bd 0b 0d 9c 3e
       0.3179955 -0.09974788 -0.03551874 0.304787
000040 45 d9 bf be 87 a5 f1 3b e8 1b ae 3e 07 f5 75 be
       -0.3747045 0.0073744687 0.34005666 -0.24019252
000050 79 2f c9 bd b3 78 f4 bd b5 21 1f 3e a6 43 b6 3d
       -0.09823508 -0.11937084 0.15540202 0.08899622
000060 32 c7 12 3e 55 52 23 3e 0c 5c ff bd e0 10 b9 3d
       0.143338 0.15949376 -0.124687284 0.09036422
000070 ce 9e 17 bd da 9c 23 3e 08 4b 8d bd 4b f2 63 be
       -0.037016682 0.15977803 -0.06899077 -0.22260396
000080 d8 a6 ed 3d 30 39 7e 3e 79 8b a6 bd a9 1b 25 3c
       0.116040885 0.24826503 -0.08132071 0.0100773955
000090 d8 30 95 bd 2b 7e 6f 3e de b1 93 bb fc b4 95 be
       -0.07284707 0.23387973 -0.0045072874 -0.29239643
0000a0 64 2c 4a be 18 49 0e 3d ac f2 d3 bc 3c 06 aa 3e
       -0.19743496 0.034737676 -0.02587255 0.3320788
0000b0 4f c2 4d bd 3f d8 86 3e 84 c0 a4 be 70 ce b8 be
       -0.050234135 0.26336858 -0.32178128 -0.36095
0000c0 3f 35 c9 bd 96 d3 99 bd 95 d8 37 bd 03 a0 47 3c
       -0.09824609 -0.0751106 -0.044884283 0.012184146
0000d0 1c 42 7e be 44 2f a5 3e 44 4a 46 be f9 40 8d 3e
       -0.24829906 0.32262623 -0.19364268 0.27588633
0000e0 0a 7f 0b 3e d8 04 c4 bc 23 21 a2 be df f1 fd 3d
       0.1362268 -0.02392809 -0.31665906 0.12399649
0000f0 b5 f5 90 be 1c 37 76 3e 39 eb 9e be 0b 85 7c 3b
       -0.2831246 0.2404446 -0.31038836 0.0038531448
000100 25 e4 86 be cd ef 19 be ba 36 1b bd 61 91 16 be
       -0.26345935 -0.15032883 -0.03789399 -0.14703895
000110 64 01 eb 3d 36 5c 75 3d 80 ee bb 3d 08 d4 81 bd
       0.114748746 0.059902392 0.0917635 -0.0633927
000120 74 5f 3b be 01 a4 ec bc 0e 72 aa 3e aa a0 0f 3d
       -0.18298131 -0.028886797 0.33290142 0.03506533
000130 a7 cf 85 be a8 dd b8 3e 78 98 17 3e 84 34 90 bc
       -0.2613499 0.3610661 0.14804256 -0.017603166
000140 af 5d 66 3d b5 f8 87 3e de d7 39 be aa 10 9a 3e
       0.056241687 0.26556936 -0.18148753 0.3009084
000150 5c 22 bb 3e 2f 6d 0b be bb c2 4d 3e 29 d9 4d 3e
       0.36549652 -0.13615869 0.20093815 0.20102371
000160 bc fa 90 3e ef 5e 4d 3c 67 b2 1b be 4e 6e 38 be
       0.28316295 0.012534841 -0.15204774 -0.18010828
000170 52 2c 82 be fb 87 7d bd c8 d6 ad 3e 3d b9 52 3e
       -0.2542444 -0.06189726 0.33952928 0.20578475
000180 c3 45 90 3e cf 97 e4 3d 25 62 e2 3c 6d f4 8f 3e
       0.28178224 0.11161768 0.02763469 0.2811617
000190 cb 68 16 3e 27 60 f8 3a f2 f5 fe bc 0f 91 08 3e
       0.14688413 0.0018949554 -0.031123135 0.13336585
0001a0 0c ac cf bd 6b 1f 96 be a4 6a 99 bd 93 78 af 3e
       -0.10140237 -0.29320845 -0.07491043 0.34271678
0001b0 4b 20 6c 3e 04 ba c6 bd b3 24 35 be e3 81 82 be
       0.23059194 -0.097034484 -0.17689781 -0.2548972
0001c0 84 df 5b bc ed 0b a9 3e cb 6c aa be 84 9c 5a 3e
       -0.0134199895 0.3301691 -0.33286127 0.21348768
0001d0 d0 0c 95 be ff ad 43 be cb 88 d0 bd 61 b5 98 3d
       -0.29111338 -0.19109343 -0.10182341 0.0745647
0001e0 10 14 b4 bc df 8f 86 be f3 40 57 be ac 62 2d be
       -0.021982223 -0.2628164 -0.2102087 -0.16932172
0001f0 6b 31 3f be 51 9f 41 be ef 0e b7 3e 77 fa 31 be
       -0.18671195 -0.1890843 0.3575358 -0.17380701

layers.1.weight f4 [128, 128]
000000 e7 cf fe bd 37 34 ce 3d a6 35 00 3d 59 b7 48 3d
       -0.12441998 0.10068553 0.031301163 0.04900298
000010 8f 87 e6 bd c0 22 de bd a2 86 bc bc e4 96 c7 bd
       -0.112563245 -0.10846472 -0.023013417 -0.09745577
000020 f5 a6 34 bd cc 6a 28 3d 8e c9 a4 3c 85 66 48 bd
       -0.044104535 0.041117474 0.02011564 -0.048925895
000030 7e 5f 98 3d 5c 03 a5 bd 4d 15 28 bd 3e a7 56 3c
       0.07440089 -0.080572814 -0.04103594 0.013101397
000040 ae 8c 7c bd 80 c9 cc bc b0 86 82 3d 12 3e 9a 3c
       -0.0616576 -0.024998426 0.06373346 0.018828426
000050 e8 a2 38 bd 4e 86 99 3d 40 1c 84 3d 6d 3f a3 bd
       -0.045077235 0.0749632 0.06450701 -0.07971082
000060 66 e2 87 3d 2d 94 bd bd 17 41 83 3d f2 28 bc 3b
       0.06634979 -0.09256778 0.06408899 0.0057421857
000070 57 cc 1f 3d b0 9d 09 be dc 24 70 3c 74 89 8e bd
       0.039013233 -0.1343906 0.014657225 -0.06959811
000080 31 59 e5 3d db fb 1b 3d ca ce 00 bc 14 e1 81 bd
       0.111986525 0.038081985 -0.007861802 -0.06341758
000090 22 b4 1c be d0 c0 e8 3d 64 f9 9e bd fc 8c 90 3c
       -0.1530309 0.11364901 -0.07762411 0.017645352
0000a0 3c 7f c9 bc 1a 11 ea 3c 36 f5 84 3b 6e 18 59 3d
       -0.024596803 0.028572608 0.0040575517 0.053001814
0000b0 dd e7 9e 3d 0a e9 0a bc 8c c7 d3 bd 0a 2d 11 bc
       0.07759068 -0.008478412 -0.10340795 -0.008860836
0000c0 6d f1 5c bd 13 96 8d bd db 96 24 bd e7 d0 bd bd
       -0.05394118 -0.0691339 -0.04018293 -0.092683606
0000d0 9a ca 86 bc 8c 53 fc bc 6c 82 91 3c 64 f3 08 3e
       -0.01645403 -0.030801557 0.017762385 0.13374096
0000e0 cb 5d a6 bc 89 0b 80 3d a3 d6 b8 bd 98 21 05 3d
       -0.020308396 0.062522 -0.09025314 0.03250274
0000f0 0e f9 91 3c f2 cb 63 bd d5 9a 80 bd a5 bd 66 3b
       0.017818954 -0.05561442 -0.06279532 0.0035208252
000100 02 63 68 3c a8 3e b7 3a 2c 11 56 3d b6 a7 81 bd
       0.014183762 0.0013980465 0.05226247 -0.063308164
000110 eb 84 a7 3d b6 4a 41 bd 22 71 0f be eb 7b 2e 3d
       0.08179649 -0.04719039 -0.14008 0.042598646
000120 fb ef 04 3d f0 85 cb 3d 61 f6 c4 3d 79 34 ca bc
       0.032455426 0.09937656 0.096173055 -0.024683224
000130 68 66 41 bd 29 ed 08 bd 3c 8c 64 bd 2f 10 d4 bd
       -0.047216803 -0.0334293 -0.0557978 -0.10354649
000140 59 a8 30 bc 1f 33 db 3c c8 a6 5d 3c 4d 29 13 3e
       -0.010782325 0.026757775 0.013528533 0.14371224
000150 69 bb 04 3d 0b 9d 86 3d 00 3b ff 3c cb 6c 59 3c
       0.03240529 0.06572922 0.031156063 0.013270567
000160 1c 44 50 be 4b 78 a9 bd b9 f8 bf 3c 14 f2 4f bd
       -0.20338482 -0.08274897 0.02343403 -0.050767973
000170 93 01 99 bd ea ac 02 be 05 33 11 3c 80 91 c5 bd
       -0.074710034 -0.12761274 0.008862262 -0.096468925
000180 d6 f8 34 bd ce 74 ac 3a 96 3d 28 3c 9e 75 1d 3e
       -0.04418262 0.0013157369 0.0102685895 0.15376899
000190 a4 06 b1 3d 7d 7a 15 3d 6c 70 17 bb 52 a7 48 bd
       0.08643845 0.036493767 -0.002310778 -0.048987694
0001a0 f8 6d 99 bc e5 66 71 bc 27 02 59 3e 83 c9 a2 38
       -0.018729195 -0.014734005 0.21192227 7.7622964e-05
0001b0 26 7f 82 3d 30 5a ee 3d 09 e1 7c 3d 6e e9 98 3c
       0.06371908 0.11638296 0.061738048 0.018665995
0001c0 15 9b 45 3c ab 7c b0 3d dd 37 f7 bd ea 22 56 3d
       0.0120609 0.086175285 -0.12071202 0.05227939
0001d0 51 30 3e bd dd 1f e9 bb 47 48 e0 3b 17 6a 05 3e
       -0.046432797 -0.007114394 0.0068445536 0.13028751
0001e0 4c e4 ab 3d 0d 54 8b bb 7e a9 6d bd 78 ba 92 3c
       0.083931535 -0.004251963 -0.05802297 0.01791118
0001f0 6f 44 72 bd bc 82 ea bc 2c c7 2a 3c 77 0f 1f 3d
       -0.059147295 -0.028626792 0.010423463 0.038833108
000200 de ed c9 bb 8e 65 40 3d da 13 42 3d 64 98 3b bd
       -0.006162389 0.04697185 0.047382213 -0.045799628
000210 f3 1c ae bc 3f 22 7b 3d dd 03 66 bd 7e 2b 96 bd
       -0.021254038 0.061311956 -0.056156028 -0.07332514
000220 54 18 66 bd 60 aa d6 3d e6 04 86 bd 47 eb b5 bd
       -0.056175545 0.10481715 -0.06543903 -0.08882766
000230 9c 26 89 3d ae 00 ac 3d 93 11 e6 bc c7 50 1c bc
       0.06696817 0.08398567 -0.028084552 -0.009540743
000240 37 0d 38 bd c8 c5 78 3d 23 30 c2 bd aa 0a f1 3a
       -0.044934478 0.060735494 -0.094818376 0.0018390019
000250 00 43 6d bb f5 58 15 3e 87 22 8f 3d 90 2b b1 bd
       -0.0036203265 0.14584716 0.069890074 -0.08650887
000260 0c 60 ac bd 1c 83 be bb 8e e3 c7 b8 c5 36 82 3d
       -0.08416757 -0.0058139693 -9.531445e-05 0.06358103
000270 8a 04 c1 bd ad 28 39 bd e8 61 a2 3c 3a 88 fd bc
       -0.09424694 -0.045204807 0.019822076 -0.030948747
000280 e9 a5 18 3d 12 5a 6a bd 7f cc ca bd ed d0 98 bd
       0.0372676 -0.057214804 -0.09902286 -0.074617244
000290 a1 e5 ed bb 4f 2e 3b bd b2 93 fe bb a4 0d cd 3d
       -0.00726004 -0.04569846 -0.0077690715 0.10012367
0002a0 9f 6d c3 bc ab fd 7f bd bb 27 9c 3d 4e c2 b8 3d
       -0.023855982 -0.062497776 0.076247655 0.09021436
0002b0 7f 63 48 3d a3 20 cd bc 3b ec a4 bc 51 9f a7 bb
       0.048923012 -0.025039976 -0.020132175 -0.0051154275
0002c0 49 a0 b7 bb f3 53 a1 3d 7f c2 0f bc ea 41 15 bd
       -0.0056038243 0.0787734 -0.008774399 -0.036439814
0002d0 e0 17 70 3d da 86 da 3c 2a 1a 86 3d 93 ac 73 bc
       0.05861652 0.02667563 0.06547959 -0.014872688
0002e0 a6 63 af bc f0 70 cb bc 6c 07 16 bc 79 b9 84 bc
       -0.02140982 -0.024834126 -0.009157043 -0.016201722
0002f0 e6 14 1f 3e e9 a4 ea 3b de 6f ce 3d 41 5d ce bd
       0.15535316 0.007160772 0.10079931 -0.100763805
000300 fc ed 07 bc 6f fc 79 bc e5 24 ef bd 04 47 a0 3d
       -0.008296486 -0.015257939 -0.11676959 0.07826045
000310 c6 29 8a 3d a2 1f d0 bc d4 b4 bc 3d 00 ec b2 3c
       0.06746249 -0.025405709 0.09214178 0.02184105
000320 c7 22 9b bd 1d 47 3f bd d1 49 da 3d 07 f9 66 bd
       -0.075749926 -0.04669868 0.106586106 -0.056389835
000330 0c 39 a4 bc 7b fa c8 bd 9d 83 3f 3d f1 e3 97 3d
       -0.020046733 -0.098134 0.046756376 0.07416523
000340 2b cd 34 3d 92 82 8b 3d 5a fa 19 bd b1 90 55 bd
       0.044140976 0.06812014 -0.03759227 -0.05213994
000350 8d 94 22 3d 18 2a 8a bc 96 e4 1d 3d c3 5a 65 3d
       0.03969245 -0.016865775 0.038548075 0.05599476
000360 a6 4a c5 3c b0 a4 7f bd 0c 8f 5e 3d 8c 09 97 3d
       0.024083447 -0.062412918 0.05433564 0.07374868
000370 d8 dd 3c 3d 22 b6 92 3c 5b a5 3f 3d ff df 2c bd
       0.046110004 0.017909113 0.046788555 -0.042205807
000380 44 75 98 bc 29 bc 9e bc 56 40 aa bd c8 b6 09 3d
       -0.018610604 -0.019376831 -0.08313052 0.03362158
000390 30 d8 5c 3c d1 8f 23 3d cc 6e df bd 37 ad 73 3d
       0.0134792775 0.039932076 -0.10909805 0.059491362
0003a0 f3 fc a8 3c dd 60 16 3d f0 fa 62 3d fa 88 70 bd
       0.020628428 0.03671347 0.055415094 -0.05872438
0003b0 a4 49 aa 3b cc 15 4e bd 54 c9 17 bd d4 51 8b 3d
       0.005196767 -0.050313756 -0.037057236 0.06802717
0003c0 68 25 71 3c 40 d4 46 3d bc 10 d7 bd 27 96 3c 3d
       0.014718391 0.04854226 -0.10501239 0.046041634
0003d0 1c 40 ee 3c db 2d 3c bd a8 55 2b 3d dd a9 7d 3a
       0.029083304 -0.04594217 0.041829735 0.00096764957
0003e0 6c e9 2b 3c 8d 7c c7 bc 59 29 c4 bd 83 7e 5a bb
       0.010492664 -0.024351383 -0.09578199 -0.0033339567
0003f0 3d c4 95 bd 9c 3d 68 3d dd 0d 0b 3d 5e 22 44 3c
       -0.0731282 0.05669938 0.033948768 0.011971084

layers.1.bias f4 [128]
000000 a0 f5 06 3e ea 03 9c 3d 35 77 69 bd b8 be f8 3d
       0.13179636 0.07617934 -0.05699845 0.12145752
000010 81 55 a2 bd 79 00 31 3d 67 86 21 3d db 8d f0 3d
       -0.07926465 0.04321334 0.039434817 0.11745807
000020 c8 70 e5 3d c7 f0 7c bd 26 a8 17 be 78 b6 9e 3d
       0.11203152 -0.06175306 -0.14810237 0.07749647
000030 77 b3 de bd 9b 7c 6f bd ae 27 f2 3c df 55 d2 3c
       -0.10874074 -0.058468442 0.029559936 0.025675712
000040 a5 11 b3 3d 05 29 8f bd 89 f0 a8 bd 23 8a da bd
       0.087436 -0.06990246 -0.082490034 -0.10670879
000050 56 63 b4 3d 47 6a 04 3d 7d d8 71 bd 3c 1a 5f 3d
       0.08808009 0.032327916 -0.05904435 0.05446838
000060 16 fb be bc a4 6c cc bd ad ed 6b 3d 47 7c 9b 3d
       -0.023313086 -0.09981659 0.057599712 0.075920634
000070 6b 9a 76 3d 35 11 8b 3d c9 3f ba 3d a5 7d ec bd
       0.06020586 0.06790391 0.09094197 -0.11547402
000080 90 76 4d 3d 14 4b e1 3d d4 6b 06 3e 08 28 0f 3e
       0.050161898 0.11000648 0.1312707 0.13980114
000090 f7 40 f2 3d 09 e0 5f bd 31 66 86 3d e6 68 c6 3d
       0.11828797 -0.054657016 0.0656246 0.096879765
0000a0 12 f9 b9 bd cb cc c0 bd 4a 7d 92 bc 5a 24 9a 3c
       -0.090807095 -0.09414061 -0.017882008 0.018816162
0000b0 36 f1 e0 3c 67 e0 4b 3c 24 68 c9 bd c6 81 d2 bd
       0.027458768 0.012443638 -0.098343164 -0.102786586
0000c0 00 c8 88 3c 71 2c 7a 3c 86 5a e3 bc 5d a2 68 bc
       0.01669693 0.015269385 -0.027753126 -0.014198867
0000d0 98 f9 ba bc 3c 82 ce 3d b2 09 d2 3d 90 be 04 be
       -0.022824094 0.10083434 0.102557555 -0.12963319
0000e0 d4 e6 4e 3d 77 2d 90 3c 35 b2 06 3e b0 5b b5 bd
       0.050513104 0.017599804 0.13153918 -0.08855379
0000f0 52 9c 0a 3d af 31 01 bd b6 47 d2 bd e0 f2 d6 bd
       0.033840485 -0.031541523 -0.10267584 -0.104955435
000100 27 da 29 3d df 3e 14 3e 63 85 06 be 22 0c 87 3d
       0.041467812 0.14477108 -0.1313682 0.06594111
000110 88 15 b9 3d 26 12 d9 3d a4 09 b4 3d 94 c4 86 3d
       0.0903731 0.10599165 0.08790901 0.06580463
000120 c6 db b8 bd 24 d2 07 3e 1b ae 4c bd 97 3e 68 3d
       -0.090262935 0.13263756 -0.049970727 0.056700315
000130 9d 97 36 bd eb 30 af 3c b2 24 8b bd 41 7d 55 3d
       -0.044578183 0.02138563 -0.067941085 0.052121405
000140 94 93 d8 3d 1f 1d a9 bc f6 dc ba bd a1 b5 d0 3c
       0.10575023 -0.020643769 -0.09124176 0.025477232
000150 9f fc 90 bd 58 4b 3b 3d 07 1e 20 bc c9 7d 26 3d
       -0.07079434 0.04572615 -0.009772784 0.0406473
000160 ea 82 18 3c 97 20 4f bc 0c f3 46 3d ed fe d1 3d
       0.009308556 -0.012642047 0.04857163 0.10253701
000170 44 5b 96 3d 46 7b 98 3c 2e 30 5f bd 75 e4 82 bc
       0.07341626 0.018613469 -0.054489307 -0.015978077
000180 4f 77 5d 3c 4e 99 d3 3d 78 cd 16 bd 80 6e b9 bd
       0.013517215 0.10331975 -0.036817044 -0.09054279
000190 e5 5c 16 3d 66 b4 82 bb e0 1e 3b bc 02 2d ca bc
       0.036709685 -0.0039887903 -0.011420935 -0.024679665
0001a0 f1 9c 1c bd 55 78 b1 bd 3e eb 18 bd b0 8e 9c bd
       -0.03823561 -0.0866553 -0.03733372 -0.07644403
0001b0 31 29 c5 3d 97 bb 8f bd 25 2d 56 be 86 7a 61 bb
       0.09626997 -0.07018202 -0.20915659 -0.0034405305
0001c0 e4 16 21 3d 5f 64 8b bd 01 c3 85 bd 6a aa 0a bd
       0.03932847 -0.06806254 -0.06531335 -0.033853926
0001d0 c1 8e ee bc 56 89 00 3e e1 54 0e 3d 43 73 e3 bd
       -0.029120805 0.1255239 0.034748916 -0.11105969
0001e0 a9 7f 96 3c 86 a4 02 be 2b 3b 39 bc f1 1c b7 bd
       0.01837142 -0.12758073 -0.011305611 -0.08941067
0001f0 51 46 41 bd c2 ca be bc 50 90 13 3d f5 65 00 3e
       -0.0471862 -0.023290042 0.0360263 0.12538894

layers.2.weight f4 [64, 128]
000000 21 32 7e 3d 8f 39 8f 3d 58 a4 55 3d 68 4c 98 3d
       0.062059525 0.069934 0.052158684 0.07436448
000010 44 45 ae bd f8 c2 e9 3d 51 cf eb bd f1 22 d1 3d
       -0.08509305 0.114141405 -0.11514152 0.10211743
000020 0c 67 1a 3d ee 2c 53 bd 40 00 cd bd 50 ab d1 bc
       0.03769593 -0.05155652 -0.10009813 -0.025594383
000030 f1 9e 68 bd 71 1b ef bd ac 5e a6 3d 41 b1 c3 3b
       -0.056792203 -0.11675156 0.08123526 0.005972058
000040 4e 86 ce 3d 38 6f b0 bd be 55 bf bc 29 79 b2 3c
       0.1008421 -0.08614963 -0.023356315 0.02178629
000050 c8 e3 0b 3e 0c d4 43 bc 3a d0 d0 bc 4e 2c 0f 3d
       0.1366111 -0.011952411 -0.025489915 0.03495436
000060 a3 f0 aa bd d0 b5 83 bd 96 3b c4 bc 8d 2c 82 bc
       -0.08346679 -0.06431162 -0.023954194 -0.015890384
000070 6e 6f 1c bc 5e ec a8 3c bf a1 9e 3d ab 26 00 be
       -0.009548051 0.020620521 0.07745694 -0.1251475
000080 a0 a8 f0 3d c4 2f e3 3d 74 51 b2 3d 55 aa be bd
       0.11750913 0.11093095 0.08706942 -0.09309832
000090 b0 fa ac 3d 97 87 f2 bd e4 e8 e8 3d e6 d1 84 3d
       0.08446252 -0.11842268 0.11372545 0.064853474
0000a0 b6 14 31 3c 86 67 b5 3c 61 1e 0e 3e d9 2e 9f bd
       0.0108081605 0.02214409 0.13878776 -0.07772607
0000b0 75 d7 9d bd 68 37 64 bd b3 15 ab bd 1c 0e 7c 3d
       -0.07707111 -0.055716902 -0.08353748 0.061536893
0000c0 ee 84 ef bc e0 b6 29 3d 85 46 f6 bc ec e0 5d 3c
       -0.02923819 0.04143417 -0.030062923 0.013542395
0000d0 51 cd ab 3a 44 62 68 bc 8d cc 04 3e 34 81 83 3d
       0.0013107454 -0.014183585 0.12968655 0.06421128
0000e0 2b c4 81 bd d6 85 6c bd fa df 4b 3d d0 e8 05 be
       -0.06336244 -0.057744823 0.049774148 -0.13077092
0000f0 68 ce a0 3c 12 d2 91 3c 00 79 2c bd e8 c3 0a be
       0.019629672 0.017800365 -0.042107582 -0.13551295
000100 1c 1b 85 3d ce 46 02 3d cd 04 00 be 19 dc b7 3c
       0.06499311 0.031805806 -0.12501831 0.022443818
000110 f9 b2 ff 3c c6 4f b2 3c 22 1b a4 3c 51 96 10 be
       0.03121327 0.021766555 0.02003247 -0.14119841
000120 9f 28 ab bd 93 9a a7 3d e0 3e 24 bd fe 9b 00 3e
       -0.08357357 0.081837796 -0.040099025 0.12559506
000130 8e 0d d0 bc 36 97 83 3c 7e e4 0c 3d 19 e2 90 3d
       -0.025397088 0.016063314 0.034397595 0.07074375
000140 d9 f1 a2 3d 07 27 0a 3d 25 b3 ae 3d 55 ad 00 bd
       0.07956285 0.033728626 0.08530263 -0.031415302
000150 ec 23 04 bd 38 e5 0d 3b ed 6c 37 bd 84 f2 65 bc
       -0.03226082 0.0021651518 -0.044781614 -0.014034871
000160 b5 58 ea 3d 6d fd 81 bd 4d b7 17 bd c8 4c c9 3d
       0.11442701 -0.06347165 -0.037040044 0.09829098
000170 1a 12 0f 3d c1 d3 98 3c cf fc 13 3e 5a 23 72 3d
       0.034929372 0.01865566 0.14451908 0.059115745
000180 1c c1 52 bd af 70 45 3d 54 ba 06 3e 41 00 54 bd
       -0.051453695 0.048203167 0.13157016 -0.051758055
000190 55 cf 06 be b3 2c 4b 3c 22 bf ec 3d 0f f6 c1 3d
       -0.13165028 0.012400794 0.11559893 0.0947076
0001a0 d2 c8 5a 3d 89 9b d0 bc da 8a 01 3e 35 55 b3 bd
       0.053414173 -0.02546479 0.12650624 -0.08756486
0001b0 54 5a 85 3c 97 e0 9d bd 82 66 45 3d a2 82 ce bd
       0.016278423 -0.07708853 0.048193462 -0.1008351
0001c0 1e 16 d3 3d 98 d9 05 be 4c bc f1 bd 57 aa c2 bd
       0.10306953 -0.13071287 -0.11803493 -0.09505146
0001d0 e5 12 8c bd 6c 12 bb 3c d1 f7 8c 3d 5c 49 d2 bc
       -0.06839541 0.022835933 0.06883205 -0.025669746
0001e0 cd 75 d6 3c 1e 5d 09 be 17 01 12 3b a5 9c 2b 3d
       0.026179219 -0.13414428 0.0022278482 0.041897435
0001f0 c2 c1 37 bd a6 77 a4 bd 6b 0f b8 bd 87 ba bc 3d
       -0.044862516 -0.08030634 -0.08987316 0.09215265
000200 59 e6 dc bd e6 bf 0a bc 06 8e ff 3c db f3 db 3c
       -0.10786123 -0.008468604 0.031195652 0.026849678
000210 8f 7b 02 3e dc 3c 02 be 73 3b 14 3e 32 2e e1 bd
       0.12742446 -0.12718529 0.14475803 -0.10995139
000220 d1 a4 f0 bd 8c de ad bc 8b f3 1d 3e 4c f0 b4 3d
       -0.11750186 -0.021224283 0.15424936 0.088348955
000230 02 17 8c 3d 8d 29 0b 3e d2 b9 e4 bd 96 d2 48 bc
       0.06840326 0.13590069 -0.11168255 -0.012257239
000240 13 dc c5 bd 5d 1a 55 bc 8e 6d 10 3d a2 78 a6 3d
       -0.096611165 -0.013006774 0.03526073 0.08128478
000250 77 97 8f bd 85 2e 39 bc 9a 54 00 be 57 5a b6 3b
       -0.070113115 -0.011302595 -0.12532273 0.0055649686
000260 34 d2 08 bc 2c 47 00 3e 5e 8f f9 bb 25 60 b1 3c
       -0.008350898 0.1252715 -0.0076159677 0.02165229
000270 42 c7 9c bd af d4 c0 bc 3b 89 60 bd 52 a6 31 3d
       -0.07655193 -0.023538915 -0.054818373 0.043371506
000280 fb fb 0e 3d db 66 79 3d 06 68 6c bd 5f 4e a9 3d
       0.034908276 0.060889106 -0.057716392 0.08266901
000290 d9 c3 e5 bd 84 be 7d 3d d0 eb bf bd 7a db c7 3c
       -0.112189956 0.061949268 -0.093711495 0.024396647
0002a0 1b 57 d3 bc af 82 ca 3d e1 3e 09 be 48 db 95 bd
       -0.025798371 0.09888207 -0.13402893 -0.07317215
0002b0 cc 08 fa 3c 22 52 10 3e 38 76 c2 3d 0b cd dc 3d
       0.030521773 0.14093831 0.09495205 0.10781296
0002c0 88 6b 80 ba 2e 61 d0 bd 36 0d b3 ba 0f 43 8b bd
       -0.0009797672 -0.101747856 -0.0013660553 -0.067999
0002d0 a2 1c aa 3d e1 65 d4 3d c0 8e 4c bd 00 cb cf 3c
       0.083062425 0.10370994 -0.049940825 0.025365353
0002e0 e4 56 29 3e 85 09 42 3d a7 9c 08 be da ef f6 3c
       0.16537052 0.04737236 -0.13341008 0.030143667
0002f0 a7 36 2f be 9c c5 9c 3d 60 4d fe 3c 79 44 b6 3d
       -0.17110692 0.076548785 0.031042755 0.08899779
000300 e3 4a 93 bd a1 66 11 be 61 a7 a7 3d 0c df 9a bd
       -0.07192018 -0.14199306 0.08186222 -0.07562074
000310 3a 59 b5 bd a7 48 80 bd b9 40 02 bd 38 fd 12 3c
       -0.08854909 -0.06263857 -0.031800006 0.008971505
000320 38 2d 90 3d 8a a0 73 3d 87 dd 1f bc c9 04 ab bd
       0.07039875 0.059479274 -0.009757406 -0.08350522
000330 99 46 97 3d 62 ff 8c bd c1 c4 ab bd cf 1b 4a bd
       0.07386512 -0.06884648 -0.08387137 -0.049342927
000340 e2 4e ec bd 8e 09 b6 bc 5d 10 01 bd 1e 19 e0 bc
       -0.11538483 -0.022221353 -0.031509746 -0.027355727
000350 4e 03 af 3d 6d ba e5 3d be 24 de bd ec d3 de 3c
       0.08545552 0.112171985 -0.10846852 0.027200662
000360 09 10 bd bd a8 0f 3f 3d da 05 85 3c 16 41 36 3c
       -0.09231574 0.04664579 0.016238142 0.011123916
000370 d2 25 02 be 87 d6 22 bd 7e 03 0f be 6d 45 fc bc
       -0.1270974 -0.03975537 -0.13966176 -0.030794824
000380 f9 bd 05 3e d1 45 1c bd 94 4e c0 bd 27 30 75 3d
       0.1306075 -0.03815252 -0.093899876 0.059860375
000390 f0 82 7e 3d 03 e0 51 3c ce 7c c9 bc 3d 3f 80 bc
       0.06213659 0.012809756 -0.024595644 -0.015655154
0003a0 3b cb 0b be 31 ae 18 3e af f4 a5 bd 06 2c c4 3d
       -0.13651745 0.14910199 -0.0810331 0.09578709
0003b0 ab e6 ab bd 5d ba 23 3e ef b7 c9 bc 07 37 0c 3e
       -0.08393606 0.1598906 -0.02462384 0.13692866
0003c0 4f ca 85 bd 2d 13 0a bd 4b da 0f 3d e0 c6 b3 3d
       -0.06532728 -0.033709694 0.03512029 0.08778167
0003d0 f8 2f c5 3d 75 68 92 bd 09 46 e7 39 6e 97 a8 3c
       0.0962829 -0.0714883 0.00044111934 0.02058002
0003e0 c6 b3 96 bc 43 4a ed 3d 04 88 d1 3d 11 9c 61 3c
       -0.01839627 0.1158643 0.10231021 0.013770119
0003f0 fb d9 0b 3d 28 d7 90 3d 89 bd 11 bd c5 d3 60 ba
       0.03414343 0.07072288 -0.035581145 -0.0008576478

layers.2.bias f4 [64]
000000 04 ca 97 3d 32 de 59 3c 63 85 4e 3d a9 34 9e 3d
       0.07411578 0.013297604 0.050420176 0.07724888
000010 5a e6 80 bd b4 9b f3 3d 77 ab 1f 3d 39 60 94 bc
       -0.06293936 0.118949324 0.03898188 -0.018112289
000020 53 4b e4 3d f0 18 fa bd 74 85 00 bc a2 f4 3a bb
       0.111471795 -0.12211788 -0.007844318 -0.002852716
000030 ca ec 01 be 36 8f b1 3d 50 5b 26 3b da af e2 bd
       -0.12687984 0.086698934 0.0025384016 -0.11068697
000040 28 a5 a3 bc 15 6e 7d 3d 0f aa 28 3d 94 3b a9 3d
       -0.019976214 0.06187256 0.041177806 0.08263317
000050 a5 c0 c9 3d 4e c8 b4 3d 8b ac 56 bb 10 e7 92 3d
       0.09851197 0.088272676 -0.0032756652 0.07172978
000060 3b 8e b3 bd 0e 1a cf bc d3 3b 83 3c ce 7f e8 3b
       -0.08767363 -0.025280979 0.016019737 0.0070953136
000070 c9 78 82 bd 21 40 7d 3c 46 bc 05 3d b3 23 ad bd
       -0.06370694 0.015457184 0.032650255 -0.08454075
000080 e9 61 c2 3a ac ea 6e 3d 96 29 00 be c3 d6 cb bd
       0.0014830205 0.05832927 -0.12515864 -0.09953072
000090 17 e3 1d 3d db ca c9 3c 89 25 9b 3d 96 f2 3f 3c
       0.038546648 0.024632862 0.07575519 0.011715552
0000a0 25 a0 2d bd 09 ba d0 3d 30 72 15 3d cf 3d db bd
       -0.042389054 0.101917334 0.03648585 -0.107051484
0000b0 fe 39 b8 3c 8e b4 e1 3d 09 d8 90 3d 40 09 95 3d
       0.02248859 0.11020766 0.070724554 0.07277155
0000c0 7a 4a 68 3d db 2a bb 3c 88 03 c5 3d d7 41 28 bc
       0.05671165 0.022847584 0.09619814 -0.010269604
0000d0 5a 50 a1 3d ee b7 3d bd bf 4f cf 3d 58 51 31 3d
       0.07876654 -0.046317987 0.10122632 0.043290466
0000e0 20 20 08 3e fb 10 cb bc 03 5a 8f 3c cc da a7 bc
       0.13293505 -0.02478837 0.017498976 -0.020490073
0000f0 21 5e 01 3d 68 bb 45 3d e1 42 28 bc ee d3 90 bd
       0.03158391 0.048274428 -0.010269851 -0.070716724

readout.weight f4 [1, 64]
000000 9b a6 a4 bf 0d 0a 90 3f d8 ca 17 bf 44 3d 84 bf
       -1.2863344 1.1253067 -0.5929389 -1.0331197
000010 5a c4 8d 3f 97 03 75 bf 3e e1 68 3f e1 ea 7c bf
       1.1075547 -0.957086 0.9096869 -0.98795897
000020 c5 23 2e bf 2d eb 1f 3f f7 0b 63 bf 37 31 26 bf
       -0.6802333 0.62468225 -0.8869013 -0.64918846
000030 bf 75 89 3f 0c 72 46 bf ae 1b 91 bf ae 07 3a 3f
       1.0739058 -0.7751777 -1.1336572 0.7266797
000040 62 09 a2 3f ce 42 22 3f 5b 1c 2b 3f 4c ae 02 bf
       1.2659113 0.63383186 0.6684014 -0.51047206
000050 28 28 8e bf 89 b2 76 bf 5c 61 9e 3f 9b 25 36 bf
       -1.1106005 -0.96366173 1.2373462 -0.7115113
000060 01 1d 6e 3f 07 bc f4 3e af 3b 84 bf ec f3 35 3f
       0.93013006 0.47799703 -1.0330714 0.7107532
000070 3c df 8d 3f d1 02 91 3f 84 ee 2f 3f b3 ac 3c 3f
       1.1083751 1.1328984 0.6872332 0.7370102
000080 e5 92 0f 3f 0f a7 91 bf 8e 2a 1a 3f 43 6d e9 be
       0.5608352 -1.1379107 0.60221183 -0.45591173
000090 6c ec 32 bf 20 ca e9 3e 6a ea 1a bf b1 9f 21 bf
       -0.69892 0.45662022 -0.6051394 -0.63134295
0000a0 47 8b 15 3f 53 11 8b bf 89 5b 55 bf 34 29 68 3f
       0.58415645 -1.0864662 -0.83342797 0.9068787
0000b0 12 d6 59 bf 3c 5c 07 bf 15 cc 03 bf f9 40 23 bf
       -0.8509227 -0.52875113 -0.5148328 -0.63771015
0000c0 ab 6e 9a bf 76 22 40 3f 48 ce 18 bf 13 e9 37 3f
       -1.2065023 0.75052583 -0.5968976 0.7184002
0000d0 2a 50 4a bf 88 2e 89 3f 8e d1 15 bf ac 1d 8a bf
       -0.7902857 1.0717325 -0.5852288 -1.0790305
0000e0 50 25 56 bf a7 b3 97 3f 99 b0 38 3f 49 bf 5b 3f
       -0.83650684 1.18517 0.72144467 0.85838753
0000f0 40 24 11 bf 7c f4 5b bf 48 76 9f bf c8 e7 14 3f
       -0.5669594 -0.8591993 -1.2457972 0.5816617

layers.0.weight f4 [128, 8]
000000 50 8c f7 3d e8 86 69 bd 02 fe b3 3e 9b 7c 16 bf
       0.12087309 -0.057013422 0.3515473 -0.5878388
000010 5c db 30 bf e0 8d b6 be ed 03 60 be 80 c7 4a be
       -0.69084716 -0.35655117 -0.21876498 -0.19802666
000020 d8 04 69 3e b3 d8 1f 3e 24 9a e8 bc f1 2b c7 3e
       0.22755754 0.15610008 -0.028393812 0.38900712
000030 9e 3b 17 3e 51 df 84 3e f7 eb 5f be 94 c1 62 be
       0.14768836 0.25951627 -0.21867357 -0.22144157
000040 56 2b cf 3e 1c 67 e5 3b 52 cb 80 3e 5b 1a 0a be
       0.4046275 0.007000817 0.2515512 -0.13486616
000050 c1 48 f9 3e b0 67 43 3d b2 c2 93 be 3d 11 96 bd
       0.4868832 0.047706306 -0.28859478 -0.07327507
000060 e5 78 9f 3d 9a dd 18 3e 0e ab 26 3e 62 fa 7c bc
       0.07786731 0.14928284 0.1627619 -0.015440555
000070 0e 31 36 bf 6e 73 57 3d aa df 83 be 65 5e 32 be
       -0.711686 0.052600317 -0.2575658 -0.17418821
000080 e5 5e 62 be 77 b5 6c 3e da f4 07 3e a9 07 49 be
       -0.22106512 0.23116098 0.13276997 -0.19631828
000090 4f a1 01 bf 4a 4d a9 bd 76 64 08 3e 83 5e b8 3a
       -0.5063676 -0.08266695 0.13319573 0.0014066253
0000a0 bc 89 19 3e 62 0c ef 3c f0 27 c6 3e a9 f0 15 bf
       0.14993948 0.02918071 0.38702345 -0.58570343
0000b0 a2 0e a2 be d8 e4 7c be dd 53 4b bd c8 f1 65 be
       -0.3165179 -0.24696672 -0.049640525 -0.22455513
0000c0 c2 11 d5 bd af d1 5d 3e c2 74 b4 3e 3c 81 39 bf
       -0.10403778 0.21662019 0.3524533 -0.7246282
0000d0 d9 c7 5b be ab a3 de 3e fc cf d7 bd 3b 8e c8 3e
       -0.21462955 0.43484244 -0.10537717 0.39171013
0000e0 13 8f 52 3d 99 70 86 3e 77 0a fd bc c4 33 0f bf
       0.051405977 0.2625778 -0.03088878 -0.55938363
0000f0 48 12 c5 be 6a 99 e2 be 47 3e 11 3e e8 e3 c9 bc
       -0.3849051 -0.4425767 0.14183913 -0.024644807
000100 97 5b a3 3e 64 01 3d bd 6c 4a 2d bb 16 1d 81 be
       0.31905815 -0.046143904 -0.0026442064 -0.25217503
000110 f8 a5 67 3f 8c 74 1a 3e 10 eb 9b 3d 8a 01 22 3e
       0.90487623 0.15083522 0.07613194 0.158209
000120 67 d2 54 3d 4b 1f 87 3e c3 22 5a 3e 77 84 5c bf
       0.051958468 0.26391062 0.21302323 -0.86139625
000130 e7 cc f8 be af 34 c0 3e 4f 6b b7 3e 83 e0 7d 3e
       -0.48593828 0.37540194 0.35824057 0.24792676
000140 f0 48 b5 be b0 92 54 3e f1 bb 2d 3e 85 e9 73 3f
       -0.3540721 0.20759082 0.16966225 0.952782
000150 9c 15 86 3f 68 a1 8a 3e cd 20 a2 3d ac 0e 6a be
       1.0475345 0.27076268 0.079164125 -0.2285716
000160 33 c2 aa 3e 81 0f b1 3e 7e 19 98 3e c6 0c f1 3e
       0.33351287 0.3458214 0.2970695 0.47080058
000170 99 74 7a 3e 0a 05 2b bd 8a a8 9a 3e 80 4e a2 3e
       0.24458541 -0.041752852 0.3020671 0.31700516
000180 95 9b 3f 3e e5 c1 b1 3e c7 f1 3e be 56 ab 89 be
       0.18711694 0.34718242 -0.18646918 -0.2688853
000190 d8 29 17 3f d2 c9 0e be f5 86 c6 bc 51 47 ad bc
       0.59048223 -0.13944176 -0.024234274 -0.02115217
0001a0 c3 4d b4 be 2a e7 36 3e 09 8b fe bd 1a d8 7f 3f
       -0.35215577 0.1786162 -0.124288626 0.9993912
0001b0 a3 c4 09 3f a2 10 0b 3f b9 90 9f be 59 04 8b 3e
       0.5381567 0.54322255 -0.31165102 0.27151754
0001c0 a6 02 fe 3e fa 93 07 3e db 86 96 3e 00 25 00 bf
       0.49611396 0.13240042 0.29399762 -0.5005646
0001d0 55 55 ae 3e e2 0f c7 be 66 bb 8b 3e d7 7b 46 be
       0.34049478 -0.38879305 0.2729141 -0.19383179
0001e0 13 62 fd 3b 5f 90 fd 3d 80 66 07 3f 5e db 3c bf
       0.0077326386 0.12381052 0.5289078 -0.7377223
0001f0 2a 84 02 3f 0e 3e 53 3d e0 02 b4 3e 83 f4 a1 3e
       0.50982916 0.05157285 0.35158443 0.3163186
000200 33 b2 d0 3c db 30 ae 3e 5c e3 23 3e 47 76 9e 3e
       0.025475597 0.3402165 0.160047 0.30949613
000210 74 d9 31 3f 42 10 93 3d 81 13 1b be e1 65 23 3e
       0.6947243 0.07180835 -0.15144159 0.15956832
000220 f5 1b 44 be 51 84 36 3e ba d2 b3 3e c0 70 83 3f
       -0.1915129 0.17823912 0.3512171 1.0268784
000230 18 50 46 bf 78 ee 08 3c 65 06 30 3e 94 63 82 3e
       -0.77465963 0.008357637 0.1718994 0.25466597
000240 0d 52 5d bd a9 22 3d 3e b2 41 95 3e 0c 73 49 3f
       -0.054033328 0.18470253 0.29151684 0.7869117
000250 7f d5 b5 bf 90 3e 71 3e 0f b7 00 bd ad 4f 3d 3d
       -1.4205779 0.23559022 -0.03142458 0.046218563
000260 e1 6f a5 be c3 f0 98 3e 85 f7 f7 3e f7 6f 58 bf
       -0.3231192 0.29871187 0.4843103 -0.84545845
000270 db ad c6 be 42 2b 8e 3e 6a 7b 6c bd da bc 92 3e
       -0.38804516 0.27767378 -0.057734884 0.28659707
000280 85 10 6b bd 72 57 2d 3c db 3f 18 3f f6 39 f5 be
       -0.0573888 0.010579931 0.59472436 -0.47895783
000290 7c ab 6b 3e d5 5b ec 3e 17 de 30 be 27 e2 90 3e
       0.23014635 0.46163812 -0.1727222 0.2829754
0002a0 74 78 a1 3e bb 26 f4 3c 9f 5a 92 3e 28 6d 95 bd
       0.3153721 0.029803624 0.28584763 -0.072962105
0002b0 cd 2c 08 be 88 39 c6 be 6f 41 b3 be 46 53 19 be
       -0.1329834 -0.38715768 -0.3501086 -0.14973173
0002c0 8d 6e f2 3e 6f 5d 98 3e 84 fb 16 3e 6b 10 07 be
       0.4734997 0.29758784 0.14744383 -0.13189857
0002d0 81 38 94 bf 16 15 d3 be 71 86 d7 bd 0c fa 83 3d
       -1.1579744 -0.41227025 -0.105236895 0.06444177
0002e0 84 9c 14 be 75 86 0c be 1a 8a a2 be e7 67 a5 3e
       -0.14512831 -0.13723166 -0.31745988 0.32305834
0002f0 4f 56 c6 be c2 72 09 3e 51 8a 70 3e b8 ba 2a be
       -0.38737723 0.13422683 0.23490264 -0.1667279
000300 1f df b5 3e 84 ea e5 3d eb 88 0b 3f 66 cc ed be
       0.3552179 0.11226371 0.54505795 -0.46445006
000310 c8 c0 65 be 49 bb 03 bd c5 fc 81 3e 46 03 8b be
       -0.22436821 -0.03216103 0.2538816 -0.27150935
000320 ac d8 79 3d 19 ba 19 be 47 c8 a3 bd a2 f9 fe 3d
       0.06099765 -0.15012397 -0.07997184 0.124499574
000330 7c 4f 28 3f 3d 14 38 3e 06 8b a3 bd a6 5a 7c be
       0.65746284 0.1797647 -0.07985501 -0.24643955
000340 bf 1e 12 3d 8a f7 cc 3c 53 83 1c 3f a5 10 92 bd
       0.035673853 0.02502038 0.61137885 -0.07132081
000350 a1 6e 82 3f b9 2a b9 3e 7c 53 01 be 3e 90 23 3e
       1.0190011 0.36165407 -0.12629503 0.15972993
000360 10 23 25 be 0e e8 b2 3d f9 39 57 be 80 00 ad 3f
       -0.16126657 0.08735667 -0.21018209 1.3515778
000370 ab 33 d4 be 5c 4d 93 3e c3 b4 18 be 74 a0 0c 3e
       -0.4144567 0.28769958 -0.14912705 0.13733083
000380 dc ef 7a be ac bd 89 3e e8 30 05 3f 3a f8 f6 3d
       -0.24505562 0.2690252 0.5202775 0.12059064
000390 e6 0b 2d bf 89 2d a7 3f b8 ba 1b 3e fc 0b 79 3d
       -0.6759628 1.3060771 0.15207946 0.060802445
0003a0 2d 5b 79 be b3 19 8f 3d 35 1f d5 be 7a d7 a2 be
       -0.24351187 0.069873236 -0.41625372 -0.3180502
0003b0 54 65 b3 be f2 33 99 be 12 cd 99 bd 04 d8 42 3e
       -0.35038245 -0.29922444 -0.07509817 0.19027716
0003c0 4e 67 35 3e 6d c1 a5 3e 8c 69 12 bd f7 ca f7 be
       0.17715189 0.32374135 -0.03574519 -0.48397037
0003d0 f7 d1 e8 bd 7b cb e7 be e3 f8 ab 3e 91 98 20 3c
       -0.113681726 -0.4527243 0.33588323 0.009802
0003e0 05 53 9e 3d 85 49 b2 bd 6f 98 b9 3e 53 79 71 3f
       0.077306785 -0.08705429 0.3624911 0.9432575
0003f0 b2 ac 04 3f 47 32 1e be 33 42 03 3e d7 7f 61 be
       0.5182601 -0.15448867 0.12818222 -0.22021423

layers.0.bias f4 [128]
000000 54 31 1b 3e 12 ef 53 3e 07 0c dd 3d ee 1b 55 3e
       0.15155536 0.20696667 0.1079331 0.20811436
000010 9e e9 1e be 47 19 8a 3e 30 7a d4 bd 72 42 6f 3c
       -0.15518805 0.2697241 -0.10374868 0.014603244
000020 33 20 11 3d a9 c9 f3 bd 13 5a be 3d d8 59 16 be
       0.0354311 -0.11903698 0.09294524 -0.1468271
000030 e4 5f 24 be 39 39 02 3e cf 07 8e bd 4d a6 8c bd
       -0.16052204 0.12717141 -0.06935083 -0.06867657
000040 da 0f 85 be f8 2d 55 be 21 5a 51 be fe 6a 06 be
       -0.25988656 -0.20818317 -0.20444538 -0.13126752
000050 cd 88 f5 3d e0 21 67 3e 37 54 4d be 6b 1b 93 3e
       0.11988983 0.22571516 -0.20051657 0.28731856
000060 34 cc 1c 3e ed 29 bc 3e b6 11 9c be 26 e2 dd bc
       0.15312272 0.36750737 -0.30482262 -0.027085375
000070 af 88 ff 3d 12 82 83 bd 0b 79 3f be 87 cc 83 3e
       0.12477242 -0.06421293 -0.18698518 0.2574198
000080 be 26 db 3c 50 fa a1 bc 31 cf 96 be 27 d8 3c be
       0.026751872 -0.019772679 -0.2945495 -0.1844183
000090 5e b6 9a 3e 02 cd 09 3e 79 0a 17 3e cf 6f ad 3c
       0.3021726 0.1345711 0.14750089 0.021171479
0000a0 46 f5 ed 3d 46 b6 4c bd 6b da c8 bd 2b 29 88 3e
       0.11619048 -0.049978517 -0.09807285 0.2659391
0000b0 c4 29 55 bc a9 2d 1c 3e ac 27 35 be 56 97 10 be
       -0.013010446 0.15251793 -0.17690915 -0.1412023
0000c0 7b 2c 4a 3d 90 c1 1c 3e 9e e1 87 bd 4b 68 53 3e
       0.049358826 0.15308213 -0.0663483 0.20645253
0000d0 a5 4e 96 3e 6b 9f 33 3e 6c eb 47 3e 3d d8 b8 3d
       0.29356876 0.17541282 0.195234 0.09025619
0000e0 a7 f9 c1 3d 40 8d 3e be b0 db fa 3c dc 98 b5 3e
       0.094714455 -0.1860857 0.030622333 0.35468185
0000f0 1d c6 0b 3c ec 41 db 3d fd cf 0e bd e0 31 06 bd
       0.008531121 0.10705933 -0.03486632 -0.03276241
000100 b3 c7 7e 3e b4 50 10 3e c8 7a 81 be 2d b6 eb 3c
       0.24880867 0.14093286 -0.25288987 0.028773392
000110 47 21 51 be 05 16 9f bd e8 41 2b 3e bd 6a ab 3d
       -0.2042285 -0.07767872 0.1672436 0.08369968
000120 14 f4 9b 3d cd ff a5 bd 47 15 1c bd 7f c7 1b 3d
       0.076149136 -0.08105431 -0.03810623 0.03803205
000130 cc d2 be 3e 40 d0 17 be 66 7d 6b 3b b5 76 69 be
       0.372702 -0.14825535 0.0035932898 -0.2279919
000140 8e 92 0d bd a7 64 9c be 2b ce b6 3d b8 7a 0d 3e
       -0.034563594 -0.30545542 0.08926042 0.13816345
000150 05 b0 83 be c1 11 99 be e3 b4 03 be a5 93 af 3e
       -0.2572023 -0.29896358 -0.12861972 0.3429233
000160 68 76 a4 be d2 e1 1e be e9 8c 04 be 1f 75 ac 3e
       -0.32121587 -0.15515831 -0.12944378 0.33683106
000170 c3 bb 53 3e 7c 33 7e 3e f4 1e 2f 3e 9a bb 07 3e
       0.20677094 0.24824327 0.17101651 0.13255158
000180 23 47 1e be 0c 86 3f 3e 6a fd 0d 3e 7d b8 a8 3c
       -0.15456824 0.18703479 0.13866201 0.020595783
000190 7b 31 25 3e cd ac 8a be ca 02 e0 3d 09 d8 fc bd
       0.16132157 -0.27084962 0.10938032 -0.12345893
0001a0 e5 73 81 be e9 f6 af bd 42 98 53 be 53 54 49 bd
       -0.25283733 -0.08592016 -0.2066355 -0.049152683
0001b0 92 18 1a be 8c 75 2a be d4 9f 45 3e 58 33 a7 be
       -0.15048435 -0.16646403 0.19299251 -0.3265636
0001c0 95 7f 9a 3b 30 62 6c 3e dd e8 5e be bc af aa bd
       0.004714916 0.2308433 -0.21768518 -0.083343
0001d0 c8 91 93 3c fe 73 ec bd 1b a9 ff bd 3f 0b 20 bb
       0.01801385 -0.11545561 -0.12483426 -0.0024420766
0001e0 65 60 1c 3e e1 d2 c8 3e 42 70 3f 3e 38 02 9f 3d
       0.15271147 0.39223388 0.18695167 0.07764095
0001f0 65 14 77 3e 11 3e 92 3e 0e ef b3 3e d3 76 67 bd
       0.24128874 0.28562978 0.35143322 -0.056509804

layers.1.weight f4 [128, 128]
000000 a9 84 03 bf c3 ef 1b bd 07 1d 29 3d 31 04 82 bd
       -0.513743 -0.03807045 0.04128745 -0.06348456
000010 a3 2a 97 bd 07 07 09 3d 5e 54 b0 3d 0c c2 38 3d
       -0.07381179 0.033453967 0.08609842 0.045106933
000020 79 b9 6c bd bd 51 31 bd 04 ee 2f 3e a9 3d 9f 3d
       -0.057794068 -0.043290842 0.1718064 0.077754326
000030 a7 4b d7 3d fb 4a e1 3d c3 0d 47 bd a8 69 4f 3e
       0.105124764 0.110006295 -0.04859711 0.20255148
000040 f1 15 b2 3d 7f 0b 51 bf e9 8f 2a bf fc f6 1f 3e
       0.08695591 -0.81658167 -0.6662584 0.15621561
000050 61 2c 3b 3e 03 1e d0 3c fa 9a 30 be 92 80 17 be
       0.18278648 0.025404936 -0.17246619 -0.1479514
000060 6b f5 64 bd 0b 8c 3d bd b6 fd b6 3e 30 85 ad bd
       -0.05589811 -0.046276134 0.3574044 -0.08472669
000070 bb 3a 98 bd 06 53 85 bd d3 9c bf 3c 84 d9 f2 bd
       -0.07433077 -0.06509976 0.02339021 -0.11857894
000080 56 89 5c bf c7 ff b8 be 7a a4 a4 be b3 18 9d be
       -0.8614706 -0.36132643 -0.32156736 -0.30682907
000090 2d 62 85 3d 21 d8 8d 3d a7 d9 b7 be 63 c2 d1 3d
       0.06512866 0.06925989 -0.35908243 0.102421544
0000a0 d0 00 4b be 05 3c c1 be 90 4f 3e be a3 c3 04 3c
       -0.19824529 -0.37741104 -0.18585038 0.008103284
0000b0 21 30 a4 be 29 95 db 3d 88 6c e5 3d 0b 4d b9 be
       -0.3206797 0.107218094 0.11202341 -0.36191592
0000c0 4c be 01 bf 1b 6d 94 be 9f 15 a0 3b 6a b4 0a bc
       -0.50680995 -0.2898949 0.00488539 -0.008465866
0000d0 f4 54 91 3d eb f2 bf be d7 25 b5 bb a9 ed 5b be
       0.07096282 -0.3749002 -0.0055281925 -0.21477379
0000e0 09 47 ff 3d 16 94 70 be 7c 95 d7 3a 9f d3 1c 3d
       0.12464721 -0.2349399 0.0016447748 0.038287755
0000f0 11 41 4d be 9a da 90 be f9 c5 bf bc a6 5d ce 3d
       -0.20044352 -0.2829178 -0.02340983 0.10076456
000100 68 ba b3 bd 7f f0 ad 3c 3c 72 57 be 2a b9 92 3c
       -0.087757885 0.021232842 -0.2103967 0.017910559
000110 8e 12 74 be 5f c9 14 bd 0d 74 d0 3d 45 d9 2b 3d
       -0.23835203 -0.036324855 0.10178385 0.04195525
000120 1e f9 c5 bd cb 16 16 bd 18 87 e9 bd 21 34 d6 3d
       -0.09666656 -0.03664283 -0.1140272 0.104591615
000130 f3 86 15 3e 86 9b 36 be 97 7d 3f bf f0 33 ac 3d
       0.1460226 -0.17832765 -0.7480101 0.08408344
000140 f6 88 fc be 53 7e 28 bf 9b a6 53 bd 47 06 85 3c
       -0.49323243 -0.65817755 -0.05167256 0.016238345
000150 5d 88 92 bd 08 90 25 3e eb c4 9b 3c a0 ac d8 3d
       -0.071549155 0.16168225 0.019014796 0.105798006
000160 9c 1c 7b bf 94 2e c6 be 30 81 9d 3d f2 86 f2 3d
       -0.9809053 -0.3870741 0.07690656 0.11842145
000170 aa 64 15 3d 35 05 a5 3d c8 e9 6c 3e 3e 30 54 be
       0.036472954 0.08057634 0.23136055 -0.20721528
000180 43 83 31 3c b7 02 55 3e 39 99 3f 3c 2b 0b 10 bf
       0.010834518 0.20801817 0.011694246 -0.5626704
000190 d6 d7 9a bd 91 9f 45 3e c8 dc 53 be 4c 85 cf be
       -0.07560699 0.19299151 -0.2068969 -0.40531385
0001a0 f3 23 c7 be 39 2e 04 3e cd 1c df be d3 80 e1 3c
       -0.38894615 0.12908258 -0.4357666 0.027527248
0001b0 89 79 ce 3b 87 d0 bc be d6 77 d8 3c 1e 1d 01 3d
       0.006301109 -0.36877844 0.02642433 0.03152191
0001c0 8a 41 c1 bc 23 39 a8 be 3e a9 30 be 80 03 f4 be
       -0.023590822 -0.32856092 -0.17252061 -0.4765892
0001d0 d4 2c b7 bd 0b 8c 71 be 91 ec b7 3d 51 40 4e 3d
       -0.08944097 -0.23588578 0.08980668 0.050354306
0001e0 2a 10 7a 3c 2f b2 58 3d f4 6f ae bc 51 72 6a 3d
       0.015262643 0.052904304 -0.021293618 0.057237927
0001f0 73 04 f8 bc 5d b9 5f be a2 69 2d bc 71 da 26 bd
       -0.030275559 -0.21848054 -0.010584267 -0.040735666
000200 ee df 30 bc 5c 71 93 bd cf d9 55 3d f8 22 42 3d
       -0.0107955765 -0.07199356 0.05220967 0.04739663
000210 70 15 a3 3d f5 e3 8c 3d b7 4d 47 3c 97 1b 6f 3d
       0.07963073 0.06879417 0.012164525 0.05837592
000220 9a df a9 3d 17 b1 a6 bd 56 e9 cc 3c fd fe cc ba
       0.08294602 -0.08139246 0.025013607 -0.0015639957
000230 86 35 6f bd bc bc bd bc f0 ff e3 3a 3e 6f 2c bc
       -0.058400653 -0.023161285 0.0017395001 -0.010524569
000240 6e c9 0c bd a0 19 d6 bc 08 9e 95 bc 32 1d e1 3c
       -0.034371786 -0.026135266 -0.018263832 0.027479742
000250 97 bf 3f bd 73 7d 79 3d df 3f a6 bd e1 88 43 3d
       -0.046813574 0.060910653 -0.08117651 0.04773796
000260 f8 33 98 bd 7b 7c fb bb 8f 30 c8 bc d1 94 c7 bc
       -0.07431787 -0.0076747513 -0.024437217 -0.024362953
000270 72 34 87 3a 3f 74 8a bd 4a 7f a4 3d 54 60 aa bc
       0.0010315313 -0.067604534 0.08032091 -0.020797886
000280 56 aa 88 3c ca 86 82 3d 49 cc be bb f8 5f c1 3b
       0.016682785 0.06373365 -0.0058226925 0.005901333
000290 5d db 38 bc ff d8 aa bb 7f aa 79 bc 97 50 b0 bd
       -0.011282769 -0.005213856 -0.015238403 -0.08609121
0002a0 ba 6f c3 3c 3e ee 6d 3b de c0 ef 3b cb f8 62 3a
       0.023856986 0.0036305333 0.0073166927 0.0008658289
0002b0 d3 98 4a bc 3a 37 80 bd 22 b5 9b bc df 2e a8 bd
       -0.012365538 -0.06260534 -0.01900727 -0.08212065
0002c0 0a 4e 98 3d 6e 4d 25 bd f5 e5 04 3c e8 ea a1 bc
       0.0743676 -0.040357046 0.008111467 -0.019765332
0002d0 0b 26 b4 bd 1e 47 35 3d cc 7d fb 3a 96 98 34 3b
       -0.087963186 0.044257276 0.0019187271 0.0027556769
0002e0 12 15 bb 3c 04 58 f2 bb 10 01 ab bd 93 c6 aa bd
       0.022837196 -0.007395746 -0.08349812 -0.08338656
0002f0 00 b0 a9 3d 00 ca 39 bd 74 51 06 bd 04 94 83 3c
       0.082855225 -0.045358658 -0.032792524 0.01606179
000300 97 fc 32 bc 51 22 40 bd 0a 66 90 3d 14 37 9a 3d
       -0.01092448 -0.046907727 0.070507124 0.075300366
000310 69 32 4f bd 23 ab 79 bd 03 73 18 bc 18 d7 b6 bd
       -0.050585184 -0.060954224 -0.009304765 -0.089277446
000320 2a ca 90 bd 77 ad 00 bd 60 12 af bd 90 11 d3 bc
       -0.0706981 -0.03141543 -0.08548427 -0.02576521
000330 30 6c 81 3d 95 72 1e bd ab 9d 97 3d 97 9c a1 3d
       0.06319463 -0.038683493 0.0740312 0.07891195
000340 ad 4a b0 bd e8 f2 84 3d f5 42 86 3b e4 30 5e bd
       -0.08607993 0.06491643 0.0040973374 -0.054245844
000350 34 58 d2 bc 14 7d f2 3c e5 3b 90 bd ba 9c a9 bd
       -0.025676824 0.029600658 -0.07042674 -0.08281846
000360 58 2c 06 bd 55 5a fb bc 8b fa 7a bb 28 cf b1 bd
       -0.032757133 -0.030682722 -0.0038296308 -0.0868209
000370 cd 26 5d bd 22 d0 d9 3c 8f fb 23 bc cd 72 5a bc
       -0.05399208 0.026588503 -0.010008707 -0.013333035
000380 04 54 86 bd 0a 3d 10 bd 07 e2 3a 3d 2c 6c 22 3c
       -0.065589935 -0.03521446 0.045625713 0.0099134855
000390 92 82 0d bd 21 9b e6 3c db 60 c3 3c 39 2b 81 3d
       -0.03454835 0.028150143 0.023849895 0.06307072
0003a0 5c 57 5e 3d e4 b5 93 bd 40 84 ad 3c 6b dd da bc
       0.05428253 -0.07212427 0.021181226 -0.026716908
0003b0 5b 7e a5 3d 0b 92 a0 3d 94 0d 78 3d ec 54 89 bc
       0.08080741 0.078403555 0.060559824 -0.016764127
0003c0 95 7a 2d 3d f8 66 4f 3d 25 78 88 3d c0 f5 bc 3c
       0.04235323 0.050635308 0.06663541 0.023066401
0003d0 66 a0 ea 3c 0f 55 ae 3d 2b 8f 4e 3d e7 5a 66 3d
       0.028640937 0.085123174 0.050429504 0.056239035
0003e0 cf c4 e9 bc 2f bc 60 3c b0 27 04 bd b4 11 8f bd
       -0.028536228 0.013716741 -0.03226441 -0.069857985
0003f0 88 f3 b9 bc 7b ca a1 3c d5 b1 74 3d c5 dd ac bc
       -0.022699133 0.01974987 0.059739906 -0.021101842
