Homework9/Gym-DDPG-solution/results/DDPG_Pendulum-v1_1500-eps0.1-t32-l0.0001-s999.pth (torch, 174523 bytes, 12 tensors)

layers.0.weight f4 [128, 4]
0.16146621 -0.521058 -0.41338435 0.3325511 0.109426126 0.91285354 0.28295738 -0.36365354
-0.318932 0.5219277 -0.37008986 -0.32917377 0.1070811 0.35432592 0.26964965 -0.40813524
0.35082275 -0.13605711 0.009744709 -0.2266022 -0.52002114 0.7708686 0.18885094 0.13159709
0.2385548 -0.09717102 0.04246567 -0.29663384 -0.5806827 0.30137745 0.000302475 -0.41356784
0.3588453 0.21480215 0.24981482 -0.097464524 0.21985196 0.16378582 -0.1381691 0.34003785
0.00389921 0.6097033 -0.10031716 0.25056824 0.4389993 0.085424945 0.020325381 -0.08028185
-0.46266624 0.65097785 0.33034763 0.33631995 -0.5209215 -0.48016098 0.3559369 0.17916626
0.3680857 0.6488744 -0.3516246 -0.30518833 -0.7121783 -0.68451667 -0.27310327 0.32975084
-0.39058003 -0.60431296 -0.2731348 0.32513654 0.53581136 -0.49178892 -0.1079195 0.48252627
-0.34081197 0.07488098 0.48762256 0.17051841 -0.43828437 -0.72640353 -0.17554541 0.20121934
-0.46875387 -0.26328376 0.44665283 -0.0410513 -0.40457857 0.24787822 0.38605842 0.32250136
-0.15357888 0.13318971 0.40756753 -0.2858186 0.41987774 -0.20481491 -0.02684979 -0.39643127
0.07259591 -1.101102 -0.22376168 -0.03655767 0.30501476 0.07056663 0.29962474 0.13957928
0.23256011 -0.46307683 0.022426121 -0.24693352 -0.65732616 0.25327075 0.04071195 -0.027493173
0.46678403 -0.7128725 -0.034859646 -0.38045862 0.31074807 0.75573164 -0.16414806 -0.25895625
-0.20580766 0.66027963 0.3052556 -0.14215676 -0.42420256 -0.2008851 -0.112340786 0.10965365
-0.19012254 -0.22081183 0.25472903 -0.33264792 0.46203506 0.14359313 -0.1322732 -0.44048494
-0.62242186 -0.398098 -0.013459042 -0.38209954 0.49095622 0.6479099 0.18275025 -0.30650198
0.60811424 -0.2875067 0.37847635 0.27202386 -0.28419155 0.1698309 -0.15717277 -0.124977745
0.25409186 0.5054961 0.10272047 -0.4208027 -0.4139793 -0.42484412 0.21768697 -0.31560192
0.29175407 -0.9673785 -0.65468633 -0.11732056 -0.12281452 0.4378715 0.69388944 0.10699349
-0.070310146 -0.40903702 0.2513442 0.37872285 -0.39212304 0.58895814 0.015074248 -0.23166938
0.6919445 0.6182172 0.0100532025 0.35848856 -0.290747 0.6688562 -0.1275667 0.2904055
-0.4931385 0.36215788 0.671304 0.27458668 -0.11392629 -0.17800522 0.018777233 -0.057019867
-0.6360181 -0.53426397 -0.10497806 -0.3131559 -0.71188664 0.5135645 0.030105712 0.27894372
-0.24839193 -0.31248134 -0.27697128 -0.26043218 0.7039685 -0.33885857 -0.18109974 0.23370613
0.081079006 -0.39207667 -0.19440438 -0.098158345 -0.17397116 0.7899931 0.25534454 -0.17781833
-0.3257463 0.6728088 0.5684891 0.26378456 0.1083364 0.43251297 -0.06729995 0.06860819
-0.20129268 -0.14289473 -0.13245472 -0.28511828 0.02401768 -0.40915748 0.35300085 -0.34443602
0.56757355 0.22739746 0.24226089 -0.33057186 0.5686278 -0.51987827 0.007651967 -0.0027534536
-0.5422786 -0.20233728 -0.09548672 0.36575183 -0.31463444 -0.22496642 -0.008938467 -0.50499654
-0.33297187 -0.73575675 0.08339277 0.28849864 -0.48730862 0.79141885 0.25352836 0.008095456
00000000: 6657 253e 0f64 05bf 1da7 d3be 2344 aa3e
00000010: ce1a e03d c5b0 693f cadf 903e cc30 babe
00000020: 0e4b a3be 0e9d 053f 6b7c bdbe 7789 a8be
00000030: 564d db3d 356a b53e 850f 8a3e 1af7 d0be
00000040: 0a9f b33e 8e52 0bbe 46a8 1f3c 680a 68be
00000050: 1b20 05bf a557 453f 2462 413e 63c1 063e
00000060: b647 743e 9a01 c7bd 7bf0 2d3d 64e0 97be
00000070: 9fa7 14bf 254e 9a3e 8295 9e39 2abf d3be
00000080: 92ba b73e 18f5 5b3e 75cf 7f3e 7b9b c7bd
00000090: df20 613e 78b7 273e 337c 0dbe 7119 ae3e
000000a0: e389 7f3b 8415 1c3f 1573 cdbd 7b4a 803e
000000b0: 84c4 e03e 46f3 ae3d 6a81 a63c d06a a4bd
000000c0: 97e2 ecbe 7ca6 263f 5323 a93e 2132 ac3e
000000d0: 1d5b 05bf a9d7 f5be 5d3d b63e 5c77 373e
000000e0: bb75 bc3e a21c 263f 2408 b4be a541 9cbe
000000f0: 5151 36bf 7c3c 2fbf 31d4 8bbe 1ad5 a83e
00000100: 1bfa c7be 41b4 1abf 53d8 8bbe 4c78 a63e
00000110: ef2a 093f c2cb fbbe e604 ddbd af0d f73e
00000120: e87e aebe 335b 993d aaa9 f93e 619c 2e3e
00000130: cf66 e0be 95f5 39bf 2dc2 33be 710c 4e3e
00000140: 8200 f0be 21cd 86be aeaf e43e 6825 28bd
00000150: ec24 cfbe cad3 7d3e 73a9 c53e e61e a53e
00000160: c843 1dbe e262 083e b1ac d03e d156 92be
00000170: 37fa d63e 00bb 51be 17f4 dbbc 0af9 cabe
00000180: 2aad 943d e9f0 8cbf c821 65be 7fbd 15bd
00000190: e52a 9c3e 3d85 903d 6a68 993e dfed 0e3e
000001a0: 3d24 6e3e 6818 edbe fcb6 b73c 24dc 7cbe
000001b0: 8746 28bf b4ac 813e 93c1 263d 5d39 e1bc
000001c0: 51fe ee3e d07e 36bf fdc8 0ebd 79cb c2be
000001d0: 5f1a 9f3e a177 413f 6e16 28be ea95 84be
000001e0: 3ebf 52be 1608 293f 764a 9c3e 8b91 11be
000001f0: 1431 d9be d3b4 4dbe ed12 e6bd 1892 e03d
00000200: 7caf 42be 7f1c 62be d86b 823e d450 aabe
00000210: dc8f ec3e 140a 133e a072 07be 3e87 e1be
00000220: 0a57 1fbf 80d3 cbbe 5083 5cbc 8da2 c3be
00000230: 9d5e fb3e 6cdd 253f e222 3b3e d4ed 9cbe
00000240: 60ad 1b3f 1434 93be a7c7 c13e b646 8b3e
00000250: 8e81 91be 27e8 2d3e e6f1 20be 55f4 ffbd
00000260: 5418 823e 3168 013f 1c5f d23d 7473 d7be
00000270: 18f5 d3be 2b85 d9be 55e9 5e3e 9396 a1be
00000280: ca60 953e 1ea6 77bf 8699 27bf c345 f0bd
00000290: 2e86 fbbd b130 e03e bda2 313f 671f db3d
000002a0: c4fe 8fbd 4d6d d1be 30b0 803e f6e7 c13e
000002b0: 5ac4 c8be f6c5 163f fbf9 763c bd3a 6dbe
000002c0: 4623 313f 7b43 1e3f 30b6 243c d08b b73e
000002d0: cadc 94be 293a 2b3f d8a0 02be 08b0 943e
000002e0: a67c fcbe c26c b93e 94da 2b3f a096 8c3e
000002f0: 3052 e9bd 0047 36be b6d2 993c aa8d 69bd
00000300: 15d2 22bf 86c5 08bf bdfe d6bd f855 a0be
00000310: 343e 36bf f778 033f 41a0 f63c b6d1 8e3e
00000320: 745a 7ebe 8efd 9fbe 2ecf 8dbe 5e57 85be
00000330: 4837 343f df7e adbe 3672 39be a950 6f3e
00000340: c00c a63d 46be c8be f111 47be 3e07 c9bd
00000350: 7f25 32be fd3c 4a3f 85bc 823e 0216 36be
00000360: 38c8 a6be 333d 2c3f 8088 113f c50e 873e
00000370: 79df dd3d 5772 dd3e 8ed4 89bd 7382 8c3d
00000380: ab1f 4ebe ff52 12be 36a2 07be 06fb 91be
00000390: bac0 c43c 177d d1be 87bc b43e eb59 b0be
000003a0: 804c 113f e1da 683e 3d13 783e b740 a9be
000003b0: 9791 113f be16 05bf 5abd fa3b 4973 34bb
000003c0: c5d2 0abf 8131 4fbe 8b8e c3bd d343 bb3e
000003d0: c417 a1be 995d 66be a672 12bc 7447 01bf
000003e0: 4a7b aabe 8e5a 3cbf d4c9 aa3d 18b6 933e
000003f0: 8480 f9be 6d9a 4a3f 78ce 813e cea2 043c

layers.0.bias f4 [128]
0.35608327 0.32804698 0.059967656 -0.73169863 -0.41636643 0.48350015 -0.49377945 0.5693501
0.015291582 -0.38881308 0.53677195 0.44316947 -0.13311101 0.18281467 -0.4838472 -0.014343924
0.33986285 0.46345583 0.22317278 -0.099936344 0.34330744 0.49414527 -0.3092638 0.33483866
0.19753993 -0.1050661 -0.5917943 0.13901141 0.13589667 -0.37291074 -0.3362879 0.06841452
0.1943017 -0.05881093 0.34168497 -0.5751288 0.31329274 0.017763518 -0.5454734 -0.085419685
0.07874958 0.22734062 0.5309357 0.40566158 0.016961982 0.34509254 0.015141231 -0.62100494
0.40903693 0.5083648 0.5090852 0.7403013 0.56665444 -0.52125853 0.4861821 -0.41289946
0.19825356 -0.21711251 -0.113221005 0.38783705 -0.4037973 -0.002761089 -0.1987402 -0.06021071
-0.3075942 0.06945546 0.048047565 -0.12918065 -0.36223507 0.35598552 -0.5841514 -0.45639482
0.4458369 -0.52369004 0.24187751 0.29028472 0.5679676 0.394433 -0.4041824 -0.1982158
-0.051451907 0.3871464 -0.31555995 -0.40441096 -0.65039897 0.5639233 -0.15553227 -0.54291797
-0.04727249 -0.14175431 -0.100846626 -0.43112385 0.32651752 -0.5425978 0.28721184 0.3410578
-0.09340537 -0.31704617 0.021533819 -0.028197085 -0.13954541 -0.1858951 0.062242035 -0.5009497
-0.38674068 -0.47267988 0.15128103 0.49578342 0.57682747 -0.4147033 -0.57799834 0.2901242
0.18290164 -0.3116526 0.23967439 0.40794373 -0.5329808 -0.026792625 -0.23026446 -0.2343835
-0.2758557 -0.18238486 -0.118132114 0.5093816 0.47250783 -0.47963387 0.17847872 -0.5592351
00000000: 8c50 b63e c6f5 a73e a5a0 753d 9a50 3bbf
00000010: fb2d d5be 558d f73e a9d0 fcbe eec0 113f
00000020: 8b89 7a3c 8212 c7be e369 093f 1ce7 e23e
00000030: 414e 08be c533 3b3e d2ba f7be c702 6bbc
00000040: 8102 ae3e 154a ed3e 6887 643e 6dab ccbd
00000050: fec5 af3e 9c00 fd3e d357 9ebe f96f ab3e
00000060: e847 4a3e e52c d7bd d57f 17bf 0259 0e3e
00000070: 7f28 0b3e 28ee bebe ed2d acbe e91c 8c3d
00000080: 06f7 463e bbe3 70bd 55f1 ae3e a43b 13bf
00000090: e867 a03e cc84 913c 25a4 0bbf 84f0 aebd
000000a0: 7647 a13d fbcb 683e 67eb 073f e0b2 cf3e
000000b0: dbf3 8a3c f8af b03e ed12 783c 2efa 1ebf
000000c0: 4a6d d13e 3224 023f 6853 023f 6384 3d3f
000000d0: 4410 113f 3371 05bf dcec f83e 8f67 d3be
000000e0: fb02 4b3e be52 5ebe 6ae0 e7bd 9492 c63e
000000f0: 85be cebe 63f3 34bb 8d82 4bbe 819f 76bd
00000100: fd7c 9dbe aa3e 8e3d 86cd 443d ef47 04be
00000110: e076 b9be bc43 b63e f28a 15bf 95ac e9be
00000120: bc44 e43e 8d10 06bf bdae 773e 33a0 943e
00000130: 5366 113f 1ff3 c93e fff0 cebe 15f9 4abe
00000140: 3cbf 52bd 0e38 c63e 1391 a1be f40e cfbe
00000150: 8c80 26bf 475d 103f da43 1fbe acfc 0abf
00000160: cca0 41bd 0b28 11be ad88 cebd 44bc dcbe
00000170: 4e2d a73e b0e7 0abf 6e0d 933e 219f ae3e
00000180: 514b bfbd e053 a2be b167 b03c 93fd e6bc
00000190: fee4 0ebe 495b 3ebe 81f1 7e3d 3d3e 00bf
000001a0: e002 c6be 1903 f2be 6ae9 1a3e 53d7 fd3e
000001b0: f7aa 133f fe53 d4be b3f7 13bf 298b 943e
000001c0: 914a 3b3e ee90 9fbe 346d 753e 00de d03e
000001d0: 6e71 08bf 357c dbbc 72ca 6bbe 3a02 70be
000001e0: f53c 8dbe 19c3 3abe 40ef f1bd d566 023f
000001f0: 8cec f13e 9292 f5be 20c3 363e 082a 0fbf

layers.1.weight f4 [128, 128]
-0.0032266364 0.06947727 0.060272764 -0.08819107 0.03121465 0.020551462 0.012086422 -0.04213923
0.080721684 -0.061595336 0.07622407 -0.07032873 -0.09465155 -0.03571558 0.06041515 0.08725585
-0.036083844 -0.13355315 -0.06287487 -0.025877967 -0.054390654 0.010830124 -0.06364587 0.0514813
-0.019982448 0.05796656 -0.006543137 0.013714944 -0.021646881 0.06350558 -0.1360773 -0.06980585
-0.07518299 0.05987359 -0.062451217 0.08576728 -0.046544183 0.107629865 0.04915349 -0.008234492
0.08220742 0.064329565 -0.007501015 0.010193816 0.07387137 0.11373746 0.056495387 0.059950106
-0.11081958 0.0058767325 -0.08427205 -0.049469754 -0.023424162 -0.11852104 0.07164195 0.08995572
0.07345721 -0.10270129 -0.084934376 -0.015545999 -0.03709757 -0.025584873 -0.01792433 -0.14319022
0.029760087 0.06659403 -0.048361454 0.0014253549 -0.05946117 0.09112227 -0.02053445 -0.0065378295
-0.04963841 0.14024363 0.08765902 0.11797462 -0.029151507 -0.08585432 -0.045755006 -0.06325796
-0.033186745 -0.03160566 -0.058485758 0.039463095 -0.055420186 -0.13973619 0.078719966 0.010149451
0.012225353 -0.048268877 0.054777626 -0.010131882 0.09200613 0.022396687 -0.040692277 0.022375068
0.043646462 0.059218876 -0.07258498 0.07059985 0.07923305 -0.02368182 0.061165225 0.020640949
-0.015133034 -0.0229129 -0.025278198 0.0044570332 0.010933033 -0.09892639 -0.16411771 0.08434545
-0.0719726 0.059988353 -0.08333378 0.04001324 0.13860562 -0.038152274 0.109812 -0.023742713
0.052499387 0.025116375 -0.0017799975 -0.07470179 -0.018811842 0.0061552813 -0.036760915 -0.103978716
0.10039824 0.06697974 0.038616803 -0.13563633 -0.0024734235 0.09264206 0.086846456 0.0067025945
-0.020958606 0.048253957 -0.0346733 -0.066571355 0.037826173 -0.12452405 0.10664817 -0.15621747
-0.08472222 -0.08027155 -0.06992204 -0.14011225 0.03597261 0.003908508 -0.06770566 0.07015745
0.09502738 0.025428047 0.06724212 -0.012518761 0.04811608 0.11029066 -0.008651488 -0.05290261
-0.1138109 0.039294764 -0.0459679 0.119934045 -0.04499084 0.09398593 0.13334596 -0.0825813
-0.12620926 0.014498139 -0.13436164 0.13152745 -0.028864672 -0.0342212 0.005807432 0.02907303
-0.07651396 -0.07055154 0.09127993 0.23773609 -0.0057634218 -0.04280386 -0.024606438 0.10075144
0.10012256 -0.086849734 0.060917396 0.06498162 -0.13596341 -0.068772666 -0.1342037 -0.13915212
-0.08665264 0.122493364 -0.0030964173 -0.06717056 0.052532483 0.087789275 -0.054094926 -0.039210513
-0.058786385 0.1137169 0.10829573 0.13653363 -0.074500985 0.052742112 0.09912912 -0.015836993
-0.11787397 0.11536619 -0.10959024 -0.11215414 -0.037548065 -0.052292317 -0.0059091505 0.07069557
0.08479969 -0.0076289563 -0.028577963 -0.19500159 0.037072856 -0.07520667 -0.07318956 0.10544837
-0.0029425353 0.098182335 -0.0017153353 0.008514505 0.008252821 0.14772022 0.09328338 -0.1822956
0.013998175 -0.00061136845 0.06346243 0.025022158 0.107635036 0.09169511 -0.18520363 0.07974343
-1.5044921e-05 0.15313055 -0.123016804 0.06493476 0.16734886 -0.12864953 -0.01700004 0.11461304
0.032421663 -0.019699352 0.09102819 -0.09270433 -0.0009265391 -0.12800616 -0.07711438 -0.05289973
00000000: fa75 53bb 194a 8e3d 93e0 763d 859d b4bd
00000010: deb5 ff3c 8a5b a83c 2106 463c 2f9a 2cbd
00000020: 6951 a53d 644b 7cbd 5d1b 9c3d 8208 90bd
00000030: acd8 c1bd 804a 12bd e075 773d 32b3 b23d
00000040: a7cc 13bd 28c2 08be 8ac4 80bd 08fe d3bc
00000050: bcc8 5ebd d570 313c c458 82bd 0ede 523d
00000060: 3bb2 a3bc 586e 6d3d d067 d6bb a5b4 603c
00000070: cd54 b1bc 370f 823d d957 0bbe 5ff6 8ebd
00000080: 8af9 99bd 023e 753d d9cc 7fbd c1a6 af3d
00000090: 1da5 3ebd 0c6d dc3d 2c55 493d f6e9 06bc
000000a0: 5d5c a83d 38bf 833d 13cb f5bb f703 273c
000000b0: df49 973d 2fef e83d b567 673d 3e8e 753d
000000c0: 60f5 e2bd 9b91 c03b d396 acbd cca0 4abd
000000d0: 07e4 bfbc 29bb f2bd 04b9 923d b43a b83d
000000e0: bc70 963d 0e55 d2bd 13f2 adbd a5b4 7ebc
000000f0: 9ff3 17bd 5e97 d1bc 0bd6 92bc 75a0 12be
00000100: 6dcb f33c 7362 883d a916 46bd f9d2 ba3a
00000110: 8e8d 73bd 509e ba3d dd37 a8bc 4a3b d6bb
00000120: a551 4bbd 079c 0f3e 9386 b33d ad9c f13d
00000130: 24cf eebc 64d4 afbd 9a69 3bbd 648d 81bd
00000140: d3ee 07bd f074 01bd c38e 6fbd 0ea4 213d
00000150: 4700 63bd 0117 0fbe ef37 a13d e249 263c
00000160: d94c 483c 96b5 45bd 815e 603d 3100 26bc
00000170: b66d bc3d 4279 b73c f2ac 26bd eb4b b73c
00000180: a2c6 323d 7e8f 723d 6fa7 94bd a796 903d
00000190: f044 a23d 6000 c2bc 6388 7a3d 3517 a93c
000001a0: 8cf0 77bc d6b3 bbbc 3914 cfbc 4e0c 923b
000001b0: 7720 333c eb99 cabd 790e 28be 4fbd ac3d
000001c0: 5f66 93bd 59b6 753d e7aa aabd ece4 233d
000001d0: a2ee 0d3e 8f45 1cbd 1de5 e03d 1480 c2bc
000001e0: 9909 573d dbc0 cd3c ce4e e9ba 41fd 98bd
000001f0: 4b1b 9abc 3eb2 c93b 9d92 16bd cbf2 d4bd
00000200: 989d cd3d ad2c 893d a72c 1e3d 40e4 0abe
00000210: 2919 22bb 1fbb bd3d 8edc b13d 70a1 db3b
00000220: 62b1 abbc f1a5 453d 9705 0ebd 9056 88bd
00000230: 9eef 1a3d 7706 ffbd 5b6a da3d 79f7 1fbe
00000240: d882 adbd 6965 a4bd 4933 8fbd 9679 0fbe
00000250: 0458 133d f112 803b 44a9 8abd b6ae 8f3d
00000260: b79d c23d 7b4e d03c 3db6 893d 7d1b 4dbc
00000270: 5e15 453d 12e0 e13d f9be 0dbc 68b0 58bd
00000280: b015 e9bd 8cf3 203d d648 3cbd fb9f f53d
00000290: 5148 38bd b27b c03d d88b 083e 6220 a9bd
000002a0: 003d 01be 9a89 6d3c 1996 09be 22af 063e
000002b0: 9b75 ecbc 872b 0cbd 454c be3b 902a ee3c
000002c0: 5ab3 9cbd 537d 90bd f9f0 ba3d 1771 733e
000002d0: 16db bcbb 1a53 2fbd 7193 c9bc c556 ce3d
000002e0: 0f0d cd3d 46de b1bd 8584 793d 1515 853d
000002f0: fe39 0bbe afd8 8cbd b26c 09be e57d 0ebe
00000300: f076 b1bd cddd fa3d 43ed 4abb b890 89bd
00000310: 4d2c 573d ddca b33d a492 5dbd 349b 20bd
00000320: fec9 70bd 68e4 e83d 27ca dd3d 79cf 0b3e
00000330: f993 98bd 1d08 583d 3504 cb3d 95bc 81bc
00000340: e867 f1bd 1c45 ec3d d970 e0bd 12b1 e5bd
00000350: 00cc 19bd 7830 56bd 8ca1 c1bb d7c8 903d
00000360: 76ab ad3d 53fc f9bb 551c eabc 7fae 47be
00000370: b5d9 173d f405 9abd 68e4 95bd 51f5 d73d
00000380: 8dd7 40bb d213 c93d 1ad5 e0ba 6c80 0b3c
00000390: d736 073c f843 173e 5b0b bf3d b3ab 3abe
000003a0: 9a58 653c 3e44 20ba 97f8 813d 45fb cc3c
000003b0: c26f dc3d a5ca bb3d 05a6 3dbe 8650 a33d
000003c0: 7269 7cb7 41ce 1c3e 3cf0 fbbd 84fc 843d
000003d0: 805d 2b3e b4bc 03be ab43 8bbc 3eba ea3d
000003e0: 94cc 043d 8960 a1bc fd6c ba3d c5db bdbd
000003f0: fde2 72ba 0c14 03be 25ee 9dbd 63ad 58bd

layers.1.bias f4 [128]
-0.05258145 0.005236711 0.05492273 -0.015101412 0.03160676 0.06072769 0.0047706296 0.10531927
-0.14651419 0.07829216 -0.014405461 -0.056343406 0.11391645 -0.13937864 -0.00425388 -0.0277518
-0.15019695 -0.08552401 0.07653936 0.08290267 0.16952857 -0.00988945 0.04830031 0.121482626
0.07567706 0.052062646 0.06243284 -0.06467694 -0.020274863 0.0831883 0.0057161446 0.16626343
-0.0770258 0.16799629 0.08940839 0.004281923 -0.11023669 -0.09276095 0.13206044 0.005541091
0.0445678 0.05193019 0.01908964 -0.11073187 -0.1454425 -0.023768704 0.12839663 -0.0023500812
-0.0061259717 0.115597166 -0.13837016 -0.004498284 -0.07501927 -0.06668357 0.14264773 0.10462454
-0.047952738 -0.001963426 0.1584459 -0.27020404 0.1277725 0.14859596 -0.080268554 0.08951058
-0.051257256 -0.09489197 -0.03998969 0.012607996 0.0032058076 0.112745225 -0.22864693 0.08297975
-0.15274468 -0.20598821 0.099554755 0.009306574 0.045123395 0.040858075 0.21972814 -0.13487962
0.06850192 0.050972335 -0.046166975 -0.082758814 0.17871666 -0.0673573 0.105782256 -0.06743256
-0.03902802 -0.010810722 -0.1455778 0.20821938 -0.14981773 -0.15491305 -0.04517145 0.075038776
0.07841338 0.03906419 -0.050348274 -0.0025723244 0.033934418 -0.020784074 0.0818057 0.03515296
0.14122115 -0.017048622 0.07322043 -0.16578417 -0.23504366 -0.16838191 -0.0922053 -0.031498697
-0.21558164 -0.13272709 0.08357005 -0.047410082 0.12776412 0.05713143 0.060497425 0.10695318
-0.09343863 -0.04707271 0.030019725 -0.059676796 -0.043125816 0.091837585 0.056140926 0.010839884
00000000: a65f 57bd b798 ab3b a8f6 603d ea6b 77bc
00000010: 1776 013d 99bd 783d f152 9c3b a1b1 d73d
00000020: d107 16be a457 a03d e204 6cbc 58c8 66bd
00000030: 074d e93d 46b9 0ebe 2264 8bbb be57 e3bc
00000040: 3bcd 19be 3627 afbd abc0 9c3d e0c8 a93d
00000050: e698 2d3e 5c07 22bc 8cd6 453d e2cb f83d
00000060: 93fc 9a3d a43f 553d 94b9 7f3d 5875 84bd
00000070: 7817 a6bc a15e aa3d 7f4e bb3b f640 2a3e
00000080: b4bf 9dbd 3807 2c3e bf1b b73d 604f 8c3b
00000090: c6c3 e1bd 74f9 bdbd da3a 073e 0a92 b53b
000000a0: ba8c 363d c0b4 543d e061 9c3c 64c7 e2bd
000000b0: e1ee 14be 96b6 c2bc 687a 033e d203 1abb
000000c0: 60bc c8bb 35be ec3d e8b0 0dbe 5766 93bb
000000d0: b4a3 99bd 6591 88bd 3f12 123e 6445 d63d
000000e0: 176a 44bd d2ac 00bb a43f 223e 2f58 8abe
000000f0: cbd6 023e 8a29 183e d763 a4bd 5351 b73d
00000100: 21f3 51bd b956 c2bd 3bcc 23bd c591 4e3c
00000110: 8718 523b f8e6 e63d 6c22 6abe 4af1 a93d
00000120: 1a69 1cbe 93ee 52be 5de3 cb3d 9a7a 183c
00000130: 4fd3 383d cc5a 273d 6a00 613e e21d 0abe
00000140: bc4a 8c3d 5ec8 503d 9519 3dbd 747d a9bd
00000150: 8001 373e a0f2 89bd 5ea4 d83d 151a 8abd
00000160: d8db 1fbd 741f 31bc 5912 15be 7637 553e
00000170: d269 19be 87a1 1ebe b305 39bd eead 993d
00000180: 3297 a03d c601 203d fe39 4ebd 7194 28bb
00000190: d1fe 0a3d 5d43 aabc bf89 a73d 8dfc 0f3d
000001a0: 479c 103e 8da9 8bbc 98f4 953d 53c3 29be
000001b0: 49af 70be 4f6c 2cbe 22d6 bcbd c704 01bd
000001c0: 6fc1 5cbe 9ce9 07be c626 ab3d 1331 42bd
000001d0: 99d4 023e a502 6a3d 26cc 773d 450a db3d
000001e0: c15c bfbd 50cf 40bd edeb f53c a86f 74bd
000001f0: b2a4 30bd 5815 bc3d 07f4 653d c599 313c

layers.2.weight f4 [64, 128]
0.09190642 0.060483377 0.15916258 0.048866265 -0.09907107 0.015740862 0.05014932 -0.35199383
0.076941386 -0.07303513 0.07673986 -0.05023953 -0.15650046 0.1463571 -0.020463232 0.114943616
0.040903453 -0.06633079 -0.19939177 -0.099441536 -0.15692544 0.08790554 0.12571573 -0.09029527
-0.18827324 0.2245279 -0.11719564 0.18588813 0.14108962 -0.21527728 0.120928064 -0.116566114
0.1864818 -0.031377267 -0.14718777 0.06839059 -0.038562424 0.14321399 -0.21368018 0.0014112386
-0.12332783 0.016877064 -0.026904708 0.05857249 -0.006375242 -0.19028418 -0.24456005 -0.0020691962
0.18168233 -0.037869405 0.17979142 -0.01523198 0.1134542 -0.017244339 -0.19718613 0.23239098
0.09026852 -0.0815075 -0.22369821 0.05393108 -0.07277545 -0.034815975 0.10510343 -0.12586147
0.005174345 0.14026725 -0.10621051 -0.065003455 -0.03490013 0.05940776 0.037308972 0.1324587
0.25232527 0.27820385 -0.21973458 -0.016367802 -0.14439964 0.10775343 -0.24739361 -0.0062693316
-0.056027267 0.023693401 0.21818753 0.117578276 -0.113814 -0.030271346 -0.21057177 0.05391524
0.122150466 0.1553322 0.0928171 0.16871296 0.12827076 0.18198098 -0.10337901 -0.02926293
-0.22667055 -0.15557104 -0.14135191 -0.048925687 -0.31054837 0.10902065 -0.1410647 -0.062895305
-0.12984066 0.0033008629 0.09431544 0.1307039 -0.0028797714 0.2712253 0.15080686 0.17181593
0.13881588 0.11519553 -0.089631654 0.07836343 -0.14783473 -0.23196799 -0.2634323 -0.027172372
0.09446762 -0.08390543 -0.15255627 0.18392123 0.1264048 -0.1578343 -0.16445032 0.007707089
-0.19968413 -0.12339115 -0.086886734 -0.052929673 0.12084726 0.056795806 -0.030957129 0.20354858
-0.05974495 0.00086467573 -0.03372221 0.049147487 0.21547028 -0.06574057 0.18514298 -0.11703313
-0.18072413 0.19137424 -0.05574229 0.15930186 0.10549148 -0.22011709 -0.18595025 0.11798973
0.15982276 -0.046227433 0.019038083 -0.1915777 -0.045122236 0.086943105 -0.40021756 0.117229894
0.072694555 0.17546494 0.16888823 -0.055026595 0.17787015 -0.23522657 -0.005373912 -0.13324957
0.093742624 0.13315156 0.11930114 -0.1359431 -0.15265658 0.18163192 -0.04596115 -0.05741834
-0.06553107 0.07392467 -0.06238058 -0.032366037 -0.16398202 0.07957625 0.027714608 -0.5325222
-0.043702736 0.26954812 0.13590908 -0.1601681 0.118797526 0.03339314 -0.22888692 0.16727144
-0.027224157 -0.071362846 0.41698962 0.11744229 0.16867352 0.020733722 -0.2496887 -0.22751024
-0.25506794 -0.13363153 0.06485951 0.009989519 0.06538633 -0.11503004 0.11438741 -0.055428393
-0.022556618 0.10910836 -0.05939354 -0.12629335 0.07478034 -0.2630424 0.16307792 -0.21134205
-0.3074769 -0.21278664 -0.08664038 -0.37525272 -0.07455189 0.04221625 0.07631651 0.32447255
0.1282857 0.13724239 0.25460282 0.33866662 0.124810785 -0.23177044 0.1362093 0.13837956
0.16913806 0.17173617 -0.07860748 -0.28136292 -0.30172265 -0.07094982 0.0387576 -0.15780143
-0.28570417 -0.219595 0.05222978 -0.113308884 0.18438146 0.1617288 0.08994216 0.030094696
-0.14894314 0.0302776 0.25006792 -0.114753954 -0.05391147 0.045555122 0.122572556 -0.22608908
00000000: 6f39 bc3d 6bbd 773d 84fb 223e fe27 483d
00000010: c6e5 cabd fbf2 803c 6069 4d3d 8938 b4be
00000020: 7293 9d3d 7193 95bd ca29 9d3d f7c7 4dbd
00000030: a841 20be a3de 153e 82a2 a7bc 8f67 eb3d
00000040: 618a 273d 70d8 87bd 5b2d 4cbe 01a8 cbbd
00000050: 10b1 20be d207 b43d a0bb 003e baec b8bd
00000060: b3ca 40be a4ea 653e 4504 f0bd 7559 3e3e
00000070: cc79 103e a671 5cbe 22a9 f73d 37ba eebd
00000080: 16f5 3e3e 7385 00bd 64b8 16be 5e10 8c3d
00000090: a2f3 1dbd b0a6 123e face 5abe 4ff9 b83a
000000a0: 4d93 fcbd c541 8a3c 4367 dcbc b5e9 6f3d
000000b0: 68e7 d0bb dbd9 42be f36d 7abe 5a9b 07bb
000000c0: ef0a 3a3e f31c 1bbd 3e1b 383e 8e8f 79bc
000000d0: ad5a e83d 0044 8dbc 29eb 49be e7f7 6d3e
000000e0: b4de b83d 67ed a6bd 2511 65be d6e6 5c3d
000000f0: 4c0b 95bd 329b 0ebd 7840 d73d d4e1 00be
00000100: 8d8d a93b 38a2 0f3e e584 d9bd 8820 85bd
00000110: 70f3 0ebd 8d55 733d 4bd1 183d 41a3 073e
00000120: c730 813e bc70 8e3e 1a02 61be c515 86bc
00000130: 80dd 13be d5ad dc3d c054 7dbe f76e cdbb
00000140: d97c 65bd aa18 c23c 8d6c 5f3e e1cc f03d
00000150: 5017 e9bd 9dfb f7bc 20a0 57be 3ad6 5c3d
00000160: 062a fa3d 670f 1f3e e416 be3d 17c3 2c3e
00000170: 6959 033e 3959 3a3e 60b8 d3bd d0b8 efbc
00000180: 531c 68be 044e 1fbe 8ebe 10be 4d66 48bd
00000190: 3200 9fbe 3846 df3d 4473 10be 41cf 80bd
000001a0: f3f4 04be 4a53 583b 7428 c13d 3ed7 053e
000001b0: 8cba 3cbb 0bde 8a3e 1d6d 1a3e 84f0 2f3e
000001c0: c025 0e3e a2eb eb3d cd90 b7bd 027d a03d
000001d0: fd61 17be 0489 6dbe 99e0 86be 9898 debc
000001e0: 3d78 c13d 9cd6 abbd b637 1cbe d955 3c3e
000001f0: 4370 013e 519f 21be aa65 28be c08b fc3b
00000200: ff79 4cbe 80b4 fcbd acf1 b1bd c9cc 58bd
00000210: c57e f73d b8a2 683d ce99 fdbc 0a6f 503e
00000220: 1fb7 74bd 68ab 623a 4d20 0abd e04e 493d
00000230: 3ea4 5c3e fea2 86bd 1f96 3d3e 11af efbd
00000240: bf0f 39be 9cf7 433e 0752 64bd 0720 233e
00000250: eb0b d83d 6066 61be be69 3ebe 99a4 f13d
00000260: 94a8 233e fa58 3dbd c1f5 9b3c f22c 44be
00000270: 18d2 38bd 3a0f b23d 51e9 ccbe 3a16 f03d
00000280: e2e0 943d 15ad 333e 09f1 2c3e 9163 61bd
00000290: 9823 363e 3cdf 70be a417 b0bb 9372 08be
000002a0: 22fc bf3d e258 083e 2854 f43d ab34 0bbe
000002b0: 0252 1cbe b8fd 393e c241 3cbd 7e2f 6bbd
000002c0: 2735 86bd d165 973d c782 7fbd 4092 04bd
000002d0: e7ea 27be dff8 a23d bf09 e33c 6053 08bf
000002e0: a401 33bd 3602 8a3e c02b 0b3e 1b03 24be
000002f0: 1e4c f33d 3fc7 083d 5561 6abe 3449 2b3e
00000300: 3205 dfbc af26 92bd aa7f d53e 9585 f03d
00000310: c0b8 2c3e c4d9 a93c 65ae 7fbe 72f8 68be
00000320: 4498 82be b4d6 08be 10d5 843d 14ab 233c
00000330: 45e9 853d df94 ebbd f243 ea3d e208 63bd
00000340: a8c8 b8bc 3474 df3d a446 73bd 0b53 01be
00000350: 6f26 993d 7ead 86be e6fd 263e 0d6a 58be
00000360: 9d6d 9dbe bee4 59be 8370 b1bd 2021 c0be
00000370: a9ae 98bd f2ea 2c3d d54b 9c3d 4421 a63e
00000380: 545d 033e 4589 0c3e 4d5b 823e b665 ad3e
00000390: cc9c ff3d 3b55 6dbe 737a 0b3e 5fb3 0d3e
000003a0: 8732 2d3e 9bdb 2f3e f5fc a0bd cd0e 90be
000003b0: 647b 9abe 244e 91bd 4ac0 1e3d b396 21be
000003c0: d147 92be 83dd 60be e5ee 553d 7d0e e8bd
000003d0: 7ece 3c3e 3c9c 253e 9833 b83d 2789 f63c
000003e0: 8d84 18be bb08 f83c e708 803e 1f04 ebbd
000003f0: 46d2 5cbd 0298 3a3d 5207 fb3d e583 67be

layers.2.bias f4 [64]
-0.06868199 0.0033735011 -0.13302235 -0.15868577 0.036661863 -0.09006035 0.015070988 0.069234185
0.053601306 -0.08014269 -0.067768835 0.00045341812 0.02572074 -0.006579683 -0.101567484 0.043296505
-0.010428338 0.074351 -0.12609786 -0.08035928 0.028236357 0.12460244 0.025101198 -0.113150865
0.07056393 -0.1369684 -0.067825824 0.14841287 0.15538268 0.046927836 -0.020276166 0.009514835
0.039737623 -0.038729813 0.048898622 0.030584686 0.003429853 -0.06336146 -0.047572073 0.07115608
-0.05533597 0.0390762 -0.06574341 0.20008233 0.09336832 0.054163463 -0.052701768 -0.07708507
-0.028783757 -0.01933514 -0.039654393 0.1237677 -0.055641964 -0.1508315 -0.010663624 0.07165513
-0.0038705904 -0.15700902 -0.08161835 -0.011637934 0.053860463 0.03670709 -0.030826531 0.039125152
00000000: 25a9 8cbd f515 5d3b 0337 08be 867e 22be
00000010: c02a 163d 9071 b8bd 4eec 763c a7ca 8d3d
00000020: 0b8d 5b3d da21 a4bd 63ca 8abd c0b8 ed39
00000030: 4db4 d23c 629a d7bb 9d02 d0bd ad57 313d
00000040: 9fdb 2abc 5645 983d cc1f 01be 6893 a4bd
00000050: ef4f e73c 902f ff3d 07a1 cd3c a4bb e7bd
00000060: d283 903d 7241 0cbe 44e8 8abd 8bf9 173e
00000070: a31c 1f3e 6737 403d 341a a6bc 1ce4 1b3c
00000080: ebc3 223d 27a3 1ebd ec49 483d bc8c fa3c
00000090: 62c7 603b a7c3 81bd efda 42bd 47ba 913d
000000a0: f8a7 62bd 5e0e 203d 7ba4 86bd 62e2 4c3e
000000b0: e437 bf3d 82da 5d3d cfdd 57bd c7de 9dbd
000000c0: eacb ebbc ba64 9ebc a56c 22bd eb79 fd3d
000000d0: d4e8 63bd 9373 1abe 7bb6 2ebc edbf 923d
000000e0: bba9 7dbb f9c6 20be 8627 a7bd 08ad 3ebc
000000f0: ca9c 5c3d 2c5a 163d ec87 fcbc b241 203d

readout.weight f4 [1, 64]
2.4143062 -2.3110101 2.3615232 2.409614 2.5580156 2.7919567 2.6710563 2.2967207
-2.4502585 2.4481523 2.4928315 2.3824134 2.5874288 -2.4733274 -2.8059614 2.4852512
-2.3603442 -2.4680748 2.7234569 2.5547955 2.3308673 -2.3387656 2.4391549 -2.4292896
-2.4362524 -2.684773 2.603459 -2.439609 2.587492 -2.5982513 -2.4619431 -2.641931
-2.3444338 2.4114444 2.733854 2.3626754 2.3981905 -2.4447572 2.4114966 -2.362362
2.286026 -2.342258 2.3456926 -2.3622646 2.500676 -2.7687578 2.6877027 2.3456976
-2.7052739 2.4947393 -2.4052086 -2.415938 2.4652863 2.3340287 -2.6646657 -2.412295
2.465799 2.5934737 -2.5119357 2.4188168 2.5455847 -2.6199315 2.5763388 -2.5221953
00000000: fe83 1a40 97e7 13c0 3223 1740 1e37 1a40
00000010: 87b6 2340 6baf 3240 96f2 2a40 79fd 1240
00000020: 09d1 1cc0 87ae 1c40 8d8a 1f40 7679 1840
00000030: 6f98 2540 ff4a 1ec0 df94 33c0 5b0e 1f40
00000040: e10f 17c0 f0f4 1dc0 1e4d 2e40 c581 2340
00000050: ee2c 1540 56ae 15c0 1d1b 1c40 7b79 1bc0
00000060: 8feb 1bc0 52d3 2bc0 129f 2640 8e22 1cc0
00000070: 7899 2540 c049 26c0 7a90 1dc0 6615 29c0
00000080: 340b 16c0 1b55 1a40 77f7 2e40 1336 1740
00000090: f47b 1940 e776 1cc0 f655 1a40 f030 17c0
000000a0: 404e 1240 8ee7 15c0 d41f 1640 582f 17c0
000000b0: 130b 2040 5433 31c0 5203 2c40 e91f 1640
000000c0: 3523 2dc0 cfa9 1f40 f0ee 19c0 ba9e 1ac0
000000d0: 40c7 1d40 ba60 1540 e289 2ac0 0b63 1ac0
000000e0: a7cf 1d40 79fb 2540 8ec3 20c0 e5cd 1a40
000000f0: dcea 2240 f5ac 27c0 bce2 2440 a66b 21c0

layers.0.weight f4 [128, 3]
-0.5241321 -0.41950032 0.14070052 0.29263633 -0.41663048 -0.51234454 -0.2465457 0.34246606
0.47013187 -0.37524307 -0.37000427 0.17170474 -0.7351901 0.28319812 0.12725867 0.5002538
0.2545662 0.11227537 0.60359627 -0.15499447 -0.38914034 -0.20750344 -0.02134561 0.23039724
0.40775037 -0.10712938 -0.059988398 0.38613465 -0.36301285 0.4692998 -0.12294943 -1.0079197
-0.043630484 0.03347391 -0.4455181 -0.3162843 -0.51114815 -0.52301633 0.30355 0.2180157
-0.6031857 0.2137083 0.33418113 -0.6714446 0.5111142 -0.5763943 -0.4352401 0.45240945
-0.8169994 -0.04772407 0.30746284 -0.64227206 -0.14802235 0.3404251 -0.6412482 0.11054595
0.4421819 -0.55802065 0.03778453 0.45176378 -0.6751587 -0.031206153 0.38490486 0.33031908
-0.7625189 -0.19755752 0.13181846 -0.26334745 -0.17922896 0.045633942 0.4907223 0.45681396
0.0789909 0.8508174 0.027577825 0.4398413 0.28779414 -0.092238806 0.3048186 0.676872
0.3244446 -0.30877817 0.10500481 0.5764329 0.15515058 0.006728118 0.3471834 0.523409
-0.651198 0.07615095 -0.63652796 -1.027425 -0.080026425 -0.6526274 0.39748812 -0.16086024
-0.13080584 -0.32583535 0.20642231 -0.99266106 -0.5021786 0.2948164 -0.72600055 0.47004727
0.0622123 -0.0500713 -0.45858485 -0.4336925 0.59394276 0.40133643 0.04201386 -0.42692012
-0.10416083 -0.54876363 0.13070069 -0.35299823 0.5671251 0.12206415 -0.62240154 0.18059081
-0.08248549 0.35113904 0.3720977 0.10243866 -0.82533586 0.065903865 0.61468655 0.24686839
-0.045362055 -0.6286427 0.60761315 0.015024725 0.48405287 0.08868969 -0.19870006 -0.20239994
-0.40221468 -0.032615215 0.09086822 -0.6128466 0.01737539 0.64429224 0.4248 0.028380934
-0.7982138 -0.50348693 0.17539981 0.14327244 -0.2817779 0.5038461 -0.45803708 -0.059617784
-0.51894695 -0.25971487 0.23381145 -0.35909757 0.046054278 -0.92710614 0.07402819 -0.3792805
0.3026654 0.53586715 0.31986186 -0.7936582 0.030609291 0.58214813 -0.43112794 -0.49109638
-0.20209762 -0.36792034 0.45145887 0.22967406 0.15435588 0.03744377 -0.07742528 0.3777652
-0.299478 0.06392602 -0.40717247 0.51639193 -0.04979112 -0.6331494 0.5634918 0.44207183
0.06894904 -0.08815144 -0.60678816 0.580124 0.23061873 -0.18960698 0.8080733 -0.23101072
0.027724722 -0.8269368 0.25401166 -0.41253543 -0.69354165 -0.24958189 0.03745101 -0.20072779
0.09793746 -0.29510874 0.3659759 0.40189636 0.32023048 0.18527482 0.60165405 -0.36379182
-0.33156568 0.28795686 -0.2762307 0.363229 0.57251906 -0.025642965 -0.7720972 -0.02483327
-0.4135541 -0.75402427 0.035765 -0.6675709 -0.25614572 0.44724676 -0.4889002 -0.65002966
-0.4950057 -0.49182582 -0.2892249 0.28247115 -0.24230404 0.55599505 -0.17878556 -0.23433667
-0.6405323 -0.480862 0.41891187 -0.2397302 -0.5040908 -0.15208526 -0.17208068 0.43788153
0.038013127 -0.37474817 -0.03570138 0.38822246 0.56271535 -0.014217436 0.2130764 -0.4959993
0.10237447 -0.5224285 0.62453276 -0.5203834 0.319756 -0.036206648 0.43169123 -0.5629761
00000000: 852d 06bf bfc8 d6be cc13 103e 6ed4 953e
00000010: 9750 d5be 0329 03bf 7a76 7cbe b657 af3e
00000020: 20b5 f03e dc1f c0be 3371 bdbe 5ed3 2f3e
00000030: 6b35 3cbf 58ff 903e 1950 023e a210 003f
00000040: 8056 823e a1f0 e53d 4985 1a3f dfb6 1ebe
00000050: 673d c7be c87b 54be fddc aebc 41ed 6b3e
00000060: a8c4 d03e a666 dbbd 65b6 75bd 71b3 c53e
00000070: d2dc b9be 1048 f03e e9cc fbbd 8303 81bf
00000080: e1b5 32bd f01b 093d f31a e4be 04f0 a1be
00000090: 9bda 02bf 66e4 05bf e86a 9b3e 823f 5f3e
000000a0: 616a 1abf 59d6 5a3e ca19 ab3e cbe3 2bbf
000000b0: 61d8 023f 948e 13bf cad7 debe 36a2 e73e
000000c0: df26 51bf 507a 43bd c56b 9d3e f16b 24bf
000000d0: 2c93 17be 334c ae3e d828 24bf ea65 e23d
000000e0: aa65 e23e 71da 0ebf f4c3 1a3d 954d e73e
000000f0: 33d7 2cbf 0ca4 ffbc 4012 c53e 951f a93e
00000100: 7034 43bf 854c 4abe 6bfb 063e 7ad5 86be
00000110: cc87 37be a8ea 3a3d f43f fb3e 85e3 e93e
00000120: fbc5 a13d 2bcf 593f e4ea e13c e132 e13e
00000130: c159 933e b3e7 bcbd 2f11 9c3e 7c47 2d3f
00000140: 9a1d a63e 2c18 9ebe c30c d73d 1b91 133f
00000150: cbdf 1e3e 8b77 dc3b 06c2 b13e 22fe 053f
00000160: eab4 26bf 07f5 9b3d 7ff3 22bf aa82 83bf
00000170: e5e4 a3bd 9712 27bf 9083 cb3e 8cb8 24be
00000180: f7f1 05be e4d3 a6be 5f60 533e 091f 7ebf
00000190: c78e 00bf 2df2 963e 2cdb 39bf 09aa f03e
000001a0: 53d2 7e3d 9017 4dbd a2cb eabe f20c debe
000001b0: a20c 183f f87b cd3e ba16 2c3d 4695 dabe
000001c0: 4652 d5bd c67b 0cbf 67d6 053e 2fbc b4be
000001d0: 1c2f 113f c5fc f93d b555 1fbf ccec 383e
000001e0: 27ee a8bd 7fc8 b33e 9783 be3e 5ccb d13d
000001f0: 3649 53bf 9bf8 863d 195c 1d3f 11cb 7c3e
00000200: 90cd 39bd baee 20bf 898c 1b3f 442a 763c
00000210: c7d5 f73e f1a2 b53d 0778 4bbe ee41 4fbe
00000220: 15ef cdbe 8897 05bd 1e19 ba3d 84e3 1cbf
00000230: d556 8e3c 56f0 243f 637f d93e 227f e83c
00000240: bd57 4cbf 85e4 00bf 029c 333e 03b6 123e
00000250: 3145 90be 0ffc 003f d683 eabe c731 74bd
00000260: b5d9 04bf 59f9 84be 456c 6f3e a3db b7be
00000270: 69a3 3c3d d456 6dbf 179c 973d 0e31 c2be
00000280: f6f6 9a3e 972e 093f efc4 a33e 2f2d 4bbf
00000290: 56c0 fa3c a907 153f cdbc dcbe fc70 fbbe
000002a0: aef2 4ebe 0e60 bcbe 9e25 e73e ad2f 6b3e
000002b0: 780f 1e3e a35e 193d 2591 9ebd 716a c13e
000002c0: 2e55 99be a5eb 823d e978 d0be 4332 043f
000002d0: c6f1 4bbd 1416 22bf 0041 103f 3d57 e23e
000002e0: 2735 8d3d be88 b4bd 7856 1bbf 0283 143f
000002f0: 5127 6c3e 5528 42be e4dd 4e3f 138e 6cbe
00000300: f51e e33c 21b2 53bf d10d 823e d837 d3be
00000310: f28b 31bf 6592 7fbe 3b66 193d 968b 4dbe
00000320: 6f93 c83d 7e18 97be 3161 bb3e 5cc5 cd3e
00000330: 40f5 a33e afb8 3d3e 0006 1a3f ec42 babe
00000340: fac2 a9be 156f 933e 1c6e 8dbe 27f9 b93e
00000350: 9c90 123f 3211 d2bc 29a8 45bf 246f cbbc
00000360: 5dbd d3be bc07 41bf 527e 123d ede5 2abf
00000370: 8825 83be 87fd e43e 2151 fabe 5868 26bf
00000380: 6371 fdbe 98d0 fbbe 4915 94be 0fa0 903e
00000390: 8d1e 78be b155 0e3f 9013 37be f4f5 6fbe
000003a0: edf9 23bf 8b33 f6be 9e7b d63e d57b 75be
000003b0: 180c 01bf 3dbc 1bbe eb35 30be 0232 e03e
000003c0: a7b3 1b3d fede bfbe 9c3b 12bd 18c5 c63e
000003d0: 1d0e 103f 40f0 68bc b330 5a3e 9ff3 fdbe
000003e0: b5a9 d13d e0bd 05bf 61e1 1f3f d937 05bf
000003f0: 0fb7 a33e 6c4d 14bd a206 dd3e 341f 10bf

layers.0.bias f4 [128]
0.678178 0.21795844 0.28196287 -0.28626707 0.2730538 -0.054468006 -0.30980185 0.7418021
0.7165223 -0.3025129 0.35396343 0.30608076 -0.43581623 0.35303047 -0.39309633 -0.42708933
-0.13642173 0.40300927 0.2546309 -0.003575507 0.4364428 0.58960396 0.09218136 0.5162728
0.15610798 0.73980683 -0.2793236 0.25886488 0.11920185 -0.07034968 -0.20570573 -0.1578918
0.3747114 -0.33106053 0.50963306 0.19718942 -0.22420493 0.4875443 -0.20433804 0.11545602
-0.66982925 0.72896475 0.42116037 0.31832322 0.30202937 0.6588554 0.39512703 -0.057591643
-0.364892 0.18914922 0.5158882 -0.029639395 -0.28851599 0.4630935 -0.061394345 -0.39034963
-0.54979414 0.6836952 -0.22975858 -0.1295788 -0.019935532 0.75384253 0.016189415 -0.40975174
-0.52993387 0.42825085 -0.41825357 0.5597304 0.04584657 -0.2725509 0.47042683 0.2691783
0.0035820205 0.33094963 0.49251083 0.045929067 0.5835979 0.3745378 0.13663773 -0.44705763
0.58398694 -0.09001166 0.21446444 0.029317994 -0.36785108 0.2421056 0.49141353 0.10929405
0.5571226 -0.079357 0.3615282 0.4118886 0.33804283 0.1624508 0.20134564 0.07517475
-0.54933405 0.5510936 -0.01087436 -0.4277462 -0.4465172 -0.14597721 0.4875654 0.2775584
0.018232338 0.06624407 -0.1322019 0.041151524 -0.01142973 -0.17558816 0.17082697 0.24194942
-0.37874267 0.35126036 -0.25444406 -0.15120116 -0.31488088 0.5431535 -0.48003748 0.52959615
0.202154 0.23729014 0.38010594 -0.20226233 -0.32546383 -0.37787968 0.08390311 0.27799103
00000000: 139d 2d3f 7f30 5f3e 705d 903e 9991 92be
00000010: b5cd 8b3e d819 5fbd 599e 9ebe bee6 3d3f
00000020: 016e 373f f9e2 9abe b23a b53e 9eb6 9c3e
00000030: 4e23 dfbe 69c0 b43e ec43 c9be 74ab dabe
00000040: 23b2 0bbe 3b57 ce3e fb5e 823e 0e53 6abb
00000050: 6e75 df3e 49f0 163f 95c9 bc3d 742a 043f
00000060: c5da 1f3e fb63 3d3f 8103 8fbe f089 843e
00000070: 1920 f43d 7e13 90bd 86a4 52be 63ae 21be
00000080: 2cda bf3e c480 a9be 5077 023f 06ec 493e
00000090: fa95 65be 689f f93e fe3d 51be 3574 ec3d
000000a0: ee79 2bbf 6f9d 3a3f 55a2 d73e 43fb a23e
000000b0: 98a3 9a3e bfaa 283f 174e ca3e 37e5 6bbd
000000c0: 20d3 babe 55b0 413e 4011 043f 51ce f2bc
000000d0: 5eb8 93be 971a ed3e a378 7bbd e8db c7be
000000e0: 4fbf 0cbf a606 2f3f d545 6bbe 4eb0 04be
000000f0: d74f a3bc d3fb 403f aa9f 843c fbca d1be
00000100: bfa9 07bf b243 db3e 5525 d6be 7e4a 0f3f
00000110: 9dc9 3b3d cb8b 8bbe c9db f03e bdd1 893e
00000120: 55c0 6a3b 3b72 a93e 612a fc3e 1e20 3c3d
00000130: ac66 153f 6bc3 bf3e c3ea 0b3e bde4 e4be
00000140: 2b80 153f 0858 b8bd 919c 5b3e 4a2c f03c
00000150: fa56 bcbe 88ea 773e 8e9a fb3e 8fd5 df3d
00000160: 969f 0e3f ec85 a2bd 391a b93e 10e3 d23e
00000170: f313 ad3e 8159 263e 8d2d 4e3e 38f5 993d
00000180: 28a1 0cbf 7814 0d3f 5f2a 32bc 8d01 dbbe
00000190: e79d e4be 0d7b 15be 2ca2 f93e 221c 8e3e
000001a0: fc5b 953c f9aa 873d ef5f 07be 808e 283d
000001b0: c343 3bbc 62cd 33be 44ed 2e3e 97c1 773e
000001c0: 8fea c1be 66d8 b33e 7e46 82be 7ad4 1abe
000001d0: 1138 a1be 1c0c 0b3f 79c7 f5be 9d93 073f
000001e0: 7501 4f3e 30fc 723e 3f9d c23e db1d 4fbe
000001f0: 32a3 a6be 7279 c1be 65d5 ab3d d754 8e3e

layers.1.weight f4 [128, 128]
0.14797887 0.1280041 -0.4446463 -0.22699061 -0.417944 -0.18340558 0.044272363 0.023300685
-0.007205289 -0.15687118 0.21134613 0.10623642 -0.33946922 0.04840182 0.23797634 -0.25566775
-0.33538502 -0.06882033 -0.23620121 -0.3418294 0.008197713 0.12880674 0.040298596 -0.36582726
0.05720397 -0.06336133 -0.00198313 -0.2968193 -0.008399615 0.22913113 0.15193824 -0.09629847
0.1264906 -0.18113974 -0.41768566 0.03692648 -0.24262214 0.014930302 -0.0019400676 0.13656959
0.05039166 0.13043503 -0.025837956 -0.34943566 0.054653585 0.14236678 0.07193825 -0.25338298
-0.14031665 0.26828548 0.0055943467 -0.1705589 0.25320613 -0.24572183 0.18977693 0.118932106
-0.011724025 -0.079610676 -0.15273532 0.07407588 0.19384257 0.07859974 -0.04498275 -0.21892592
0.37545475 -0.025850173 -0.077756874 -0.17445932 -0.32246384 -0.17728823 -0.27954334 0.08204671
0.20344222 0.013425109 -0.024224399 -0.03711369 -0.29821542 -0.032602113 0.15350826 -0.08552428
-0.008091266 -0.066782184 0.083066486 -0.024649514 -0.02423084 -0.023025015 0.134283 -0.19138086
0.13008556 -0.1310771 -0.045316193 0.11190756 0.07157204 0.19822796 0.00012372268 0.17864345
-0.048351925 0.10790574 0.12143347 -0.21058843 0.041040033 0.28214115 0.19135194 0.17468195
0.08232404 0.07644292 -0.04270902 -0.15162241 0.27650818 -0.33377212 -0.33224216 0.14754067
-0.15129244 -0.12279514 -0.06295451 -0.26034194 -0.07757822 -0.065487616 -0.21637958 -0.045736156
-0.25142035 0.105081685 -0.10551027 -0.12887794 -0.28668162 0.09803414 -0.05090029 -0.24752448
0.012687289 -0.070337825 0.00301038 -0.085578896 0.028503694 0.014815466 0.008212354 0.029341538
0.027683882 -0.01821092 -0.07996121 -0.0033809529 0.04878633 -0.058729857 -0.0052379216 -0.03488995
-0.015683878 0.017840581 -0.03673027 0.021343313 -0.066309795 -0.080567434 0.06722107 -0.037018344
0.035242684 0.053105675 0.063940145 0.06764388 -0.06400764 -0.05852168 0.060010176 0.0011999243
-0.05878128 -0.040868115 0.058244787 0.066163994 0.043884855 -0.08619667 -0.08646452 0.052017916
-0.05065898 0.008236794 -0.1020568 -0.087670095 0.0013681586 -0.07334966 0.019633736 0.06300073
0.02050087 0.06779903 -0.047407705 -0.07916263 0.054826893 -0.017124945 -0.040288504 -0.07569755
0.029608978 0.06262056 -0.05186121 -0.072560675 -0.048664413 0.03455082 -0.00219598 0.08776524
0.06310313 -0.051306255 0.0693069 0.045703053 -0.057727326 -0.07805661 0.06234648 0.08958155
-0.027100038 0.011482992 0.001150723 -0.032566182 -0.058874518 0.048142552 0.04774325 -0.09263908
-0.07833615 -0.09431263 -0.04958859 0.04378788 -0.11052729 0.07127682 -0.08028521 0.053836487
0.0055520665 -0.033002343 0.0085415775 0.054364722 0.035876386 0.08343174 0.010605923 -0.07301848
-0.073146574 -0.07465605 0.05371216 0.026162034 -0.055262126 -0.032745615 -0.043825664 -0.065403566
-0.02115179 0.077848926 0.030096699 -0.01159999 0.0009489784 -0.08521266 0.013077813 0.039197482
0.031064784 -0.084061876 0.041228916 0.0451667 0.040764067 0.04529424 0.032842413 -0.06439819
-0.026194189 0.029731452 -0.07298548 -0.03075247 -0.062479638 0.052263495 -0.0861324 -0.029965451
00000000: c687 173e 8213 033e aea8 e3be 3a70 68be
00000010: c2fc d5be acce 3bbe f056 353d 14e1 be3c
00000020: 581a ecbb d7a2 20be 1f6b 583e 7b92 d93d
00000030: e9ce adbe fd40 463d 12b0 733e e2e6 82be
00000040: 96b7 abbe acf1 8cbd bbde 71be 4304 afbe
00000050: b34f 063c eae5 033e 2410 253d b64d bbbe
00000060: b64e 6a3d 96c3 81bd 66f7 01bb b3f8 97be
00000070: 8a9e 09bc 5aa1 6a3e b395 1b3e 2238 c5bd
00000080: c086 013e b27c 39be e5da d5be 3840 173d
00000090: f071 78be 3a9e 743c de49 feba e6d8 0b3e
000000a0: 7c67 4e3d c390 053e 1faa d3bc 3be9 b2be
000000b0: 70dc 5f3d 99c8 113e 5c54 933d 6abb 81be
000000c0: 2baf 0fbe b75c 893e c850 b73b fea6 2ebe
000000d0: 3ca4 813e 819e 7bbe e254 423e ad92 f33d
000000e0: 2016 40bc ec0a a3bd a666 1cbe 18b5 973d
000000f0: ab7e 463e e7f8 a03d d53f 38bd 1e2e 60be
00000100: 9b3b c03e bec3 d3bc ff3e 9fbd 77a5 32be
00000110: fb19 a5be 0c8b 35be 4e20 8fbe 1b08 a83d
00000120: 2853 503e fdf4 5b3c 3f72 c6bc 8604 18bd
00000130: b1af 98be cb89 05bd 4531 1d3e 5b27 afbd
00000140: 3b91 04bc 19c5 88bd c31e aa3d c7ed c9bc
00000150: c17f c6bc f59e bcbc 7c81 093e 58f9 43be
00000160: 2635 053e 1339 06be 799d 39bd ca2f e53d
00000170: 5d94 923d 45fc 4a3e 8ebb 0139 4fee 363e
00000180: ab0c 46bd affd dc3d 1cb2 f83d 7ea4 57be
00000190: 9819 283d ce74 903e c3f1 433e d3df 323e
000001a0: 8299 a83d 1b8e 9c3d a7ef 2ebd e842 1bbe
000001b0: 7b92 8d3e 2ee4 aabe a51b aabe e714 173e
000001c0: 68ec 1abe 057c fbbd 4bee 80bd 8a4b 85be
000001d0: 54e1 9ebd 5f1e 86bd 9c92 5dbe d655 3bbd
000001e0: 2bba 80be 1135 d73d c515 d8bd 94f8 03be
000001f0: efc7 92be 20c6 c83d d37c 50bd 0f77 7dbe
00000200: 59de 4f3c 470d 90bd cc49 453b fd43 afbd
00000210: 9480 e93c 91bc 723c 1c8d 063c aa5d f03c
00000220: 4fc9 e23c 112f 95bc b4c2 a3bd fa92 5dbb
00000230: 2dd4 473d b88e 70bd dfa2 abbb c4e8 0ebd
00000240: 7a7b 80bc 6926 923c 7b72 16bd 2cd8 ae3c
00000250: 6ecd 87bd 8a00 a5bd 33ab 893d 8ca0 17bd
00000260: a25a 103d 5685 593d 0df3 823d e088 8a3d
00000270: 7016 83bd 6eb4 6fbd 3bcd 753d c746 9d3a
00000280: a4c4 70bd 5365 27bd 1692 6e3d fd80 873d
00000290: 9bc0 333d e187 b0bd 4f14 b1bd bd10 553d
000002a0: ca7f 4fbd 9ef3 063c 2803 d1bd 618c b3bd
000002b0: c953 b33a 5938 96bd eed6 a03c 8706 813d
000002c0: 71f1 a73c 38da 8a3d 952e 42bd 0420 a2bd
000002d0: 2a92 603d 9d49 8cbc 8f05 25bd 5107 9bbd
000002e0: 878e f23c 353f 803d 6c6c 54bd b19a 94bd
000002f0: 5654 47bd 2985 0d3d 6eea 0fbb 43be b33d
00000300: 373c 813d 8226 52bd c7f0 8d3d 2033 3b3d
00000310: 7d73 6cbd 25dc 9fbd 065f 7f3d 8876 b73d
00000320: e600 debc 2923 3c3c dbd3 963a 1e64 05bd
00000330: 6826 71bd 2031 453d 6d8e 433d 8fb9 bdbd
00000340: b46e a0bd fb26 c1bd 681d 4bbd ec5a 333d
00000350: 225c e2bd 95f9 913d 926c a4bd a683 5c3d
00000360: 1cee b53b 772d 07bd f9f1 0b3c 8bad 5e3d
00000370: 1ef3 123d 43de aa3d 77c4 2d3c b68a 95bd
00000380: dfcd 95bd 45e5 98bd 4801 5c3d c351 d63c
00000390: 8a5a 62bd 4420 06bd 8a82 33bd 4ef2 85bd
000003a0: 8546 adbc 426f 9f3d 5a8d f63c e20d 3ebc
000003b0: ddc4 783a fa83 aebd 5344 563c 8a8d 203d
000003c0: 937b fe3c a228 acbd a7df 283d b800 393d
000003d0: 39f8 263d 7486 393d c485 063d 33e3 83bd
000003e0: 3295 d6bc 608f f33c 6979 95bd 9bec fbbc
000003f0: a6ea 7fbd 3f12 563d 2f66 b0bd 1b7a f5bc

layers.1.bias f4 [128]
-0.02465396 -0.06866393 0.19457085 0.019285688 0.18591355 -0.04939545 0.0936416 -0.014080115
-0.0074163214 -0.017917145 0.037440307 0.038335554 0.0039031033 -0.010745393 0.07507994 0.03650726
-0.006930018 0.03766664 0.13298321 0.20683275 0.09117309 0.06811035 -0.048561987 -0.030287448
0.033769608 -0.04480464 0.034723718 -0.057525806 0.15435393 -0.06790415 0.11057445 0.05904933
0.05380465 -0.08187296 0.03515765 0.048322078 0.08261002 -0.025764998 -0.027862705 0.07023008
-0.14096804 0.034781568 0.01612673 -0.028490745 0.032346882 0.016386027 0.09478589 0.05660782
0.0015210446 0.10755132 0.01564854 0.024072394 0.05663868 0.051245004 0.13620856 0.058430422
0.03345589 -0.002798058 -0.05422705 0.15612113 0.0833872 -0.083123274 0.11441226 0.09122158
0.07849779 -0.086877376 0.083463416 -0.041727636 -0.084329724 -0.006802142 0.055364836 -0.121835016
0.23787704 0.01841064 0.11657065 -0.032590512 -0.023895076 -0.10749043 -0.04155967 -0.043427218
0.04282944 -0.04930764 -0.0093310345 0.18870492 0.015800674 -0.009597639 -0.02889796 -0.046017032
0.15236694 0.097116716 0.15476997 -0.03484906 0.10774981 -0.0034751992 0.059149183 0.037831314
0.047673192 -0.021116327 0.2344555 -0.03411868 -0.042883378 -0.029994989 -0.0400761 0.11525638
-0.0491527 0.1646464 0.043817755 -0.030842297 0.122560814 0.0140887005 0.0076788124 0.0023891376
0.090137556 -0.0729639 0.020438394 0.04323332 -0.01663641 -0.0046153776 -0.016765814 0.09744377
-0.0070008654 -0.027068779 0.152479 -0.024107775 -0.00040855163 -0.04424421 0.072446935 0.0066244425
00000000: 1af7 c9bc ad9f 8cbd 953d 473e 05fd 9d3c
00000010: 1f60 3e3e e252 4abd 2bc7 bf3d 48b0 66bc
00000020: 9d04 f3bb fac6 92bc 025b 193d be05 1d3d
00000030: 35cb 7f3b 720d 30bc 83c3 993d a388 153d
00000040: 3415 e3bb 5648 1a3d c02c 083e f7cb 533e
00000050: f5b8 ba3d 707d 8b3d efe8 46bd 621d f8bc
00000060: 0052 0a3d 1285 37bd 753a 0e3d 2ea0 6bbd
00000070: f50e 1e3e 5511 8bbd db74 e23d b6dd 713d
00000080: 4462 5c3d 03ad a7bd 7801 103d 5fed 453d
00000090: 712f a93d 1e11 d3bc 5440 e4bc cad4 8f3d
000000a0: ed59 10be 1e77 0e3d 341c 843c 6c65 e9bc
000000b0: 2a7e 043d fd3b 863c 1b1f c23d 9add 673d
000000c0: ca5d c73a de43 dc3d 5e31 803c 7833 c53c
000000d0: f6fd 673d 48e6 513d 427a 0b3e bd54 6f3d
000000e0: 0b09 093d a05f 37bb 2f1d 5ebd 38de 1f3e
000000f0: e9c6 aa3d 893c aabd fa50 ea3d 61d2 ba3d
00000100: 73c3 a03d c4ec b1bd deee aa3d 99ea 2abd
00000110: 10b5 acbd 81e4 debb 3dc6 623d a384 f9bd
00000120: 0a96 733e e9d1 963c 98bc ee3d a17d 05bd
00000130: 9bbf c3bc f123 dcbd 793a 2abd bde0 31bd
00000140: ec6d 2f3d cff6 49bd 32e1 18bc dd3b 413e
00000150: 6a70 813c 6a3f 1dbc 6abb ecbc 5b7c 3cbd
00000160: 1406 1c3e 21e5 c63d 057c 1e3e e3bd 0ebd
00000170: efab dc3d 2bc0 63bb 6a46 723d 02f5 1a3d
00000180: f744 433d 26fc acbc 1a15 703e 07c0 0bbd
00000190: 7ba6 2fbd 0db8 f5bc d626 24bd 890b ec3d
000001a0: 5754 49bd 1199 283e 3f7a 333d fca8 fcbc
000001b0: 2a01 fb3d 4bd4 663c 8c9e fb3b 1493 1c3b
000001c0: 0a9a b83d 196e 95bd 6b6e a73c 6c15 313d
000001d0: 1549 88bc 983c 97bb 7658 89bc 9990 c73d
000001e0: 8467 e5bb 58bf ddbc 7423 1c3e ab7d c5bc
000001f0: df32 d6b9 6b39 35bd 0f5f 943d da11 d93b

readout.weight f4 [1, 128]
-0.4687606 -0.02118804 0.6527254 0.30656946 -0.30401638 0.36067903 0.23203336 -0.08086112
-0.1599204 -0.07933907 -0.12356516 -0.023754869 0.29950964 0.15001678 -0.10258338 -0.03926088
-0.09158 0.35710594 -0.5999345 -0.24547382 0.36680418 0.5210238 -0.0776863 -0.2118635
0.28274596 0.32129943 -0.1261837 0.44837096 -0.6765879 -0.013052437 -0.08151154 -0.107561246
0.1808863 -0.031103512 -0.0759236 -0.115237035 0.2808459 0.45788673 0.1278702 0.14596081
-0.45700735 -0.071023285 -0.04037447 -0.053259246 0.28025436 0.3379266 0.33285573 0.21025288
-0.035226528 0.32544953 0.16921452 0.37136826 0.29877236 0.33624977 -0.616667 0.2420917
-0.35128906 -0.081409924 0.07723048 0.55385774 0.33648458 -0.022723451 0.47631374 -0.123505466
0.3941769 -0.17076379 -0.039431937 -0.066486366 -0.050067756 0.004673912 0.035340197 0.26755467
-0.60161835 0.2747731 0.53523475 -0.01095476 -0.18005839 -0.39571312 0.08330283 -0.08156002
0.42654225 -0.05482384 0.3431724 -0.47063768 0.4369828 0.4170026 0.27397513 0.23806943
0.29518268 -0.052558832 0.4035294 0.28767475 -0.14144495 0.3942122 -0.08472341 -0.20120198
0.27540147 -0.18689755 -0.26502687 0.27763677 0.1561007 0.43348885 0.27373084 -0.07631403
0.012062881 -0.24390706 0.42516422 0.35188848 -0.25169072 0.075276375 -0.082943894 -0.12578039
-0.14264043 -0.071924746 -0.05482004 -0.021135945 -0.044631686 0.2865986 0.2447254 0.35354906
0.037085842 -0.1666972 -0.32305652 -0.010112545 -0.0139554385 -0.19346522 0.41950274 0.4074721
00000000: 6401 f0be 8a92 adbc 0319 273f acf6 9c3e
00000010: 09a8 9bbe ecaa b83e 279a 6d3e 849a a5bd
00000020: 2cc2 23be 867c a2bd bb0f fdbd 9299 c2bc
00000030: 5459 993e 009e 193e 3c17 d2bd 04d0 20bd
00000040: 4c8e bbbd 97d6 b63e 4f95 19bf 7d5d 7bbe
00000050: c2cd bb3e d161 053f ff19 9fbd bff2 58be
00000060: 14c4 903e 5c81 a43e 4d36 01be e190 e53e
00000070: dd34 2dbf e4d9 55bc 86ef a6bd 1249 dcbd
00000080: 423a 393e cbcc febc d57d 9bbd 6501 ecbd
00000090: 09cb 8f3e 2170 ea3e 68f0 023e c076 153e
000000a0: defc e9be a874 91bd b35f 25bd 5e26 5abd
000000b0: 807d 8f3e b704 ad3e 116c aa3e 884c 573e
000000c0: b149 10bd 52a1 a63e 9246 2d3e fb23 be3e
000000d0: b1f8 983e ee28 ac3e e3dd 1dbf e3e6 773e
000000e0: 29dc b3be 3fba a6bd 042b 9e3d 9fc9 0d3f
000000f0: b547 ac3e 8826 babc 65df f33e 6ff0 fcbd
00000100: 8ed1 c93e b4dc 2ebe 6283 21bd 012a 88bd
00000110: d913 4dbd 9e27 993b e2c0 103d edfc 883e
00000120: a903 1abf 0faf 8c3e 2505 093f 987b 33bc
00000130: 3a61 38be e99a cabe ad9a aa3d f108 a7bd
00000140: bf63 da3e f68e 60bd 4bb4 af3e 6cf7 f0be
00000150: 36bc df3e 5d81 d53e 7846 8c3e 79c8 733e
00000160: 2f22 973e ee47 57bd 689b ce3e 1b4a 933e
00000170: f2d6 10be 2ed6 c93e 7883 adbd e407 4ebe
00000180: 6c01 8d3e 1262 3fbe 9ab1 87be 6826 8e3e
00000190: ddd8 1f3e 40f2 dd3e 7326 8c3e 884a 9cbd
000001a0: 64a3 453c c6c2 79be 20af d93e ba2a b43e
000001b0: 9bdd 80be 802a 9a3d 7dde a9bd 93cc 00be
000001c0: 5510 12be 484d 93bd fa8a 60bd 4a25 adbc
000001d0: b7cf 36bd 0dbd 923e 4c99 7a3e 6204 b53e
000001e0: 53e7 173d acb2 2abe aa67 a5be 17af 25bc
000001f0: 5aa5 64bc bf1b 46be 10c9 d63e 2fa0 d03e
