Homework9/Gym-DDPG-solution/results/DDPG_Pendulum-v1_1500-eps0.1-t32-l0.0001-s100.pth (torch, 174523 bytes, 12 tensors)

layers.0.weight f4 [128, 4]
000000 f4 f3 fe be be 2f 0e 3f 23 4b 0b be 19 46 d7 3b
       -0.49795496 0.555416 -0.13602881 0.0065696356
000010 34 09 c5 3e c4 ca c6 3e 50 1c 89 bd 4c db e2 be
       0.38483584 0.38826573 -0.06694853 -0.44307935
000020 83 a4 d1 be 26 13 32 bf 33 0c 96 be df c9 88 3e
       -0.40945825 -0.6956047 -0.29306182 0.26716515
000030 4f 9f cd 3e 42 d2 95 3e b5 cc 05 be 0f 38 bd 3e
       0.40160605 0.29261976 -0.13066371 0.36956832
000040 64 8c fd 3e 5e 8a 90 3e ec 11 e8 bd 3b 4c 20 be
       0.49521172 0.28230566 -0.11331543 -0.1565408
000050 7d 8e 90 be 5b db e8 3e dc db 75 bc d1 02 cd 3e
       -0.2823371 0.45479855 -0.015006032 0.4004121
000060 23 d5 57 bd 40 2f 4e 3f 81 ad a5 3d c9 04 88 bc
       -0.052693497 0.8054085 0.08089734 -0.016603844
000070 8a f9 b0 be 8c a6 8e 3e 11 6d a4 3c c1 82 68 be
       -0.34565383 0.2786144 0.020071538 -0.22706129
000080 2c ca a6 3e db 47 67 bf 05 4c ef be 17 1a 39 be
       0.3257612 -0.9034402 -0.46737686 -0.18076359
000090 90 9b 3f 3f 2c 63 0a 3e 19 21 36 be 11 33 ba 3e
       0.74846745 0.13514394 -0.17786063 0.36367086
0000a0 6e fa a3 3c 19 5a 17 bf de 2d 81 3d e0 b9 39 be
       0.020016875 -0.59121853 0.063075766 -0.18137312
0000b0 c1 fa 66 be 30 46 f5 bd 4e e0 de be 38 ef be 3c
       -0.22556593 -0.11976278 -0.43530506 0.023307428
0000c0 e4 dc 0a 3f 7c e0 8a 3b a6 90 2d bd 85 66 54 3e
       0.542433 0.0042381864 -0.042374276 0.20742233
0000d0 9b 9b a2 bd 80 5d 4d be ab 3c 14 3c a5 6e 31 bb
       -0.07939836 -0.20055199 0.0090476675 -0.0027074006
0000e0 b2 0b e5 3d 9c ab fe 3c ba 32 84 3e d5 4a 77 3e
       0.11183871 0.03108769 0.2581995 0.2414964
0000f0 30 1c ad bd cf 1f 96 3e 3f e2 cc 3b 13 37 b8 3e
       -0.08452642 0.29321143 0.0062525566 0.35979518
000100 e8 4c d4 3e 72 7d 0f 3f f8 84 86 3e 2a f1 6a 3c
       0.41464925 0.5605079 0.26273322 0.014339725
000110 7d 8e 94 be 3f ff 46 be e6 88 10 3f db 1d 2d 3e
       -0.2901496 -0.19433306 0.5645889 0.1690592
000120 7f 0a fc be 66 a9 02 3e d4 b5 29 be 63 b7 e1 be
       -0.49226758 0.12759933 -0.16573268 -0.44085225
000130 69 fa 15 3f 69 ec 1b 3e dd f6 86 3e c9 0c a4 bc
       0.5858522 0.15226902 0.26360217 -0.020025628
000140 4d d0 13 bf 86 44 11 3f d7 a6 e1 bd 04 ac 0a bf
       -0.57739717 0.56745183 -0.1101815 -0.54168725
000150 35 92 05 3f 82 e7 b6 be 90 7d 1e be 26 79 e7 3e
       0.5217622 -0.357235 -0.15477586 0.45209616
000160 48 d1 76 3e f7 2b ec be e8 3b e4 3c 58 c7 3e be
       0.24103272 -0.46127293 0.027860597 -0.18630731
000170 a5 b6 ef 3e 7f d2 43 bf ef 14 c1 bd 5c 93 0e be
       0.46819034 -0.76493067 -0.09427821 -0.139234
000180 af 0c bb be 79 7e 5a 3e fc a9 a7 be 97 74 38 bd
       -0.36533114 0.21337308 -0.32746875 -0.045033064
000190 cf e2 6b 3d 62 eb a6 bd ab e8 3f 3c 1a 34 9f bd
       0.05758935 -0.081503645 0.011713187 -0.077736095
0001a0 f8 a7 e9 be b2 22 22 3f d7 d8 03 be 6f ff ce 3d
       -0.45635962 0.6333419 -0.12875687 0.10107314
0001b0 ed d3 ea 3e c8 e5 89 be 29 ef cd be 02 cc ab 3d
       0.45864812 -0.26933122 -0.40221527 0.08388521
0001c0 41 f5 8d 3e d1 4b 34 3f 9e c4 9e 3e 6b 40 b2 3e
       0.27726176 0.70428187 0.31009382 0.34814772
0001d0 b2 a4 c4 bc 16 04 20 3f e6 56 7c bd c1 83 60 be
       -0.024004314 0.62506235 -0.06160631 -0.2192526
0001e0 cd 59 19 be a1 04 4b 3f 53 5a d7 3d 70 15 ed 3d
       -0.14975663 0.7930394 0.10515275 0.115763545
0001f0 2c bb 83 be ca 88 9b be 0b 87 27 3b 9c c3 47 3d
       -0.25728738 -0.303778 0.002556267 0.048770532
000200 e1 8d 0d bf 2c 8e 8c 3e 48 df 91 be e0 be d8 bd
       -0.55294615 0.2745222 -0.28490663 -0.105832815
000210 ea 6b 96 be 6d 97 ac 3c 46 a8 2c be 33 fb 01 3f
       -0.29379207 0.0210683 -0.16861066 0.50773925
000220 df 8d 04 3f 7e 30 ee 3d 33 7d f3 bd e6 b7 f7 3e
       0.5177898 0.11630343 -0.11889114 0.4838249
000230 ef eb bf 3e 4d ec f5 3e b7 1d eb be b5 ca c8 3c
       0.3748469 0.48031846 -0.45921108 0.02451072
000240 e2 9b cc bd 9c 4a f7 bd 53 91 0d bc 13 a9 6e 3d
       -0.0999067 -0.120747775 -0.008640605 0.05826671
000250 7f 90 06 3f 53 03 4e bf 54 c4 10 be 78 e4 0a 3d
       0.52564234 -0.8047382 -0.14137393 0.03390929
000260 51 3f 4a be c4 9c 85 be b2 f5 a8 be d5 45 ce be
       -0.19750716 -0.26096165 -0.3299995 -0.40287653
000270 b0 5b 00 3e e0 53 1c be 9d 34 ff 3d b7 97 6f 3e
       0.12534976 -0.15266371 0.12461207 0.23397718
000280 f9 09 7f be 09 c8 f3 3e 24 9b 19 3e 14 5c f2 bd
       -0.24906148 0.47613552 0.15000588 -0.11833969
000290 0b cc c5 be 49 47 9c 3d c9 47 cd 3e 9b 49 a7 be
       -0.38632235 0.07630784 0.4009383 -0.32673344
0002a0 73 e7 e4 be ea 8f 22 be 1f ad b3 3e 91 ca bf 3d
       -0.44707832 -0.15875211 0.35093018 0.09364808
0002b0 92 b6 c0 be e8 d1 fa 3e 6f a5 bb be bb e2 05 bf
       -0.3763929 0.4898827 -0.36649653 -0.5229909
0002c0 8d db e5 be 8d a3 ea 3d 02 34 82 be 2e 12 0e be
       -0.44894066 0.11456976 -0.25430304 -0.13874123
0002d0 7f 20 51 be da 70 8d be 9f b7 01 3f 6d 48 15 3c
       -0.20422553 -0.2762516 0.5067081 0.009111506
0002e0 a1 a6 d2 bc 0d 6a 9e 3e 2a 51 3a bf 3d 04 a2 bd
       -0.02571422 0.30940285 -0.72780097 -0.07910965
0002f0 23 1f d7 3e 55 52 06 bf 81 c6 12 3e 8b ba b4 be
       0.42015943 -0.5246938 0.14333536 -0.3529857
000300 ec 6d c9 be 27 12 1f bf ef 68 92 be 8d 00 0c 3c
       -0.39341676 -0.62137073 -0.28595683 0.008545053
000310 10 b2 b9 be 0c f3 78 be 12 3c 9d bd d3 e9 38 be
       -0.36268663 -0.24311465 -0.07677473 -0.18057947
000320 17 55 44 be 32 43 3e 3c 24 b8 c5 3c c3 8a 07 be
       -0.19173084 0.0116127 0.024135657 -0.13236527
000330 8a 62 d3 be 30 92 ab 3e 7d f5 c0 be 12 bc f2 3e
       -0.41286117 0.3350997 -0.37687293 0.4740911
000340 29 83 7f bd 1a f2 cd be 0e 3f 13 bf 3b f7 e7 3d
       -0.062380943 -0.4022377 -0.5751809 0.11326452
000350 f4 45 0a bf 69 82 d0 3e 3c 87 7a 3d 26 e3 cb be
       -0.5401299 0.40724495 0.061164126 -0.39821738
000360 1e 38 16 3f a4 e8 39 3b 7e b3 55 3d fc f7 e0 bd
       0.5867938 0.0028367424 0.05217313 -0.10984799
000370 b9 35 1e 3f 65 12 a8 be af 03 20 be 08 7f 61 3e
       0.61800724 -0.32826534 -0.15626405 0.22021115
000380 62 1f 16 be 30 9a 0d bd 28 b6 96 be 05 82 88 3e
       -0.14660409 -0.034570873 -0.2943585 0.26661697
000390 81 f9 f8 be c9 f6 18 3c 7c 45 0e be 5a c3 de be
       -0.48627856 0.009336182 -0.13893694 -0.43508416
0003a0 4a 2b ab 3d e6 cc e8 bd 17 17 06 3e 03 35 cf be
       0.08357866 -0.11367206 0.13094746 -0.40470132
0003b0 56 85 d0 3e 38 55 3b bf ff fd 09 be 25 e5 6e be
       0.40726727 -0.7317691 -0.13475798 -0.23329599
0003c0 11 f3 e2 be 06 28 0f 3e ea 5b 9f bd cf ac 61 3e
       -0.4432607 0.13980111 -0.07781203 0.22038577
0003d0 0f 69 14 3e 0e 0b 1e 3f f9 e1 3b bd ef 51 e2 bd
       0.14493202 0.6173562 -0.0458698 -0.11050784
0003e0 21 fb 23 bf 53 49 50 3e 25 df 76 3e a3 4a d5 be
       -0.6405507 0.20340471 0.2410856 -0.41658506
0003f0 0b a1 15 bf 8a 61 9f 3e 30 96 52 bc 2f ca bc 3e
       -0.5844886 0.31129104 -0.01285319 0.36873004

layers.0.bias f4 [128]
000000 9a b0 34 3e 63 b3 7e be f0 a4 00 be 3e 81 fe 3d
       0.17645493 -0.24873118 -0.12562919 0.12426995
000010 f0 ce 9c 3e df 89 62 bc 86 54 1a bd 27 c4 0b 3e
       0.3062663 -0.013826816 -0.037678264 0.13649045
000020 2c c8 82 3e f2 70 a4 be 5d 75 a5 3e 09 98 00 be
       0.25543344 -0.3211742 0.32316104 -0.12557997
000030 e8 f1 af 3d 9b 3a 02 3f b3 6b 30 3f 0d 2c c4 be
       0.08591062 0.50870675 0.68914336 -0.38314858
000040 d9 0d 0a 3f 89 7a f8 3c ab 48 53 bd 80 98 e4 3e
       0.5392738 0.030331867 -0.051582973 0.44647598
000050 5c c1 b6 3e a3 d7 4a be 0a fd 87 be 7b 82 2c be
       0.35694396 -0.19808821 -0.2656024 -0.1684665
000060 29 3f ea be 7e dd 8d 3e a5 25 e6 3e 6f b9 83 3e
       -0.45751312 0.27708048 0.44950595 0.25727412
000070 69 80 a5 be b8 f0 f5 3e 77 f3 90 3c 1c ca 01 3f
       -0.32324532 0.48035216 0.017694218 0.5069902
000080 31 d0 a5 be 34 31 fa be 84 39 0e bf 38 b6 55 be
       -0.323854 -0.48865664 -0.5555651 -0.20870292
000090 9f 52 f7 3e 6d 28 8e be 14 64 a7 be b2 70 bd be
       0.48305222 -0.27765217 -0.3269354 -0.37000042
0000a0 93 c4 c2 be 3a 9a d4 bd 29 81 17 3f 48 18 b4 3e
       -0.380406 -0.10380979 0.5918146 0.35174775
0000b0 e4 3c d6 be ae 29 07 3e f0 20 bd 3d b4 97 33 bd
       -0.4184333 0.13199493 0.09234798 -0.043845847
0000c0 5b 82 1c bf ac b2 ea 3e 5a 03 f8 be 26 c4 9c bd
       -0.61136407 0.4583944 -0.48440057 -0.076546
0000d0 38 43 b5 3e 44 40 93 be 47 ed fd 3e 72 70 21 bf
       0.35402846 -0.28759968 0.4959509 -0.630622
0000e0 1a 38 eb be 94 41 0c bf 30 ad d1 3e 60 f8 73 bc
       -0.4594124 -0.54787564 0.40952444 -0.01489076
0000f0 da c0 0e 3f 12 dd 85 be e2 73 18 bf 77 e5 cb 3e
       0.5576302 -0.26145226 -0.59551823 0.39823505
000100 af 8f 98 3e c6 40 96 be cf 41 86 bd 22 6f d2 3e
       0.29797122 -0.29346293 -0.06555521 0.41100413
000110 2a 26 03 3d d6 d1 19 bf d8 19 6f 3e da aa 1a bf
       0.032018818 -0.6008581 0.23349702 -0.6041695
000120 11 c8 9b 3e 34 e7 c9 3e c1 71 0a 3f 70 68 ba 3e
       0.30426076 0.39434206 0.54079825 0.36407804
000130 91 54 05 3f 00 bf 99 be 56 90 33 bf b7 e1 b8 be
       0.52082163 -0.30028534 -0.70142114 -0.36109707
000140 58 f6 e4 bc 35 ae fd 3d f2 ad 06 3f f9 84 83 3e
       -0.027949497 0.12386743 0.5260917 0.25687388
000150 5a 86 ea 3e e2 82 cf 3e bd 3e 55 bf ae 49 88 3e
       0.45805627 0.40529543 -0.83298856 0.26618713
000160 c5 96 0f 3d 98 b1 4c 3d 25 26 d4 be 99 04 27 bf
       0.035055894 0.049974054 -0.41435352 -0.6524139
000170 c4 ad 10 bc fe 70 05 bf 5e 84 c3 3e 9d e6 70 be
       -0.008830491 -0.5212554 0.38186926 -0.23525472
000180 ae 38 c4 3e 60 cd 71 be c7 3d e6 3d ed 5e c4 3c
       0.38324493 -0.236135 0.11242252 0.023971045
000190 bc 0a e9 be 89 53 77 3e d2 ce 79 be 93 b7 83 3e
       -0.45516002 0.2415296 -0.24395302 0.25725994
0001a0 cf b1 09 bf d2 71 27 bd 85 87 c9 be 4a 81 ab 3e
       -0.5378694 -0.040880032 -0.39361206 0.33497077
0001b0 fb 65 22 3e b2 d7 dc be 18 77 d7 3e b9 d9 92 be
       0.15859215 -0.43133312 0.4208305 -0.28681734
0001c0 46 2a f3 3e 22 30 db be d1 6a 06 bf c5 36 05 3e
       0.4749319 -0.4281016 -0.5250674 0.13009174
0001d0 2f 21 c7 3e c5 9a 02 bf 5e 90 ec be c4 1c 0e 3e
       0.38892505 -0.5101741 -0.46203893 0.1387816
0001e0 a8 0c 15 bf de da 2d bb 1c 64 9b be 08 c2 c3 bd
       -0.58222437 -0.002652816 -0.30349815 -0.09558493
0001f0 2a 64 90 be fc 4e 15 3f ab a8 9a 3e ad 5e 4f bd
       -0.2820142 0.58323646 0.30206808 -0.0506274

layers.1.weight f4 [128, 128]
000000 dc 4d 18 3d e9 48 0a 3d 39 44 41 bd 03 0d 84 bd
       0.037183627 0.03376094 -0.047184203 -0.06447794
000010 bd 25 9e 3c d7 ae 4a bd de 85 b6 3d ed cf d5 3d
       0.019305104 -0.049483147 0.08912252 0.10440049
000020 39 97 01 be 81 12 6d 3c 8f a4 dc 3d ad 8b 89 bd
       -0.12655343 0.014469744 0.107735746 -0.06716094
000030 57 6d e6 bc 3b 3b 9e 3d 27 56 85 3c 49 75 c0 3d
       -0.02812831 0.07726141 0.016276432 0.0939737
000040 7f 4a a2 bd 62 9d a9 3d 7e d8 1f bd ee e4 8c bd
       -0.07924365 0.082819715 -0.039024822 -0.068796024
000050 bc 0d b2 3c 78 fb d5 bd d3 05 29 bd dd 1b ba bd
       0.021735065 -0.104483545 -0.04126532 -0.09087346
000060 5d 7f cb 3c 2e fe 7f 3d 3d ab f7 3d 13 7e ce bd
       0.024841005 0.062498264 0.12093208 -0.100826405
000070 f0 7f 55 3d f0 1c 6f bd 53 e5 83 3e 84 fd 11 bc
       0.052123964 -0.058377206 0.25760898 -0.0089105405
000080 3f bc 7f bd 14 29 95 3d a0 48 a4 bd 2b 07 53 3c
       -0.062435385 0.07283226 -0.080216646 0.012880127
000090 96 fd 81 3d 84 7f 33 bd cf 71 d4 bd c9 f8 25 bb
       0.06347196 -0.04382278 -0.1037327 -0.002532529
0000a0 b0 85 18 3e 5f 48 80 3d 87 57 55 3c 44 94 87 bd
       0.14894748 0.06263804 0.013021356 -0.06620076
0000b0 b3 b8 b8 bc d3 ca d4 3d 45 6e d5 bd 27 ce 9c bd
       -0.022549009 0.10390248 -0.10421423 -0.07656508
0000c0 86 aa 40 3c 90 b6 2c 3d 4b ed 43 bc 52 87 3e 3d
       0.011759406 0.042166293 -0.0119584305 0.04651577
0000d0 bd 11 5a 3d 74 5d ac 3d 89 bb 8d ba 32 b4 e7 bb
       0.053239573 0.08416262 -0.0010813336 -0.0070710415
0000e0 32 52 38 bd e9 cd a7 3b b1 5e 5b 3c b5 bb 98 bd
       -0.045000263 0.005120982 0.013389275 -0.07457677
0000f0 cd f8 31 3d d1 ec 8b bd 4b 7b cc 3d 2c a5 04 3d
       0.043450166 -0.068322785 0.09984454 0.032384083
000100 6d 27 1d bd 09 d7 57 bd 06 38 cd 3c 6d 6a 6f bc
       -0.038367677 -0.052695308 0.025051128 -0.014612776
000110 24 64 2f 3d a5 17 c2 bc 95 8b f6 ba a7 bf c7 bd
       0.04282011 -0.023692915 -0.0018809909 -0.09753352
000120 eb 7a 54 3d 36 7b a5 bd 23 e1 07 be b7 4a 50 3d
       0.051875036 -0.08080141 -0.13269477 0.050852504
000130 32 57 94 3d 33 c0 3c 3d e4 42 85 bd 19 dd dc bd
       0.07243194 0.046081733 -0.06506899 -0.107843585
000140 a6 b3 d8 3b e1 f4 d2 bd 17 33 c3 bd 2f 55 34 3e
       0.0066132126 -0.10300613 -0.09531229 0.1761062
000150 a4 dc de 3c f5 29 e2 3b f2 7c 31 3d a4 e1 11 3e
       0.027204819 0.0069019743 0.043332048 0.14246231
000160 96 f9 d8 3d ba 23 bd bd a5 9c d0 3c f9 78 2c 3d
       0.1059448 -0.0923533 0.025465319 0.042107556
000170 4a a5 83 ba e3 6d a0 3d d0 a6 ae ba 84 32 7b 3d
       -0.0010043767 0.07833459 -0.001332486 0.061327472
000180 a0 d1 0b bc 36 5e 3c 3d df 2d 01 bc 89 ac 9f bd
       -0.008533865 0.045988284 -0.007884472 -0.0779658
000190 43 f9 e8 3b 86 87 49 3d 84 52 d8 3a c0 2a 2e 3d
       0.0071097924 0.04920151 0.0016504084 0.04252124
0001a0 70 78 ff bd da 72 b5 3a e3 e5 95 3d a2 60 03 3d
       -0.124741435 0.0013843433 0.07319238 0.032074578
0001b0 da 29 dd 3d 2e da 13 3e c4 a3 73 3d eb a2 dc 3d
       0.10798998 0.14438698 0.05948235 0.10773262
0001c0 2d 39 87 bd 0e 64 eb bd 49 06 7d bd 9b 94 ec 3d
       -0.06602702 -0.11493693 -0.061773572 0.11551782
0001d0 58 81 88 bd e2 5d 3b bc 0a ff d2 3d 25 c1 b9 3b
       -0.06665295 -0.011435958 0.10302551 0.0056687766
0001e0 da d6 9b 3d a3 c4 7b bd c3 16 3a 3d 5b c1 83 3d
       0.07609339 -0.061466824 0.045431864 0.06433364
0001f0 d4 b5 b6 bd b8 56 9b bd a3 e9 c4 3d 42 b6 19 bd
       -0.089214 -0.075849 0.09614875 -0.03752733
000200 8b 11 d9 3d 02 8c 22 be 64 8e 2d bc f9 40 5b 3c
       0.10599049 -0.15873721 -0.010593031 0.01338219
000210 70 94 51 bd 7b d1 fe 3b dd 2b 19 be 39 7b 63 bd
       -0.05116695 0.007776437 -0.14958139 -0.055537436
000220 70 ad 08 bc dc e0 16 be 08 d4 cf 3d eb 02 98 3c
       -0.008342132 -0.14734215 0.101478636 0.018556079
000230 72 41 c2 bc 60 50 21 3e cd c4 08 3c 5a 2e 89 bd
       -0.023712847 0.15753317 0.008347702 -0.06698294
000240 a0 0a 28 bd 44 86 2a bd 0e 0e 94 3d 5a 48 ae 3c
       -0.041025758 -0.041631952 0.07229243 0.021274734
000250 0c e8 ac 3d e5 e8 25 3d 1f b9 86 3c 07 27 87 bd
       0.08442697 0.04050531 0.016445694 -0.06599241
000260 2a d4 42 bd 84 d8 cd 3d 87 87 62 3d 11 f5 1c bd
       -0.047565617 0.10051063 0.05530503 -0.03831965
000270 39 38 f9 bd 8a 76 14 3d 35 2a a9 bd f6 0c 26 3e
       -0.12168927 0.03624586 -0.082600035 0.16215882
000280 09 8b 12 3d 1c c6 00 bd f7 30 3c be e9 ea 4b bd
       0.035777126 -0.03143893 -0.18378054 -0.049784575
000290 d3 c0 05 3e 5f d4 81 bd 93 d2 81 bd 2e 8d f7 bc
       0.13061838 -0.06339335 -0.06338992 -0.030218687
0002a0 8e a9 2c be cc 10 90 3d 3b d9 9b 3c 81 cc 11 3e
       -0.16861555 0.07034454 0.019024482 0.14238168
0002b0 76 6e c2 bc 66 cd 3d 3c f8 11 a1 3d 36 cc 7b bd
       -0.023734313 0.011584615 0.078647554 -0.061474048
0002c0 4e 43 61 bd 91 35 83 3e d2 00 c6 bd ac 22 a9 bd
       -0.054995827 0.25626805 -0.09668125 -0.08258566
0002d0 1b b6 de 3d dd 83 40 bd a2 1f 32 3c 5e c1 74 bd
       0.108745776 -0.047000755 0.0108718 -0.05975472
0002e0 ca 5c 09 bd bf 45 6b bd d4 2f d1 bc 8e 10 4b 3c
       -0.033535756 -0.057439562 -0.025535502 0.012394084
0002f0 dd d4 9d 3e 0e 82 80 bd 93 f6 60 bc d6 92 d4 3d
       0.30826464 -0.06274806 -0.013730663 0.10379569
000300 f8 a4 ac 3d 6b 3f 13 3d eb fd 53 bc 11 ea 8b 3d
       0.08429903 0.035949152 -0.012938957 0.06831754
000310 25 4e 14 3d 4e 26 ea bc 71 33 85 3d 3d 1f 05 3e
       0.036207337 -0.028582718 0.06503952 0.13000198
000320 26 7a c5 3c a6 eb 7c bc 0f 90 a9 3c 22 f1 aa 3d
       0.024106096 -0.015437042 0.020698575 0.08346774
000330 a4 e4 4b 3e 78 2d a8 bd 9d d0 b0 bd f0 09 f9 bc
       0.19911438 -0.082117975 -0.0863354 -0.030400246
000340 13 1b 18 bd 0c 0f ff bc f6 d8 eb 3d b3 76 97 3d
       -0.037135195 -0.031135105 0.115159914 0.07395687
000350 d9 81 e9 3b b0 b2 f7 3d 54 d3 a6 be 9b bc c0 3d
       0.0071260747 0.12094629 -0.32583106 0.09410974
000360 ac fe 38 bd f9 79 17 3d 1f 88 c8 bd b4 8b a7 bd
       -0.04516475 0.036981557 -0.09791588 -0.08180943
000370 bf 5d 10 3d c1 d8 c0 3c b6 98 3f 3e e8 4c 9d 3d
       0.035245653 0.023540856 0.18710598 0.07680684
000380 4b 36 e6 3d c5 f1 cc bd d9 e3 47 3d 10 dc de 3c
       0.11240824 -0.100070514 0.048801277 0.027204543
000390 ce a3 dd 3b c6 a0 f8 3c 18 f1 17 be d3 5c 29 3e
       0.006763912 0.0303501 -0.14838064 0.16539316
0003a0 47 32 61 bc 06 2b e5 bd 93 73 60 be c0 cf ef 3d
       -0.013744897 -0.11189847 -0.21919088 0.11709547
0003b0 12 24 c7 bd b4 77 21 be 27 a2 ea 3d 72 30 be 3d
       -0.09723677 -0.1576832 0.11456709 0.09286584
0003c0 a0 f6 aa 3d 2c 78 09 bd 3b 50 1a 3e 92 d5 21 3e
       0.08347821 -0.03356187 0.15069668 0.15804127
0003d0 ab 78 ad 3d 98 2c bb bd f8 07 19 be 26 05 f6 bc
       0.08470281 -0.09139365 -0.14944446 -0.030031752
0003e0 30 a3 14 be 10 dc cf 3d 35 7c 3c bd 14 19 b0 3c
       -0.14515376 0.101493955 -0.04601689 0.021496333
0003f0 14 d2 05 3d 70 62 a0 3c 28 85 2a 3e 8a 74 90 bc
       0.03267105 0.019578189 0.16652358 -0.017633695

layers.1.bias f4 [128]
000000 94 67 5c 3d a2 7c e4 3d 0f b8 32 3d 41 4a 13 be
       0.053809717 0.11156584 0.043632563 -0.14383794
000010 2f 3e 84 bd a7 4d 8d bd 01 94 1b 3e c1 51 56 bc
       -0.06457173 -0.06899577 0.15193178 -0.013081015
000020 b3 c1 11 be fd a7 f5 3d 44 ab e9 3c 58 a4 09 be
       -0.14234047 0.11994932 0.028524049 -0.13441598
000030 f5 73 9d bc 77 cc 21 3e 76 fe a3 bd 1e b9 c6 3d
       -0.019220332 0.15800653 -0.08007519 0.09703277
000040 d4 21 42 3e b6 26 56 bd a2 8c 49 3d 5f 62 bd bd
       0.18958217 -0.05228301 0.049206384 -0.092472784
000050 1c 1b 1a bc ca 23 2a be 74 eb 38 bd 9f 83 a1 3c
       -0.009405877 -0.16615215 -0.04514642 0.019716082
000060 a3 35 3e be 2e 65 0a be 32 94 ae bd fe 78 74 3c
       -0.18575148 -0.1351516 -0.0852436 0.014921425
000070 ec 8d 0f 3e eb af f3 3d 01 b0 7e bd f5 0d 39 3d
       0.14018983 0.11898788 -0.06217957 0.045179326
000080 2a 06 1e 3e b5 00 09 be a5 d9 db bd 03 58 6f be
       0.15432039 -0.13379176 -0.10734872 -0.23373418
000090 43 a9 18 bd f7 d2 d0 3d 61 cc 15 3d cb 9c 36 be
       -0.037270796 0.10196488 0.036571864 -0.1783325
0000a0 40 62 1a be d4 6f 15 be 61 ab 8b bb 95 03 51 bc
       -0.15076542 -0.1459344 -0.0042623733 -0.012757202
0000b0 c6 6c 45 be 08 31 2e be 3a 65 f4 3d 05 29 ea 3d
       -0.19279775 -0.17010891 0.1193337 0.11433605
0000c0 20 bd 85 bd 0b 8c 4e 3e 8c e0 25 3d 9f 3c 47 bd
       -0.06530213 0.2017061 0.040497348 -0.048641797
0000d0 6c 29 e5 3d 12 22 20 3d 63 d6 08 3e d8 05 6e bd
       0.11189541 0.039094992 0.13363032 -0.05811104
0000e0 f5 cf b9 bd bc 3c 18 bd 88 58 83 3d 85 72 4f 3c
       -0.09072868 -0.037167296 0.0641337 0.012661581
0000f0 c6 a6 c5 bc 01 49 1a be 4e a5 05 3e 86 b7 48 bd
       -0.024127375 -0.15066911 0.1305134 -0.049003147
000100 e8 38 19 3d 7e c9 de bb 61 a2 92 3d f6 c3 31 3e
       0.037407786 -0.006798922 0.071598776 0.1735991
000110 7c 76 85 3a c9 a6 d7 bd 2f 61 4c 3e 0a c9 c7 3c
       0.0010182406 -0.105298586 0.19958948 0.024387855
000120 17 28 d5 3d 4b 80 25 3e 0d 93 43 3d c9 d7 3b 3d
       0.10408037 0.16162221 0.04774766 0.045860086
000130 bb cc d8 3d 5d aa 25 3e d7 8a 29 3e 91 78 f5 3c
       0.10585924 0.1617827 0.1655687 0.029964717
000140 cf 6c 15 bd 04 7f 04 3e 06 58 26 be 66 33 a1 3d
       -0.03648072 0.12939078 -0.16244516 0.078711316
000150 c4 21 1c be 13 18 83 3d f5 03 15 3e 60 c4 e5 3d
       -0.15247256 0.06401076 0.1455229 0.11219096
000160 7a ab a1 3d a2 0f f2 3d 1e 39 1d be e1 46 07 bd
       0.07894035 0.11819388 -0.1535382 -0.03302658
000170 93 e0 8a 3d 2d ea 85 bc e8 74 b6 3d e3 e5 34 be
       0.067811154 -0.016347015 0.08909017 -0.1766582
000180 cd 1f 0f bd 7f 27 dd bd a6 35 c8 bd 2a 97 e5 bc
       -0.034942437 -0.10798549 -0.097758576 -0.028026182
000190 00 f6 2b be 8f d1 07 bd 2d 2d d6 bc 67 3e 0a be
       -0.1679306 -0.033158835 -0.026144588 -0.13500367
0001a0 74 a9 17 3e 8f 52 45 bd a6 38 86 3d bb 33 e6 3d
       0.14810735 -0.048174437 0.065537736 0.112403356
0001b0 2b 15 a8 bc 89 e4 e0 bd 0f 1c 9e bd 2b 4f 08 be
       -0.020517906 -0.109810896 -0.077201955 -0.1331145
0001c0 09 0d be bd cf 9b 37 bd 92 e6 87 3d 8f 2f 9e bd
       -0.0927983 -0.044826325 0.06635775 -0.07723915
0001d0 4b 3d 30 be 69 a8 08 3e 38 21 d1 3d 46 6e 43 bd
       -0.17210881 0.13345493 0.10211414 -0.047712587
0001e0 25 a5 13 3c 33 1c 0c bd ad 35 49 bd 01 b9 d5 3d
       0.0090115415 -0.03420658 -0.049123455 0.10435677
0001f0 c8 ad 15 3e 53 41 3c 3e c9 32 1c be 42 ab 00 3e
       0.14617074 0.18384294 -0.15253748 0.1256533

layers.2.weight f4 [64, 128]
000000 1a fe e4 3d ac 4d c5 bd 44 47 67 3d c1 69 53 3a
       0.111812785 -0.09633955 0.05646445 0.000806477
000010 a2 9d 07 be 59 cb db bc 36 1b 1e 3a f3 e3 d9 bc
       -0.13243726 -0.026830362 0.00060312764 -0.026597952
000020 77 4f 75 bd 52 03 27 3d de d7 2a 3d 12 68 2a be
       -0.059890237 0.04077465 0.041709773 -0.16641262
000030 61 82 c8 bd de 24 a2 3d 50 0c a6 bd f9 f0 13 3e
       -0.09790493 0.07917188 -0.08107817 0.14447393
000040 2a a9 b2 3d b9 79 81 3c 91 73 3c 3e 9a a3 81 3c
       0.08723672 0.015805112 0.1840346 0.015825082
000050 46 0a 39 3c 55 08 2c bd 8a fa e1 3d d9 59 8f 3d
       0.011293953 -0.042000134 0.11034115 0.06999559
000060 69 86 d1 bd b2 36 01 3d 49 1e f5 bb 7f da 53 bb
       -0.10230715 0.031546302 -0.007480417 -0.0032326279
000070 10 62 e9 3a 68 17 20 3e 52 89 9c bc 77 40 70 3e
       0.0017805714 0.15633929 -0.019108448 0.23462091
000080 25 7c 82 3d ea 02 e7 bd ff 85 d3 bd 2c d6 0a be
       0.06371335 -0.11279853 -0.10328292 -0.13558263
000090 02 44 16 be 43 77 b7 3d 72 5e 62 bc a4 34 94 bd
       -0.1467438 0.08958294 -0.013816463 -0.07236603
0000a0 b4 1e d1 bd 05 29 1c bd 1d 2a a4 bd 5a d7 b6 3d
       -0.10210934 -0.038125057 -0.08015845 0.08927794
0000b0 42 b0 f8 bd ec 0a 3e bd 27 56 d0 3d 2a 61 bc 3d
       -0.121429935 -0.046397135 0.10172682 0.0919822
0000c0 c9 fe 13 be 1f 19 8d 3d 32 a3 e4 bd 0f 1c b9 bd
       -0.14452662 0.06889557 -0.111639395 -0.09038555
0000d0 e9 d8 a2 3d 90 53 1d 3d 4a 94 69 3e 08 0f 94 bd
       0.079515286 0.03840977 0.22810474 -0.072294295
0000e0 8b 95 14 be 63 57 1a be ac 16 f2 3d 08 3e 47 be
       -0.14510171 -0.15072398 0.118207306 -0.19457257
0000f0 36 eb 3d bd b7 d6 8b bd d0 e3 dd 3d a2 78 7f bd
       -0.046366893 -0.06828063 0.108344674 -0.062370904
000100 48 b1 a9 3d 59 4e 9a 3c 12 2d 06 bc b1 01 ef 3c
       0.08285767 0.018836187 -0.008189457 0.029175611
000110 c2 2d 8e bc ed bb c1 bd aa 69 b0 3d 72 e4 19 3e
       -0.017355803 -0.09459672 0.08613904 0.15028551
000120 b0 64 b6 bd d6 2f ae bb 3b 2e eb 3d 3e ed bc 3d
       -0.08905923 -0.005315761 0.11483427 0.09224938
000130 89 6e 10 bc 78 d8 02 3d c7 55 33 3e a1 a6 45 be
       -0.008815416 0.031944722 0.1751319 -0.19301845
000140 91 f6 54 bc c9 42 ae 3d af 7f be 3b c7 38 6d 3a
       -0.012998239 0.08508832 0.005813561 0.0009049293
000150 a4 0b 2a be 70 d7 fd 3c b8 82 65 3c cd f8 26 3e
       -0.16606003 0.030986518 0.014008217 0.16305847
000160 3a 6d 80 3c 52 d6 13 3d 18 fc 90 bd 03 55 b0 bd
       0.015677083 0.036093064 -0.07079333 -0.08609965
000170 03 66 c3 3d 2a 75 0b 3e 3f 76 6d be d2 a2 00 bd
       0.095409416 0.13618913 -0.23189639 -0.031405278
000180 dd d1 10 be c7 77 54 bd 0e fa f2 bd 10 13 73 3d
       -0.14142556 -0.05187204 -0.118641004 0.05934435
000190 40 8c 42 ba 95 88 23 be 42 54 60 bd 54 db 09 be
       -0.00074214116 -0.1597007 -0.054767855 -0.13462573
0001a0 d1 85 e8 3d e4 28 f2 3b 13 53 aa bb 53 e0 6e 3d
       0.113536485 0.0073901284 -0.0051978915 0.0583194
0001b0 2c f0 ff bd 27 56 6d bd c9 dc 1c be 70 54 9e bd
       -0.12496981 -0.05794349 -0.15318598 -0.07730949
0001c0 31 ca 29 bd 47 34 a5 bd 29 46 d9 3d a4 a2 cc bc
       -0.04145259 -0.08066612 0.10609085 -0.024979897
0001d0 5b ec 5a bc bd 95 11 3e 9f 07 2a be 49 de 11 be
       -0.013362016 0.14217277 -0.1660447 -0.14244951
0001e0 81 59 86 3b 55 c8 90 3d d5 64 ce bd c2 54 fb 3d
       0.004100025 0.0706946 -0.10077826 0.12272026
0001f0 73 7c 5b bd 57 64 38 3d dc 1a 54 3d 69 5a 8d 3d
       -0.05358548 0.045017567 0.051783428 0.0690201
000200 d0 ff 99 bd e8 62 8e 3d 62 be bf bd b6 4e 8b 3d
       -0.075194955 0.069524586 -0.093624845 0.06802122
000210 37 f6 cf 3d 01 56 01 3e 99 11 d0 bd e0 2a b0 3d
       0.10154384 0.12630464 -0.101596065 0.08601928
000220 09 71 92 3d e2 5d 83 3b e5 b3 08 be e7 6b ba 3c
       0.07150466 0.0040089944 -0.13349874 0.02275653
000230 eb 60 b4 bc ad 6a 3e bb 63 a3 94 3c c9 ee c1 bc
       -0.02201887 -0.0029055283 0.018144315 -0.023673432
000240 6b fa d9 bd f6 7c 43 3e 8e fc 1c bd c7 41 a9 bc
       -0.106434666 0.19090638 -0.038326792 -0.020661248
000250 68 22 91 3b d5 be 5f 3d 16 66 5c 3d 80 55 dc 3b
       0.0044291504 0.05462535 0.053808294 0.0067240596
000260 d7 03 e9 3c ea 32 b7 3c 22 e8 b5 3d b2 02 be bc
       0.028444214 0.022363145 0.088821664 -0.023194645
000270 17 eb d8 bd fa 21 b9 bd d7 56 cb 3d a6 c8 15 3d
       -0.10591715 -0.09039684 0.09928673 0.036568306
000280 0b aa be bd 49 db a7 3d f5 51 91 3d 07 33 b5 3d
       -0.09309777 0.08196122 0.0709571 0.08847623
000290 db b9 ee 3d 26 92 e0 3c 5c cc 8c bd d1 bd 8c 3d
       0.11656543 0.027413439 -0.06874916 0.06872142
0002a0 1e 6e 1d 3e 56 84 4c 3e e6 34 89 bc d2 88 12 be
       0.15374038 0.19972357 -0.016748857 -0.14310005
0002b0 a7 8a 0a 3e 91 3a b9 3a 67 52 1a 3d 91 05 1d be
       0.13529454 0.0014131834 0.03767624 -0.15334155
0002c0 00 a6 88 3d 7b 12 4b bd 8b 3a 01 3e 07 3b 87 bd
       0.06672287 -0.04957817 0.12619989 -0.066030554
0002d0 43 66 a3 bd 8e f2 62 bc 86 60 ce bd d8 24 86 3d
       -0.07978489 -0.013851775 -0.10077004 0.06549996
0002e0 1b 64 84 3d b6 64 ac 3d 5a be ad bd 77 a3 dd 3d
       0.06464406 0.084176466 -0.08483572 0.10822194
0002f0 c6 ba 9f 3d 29 35 f3 3c 5b 23 01 be 35 3d 47 bb
       0.07799296 0.029688435 -0.12611143 -0.0030401472
000300 a6 4f 87 bd 29 df ac 3d bd 9e c8 bd 83 ac c2 bd
       -0.066069886 0.08441002 -0.09795902 -0.0950556
000310 9f 6c ae 3d 57 54 73 bb 83 94 03 be 94 0c f9 bd
       0.085168116 -0.0037129128 -0.12849621 -0.12160602
000320 fe 08 e1 3d b9 7d 24 bd c5 e9 36 3d 65 9e df bd
       0.10988043 -0.04015896 0.044656534 -0.10918883
000330 b9 02 8a bc d6 dd 80 bd 4a 36 c3 bd ee 91 36 3e
       -0.016847001 -0.06292312 -0.09531839 0.17829105
000340 6a 95 50 3d db f0 0b bd fe c2 66 3c 19 66 f2 bd
       0.050923742 -0.034165245 0.014084576 -0.1183588
000350 72 d6 da 3d c7 d7 b8 bd da b2 ec bd 94 4f 4d bc
       0.106854334 -0.09025531 -0.11557551 -0.01253118
000360 e5 14 0f be 63 10 0b be 92 eb 49 bd cd 77 64 39
       -0.13972814 -0.1358047 -0.049296923 0.00021788404
000370 13 48 8d bd 07 3a 9b bc 7c a6 50 3d 4d 22 ea 3d
       -0.06898513 -0.018948568 0.050940022 0.114323236
000380 19 e1 aa 3a 37 4a 3f 3c 28 78 09 3d bd 19 d0 3c
       0.0013037055 0.011675409 0.033561856 0.025402898
000390 75 3e 06 3e a8 83 97 3d 1c d3 29 3e 7b b9 5e 3d
       0.13109763 0.07398158 0.16584438 0.054376107
0003a0 01 3c ec bd c3 ba ca bd 2c b2 29 bd d0 cd 6b bd
       -0.11534882 -0.09898903 -0.041429684 -0.057569325
0003b0 a0 94 0a 3e a2 6a de 3d 9e 24 9f 3c d2 53 ae 3d
       0.13533258 0.10860182 0.01942664 0.08512081
0003c0 28 ec 8e 3d 27 ff 8a 3d 53 87 5d 3b 2d 7f 96 3d
       0.06978637 0.06786948 0.0033802583 0.073484756
0003d0 11 a6 ca 3d f0 35 49 bb df 84 1c 3d 98 a9 9a 3d
       0.09894956 -0.0030702315 0.038212653 0.07551879
0003e0 16 bb b6 3d 31 3f 64 3d 51 81 6c bd 1b f7 b8 bd
       0.089224026 0.055724327 -0.057740513 -0.09031507
0003f0 5f b2 0b be eb ee 72 bd 39 4e 7f 3d c9 ad 25 bd
       -0.13642262 -0.05930988 0.06233046 -0.040448938

layers.2.bias f4 [64]
000000 55 34 b8 3d bc b7 5a 3b 25 4a 99 3c 82 61 00 3d
       0.089943565 0.0033373674 0.018712113 0.03134299
000010 70 76 b2 b8 77 0e 45 bd 5d 2d a4 3d 8f 00 9b bd
       -8.509762e-05 -0.048109498 0.08016465 -0.07568466
000020 ec 9d 5a 3c c4 c7 10 3e f0 3d ff bc d6 a1 5a 3d
       0.013343316 0.14138705 -0.031157464 0.053376995
000030 a1 66 82 3d a6 39 e6 3d d9 7b 12 3d 5e 9a 84 3d
       0.06367231 0.11241464 0.03576264 0.06474756
000040 74 e8 37 bd 90 07 28 3b b3 99 b4 3c 94 58 f4 3c
       -0.04489942 0.0025639273 0.022045946 0.029827394
000050 e8 ab 11 bd 99 e0 92 3d d2 12 48 3c 86 d9 89 3c
       -0.035564333 0.07171745 0.012211518 0.016827356
000060 ec ac b9 3c 1f 1c 1b be ae af 84 bd 00 68 97 bc
       0.022665463 -0.15147446 -0.06478821 -0.018482208
000070 0d 1c 02 3e 53 db e0 3d d8 19 00 be ba 87 06 be
       0.12706013 0.10979333 -0.12509859 -0.13137713
000080 b8 29 61 3e ee 1d 70 bd dd 8c a3 bc 70 a6 4c 3c
       0.2198857 -0.058622293 -0.01996463 0.012490854
000090 34 49 50 bd 59 a8 fd 3d e6 09 1a be b8 42 16 be
       -0.050851062 0.123856254 -0.15042838 -0.14673889
0000a0 7e 72 4d bd 60 2e ee bc db a6 9b 3d 73 6a b9 3c
       -0.050158016 -0.029074848 0.076001845 0.022633767
0000b0 61 f2 bd 3c b7 3a d7 bd de 1e c9 bd ac 07 33 bd
       0.023186864 -0.10509246 -0.098203406 -0.04370849
0000c0 ef 68 65 3d 85 a2 e7 3d 18 4e 57 bd d1 a7 d2 3d
       0.056008276 0.11310295 -0.05256471 0.10285915
0000d0 9a f1 6a bd 32 35 b6 3d e1 59 96 bd 4c cc 8c bd
       -0.057359315 0.08896865 -0.07341362 -0.06874904
0000e0 a7 55 4d 3c 13 4f 8e 3d 02 3f ec 3d 54 de 09 bc
       0.012532628 0.06948676 0.11535455 -0.008414824
0000f0 11 56 03 be f7 32 97 bd ee 74 a6 3d f6 3a e5 3d
       -0.128258 -0.07382768 0.08127771 0.111928865

readout.weight f4 [1, 64]
000000 b0 a8 bb bf a9 97 b6 3f 7b 6c b5 bf e9 39 c1 bf
       -1.4660854 1.4265033 -1.4173731 -1.5095798
000010 53 55 c4 bf 85 4b c9 3f ad 93 b2 bf e9 32 b7 3f
       -1.5338539 1.5726172 -1.3951317 1.4312412
000020 0b 68 b6 bf 0e c5 c1 bf 9a 78 bb 3f 3f ff b7 bf
       -1.4250501 -1.5138261 1.464618 -1.437477
000030 be e5 b8 bf 6b d4 b4 bf de ad b7 bf d1 5f bd bf
       -1.4445112 -1.4127325 -1.4349935 -1.4794866
000040 dd e9 b3 bf cc 37 bd bf 49 9a b8 3f 50 a9 b9 bf
       -1.4055744 -1.4782653 1.4422084 -1.4504795
000050 9f 3d c4 bf 19 4f bd bf 72 7d b8 bf 50 6e ba 3f
       -1.5331305 -1.4789764 -1.4413283 1.4564915
000060 af e8 c5 3f 34 ab b4 3f ad 76 b6 3f c8 1c c1 bf
       1.5461634 1.4114747 1.4254967 -1.5086908
000070 e6 ae a8 bf e6 e2 b7 bf 90 52 bd 3f 5b 94 c0 3f
       -1.3178375 -1.4366119 1.4790821 1.5045274
000080 18 80 b8 bf 24 28 b6 3f f9 67 d2 3f 4f d4 c3 bf
       -1.4414091 1.4231 1.643798 -1.5299166
000090 66 b2 ba 3f 19 a2 ba bf 60 3c b7 3f d3 a8 b8 3f
       1.4585693 -1.4580718 1.43153 1.4426521
0000a0 26 6e c0 3f bd ac b8 3f a8 8c be bf ab 9e b4 bf
       1.5033615 1.4427716 -1.4886675 -1.4110922
0000b0 d6 36 bc bf 83 fa ad 3f 8b 82 b7 3f 32 5c c0 3f
       -1.4704235 1.3592075 1.4336714 1.5028136
0000c0 57 f8 c4 3f 9b 33 b5 bf a7 4b cd 3f 32 d8 b8 bf
       1.5388287 -1.4156374 1.6038712 -1.4440978
0000d0 5c ca bc 3f e7 b6 b7 bf 5f 64 c0 3f 97 3d bb 3f
       1.4749255 -1.4352692 1.5030631 1.4628171
0000e0 92 dd b4 3f c7 c2 cb bf 1d 30 bc bf 86 89 be 3f
       1.4130118 -1.5918816 -1.4702183 1.4885719
0000f0 df c0 bd 3f f2 4b b6 bf 34 78 bb bf 89 0a c2 bf
       1.4824485 -1.4241927 -1.4646058 -1.5159465

layers.0.weight f4 [128, 3]
000000 fe 0d 27 bd d6 f1 9e 3e c6 f3 16 be 47 e1 89 3e
       -0.04078483 0.3104388 -0.1474143 0.26929685
000010 88 5f 8f be 16 3e 6a be ef 3d 1c bf 65 d5 1c 3f
       -0.28002572 -0.22875246 -0.61032003 0.61263114
000020 e1 e7 1f 3e 4d e7 3b 3f 5e 6b e2 3e 05 2c 22 bf
       0.15615799 0.7339981 0.4422254 -0.6334842
000030 d0 87 8b 3e 6d f0 75 bf 43 d5 30 be 39 aa 12 bf
       0.27252054 -0.96069986 -0.17268853 -0.5729099
000040 21 4e d1 3e 89 b5 16 3f b9 f8 60 be d8 43 0c bf
       0.4087992 0.5887075 -0.2196988 -0.5479102
000050 19 15 17 be c2 63 88 be 33 45 2b be 8f 97 f5 3e
       -0.14754142 -0.2663861 -0.16725616 0.47967193
000060 12 1e 8d be 19 b1 0d 3f 92 e7 fe bd d1 54 18 3e
       -0.27562004 0.55348355 -0.12446512 0.14876105
000070 69 de a4 be 24 fd 49 3f 91 30 1d 3e ef 3b 10 3f
       -0.32200935 0.78901887 0.15350558 0.5634145
000080 bf df c1 3d f2 b1 ea 3e de ff 2b 3e ef 36 c1 be
       0.09466504 0.45838886 0.16796824 -0.37737224
000090 ff fd 21 3f 5f d4 81 be d0 73 30 bd 11 76 24 3f
       0.6327819 -0.2535734 -0.043079197 0.64242655
0000a0 02 49 23 bf ac ed d4 be 34 ac be be 6b 56 99 3e
       -0.63783276 -0.4158758 -0.37240756 0.29948744
0000b0 c3 f5 b1 be cf ac 42 3f a5 de 60 bf 0e 3a 44 3e
       -0.34757814 0.76044935 -0.8783973 0.19162771
0000c0 d7 a7 42 3f 89 bd 2c 3f 8f 74 d2 3d 6a ed 31 3e
       0.76037353 0.6747671 0.10276138 0.17375723
0000d0 8c b0 18 3e 3d d2 f2 3e 22 1a dc be 85 52 04 3f
       0.14911097 0.47426024 -0.42988688 0.51688415
0000e0 23 eb 16 3f f5 21 11 3e 82 14 6a bf 7c 59 25 be
       0.5895254 0.1417311 -0.9143754 -0.16147417
0000f0 e1 0c 66 3f 4f 4e 32 bf 3b 96 76 3e d4 90 8b bd
       0.898634 -0.6965074 0.24080746 -0.06814733
000100 b4 cc 07 3e 1a 93 7f bd 0f c9 1b bf 82 12 06 3f
       0.13261682 -0.062396146 -0.60853666 0.5237199
000110 09 47 69 be 19 75 f5 3e 94 7c f9 bc 1b 67 9f be
       -0.22781004 0.479409 -0.030454911 -0.3113335
000120 1e 7f bf 3e 6b 46 f9 3e dc 82 d9 be 3e c9 16 bf
       0.3740167 0.48686537 -0.4248265 -0.5890082
000130 29 68 4f 3f 1f e5 d0 be 84 c1 e7 bd c0 2a 75 be
       0.8101831 -0.40799806 -0.11316207 -0.23942089
000140 f2 fb 5c 3f e7 08 1c bf 24 1c 05 3f 59 98 21 bc
       0.8632194 -0.60951084 0.51996064 -0.009862983
000150 64 de 9f 3e a9 31 3c bf 73 a1 1b 3e d2 16 7e 3e
       0.31224358 -0.73513275 0.15198307 0.24813393
000160 7a 3e e4 be 17 85 7a bc ef cc d5 be 55 f0 fc be
       -0.44578916 -0.01529052 -0.41757914 -0.4940211
000170 b3 a6 d1 3d 9b 31 ff 3e fa e1 c6 3e d9 fe 1d bf
       0.102368735 0.49842533 0.3884428 -0.6171699
000180 3f 07 12 3f d0 16 83 3f 53 4a d3 3d 0c 35 35 3d
       0.57042307 1.0241337 0.103169106 0.044240043
000190 93 54 83 be 7c 28 29 3f 72 5f e0 bd c7 1a 59 3e
       -0.25650463 0.660774 -0.10955705 0.21201621
0001a0 82 2d b4 be 4b a4 32 bf db fe 53 bf 7f df 03 bf
       -0.3519097 -0.6978194 -0.82810754 -0.515129
0001b0 4d c1 19 bf 38 56 2b 3f aa 4f 6d ba 65 35 0a bf
       -0.6006058 0.66928434 -0.00090527034 -0.53987724
0001c0 5a 16 87 bd e7 5f d3 3e d9 53 04 bf cd 2d 0c 3f
       -0.0659606 0.41284105 -0.5169044 0.54757386
0001d0 40 29 4e 3e 44 ee b4 be 48 90 d9 be b7 f7 32 3f
       0.20132923 -0.35338032 -0.4249289 0.6990923
0001e0 fd 5e 43 3f 01 dd a7 be d4 ae 95 3e 3e 29 31 3f
       0.76316816 -0.327858 0.29234946 0.69203556
0001f0 31 3b de be 5a fe 91 be 03 c8 9a be 94 75 0e bf
       -0.43404534 -0.28514367 -0.30230722 -0.5564816
000200 ea 57 1a bf f8 64 e6 3e db 86 43 be 14 33 fc 3e
       -0.60290396 0.44998908 -0.19094412 0.4925772
000210 7c 0a f8 be 12 8d c9 be 23 00 e7 3e 6f e8 d1 3e
       -0.484455 -0.3936544 0.45117292 0.40997645
000220 e2 38 70 3f e6 8e de 3d 1c 8a c4 3e b1 63 cd 3e
       0.93836796 0.108670995 0.3838662 0.4011512
000230 fb 95 ce 3d 0c d3 2e 3f 58 ca 00 bf 82 3b 99 3e
       0.100872 0.6829078 -0.5030875 0.29928213
000240 5a cb b0 bd 39 2e 28 bf 9c 4d f1 be 0c e8 17 be
       -0.08632536 -0.6569553 -0.47129524 -0.14834613
000250 c2 d3 c3 3d 39 7b 52 3f 14 40 d2 be 9b c4 b6 3d
       0.09561874 0.8221927 -0.41064513 0.08924218
000260 b0 a9 25 be c4 06 25 3f af 59 46 3f 5b f3 8c be
       -0.16178012 0.6446345 0.77480596 -0.27529415
000270 4a 74 67 3d c0 56 22 bf 8d 97 26 bf 2e d8 14 bf
       0.056507386 -0.6341362 -0.65075 -0.58142364
000280 9e 4c 8e bf 54 f2 f6 be d4 bf 30 bf ba a0 5d bd
       -1.1117132 -0.48231757 -0.69042706 -0.05410836
000290 db 6a 19 be 51 31 ea 3e 6d c9 04 3f 5a ea b3 3e
       -0.14982168 0.4574075 0.5186985 0.35139734
0002a0 34 cb f0 be fb b8 ec be ae 9b 02 3f af d5 e5 3e
       -0.47030032 -0.4623488 0.510188 0.4488959
0002b0 cd bd b7 be ca fc e7 be a3 af 26 bf b5 4e 19 3f
       -0.35886994 -0.4531005 -0.6511175 0.5988572
0002c0 9d c1 da bd 2d 4d 3a 3e 39 44 37 3f 33 66 c5 bd
       -0.1068146 0.18193503 0.71588475 -0.096386336
0002d0 f5 15 e7 3e b4 e0 a7 3c 00 16 14 bd 27 60 ca be
       0.4513394 0.020492889 -0.036153793 -0.39526483
0002e0 7f 2d 45 be bf c1 3b 3f df f3 20 3f 2e 41 e4 3e
       -0.19255637 0.7334251 0.6287212 0.44580978
0002f0 b4 8c 0e 3d cd 9b 44 3f de 50 f0 be f2 51 c9 be
       0.034802154 0.76800233 -0.46936697 -0.39320332
000300 be a9 3c bf f8 00 8b 3d 80 46 f4 bd 27 ad 47 be
       -0.73696506 0.06787294 -0.11927509 -0.19499646
000310 50 85 d1 3e fb 50 b7 3e a9 17 26 3f 23 0a 40 3f
       0.40922022 0.3580397 0.6487985 0.7501547
000320 70 be 09 3f cc f4 d5 be a4 72 14 3f 52 2c 37 be
       0.5380621 -0.41788328 0.5798743 -0.17888
000330 23 cd 12 bd c7 49 12 bd c1 51 c6 3d 0a d3 2f 3f
       -0.035840165 -0.03571489 0.09683562 0.68681395
000340 65 62 b8 bd 44 e4 8d 3c 45 45 96 bd 49 f6 c5 3e
       -0.09003142 0.01732076 -0.07337431 0.38664463
000350 4e 4c f8 be ed f7 e1 be 97 5f 02 bf 66 e9 07 3f
       -0.48495716 -0.44134465 -0.5092711 0.5309051
000360 bf b3 20 3f ce 52 83 3e 71 fe 80 3d 8f ff 7d 3e
       0.6277427 0.25649112 0.06298531 0.24804519
000370 77 44 31 3d 06 7b 1e bf c2 0f ac be 36 19 48 bf
       0.043278184 -0.6190647 -0.33605772 -0.7816347
000380 f2 97 1f be 8a 39 b7 3e 60 2d c0 be 68 10 a0 be
       -0.15585306 0.35786086 -0.37534618 -0.31262517
000390 47 ac fd be 3b de e2 be 79 93 02 bf 13 cf 14 3f
       -0.495455 -0.44310173 -0.51006275 0.5812847
0003a0 19 93 a5 3e f0 21 ea be fd 32 0b bf b1 b3 2f 3d
       0.3233879 -0.45729017 -0.54374677 0.042895976
0003b0 dd be 89 3d 58 38 6c 3e 98 7c 92 be f6 b3 e1 be
       0.067258574 0.23068368 -0.28610682 -0.44082612
0003c0 1f 85 1f 3f 60 de 4a 3f 81 4c 1e 3e 6b 7d 99 be
       0.623125 0.7924557 0.15458871 -0.299785
0003d0 cb 1c 1c bf b9 a1 30 3e 94 5e 0b 3f 81 97 56 3e
       -0.60981435 0.17249192 0.5444119 0.20956232
0003e0 f4 51 f4 3e b1 2b 98 be 40 8b 67 bf 38 95 d1 be
       0.47718775 -0.29720834 -0.90446854 -0.40934157
0003f0 c6 63 e7 be e1 53 a8 be 89 ee fc 3e 68 ed e2 be
       -0.4519331 -0.32876495 0.49400738 -0.44321752

layers.0.bias f4 [128]
000000 4f 0b 11 bf 09 56 09 bf 46 54 5c be 9c 45 b8 be
       -0.5665788 -0.53646904 -0.21516523 -0.35990608
000010 ce 65 0e 3f 68 57 ca bb ba ba fc 3e 59 f7 90 3c
       0.5562409 -0.0061749704 0.4936121 0.01769607
000020 d4 28 39 3d 37 d5 8f 3e de ec 92 3d 7d ec 01 3f
       0.045204952 0.28092358 0.07174085 0.5075148
000030 d0 01 7c 3e d4 c1 05 3f 75 73 0d 3e e3 58 32 bd
       0.24610066 0.52248883 0.13813575 -0.0435418
000040 33 f5 1e be 6d 33 99 bd a3 74 94 be 32 30 bb 3e
       -0.15523224 -0.07480512 -0.28995237 0.36560208
000050 8c af 5a be d3 b7 ba 3e b7 11 49 3e 35 10 a0 bd
       -0.21356028 0.36468372 0.19635664 -0.07815591
000060 bc 26 12 3f 8f 01 f3 3e 73 ab 93 3e ef f6 44 be
       0.57090354 0.47462127 0.28841743 -0.19234823
000070 dd 24 eb 3e 9d 5b 12 3f 3a 59 e0 3e d7 11 c7 3c
       0.45926562 0.5717104 0.43818074 0.024300499
000080 b4 8f b1 be 3c 53 1f 3e ad f2 9c be 94 f1 e0 3e
       -0.3467995 0.15559095 -0.30653897 0.4393431
000090 79 dd 33 be 1b 2d e2 be 3a 1b bc bd 16 3d 2b be
       -0.17564954 -0.44175038 -0.091848806 -0.16722521
0000a0 a3 97 1b bf ba 78 88 be 97 bc f2 bc 18 56 b0 be
       -0.60778254 -0.26654607 -0.029630942 -0.34440684
0000b0 f0 d0 0f 3e 33 01 80 be 31 cf 92 3e 17 c4 19 bf
       0.14044547 -0.25000915 0.286737 -0.60064834
0000c0 0f 03 a7 3e 30 37 eb 3e a4 dc 2e 3f f1 28 52 be
       0.3261952 0.45940542 0.6830542 -0.2052343
0000d0 5c 83 dc 3e 4a 14 3a 3e a8 6a 15 3f 82 e3 fc bd
       0.4306897 0.18171802 0.5836587 -0.12348081
0000e0 d1 7e d9 bd 18 32 6c be 4c 16 95 be f3 b3 b7 3e
       -0.106198914 -0.23065984 -0.29118574 0.35879478
0000f0 95 5a b9 bb 38 31 35 be bd 5b a0 bc 58 f6 e7 be
       -0.00565655 -0.17694557 -0.019574994 -0.45305133
000100 74 f7 7d 3d 2f 99 19 be 09 18 8c bd 94 81 ac be
       0.062003568 -0.14999841 -0.06840522 -0.3369261
000110 7e 57 e5 be e6 e5 d6 3e 2d 4e 15 3e 7d e8 1e 3f
       -0.44793314 0.41972274 0.14580603 0.620735
000120 3a 8a 0e 3e d3 f8 9c 3e 84 d2 06 3f 6d c6 8c be
       0.13919917 0.30658588 0.5266497 -0.27495137
000130 97 fc 9d 3e 29 75 d7 be 7e c7 8f 3e 63 03 b3 be
       0.30856773 -0.42081574 0.28081888 -0.3496352
000140 72 90 15 bd cf 64 f8 bc 76 db cb bd b4 c4 8e 3e
       -0.036514707 -0.030321507 -0.09953968 0.27884448
000150 d1 7e 13 3c 7c 62 ff 3e 0f f6 cb be 68 f0 68 3e
       0.009002403 0.49879825 -0.39836165 0.22747958
000160 2c e3 a2 3e b3 2a 93 3d 32 79 be 3e 71 8c 27 3f
       0.31813943 0.071858786 0.3720184 0.6544867
000170 c4 fb cc be 46 87 5b 3d 2c 94 30 3d ad d9 a3 be
       -0.40035832 0.053595804 0.043110058 -0.3200201
000180 13 77 4a be a3 60 70 3c 55 be b1 3e de 9f 01 3f
       -0.19771986 0.0146714775 0.34715524 0.5063456
000190 c5 71 ff 3e 31 11 b8 3e ae 98 28 3e 96 0f 85 be
       0.49891487 0.35950616 0.16464493 -0.25988454
0001a0 26 08 12 3f 72 f8 b3 be 65 b1 26 3e e8 27 26 3e
       0.57043684 -0.35150486 0.16278608 0.1622616
0001b0 9f ce 13 bf 11 38 0f bf 17 e5 ee bc c6 f8 35 3e
       -0.57737154 -0.55944926 -0.029161973 0.17770681
0001c0 fa 41 c1 be 22 3d 93 bd 16 5a fc 3e 26 38 11 bf
       -0.3774565 -0.071893945 0.4928748 -0.567263
0001d0 16 27 0a 3f c0 54 fb 3e 39 42 35 bf f4 7f b9 3e
       0.5396589 0.49088097 -0.7080417 0.36230433
0001e0 b4 e9 8b be 51 36 20 bf 5c 61 be be b8 ef d7 3e
       -0.2732674 -0.6258288 -0.37183654 0.42175078
0001f0 6a 63 35 3e 7e 6b 16 3f c9 a3 b4 be ee 30 f4 be
       0.17713705 0.5875777 -0.35281208 -0.4769358

layers.1.weight f4 [128, 128]
000000 0e 6c 6a 3e 08 62 58 3e 4c d8 64 be 4a df 09 3e
       0.22892782 0.21131146 -0.22348136 0.13464084
000010 93 c6 0e 3e 09 ad bc 3c 9a b8 9b bd 76 e6 2b 3e
       0.13942938 0.023031728 -0.07603569 0.16787133
000020 69 5a 00 bc 69 87 15 3d 2e b5 5e be e7 7c 18 bd
       -0.007834055 0.03650609 -0.21748802 -0.03722849
000030 76 dd 13 3e 87 51 60 3d 29 91 1a bd 4e b4 e5 3d
       0.1443995 0.05476525 -0.03773609 0.11216031
000040 c6 64 9f bc e2 4a 8c 3c 96 92 d2 bc c5 15 c4 3d
       -0.019457232 0.01712555 -0.025704663 0.09574465
000050 32 d3 fe ba b0 4c 8d bc 6d f6 c7 bd 42 f8 72 3d
       -0.0019441603 -0.017248482 -0.09763799 0.05931879
000060 36 c1 b9 3c 18 1e 02 3d 47 7b c6 3d a3 4f 98 3d
       0.022675138 0.03176698 0.09691482 0.074370645
000070 bc b5 cb 3d c3 ec b7 3c 24 cf f2 bd 60 8d 29 3d
       0.099467725 0.022451764 -0.11855915 0.04139459
000080 96 e8 61 be 9e a7 63 3d 35 f2 3b 3c cd 80 27 bd
       -0.2206138 0.055579774 0.011471321 -0.04089432
000090 aa bb 0c bd b3 24 ae 3d 18 16 bd be 92 c6 a5 3c
       -0.034358658 0.085030936 -0.3693092 0.020236287
0000a0 11 ce 7f bc be fb 22 3e 5c e3 36 3d e5 cc 4b bd
       -0.015613095 0.15916345 0.04465042 -0.04975595
0000b0 5c a8 16 bc 96 9f 9f be f7 61 df bd f7 21 c3 bc
       -0.009195413 -0.31176442 -0.10907357 -0.023819907
0000c0 bd 0b e7 3b eb 20 c1 bc 7c 4d 03 be 07 36 20 3e
       0.00705096 -0.023575267 -0.12822527 0.1564561
0000d0 35 b6 8b 3d 93 c0 05 bd ee 37 44 be 42 24 47 bd
       0.068218626 -0.032654356 -0.1916196 -0.048618563
0000e0 4b 2c a5 3d da 57 cc 3c d9 78 25 be f0 3c b3 bd
       0.08065089 0.024944235 -0.16159381 -0.08751857
0000f0 31 2c ec 3d 44 e5 52 3d d3 1e 31 3d 1f 63 3f 3e
       0.11531866 0.051488176 0.043242287 0.18690155
000100 57 6c f8 bd 45 8f 2f bd 4c df 7c bc 61 a5 b6 bb
       -0.12130039 -0.04286124 -0.0154340975 -0.005573914
000110 f7 92 47 bd de 88 12 3e d9 6a 40 bd d5 3f 94 bd
       -0.04872414 0.14310023 -0.046976898 -0.072387375
000120 6e 19 de 3d f5 3f ba ba 78 72 36 be 7a 16 97 3d
       0.10844694 -0.0014209735 -0.17817104 0.07377334
000130 7b 18 b1 bd 9b b0 62 3e d0 62 84 be a6 15 f0 3d
       -0.086472474 0.22137682 -0.25856638 0.11722879
000140 9e 2c 88 bd cc 55 30 3e e7 e7 e0 3c 51 eb 0e be
       -0.06649135 0.17220229 0.02745433 -0.13956954
000150 53 ce ca 3c 74 28 8b be c7 7d 5a bd ce c2 53 3e
       0.024756586 -0.271793 -0.053342607 0.20679781
000160 99 cd 9f 3d fb 88 40 bb 9c 29 56 be 68 b4 47 3d
       0.078028865 -0.0029378522 -0.2091431 0.048756033
000170 86 67 12 bc 40 9c dd bd 14 23 d4 3d a6 24 95 bc
       -0.008935815 -0.10820818 0.10358253 -0.018205952
000180 c7 18 66 3d f1 2f ce 3c ca 51 99 bd 7b 85 18 be
       0.056175973 0.025169345 -0.07486303 -0.14894669
000190 86 d1 09 3d 61 f0 7c 3d f8 86 89 3e b4 4a 29 be
       0.033647083 0.06175268 0.26860785 -0.16532403
0001a0 53 32 e8 bd 40 e1 8d 3c 30 9b 99 3c 58 46 a5 bc
       -0.113377236 0.017319322 0.018750757 -0.020175144
0001b0 1c 03 da ba 99 f1 10 3e 2f e1 94 bd b0 6e 53 bd
       -0.0016633007 0.14154662 -0.07269513 -0.05161923
0001c0 14 14 ae 3d 14 70 5c 3d 21 a1 98 3d 5f 37 c8 3c
       0.08499923 0.053817824 0.07452608 0.024440465
0001d0 4e c4 03 3e 78 49 4c bc 5e b2 9c 3d db ee 6d 3d
       0.12867853 -0.012468688 0.07651208 0.05808912
0001e0 47 c6 d3 bd 01 6d f5 3d 49 b1 b2 bb ee 8f 7b be
       -0.10340553 0.119836815 -0.005453263 -0.24566624
0001f0 45 d3 cc bc fe 18 88 bc 2f 58 bd bb f9 03 be 3d
       -0.025003085 -0.01661348 -0.0057783346 0.092781015
000200 16 41 6b 3e e8 ed 88 3e 52 e9 00 3e 2d fb 42 3e
       0.22974047 0.26744008 0.12589005 0.19041128
000210 e0 01 cc bb b3 b1 0a 3e 46 22 ef 3d e9 dd a8 3b
       -0.0062258095 0.1354435 0.11676459 0.005153407
000220 8a 87 2d bc a3 c4 29 3d b0 84 e2 3b 49 33 66 3d
       -0.010591397 0.041447293 0.0069127902 0.056201253
000230 91 3a 0a be d0 ff b0 3d 10 6a 89 3c 6d 77 31 bc
       -0.13498904 0.08642542 0.016774207 -0.010831696
000240 b9 d6 05 3d cd c4 2e 3c 92 f6 a2 bd 71 2f ea 3d
       0.03267548 0.010667038 -0.07957186 0.1143483
000250 72 92 ca bd ac a5 0f 3e 21 c5 95 bc b5 ea 65 3e
       -0.098912135 0.14028043 -0.018282475 0.22452815
000260 e8 8d 1f bc 3b e3 43 3d c9 cd ea 3c 95 46 6c 3e
       -0.009738423 0.047824126 0.02866258 0.230738
000270 ee b7 ed 3d 9b 20 d8 3d 32 df c6 3d 65 5c 79 3d
       0.116073474 0.10553094 0.0971054 0.06087913
000280 24 40 17 bc 62 63 18 bd e1 52 23 3e 19 5d cc bd
       -0.009231601 -0.037204154 0.15949585 -0.099786945
000290 66 40 20 3e d2 ce 9c bd aa f2 88 3d 25 22 4c bc
       0.15649566 -0.07656635 0.066869095 -0.012459313
0002a0 39 47 df bd 2d 2b 53 3e ad 6e 85 bc b1 13 77 bd
       -0.109022565 0.20621939 -0.016288126 -0.060321514
0002b0 9d 2b d8 3d d5 9a d0 bd 01 56 a0 3d ae 25 44 bd
       0.105551936 -0.10185782 0.07828904 -0.047887497
0002c0 45 7b be bd 9c cb 17 3e 24 16 4e 3d 5d a6 03 3e
       -0.093008555 0.14823765 0.050314084 0.12856431
0002d0 73 c8 c6 bd 75 d1 8f bd 00 b1 b0 bb 91 81 7d bc
       -0.097062014 -0.07022373 -0.005392194 -0.015472786
0002e0 fa b1 29 3d c7 c5 1a 3e 14 2d 0d be 55 9c 96 bd
       0.041429497 0.15114509 -0.13786727 -0.07354037
0002f0 8f 9f e1 bc 65 9d 9a b8 59 c4 84 bc 19 ef 4a 3e
       -0.027541904 -7.372609e-05 -0.016206907 0.19817771
000300 2d d2 b3 3d 37 79 1e 3c e0 d9 f9 bd 7e 4c d9 bc
       0.08780322 0.009672455 -0.121997595 -0.026525732
000310 f0 ab f0 be 0a cd 74 bc 6b 95 86 bd ad 27 87 3d
       -0.47006178 -0.014941463 -0.06571468 0.065993644
000320 ce f0 39 bc df d5 86 3d d6 84 c0 3d 04 a1 85 3d
       -0.011348916 0.065837614 0.094003364 0.06524852
000330 ad 6d 87 bd 5e ab 24 3e 12 8d 12 3d 0c 33 1a 3e
       -0.06612716 0.16080996 0.035779066 0.15058535
000340 4d 58 a4 bd ad 40 ec 3d c8 21 c4 bd 72 2d 7e bd
       -0.080246545 0.115357734 -0.09576756 -0.06205506
000350 5f b5 33 3e 56 51 9a 3c d6 7b b8 bd 29 f2 ee 3d
       0.17549656 0.018837612 -0.09007995 0.11667282
000360 7e 90 9a bd ac 08 1e 3e 1a fb 17 bd fd 8a 16 3d
       -0.07547091 0.15432996 -0.037104703 0.036753643
000370 45 e4 0b be 6b b2 b9 bd d3 cf 45 3d 63 b9 59 3c
       -0.13661297 -0.09067234 0.0482939 0.013288829
000380 3a 98 f0 3d 73 4d 03 bd e1 5a 96 3d 91 15 d4 3d
       0.11747785 -0.032056283 0.073415525 0.10355676
000390 6a c3 07 bd 11 24 02 3e 5c ce 2d 3e 69 63 fb bb
       -0.033145346 0.1270907 0.16973251 -0.0076717627
0003a0 6b a2 c6 3d f9 de a0 3d 18 40 fb 3d 9b 26 34 bc
       0.096989475 0.07855029 0.12268084 -0.010995532
0003b0 28 85 b1 3c 79 a6 5d 3d 29 55 dd bb 96 8d c2 3d
       0.02166994 0.05411384 -0.0067545366 0.094996616
0003c0 ec 50 dd bd a9 14 14 be c2 39 dc 3d 27 cd fb 3d
       -0.1080645 -0.14461006 0.10753204 0.12294989
0003d0 5f ce 9d 3b b7 01 f1 3d 48 cc 8e be 63 bd 96 3d
       0.004815861 0.11767905 -0.2789023 0.073603414
0003e0 09 28 c4 3c 24 41 0d 3e ee 92 1f 3e 25 a6 af bc
       0.023944872 0.1379438 0.15583393 -0.021441529
0003f0 12 70 92 bd c2 1d 4c bb 27 7a f2 bd 47 15 f3 3d
       -0.07150282 -0.0031145667 -0.11839705 0.11869293
