Homework9/9_gym-DDPG/results/DDPG_Pendulum-v1_1000-eps0.1-t32-l0.0001-sNone.pth (torch, 176234 bytes, 12 tensors)

layers.0.weight f4 [128, 4]
000000 cd cf 55 be 34 f5 c7 be 33 fb af be 23 b5 a5 bd
       -0.20880051 -0.39054263 -0.34371337 -0.0809119
000010 e2 77 e1 bd 3e 6e c2 be 87 4c 19 be d6 17 ff bd
       -0.11009194 -0.37974733 -0.14970599 -0.12455718
000020 36 ec b1 be 8b 39 02 3e 4a 98 98 3c 9c 5b 72 3e
       -0.34750527 0.12717263 0.018627305 0.23667759
000030 fc db 14 be 55 aa 05 3f 75 96 04 3e 7e 37 da 3c
       -0.14537042 0.5221303 0.1294802 0.026637789
000040 2f c4 84 be 3a b2 0a bf 38 9a 1b 3f 53 f3 ea 3c
       -0.25930926 -0.541782 0.60782194 0.02868048
000050 6f f0 7e be c6 da de 3c 61 d6 66 3e 2a ff ae 3e
       -0.24896406 0.027203929 0.22542717 0.3417905
000060 50 32 e4 be bd 6f d4 bd 30 1b 8c 3e bd cc de 3c
       -0.44569635 -0.10372875 0.27364492 0.027197236
000070 9e a5 16 3f 96 60 a7 3e 42 d8 a8 3e 54 6b ba bd
       0.5884646 0.32690877 0.32977492 -0.091025025
000080 6a 0e 63 3e 76 ad 10 bf b0 c6 ce bc 93 82 84 be
       0.22173467 -0.5651468 -0.025241226 -0.2588087
000090 8b 1c ef 3e a3 5c 94 be 6d df a1 3e ec b2 a6 3c
       0.46701464 -0.28976926 0.31615773 0.020348988
0000a0 22 a6 92 be f4 a4 06 bf 37 58 59 bb e0 cb e8 3d
       -0.28642374 -0.5259545 -0.0033164152 0.11367011
0000b0 c6 a5 19 3e 58 f1 c8 3e 9b 53 c8 bc 9c 30 8a bd
       0.15004644 0.3924663 -0.024453929 -0.06747553
0000c0 71 37 b9 3e 48 a3 0f 3f 07 61 d5 bd c0 99 3a 3e
       0.3617511 0.5610852 -0.10418897 0.18222713
0000d0 ee 3d 02 3f 2c 9c 42 3e 4c fe 84 bc 38 09 c6 3e
       0.5087575 0.19004887 -0.01623454 0.38678908
0000e0 57 3e bd bb 09 0b 57 3f 34 9c e5 3d 35 be 47 3d
       -0.0057752538 0.84001213 0.11211434 0.04876538
0000f0 b3 c1 f0 3e a7 98 31 be de 62 cc be 02 6c 9c be
       0.4702278 -0.17343388 -0.3991918 -0.30551153
000100 da 54 32 bf 77 84 1c 3f 6a 38 47 3e 40 f2 93 bc
       -0.69660723 0.61139625 0.19455114 -0.01805985
000110 e4 24 43 be 5b 03 29 bd 3a a6 78 3e ec c2 09 3f
       -0.19057041 -0.041262966 0.2428216 0.5381305
000120 cd fe 9d be 6f 63 d6 bd 15 68 7d 3c f7 94 11 bd
       -0.3085846 -0.10468184 0.01546671 -0.035542455
000130 06 b3 c3 3d 61 96 36 bf f5 ac e8 3d 09 79 9c be
       0.095556304 -0.7132321 0.11361114 -0.30561092
000140 7e 4f d2 bd 9e d1 f3 bd ff 2a cd 3c 5c c1 8b bd
       -0.10269068 -0.11905216 0.025044916 -0.0682399
000150 26 89 b6 3e 12 c5 c7 3e 3e 10 64 bc 8a 60 3c be
       0.3565151 0.3901754 -0.013919888 -0.18396202
000160 af 88 d2 3e 8c 4c b5 3d 7a 0b f4 3a 1b bc fe bd
       0.41119906 0.08852491 0.0018619143 -0.12438222
000170 16 43 ef 3e 3b 1b 16 3f ec 31 88 3d 95 9d c9 bd
       0.4673087 0.586353 0.06650147 -0.098445095
000180 bd 62 13 bf 8c 86 8e bd b2 af 50 be 92 d0 af 3d
       -0.5757254 -0.069592565 -0.20379522 0.085847035
000190 03 dc b2 be 8d 7a d7 3e 0f 60 42 3e 7a 40 03 be
       -0.3493348 0.42085686 0.18981956 -0.12817565
0001a0 37 77 ad 3d 45 c6 f6 be 62 b5 8d 3d be e5 15 be
       0.08470004 -0.48198143 0.06919362 -0.14638421
0001b0 f6 09 d0 3e ee 8d b5 be 11 16 70 bc 92 ef 0e 3e
       0.406326 -0.35459846 -0.014653699 0.13958576
0001c0 ba df 93 3e f3 55 ec bd 0d 15 9a 3e 17 40 d6 bd
       0.28881627 -0.11539831 0.30094185 -0.10461443
0001d0 91 3d 84 be 31 55 9d 3d 26 ea e4 3e d0 e6 96 bd
       -0.2582822 0.076822646 0.4470989 -0.07368243
0001e0 51 c2 f8 3d 5a f5 bd be a4 fe 95 3e a9 8c 86 3e
       0.12146438 -0.3710125 0.29295838 0.2627919
0001f0 38 6a 06 3f 21 90 c3 3e 2e aa e8 be 92 8a f1 3c
       0.52505827 0.381959 -0.45442337 0.02948502
000200 09 08 c8 be ce 74 b7 be 80 2c 61 3e fc c4 f1 3e
       -0.3906863 -0.35831302 0.21989632 0.472206
000210 49 56 a6 3e f1 69 49 3e 0f 11 c3 3e 44 1c 5e be
       0.32487705 0.1966932 0.38098952 -0.2169047
000220 9e 18 b3 be 01 2f 85 be c3 dc 44 be d6 0f 8f bd
       -0.3497972 -0.26012424 -0.19224839 -0.06985442
000230 67 5e a5 3d ad fe 89 be 70 f5 ce 3e 70 dd a2 bd
       0.080746464 -0.26952115 0.4042163 -0.07952392
000240 50 a3 98 3e 73 b0 ac 3e 19 9b 65 3e 7f f5 ce be
       0.29812098 0.3372837 0.22422446 -0.40421674
000250 72 17 00 bf 22 97 3b 3e 67 ba 95 be 32 4c e7 be
       -0.50035775 0.18319371 -0.29243776 -0.4517532
000260 79 1b 88 3e 9f 40 b0 be 8c 27 0b 3c 03 a2 8e 3d
       0.2658346 -0.34424302 0.008493315 0.06964495
000270 50 c3 30 3c 12 5e 1d bf ec 4e 9f 3b 25 5d 9b bc
       0.010788754 -0.61471665 0.004861703 -0.018965313
000280 22 b9 98 be ae c0 c2 bd 4f 48 d8 be d0 cf 92 3e
       -0.29828745 -0.09509407 -0.42242667 0.28674173
000290 80 2b 73 3e 88 fe 00 3f 05 00 75 be 50 e5 a2 bd
       0.23747063 0.50388384 -0.23925789 -0.07953894
0002a0 2c 92 f3 be 30 2c 9d 3d 18 8f 90 be 66 3d a8 3e
       -0.47572458 0.07674444 -0.28234172 0.32859343
0002b0 f7 01 9d bd 92 d8 25 bf a1 94 c4 bc ad 6e 69 be
       -0.076663904 -0.64783585 -0.023996653 -0.22796126
0002c0 0c 8b 99 3e 76 e5 6a be 40 af a1 be ca 92 14 3e
       0.29988897 -0.22939095 -0.31579018 0.1450912
0002d0 8d bf 7a 3e e1 1c 88 be f5 ca 08 bd 45 75 17 3e
       0.24487133 -0.26584533 -0.03339668 0.14790829
0002e0 b7 fe e4 3e 5b 4e e5 bd 79 cc 64 be df 88 0e be
       0.44725582 -0.11196586 -0.22343625 -0.139194
0002f0 7b 40 59 3e 67 c2 d7 3e 26 39 4e bd da 02 9a 3e
       0.21216004 0.42140505 -0.05034747 0.300803
000300 3c 21 50 3d dd 69 d4 bb 66 51 cd 3e f9 57 d0 3e
       0.050812945 -0.0064823464 0.40101165 0.40692118
000310 27 7d 69 3e 89 33 23 3f a2 f5 31 3d 1c fa c5 be
       0.22801648 0.6375051 0.043447144 -0.3866738
000320 51 5f a6 bb 6c 23 37 3f 3b ec b9 3e ce 32 c5 be
       -0.0050772806 0.71538424 0.36313042 -0.38515323
000330 b1 b9 3c be 91 64 9b be cb 16 0a bf d4 a2 9d be
       -0.1843021 -0.30350164 -0.5394103 -0.3078829
000340 de e7 d5 3e 1e e6 16 bf 79 1f b5 be 6d 42 b7 3e
       0.41778463 -0.5894488 -0.35375574 0.35792866
000350 7c 4a 60 be 78 fc 1b be 76 3e 82 3e 97 08 ac be
       -0.21903414 -0.15233028 0.2543828 -0.33600304
000360 f5 5c af 3e c7 f8 0a 3f 31 16 dd 3e bd 32 6a 3d
       0.34250608 0.54285854 0.43180993 0.057177294
000370 05 a0 df 3e de df 09 3e 93 a9 84 be f0 4f f5 bd
       0.43676773 0.13464305 -0.25910625 -0.119781375
000380 e2 38 0c bf 2f 46 06 3f c3 36 ee 3e 15 cc 72 bd
       -0.54774296 0.5245084 0.46526155 -0.05927666
000390 44 50 82 3e 1f 20 8b 3d 93 ae 00 bf 64 ab 60 bc
       0.25451863 0.06793236 -0.5026638 -0.013712738
0003a0 0d 2b 61 3a 49 4a 1e bf ea 16 1e be bd 7a bf bd
       0.0008589484 -0.618321 -0.15438429 -0.09349582
0003b0 6f 0e 03 3e 89 5f 91 3e 6b f6 38 3e 7e 38 08 3d
       0.12798475 0.283932 0.18062751 0.033257
0003c0 21 f4 95 bd df 68 e1 3e 41 65 84 be c7 26 7a be
       -0.073219545 0.44025323 -0.258585 -0.24428855
0003d0 8b 5e ec be 19 e8 61 3e 06 4d c2 3e 07 3e 87 3e
       -0.4616588 0.22061194 0.3794939 0.2641451
0003e0 e3 73 07 3d 69 06 13 3d c9 0b 19 be 9c ef ed bd
       0.033069503 0.035894785 -0.14945902 -0.116179675
0003f0 25 e7 dc be e9 5d 6a be 54 3e 90 be 41 04 97 be
       -0.431451 -0.22887386 -0.28172553 -0.29495433

layers.0.bias f4 [128]
000000 67 9a c5 bd da e3 15 3f 4d 22 fc 3e e1 99 b1 3e
       -0.096485905 0.585508 0.4924492 0.34687713
000010 79 7a c0 be a1 e1 08 bf 5e aa 01 3f 36 35 a2 3e
       -0.3759344 -0.5346928 0.50650585 0.31681222
000020 e6 67 81 3e 73 62 fa 3e 62 08 02 bf 7c 75 17 bf
       0.2527458 0.48903236 -0.5079404 -0.5916364
000030 49 3b be 3c 72 fa 4c be ed 64 12 be 49 6a b7 3e
       0.023221629 -0.20017412 -0.14296313 0.35823277
000040 76 8b 36 3f 7d 6d 59 3e e3 c2 66 3e f0 20 93 be
       0.7130655 0.21233173 0.22535281 -0.28736067
000050 6f 20 a7 3e fc 3c 13 be d7 9c 81 be 9b 7d af bd
       0.32641932 -0.14378732 -0.25314972 -0.08568879
000060 23 db 2f 3f 98 62 f3 3e 49 34 a4 3e 90 f0 d1 bc
       0.6869375 0.4753616 0.3207114 -0.025627404
000070 32 d4 9a 3e 5a d3 84 be 58 c3 82 3e 38 a5 ed 3e
       0.30240017 -0.25942498 0.2553966 0.46415114
000080 d0 1a 97 3e 51 2c b8 3d a9 e3 0e bf 34 37 da be
       0.29512644 0.08992828 -0.5581613 -0.42620242
000090 5a a3 62 3c 21 a4 cf be 91 a9 1a bf 1b 06 58 be
       0.013832891 -0.40554908 -0.6041499 -0.21096079
0000a0 b6 3a ae bd 4c a7 f2 3e f7 62 d3 be d7 ed 00 bf
       -0.08507292 0.47393262 -0.41286442 -0.50362915
0000b0 82 56 05 3e 12 ed 1f 3f 64 dd 12 3f 5b fa 05 bf
       0.13021281 0.62471116 0.57369065 -0.5233514
0000c0 1d 0f 2a be 7d f1 f8 3e 2f 1e dc 3e 65 cc 10 3e
       -0.16607328 0.4862174 0.42991778 0.1414047
0000d0 b7 bd b3 3e 16 0c 1b bf c2 5a 6d bd 53 37 ff be
       0.35105678 -0.60565317 -0.05794788 -0.49846897
0000e0 fd e4 80 3e 72 43 89 3d 07 c8 c5 be 4b c2 01 3f
       0.25174704 0.06702317 -0.3862917 0.5068709
0000f0 6a 89 dd 3c 8c fa a6 be d6 a2 00 bf c0 61 ec be
       0.027043063 -0.32613027 -0.5024847 -0.46168327
000100 26 8d eb 3e d9 81 24 3e e5 eb 06 bf bd 2f c6 3e
       0.46006125 0.16065158 -0.52703696 0.38708296
000110 47 cf c2 be 89 b0 09 be 61 82 84 3e fe 64 0f 3f
       -0.38048765 -0.13446249 0.2588072 0.56013477
000120 ae 9b e3 3e fc 8d 6f be c3 78 74 be 69 b8 a8 bd
       0.44454712 -0.23394006 -0.23874192 -0.082382984
000130 39 00 ab 3e da 89 af 3d f6 2b ca 3e b3 5a f9 3e
       0.33398607 0.08571215 0.39486665 0.4870201
000140 7d 1a 05 bf 37 cc a0 be bd 60 35 3c 0e 7d 7c 3e
       -0.5199354 -0.31405804 0.0110704275 0.2465708
000150 2b b9 0a 3e c4 d6 59 bd 3a 5d f3 3e 67 78 af be
       0.13547198 -0.053183332 0.47532064 -0.34271547
000160 04 1f fa be fb 65 96 be 4a bb 8e 3e 0f 49 0e be
       -0.48851788 -0.2937468 0.27877265 -0.13895057
000170 40 33 d2 3e f8 c7 5c 3d 5e 76 2f bf f7 4c e0 be
       0.41054726 0.053901643 -0.6853999 -0.4380872
000180 af bf 99 be bc 13 2f be fc b2 40 be d4 9f b5 be
       -0.30029055 -0.17097372 -0.18818277 -0.35473502
000190 65 fa 7a 3e f4 67 d5 3e 0f e6 41 3c 50 f4 e2 3e
       0.2450958 0.41680872 0.011834635 0.4432702
0001a0 56 ad 63 3e 71 a9 ee be be 99 a0 3e 15 06 dd be
       0.22234091 -0.4661365 0.31367296 -0.43168703
0001b0 2d f5 d1 3e 2d 82 9f be 23 c5 0f bf 32 fc e2 be
       0.41007367 -0.31154004 -0.5616018 -0.44333035
0001c0 e4 b5 4c 3d 69 9e e8 3e 52 c8 05 3f 1c e5 ba 3e
       0.049978152 0.45433357 0.5225879 0.36502922
0001d0 7e 33 46 be 05 4c 76 3e ea fc da 3d 27 8f f2 3d
       -0.1935558 0.24052437 0.10692771 0.118437104
0001e0 17 4f da 3c 8a d6 b0 3e 8f 6a a6 be 39 e8 b5 3e
       0.026649041 0.3453868 -0.32503173 0.35528734
0001f0 25 38 28 be 43 6c 97 3e ce c4 cc 3e fd 14 9a 3e
       -0.16427667 0.29574785 0.399939 0.30094138

layers.1.weight f4 [128, 128]
000000 e7 66 e1 bc 8f a7 b4 3d e9 82 9e bb 7a 6e fc 3c
       -0.027514888 0.08821022 -0.004837383 0.030814398
000010 63 af 87 3c 70 a0 51 3d 45 06 dc bb b2 e4 be 3d
       0.016563123 0.051178396 -0.0067146146 0.09320964
000020 24 dd be bb 8d 1b 33 bd 8d dd 78 3c db a4 54 bc
       -0.005824702 -0.043727446 0.015189541 -0.012978758
000030 08 0d 04 3e ad 81 6e 3d be a7 67 3d f6 b1 1a 3c
       0.12895596 0.058229137 0.056556456 0.009441843
000040 12 b0 c3 3d d6 cd 71 3b e3 89 30 be 4f 5e 4b 3d
       0.09555067 0.003689637 -0.172401 0.049650487
000050 0b 76 d1 bd 2a b3 94 3c b4 49 e3 3d 0c 7f 7e 3c
       -0.10227593 0.018151838 0.11098042 0.01553322
000060 2b d9 a0 3d 9c d0 16 bd 13 5e bb bd fa 9e 7f 3d
       0.078539215 -0.03682004 -0.091488026 0.06240747
000070 22 89 a0 3c 6c 78 30 3d 41 55 3e bd 37 da f9 3d
       0.01959664 0.043083593 -0.046468023 0.12199824
000080 55 ca 22 3c 82 64 80 bc c0 46 0f bd a9 d2 9d bd
       0.009935935 -0.015672926 -0.03497958 -0.07706196
000090 b1 31 62 3d 8e a1 17 3d 89 48 31 3e 7c ad 14 3e
       0.05522317 0.037019305 0.17312826 0.14519304
0000a0 17 49 04 bd 57 62 7f 3d 49 f8 c2 bd 06 c8 26 3d
       -0.032296266 0.062349644 -0.09520013 0.0407181
0000b0 e7 79 4b 3d 50 9d ad 3b 21 75 34 3d 29 9e 02 3d
       0.049676802 0.005298294 0.044057015 0.031889115
0000c0 a3 31 69 3d b8 e3 f3 bb a9 16 b1 bc 32 fe a7 bc
       0.056932103 -0.0074429177 -0.02161725 -0.020506952
0000d0 e7 75 cf 3d 9b 9a e0 bb ef 8d d8 3c a6 05 55 b8
       0.1012991 -0.006854368 0.026434867 -5.0788418e-05
0000e0 98 29 78 3c cc 6c b2 3d 6a 5e 34 3c 12 07 b4 3c
       0.0151466355 0.087121576 0.011008838 0.021976028
0000f0 ed f9 b6 3c 67 9a df 3c 75 5d 18 3d 65 a4 ee bd
       0.02233597 0.027295304 0.037198503 -0.116524495
000100 7e 9a 8b bc b0 3b 49 3d 66 d1 ff 3d dc 9f 8f 3d
       -0.017041441 0.049129188 0.124911115 0.07012913
000110 7f 7c 21 3d 19 a9 ff bd 52 dd 04 be 6d 67 fb 3c
       0.03942537 -0.12483425 -0.12975052 0.030688966
000120 73 3c 86 3c cc 29 f7 3d 9a fe 68 3d 36 ee 34 bb
       0.016386246 0.12068519 0.056883432 -0.0027607805
000130 7c b6 a6 bd 20 3a f4 3c e2 88 f7 bd e7 d2 6e 3c
       -0.08140275 0.029812872 -0.12086655 0.01457665
000140 9e c7 a0 3d d8 be 26 3e c5 76 67 3d e2 4e 6a bd
       0.07850574 0.16283739 0.05650975 -0.057204135
000150 2e 47 b1 bd d7 90 01 bd d6 e1 d0 3c 38 d4 df 3d
       -0.086561546 -0.03163227 0.025498312 0.109291494
000160 db 75 cc 3d 6b 32 c5 3b 48 b2 c3 bc cd 42 81 bc
       0.09983417 0.006017973 -0.023888722 -0.015778923
000170 97 1b 0f bd 2b bf 1a bd bf 60 dd bb e0 7b d7 3b
       -0.03493842 -0.03777997 -0.006755918 0.0065760463
000180 3c b9 de 3d 73 1d 9b 3d 3e 30 87 3d 4b 43 e3 3c
       0.108751744 0.07573976 0.06600998 0.027742049
000190 c0 7b b4 3a 62 1f ca bd 44 8f e4 bd f4 bc ee 3d
       0.001376979 -0.09869267 -0.11160138 0.11657134
0001a0 c4 4a d0 bb cb 73 c7 3d af 12 cb bc 5f c7 05 bd
       -0.006356569 0.09738883 -0.024789182 -0.03266084
0001b0 ce 9e 19 3d 78 4d cd bd f5 ce 1b 3c 43 6f 9a 3d
       0.037504964 -0.100245416 0.009509792 0.07540753
0001c0 20 7c 82 3c bd 8b d6 bc 8c cb 9c bc da e9 bc 3d
       0.015928328 -0.02618968 -0.019140027 0.09224291
0001d0 80 52 1b 3d 65 72 d5 3c d2 0e 83 bc 28 57 89 bd
       0.037920475 0.026055524 -0.015998278 -0.06706077
0001e0 d6 9b 30 3d 2e fd fa bd f7 fb 62 3d ac 41 cf bc
       0.043117367 -0.122553214 0.055416074 -0.02529987
0001f0 66 01 54 bd 14 53 19 3b a0 4f ec 3d d0 61 98 3d
       -0.051759146 0.0023395466 0.11538625 0.07440531
000200 2d ed 09 3c 66 c9 95 bd fe d8 8d bd 92 78 17 3c
       0.0084183635 -0.07313804 -0.069261536 0.009245055
000210 81 c6 8b 3d 83 8f f3 b9 23 11 ba bd a5 db d5 bd
       0.06824971 -0.00046455496 -0.090853 -0.104422845
000220 9c 2b 1f be e2 ca bd bd 11 ad 37 3e 1d 16 68 3d
       -0.1554398 -0.092672125 0.17937113 0.056661714
000230 ce 0a a1 3b 5a f6 62 3e 90 f0 f2 3c ed 14 49 3d
       0.004914618 0.22164288 0.029655725 0.049092222
000240 e9 95 47 3c 28 90 23 bc 1f 1b 91 3d e8 a9 c5 bc
       0.012181737 -0.0099831 0.07085251 -0.02412887
000250 b5 d0 33 be 44 61 c3 bd b5 df 2f bd 26 36 79 3b
       -0.17560084 -0.09540036 -0.042937953 0.003802666
000260 91 ed 3a bc 93 7b 61 3d 68 94 45 be 8d 42 ce ba
       -0.011409179 0.05504949 -0.19294894 -0.0015736386
000270 b5 74 f1 3c 5a df 18 bd 48 a2 d7 bc 15 0c 9e 3d
       0.029474596 -0.03732238 -0.026322499 0.07717148
000280 43 72 02 bd e8 a2 87 bd 6f 0a ae bc 27 f4 5b bd
       -0.03184725 -0.06622869 -0.02124521 -0.05369964
000290 72 b8 25 bd dd f1 00 3d 00 4c 83 3d 75 2a bd bd
       -0.040459104 0.03148066 0.0641098 -0.09236614
0002a0 58 68 03 3e 4c 0a 52 bc 8c 39 fd 3d c3 0c 53 3d
       0.12832773 -0.012819838 0.12364492 0.051525842
0002b0 2c b5 64 3d e4 8a 32 be 2f b0 57 bd eb 00 25 3e
       0.05583684 -0.17435795 -0.052658256 0.16113631
0002c0 8f 2d 0a bd 39 13 46 be da 59 d6 bd 6c 2b 73 3d
       -0.033734854 -0.1934327 -0.104663566 0.059367582
0002d0 15 7a a6 3d e2 37 e6 3d 7e 8e 19 be 82 4c 2b 3d
       0.08128754 0.112411276 -0.14995763 0.04182101
0002e0 0d 85 bc bc 65 fa 61 3d 6d 24 f8 bc db e0 39 bd
       -0.023012662 0.055170435 -0.030290807 -0.045380455
0002f0 8f dc 86 bd 96 a1 93 3d 0c 1d 8b 3d 1a 77 9f bd
       -0.06585037 0.072085544 0.067926496 -0.07786389
000300 af ba 06 3d 17 4c 5e 3d 26 20 0d 3e 3f 3e 13 3d
       0.03289288 0.054271784 0.13781795 0.035948034
000310 60 d2 ee 3c 41 0a b7 3c f6 83 5c bc ca 9b 23 bc
       0.029153049 0.022343757 -0.013459196 -0.0099858735
000320 ea 2a de bd eb 95 b8 3c 83 f9 93 3b c5 dc 05 be
       -0.10848029 0.022532424 0.004515828 -0.13072498
000330 9f b4 9d bc 8c dd 8a bc 14 ce 0f be 12 20 14 be
       -0.019251166 -0.016951345 -0.14043456 -0.14465359
000340 95 9f b2 3d e4 0e d6 bd ee 65 8a bd 6a 27 0a 3e
       0.08721844 -0.10452059 -0.06757723 0.13491598
000350 21 89 02 bd 76 26 9e 3d 95 42 a5 bd 16 c3 1d bd
       -0.031869058 0.077221796 -0.0806934 -0.038516127
000360 ca 04 89 3d 44 1e 87 bd 46 f7 aa 3b ef 97 5a bd
       0.066903666 -0.065975696 0.0052174656 -0.05336755
000370 21 cd 1c bc 33 96 1b bc 7b ea cb 3d c7 5d 0c 3e
       -0.009570391 -0.0094962595 0.09956833 0.13707648
000380 0d b1 5e bd 02 9d fe 3d 76 39 18 3e b0 76 e0 3d
       -0.054368068 0.124322906 0.1486567 0.10960138
000390 0a 90 42 3c 20 15 8e bc 24 6f 7b bd 01 ce d9 bd
       0.011875162 -0.017344058 -0.06138529 -0.10634995
0003a0 2a 85 97 bd bd 14 19 3e d4 1b 7d 3d 01 bf 25 bc
       -0.07398446 0.14949317 0.061794117 -0.01011634
0003b0 b4 65 22 3d 18 88 8a ba 0e c8 e7 3d 21 f1 c5 bc
       0.039647773 -0.0010569124 0.11317454 -0.02416283
0003c0 c9 37 c3 bd 68 14 e1 bd b2 d9 cb bd a5 53 7a bd
       -0.095321245 -0.1099022 -0.099536315 -0.061114926
0003d0 ec 59 44 bd e6 0e ed bc 2b f3 a1 3c 5f e3 ee 3d
       -0.04793732 -0.028937768 0.019769272 0.11664461
0003e0 7b d1 c7 bc 9b 6d c5 bc 25 26 d3 3c 5a 1d 1e 3d
       -0.02439188 -0.024100116 0.025775025 0.03860221
0003f0 d7 7b eb 3c 99 98 fe bc 16 ef 2f bd 9b 6f ad bd
       0.028745575 -0.031078624 -0.04295262 -0.08468553

layers.1.bias f4 [128]
000000 30 3e 22 be 94 43 12 be ca 46 90 bd 67 9b c0 bd
       -0.15844035 -0.14283592 -0.07044752 -0.09404641
000010 f0 51 bf bd 1a 00 9b bd 53 ec 26 bd 35 38 1f bd
       -0.093418 -0.07568379 -0.04075272 -0.038871963
000020 3f 7e 4a bc 76 7b 1a 3d 14 87 ee bc 0f 40 1d 3e
       -0.012359201 0.037715398 -0.029117145 0.15356468
000030 11 1d 0a be c3 c1 fc 3d c7 4b 8b 3d 71 d6 5c be
       -0.1348765 0.123416446 0.06801563 -0.21566178
000040 d9 a8 ee bd 0d ab 12 3e 66 61 2c bd 20 f0 5a 3d
       -0.11653299 0.14323063 -0.042085074 0.053451657
000050 03 42 17 be c8 82 f9 39 cd 81 f7 bd aa 69 82 3d
       -0.14771275 0.0004759042 -0.120853044 0.0636781
000060 31 dc ef 3d 4f ec 0d be af 34 d9 3d 38 ab 4d 3d
       0.1171192 -0.13859676 0.10605752 0.050212115
000070 b1 7c 2c be cb 5f 05 3d 10 e5 52 3e d4 1a a6 3d
       -0.16844441 0.03256206 0.20595193 0.08110586
000080 bc e0 d6 3b 09 77 d4 3d 04 25 87 3d b6 cd 96 bc
       0.006557552 0.10374267 0.06598857 -0.018408637
000090 d3 7b 0d be 48 07 e9 3c 08 a1 b2 bd 3e 0c 16 3d
       -0.13816766 0.028445855 -0.087221205 0.03663277
0000a0 74 43 11 be 26 0a 09 be ff 39 06 3e ed 91 ee bc
       -0.14185888 -0.13382778 0.13108061 -0.029122317
0000b0 51 85 fe 3d 73 1c a2 3d 56 35 78 bd 20 d9 2c 3e
       0.12427772 0.079155825 -0.06059774 0.16879702
0000c0 1d 20 20 3e 81 5d 94 3d 84 74 aa 3d 5c f3 98 bc
       0.1563725 0.07244397 0.08323005 -0.01867073
0000d0 ee 55 5b bd ce ee 50 3d 2d 2a 06 be 8d 34 ea bc
       -0.053548746 0.051008992 -0.13102026 -0.028589511
0000e0 bb 26 ff 3d e2 6a 37 3e a1 7d cf 3d 61 5a d2 3d
       0.12458559 0.17911866 0.10131384 0.10271145
0000f0 f2 15 36 bb 22 42 2f 3d cb f1 b9 3d b4 c1 ab 3d
       -0.0027784077 0.04278768 0.090793215 0.08386555
000100 fd c7 02 3e 0b a9 68 bd 32 ad b2 bd 36 38 2a 3e
       0.12771602 -0.056801837 -0.08724441 0.16623005
000110 12 17 b2 bd 2c aa 50 bd 14 b5 0b 3e 55 b3 c7 3a
       -0.086958066 -0.05094354 0.13643295 0.001523594
000120 8f 79 f1 3c e4 70 4f bd 5c cf 2f bd 14 9f 77 3d
       0.029476909 -0.05064477 -0.042922363 0.060454443
000130 61 b6 1b 3e a5 74 10 bc e3 fc 06 3e ea 76 a0 3d
       0.15206291 -0.008816873 0.13182406 0.07835181
000140 90 78 13 be d9 98 38 be 5b 7d 0f be 29 9d da bd
       -0.1440146 -0.18027057 -0.14012663 -0.10674507
000150 5a 2b eb bc d7 3c 14 3e 31 41 3e 3e b2 f8 ad bd
       -0.028707195 0.14476334 0.18579556 -0.084947005
000160 f0 54 af 3d 0e 05 db bb 2c 78 f3 3d 9b c8 07 3e
       0.085611224 -0.006683952 0.11888155 0.13260119
000170 bb 6e 9c 3d 8c fa 69 3d 49 8a 90 bc d9 5a cb bd
       0.07638308 0.057123706 -0.017644065 -0.09929437
000180 c9 c4 86 3b a9 31 8d 3c 64 bf 9f bd e2 91 41 be
       0.004112814 0.017235594 -0.07800177 -0.18903306
000190 aa 41 ae 3c 23 8e db bc 14 3e c9 3d 31 11 a2 bd
       0.021271545 -0.026801175 0.098262936 -0.07913435
0001a0 f4 bf 6d 3d d3 5b a6 3d e0 f3 1e 3e 84 b8 da 3c
       0.05804439 0.08122983 0.15522718 0.026699312
0001b0 a0 41 1b bd f6 9c c7 3d 72 5b e9 3d e8 b8 22 3e
       -0.03790438 0.09746735 0.11394395 0.15890849
0001c0 17 44 96 bd 97 83 03 3d 2a a7 cb bd bd 30 52 3d
       -0.07337206 0.032107916 -0.099439934 0.05131601
0001d0 cf aa 97 bd 04 dc 09 be 53 ba bb 3c e5 2f d6 3d
       -0.07405626 -0.13462836 0.022915995 0.10458354
0001e0 89 a7 66 3d 26 a7 00 3e 5b bb 06 3e 4d d5 14 be
       0.056312118 0.12563762 0.13157408 -0.14534493
0001f0 a7 ac db bd 74 94 7c 3b 1a b8 39 be af 53 7d bd
       -0.1072629 0.0038540633 -0.18136635 -0.061847385

layers.2.weight f4 [64, 128]
000000 59 19 d8 bd 67 f2 e7 bb 3e 41 0d bc 79 11 b0 bc
       -0.1055171 -0.007078457 -0.008621512 -0.021492707
000010 05 5f b9 bd 85 d7 6a bd af 47 c8 3d 53 4c 13 be
       -0.09051327 -0.05733444 0.097792976 -0.14384584
000020 75 5c c2 bd 67 1a 96 3c e4 48 fc bd 47 9a bd bc
       -0.09490291 0.018323136 -0.1231859 -0.023144854
000030 a9 6a 25 bd 37 5b 58 bd 1a 05 ec 3d ee 0e f2 bd
       -0.040384922 -0.052821364 0.115244105 -0.11819254
000040 e8 f0 18 be 29 86 ed 3d e8 63 45 3d 8a 57 93 ba
       -0.14935648 0.11597855 0.04819098 -0.0011241299
000050 14 b8 7f bd d8 b4 fb 3c 5d c9 ec bd 7d d9 32 3d
       -0.06243141 0.030725881 -0.115618445 0.043664444
000060 70 cc ae 3d 8f a6 31 bc 17 83 9e 3c 96 6c 85 3d
       0.08535087 -0.010842933 0.019349618 0.06514852
000070 9c f4 3a 3c 4f 3c e2 3d e5 f1 de 3d b8 9c 31 3d
       0.0114108585 0.11046659 0.108859815 0.04336235
000080 6e ed ca bd 23 e1 88 3d e8 5e fe 3d 5e 95 4b bd
       -0.09908567 0.066835664 0.12420446 -0.049702995
000090 77 66 1b be ab e9 e4 3c d1 38 e7 bd e6 6c 0f 3e
       -0.15175806 0.027943453 -0.11290134 0.14006385
0000a0 db e2 5e bd b3 3f 8b 3c 70 ce 11 3d f5 0f e0 bd
       -0.054415565 0.016998148 0.035597265 -0.109405436
0000b0 e5 b5 0b 3e 04 11 10 3e a6 2b ac bb d8 48 0a 3e
       0.13643606 0.14068991 -0.0052542267 0.1350435
0000c0 6f 1c 89 3c 60 65 d7 bc 9e 60 e6 3c c8 e3 0f bb
       0.016737191 -0.026293457 0.028122243 -0.0021955837
0000d0 d9 ba bf bd 05 cf 6e bc 71 c7 c0 bd cd f0 19 bd
       -0.0936181 -0.0145757245 -0.094130404 -0.03758316
0000e0 d0 58 5e 3d f6 c6 72 3d a7 c4 b0 3d ae 4d 49 3d
       0.054283917 0.059271775 0.086312585 0.049146347
0000f0 70 54 c6 bd 4f 52 40 3c 35 b3 39 bc 91 53 f7 3d
       -0.09684074 0.011738374 -0.01133423 0.12076486
000100 35 a5 f7 3d 61 89 ea 3d 1c b7 7a bd 7c d8 de 3d
       0.120920576 0.11451984 -0.061209783 0.10881135
000110 42 e2 fc 3b fb e0 8a bd bf 7b 94 3d 4e e0 06 be
       0.0077174017 -0.06781193 0.07250165 -0.13171503
000120 5e e3 1c 3c 06 dd 02 be 56 91 ce 3c 63 80 1a 3d
       0.009575693 -0.12779626 0.025215786 0.037720095
000130 c8 a5 ef 3d dd 2b e1 3c 6e 85 01 3e 11 e0 a4 3d
       0.11701542 0.027486736 0.12648556 0.0805055
000140 94 f9 9d bd 90 41 f1 bc 9c 12 3e be cf 82 24 be
       -0.07713619 -0.029450208 -0.18561786 -0.16065525
000150 48 85 e5 bd 15 8b 09 3e 0c 80 97 3d c4 13 13 be
       -0.11207062 0.13431962 0.0739747 -0.14363009
000160 19 0c 30 3d 1e 3c a3 3d 89 01 de 3d 01 3e 2e 3e
       0.042980287 0.07970451 0.108401366 0.1701584
000170 be ec 7c 3d 03 64 cd bd 9a 97 0c be 1b d8 8f bd
       0.061749212 -0.10028841 -0.13729706 -0.07023641
000180 ae 38 26 3e b2 f0 08 3d 44 f7 de bc 2d 45 fe bd
       0.16232559 0.03343267 -0.027217515 -0.12415538
000190 14 34 e0 3d b6 4b d4 bd f9 a9 d4 3d a6 2b 2a bd
       0.10947433 -0.10366003 0.10383982 -0.041545533
0001a0 b7 b8 86 3c bd f5 74 3d bb ee 37 3c 2f 8c 81 3c
       0.0164455 0.059804667 0.011226351 0.015813915
0001b0 9b 45 8f 3b 2a a9 14 bc 40 86 00 bc c2 fc 65 3d
       0.0043723113 -0.009073535 -0.007844508 0.05614925
0001c0 79 ae af bd 66 17 e4 3c da 0b 39 be 97 0f 4b 3e
       -0.085782 0.027843188 -0.18070927 0.19830166
0001d0 76 98 0e be 3b 7e 24 bd 6a 6d f1 3c 86 64 a0 3d
       -0.13925347 -0.040159445 0.029471118 0.07831673
0001e0 52 55 9d 3d df 00 0a 3e 60 ea 71 3c fe cc 15 bd
       0.07682289 0.13476895 0.014765352 -0.03657245
0001f0 0e 8c 1c be bc b3 f5 bd 8c 24 25 bd 18 74 f2 bd
       -0.15287802 -0.11997172 -0.040318057 -0.118385494
000200 03 32 31 bd 16 47 cc bd f3 d3 15 bd 1b ec 5a bc
       -0.043260586 -0.09974496 -0.036579084 -0.013361956
000210 a0 51 c6 bd 99 83 a4 3c 39 bb a7 bc 3e 4c cc 3a
       -0.096835375 0.020082282 -0.020475017 0.0015586687
000220 0a 28 ed 3c 37 e5 ae 3d eb dd 0a bd df 6c e0 3d
       0.028949756 0.08539813 -0.033903044 0.109582655
000230 77 52 a8 bd e8 d7 86 bd 72 8b 02 3d 1a 8f 13 be
       -0.08218854 -0.065841496 0.031871267 -0.14410058
000240 e6 f8 e9 bd d5 22 bd 3d df f3 1c bd cc 73 da 3d
       -0.11424427 0.09235159 -0.03831851 0.10666618
000250 fd 2f 4f bc 59 12 99 3d 9d 79 e6 bd 36 cb cc 3c
       -0.012645719 0.07474203 -0.11253665 0.024999242
000260 c2 cc a3 3d 6b 09 e5 3c c7 a1 23 3d cd 70 e6 3d
       0.07998039 0.027958592 0.039949205 0.11251984
000270 cc 22 c5 bc de 01 ec 3a db fa a9 3d 15 78 94 3d
       -0.024064444 0.0018005928 0.082998 0.07249466
000280 fe 7d 36 bc 6a 95 fb 3d b6 14 ae 3d e7 ef e2 bd
       -0.011138437 0.12284358 0.08500044 -0.11080914
000290 68 15 63 3c 3c 1b 70 bd 57 a4 b7 bd 03 4f f3 3d
       0.013860084 -0.058619723 -0.08966892 0.11880305
0002a0 ed a2 21 be 68 7d 27 be 71 b7 14 3d e6 05 12 bc
       -0.15784808 -0.16356432 0.036307756 -0.008912539
0002b0 d4 02 43 3e 94 bb 7c 3d a3 64 37 bd 49 f1 84 3d
       0.19044048 0.061702326 -0.04477371 0.06491334
0002c0 55 23 23 bd 78 32 bc 3d 0b 93 d3 bc 38 78 0e be
       -0.039828617 0.09189314 -0.025826951 -0.13913047
0002d0 22 62 76 bd 66 94 f4 3d cf fc 20 be e5 cf 55 bc
       -0.06015218 0.11942367 -0.15721439 -0.013050054
0002e0 c6 44 ee bc cf f1 0f 3e e4 d0 9d 39 16 f3 67 3d
       -0.029085528 0.14057086 0.0003010101 0.05662831
0002f0 69 c5 71 bd 38 e6 c3 3d 79 b4 e1 3d 3f 2a 02 3e
       -0.059026156 0.09565395 0.110207506 0.12711428
000300 43 44 b4 bb f5 d2 3c bd b4 77 0d be 50 bf b5 3d
       -0.0055013015 -0.04609962 -0.13815194 0.088743806
000310 83 53 1a bd a7 06 91 bc c3 0a bd 3d 3e f7 14 3c
       -0.0376773 -0.017703367 0.09230568 0.00909215
000320 a1 8e 02 bd 06 4e 40 bd 33 68 d7 bc f9 80 39 3d
       -0.031874303 -0.04694941 -0.026294803 0.045289014
000330 4b 78 de 3d 1f 08 43 3d 3e 25 0a ba f8 09 85 3d
       0.10862788 0.047615167 -0.0005269832 0.06496042
000340 7f 49 0c be 54 40 ab bd 62 09 a8 bc 37 58 ea 3c
       -0.13699912 -0.08361879 -0.020512287 0.028606517
000350 fc a6 ba bb 78 63 92 3d b4 86 c1 3d 84 a2 de bd
       -0.0056961756 0.071478784 0.09449521 -0.10870841
000360 ba 4b 0a 3e 91 91 8b bc 09 1f 98 3d 86 9f d1 3d
       0.1350545 -0.017037185 0.074277945 0.10235505
000370 24 58 5d bd 81 7c d3 bd ea b1 b8 bd 57 30 0e be
       -0.054039136 -0.103264816 -0.090183094 -0.13885628
000380 0f 4a bd 3d c0 4c 9f 3c cd c4 09 be ce 17 91 bd
       0.09242641 0.019445777 -0.1345398 -0.070846185
000390 14 b2 41 bd db 55 5d bd f6 0c 8d 3d d6 bf 38 bd
       -0.04728897 -0.054036956 0.06887238 -0.045104824
0003a0 b9 93 71 3d 65 58 19 3e 7f cc 9e 3d 9b e6 9d 3d
       0.05897877 0.14975126 0.07753848 0.0771
0003b0 f0 e1 3e 3d 06 34 ec 3d 03 2b 01 3e c2 ee a8 bc
       0.04660219 0.1153336 0.12614064 -0.020621661
0003c0 1a 33 81 bd 2c 2e c5 3d d2 7e 98 bb 48 c8 1e 3e
       -0.06308575 0.09627947 -0.00465379 0.15506089
0003d0 18 e1 be bc 73 d2 b9 bd ad 0e 0b bc 4e b4 af bc
       -0.023300692 -0.09073343 -0.008487386 -0.02144828
0003e0 d4 f9 ec 3d ec 82 ee 3c 28 35 07 3d e6 7f 47 be
       0.115710884 0.029115163 0.033009678 -0.19482383
0003f0 b8 05 08 be b2 84 92 bd 45 3d de ba 2d 5d a1 bd
       -0.13283432 -0.07154216 -0.0016955516 -0.078791

layers.2.bias f4 [64]
000000 27 f9 7e bc 0a 2e 15 3d d2 ab a5 bd ac 03 d5 3d
       -0.015562332 0.03642086 -0.08089413 0.10401091
000010 13 c1 27 bc 0b 84 af bd a0 3f 54 bd cf 89 0b 3e
       -0.010238904 -0.08570107 -0.05181849 0.13626789
000020 19 ce 8a 3d d5 8b 94 bd 30 a1 f0 bc e3 d9 65 3d
       0.06777591 -0.07253233 -0.029373735 0.056115996
000030 eb 0e a9 3c ca e7 92 3c c4 ce 86 3d 50 fd f7 bd
       0.020636996 0.017932791 0.06582406 -0.121088624
000040 18 41 76 3d 65 db ce 3d e8 95 17 bd ef 3d 18 bc
       0.060120672 0.1010044 -0.037008196 -0.00929211
000050 81 1a 7f 3d f8 7f e0 bd 2f bf cd 3d e1 b9 12 be
       0.062281135 -0.10961908 0.10046231 -0.1432872
000060 7c 0b c0 bc f3 94 f7 bd 0f ac 11 3e 5e c0 ea 39
       -0.023442976 -0.12088957 0.14225791 0.00044775283
000070 51 bd 6c bd f5 27 b5 bc 08 14 d1 3c 73 69 89 3d
       -0.057797734 -0.02211378 0.025522247 0.06709566
000080 70 0b bd 3c a9 53 b9 bc f5 c1 93 3d ce 75 f5 bd
       0.023076743 -0.0226229 0.07214729 -0.1198536
000090 f2 e2 da 3d bf 4d 18 ba 9d eb bd 3d 97 f5 e9 3d
       0.10687818 -0.0005809925 0.09273455 0.11423796
0000a0 99 a4 2c bc 19 c8 03 3d e7 1c 42 bc 28 33 16 3e
       -0.01053729 0.03217325 -0.011847711 0.14667952
0000b0 84 f0 da bd a5 23 06 be c3 04 1a be f1 ed 40 3d
       -0.10690406 -0.13099535 -0.15040879 0.04710192
0000c0 07 aa 00 3e 3a 71 0b 3e 65 db 79 bd 62 56 46 3d
       0.1256486 0.13617411 -0.061000247 0.048422225
0000d0 db a5 ec bd 37 93 7c bd 34 ab de 3d 28 ae 01 be
       -0.11555072 -0.061663833 0.10872498 -0.12664092
0000e0 fc 46 69 bd aa 1d 4b bd 1b bf 47 bd f4 42 fd bc
       -0.05695246 -0.049588837 -0.048766237 -0.030915715
0000f0 bb 85 08 bd d1 94 c9 3d c3 4b 1f bd b9 6f c8 bd
       -0.03333066 0.098428376 -0.03889061 -0.097869344

readout.weight f4 [1, 64]
000000 6f 78 93 bf f9 66 8f bf cf b5 a3 3f 1a 43 9b bf
       -1.1521128 -1.12033 1.2789859 -1.2129853
000010 f8 7d 9d bf e7 cb 99 3f f7 35 97 3f 6e 0f 92 bf
       -1.2304068 1.2015351 1.1813344 -1.1410959
000020 11 dc 9b bf 0d e2 8e 3f 41 99 88 3f 5f 1d 91 bf
       -1.2176534 1.1162735 1.0671769 -1.1337088
000030 f6 5d ac bf a2 2f 94 bf 55 e5 90 bf 9e 46 a6 3f
       -1.3466175 -1.1577036 -1.1319987 1.2990301
000040 40 1c 8c bf 2f 94 8f bf b1 75 a4 3f c2 4b 88 3f
       -1.0946121 -1.1217097 1.2848417 1.064812
000050 f0 24 ad bf a3 b0 8c 3f f2 36 9b bf 09 34 90 3f
       -1.3526897 1.0991405 -1.2126143 1.126588
000060 0d 60 96 3f fc e0 aa 3f dd 01 92 bf 61 78 ac bf
       1.1748062 1.334991 -1.1406819 -1.3474237
000070 91 90 8f 3f fb 7e 92 bf 96 33 8a bf 3d 5d 9e bf
       1.1215993 -1.1445001 -1.0796993 -1.2372204
000080 45 22 86 bf e4 fb 8f bf f6 65 8a bf cb 65 a4 3f
       -1.0479208 -1.1248746 -1.0812366 1.2843565
000090 bf e2 9e bf 02 dc 8c 3f 4e 76 90 bf 34 64 95 bf
       -1.2412947 1.1004641 -1.1286104 -1.1671205
0000a0 d1 a6 87 3f 68 64 9e 3f 21 dc ad bf 23 c4 8c bf
       1.0597783 1.2374392 -1.3582803 -1.0997356
0000b0 e0 71 8a 3f 55 6a 92 3f 29 7a a5 3f c6 da a7 bf
       1.0816002 1.14387 1.2927905 -1.3113639
0000c0 07 b5 b4 bf c4 ce 89 bf d6 d2 94 3f 2d 3c 98 bf
       -1.4117745 -1.0766225 1.1626842 -1.1893364
0000d0 33 f0 96 3f 83 40 aa 3f 31 14 94 bf 72 73 8b 3f
       1.1792053 1.3300937 -1.1568662 1.0894606
0000e0 72 b2 94 3f a6 d6 96 3f 48 29 aa 3f 23 ed 98 3f
       1.1616957 1.1784256 1.3293848 1.1947368
0000f0 f9 d5 93 3f 38 78 82 bf c7 92 8e bf cb a2 91 3f
       1.1549674 -1.0192938 -1.1138543 1.1377805

layers.0.weight f4 [128, 3]
000000 79 84 85 3d d3 78 e9 3e 44 35 ab 3e 92 76 54 be
       0.06519408 0.45599994 0.33439076 -0.20748356
000010 dc 56 0f bf 33 78 71 bd 3a 10 bd 3e 80 d3 33 bf
       -0.5599191 -0.05895252 0.36926442 -0.702446
000020 44 4f 24 3e 14 b2 b4 be ce 11 02 3f 6f 74 dd 3e
       0.16045862 -0.35292113 0.5080842 0.43252894
000030 9b 0a 89 be 93 1f 53 3f 4a 2c 51 be 59 f6 9d 3e
       -0.26765904 0.82470053 -0.20427051 0.3085201
000040 0d c7 4f 3f 72 a3 6d 3e 55 7a 8b be a3 d0 3a 3f
       0.811631 0.2320688 -0.2724177 0.72974604
000050 7d 8d f0 bd 32 58 c3 3e e6 a1 ee 3e 9f 2e 0b bf
       -0.11745737 0.38153225 0.46607894 -0.54368013
000060 0d ff 62 3e 6d f8 01 be 1c 91 b9 be 3d 39 71 be
       0.22167607 -0.12692423 -0.36243522 -0.23556991
000070 80 37 0e bf af 46 2c be ab 01 90 bc 1c be 11 3f
       -0.55553436 -0.16823839 -0.01757892 0.5693071
000080 af 53 83 3e b9 f1 3f 3d b3 72 36 be d1 ec 81 3e
       0.25649783 0.046861384 -0.17817192 0.2537599
000090 18 60 87 be 8b c5 d8 3e 63 0a c2 be df ff 03 be
       -0.264405 0.42338213 -0.3789855 -0.12890576
0000a0 57 af 1a bf 35 d4 06 3f 70 7f c7 be e1 15 17 3f
       -0.604238 0.5266755 -0.38964415 0.5901776
0000b0 c5 c1 4c 3e 80 37 ed 3e e7 69 37 be 97 cf 67 3e
       0.19995792 0.46331406 -0.17911492 0.22637783
0000c0 3b c6 3b 3e d4 c9 ca be 34 34 34 3e f1 a7 22 bd
       0.18337338 -0.39607108 0.17598039 -0.039710943
0000d0 62 d8 54 3f 7c 1e 4e be 4d f9 b1 3d 07 a9 0f 3f
       0.83142674 -0.20128816 0.086901285 0.5611729
0000e0 68 a7 e3 3e 63 d5 71 be 1b 1f be 3e 26 9c a7 be
       0.44463658 -0.23616557 0.37133107 -0.3273632
0000f0 98 66 c9 bd c5 30 4d 3f ca 4d c6 3e 66 b0 d6 3e
       -0.09834021 0.8015254 0.38731223 0.41931456
000100 46 14 d6 be 05 bd 6d 3e f0 f6 d4 3d 28 9e 6a 3f
       -0.41812342 0.23216636 0.10398662 0.9164758
000110 73 e1 07 bf 11 31 67 3e db 86 13 bf 5b 21 fa 3e
       -0.53078383 0.22577311 -0.5762765 0.48853573
000120 32 30 f0 be f1 0a 4b 3f ef 63 db be cf bd 1b be
       -0.4691177 0.7931357 -0.4284968 -0.15209125
000130 76 0c 73 3f 19 ed e0 3e b9 5b ad 3e ca ea 80 3e
       0.9494089 0.4393089 0.3385904 0.2517913
000140 ff a8 cd 3e c5 9f 17 bb 1c 53 08 be 31 b2 d8 be
       0.40167996 -0.0023136002 -0.13312954 -0.4232345
000150 86 0d 93 be 80 09 55 3f 06 8d ac 3e bb 51 b2 3e
       -0.28721255 0.8321762 0.33701342 0.3482798
000160 51 80 2c be 91 5a 0c bf ba fd 72 3e bb 55 ed 3d
       -0.16845824 -0.54825693 0.23729602 0.115886174
000170 c5 d6 13 3f f8 bd b1 be 98 83 0d 3f df 33 dd be
       0.5774959 -0.34715247 0.5527892 -0.43203637
000180 21 85 f2 bd 9a 42 38 bf b4 62 ff 3e 06 1b df 3d
       -0.118417986 -0.71976626 0.49879992 0.10893826
000190 11 6f 7d 3f 14 21 d3 3e 2a 62 46 3f 7c 31 2e bc
       0.989976 0.41236174 0.77493536 -0.010631915
0001a0 99 db cb 3d 7b 5e 31 3f 82 43 47 bf a5 96 02 bf
       0.09953994 0.6928479 -0.77837384 -0.51011115
0001b0 0a eb 15 bf b9 bd e8 3e 78 12 ae be e6 6a 15 be
       -0.58561766 0.45457247 -0.33998466 -0.1459156
0001c0 b7 4c 00 bf 77 0b 0e 3e 68 be c5 3e b4 9b 65 bf
       -0.5011706 0.13871561 0.3862183 -0.8969071
0001d0 54 7f 33 be ae 3b 3a be ea c4 44 bf 49 05 85 3e
       -0.1752904 -0.18186828 -0.76862967 0.25980595
0001e0 08 9e f6 bd d0 fa 60 bf 6e 7b b0 3e 6f d6 10 bf
       -0.12041861 -0.8788271 0.3446917 -0.565772
0001f0 ce 68 72 bf 77 f1 0e be ed a0 e8 3d 5f 42 44 3f
       -0.9469117 -0.13959299 0.11358819 0.76663774
000200 f9 1f db bd f1 de 43 3e c0 f6 b2 3d 3e d3 dd be
       -0.10699458 0.19128014 0.0873847 -0.43325227
000210 49 f2 c4 be 31 2a 07 3f ce 97 05 3e 8b 1b 10 bd
       -0.384661 0.52798754 0.1304619 -0.035182517
000220 66 ba 2c 3e 90 73 14 bf cc e4 a0 be eb f1 f9 3e
       0.1686798 -0.57988834 -0.31424558 0.4881738
000230 26 a6 a8 3e 3b 1b 6c 3e 3d 39 26 be 94 26 1c 3b
       0.3293926 0.23057263 -0.16232772 0.0023826705
000240 09 ec 9d be 30 d1 07 3e 12 a7 21 be 7f a6 d5 be
       -0.30844143 0.13263392 -0.15786389 -0.4172859
000250 ea eb 31 3f 5c b4 b1 be 13 fd be 3e d8 79 6c be
       0.695006 -0.34707916 0.37302455 -0.23093355
000260 60 65 ac 3d 03 70 fb 3e 36 ea a2 bd 7a 97 54 be
       0.08417773 0.49108896 -0.079548284 -0.20760909
000270 ee 6f 82 be 26 1c 5d 3f 53 30 ad be 60 56 90 bc
       -0.2547602 0.86371076 -0.3382593 -0.017619312
000280 ed 0a ae 3e cc 09 bd be cd 94 54 be e2 37 32 3f
       0.3399271 -0.36921537 -0.20759888 0.6961652
000290 2d 58 f0 be 0a 9e a2 3e f7 4c 0f 3f 57 e6 e7 3e
       -0.46942273 0.317612 0.55976814 0.45292923
0002a0 82 4a d2 3e 5e b6 57 3e ca 9d df be 86 ee d9 3e
       0.4107247 0.21065661 -0.4367507 0.4256479
0002b0 07 40 0e bf 6b db 39 3e 7f 4b ae 3e 94 03 a1 3e
       -0.5556645 0.18150108 0.34041974 0.31448042
0002c0 3d 20 00 3f 54 3f 18 bf ac 98 9f bd 20 82 bb bd
       0.5004919 -0.5947163 -0.07792792 -0.09155679
0002d0 b5 41 83 be 59 85 b3 3e c9 9f 10 3e e2 dd 02 3f
       -0.25636068 0.35062674 0.14123453 0.51119816
0002e0 96 bd 10 bf 34 4a 18 3f 99 f2 67 3e 5c 88 0d 3f
       -0.56539285 0.59488225 0.22651137 0.5528619
0002f0 b2 07 3f be 2f 46 91 be f9 6b 21 3f 46 37 02 be
       -0.1865528 -0.28373858 0.6305538 -0.12716398
000300 33 27 e2 3e 35 df 15 3f f9 1f b8 bd 0d 96 d0 3e
       0.44170532 0.5854371 -0.08990473 0.4073948
000310 4e d2 4d 3e 27 df 72 be 00 e7 10 bf 78 9f 84 bb
       0.20099756 -0.23717938 -0.5660248 -0.0040473305
000320 90 9b 94 3d 7a 33 44 3f d7 13 f9 bd bd ff 94 3e
       0.07256234 0.76641047 -0.12161987 0.29101363
000330 8e d9 b1 3e a7 92 de be 20 38 da be 15 40 1f 3e
       0.34736294 -0.43471262 -0.42620945 0.15551789
000340 6e eb 37 bf f9 c0 12 be ac 91 4e be d8 ac 1f 3f
       -0.7184361 -0.14331426 -0.20172757 0.62373114
000350 e9 48 ef be 29 aa c0 be 46 02 0a 3f 94 88 78 be
       -0.46735314 -0.37629822 0.5390972 -0.2427085
000360 bd 39 8e 3d 3f 97 14 bf 83 c8 da 3e f7 8a ec be
       0.069446065 -0.58043283 0.42731103 -0.46199772
000370 61 6d 1d 3f 1f de 3b 3e 7c eb 34 be 45 5c 8b bf
       0.61495024 0.18346451 -0.17667955 -1.0887533
000380 01 9f 9f 3e 01 79 59 be ac 05 ba 3d cb 91 28 3d
       0.31175998 -0.21237566 0.09083113 0.041154664
000390 88 86 01 be 0a cb 5f 3f 64 e1 0d bf 16 8d 05 3f
       -0.12648976 0.8741919 -0.55422044 0.52168405
0003a0 c1 fe c2 3e 65 aa 1e 3e 4a 6f 8c 3e a0 73 8b 3e
       0.38084987 0.15494688 0.27428657 0.27236652
0003b0 a0 d6 92 3e ce 98 bf 3e df e4 53 3d e3 c4 0a 3f
       0.2867937 0.37421268 0.05173194 0.54206675
0003c0 1a 3e 56 3e 40 84 66 be 76 6a b9 be 31 7e 0e bf
       0.20922127 -0.22511387 -0.36214036 -0.556613
0003d0 29 71 3c 3e 9d 78 84 3e 0e 34 b9 3d f0 6c 18 3f
       0.18402542 0.2587327 0.09043132 0.59541225
0003e0 91 02 7f 3d e1 fc a5 3e 11 a8 5d 3e 38 70 8b be
       0.062258307 0.32419494 0.21646143 -0.27234054
0003f0 54 1a 09 3e 5e 17 1d bf 61 8e 9b 3e b7 24 ef be
       0.1338895 -0.6136378 0.30382064 -0.467077

layers.0.bias f4 [128]
000000 cb 64 19 3f d6 6b fa be 52 d8 f7 3e e3 c2 cd 3d
       0.5991942 -0.48910397 0.48407227 0.10046937
000010 6d ed ef 3e df 3f 05 3f 5d 2c da bd 34 c4 d4 be
       0.4686083 0.52050585 -0.10652993 -0.4155594
000020 86 76 9c 3e 96 db 03 3f 49 2e 22 bf 45 8a a2 be
       0.30559176 0.51506937 -0.63351876 -0.31746116
000030 ce 54 20 3e d3 c5 e1 3e e3 68 e1 3e 9c 09 25 bf
       0.1565735 0.4409624 0.44025335 -0.6446779
000040 68 3e 98 3e 49 c2 7a 3e af 53 88 3e 38 00 0e bf
       0.29735112 0.24488176 0.26626346 -0.55469084
000050 2e 60 f9 3e 27 f9 df be 51 99 8d 3e bd d3 a2 3e
       0.48706192 -0.43744776 0.27656034 0.31802168
000060 45 21 4f be 1e 95 f7 3e 7b 53 d8 3e ee 5e 83 bd
       -0.20227535 0.48355955 0.4225119 -0.06414591
000070 0a b8 58 3e 88 8a a2 be 4b 47 ec 3d cd 56 e8 3e
       0.21163955 -0.31746316 0.115370356 0.45378724
000080 91 58 46 3e 52 f7 a5 3c 87 af 8a 3e 59 17 c7 be
       0.19369723 0.020259533 0.27087042 -0.38885
000090 c2 7f bf be ae e1 48 be 0f a1 35 bd ac 8c 78 3e
       -0.3740216 -0.1961734 -0.04434305 0.24272412
0000a0 e0 3e 48 3e f7 cb 85 be 84 60 70 3e 06 ef 80 be
       0.19555235 -0.26132175 0.23474318 -0.2518236
0000b0 3e 85 25 bd e8 6a c3 be 13 04 1b bf b0 68 ee be
       -0.040410273 -0.381675 -0.6055309 -0.46564245
0000c0 92 a2 aa be ba ef 3f 3e a3 57 a5 3e b8 88 83 be
       -0.33327156 0.18743792 0.32293424 -0.25690246
0000d0 89 7c e0 bd e3 a0 c9 be 6b f6 61 3e 52 43 dc 3e
       -0.10961253 -0.3938056 0.22066657 0.4302011
0000e0 0f 49 de be 2c 9d 04 3f 58 dc 04 bd f2 ff 97 3e
       -0.43415114 0.51802325 -0.0324367 0.29687458
0000f0 18 51 b5 3e cf 8d 78 be 74 56 80 3e fb e7 d2 bd
       0.35413432 -0.24272846 0.25065958 -0.10298153
000100 f4 c9 b4 3e 64 08 fc be 2f bf 02 3f 72 27 17 bf
       0.35310328 -0.49225152 0.51072973 -0.59044564
000110 31 1d 0c 3f 9d 10 01 3f 42 33 c9 3e 34 95 05 bf
       0.5473204 0.50415975 0.3929692 -0.5218079
000120 59 d2 ee 3e 23 ca 1b 3d 75 4c 0a 3f 66 a6 8c 3e
       0.46644858 0.03803457 0.54022914 0.27470702
000130 a2 82 5a 3e ef cc cf be 01 3b 9c bd af ff 00 be
       0.21338895 -0.4058604 -0.076284416 -0.12597536
000140 d5 e2 f7 bc 61 e5 2c 3f 1c 6d f5 3e 24 f3 34 3d
       -0.03025953 0.67537504 0.47934806 0.04417719
000150 17 52 1f be 4f ee 82 be 9c 9b ef be 73 cf b7 3e
       -0.15558659 -0.2557244 -0.46798408 0.3590046
000160 36 1f 86 bd c9 85 6e be 78 b7 9d 3e 9d 38 d6 be
       -0.06548922 -0.23293222 0.30804038 -0.41840068
000170 ab 90 09 be ca bc eb 3e a1 31 1b be 36 8f 65 bc
       -0.13434093 0.46042472 -0.1515565 -0.014011195
000180 f0 b0 61 be e1 2c 75 3e 7a 0d bd bd 2c fa 40 bf
       -0.22040153 0.23942901 -0.09231086 -0.7538173
000190 92 c7 ae be 9c c9 02 bf 2c b1 fd 3e 7c de ea be
       -0.34136635 -0.5108888 0.49549234 -0.45872867
0001a0 ba 6b 5c 3e 03 04 15 3f e7 57 6b 3c 52 79 03 3f
       0.2152547 0.58209246 0.014364219 0.51356995
0001b0 e5 3d e8 be c1 7e a2 be 1b 2d 43 3e ab 77 81 3e
       -0.45359722 -0.3173733 0.19060175 0.25286612
0001c0 3e 56 43 be e0 2d 51 3d 0d 07 d0 3e 75 7c 28 3e
       -0.19075868 0.05106914 0.4063038 0.16453727
0001d0 f9 fc d7 be 79 d1 e1 3e 36 0e 8c bd f8 76 42 3e
       -0.4218519 0.44105127 -0.06838648 0.18990695
0001e0 c9 d4 18 3f ed 1b 9f 3e 23 94 d4 be 39 3e c7 be
       0.59699684 0.31075993 -0.4151927 -0.3891466
0001f0 9f 23 5e be bc 3c 26 be 97 8b 51 3d a9 ba 22 3e
       -0.21693276 -0.16234106 0.051158514 0.15891518

layers.1.weight f4 [128, 128]
000000 3a b2 e5 3c 6c f5 27 be e0 39 cc 3c ba 3e 33 3b
       0.028039087 -0.16402215 0.02492994 0.002735062
000010 e5 e7 5d 3d 26 84 54 3d d2 f1 37 3e 24 04 a0 bc
       0.05417623 0.05188384 0.17963341 -0.019533224
000020 cd 86 7a bd 3d 0d a0 bd 2b 94 20 be 7c 61 fe 3b
       -0.061163712 -0.07815025 -0.15681522 0.007763086
000030 1d 34 f5 bc 1d 3b 28 3d 64 89 d9 bc 6d 6b ac 3e
       -0.029932076 0.041072 -0.02655477 0.3367571
000040 0b e1 45 3d fc f9 ae 3d 6e 60 b2 3c 59 a1 03 be
       0.04831032 0.085437745 0.021774497 -0.12854518
000050 0d db 19 bc 25 1e 21 3e aa be 57 bd e3 03 5c 3d
       -0.009390605 0.15734155 -0.052672066 0.053714644
000060 e9 f5 e7 3d b1 cb 94 3d b2 1b 84 bd 5e 86 78 3d
       0.113262005 0.072654136 -0.06450595 0.060675018
000070 12 39 8c 3c 02 03 3b 3c 10 fa 98 bd 85 11 20 bc
       0.017117057 0.011414291 -0.07469571 -0.009769802
000080 5f f2 a2 bc 4b 3d 64 3c 6b bd d1 bc f5 d6 21 bd
       -0.019890962 0.013930629 -0.025603017 -0.03951164
000090 cc 75 c9 3d e0 3c 85 3e 0b 91 1f bd 14 d8 92 bd
       0.09836921 0.26023006 -0.038956683 -0.0717012
0000a0 4a 3d 13 3d 50 94 d9 3d 08 52 07 3e fb 1b 9b 3c
       0.03594712 0.106239915 0.13214886 0.01893424
0000b0 d7 51 79 3c 27 2a 9d 3d 0a d7 bb bd 01 74 89 3d
       0.015217266 0.076740555 -0.09171875 0.06711579
0000c0 0b ca 74 bd 20 02 9d 3c 9b 19 b9 3c 31 09 d0 bd
       -0.059762996 0.019166052 0.022595217 -0.10158003
0000d0 08 e1 a5 3c 35 95 bf bb b4 f0 de 3d 63 b2 d6 3d
       0.020248905 -0.0058466443 0.10885754 0.10483243
0000e0 88 c5 3b bd 96 7e 89 bc ae 1a 54 bd ca 24 ca 3d
       -0.045842677 -0.016783994 -0.051783256 0.09870298
0000f0 33 3a 3c ba fc 6d 3e 3c 1b e3 e7 3d 32 13 82 3d
       -0.0007180303 0.011622902 0.11322614 0.063513175
000100 e8 b0 c1 bd 53 fb 45 be 58 7b a8 bc 38 a6 1d 3e
       -0.0945757 -0.19334154 -0.020566627 0.15395439
000110 02 a9 4f 3d a7 e6 5e bd 1a a6 d1 3d fc 95 2a bc
       0.050698288 -0.054419186 0.102367595 -0.010411736
000120 61 45 88 3d 5b 83 f2 ba 91 e4 7c 3d 8b 15 62 bd
       0.06653858 -0.0018502282 0.061741415 -0.055196326
000130 74 1c 01 bd 18 a1 62 3e ce 3a bb 3c 2d e4 f3 3c
       -0.031521276 0.22131765 0.022855189 0.029771889
000140 b7 46 55 bd f7 72 c9 3c 55 9f 0d 3d 30 d3 af bd
       -0.052069392 0.024590952 0.03457578 -0.08585203
000150 ed a6 82 3e fb 76 e3 3c ed 31 ee bb bd 18 21 3c
       0.2551798 0.027766695 -0.007269135 0.009832558
000160 92 10 8b bc 65 d3 05 be 54 f3 e2 3c 47 46 3f 3e
       -0.016975675 -0.13068922 0.027703919 0.18679152
000170 a2 36 0d be 5f e3 8c bc 59 96 53 3d 8d cc 09 bb
       -0.13790372 -0.017198263 0.051657055 -0.0021026463
000180 06 58 95 3d c7 c6 fe 3c 12 a1 cd bd 11 29 aa bd
       0.0729218 0.031100644 -0.10040487 -0.08308614
000190 a6 91 8b 3c 75 f6 98 be 9a d8 99 3d b4 54 24 3e
       0.017037224 -0.29875532 0.075120166 0.16047937
0001a0 9d d5 53 bc 1a ae ea 3d 1e 8e fe 3b 52 86 2e bd
       -0.012929347 0.114589885 0.0077684065 -0.042608567
0001b0 db e5 00 3d 56 7f 32 3d 49 4c 21 bd c7 4d 81 3d
       0.031469207 0.04357847 -0.03937939 0.06313663
0001c0 37 8e 33 3d ab cc 8e 3d 31 e5 91 3c 90 bd c8 bb
       0.0438368 0.06972631 0.017809482 -0.0061261132
0001d0 26 d3 b9 bd 4d 57 f5 3d 00 ac 8a bd d2 3d ce 3d
       -0.090734765 0.11979542 -0.06771088 0.10070385
0001e0 40 d2 0f 3d 72 d5 2e bc 75 36 06 3e 9e b2 8e bd
       0.03511262 -0.0106710065 0.13106711 -0.06967662
0001f0 15 82 94 bd b8 12 04 3e 6d c4 a0 3d f9 ae 5b bd
       -0.07251374 0.12897766 0.07849965 -0.053633664
000200 7e e8 bb ba 65 ae 2e 3d b7 0f d0 3d 80 16 0f bd
       -0.0014336256 0.042646784 0.10159247 -0.034933567
000210 74 13 4b be 4b 6d 11 3d 93 a6 c0 bd 5d 89 b9 3d
       -0.1983164 0.03550462 -0.094067715 0.09059403
000220 f1 5d f5 3c ac 3c 14 3c 90 7a 09 be de 74 49 bc
       0.029952021 0.009047668 -0.1342566 -0.01229593
000230 03 39 a0 bc 42 b8 d2 3b 5b 1d 0e be 7c 2c d4 3d
       -0.019558435 0.0064306566 -0.13878386 0.10360047
000240 88 48 8b 3d 04 f7 17 be c3 ae c2 3c 9f 4d 78 bd
       0.068009436 -0.14840323 0.023764974 -0.0606209
000250 39 de 07 be bd b5 a7 3d cd 15 db bd d4 2d a8 bc
       -0.13268365 0.08188961 -0.106975175 -0.020529665
000260 3f b7 50 bd b5 fc 8f bd 96 13 4e bd 16 dc 13 3d
       -0.050956007 -0.07030622 -0.050311647 0.036098562
000270 16 43 0c bc 94 6b 71 3e c6 1d 60 bd 02 da 9f bd
       -0.008560916 0.23576194 -0.054715894 -0.078052536
000280 d5 fb 0f 3e 6a 28 8d bd 35 16 81 3b 0b 8b 53 3e
       0.1406091 -0.06892474 0.003939415 0.2065851
000290 04 f0 90 ba e3 59 5e 3d d5 15 5d 3e da 6e ce 3d
       -0.0011057858 0.05428494 0.2159036 0.10079737
0002a0 00 c8 dd 3d e8 01 65 bd f2 3d 22 bd 1d bc 4e 3d
       0.108291626 -0.05591002 -0.039609857 0.050472368
0002b0 ae dc ce bd e3 26 9c bd 76 98 48 be 73 aa 85 3d
       -0.10100685 -0.076246046 -0.19589409 0.06526651
0002c0 ae b3 6c bd b5 ea 2e be b8 7c 8d 3c 5a c6 3d 3e
       -0.057788543 -0.17081721 0.017271385 0.18532696
0002d0 15 5c 1a be 76 70 28 3d 54 2d 88 be 99 74 77 bd
       -0.15074189 0.041122876 -0.26597083 -0.06041393
0002e0 9d 14 2c 3e c9 7c c4 3d 01 1c 57 3d 68 4c d5 bd
       0.16804738 0.095941134 0.05251694 -0.10414964
0002f0 78 de 34 be fb cf 05 3b ab f1 00 bd fe 3c d9 bc
       -0.1766299 0.0020418155 -0.031480473 -0.026518341
000300 38 c5 e9 bd 30 a0 a7 bd 27 5e 8f bd 81 39 75 3d
       -0.114145696 -0.0818485 -0.0700038 0.059869293
000310 45 6e 2f bd 1a d8 f0 3d 1d 24 3e be 60 49 e5 bd
       -0.04282977 0.11759968 -0.18568464 -0.11195636
000320 de 7d 0c bd 87 a9 d2 bd 34 e6 20 3e 0d 31 d5 bd
       -0.034299724 -0.10286241 0.15712816 -0.10409746
000330 c3 c7 b2 bd bb fd e7 bc b7 cf 9a bd c7 2e 90 bd
       -0.08729508 -0.02831923 -0.0755915 -0.07040172
000340 50 08 52 3c 09 80 06 be ae 2e 41 bd de ab 6e 3d
       0.012819365 -0.13134779 -0.047163658 0.058269374
000350 58 65 4b 3d 2d 63 d6 bd b5 04 9e 3e 49 e7 52 3d
       0.049657196 -0.10468135 0.30862966 0.051490102
000360 52 9b 29 bd bc 77 ff 3d 71 9b bc 3c 76 58 04 3e
       -0.04140789 0.124740094 0.023023339 0.1292437
000370 ea b9 05 bd 60 e4 72 3d 26 fc 0e 3d cf be d0 3c
       -0.032648005 0.059299827 0.034908436 0.02548161
000380 46 50 7a 3c 1f 75 01 be c1 6a fe bc 2c 45 31 be
       0.015277928 -0.12642334 -0.031056764 -0.17311543
000390 dd 3b 20 be 0d b0 9d 3d 86 84 1f 3c 36 cb 15 be
       -0.15647836 0.07699595 0.009736186 -0.146283
0003a0 68 d5 ab 3d 57 ef 54 bd bc b4 a4 bd bf 2b 17 3d
       0.083903134 -0.051986065 -0.08042285 0.036906954
0003b0 be 83 07 3e bb f5 a0 bd dd c4 ab 3c 2f a9 e0 3d
       0.1323385 -0.07859369 0.020967895 0.10969769
0003c0 28 31 07 be ac c0 c5 be 8f 18 29 b9 7e d7 11 be
       -0.13202345 -0.3862356 -0.00016126245 -0.1424236
0003d0 88 16 da 3e 9a cd 2a bd 4d 6a 08 3e 0c 07 2f be
       0.42595315 -0.041699983 0.133218 -0.17092532
0003e0 09 8d b8 bd 7a 94 a6 bd 5b 82 a9 3c e3 97 9d bd
       -0.09011275 -0.081337884 0.020692041 -0.07694986
0003f0 cf 67 59 bc 50 f1 1d bd a1 47 0c be cc a9 6e 3d
       -0.013269379 -0.03856021 -0.136992 0.0582674
