Homework9/9_gym-DDPG/results/DDPG_HalfCheetah-v5_3000-eps0.1-t32-l0.0001-sNone.pth (torch, 195808 bytes, 13 tensors)

layers.0.weight f4 [128, 23]
000000 9b 2f 90 be c1 60 77 3e 16 6c d7 be b8 8d 44 3e
       -0.2816132 0.24158002 -0.4207465 0.19194686
000010 35 fc c4 3d a3 e8 f4 bd fb aa 7f 3e 44 ae b1 bb
       0.09618417 -0.119584344 0.24967568 -0.0054223854
000020 f8 70 50 3e 39 00 75 3e 8b ec d0 3d 98 a3 cb 3d
       0.20355594 0.23925866 0.10201367 0.099433124
000030 63 02 18 bd 60 8f 91 3b 2b 18 08 be d8 d0 c1 bd
       -0.03711165 0.0044421405 -0.1329047 -0.09463662
000040 dc 21 7f bc a2 c4 a8 3e 1e 6e 6b 3e 5d 82 16 3e
       -0.015572038 0.3296252 0.22991225 0.14698167
000050 ce b9 b8 3d 3a 9d ee be e9 4a f8 bd d8 83 d3 bd
       0.090198144 -0.4660433 -0.12123663 -0.103278816
000060 ad c1 b9 3e 43 ea b4 bd e8 49 08 3f 0c 56 ad bc
       0.36280575 -0.088337444 0.5323777 -0.021159194
000070 08 d5 c2 be a6 aa a6 be e3 b6 7e bd df c2 a8 be
       -0.38053155 -0.3255207 -0.062186133 -0.32961175
000080 f2 68 c8 bd ba cf 59 bd 18 28 99 bd d0 8f ec bc
       -0.09785642 -0.05317662 -0.074783504 -0.028877169
000090 d3 4f c9 3b de ac 94 bc 98 74 49 bc 83 09 d9 3b
       0.006143549 -0.018148836 -0.0122958645 0.0066234483
0000a0 1a 7d af 3d b6 cb 4a bd fc 43 6a 3c e6 c2 1e 3e
       0.08568783 -0.04951068 0.014298435 0.15504035
0000b0 ea f8 72 3d f6 f5 ac bc 46 d0 ec 3c ca 8a d6 3d
       0.059319414 -0.021113377 0.028907906 0.10475691
0000c0 66 7d 84 be 42 cc e0 be cf 7e 44 be 06 49 a1 3e
       -0.2587692 -0.43905836 -0.19188999 0.31501025
0000d0 b9 06 16 be 3b a7 a0 3d 40 54 eb 3d db 54 38 3e
       -0.14651002 0.07844397 0.11490679 0.1800112
0000e0 af b0 b8 3e 61 0b cd bc 76 d6 da bc 60 d7 d9 bc
       0.360723 -0.02502984 -0.026713591 -0.026591957
0000f0 b8 d4 01 3e 08 5f 9f 3d 18 dc 0e 3c 5a 74 ce bb
       0.12678802 0.07781798 0.008719467 -0.0063004913
000100 f4 ab 31 3d 95 7d a8 bd c8 61 7a be d4 89 03 3e
       0.043376878 -0.08227078 -0.24451363 0.12845546
000110 a6 75 8e 3d 0b 70 fc bb ba 7f 62 3d c3 df b2 3e
       0.069560334 -0.0077037863 0.05529759 0.34936342
000120 4b c8 a0 3e 74 ed 3c 3d 47 3a 1c 3e cf 44 10 bb
       0.3140281 0.04612489 0.15256606 -0.002201367
000130 4d 31 2a 3e a1 39 44 be 83 36 87 be 79 ea d8 3e
       0.1662037 -0.19162609 -0.26408777 0.42366388
000140 a2 5f 8b 3d b4 80 4b 3d 51 f8 0c 3c e3 20 0f 3e
       0.0680535 0.049683288 0.008604125 0.13977389
000150 a5 f0 19 3d 6f fa 99 bc 13 cd 13 3e 40 29 2c 3e
       0.037583012 -0.018796174 0.14433698 0.1681261
000160 e7 5c 08 3e 50 5e 20 3e 22 1d 7b bd b5 ce 80 3d
       0.1331669 0.15660977 -0.06130708 0.06289426
000170 71 e6 76 bd 06 fe 0d 3d ea f4 13 3f 1a a7 e2 3e
       -0.06027836 0.034666084 0.57795584 0.44268113
000180 7a 2d 6f 3e bc 33 8a be 32 5b c8 bb 55 4f 21 3e
       0.23357192 -0.26992595 -0.006114387 0.15752919
000190 b7 d9 4c be 5d bf 47 3e bd 52 87 be 6b 33 0d bd
       -0.20004927 0.19506593 -0.26430312 -0.034472864
0001a0 36 60 f5 bd 39 6d 08 3c 45 57 95 3d 20 ff 03 be
       -0.119812414 0.008326822 0.07292036 -0.12890291
0001b0 ff d8 c4 bd 85 19 84 3e 91 31 04 3c 87 41 b6 3d
       -0.09611701 0.2580072 0.008068458 0.08899217
0001c0 06 c8 6d 3e 8d cb 8e bd 2a 25 95 3d b6 46 ec be
       0.23220834 -0.06972418 0.07282479 -0.46147698
0001d0 d4 9f 60 be 9a f9 de be 9f bd 48 3e 89 da 02 3c
       -0.2193597 -0.43549806 0.19603585 0.007986673
0001e0 42 80 e2 3d 94 cd 62 3d d0 f1 0b be 4f f7 3f 3e
       0.110596195 0.055371836 -0.13666463 0.18746684
0001f0 1b 4f 0d be ca 80 43 be d5 d0 1f bc a6 25 2c bc
       -0.13799708 -0.19092098 -0.009754379 -0.010507023
000200 6f f1 9f bd 5a 0a a3 bd 6f 06 16 bd 1b 02 d8 3c
       -0.07809722 -0.07960959 -0.03662723 0.026368191
000210 14 e9 2b bc cd 4b e9 3c 3d c5 26 3e 06 f8 83 be
       -0.010492582 0.028478527 0.16286178 -0.25775164
000220 47 54 11 3e 81 d6 64 3e 04 95 42 3e 37 f0 b1 be
       0.14192306 0.22347452 0.19002157 -0.34753582
000230 9c 09 81 be 1f 10 34 be d1 25 2b be cb 3f 09 3d
       -0.25202644 -0.17584275 -0.16713645 0.033508103
000240 be 35 20 be e8 ac 51 3d 4f bf af 3e f7 ea 35 3c
       -0.15645501 0.051190287 0.34325644 0.011103383
000250 bc 7d 74 3d d1 e3 cc 3c d9 8b 82 3d e5 57 8c bc
       0.059690222 0.025010975 0.0637433 -0.017131755
000260 12 ae 18 3c 9a 59 a8 bc 71 d6 c6 3c ff 2f f7 bd
       0.009318845 -0.020550538 0.024272176 -0.120697014
000270 4c bb 48 bb cb 2e 6c 3b 44 69 f2 bc 6f f4 84 bd
       -0.0030629216 0.0036038633 -0.02959121 -0.064919345
000280 2f 89 af 3d d2 cf 1d 3d c6 01 85 be c8 0b 08 3d
       0.085710876 0.03852827 -0.25977916 0.03321436
000290 3d cc 5a 3e 16 48 9c 3e 24 86 46 be c5 48 10 be
       0.21366973 0.30523747 -0.19387108 -0.1409026
0002a0 0c c9 06 3e df d4 43 3e ff cf 89 be c8 73 36 be
       0.13162631 0.19124173 -0.269165 -0.17817605
0002b0 e6 13 8f bc 6a f1 d3 3d 70 ae a0 bd 43 c2 a5 3d
       -0.017465543 0.103487805 -0.07845771 0.08093693
0002c0 07 3c f2 3d 4f 5e e7 bc c1 4b 09 be 2d 8c 18 3e
       0.118278556 -0.028243212 -0.13407804 0.14897223
0002d0 73 24 ee bd e4 1a 8f 3e 46 9f a2 3e e5 7a 09 be
       -0.11628046 0.27950203 0.3176214 -0.13425787
0002e0 4d dc 26 3d 8a 5c ad bc 9a 1e 54 be dc eb f7 3d
       0.04073744 -0.02116229 -0.20714799 0.121055335
0002f0 75 10 1a be e4 76 d3 be c4 3c 4b bd cc a8 25 be
       -0.1504534 -0.41301644 -0.049618497 -0.16177672
000300 e5 15 da bd 8d 6f 48 3d f7 c2 fb 3d 8b 93 08 3e
       -0.10648707 0.048934508 0.12293046 0.13337533
000310 95 65 5c bc c9 c8 7d 3d a2 3c 2f 3d 95 d2 35 bd
       -0.013451953 0.06195906 0.042782433 -0.04439028
000320 3e 23 5d 3d 7c ec e1 be 5c c3 92 be 3b bf 1d 3e
       0.053988688 -0.44125736 -0.28664672 0.1540498
000330 9b d6 87 3e d4 f5 01 3e 3d b6 7c be 01 c8 14 3e
       0.26530918 0.12691432 -0.24678893 0.1452942
000340 7f 6b 83 3d fe 61 f0 3d 14 6f 14 bc c5 28 1d bd
       0.06416988 0.117374405 -0.009059686 -0.03836896
000350 b1 b9 a3 be ac 03 b7 3d 42 33 3a be 7f fc ff be
       -0.3197761 0.08936247 -0.18183616 -0.49997327
000360 fa 3e 1e be 36 82 9e bd 5f c1 95 3d 5c 52 2b bd
       -0.15453711 -0.077396795 0.07312273 -0.04182659
000370 19 0f 73 3c 03 6a 84 bd 1b 65 4f bd a3 c6 a7 3c
       0.0148351425 -0.06465533 -0.05063353 0.02048046
000380 e0 ed 4b bc 44 42 1d 3e ec 0f 03 3e 01 ee e9 3d
       -0.012446851 0.1535731 0.12799042 0.11422349
000390 5b d8 03 be 0a c7 f2 3d b8 02 3c be 3e df 9c 3e
       -0.12875502 0.1185437 -0.18360412 0.3063907
0003a0 c4 e0 31 3e 6f b5 16 bf f8 12 ab be 85 07 2e 3e
       0.17370898 -0.58870596 -0.3341291 0.16995056
0003b0 d0 8f ac 3e a8 b8 63 3e 49 e7 15 be 9e 0d b1 3d
       0.3370347 0.2223841 -0.1463901 0.086451754
0003c0 4a 70 e6 bb cc 10 8b bd 6a a0 81 bd 27 03 91 bd
       -0.007032429 -0.06790313 -0.06329425 -0.070806794
0003d0 20 00 eb bc 9a e0 be ba 1d 5b 0f bd 97 95 28 3e
       -0.028686583 -0.0014562786 -0.034999 0.16463314
0003e0 ae 77 8c 3d 40 a3 89 bd aa 7a 67 3e dd 94 28 3d
       0.068587646 -0.067205906 0.22605386 0.041157592
0003f0 c0 9f 8a 3e 4d 1c 89 3d 3a eb c3 bd f7 20 17 bf
       0.27075005 0.06694851 -0.0956635 -0.59034675

layers.0.bias f4 [128]
000000 74 cf f9 3e ef 9b 85 be 2f 25 ce 3e 96 8d 32 bc
       0.48791087 -0.2609553 0.40262744 -0.0108980145
000010 7a 8d 01 bd 6d c4 9f 3e 73 7f 7e 3e 71 03 8b 3e
       -0.031629063 0.31204548 0.24853306 0.27151063
000020 e2 ca be be d2 10 a4 bd 36 1e d7 3e 9d 34 69 be
       -0.37264162 -0.08011021 0.42015237 -0.22773977
000030 52 ac 4c 3e 15 8e 10 3e fb a4 18 3d 97 19 3d be
       0.1998761 0.141167 0.037266713 -0.18466793
000040 0e a1 89 bd 32 a3 9f 3e d8 a4 dd be bb 0b 66 be
       -0.06720172 0.31179196 -0.43289828 -0.22465412
000050 bb 61 33 3e 26 7f 90 bd f6 00 f9 3e 7c ce 07 be
       0.1751775 -0.07055502 0.48633546 -0.13262361
000060 89 fe 8d 3e ae b3 7a 3d d9 19 3d 3e 71 bf 8d 3d
       0.27733257 0.061206512 0.18466891 0.0692128
000070 08 93 be be 5b 7f bf 3e 7c 40 88 3e 8a c4 cd bd
       -0.3722155 0.37401852 0.26611698 -0.100472525
000080 1b 0d 32 3e 88 19 f8 bd a9 e1 59 3e 5e d3 2b be
       0.17387812 -0.12114245 0.21277489 -0.16779849
000090 e3 97 22 3d 1d 5a ed 3d ff 88 17 3b 47 dd 6b be
       0.03969563 0.11589453 0.0023122428 -0.2303363
0000a0 7b c3 92 be cc 0a 97 be 08 06 a0 bd bf 9a 70 3e
       -0.28664765 -0.29500425 -0.0781365 0.23496531
0000b0 90 99 93 bd ff 02 e8 be 17 76 0c 3e fc c7 74 be
       -0.07207024 -0.45314786 0.13716923 -0.23904413
0000c0 e1 9a 17 3d c0 f2 9b 3d f7 22 b1 3e 1c 97 15 3e
       0.03701294 0.0761466 0.3459699 0.14608425
0000d0 3b b5 49 be fb e8 38 be d7 f3 8f 3d 72 83 b8 be
       -0.1969804 -0.18057625 0.07028931 -0.36037785
0000e0 24 34 6f 3e 58 72 54 3d 09 37 a7 bd 07 59 18 3e
       0.23359734 0.05186686 -0.08164794 0.14877711
0000f0 dc 28 45 3e 73 00 9d 3e 06 82 9d 3e ba 35 46 bd
       0.19253868 0.30664405 0.30763263 -0.04839108
000100 b1 51 2f 3e 46 d8 4d be 3e 00 1a 3e 70 26 b5 bc
       0.17121007 -0.20102033 0.15039155 -0.022113055
000110 6e f4 31 bd f9 ae 3b be b4 36 b1 be 0e 00 13 3e
       -0.043445997 -0.18328466 -0.34612048 0.1435549
000120 c4 d5 15 be 77 b7 ec 3d f0 59 ac 3e 9b b4 8f 3e
       -0.14632326 0.11558431 0.33662367 0.2806748
000130 13 b3 a2 3e af 9b 82 3e 41 e6 22 bd 50 bf a6 3e
       0.31777248 0.25509402 -0.03977037 0.32567835
000140 96 78 92 be bd 46 6f 3e 6a f9 b6 be a6 b8 7d bc
       -0.28607625 0.23366828 -0.35737163 -0.015485918
000150 be 26 04 3e 7d 03 c5 be 27 d7 9e 3e 8f b9 c3 bd
       0.12905404 -0.38479224 0.31023523 -0.09556877
000160 d0 d8 45 be fc be 4f be 62 f5 31 be 74 b5 10 3e
       -0.19320989 -0.20287699 -0.17378762 0.14131719
000170 9c 93 74 3e d8 98 c9 3d e5 3c 44 3e 99 4a 56 3e
       0.23884434 0.09843606 0.19163854 0.20926894
000180 d8 c3 e9 3e 68 98 10 be 52 47 d3 be 12 2e 67 bd
       0.4565723 -0.14120638 -0.4126535 -0.05644042
000190 87 94 79 3e 3b fc 34 3e cd d2 d0 3d 0d ae b9 3e
       0.24373065 0.17674343 0.10196457 0.36265603
0001a0 c3 b1 9e be 33 c0 6d 3e e9 87 8b 3e d5 54 e9 bd
       -0.30994996 0.2321785 0.2725213 -0.113931336
0001b0 b7 51 79 be 7d 1f d1 be 61 d7 ba 3e 8b de d1 be
       -0.24347578 -0.40844336 0.36492446 -0.409901
0001c0 1e 49 5d 3d 36 9f 46 3e 94 4d f9 3d a9 70 c6 3d
       0.054024808 0.19396672 0.12173 0.09689457
0001d0 fb 12 bc 3e ec 65 d8 3d a3 f7 d4 3e 2f 06 53 be
       0.3673323 0.10566315 0.41595182 -0.20607828
0001e0 0f 89 80 be 75 fa 87 3d 93 ac 96 3c 6f b0 23 3e
       -0.25104567 0.06639568 0.018392837 0.15985273
0001f0 c8 ff 7b 3e 62 15 8f be ed e8 93 be 45 4b f9 be
       0.24609292 -0.27946 -0.28888646 -0.4869024

layers.1.weight f4 [128, 128]
000000 25 b3 c4 bd 22 9f 63 bd bb 47 41 3c 62 ce aa bc
       -0.096044816 -0.055571683 0.011796887 -0.020850364
000010 05 3b 98 3d 4f 07 bb 3d 5b ed 98 bb 87 6d 80 3d
       0.07433132 0.091322534 -0.004666967 0.06270891
000020 0f 13 21 bd 66 82 b2 bd 89 b2 74 3d 65 63 17 3d
       -0.039324816 -0.08716278 0.059740577 0.036960024
000030 80 77 ed 3d 45 f5 31 3d 6d f0 b6 bd 5c 32 66 3c
       0.115950584 0.043446798 -0.08932576 0.014050093
000040 d1 e3 8e 3d 6e ca d2 bc 2c 70 14 bc fb be 9d 3d
       0.06977046 -0.025731292 -0.009059947 0.07702442
000050 06 c6 a4 3d 10 fe c5 3d ac 8b 80 3d 72 ab 93 3d
       0.080455825 0.09667599 0.0627664 0.07210435
000060 f8 6e 7a bd a2 db 0f 3d e9 5b 31 3e 33 c2 db 3c
       -0.061140984 0.035121568 0.17320217 0.026826
000070 2e 5b b8 bc 0d 02 e8 bc 76 12 00 bd c6 81 0a bd
       -0.022504415 -0.02832129 -0.031267606 -0.033815168
000080 74 35 85 3d 0f bc a2 bd c7 48 2b 3c 40 78 b2 bc
       0.06504336 -0.079460256 0.010454363 -0.021785855
000090 65 2b 8d bc 27 53 25 bc 4f ba 9a bc c2 7f 34 3c
       -0.017232606 -0.010090626 -0.018887667 0.011016788
0000a0 51 62 b3 bd a7 ac 36 bc a1 36 1d 3d 15 3a 4f 3d
       -0.08758987 -0.011149562 0.038382176 0.0505925
0000b0 94 ba 65 bd 00 26 5a 3c 35 9b 9c bc c2 c2 a5 3d
       -0.056086138 0.013314724 -0.019116977 0.08093788
0000c0 67 bc 23 3d fc 28 37 3d a6 e2 7b be 62 09 e9 3c
       0.039974596 0.04471682 -0.24598178 0.028446857
0000d0 f7 6e f3 bd c9 25 0f be 4a 44 f6 bd 20 49 e5 bc
       -0.11886399 -0.13979258 -0.12024744 -0.02798897
0000e0 fe ca ad bd 87 73 98 3d d0 5b 64 bd 15 a5 63 3d
       -0.08485983 0.0744391 -0.05575162 0.055577356
0000f0 e3 48 6a be fb ea 8c 3d ee 66 51 3d 26 9d 65 be
       -0.22879367 0.068807565 0.051123552 -0.22423229
000100 48 fe fd 3c cf c6 a4 3d 5d c5 ea 3d 51 7d 07 be
       0.03100504 0.08045732 0.11463425 -0.13231398
000110 ee 92 16 3c ff 5d b0 3d 8a fc 43 3d 81 ba 3d bd
       0.009190304 0.08611678 0.047848262 -0.046320442
000120 70 39 19 3e 45 6f a6 bd ae 91 c4 3c 0f 6d cb 3c
       0.14963317 -0.08126692 0.023995247 0.024832277
000130 e9 10 66 bd c1 90 cc 3d 1c 8f ec bc dd b1 db 3c
       -0.05616847 0.09988547 -0.028876834 0.02681821
000140 65 8d f6 bd 98 a3 62 bd b0 2f 90 bc e6 81 e1 bd
       -0.120386876 -0.055331796 -0.017600864 -0.11011104
000150 18 47 2d 3d 2b c4 8f bb f2 75 87 bd ed 66 40 bd
       0.04230413 -0.0043873987 -0.06614293 -0.046973158
000160 a7 b5 24 3d 77 5b 01 bd 46 7d a1 bc 5d e2 91 bd
       0.0402123 -0.03158137 -0.019713055 -0.071232535
000170 b0 43 0c bd 9d 9e 55 3d ca b3 b6 3d f6 77 b4 bd
       -0.03424424 0.05215322 0.08921011 -0.08811943
000180 54 25 04 be 01 02 41 3c 87 c9 f0 3d e8 08 41 3d
       -0.12904865 0.011780263 0.11757188 0.047127634
000190 35 c6 99 3d 2b 17 6d bb d3 dc 10 3d e1 8a b1 3d
       0.07508508 -0.003617714 0.035366844 0.08669067
0001a0 6f 7f c0 bc 34 84 3f 3d 05 e9 59 ba da ef 32 3d
       -0.023498265 0.046756938 -0.00083126157 0.04368577
0001b0 a0 f3 6e ba 2d 6d 2b 3d bd 30 62 bc 4f 45 bb bb
       -0.00091152824 0.041852165 -0.013805565 -0.0057150493
0001c0 f7 b7 8b 3d 0b f4 ab 3d d4 ae f9 3d 3d d9 99 3d
       0.06822198 0.08396157 0.12191549 0.07512138
0001d0 cf 7e ac 3d fe e3 2e bc 5c 70 95 bb 00 53 82 3d
       0.08422624 -0.010674475 -0.0045605134 0.06363487
0001e0 71 4f 9f 3d f5 af 6f bd 83 32 d4 bd fc c5 d5 3d
       0.07778824 -0.058517415 -0.10361197 0.10438153
0001f0 75 35 0a 3e 19 e2 7c bd fc 7b 80 bb 4b be b2 3d
       0.13496955 -0.06173906 -0.00392103 0.08727702
000200 f2 b2 16 bd 77 6f f2 3c 0f 55 ef bc 73 12 1e 3d
       -0.03679175 0.029594166 -0.029215364 0.038591813
000210 6b b2 30 3c 44 f5 81 3b f1 ab f9 bd 14 00 1f bd
       0.010784726 0.0039660055 -0.12190998 -0.038818434
000220 4f b9 c5 bd 7d 6c 1d 3c dd ad 20 3d 79 35 43 bd
       -0.096544854 0.009608385 0.03922831 -0.047658417
000230 91 c3 22 bc 28 49 b8 bc 83 8c d3 bc ce c9 cb bd
       -0.009934322 -0.022495821 -0.025823837 -0.099506006
000240 bb 08 aa bd 18 d4 57 bb 1b d8 7f bc 0e 57 b2 3d
       -0.083024465 -0.0032932814 -0.015615488 0.087080106
000250 fe 41 a5 bd 4e 3d 58 3b 14 1e 5e be 59 20 9e bd
       -0.08069228 0.0032995525 -0.21691161 -0.077210136
000260 7f ac 8f bd 10 c3 1f 3e 67 ae 98 3d 2f cd 2a be
       -0.07015323 0.15601754 0.074551396 -0.16679834
000270 83 c7 23 3e 2d 19 41 bd b3 d4 52 3d 19 95 89 bc
       0.15994076 -0.04714315 0.051472377 -0.016794728
000280 bb c0 6a bd 06 19 bb 3d 6a 2c 6f bd 86 22 a3 3d
       -0.05731271 0.09135632 -0.058391966 0.07965569
000290 09 7d b9 ba 18 a7 ae 37 11 fd fc 3d 95 71 82 bc
       -0.0014151643 2.0820225e-05 0.12352956 -0.0159233
0002a0 c3 49 7b 3d 53 37 0a bd 52 3b 37 3c dc cb 9f bd
       0.06134964 -0.033744168 0.011183577 -0.07802555
0002b0 e0 5a ed bb f5 dc 03 bd da 18 87 3d 31 4c 06 3e
       -0.007243499 -0.032193143 0.06596537 0.13115002
0002c0 b3 82 8c bd 81 ca 37 bd f7 81 a2 bd 94 2b 12 bd
       -0.068608664 -0.044870857 -0.07934945 -0.03568609
0002d0 b1 4c a6 bd cb 5b 67 3e 4e ca d2 3c 7d eb f6 3d
       -0.081200965 0.2259361 0.025731232 0.120566346
0002e0 7a 4e 81 3d 04 9a 80 bd 13 56 b1 3d b5 98 14 be
       0.06313796 -0.06279376 0.086589955 -0.14511378
0002f0 3d ad 4f be 0a 19 c1 3b fb 55 85 bc 1a 7c 7d 3d
       -0.20280929 0.0058928775 -0.01627635 0.06188593
000300 88 f5 88 bd 9d a2 36 3d 6c 14 74 3d 8f fd 02 be
       -0.06687456 0.044588674 0.05958979 -0.12792037
000310 e4 6f 6c bc 75 b2 bb 3d e4 3b cf 3c 99 d2 04 3d
       -0.014430974 0.09164897 0.025297113 0.032427404
000320 5a d9 05 3e 7f 84 15 3d db ca 16 bd c3 17 7a bd
       0.13071194 0.03650331 -0.03681455 -0.061057817
000330 39 51 d5 3a f6 84 63 3d 3e 7d 80 bd 76 80 fd 3c
       0.0016274817 0.055546723 -0.06273888 0.030945044
000340 36 cb 1e 3b bc 8c 10 3d a3 ec 87 3e 41 b9 2d bc
       0.002423001 0.035290465 0.26547727 -0.01060325
000350 80 9d 82 3d 20 17 9f 3d 61 da 8c bd db d5 9c bd
       0.06377697 0.077680826 -0.0687759 -0.07657977
000360 6a ba c3 3d c2 3c 85 bc 2c 2f 19 bc ec 81 23 3d
       0.0955704 -0.016264323 -0.009349626 0.039918825
000370 05 d1 f6 3c 12 a2 f9 bd 74 7c 30 bd 1e ce bc 3d
       0.030128965 -0.121891156 -0.043087438 0.09219001
000380 c3 00 69 be 4b 50 ca 3d 3b 58 d9 3d 56 ca 4d bd
       -0.22754197 0.09878596 0.10612532 -0.05024179
000390 53 7b d6 3d a6 16 b2 3d be 4d 03 bd 87 2b 4c bd
       0.10472741 0.08695726 -0.032056563 -0.0498462
0003a0 6a 5c 2f bd 52 f7 02 bc c8 07 2d bd a2 d3 67 bd
       -0.042812742 -0.007993536 -0.04224375 -0.056598313
0003b0 26 cb 80 bb 1f 6d f7 bc 15 10 95 bd 31 04 8b 3d
       -0.003930467 -0.0302034 -0.07278458 0.06787909
0003c0 af 76 8c bd a2 d2 ba bd 08 e4 9f 3d c2 c1 1c 3d
       -0.068585746 -0.09122206 0.078071654 0.03827072
0003d0 13 52 26 3d f4 74 a8 3c 9b 01 42 3c b5 fe ce bc
       0.040605616 0.02056358 0.011841203 -0.025267938
0003e0 94 0d d3 3b be 2b 84 3d ef e4 58 3d 56 e4 0f bb
       0.0064408276 0.06453656 0.052952703 -0.0021956167
0003f0 d0 59 95 bd ce cc 29 bd f6 23 8d 3d a2 e8 75 3e
       -0.07292521 -0.041455083 0.06891625 0.24014524

layers.1.bias f4 [128]
000000 42 68 33 3e 4c 70 ed bd 23 a7 13 3c 10 16 d3 bd
       0.1752024 -0.115936846 0.0090120165 -0.103069425
000010 45 79 2a 3d e3 7a 1e 3d b0 8c 0b be 5e 43 9a ba
       0.041619558 0.038691413 -0.13627887 -0.0011769345
000020 5f f7 87 3d 42 21 7c bd 0f 11 1e be 50 3b 41 3c
       0.06638979 -0.061555155 -0.15436195 0.011793926
000030 d9 d9 9a 3d a9 fc a0 be e7 be 4d be b0 3a 03 3e
       0.075610824 -0.31442764 -0.20092355 0.12815356
000040 6c c4 c3 3d 9a 40 83 bd 64 cb 06 be c3 0d 13 be
       0.09558949 -0.06408806 -0.13163525 -0.14360718
000050 47 5d 1b be 36 d4 1b 3e da f7 a9 3d 0b e7 44 be
       -0.15172301 0.15217671 0.08299227 -0.19228761
000060 e4 13 a1 3d ec 67 da 3d f9 77 98 bc ef 89 a3 3d
       0.07865122 0.10664353 -0.018611895 0.07985293
000070 3c d4 9c 3d 61 42 15 bd 2c c4 bd 3d a6 c3 c7 3d
       0.07657668 -0.036440257 0.092659324 0.09754114
000080 af be 63 bd 01 d1 8c be 82 23 f6 3d 03 aa 2a 3e
       -0.055601772 -0.27503207 0.12018491 0.16666417
000090 8b 55 02 3d 7c 6b 0b be 2e b4 51 3e 07 c4 d1 bc
       0.03181986 -0.13615221 0.2047889 -0.025606168
0000a0 f7 f0 63 bc d7 7e f9 bd ff 69 62 3d f8 dc 82 bd
       -0.013912431 -0.12182396 0.055276867 -0.06389803
0000b0 7c 23 b7 3d c6 43 66 3d ed a3 0d 3e 7c 04 04 3e
       0.08942315 0.056216978 0.13832064 0.12892336
0000c0 06 e4 17 3e cc 0c d5 3d cf 14 03 bc 2b 7f e9 bd
       0.14833078 0.104028314 -0.008000567 -0.114012085
0000d0 09 bb 40 be 52 de 30 3d f6 50 a2 3d 87 0d b4 bc
       -0.18821348 0.04318077 0.07925598 -0.021979107
0000e0 2b de ae 3d 16 d8 03 bd f8 ac 13 bd 47 40 2a 3d
       0.08538469 -0.032188497 -0.036053628 0.041565206
0000f0 cb bc 01 be db 1c 5c bd 76 9f 69 bd 5a ba 57 3d
       -0.12669675 -0.053738456 -0.05703684 0.052667953
000100 38 89 3f 3e c1 15 b3 3d c5 6e 57 be 43 32 33 3d
       0.18704689 0.087443836 -0.21038349 0.043749105
000110 e3 4e da 3d 37 5a 0b be d9 ea db 3c ef a2 16 3e
       0.10659578 -0.13608633 0.026845383 0.14710592
000120 81 2c e4 3c 8b 71 14 3d 35 e2 a0 bd 76 3f 25 3d
       0.027853252 0.036241096 -0.078556456 0.040343724
000130 05 54 af 3d ba 7e 6a 3d 58 0c 6f 3d a8 e4 94 bd
       0.08560947 0.057249762 0.05836138 -0.07270175
000140 8e 4a 80 3c 7d 10 c6 3d ce 39 7f 3d cc 9e 1f be
       0.01566055 0.09671114 0.062310986 -0.1558792
000150 b3 56 8e bd d0 25 ed bd 63 fb 42 bd 69 36 c9 bd
       -0.0695013 -0.11579478 -0.047603022 -0.09824831
000160 64 3d 3e 3d d4 cb 97 3c 86 68 a4 3d 9c 42 8a 3d
       0.046445265 0.01852981 0.08027749 0.06750986
000170 17 9d 4c 3d 69 bb d9 bc 1c 08 4a 3e 7a 9e d2 bd
       0.0499545 -0.026578622 0.19729656 -0.10284133
000180 31 8f 80 3e cd 4b 94 bd 9c 45 87 be 03 99 6c be
       0.25109246 -0.0724102 -0.26420295 -0.23105244
000190 5c 00 2a bc 3b c6 12 be 8d 1d 46 bb 12 67 bf bd
       -0.010376062 -0.14333431 -0.0030230016 -0.09345831
0001a0 cd 3d e8 3d 96 35 87 3d fb cc 3a 3c 1f 55 5f 3e
       0.113399126 0.066020176 0.01140141 0.21809815
0001b0 37 41 19 be ea 79 06 3e 13 29 ca 3c f2 86 d5 bd
       -0.14966284 0.13132444 0.024677789 -0.104261294
0001c0 64 80 f3 bd b7 14 5c bd aa 46 a8 bd fe 4d 03 be
       -0.11889723 -0.053730693 -0.08216603 -0.1282272
0001d0 69 18 12 be 94 ff 7a bd fb b5 fb 3d 8d c4 9b 3d
       -0.14267124 -0.061278895 0.122905694 0.076058485
0001e0 e8 33 bb bc 74 19 d8 bd 95 0c ef 3d 20 90 d6 3c
       -0.0228519 -0.1055173 0.11672322 0.026191771
0001f0 41 fc 0e be c4 9a 29 3c 69 c3 53 3e a0 96 3e be
       -0.13963415 0.01035184 0.20680012 -0.18612146

layers.2.weight f4 [64, 128]
000000 ea 37 d7 bd 9e 3c 99 bd 27 0d 34 be 43 ef c1 3c
       -0.10508712 -0.07482265 -0.17583142 0.02367366
000010 e2 83 19 3e 73 bd 10 3b 06 ec 83 bd fa 3e 0c bd
       0.14991716 0.0022085577 -0.06441502 -0.034239747
000020 f9 87 79 3c 12 81 43 3d 98 f5 1b bd de fb bb bd
       0.015230172 0.047730513 -0.038076013 -0.09178899
000030 a0 3e 86 3e 14 ef b0 3d d6 cc 08 3e 2a 3a 11 3b
       0.26219654 0.086393505 0.13359389 0.0022159913
000040 84 da aa bd 06 ee e3 bd 7e 57 8b 3c 39 f5 ac bd
       -0.0834246 -0.11129384 0.017009493 -0.0844521
000050 f8 a4 e0 3c 80 66 ad bd 7e ef f8 bd 4f a2 8a be
       0.027422413 -0.08466816 -0.121550545 -0.27076957
000060 a3 bb 65 3e 06 2b 9c bb 37 e8 7f bd 20 05 10 bc
       0.22434859 -0.004765871 -0.062477317 -0.008790284
000070 4d 92 58 be 44 84 c6 3d 42 d2 19 be 7b 2a 28 3d
       -0.2114956 0.096931964 -0.15021613 0.041056138
000080 f0 59 cf 3a 75 83 18 3e 82 88 35 be 14 e6 99 be
       0.001581965 0.14893897 -0.17727855 -0.30058348
000090 3b 95 b5 3e eb a7 0b be dd 23 a2 3d e5 55 47 3d
       0.35465416 -0.13638274 0.07916997 0.0486659
0000a0 e1 3c f7 3d 7c b5 50 3d d2 ae bc 3c 99 ee 56 3d
       0.120721586 0.050954327 0.02303258 0.05247364
0000b0 05 e6 6e be b4 50 eb bd 92 ec 6e 3d 7e 51 81 be
       -0.23329933 -0.11490002 0.05833108 -0.25257486
0000c0 76 f5 46 3d 32 0e 51 bd d0 27 20 bd b4 5a 69 3d
       0.048573934 -0.05103893 -0.03910047 0.056971267
0000d0 c1 f4 50 bd fb 16 24 be a8 e2 76 bd 1f 38 9a 3d
       -0.051014666 -0.16024391 -0.06027475 0.075302355
0000e0 22 b6 0a be b0 80 fd 3c 38 aa 5d bd a7 82 30 be
       -0.1354604 0.030945152 -0.05411741 -0.1723734
0000f0 be 00 e7 bd 7f 0f ce bd cc 2e fb 3d 88 d6 dd 3d
       -0.112794384 -0.100615494 0.12264785 0.10831934
000100 34 b8 10 3e 8d 50 f0 bd c8 fb b9 3d df 43 43 bb
       0.14132768 -0.11734114 0.090812266 -0.0029795093
000110 16 fa c6 3c a4 db 07 3d 00 53 e1 3d 6d a2 b1 bd
       0.024289172 0.03316845 0.11002159 -0.086735584
000120 4c 0e 08 bd ef cb 09 be ea 7c 78 bd 93 ae 68 bd
       -0.03321676 -0.134567 -0.060666002 -0.056807112
000130 95 ce b0 bd a0 c5 43 3c e8 96 3c 3e 54 0c be bd
       -0.086331524 0.011948973 0.18416941 -0.09279695
000140 8f 7c a7 bc 8a 16 e1 bc cb 54 d4 3b 81 17 2c be
       -0.020445136 -0.027476568 0.0064798347 -0.16805841
000150 58 1a c7 bc 48 1a a9 bd 34 37 27 bb 5c 44 49 bd
       -0.024304554 -0.08256966 -0.0025515081 -0.04913746
000160 c9 bf 01 3e fe 7f 23 bc 55 b3 27 3c 22 af a4 bd
       0.12670816 -0.009979246 0.010235627 -0.080412164
000170 3f a1 d7 3c 0b 6d fa 3d b8 d1 f4 3d 89 ac b6 3c
       0.026322005 0.122278295 0.11954063 0.022299068
000180 a6 d0 90 be b7 b6 84 be fb 8c 36 3d 88 9c 0f 3e
       -0.28284186 -0.2592065 0.044568043 0.14024556
000190 7f 3c d7 3d 6b 07 d3 bd 92 15 fc bd 4d 07 2e 3e
       0.105095856 -0.10304149 -0.12308802 0.16994973
0001a0 6c 71 ee bd 7c dd f7 ba e6 74 dd 3c cb 7d 97 3d
       -0.11642727 -0.0018910612 0.02703328 0.0739704
0001b0 9f e3 3a bc 1e eb bc bd 43 37 9f bd 68 e2 4d 3e
       -0.011406808 -0.092245325 -0.07774212 0.20105898
0001c0 26 fa 24 bd da 30 a9 3d 8b e1 d0 bc 44 20 09 3e
       -0.040277623 0.08261271 -0.025498172 0.13391215
0001d0 0a d0 87 3d aa 58 3f 3e 7a c7 ef bd 42 b7 d8 3d
       0.06631477 0.18686166 -0.11707969 0.10581829
0001e0 a7 98 0a 3e 02 10 c2 3d c6 6e f8 3d 67 d5 8a 3d
       0.13534795 0.094757095 0.12130503 0.067789845
0001f0 a5 e3 03 be 62 34 91 bd 9e b0 ed bc bc 8c de 3d
       -0.12879808 -0.07090069 -0.029014882 0.10866687
000200 12 86 12 be 4a 7b 55 3d 46 26 07 3c 73 06 00 3e
       -0.14308956 0.05211953 0.008248871 0.1250246
000210 ce 78 8e 3d f4 a2 ee bd 8c 6f 14 bd a4 9e f0 bd
       0.069566354 -0.116521746 -0.036239192 -0.11749008
000220 a0 8a 96 bc 23 b3 3a bd 15 c5 36 bd 6f c5 41 bc
       -0.018376648 -0.045580994 -0.044621546 -0.011826857
000230 26 c7 ca 3d b1 bf ca 3d 13 48 82 3d 59 c4 b0 3c
       0.09901266 0.098998435 0.06361403 0.021578
000240 a4 df 04 3e 0d 55 fb 3c 91 3a 88 bd 24 29 3b bd
       0.12975937 0.030680204 -0.06651796 -0.04569353
000250 09 6e e0 bc 7d f7 fd 3d e1 80 be bd 67 af d0 bd
       -0.027396219 0.1240072 -0.093019255 -0.10189705
000260 82 ff 0c 3e a5 49 d1 3c 11 ca c6 bc b3 55 09 bd
       0.13769343 0.025547812 -0.024266275 -0.033528995
000270 a0 31 40 3d 7b 07 f7 bd 0e 95 c7 bd 84 b1 34 3e
       0.046922326 -0.12061974 -0.09745227 0.17645842
000280 28 2f da bc 74 ff 03 3e 0f b5 99 3c 62 e8 8b bd
       -0.026633814 0.12890416 0.018763093 -0.06831433
000290 d2 48 08 bd 5e 7c ee 3d 9a 8e a1 bc ca b6 b5 3d
       -0.03327257 0.11644815 -0.019721318 0.08872755
0002a0 78 11 24 3d 3a c0 e7 bd 07 93 1f be 97 3d 0e 3d
       0.040055722 -0.11315961 -0.1558343 0.034726705
0002b0 1b 9e 38 bd 28 fa 2c be 83 3e 82 bc 27 b2 13 bc
       -0.045072656 -0.16892302 -0.015898949 -0.009014643
0002c0 db b2 96 3c 3f cb e0 3b 94 e9 a3 3c f3 a1 9c bc
       0.018395832 0.0068601663 0.02000884 -0.019120192
0002d0 8c 77 71 3d a4 de 89 bd 08 9c c7 bd 94 fd 89 3c
       0.0589519 -0.067319185 -0.097465575 0.016844548
0002e0 01 49 21 be 7e 30 c1 3d 71 98 dd bd d9 f1 5d bd
       -0.15750505 0.09433077 -0.108200915 -0.054185722
0002f0 cd 5c 4b bd 11 ec e9 ba 88 56 3d bd 15 57 66 bd
       -0.04964905 -0.0017846843 -0.0462251 -0.05623539
000300 40 07 69 3c cb 45 60 bd 10 02 b0 3c a0 0f 29 bd
       0.01422292 -0.05475406 0.021485358 -0.041274667
000310 61 0e ee bc 0c dc e5 3c d5 22 2c 3c 90 67 5f bc
       -0.02905959 0.028059028 0.0105063515 -0.013635531
000320 1b f2 29 3d df 57 e7 3c 0c aa be bc 0e c4 73 bd
       0.041490655 0.028240142 -0.023274444 -0.059513144
000330 17 30 37 bd 58 1c 17 be 11 c0 40 3d 67 01 c6 3d
       -0.044723596 -0.14756906 0.04705817 0.09668236
000340 ea 3d 14 3d 02 6b 7b 3d a8 32 c6 b9 ff df a2 bd
       0.03619186 0.061381347 -0.00037803245 -0.0795288
000350 22 a4 50 bc 3a 0a 71 3d 78 16 8d 3d e5 91 e0 bd
       -0.012734445 0.058847643 0.06889051 -0.10965327
000360 4a 0d e9 3c d3 e3 26 bd f5 b0 46 3d 17 26 92 bd
       0.02844872 -0.040744614 0.048508603 -0.07136171
000370 ae b1 22 bd 2a ae 85 bd cb 92 9f 3d 46 28 a9 3d
       -0.03972023 -0.0652736 0.077916704 0.08259635
000380 c1 da 62 bd 74 01 4f 3d d7 f1 33 3e 29 0d 22 bd
       -0.0553844 0.050538495 0.17572723 -0.03956333
000390 60 7b 4a 3d b2 fb 79 3d 41 aa ba bd 3c d3 bb 3d
       0.049434066 0.06103105 -0.091145046 0.09171149
0003a0 5c b8 86 3c a3 16 3b bc a8 de 45 bc 16 f1 be 3d
       0.016445331 -0.011418971 -0.012077011 0.09323327
0003b0 10 47 8f 3d 4c 06 3a bc 01 89 76 3c d8 28 e7 bc
       0.06995976 -0.01135404 0.015047313 -0.028217718
0003c0 44 0b 23 be ce 15 87 3d 49 d6 9c 3c 62 6e e0 3c
       -0.15922266 0.06595956 0.019145148 0.027396385
0003d0 38 c5 ab 3d 66 1e 5d bd 27 10 e8 bd ae c6 db bd
       0.08387226 -0.05398407 -0.11331206 -0.107312545
0003e0 d0 28 a9 3c 6b db c7 3d 49 01 67 3d 6f ab 5a 3d
       0.020649344 0.097586475 0.05639771 0.053386148
0003f0 13 a3 8b bd 18 51 38 3d 3f 01 4e 3d 7a ce a5 bd
       -0.06818213 0.044999212 0.050294157 -0.08096023

layers.2.bias f4 [64]
000000 94 62 c0 bc 95 eb 8d bd 72 3c c9 3c 1c 44 2a be
       -0.023484506 -0.06929699 0.024564955 -0.16627544
000010 5a 07 13 3b 2e e2 0d bd 24 fd 92 bd 1a 0f c6 bd
       0.0022434802 -0.03463953 -0.07177189 -0.09670849
000020 e6 2c 5c 3e 49 59 8b bd d6 67 18 bd 8a 3b f3 3d
       0.21501502 -0.06804139 -0.0372084 0.118765905
000030 4b cd 34 3e 01 ee 31 be 4c 30 e2 bc 92 04 9b bb
       0.17656438 -0.17375948 -0.02761092 -0.0047307694
000040 08 7f da 3d 18 4c c9 bc 20 b6 cb 3d f2 53 de 3d
       0.106687605 -0.024572417 0.09946847 0.10855855
000050 67 25 27 bc 97 1c 9e 3d 68 dd c2 3d 76 17 39 3d
       -0.0102017885 0.07720297 0.09514886 0.04518839
000060 65 89 d3 bd 10 8e 6a bd e6 68 96 3c c4 9e 77 3d
       -0.1032894 -0.057264388 0.018360566 0.060454145
000070 87 09 3d 3e 59 aa 3c 3d 9e cd 0a 3e 1f fa 0e be
       0.18460666 0.046060894 0.13554999 -0.13962601
000080 8b 32 30 bd 68 18 d6 bd 30 d9 31 bd e2 bb 3c be
       -0.04301695 -0.10453874 -0.043420017 -0.18431047
000090 e7 39 db bd 73 ae b7 3d 67 22 94 bc 78 5a 37 be
       -0.10704403 0.089688204 -0.01808281 -0.17905605
0000a0 40 ed 3c 3e 88 85 62 3d da 87 10 3d 88 49 95 3c
       0.18449879 0.055303127 0.03528581 0.018223539
0000b0 9e 0c 6f 3d e6 d1 a2 bc 14 3f 36 3d bb 97 92 bd
       0.058361642 -0.019875478 0.04449375 -0.071578465
0000c0 30 ed c8 3a f0 b4 38 3e 4b a3 21 bd 22 f1 c4 bd
       0.0015329476 0.18037772 -0.03946237 -0.09616305
0000d0 5f 92 b1 bd ff 16 14 3d 6c 7e f3 bd fa 1e 55 3d
       -0.08670496 0.036154743 -0.118893474 0.052031495
0000e0 8c 6b d9 bd 6f 97 f8 bc d5 82 12 bd 61 d7 f8 3d
       -0.10616216 -0.030345647 -0.035769302 0.12150455
0000f0 ac 9a ea 3d 7b 74 12 3b d1 a5 b8 bd 6c 03 74 bc
       0.114552826 0.002234726 -0.09016002 -0.014893394

readout.weight f4 [1, 64]
000000 e8 fc 5f be 38 4c 90 be 72 2f 27 be 4c 80 95 be
       -0.2187382 -0.2818315 -0.16326693 -0.29199445
000010 5a 3f 9b be 6a 67 9c 3e 48 e6 2a be 7b c0 9b 3e
       -0.3032177 0.3054765 -0.16689408 0.30420288
000020 fc 1f 8e 3e ef 20 72 3e 19 12 cf 3e de 89 c0 be
       0.27758777 0.23645376 0.40443495 -0.37605184
000030 44 d9 7e 3e 62 ed 83 be 6d 47 8f 3e 1a d5 4f 3e
       0.24887568 -0.25767046 0.2798418 0.20296136
000040 d0 7c 9d be c7 0c 84 be 81 ae 39 be 89 38 86 3e
       -0.30759287 -0.25790998 -0.18132974 0.26215008
000050 73 9b 6b be 89 77 98 3e 25 7c 2b 3e 50 05 54 be
       -0.23008518 0.29778698 0.16746576 -0.20705152
000060 f6 72 bb be 5c 3d 6a be 64 78 6e 3e 24 66 82 be
       -0.36611146 -0.22874969 0.23288113 -0.25468552
000070 76 4c ad 3e dd fe 88 be ea 7b 85 3e 6b 0e b2 be
       0.33847398 -0.26756945 0.260711 -0.34776625
000080 09 2f 28 3e 00 84 b5 be 56 d6 a2 3e 42 13 a2 be
       0.16424192 -0.3545227 0.3180415 -0.31655318
000090 b1 38 bc be 1b a4 96 be ae ed 9c be 8d fd ca be
       -0.36762002 -0.29422078 -0.30650085 -0.3964657
0000a0 12 81 ab 3e ed 64 7e be d9 c6 94 be 14 75 a1 be
       0.3349691 -0.24843188 -0.2905796 -0.31534636
0000b0 a1 95 b7 be 61 3e a9 3e 3a 62 b6 3e b2 87 93 3e
       -0.35856345 0.33055404 0.35621816 0.28814465
0000c0 1d 7e 8d be 95 77 87 3e 08 0e 89 be eb 11 93 3e
       -0.2763528 0.2645842 -0.26768517 0.28724608
0000d0 54 77 c9 3e 8a 35 ac be 1a df aa be 16 e0 91 3e
       0.39348853 -0.33634597 -0.33373338 0.28491277
0000e0 91 49 f6 be 7f 7a 7c 3e 46 33 c1 3e 81 03 76 be
       -0.48103002 0.24656104 0.3773443 -0.24024774
0000f0 e4 94 a3 be 38 27 65 be fb 45 72 3e a7 29 63 be
       -0.31949532 -0.22378242 0.23659508 -0.22183858

layers.0.weight f4 [128, 17]
000000 f1 89 9e bd cc 20 f9 3e 8b bd e9 3e f7 2e 09 3e
       -0.07741154 0.48657835 0.45652422 0.13396822
000010 68 7a 83 3e 76 da 82 be 11 76 52 be e4 5c 13 3d
       0.25679326 -0.25557297 -0.20552851 0.03597726
000020 e2 f9 b7 3e 58 3d d8 bd 35 dc 86 3c 62 f7 8d 3a
       0.35932833 -0.105585754 0.016462425 0.0010831172
000030 b0 49 1e 3e 19 45 1a 3e ba 5e b0 bc aa 4f 2a bd
       0.15457797 0.15065421 -0.021529544 -0.04157988
000040 e1 71 ac bd d5 82 c0 bd 99 69 96 3e 8a 6c 25 3e
       -0.08420158 -0.09399954 0.2937744 0.16154686
000050 50 28 a1 be 21 b7 a1 bc ac 11 f0 be 49 f0 a9 be
       -0.31476068 -0.019740643 -0.46888483 -0.33191136
000060 40 cc 71 be 7a 31 3b be 4e 6c 26 3e 56 e5 8e bc
       -0.23613071 -0.18280593 0.16252252 -0.01744334
000070 1b a2 e3 bc c8 e0 3b 3e 47 72 19 be 8e 66 02 be
       -0.027787259 0.18347466 -0.14985 -0.12734434
000080 09 e3 42 be ba 98 9c bd 71 0b 79 3d 34 49 42 3e
       -0.1903192 -0.07646318 0.060801927 0.18973237
000090 bb 9c 0a 3f 1e 13 ad bd 3b 7d f6 be 23 e1 29 3e
       0.541454 -0.08450912 -0.48142418 0.16589789
0000a0 3c 0d 04 be 78 e4 a1 3e 88 66 24 be 8a 5c a4 3e
       -0.12895674 0.3161962 -0.16054738 0.32101852
0000b0 b7 42 d6 bd 85 ed db 3d ee 80 88 be 93 8e 01 bd
       -0.104619436 0.10738663 -0.26660866 -0.03163011
0000c0 36 89 ec 3d 87 ef 43 3d fb 02 8b 3d 88 a9 aa 3e
       0.115496084 0.047835853 0.06787678 0.33332467
0000d0 51 1d 88 3e 89 0d f3 3e dc fa 37 be 1a 4f 02 3e
       0.26584867 0.47471264 -0.17966789 0.12725487
0000e0 b9 64 36 3e 74 73 8f bb 83 30 a0 be 0e 7b ec 3e
       0.1781186 -0.0043777768 -0.31287012 0.46187633
0000f0 ea 60 b7 3e 7b 71 6c 3e 9a dc 8d bb a2 e4 bd be
       0.35816127 0.23090164 -0.0043292763 -0.37088495
000100 ad 0e 91 3c 97 4a 00 bb c7 f6 35 be 68 0e 5a bc
       0.017707193 -0.001957571 -0.1776992 -0.013309099
000110 fa 91 24 bf 8f 0d f0 be 88 a4 93 bd e4 1a 4a 3d
       -0.6428524 -0.46885344 -0.07209116 0.04934205
000120 73 ec 6d 3e f0 6a 22 be 08 64 f4 be 76 41 b1 be
       0.2323473 -0.15861106 -0.47732568 -0.34620255
000130 fe 82 ba bc 46 0e 1a be 49 b5 31 bd 4a c9 f7 3d
       -0.02276754 -0.15044507 -0.043385778 0.1209894
000140 b7 30 3e bc 00 16 a8 bd 52 9a c5 be 73 79 81 be
       -0.011608294 -0.08207321 -0.385943 -0.2528797
000150 12 1d 5a bd 9f 89 ad be b8 a9 d7 3e 3f 3b e3 bd
       -0.05325038 -0.3389406 0.42121673 -0.11095285
000160 85 16 2c 3f 90 09 59 3d 68 4d ce 3c 9b 94 82 be
       0.6722186 0.052987635 0.025183395 -0.25504002
000170 ac 52 3d be 16 be 81 3e 0b 7d 2b be 20 45 1c 3c
       -0.18488568 0.25340337 -0.16746919 0.009537965
000180 4e 35 54 bd 50 82 9f bd fa 00 de 3c 1f 3b e1 3d
       -0.051808648 -0.07788527 0.027100075 0.109976046
000190 ff 73 05 3d a0 f5 ed bd 2b 5d 40 be 13 83 8c 3e
       0.032581326 -0.11619115 -0.18785541 0.27443752
0001a0 fc e3 05 bf d9 05 51 3e 3f 44 5f 3e 16 37 f7 bb
       -0.52301 0.20412387 0.21803378 -0.0075444086
0001b0 40 d9 90 3c a5 e7 84 be 6f a2 b5 be 21 14 a8 3e
       0.017681718 -0.2595798 -0.3547549 0.32827857
0001c0 09 9a 4d 3e 05 cf 6c bd 6c db e0 3d 2a 99 da bc
       0.20078291 -0.057814617 0.109793514 -0.026684362
0001d0 ea 50 51 be 7c 13 7f 3b c8 b0 bb 3b 94 82 51 3f
       -0.20441023 0.0038921526 0.005727861 0.8183987
0001e0 fb 50 5f be 63 81 0e 3f 61 02 ab 3e bb 2c d3 3e
       -0.21808235 0.5566618 0.33400252 0.41245064
0001f0 5e d1 20 3f 02 67 fe 3e 42 4c cf bd d2 ad 08 bf
       0.6281947 0.49687964 -0.10121967 -0.5339023
000200 ad 39 a1 bd 61 a5 86 3e 69 2c 0e be 5f 20 41 bc
       -0.07872329 0.2629805 -0.13884129 -0.011787503
000210 f6 c6 88 bc 33 34 98 3c 51 75 01 3d a0 b0 cc 3c
       -0.016696434 0.018579578 0.031606022 0.024986565
000220 0b dc c2 be 90 c0 3e 3f 9d 39 32 3f df 54 9f bd
       -0.38058504 0.7451258 0.6961916 -0.0777986
000230 74 d9 7a bd 4b 01 f3 3e b5 98 de bd 81 d9 f3 3d
       -0.061242536 0.47461924 -0.1086897 0.1190672
000240 5a 96 6a be d5 61 8a 3d 87 5c b6 3c ba 46 76 be
       -0.22908917 0.06756941 0.022260917 -0.24050418
000250 71 36 12 bd b5 94 3e be 81 81 84 be de 8b 1a 3d
       -0.03569645 -0.18611415 -0.25880054 0.037731044
000260 cd b5 a0 3c 7d d8 b4 be 55 3a 1c 3c 02 4d 1b 3f
       0.01961794 -0.35321417 0.009535392 0.6066438
000270 21 0b 11 3f f0 a2 f9 3d 99 97 cb be 66 d1 51 be
       0.56657606 0.12189281 -0.39764097 -0.20490035
000280 6b 01 84 be 4b d2 fc be 94 aa b8 3e 4d 06 a3 3e
       -0.25782332 -0.4937919 0.3606764 0.31840745
000290 f5 65 9a bc ce 2e f3 3c 16 b3 5c be 60 38 bb be
       -0.018847445 0.029685404 -0.21552691 -0.36566448
0002a0 2f 65 a3 bd 7f 97 4f 3d 8f cc 31 bd 5c e4 cf 3d
       -0.079782836 0.050681587 -0.043407973 0.10150978
0002b0 60 70 4b 3f d6 95 fc be d6 ae 6a 3e d0 29 db 3e
       0.79468346 -0.49333066 0.22918257 0.42805338
0002c0 14 80 f5 3e c2 4a e0 3b 12 cb 0f bf 85 73 92 be
       0.47949278 0.0068448493 -0.56169236 -0.2860376
0002d0 91 93 6e be 5f 8c 1f bd 45 f3 81 3d ba 28 54 be
       -0.2329848 -0.038952228 0.06345228 -0.20718661
0002e0 05 da 35 bd 1e 05 a5 bc 43 ca 64 3c b1 1b 95 bd
       -0.044397373 -0.020144042 0.013964239 -0.07280672
0002f0 37 e6 7d be e2 dd 07 bf fd 32 8b 3c b8 a4 07 3c
       -0.24794851 -0.5307294 0.016992087 0.008279018
000300 99 0f 26 be 02 1a 18 be 84 05 9b bd ad 52 71 3e
       -0.16216888 -0.14853671 -0.075694114 0.23566695
000310 b5 79 9b 3c 21 f9 af 3d e4 b1 fd bd 95 99 3c 3c
       0.018978933 0.085924394 -0.123874456 0.011511226
000320 41 3e 30 3e 2d d7 8d be 95 3a 64 be f8 b0 21 be
       0.17211248 -0.2770323 -0.22287972 -0.15790164
000330 84 f4 9b 3e 1e ab 4f 3c 0e e3 cd be df 78 b6 3e
       0.30459988 0.012675075 -0.4021229 0.35639092
000340 e3 42 82 3e e3 b4 00 3e f9 bf ee 3d 90 af 50 bd
       0.25441656 0.12569003 0.1165771 -0.05094868
000350 9b 2d 6a be 68 3d 8d 3d e9 e5 8a be dd ac a6 bd
       -0.2286896 0.06896478 -0.27128533 -0.0813844
000360 f6 61 1c 3e b8 97 87 3d 05 10 36 be 37 da 1b be
       0.15271744 0.06620735 -0.17779548 -0.15219961
000370 4f b7 ed bd 1d 7e 5a 3e 0b bd f2 be 6d 9d 0a bf
       -0.11607229 0.21337171 -0.47409853 -0.5414646
000380 ef ef 5f bd 18 87 08 3d c4 18 35 3f 57 cd e1 3e
       -0.054672178 0.03333196 0.70740914 0.44101974
000390 ef cc a3 3e e7 82 35 be 9a 99 11 bd 76 c8 4f be
       0.3199229 -0.17725717 -0.035546876 -0.20291314
0003a0 2e 89 fc bb 52 6a 45 3d 5f bf ed 3d 53 31 04 be
       -0.007706783 0.048197098 0.11608767 -0.1290944
0003b0 50 55 c9 bd f3 eb 5a 3d e3 f4 b3 be 73 2a 18 be
       -0.09830725 0.053447675 -0.3514777 -0.14859943
0003c0 e3 91 b0 3c 33 89 f7 3e bb 29 72 3d c5 ab 18 3f
       0.02155394 0.48346862 0.05912183 0.596371
0003d0 cb b4 0c be 11 ad 91 bc 1c fd 0a bb 3f 37 24 bf
       -0.13740842 -0.01778272 -0.0021207994 -0.641468
0003e0 24 e8 eb bd db 84 f0 3d c7 b6 bd 3d ae 84 7d 3e
       -0.11518887 0.1174409 0.09263378 0.24757645
0003f0 81 9e 43 3d 00 2d c5 3a ea 5e 92 3d 49 24 85 be
       0.047758583 0.0015043318 0.0714701 -0.26004246

layers.0.bias f4 [128]
000000 4b ca a0 3e f7 57 74 bd aa 34 c2 be 6c fa 6a 3d
       0.31404337 -0.059654202 -0.37930804 0.057367727
000010 b7 b2 16 3e cf 49 0c 3f d5 47 3f 3e b3 f9 d1 3e
       0.14716612 0.5480012 0.18679745 0.41010818
000020 4f a6 8c be b5 91 3d 3e 7d 76 85 3e 63 c9 e9 be
       -0.27470633 0.18512614 0.26066962 -0.45661458
000030 b4 56 06 3f 4f d5 dd 3e 57 35 fb 3d 0e 0a b6 3e
       0.5247605 0.43326804 0.12266033 0.35554546
000040 41 5a 5b 3e 8a 85 25 3e f5 4a 85 3e 21 a4 ba be
       0.21421148 0.16164222 0.2603375 -0.36453345
000050 ea 95 f6 3e bb 17 3d 3e 7a 03 b9 be 7d 42 7a 3d
       0.4816125 0.18466084 -0.36135465 0.061098564
000060 d7 06 18 be 4a fb 8b 3e 1a 9e 1e 3f 1f db 6f bd
       -0.14846359 0.27340156 0.61959994 -0.05855858
000070 1b 51 8f 3e 1d c7 68 be af 0e bc 3e f3 32 8e bc
       0.27991566 -0.22732206 0.36729953 -0.017358279
000080 cf a7 4c 3e 4b d4 ac 3e 50 e9 d3 3e ca 60 5b be
       0.19985889 0.33755717 0.4138894 -0.21423641
000090 8d 57 fa 3e bd 84 e3 3e dc 75 07 3c a3 5f e1 bd
       0.4889492 0.4443721 0.008267846 -0.110045694
0000a0 77 be 9d 3e 9d 4a a2 3e 0b ff 5c 3e 8a 38 05 3f
       0.30809376 0.3169755 0.21581666 0.52039397
0000b0 d4 34 3b 3e 61 2b 8f 3d d2 69 82 3b a5 72 01 bc
       0.18281871 0.06990696 0.0039799 -0.007900869
0000c0 0d b0 06 3f 6b 29 2e 3e 95 a3 aa 3e 62 4b ff bd
       0.5261238 0.17007987 0.33327928 -0.1246555
0000d0 c9 28 4d 3e 81 4a c8 be fb d8 6d 3e c6 7e 3e 3f
       0.2003509 -0.39119342 0.23227303 0.7441219
0000e0 14 49 06 3f da 54 9e 3e 4a b0 93 3e 64 95 d7 3d
       0.5245526 0.30924112 0.28845435 0.10526541
0000f0 62 26 46 3e c1 35 3a bd 82 11 9a be 20 5c 80 3c
       0.1935058 -0.04546142 -0.30091482 0.015668929
000100 5e e1 8d be 10 0f a5 3e ff e3 e2 3e fa 9d 30 3e
       -0.27711004 0.32238054 0.44314572 0.17247763
000110 83 4d d7 3d d2 b7 c4 3e 15 0e 94 3e d5 84 13 3f
       0.10512831 0.38421494 0.28916994 0.5762456
000120 e9 7f 1d bd 4d aa 3d 3e bf 9a 45 be 97 5c ff 3e
       -0.038452063 0.18521996 -0.19297312 0.49875328
000130 a5 17 00 3f eb 78 a2 3e 0c 4a 10 3e 75 0e 84 3e
       0.5003608 0.31732878 0.14090747 0.2579228
000140 64 54 8a 3e a5 38 9b bc 5c 65 84 3e e7 95 a6 3e
       0.2701751 -0.018947909 0.2585858 0.3253624
000150 7e d5 e7 3e c9 1e df 3d 4d 67 f6 be 8e 0e f2 37
       0.4528007 0.10894544 -0.48125687 2.8855426e-05
000160 eb 43 ba 3e 0d 9a 25 3e 1e c7 02 3f 08 cb 9a bd
       0.36379942 0.16172047 0.5108508 -0.075582564
000170 e6 1d 9b be 5d 46 e3 3e d4 77 2a 3e 27 e6 c9 3e
       -0.30296248 0.4438962 0.16647273 0.39433405
000180 dd 86 c3 3d 05 a7 f9 3d 89 46 04 be 58 e4 6a 3e
       0.095472075 0.121900596 -0.12917532 0.22938669
000190 20 49 19 3e 38 15 cc 3e 32 69 41 3e 0b 1d f3 3e
       0.14969301 0.3985994 0.18887785 0.47483096
0001a0 17 a0 44 3f 29 78 e9 bb 60 7d df 3e 77 af 10 3e
       0.7680678 -0.00712492 0.4365034 0.14129435
0001b0 b2 19 bf 3e 98 8f a5 3d b4 75 0c 3f 8e 5d 0a 3e
       0.3732429 0.08084029 0.548671 0.13512251
0001c0 b6 da 62 be f0 72 27 3e 76 a6 f8 3e 7a 3d a9 3e
       -0.22153744 0.16352439 0.485645 0.33054715
0001d0 8f 03 4d 3f 59 91 80 3d 8c 65 16 3e 05 83 2a 3e
       0.80083555 0.06277723 0.14687175 0.16651542
0001e0 79 21 c7 3d 46 7d 4b 3f a7 1e 64 3c c3 44 4c 3f
       0.09723181 0.7948803 0.013923324 0.7979242
0001f0 e8 57 8d 3e 02 2f 04 3e 08 b3 15 3e 46 65 9a be
       0.2760613 0.12908557 0.14619076 -0.3015539

layers.1.weight f4 [128, 128]
000000 f6 7b e2 3d 04 95 1b be 3d e7 ed bc 90 d1 fb bd
       0.110588 -0.15193564 -0.029040927 -0.1229583
000010 ad 31 ee bc d3 e8 5f bc 39 78 12 3d d2 c8 59 bc
       -0.029076422 -0.013666349 0.035759185 -0.013292508
000020 e3 12 d6 3d 2b 00 a1 3c 61 76 07 3d 32 54 a7 bd
       0.10452821 0.0196534 0.03307188 -0.08170356
000030 8a 21 2c 3d 0b 82 f2 3d b6 c1 44 3d 87 a8 12 bd
       0.042024173 0.1184121 0.0480363 -0.03580525
000040 24 b8 75 bd 9d d5 97 bb ac 5e 83 bc 4d 05 10 3e
       -0.059990063 -0.004633619 -0.016036354 0.14064522
000050 e1 e5 45 3c a4 d0 34 bd 9d f3 23 3d 76 43 65 bd
       0.012078733 -0.044144288 0.04002725 -0.05597254
000060 22 85 aa bd 3a 30 a9 3e 7b 31 c5 3d 94 dd d3 bc
       -0.08326174 0.33044606 0.09628578 -0.025862493
000070 d9 36 8b 3d 6d 25 32 3d 2a 10 fc bc 55 b6 8f 3d
       0.06797571 0.043492723 -0.030769426 0.07017199
000080 bd 8f 49 bd 20 6d 06 bd 54 7f 26 3d 2a 94 ad bc
       -0.049209345 -0.032818913 0.040648773 -0.021188814
000090 6f 3a 1f bd a5 6f 4a bd 3c 3f af 3c 9e a6 06 3e
       -0.038874086 -0.04942288 0.021392457 0.13149497
0000a0 d8 c8 1c bd f8 7b e0 bd f5 33 97 bd d3 da 81 3d
       -0.038277477 -0.10961145 -0.07382957 0.063405655
0000b0 ab 17 5a 3d 87 ad 2c bd d3 0d b7 3d ad bd 96 3d
       0.053245228 -0.042157676 0.08938184 0.073603965
0000c0 46 78 42 3c ca cb 54 3c 98 63 80 3c 31 31 48 3c
       0.011869496 0.01298804 0.01567249 0.012218759
0000d0 2a ad d1 bc 8d a6 a8 3c 50 3d 1c 3c d1 f5 83 bd
       -0.025595266 0.02058723 0.009536102 -0.0644337
0000e0 84 79 9d 3d ec de d7 bd 5d 8d da 3d f7 52 05 bd
       0.07689193 -0.10540566 0.10671494 -0.032549825
0000f0 20 a5 fc 3d a6 b5 c3 3d 10 0c 16 bb 25 c3 f4 3c
       0.123361826 0.09556131 -0.0022895373 0.029878208
000100 92 b0 fb 3c a9 39 3d bd 2b 17 3a 3d 15 5e 9d 3d
       0.030723844 -0.046197567 0.04543225 0.0768396
000110 15 3d 3b 3c 69 ce 54 bd 88 7f 54 3d a5 90 3e be
       0.011428137 -0.05195466 0.051879436 -0.18609865
000120 cb ca ea bd 1e e5 83 3d f4 4f aa bd d3 d4 6c bd
       -0.11464461 0.06440185 -0.08316031 -0.057820152
000130 8a 03 82 3d 86 1a b1 bd 4f 2d c7 3c 25 2c 2e 3c
       0.06348331 -0.08647637 0.024313597 0.010630642
000140 68 46 2c 3d 52 81 c0 bb 28 0c e6 3d c9 c6 e2 3d
       0.042059332 -0.005874791 0.11232787 0.110730715
000150 50 a4 49 3e 33 e3 9b 3b 03 72 87 b7 50 8a b6 3d
       0.19691586 0.004757309 -1.6146345e-05 0.089131
000160 d2 cc fe bb 4f 02 41 3d de 15 0b 3d 88 25 40 bd
       -0.0077758813 0.047121342 0.0339564 -0.046910793
000170 f2 8e 6f 3d 02 b5 89 bb 4d 7a 82 3c 7f 6f 03 3d
       0.058485933 -0.004202486 0.015927458 0.032088753
000180 5c 36 50 3c 61 fa a3 bd 9c 28 15 be 3a e9 e5 3c
       0.012708273 -0.0800674 -0.14566272 0.028065313
000190 07 42 3d 3d b8 80 b3 bd f5 af f0 3d 8c 98 af 3d
       0.046205547 -0.087647855 0.11752311 0.08574018
0001a0 2e 37 11 3f 13 15 65 3d 76 b9 c7 3d f3 f8 19 3d
       0.5672482 0.0559283 0.09752171 0.037590932
0001b0 7c cc 0d 3d 7d dd b4 3d e3 76 ae 3d d9 31 c3 bc
       0.03461884 0.08831308 0.085187696 -0.02382748
0001c0 82 c9 0c 3e 6a df 3a 3e 36 39 1a bd 80 3b ac bd
       0.13748744 0.18249288 -0.037652217 -0.08409786
0001d0 5f 45 8b 3d bf 98 3a 3c d5 fe a9 bd 5f 78 63 3c
       0.06800341 0.011388957 -0.083005585 0.013883679
0001e0 07 60 97 39 e5 a7 72 bc 1a 33 2e 3d 9c 78 95 3e
       0.0002887251 -0.014810537 0.042529203 0.2919358
0001f0 01 da 2c 3e c7 1a 0c bd 37 48 9e bc 5a 5b ea bb
       0.16880037 -0.034205224 -0.019321544 -0.0071520032
000200 96 2b 7f 3d 4f 07 da bc 6a d0 3f be 19 66 1c 3d
       0.062297426 -0.026614813 -0.18731847 0.038183305
000210 cc a3 02 3e 98 39 ea bd e2 07 ac bd b8 75 c4 3d
       0.12757796 -0.114367664 -0.08399941 0.095927656
000220 4d 33 a8 bc 2f 05 c4 bc e9 5c d8 3d 69 47 64 bd
       -0.020532275 -0.023928253 0.10564596 -0.055732165
000230 51 57 d8 bc 95 4f 17 be c1 9f 0c be ee 21 40 3e
       -0.026408823 -0.14776452 -0.13732816 0.18762943
000240 51 b8 67 bd 18 79 b2 bb 44 89 92 be 1f 56 e4 bc
       -0.056572262 -0.0054465644 -0.2862035 -0.027873097
000250 6d 97 07 3c 88 31 cf bc 21 75 9b 3d 51 37 a1 bd
       0.008275849 -0.025292173 0.075907 -0.07871879
000260 90 a7 b6 3d ff 41 84 be b1 4c a1 bd 9a 67 b9 3d
       0.08918679 -0.258316 -0.07875956 0.090529636
000270 5d ec fa 3c 2f 73 6e be 55 55 ae 3c c6 0d 35 bd
       0.030630285 -0.23286127 0.021280924 -0.04420259
000280 44 69 25 3e 2b 99 09 be 40 ac 26 be 45 73 64 bd
       0.16153437 -0.13437335 -0.16276646 -0.055773992
000290 be 29 57 be 10 a8 0e 3e 5a 09 f7 bb af 55 86 3d
       -0.21012017 0.13931298 -0.0075389566 0.065593116
0002a0 4a ec ec 3c bb 38 c8 bc d7 77 15 3e 1b c9 09 be
       0.028921265 -0.024441114 0.14596497 -0.13455622
0002b0 32 81 c7 39 57 2b c5 bd ac 9a c1 3c 17 52 e6 3d
       0.00038052496 -0.09627407 0.023633324 0.11246126
0002c0 c6 47 b5 3c 6f 09 ac 3d 4e f5 ec 3d 1b ff 72 3d
       0.02212895 0.08400237 0.11570226 0.05932532
0002d0 07 8f cd 3d 8a d5 0f bd 19 d9 de b9 b2 8d 27 3d
       0.10037046 -0.035115756 -0.0004250489 0.040906616
0002e0 84 26 b6 3d dc ba 96 bc 9c af a8 bb 87 f2 af 3d
       0.08894065 -0.018399648 -0.0051478874 0.0859118
0002f0 00 4b 61 bd 90 d0 18 be f4 04 48 3c e6 f6 df 3d
       -0.055003166 -0.1492331 0.012208212 0.10935764
000300 a2 ce 3e be 17 42 6b bc 9d 83 0d be a3 41 11 3e
       -0.18633512 -0.014359019 -0.13819738 0.14185195
000310 80 3a c7 3d 29 9b 70 3d 8f 93 db 3d 6f 11 fe bd
       0.09727955 0.058741722 0.10721504 -0.12405669
000320 a5 3b 1c 3e 29 ad cf 3d eb 7a 33 3c b5 a7 2f bd
       0.15257128 0.101404496 0.010954599 -0.042884547
000330 78 1e b1 3c 98 8d 19 3b 83 57 ed 3d d3 a0 51 bd
       0.021620974 0.0023430344 0.11588957 -0.051178765
000340 bd 18 a9 3e 81 18 11 bd 70 07 bc 3d 23 49 81 3e
       0.33026686 -0.03542376 0.09181106 0.2525111
000350 ea ea ac 3c 72 1a b2 3d ce b1 21 bc 65 0c d8 3d
       0.02110811 0.0869645 -0.009869052 0.10549239
000360 b4 71 5d 3d 7b 36 1b 3d f5 2a de bd 7f 61 a2 bd
       0.054063514 0.037893753 -0.10848037 -0.07928752
000370 7f 2f 24 be 2a db d6 bd 1e 65 17 3e cd 7a 10 3e
       -0.16033743 -0.10491021 0.14784667 0.14109345
000380 57 6f 37 bc 3e bf 55 bb 60 83 6b bc 4a cf 68 bc
       -0.011195979 -0.003261521 -0.014374584 -0.014209578
000390 36 20 17 3c a9 88 31 ba 89 ce d3 3d a2 fa 33 ba
       0.009223988 -0.0006772378 0.10342128 -0.00068656553
0003a0 71 0f f3 3d 5e 79 22 3e b6 9a 81 be 7a 17 49 3d
       0.118681796 0.1586661 -0.25313348 0.049094655
0003b0 3e 04 eb ba 47 97 79 bd 7d f5 9d bd a6 8a 13 3e
       -0.0017930341 -0.060935285 -0.07712839 0.14408359
0003c0 06 72 14 3d 32 cd c8 bd 9e 1d 22 3e dd 5d 9c bd
       0.036241554 -0.09804763 0.1583161 -0.076350905
0003d0 e5 97 f9 3d 1f 29 ac bd 78 84 2d be 22 71 2a be
       0.12187175 -0.08406281 -0.16945064 -0.16644719
0003e0 3b 6b 76 3c 85 50 5e be c4 52 72 be 32 f5 08 be
       0.015040214 -0.21710403 -0.23664385 -0.13374785
0003f0 4d 8a 08 bd 32 44 01 3e 61 72 01 3c 42 86 7a bd
       -0.03333502 0.1262367 0.007900805 -0.061163194
