Homework9/9_gym-DDPG/results/DDPG_HalfCheetah-v5_2000-eps0.1-t32-l0.0001-sNone.pth (torch, 195808 bytes, 13 tensors)

layers.0.weight f4 [128, 23]
000000 c7 54 8e be 75 c7 68 3e b8 dd b4 be 48 b5 5c 3e
       -0.27799055 0.22732337 -0.35325408 0.21553528
000010 62 6c 12 3d c9 8f d3 bd 37 38 e3 3d 47 e1 1e bd
       0.035747893 -0.10330159 0.110947065 -0.03878906
000020 23 53 83 3e 94 88 6c 3e 46 a5 7c 3d 74 5e b1 3d
       0.25649366 0.23098975 0.061681055 0.08660594
000030 63 d2 46 bd 0f 7c 40 3d a5 3f 2b be 86 a4 1a be
       -0.048540484 0.04699331 -0.16723497 -0.15101823
000040 48 53 32 3d f0 c0 85 3e ff ec d8 3d c9 57 dc 3d
       0.043536454 0.26123762 0.105920784 0.10758931
000050 03 ab 25 3e ec ce bb be 8b d6 be bd f0 fb 9c bd
       0.16178517 -0.36681306 -0.093182646 -0.07665241
000060 7c 65 ba 3e f8 10 09 be 1a ea d7 3e 94 d7 8d bd
       0.3640555 -0.1338538 0.42170793 -0.06925884
000070 27 4e b0 be 94 48 06 be 48 90 a2 bd cd 75 89 be
       -0.34434626 -0.13113624 -0.07937676 -0.26847687
000080 6e d5 6b 3b 57 39 f6 bc 72 ad de bd 8f 67 0d bd
       0.0035985368 -0.030056639 -0.10872926 -0.03452259
000090 af d9 3b 3d 59 d8 de bc 3a ea 95 bc c1 4e 8a 3c
       0.045861896 -0.027202772 -0.018300164 0.016883256
0000a0 59 be 91 3d e6 6b ac bd 3d 9d 95 3a 5e 3e f6 3d
       0.07116384 -0.084190175 0.0011414659 0.12023614
0000b0 23 52 ed 3d 9f 8d c8 3c 9d 51 be bc 89 35 a1 3d
       0.11587932 0.024481593 -0.023232276 0.07871539
0000c0 49 c8 22 be be 30 52 be 6b 93 1d be 2a 6c 6b 3e
       -0.15896715 -0.20526406 -0.15388267 0.2299048
0000d0 6c 7a ad bd 6e ce c9 3d 02 4e 82 3d e9 43 78 3e
       -0.08470616 0.098538265 0.06362535 0.24244656
0000e0 93 cb 81 3e 63 8b 4b 3b 0b bb 92 bd 94 0c e5 bc
       0.25350627 0.0031058423 -0.07164582 -0.0279601
0000f0 81 26 26 3e 4a 44 18 3e 24 d7 16 3d 73 2e a9 3d
       0.16225626 0.148698 0.036826268 0.082608126
000100 3d 3b 3c 3c a3 5f ff bd bf 31 25 be 12 3e 08 3e
       0.011488733 -0.12469413 -0.16132258 0.13304928
000110 dd 7a 19 3e 13 0c 3b bd 5d e9 01 3d e3 a9 b9 3e
       0.14988275 -0.04566581 0.031716693 0.36262426
000120 24 fe f4 3d 1c 6d d1 3c fd ca f4 3d 35 aa 01 be
       0.11962536 0.025564723 0.119527794 -0.12662585
000130 05 6a 02 3e 37 d4 31 be 88 ed 6c be b0 f7 93 3e
       0.12735756 -0.1736611 -0.23137486 0.28899908
000140 d5 9c cc 3d ef b0 61 3d ad 3e 4f 3d 9a c0 4b 3e
       0.09990851 0.055100378 0.05059688 0.1989769
000150 31 8b 27 3d 0a 6a f6 bd db 12 5e bd 01 6f 30 3e
       0.040904228 -0.12031944 -0.0542172 0.17229845
000160 f5 e1 d1 3d 36 17 06 3e 94 94 c2 bd 09 f1 59 3d
       0.10248176 0.13094792 -0.09500995 0.053208385
000170 1c 2f 7b 3c ca d3 8f 3d 71 ca b1 3e ab 83 92 3e
       0.015331056 0.070228174 0.34724763 0.2861608
000180 ef 74 09 3e 13 ba 8b be b0 ca 3b 3d 9e 91 26 3e
       0.13423513 -0.272904 0.045847595 0.16266486
000190 94 1b 09 be 6c 79 22 3e b9 2a 28 be 26 0a dd bd
       -0.13389426 0.15866631 -0.16422547 -0.10792951
0001a0 be 66 2c be 2d 11 42 bd fd bb cc 3d 01 0b 74 be
       -0.16836068 -0.04737966 0.099967934 -0.23832323
0001b0 d2 06 e5 bd d2 21 a3 3d 1c f8 9c bd 38 d3 27 3d
       -0.111829415 0.07965435 -0.076645106 0.04097292
0001c0 fd d7 f6 3d ae 3a b3 bd 50 24 42 3d d4 9a 9d be
       0.12052915 -0.08751427 0.04739791 -0.30782187
0001d0 83 44 55 be 0c 96 95 be 08 54 0c 3e 77 0d 7f bc
       -0.20826916 -0.2921604 0.1370393 -0.015567175
0001e0 f8 45 00 3d f7 1a 49 3e a6 df ca bd 94 fa 37 3e
       0.031316727 0.19639193 -0.09905939 0.17966682
0001f0 d9 04 0d be e5 83 22 be 9a 10 cb bc 35 97 6f 3c
       -0.1377138 -0.15870626 -0.02478819 0.014623453
000200 f2 97 3e be 56 ed bb bd 64 2a a2 bc 16 6a 3b 3d
       -0.1861265 -0.091761276 -0.019795604 0.04575547
000210 60 f2 7f 3d 51 06 94 3d be 93 77 3d d6 b0 79 be
       0.062487006 0.07227767 0.060443632 -0.24383864
000220 4c 0e 3c 3e a6 f4 59 3e 1c ed 4b 3e 53 63 b6 be
       0.18364829 0.21284732 0.19914669 -0.35622653
000230 9b e5 17 be b6 bc b3 bd 75 7e 52 be 82 5d e2 bc
       -0.14833681 -0.08776228 -0.20556052 -0.027632479
000240 51 20 2e be 1f 7c dc 3d e1 93 a6 3e 3a 2e 75 3d
       -0.17004515 0.10765862 0.32534698 0.05985854
000250 2d ce a6 bb 76 2b bc 3c 64 db c5 3d d0 0d 26 bc
       -0.005090496 0.022969943 0.09660986 -0.010135129
000260 82 ae 72 3b c2 12 be bc 50 86 57 3d d1 06 ff bd
       0.0037030284 -0.023202304 0.052618325 -0.12452472
000270 7d d1 26 bd 20 c8 b4 3c 35 59 28 3c 14 57 2d bd
       -0.040727127 0.022068083 0.010275175 -0.042319372
000280 f3 91 06 3e 10 a2 86 3d 2e e1 26 be 43 2c a5 bc
       0.13141613 0.0657388 -0.16296837 -0.020162707
000290 15 8d 4a 3e bb 9d bd 3e 92 75 c9 bc d9 88 63 be
       0.19780381 0.370344 -0.024592195 -0.22220172
0002a0 bb a8 c0 3d fd f4 5b 3e 01 59 46 be c3 1f 25 be
       0.09407183 0.21480174 -0.1936989 -0.16125397
0002b0 86 ec 45 bc bb 6e 1b 3e 36 65 8d bd 75 f9 0a 3e
       -0.012080317 0.15178959 -0.0690407 0.13571723
0002c0 ed 96 4a 3e fe 4e f3 bd 18 6b 1c be e6 15 da 3d
       0.19784136 -0.11880301 -0.15275228 0.10648708
0002d0 b6 12 a6 bd bd 69 15 3e 4c 17 94 3e b4 1b 69 be
       -0.081090376 0.14591117 0.28924024 -0.22764474
0002e0 b4 db a2 3b e3 01 0b bd 4f 5e bf bd c1 45 24 3d
       0.0049700383 -0.033937346 -0.0934416 0.040105585
0002f0 cf e0 7c be ee 0d d5 be 75 92 05 bd 30 2d 34 be
       -0.24695133 -0.4161219 -0.032610375 -0.17595363
000300 24 39 06 be d8 20 e2 3d 6e 5b f6 3d 04 2c 13 3e
       -0.13107735 0.11041421 0.120291576 0.1437226
000310 32 9a 9b bc 88 2a 14 3e ec 49 d1 3c 61 2c 8f bd
       -0.018994424 0.1446935 0.025547944 -0.069908865
000320 3a 4c 3c 3d 4f ce 98 be e2 aa 74 be 77 69 aa 3d
       0.045971133 -0.298449 -0.23893312 0.08320897
000330 b0 7e 2b 3e 41 59 f2 3d 74 43 81 be 8e 63 a3 3b
       0.16747546 0.1183343 -0.25246775 0.004986233
000340 24 68 91 3d 5a 29 47 3e 03 20 93 bd 13 f9 89 bd
       0.070999414 0.19449368 -0.0718384 -0.0673696
000350 17 18 a3 be f0 cf 36 3e 1f 82 1e be fa a0 fa be
       -0.31854317 0.1785276 -0.15479325 -0.4895094
000360 44 6c ef bd 13 9c 9b 3c ba f2 02 3e 31 29 ac bd
       -0.11690572 0.01899532 0.12787905 -0.08406294
000370 39 5f c2 ba bd 82 8f bd 48 b2 70 bd 9f 96 7d 3d
       -0.0014829404 -0.07007358 -0.058763772 0.06191122
000380 f6 bf 84 3c 38 38 1d 3e 9e e1 12 3e c0 bd dd 3c
       0.016204815 0.15353477 0.14343879 0.027068019
000390 fd 53 92 bd 1d f7 ab 3d c5 b5 4a be 08 f1 a2 3e
       -0.07144926 0.083967425 -0.19795902 0.31824517
0003a0 fd c7 1a 3e 75 f5 e0 be ce ad 43 be 21 16 46 3e
       0.15115352 -0.4393727 -0.1910927 0.19344379
0003b0 29 08 94 3e f7 f0 fc 3d 53 8f 1c bd 96 6d 2c bd
       0.28912476 0.12350648 -0.038222622 -0.042096697
0003c0 9e 3b fc bc e4 f0 9d bd d1 69 89 bd 94 ff 1f be
       -0.030790146 -0.07711962 -0.06709636 -0.15624839
0003d0 78 3c ae bd 8b ea 64 bb b1 1d b7 bd 0b de e9 3d
       -0.08507627 -0.0034929838 -0.0894121 0.114193045
0003e0 47 21 3b 3d a0 73 69 bd d6 fc 2f 3e 1a c9 49 3d
       0.045686033 -0.056995034 0.17186293 0.04926405
0003f0 ab eb 1c 3e 46 1e 35 3e 6a 92 49 bd 01 6d bb be
       0.15324275 0.1768733 -0.049211897 -0.366066

layers.0.bias f4 [128]
000000 4b 3f d0 3e 5b c8 6c be 51 ca a4 3e 4e 71 03 3d
       0.4067329 -0.23123305 0.32185605 0.032090478
000010 98 52 80 bc b1 e0 82 3e ca dd 34 3e 5b 78 9e 3e
       -0.015664384 0.2556205 0.17662731 0.309512
000020 65 2d ac be 06 48 19 bd 8f e4 c1 3e 15 74 32 be
       -0.33628383 -0.037422203 0.3786969 -0.17427094
000030 38 7f 43 3e da db fa 3d d7 0e 1d 3d 48 8b 8c be
       0.19091499 0.122489646 0.03834423 -0.27450013
000040 6a 7f eb bd 52 8f 55 3e 5f 17 ae be 8f f8 57 be
       -0.11498912 0.20855454 -0.34002206 -0.21090911
000050 0e e5 34 3e 05 bd 72 bd f8 98 bd 3e dc 10 07 bd
       0.17665502 -0.059262294 0.37030768 -0.032975063
000060 21 0f 78 3e 8d 85 02 3e 05 ef 64 3e 09 68 85 3d
       0.24224521 0.12746258 0.22356804 0.06513984
000070 1c ec 93 be 4a 79 9a 3e b5 5c 57 3e 2e 73 ed bd
       -0.28891075 0.3017066 0.21031459 -0.115942344
000080 37 5a 21 3e 08 70 e2 bd 73 c3 47 3e 83 e0 0f be
       0.1575707 -0.110565245 0.19508152 -0.14050488
000090 2f f5 fa 3c c8 f3 b6 3d 3d 1d b2 bc 7e 48 92 be
       0.03063449 0.08933216 -0.021742458 -0.28570932
0000a0 4b 7d 83 be a4 15 40 be 1c 16 0a be f4 4d 43 3e
       -0.25681528 -0.18758255 -0.13484997 0.19072706
0000b0 49 69 3c bd d3 03 f6 be 0e 1d 0b 3e f9 08 39 be
       -0.045998845 -0.48049793 0.13585302 -0.18069829
0000c0 98 98 89 3d fb 9d 3f 3d f6 c6 82 3e c7 2a 15 3e
       0.06718558 0.04678152 0.2554242 0.145671
0000d0 d9 42 82 be c0 ae 02 be c1 db 99 bb 56 53 7e be
       -0.25441626 -0.12761974 -0.004695386 -0.24836478
0000e0 74 81 2d 3e fb 91 d9 3c 82 07 70 bd 27 6f d3 3d
       0.16943914 0.026558867 -0.05860091 0.10323935
0000f0 3f d3 d3 3d c3 73 9c 3e 67 17 94 3e 24 bb 5f bd
       0.10343026 0.3055707 0.28924105 -0.05462183
000100 11 a3 6b 3d 88 08 13 be 19 a3 00 3e f0 71 9f bd
       0.05752856 -0.14358723 0.12562217 -0.07785404
000110 57 c4 10 bc f3 98 33 be 8f 58 98 be aa 0c fe 3d
       -0.008835874 -0.17538814 -0.29755065 0.12404759
000120 0c 0c 90 bd 54 a3 b8 3d 98 18 95 3e f2 15 0a 3e
       -0.07033548 0.09015527 0.29120326 0.13484934
000130 b0 1e 8c 3e 63 a2 76 3e cf 72 04 3d b0 e7 a2 3e
       0.27367163 0.24085383 0.032336053 0.3181739
000140 84 93 8d be 82 e3 8d 3e e0 34 a2 be 7a 80 a5 3d
       -0.27651608 0.27712637 -0.31680965 0.080811456
000150 e0 53 de 3d 6f 5b 9d be 19 98 80 3e a9 e9 0e bd
       0.10855842 -0.3073382 0.2511604 -0.034890804
000160 aa 11 2c be 2b 93 4b be 3b db 20 be 39 1f d9 3d
       -0.16803613 -0.19880359 -0.1570863 0.106016584
000170 6b 67 67 3e c0 32 c0 3d 73 4a 2a 3e 1c 8b a9 3e
       0.22598045 0.0938468 0.16629963 0.33113945
000180 d9 98 be 3e c0 09 26 be 31 ae af be a5 ad e7 bd
       0.37225989 -0.16214657 -0.34312585 -0.11312417
000190 06 7f 7c 3e 60 01 47 3e 26 3e 96 3d d5 42 92 3e
       0.2465783 0.19434118 0.073360726 0.28566614
0001a0 ba f7 61 be 64 38 5f 3e 02 a0 09 3e 67 67 17 be
       -0.22067156 0.21798855 0.13439944 -0.14785539
0001b0 a8 cb 60 be d2 45 83 be 53 7d 95 3e 57 dc 97 be
       -0.21952689 -0.25639206 0.29197177 -0.29660293
0001c0 4f c0 70 3d a2 29 31 3e 52 6d 5c 3d 84 f0 d2 3d
       0.05877715 0.17301038 0.053815193 0.10299781
0001d0 1d 06 8c 3e 93 37 0d 3e 62 71 b7 3e 47 2b 25 be
       0.27348414 0.13790731 0.35828692 -0.1612979
0001e0 e6 4b 26 be 3a 60 17 bb eb af e6 bc e8 e3 24 3e
       -0.1623989 -0.0023098127 -0.028160056 0.16102564
0001f0 28 f2 56 3e 00 fc 93 be 77 d5 86 be 0a 12 9e be
       0.20990813 -0.28903198 -0.26334736 -0.30873138

layers.1.weight f4 [128, 128]
000000 33 ce 8c bd 60 65 66 bd e2 27 07 3d 2c 26 79 bd
       -0.06875267 -0.056249022 0.03299702 -0.06082742
000010 b3 1e 99 3d a4 43 db 3d dd be 2a bd db 7b 96 3d
       0.074765585 0.10706261 -0.041685928 0.07347842
000020 73 11 5e bd fa 7a 8f bd e0 60 5d 3d ac 2f 4a 3d
       -0.05421586 -0.07005878 0.054047465 0.04936187
000030 83 cd d2 3d cd ee 3f 3d c5 d4 a1 bd 7d 6a ff 3b
       0.102931045 0.046858598 -0.07901911 0.007794677
000040 f5 29 6f 3d e1 a1 10 bc 27 f7 c3 bb c3 72 5b 3d
       0.058389623 -0.008827657 -0.0059803906 0.053576242
000050 13 99 a0 3d a2 04 d1 3d 21 59 3e 3d b8 7f 9a 3d
       0.078416966 0.10205962 0.04647172 0.07543892
000060 e3 e1 69 bd a0 f1 47 3d 66 db 28 3e db b4 14 3c
       -0.057100188 0.048814416 0.16489944 0.009076322
000070 98 79 c8 bc 8b cb 90 bc 3c a0 ce bc 0a 40 5d bd
       -0.024472043 -0.017675182 -0.02522289 -0.05401615
000080 e1 3c 9d 3d 9d 24 aa bd 51 7e 15 3d 69 29 71 bc
       0.07677627 -0.08307765 0.036497418 -0.014719346
000090 64 82 77 bc fe 7f 99 bb 38 c1 5e bd 1b 81 92 3c
       -0.015106771 -0.0046844473 -0.054383487 0.017883828
0000a0 5c 45 b9 bd 89 63 3c 3c 51 55 0b 3d 2a a2 37 3d
       -0.090464324 0.01149834 0.03401691 0.044832386
0000b0 4f e6 5d bd b8 a9 16 3d 93 30 5c bc 40 eb bb 3d
       -0.054174718 0.03678295 -0.013439315 0.0917573
0000c0 f2 c4 38 3d c1 05 4b 3d 20 32 17 be 0f 2d 39 3d
       0.045109697 0.049566034 -0.14765215 0.045208987
0000d0 3f a0 04 be 28 e7 01 be 47 4c bd bd a0 73 bd bc
       -0.12951754 -0.12685835 -0.092430644 -0.023126423
0000e0 c9 86 8a bd 48 83 9f 3d da cd 50 bd 52 f4 d6 3c
       -0.067639895 0.07788712 -0.050977565 0.026239548
0000f0 f4 6f 5e be 74 5a 99 3d 2e 44 2a 3d 86 f4 3c be
       -0.21722394 0.07487956 0.041568927 -0.18452653
000100 95 40 ec 3c a0 4f 7a 3d eb f4 e3 3d bb 5c d9 bd
       0.028839389 0.061111093 0.11130699 -0.1061339
000110 09 fc 88 bc 64 d8 76 3d f1 64 29 3d d1 b6 28 bd
       -0.016721742 0.06026496 0.04135603 -0.041189972
000120 2e 9e 19 3e 1a 77 ae bd f2 80 07 3d 5e c7 20 3c
       0.15001747 -0.085188106 0.033081956 0.009813158
000130 c5 c8 4d bd 39 85 d2 3d bc 65 ab bc e3 2f b5 3c
       -0.050240297 0.102793165 -0.020922534 0.02211756
000140 77 27 eb bd 90 7b fc bc 8a 21 09 bc 0b ba ad bd
       -0.11482137 -0.030820638 -0.008369813 -0.084827505
000150 8a 8a 08 3d 49 09 1b bc 2c b7 51 bd aa 23 38 bd
       0.033335246 -0.009462663 -0.051200077 -0.044955887
000160 3c a4 53 3d 4f 65 26 3a 38 3a b1 bc eb 21 6b bd
       0.051670298 0.00063474936 -0.021634206 -0.057405394
000170 c3 44 3f 3c c6 b8 85 3d 85 09 be 3d fe 1d cd bd
       0.011674109 0.06529383 0.092791595 -0.10015486
000180 ff 85 01 be ba 1f 11 3c a4 8f d2 3d 63 25 3c 3d
       -0.12648772 0.008857662 0.102813035 0.045934092
000190 45 a5 9c 3d 5c db c0 3c 6b 9e 24 3d 8d a9 cf 3d
       0.0764871 0.023542099 0.04019014 0.10139761
0001a0 c0 63 bf bc a8 bc 0b 3d 24 a1 f9 bb ba 8d e7 3c
       -0.023362994 0.034115463 -0.0076180864 0.028265823
0001b0 c5 38 d9 bb e0 86 83 3d eb ca d7 bc 2a 5b a6 bb
       -0.006629082 0.0642221 -0.026341876 -0.0050767856
0001c0 90 f8 80 3d 66 74 a0 3d 99 74 dc 3d 10 6d 2f 3d
       0.062974095 0.07834701 0.10764427 0.04282862
0001d0 5c bb 96 3d 42 eb 0d 3b 58 5b 11 3c 1a 96 6c 3d
       0.07359955 0.0021655117 0.008871876 0.057760336
0001e0 ce d7 95 3d 80 ef 4c bd 4f 10 a1 bd 38 1c cf 3d
       0.07316552 -0.050033092 -0.07864439 0.10112804
0001f0 a5 ca 0a 3e f0 88 23 bd 12 52 02 bc 87 6d c2 3d
       0.13553865 -0.039925516 -0.007954137 0.09493547
000200 48 d1 ed bc 31 40 36 3c 22 09 3c bd 19 71 eb bb
       -0.029030457 0.011123703 -0.045907147 -0.007185113
000210 60 d5 7e 3c 6f 6d 51 3d 49 02 00 be 08 67 0a bd
       0.015553802 0.051129755 -0.12500872 -0.033789665
000220 c4 82 c9 bd 9f 66 8c 3d 96 bf d7 3c 50 3c 31 bc
       -0.09839395 0.06855511 0.026336472 -0.010817602
000230 f9 90 03 bc 8d 24 ba bc 7f 3d f5 bc 43 02 a6 bd
       -0.00803017 -0.022722507 -0.02993655 -0.081059
000240 61 0f 92 bd 93 e2 8a 3c 92 76 16 bd d2 5c ad 3d
       -0.071318395 0.016953742 -0.03673417 0.0846497
000250 47 d8 43 bd 3f e0 9c 3c ee 49 31 be 43 96 81 bd
       -0.04781368 0.019149898 -0.17313358 -0.06327488
000260 d6 de 0e bd 0e 5e 0b 3e a0 75 9b 3d e0 de 2a bd
       -0.03488048 0.13610098 0.075907946 -0.041716456
000270 97 21 4b 3e d6 73 26 bd b1 61 c6 3d 6e a5 22 bd
       0.19837032 -0.040637814 0.09686602 -0.039708547
000280 a3 ee 70 bd 65 09 af 3d 45 77 17 bc 1a 18 e5 3d
       -0.05882133 0.08546714 -0.009244745 0.11186238
000290 50 31 cc bc 97 78 e1 3c 69 98 d5 3d d5 9e d1 bc
       -0.024925858 0.027523322 0.104294606 -0.025588432
0002a0 41 5b 44 3d 43 3f 00 bd 65 ba 90 bb 21 42 58 bd
       0.04793859 -0.03131033 -0.004416751 -0.05279744
0002b0 bc 71 35 3c 73 1c 1a bd c0 c5 8f 3d 51 de db 3d
       0.01107448 -0.037624788 0.0702014 0.10735763
0002c0 9d ca 57 bd f0 6d 98 bc 3b da 0e be f1 54 05 bd
       -0.05268346 -0.01860711 -0.13950436 -0.03255171
0002d0 c2 63 98 bd fc 27 6c 3e 18 63 02 3d 61 e1 f8 3d
       -0.07440902 0.23062128 0.031832784 0.121523626
0002e0 22 bd 17 3d 75 b2 59 bd be c9 a9 3d 62 65 07 be
       0.037045605 -0.053148706 0.082904324 -0.13222268
0002f0 59 ef 57 be 4a 4b 78 bc f8 86 d5 bb fa 75 8d 3d
       -0.21087398 -0.015154669 -0.0065163337 0.06907268
000300 d5 b8 a5 bd d6 73 fe 3c bc 61 7d 3d 61 7f 07 be
       -0.080918945 0.031061094 0.061860785 -0.13232185
000310 2a 6b 54 bd 1d 20 b3 3d 89 1a 1f 3d b1 98 08 3d
       -0.051860012 0.087463595 0.038843665 0.033348743
000320 55 ef bc 3d ab 0f 2e 3d 27 c4 9f bd 02 8c 35 bd
       0.092253365 0.04249541 -0.07801085 -0.044322975
000330 35 b4 c6 3c a7 cf 79 3d d5 a4 53 bd 58 ab 17 3d
       0.024255851 0.06098905 -0.051670868 0.03702864
000340 a6 86 e6 bc 87 43 25 3d ea e8 47 3e d2 77 8e bc
       -0.028140377 0.040347602 0.19522443 -0.01739112
000350 a0 25 33 3d b0 6d f2 3c 67 d8 43 bd 45 b8 55 bd
       0.043737054 0.029593319 -0.0478138 -0.052177686
000360 32 ce 83 3d 23 01 14 3c 76 1a 80 3c 5d 7d 32 3d
       0.06435813 0.009033474 0.015637618 0.043576587
000370 60 f7 5e 3c 61 98 f8 bd 0b ea 49 bc 85 7d 54 3d
       0.0136087835 -0.12138439 -0.012323867 0.051877517
000380 da b1 6a be 9f 1f ac 3d 6a ef b5 3d bd ba 79 bd
       -0.22919407 0.08404469 0.08883555 -0.060969103
000390 fc 14 68 3d 87 38 b8 3d 27 fc 29 bd 32 45 e1 bc
       0.056660637 0.08995157 -0.041500237 -0.027498815
0003a0 3b 62 5c bc bd 54 44 3c 57 d3 18 bd b5 a0 36 bd
       -0.013451154 0.011983094 -0.037310924 -0.044586856
0003b0 a1 2c 2e 3c c6 cd 6e bd 73 ed b8 bd 59 23 ba 3c
       0.010630758 -0.05830171 -0.09029665 0.022721933
0003c0 e2 99 30 bd f9 c2 d0 bd bf b5 33 3d 80 87 29 3d
       -0.043115504 -0.10193438 0.0438745 0.04138899
0003d0 94 cc c6 3b 7c d9 0c 3d 66 52 a9 3c 2c fe 23 bd
       0.006066868 0.034387097 0.020669173 -0.04003732
0003e0 dc 33 91 bc e0 09 61 3d eb a5 2d bc 5f 86 aa 3a
       -0.017724924 0.05494106 -0.01059864 0.0013010016
0003f0 79 ed ae bd a2 07 66 bd 35 b8 7b 3d 97 d0 6e 3e
       -0.08541388 -0.056159623 0.06145497 0.23321758

layers.1.bias f4 [128]
000000 a5 57 24 3e 09 d6 c4 bd 15 81 a6 bc 09 fb e7 bd
       0.16049059 -0.096111365 -0.020325223 -0.11327178
000010 20 50 17 3d ee 99 c6 3c 22 5c 06 be 37 f9 9a bc
       0.036941648 0.024243321 -0.13121083 -0.018917663
000020 78 9b a1 3d 27 cc 43 bd 57 49 18 be f8 15 7f bc
       0.078909814 -0.047802117 -0.14871727 -0.015569203
000030 78 41 5b 3d 67 51 93 be b7 62 4c be 1a 9f d8 3d
       0.053529233 -0.28773043 -0.19959532 0.10577221
000040 fd ca fa 3d 29 f4 38 bd aa 24 f0 bd 75 6a cf bd
       0.12245748 -0.045154724 -0.11725743 -0.10127727
000050 ba f8 0d be 77 ee 33 3e 03 0d 6b 3d c9 cd 16 be
       -0.13864413 0.17571436 0.057385456 -0.14726938
000060 48 f3 b7 3d a9 19 c6 3d 07 25 a1 3a 96 7a 80 3d
       0.08981949 0.09672863 0.001229436 0.062733814
000070 50 60 60 3d e1 a5 1c bd 7e fc 03 3e 16 b2 df 3d
       0.05477935 -0.038244132 0.12889287 0.10922639
000080 29 58 2b bd c0 96 66 be 2f 08 df 3d dd 27 28 3e
       -0.041832123 -0.22518444 0.10890233 0.16421457
000090 c8 9b 07 3d a5 08 05 be c0 a8 3d 3e ee 05 ca 3c
       0.03310755 -0.12991579 0.18521404 0.02466103
0000a0 28 82 b4 bb 1b 89 0a be 97 48 24 3d 51 18 68 bd
       -0.00550868 -0.13528864 0.04010829 -0.056663815
0000b0 83 88 7b 3d 01 1b b2 bc 33 94 2c 3e 48 12 dc 3d
       0.061409485 -0.021741392 0.16853409 0.10745674
0000c0 60 1b 0c 3e 3e 1e c5 3d c2 b7 c8 ba 49 75 fb bd
       0.13682318 0.09624909 -0.0015313553 -0.1227823
0000d0 e6 3c 33 be 22 c2 6f 3c b0 50 35 3d 19 32 9f bc
       -0.175037 0.014633687 0.044266403 -0.019433068
0000e0 47 54 4a 3d 64 9e 66 bc 92 8b 4c bd 61 de 09 3d
       0.04939678 -0.014075849 -0.049937792 0.033659343
0000f0 9c 20 aa bd 67 69 0d bd a7 56 71 bd 47 4d 44 3c
       -0.08307001 -0.034524348 -0.05892053 0.011981315
000100 25 ca 41 3e 2c e2 a8 3d 55 e8 4c be 96 f2 eb 3c
       0.18924768 0.08246264 -0.20010503 0.028802197
000110 4e a8 c5 3d 72 7a 03 be da a8 97 3c 3f c2 03 3e
       0.09651242 -0.12839678 0.018513132 0.12867068
000120 0f 32 12 3d e7 aa 45 3d c4 64 4c bd 39 8b 92 3c
       0.03569227 0.04825869 -0.049900785 0.017888652
000130 3c 4a ae 3d 93 fe 24 3d 28 08 8a 3d 2c 5a 2e bd
       0.08510253 0.040281843 0.06739837 -0.042566463
000140 33 68 76 3c 53 82 a1 3d 8c 76 42 3d e2 c4 0c be
       0.0150394915 0.078861855 0.047476336 -0.1374698
000150 2e e1 9b bd e2 60 ca bd 0c 7c 09 bd 70 88 cc bd
       -0.07611309 -0.0988176 -0.033565566 -0.09986961
000160 d7 0f 72 3d f5 5d 02 3c 89 b4 b3 3d ab 02 4b 3d
       0.059097137 0.007956971 0.08774669 0.04956309
000170 5c b8 8e 3c 2b 3c 2f bd ab ed 5b 3e 1a b1 bb bd
       0.017421894 -0.04278199 0.21477382 -0.09164639
000180 6b 06 62 3e 2b 16 d6 bd 4a 74 78 be 61 04 5a be
       0.22072761 -0.10453447 -0.24263111 -0.21290733
000190 69 19 86 3b 97 77 2b be b2 7d c0 3a 16 05 5d bd
       0.0040923846 -0.16744839 0.0014685898 -0.05395993
0001a0 5d e4 e4 3d ca f6 97 3d f9 18 30 3c d5 c9 38 3e
       0.11176369 0.07420118 0.010748141 0.18045743
0001b0 82 09 0f be c5 b3 f7 3d 0e 5b ab 3b d8 11 a8 bd
       -0.1396847 0.12094835 0.0052293604 -0.082065284
0001c0 71 f4 f9 bd 08 6c 28 bd f4 96 a1 bd c4 cb c7 bd
       -0.122048266 -0.04111865 -0.0789012 -0.09755662
0001d0 cb 26 08 be 1e b1 8c bd 91 68 e3 3d 85 4b 83 3d
       -0.13296048 -0.0686972 0.11103929 0.064108886
0001e0 a9 dc 3f bc 56 6d b4 bd 1f 84 06 3e c8 a3 2e 3c
       -0.011710324 -0.08809917 0.13136338 0.010659166
0001f0 b8 bc 16 be 1e 02 9f bc fa 18 53 3e 6c 65 2b be
       -0.14720428 -0.01941019 0.20614997 -0.16737908

layers.2.weight f4 [64, 128]
000000 7e 9d 9d bd fd 18 88 bd 11 c1 0b be e9 87 11 3d
       -0.07696055 -0.06645391 -0.13647868 0.035530005
000010 5e 5a 01 3e 2f 10 7a 3c 4d 38 ba bc d7 55 7a bb
       0.12632129 0.0152626475 -0.022731924 -0.0038198137
000020 d4 bf 9d 3c 1e eb e4 3c f8 2e 53 3c d9 bb 75 bd
       0.01925651 0.027944144 0.012889616 -0.0599936
000030 be 7c 80 3e e6 10 e6 3c db 7c 85 3d ac 2d df bc
       0.2509517 0.02808423 0.06517955 -0.027243458
000040 9a 7c 51 bd d9 fc dc bd 7a d7 c0 bc c4 84 46 bd
       -0.05114422 -0.10790414 -0.023540247 -0.04846646
000050 49 ef 31 3d 73 98 8c bd 03 3b 01 be c1 37 4d be
       0.04344109 -0.06865015 -0.12620167 -0.200408
000060 2e 12 3e 3e b0 11 36 bd 98 40 19 bd 01 14 db 3a
       0.18561623 -0.044450462 -0.037415117 0.0016714336
000070 5b 41 30 be a9 a6 20 3d 3d d6 f7 bd 5e 5b 61 3d
       -0.17212431 0.03922144 -0.121014096 0.055018775
000080 18 9f 5f bb 95 56 05 3e 87 f4 5e be 16 3a 81 be
       -0.0034121927 0.1302131 -0.21772967 -0.2523963
000090 0d 24 68 3e 44 82 f0 bd 18 6f f9 3d b4 a7 a2 3c
       0.22670002 -0.11743596 0.121793926 0.019855358
0000a0 3a 3f ce 3d 53 6d 2c 3d 74 c7 1f 3d 96 3b 10 3e
       0.10070653 0.042096447 0.039008573 0.1408523
0000b0 02 9b 65 be d2 bb b2 bd 62 02 49 3d 2e 98 5a be
       -0.22422412 -0.0872723 0.049074538 -0.21347114
0000c0 a4 8c 92 3d 1b b1 94 bd e8 b7 fe 3a 79 e5 7e bd
       0.07155731 -0.07260343 0.001943347 -0.06223056
0000d0 e2 16 a0 bd fe f3 04 be c4 16 09 bd af 87 a0 3d
       -0.078168646 -0.129837 -0.033468977 0.078383796
0000e0 53 e7 0f be e2 db 46 bc 68 63 d4 bc 40 b4 51 be
       -0.14053087 -0.012137385 -0.025926307 -0.20478916
0000f0 a1 4e e3 bd 3b 80 87 bd 40 1d 26 3e b0 01 2e 3e
       -0.11098982 -0.06616255 0.16222095 0.16992831
000100 49 c8 0f 3e fa 67 e2 bd 66 03 4d 3d e1 99 11 3a
       0.14041246 -0.11054988 0.05005207 0.0005554241
000110 3a 86 60 3d 28 7d a7 b8 40 f8 1a 3e 2d 37 4f bd
       0.05481551 -7.986493e-05 0.15133762 -0.05058973
000120 72 2b d8 bc cd e5 ca bd 4b 51 2f bd b8 8b ea bc
       -0.026387904 -0.09907112 -0.042802136 -0.028631076
000130 f2 70 8b bd 1b c9 34 3d 9e 0a 55 3e 33 c3 d0 bd
       -0.06808652 0.0441371 0.20804831 -0.10193481
000140 ab 94 6f bd a1 4a 77 3c 7d 13 4f 3d 63 03 d9 bd
       -0.05849139 0.0150934765 0.050555695 -0.10596349
000150 9e 71 d9 bb 42 de ad bd a1 e6 88 bd 41 7e c3 bd
       -0.0066358587 -0.08489658 -0.06684614 -0.095455654
000160 07 c5 d1 3d 98 17 79 3c f1 f8 77 bc 51 60 dc bd
       0.10242658 0.015203379 -0.015135036 -0.107605584
000170 c0 98 14 bc aa b1 a5 3d 75 77 d3 3d c6 06 44 bc
       -0.009069622 0.08090527 0.10325519 -0.011964506
000180 59 1b 77 be ba be 55 be 4c d2 cf 3c ac 67 b6 3d
       -0.24131526 -0.20873538 0.025368832 0.089064926
000190 b8 eb a5 3d 30 42 e8 bd 9c d1 e6 bd 66 c0 1c 3e
       0.081016004 -0.11340749 -0.112704486 0.15307769
0001a0 40 04 32 bd f9 0e 5f bd 6b 22 0d 3d 83 0d a6 3c
       -0.043461084 -0.05445764 0.03445665 0.020270115
0001b0 6e 13 5d 3d 22 b6 54 bd 7a d6 b6 bd c6 92 1c 3e
       0.053973608 -0.051931508 -0.08927627 0.15290365
0001c0 87 99 6f bd e2 0b c4 3d c9 4d 79 bd 47 b7 89 3d
       -0.058496024 0.09572579 -0.060865197 0.067244105
0001d0 00 65 c9 3d 04 82 dc 3d fd 11 cc bd fe 4c 82 3d
       0.09833717 0.10766986 -0.099643685 0.06362341
0001e0 a8 83 77 3d 02 92 80 3d ab cd 97 3d 5e 35 2a 3d
       0.06042829 0.06277849 0.07412275 0.0415548
0001f0 a5 17 d7 bd 65 2a 2f bd df 07 25 bd 31 7b f6 3d
       -0.10502557 -0.04276504 -0.04029071 0.12035216
000200 14 31 e3 bd e6 7d 5c 3d 4f cd fd 3c b3 8a f8 3d
       -0.11093345 0.053831004 0.030981688 0.1213583
000210 3f 27 29 3d d3 d3 ae bd e8 a4 87 bc cd 8b ae bd
       0.041297194 -0.08536496 -0.016558126 -0.08522759
000220 d8 c6 fe ba 6a b3 3c bc f9 e7 ed bc 57 79 5c 3b
       -0.0019437922 -0.011517385 -0.029041277 0.003364166
000230 49 82 94 3d c8 64 2f 3d 4a d1 7f 3d 31 cf a1 3c
       0.072514124 0.042820722 0.062455453 0.019752117
000240 39 ee 05 3e 0b 89 4b 3d 57 8a e6 bd 9d ae 20 bd
       0.13079156 0.04969124 -0.11256855 -0.039229024
000250 3c b8 03 bc d0 4b 15 3e 3e a4 72 bd 6a ab 7d bd
       -0.00803953 0.14579701 -0.059238665 -0.06193105
000260 5b c3 16 3e 8d 08 77 3d b5 13 27 bc c5 9c 0d bc
       0.1472296 0.06031089 -0.01019757 -0.008643334
000270 67 f2 95 3d 00 37 fa bd 6b 29 8b bd 79 8c 1a 3e
       0.07321625 -0.12217522 -0.06795009 0.15092649
000280 8c af 35 bd 29 12 cc 3d 6c d9 17 3d 88 4c b7 bc
       -0.044356868 0.09964401 0.037072584 -0.02237536
000290 a8 9e 5f bd 34 39 f2 3d 7a f4 94 bb 80 d2 c3 3d
       -0.054594666 0.11827317 -0.0045457454 0.09561634
0002a0 9e 77 3d 3d a4 0d 09 be 4f 7f 06 be 69 1c 13 3d
       0.046256654 -0.1338411 -0.13134502 0.035915766
0002b0 d8 e6 82 bc 26 62 2f be e5 54 71 3b 80 cf 45 3c
       -0.015979216 -0.17127284 0.0036824283 0.012073398
0002c0 4f e9 05 3d 97 3c 3f 3d fc 49 09 3d c7 6a 09 bd
       0.032693204 0.046688642 0.033517823 -0.033549096
0002d0 d2 79 29 3d a1 74 4c bd 6e a6 85 bd d6 65 4d bb
       0.041375943 -0.049915913 -0.065258846 -0.0031341217
0002e0 75 c8 14 be 40 3f 91 3d 3e b9 72 bd 20 2f 26 bd
       -0.14529593 0.07092142 -0.059258692 -0.040572286
0002f0 ea fd 45 bd 48 13 d6 3b 3d 06 64 bd 69 df 11 bd
       -0.048337854 0.00653306 -0.05567001 -0.03561345
000300 d0 06 03 3d 64 fc 40 bd bd 31 d0 bc 51 cd bf bc
       0.03198892 -0.0471157 -0.025414342 -0.023413332
000310 db ee b9 bc 48 98 71 3c 36 ce bb bc 9e 98 94 3c
       -0.022696903 0.014745779 -0.022925477 0.01813918
000320 98 46 55 3d 07 61 15 3d dc fe 4e bd 3e eb 60 bd
       0.052069277 0.036469486 -0.05053602 -0.054911844
000330 82 89 4c bd a8 6d 18 be f4 3f b7 3c e1 53 c8 3d
       -0.049935825 -0.1488558 0.022369362 0.09781624
000340 fb 44 c5 3c 9f d9 8b 3d e9 16 4c 3c 8d 85 6f bd
       0.024080744 0.06828617 0.012456634 -0.058476973
000350 24 70 8a bc 80 45 95 3d f1 d8 67 3d 2d b4 cb bd
       -0.016899176 0.07288647 0.056603376 -0.09946475
000360 7e f5 79 3c 84 23 2e bd c3 2f 22 3d 5b c1 31 bd
       0.015256284 -0.04251434 0.03959633 -0.04339729
000370 e8 5d 0a bd a5 47 8f bd 51 da d9 3d d4 56 b9 3d
       -0.033780962 -0.06996087 0.10637344 0.09049764
000380 c4 2f af bc 10 86 82 3d 55 a7 1a 3e 3c 0a 6c bd
       -0.021385081 0.06373227 0.15102895 -0.057626948
000390 af e7 de 3c 0c 1e 3c 3d 02 31 6c bd 8d 65 7e 3d
       0.027210085 0.045927092 -0.057663925 0.062108565
0003a0 ce a4 1a 3d d2 32 82 3a 7f f7 26 bd 5d 3d a0 3d
       0.037754826 0.0009933359 -0.040763374 0.07824204
0003b0 94 03 0e 3d de d3 a8 3b f0 bc bd 3c 10 d1 08 bd
       0.03467138 0.0051522097 0.023161381 -0.033402503
0003c0 44 61 09 be 61 71 75 3d 3d 1b af 3c c3 29 a5 3c
       -0.1341601 0.05992258 0.021375293 0.020161515
0003d0 86 99 c4 3d 8a 7b 97 bd 21 76 d3 bd 3f 20 f9 bd
       0.09599595 -0.0739661 -0.10325266 -0.121643536
0003e0 88 8a 7e 3b 74 a8 85 3d 66 68 04 3d 1e 37 78 3d
       0.0038839895 0.065262705 0.032326125 0.06059944
0003f0 cd 3e 84 bd 97 f1 74 3d 0b f5 83 3d df d4 e7 bd
       -0.06457291 0.05980071 0.064432226 -0.11319899

layers.2.bias f4 [64]
000000 61 76 27 3c 9d 68 11 bd 26 50 f6 3c ab 0b 2d be
       0.010221095 -0.035500158 0.030067515 -0.16898982
000010 a0 18 9b 3c dc da 2e bd 94 20 0e bd c8 f2 f6 bd
       0.01893264 -0.04268919 -0.034699038 -0.120580256
000020 b4 31 2c 3e c2 96 aa bd 87 b7 6e bd 00 2d e9 3d
       0.16815835 -0.08329536 -0.058280494 0.11385536
000030 fa 8f 19 3e dd c1 f6 bd 47 bb 62 bd d0 df b2 bc
       0.14996329 -0.12048695 -0.055354383 -0.021835238
000040 4b 56 00 3e 9c ca 5c 3c 20 72 db 3d 40 d6 ab 3d
       0.12532918 0.01347604 0.10715127 0.08390474
000050 1d ae 0c bc a0 d4 9c 3d ad f7 4d 3d 6c 61 93 3d
       -0.008586434 0.076577425 0.05028503 0.07196316
000060 39 e7 91 bd ab 99 bc bc 64 33 0b 3b 4d ea a3 3d
       -0.0712418 -0.023022493 0.0021240348 0.08003674
000070 d0 50 28 3e be 97 86 3d 99 c3 fd 3d 0d 3f e9 bd
       0.16437078 0.06571911 0.12390823 -0.11388979
000080 c6 16 89 bd 40 f5 a6 bd 02 60 5d bd f2 00 4f be
       -0.06693797 -0.081522465 -0.05404664 -0.20215204
000090 75 d9 c3 bd bb a1 e2 3d b5 1f b4 bc f5 b4 26 be
       -0.09562961 0.11066004 -0.021987775 -0.16279967
0000a0 43 3a 33 3e a4 4e bc 3d dd c4 4c 3d 7a fd 20 3d
       0.17502694 0.09194687 0.04999243 0.039304234
0000b0 25 43 ad 3d d5 c8 98 bc be 05 f9 3c 68 31 81 bd
       0.084600724 -0.018650452 0.030398246 -0.063082516
0000c0 42 75 a1 3c 00 4c 12 3e 33 99 8b bd cd 8c ef bd
       0.019709233 0.14286804 -0.0681633 -0.116967775
0000d0 3c dd c3 bd 5c 0e 6f 3d 8e 92 d9 bd 1f 00 5e 3d
       -0.095636815 0.058363304 -0.10623656 0.054199334
0000e0 5f 28 be bd 0f 31 3a bd b9 79 83 bd 28 d7 f2 3d
       -0.09285044 -0.045456942 -0.06419701 0.11857444
0000f0 cd 06 16 3e 24 fd cc 3c f6 39 f8 bd b8 81 61 3c
       0.14651032 0.02502305 -0.1212043 0.0137638375

readout.weight f4 [1, 64]
000000 ea 31 2b be 7a a2 55 be da 5b d8 bd 56 b3 71 be
       -0.1671826 -0.20862761 -0.10564394 -0.23603567
000010 94 35 59 be 26 8e 42 3e 3a 8e e3 bd 7b b3 45 3e
       -0.21211845 0.18999538 -0.11111112 0.19306748
000020 6a ce 69 3e 59 b9 22 3e 9f 76 ac 3e 24 17 84 be
       0.22832647 0.15891017 0.3368425 -0.25798905
000030 52 22 4b 3e 52 a7 58 be 17 e5 42 3e e1 1f 29 3e
       0.19837311 -0.21157578 0.19032703 0.16516067
000040 3d 23 5c be 82 6b 56 be 47 d1 f8 bd 5d 35 42 3e
       -0.21497817 -0.20939448 -0.121492915 0.18965669
000050 db 6f 03 be 38 a6 6d 3e 2c 3a e6 3d 52 21 1b be
       -0.12835638 0.23207939 0.11241564 -0.1514943
000060 c6 68 a1 be e9 19 2e be 97 74 32 3e 4e bb 25 be
       -0.31525248 -0.17002071 0.17427288 -0.16184732
000070 cd 55 6b 3e 28 67 3a be 04 b0 29 3e cd 26 93 be
       0.22981949 -0.18203413 0.16571051 -0.2874054
000080 23 bb 07 3e 25 a3 82 be 09 a1 62 3e f1 62 96 be
       0.1325498 -0.25515094 0.22131743 -0.2937236
000090 14 9e 77 be 99 eb 74 be f7 03 3a be 53 5d a1 be
       -0.24181396 -0.23917998 -0.18165575 -0.31516513
0000a0 1e 74 70 3e 9b 70 2d be f9 f8 7e be f4 75 86 be
       0.23481795 -0.16937487 -0.24899663 -0.26261866
0000b0 4a e2 88 be 72 cb 54 3e 57 f2 81 3e bc 1e 69 3e
       -0.26735145 0.20780733 0.25380203 0.2276563
0000c0 8b 09 61 be ab e1 58 3e 2d 95 34 be 96 fa 50 3e
       -0.21976297 0.21179835 -0.17635031 0.20408091
0000d0 0a 35 8d 3e b3 cd 88 be f8 1a 55 be 24 90 8a 3e
       0.27579528 -0.26719436 -0.20811069 0.27063096
0000e0 45 cc c5 be 95 4f 07 3e 85 c1 9a 3e 2d 93 50 be
       -0.38632408 0.13213952 0.3022577 -0.20368643
0000f0 12 de 78 be a7 28 17 be 9c 75 2f 3e a1 b8 28 be
       -0.24303463 -0.14761601 0.17134708 -0.1647668

layers.0.weight f4 [128, 17]
000000 c7 a8 a6 bd 26 b4 05 3f 49 65 d6 3e 1b ab 7e 3e
       -0.081376605 0.5222801 0.4187415 0.24869959
000010 25 1e 79 bc 77 6c c3 be 83 87 e9 3b a5 37 1e be
       -0.015204941 -0.3816869 0.00712675 -0.15450914
000020 c0 90 bd 3e 00 7c 50 be 9c 9b 54 3d bc 84 f2 3d
       0.37024498 -0.20359802 0.051906213 0.11841723
000030 70 82 d7 3d 7b 80 58 3d ed ff ec bd 40 79 d0 bd
       0.10522926 0.052856904 -0.115722515 -0.101793766
000040 16 fe 0b be 22 03 bc bd 9b 96 8d 3e 2f 68 04 3e
       -0.13671145 -0.09180285 0.27653965 0.12930368
000050 40 82 d8 bd ff 60 2e be 43 3c cb be b0 ab 55 be
       -0.10571718 -0.17029189 -0.39694414 -0.20866275
000060 88 0a 14 be 1e 5b 02 be ac f3 14 3e 66 47 8e 3d
       -0.14457142 -0.12730071 0.14546078 0.06947212
000070 35 5f 98 bd 80 61 8a 3e ce 7d 43 be 66 16 05 be
       -0.07440034 0.27027512 -0.1909096 -0.12996826
000080 a3 41 2d be 9c 46 2c be fa d2 4b 3e a1 b8 82 3d
       -0.1691957 -0.1682381 0.199047 0.063828714
000090 18 77 2b 3e 9f 4e c1 bd 59 ea 9e be bf 9a b8 3e
       0.1674465 -0.09438824 -0.31038168 0.36055562
0000a0 7f 7d 20 be 01 0c b9 3e 53 9a df be d7 5f c0 3e
       -0.15672873 0.3614197 -0.43672428 0.3757312
0000b0 be f3 5f be 56 d8 0c 3e 59 9f 86 be 50 85 9c bd
       -0.21870324 0.137544 -0.26293448 -0.07642615
0000c0 05 4a a8 3d 8a f6 99 3d 12 d7 46 3d ea 71 75 3e
       0.08217243 0.07517727 0.04854495 0.23969236
0000d0 4b 06 2b 3e c2 e8 35 3e 36 71 57 be d9 fb 73 3e
       0.1670162 0.17764571 -0.2103928 0.23826541
0000e0 47 aa 12 3f f2 39 dc 3c a3 52 4e be 11 41 a3 3e
       0.5729107 0.0268831 -0.20148711 0.3188558
0000f0 37 63 bc bb f9 a5 98 3e f7 57 88 bd 8b e9 d6 be
       -0.005749132 0.29814127 -0.06657403 -0.41975054
000100 0a 03 d9 bd 07 26 f8 bc 0b a1 3f be 66 07 de bd
       -0.10596283 -0.03029157 -0.18713777 -0.10841255
000110 76 f7 0c bf 35 5e f4 be 71 33 d9 bd d8 f7 8c be
       -0.55065095 -0.47728124 -0.10605515 -0.2753284
000120 d1 31 32 3e c5 34 7f be 56 49 c6 be c8 e2 af be
       0.17401816 -0.24922474 -0.38727826 -0.34352708
000130 fa 95 88 be e1 b5 55 be 5a a5 2e be 96 9a 5d 3e
       -0.26676923 -0.20870163 -0.17055264 0.21641001
000140 ca fd de bc 40 9a 20 bd 37 f4 b1 be 86 6b a8 be
       -0.027220625 -0.039209604 -0.34756634 -0.32894534
000150 5f 07 e6 bd d8 ca 62 be e5 d9 d6 3e 41 e5 ae bd
       -0.11231875 -0.22147691 0.41963115 -0.085398205
000160 b2 8d 0d 3f 48 43 d4 ba ca f4 13 be da 15 ca be
       0.55294335 -0.0016194368 -0.14448848 -0.39469796
000170 4c be 32 be b7 1c a8 3e fb 98 47 3b 8a 86 85 3e
       -0.17455405 0.32834408 0.0030456174 0.26079208
000180 10 d2 e1 bd 3b 17 0a be 10 59 02 3e 01 98 c4 3d
       -0.11026394 -0.13485424 0.12729287 0.09599305
000190 9c ef 9d 3d 77 67 62 be ca ca 69 be 68 c2 99 3e
       0.077117175 -0.22109781 -0.22831264 0.30031133
0001a0 5e 20 d6 be 7e da 4b bd 01 d0 d7 3e 49 2a 61 3d
       -0.4182157 -0.049768917 0.42150882 0.054971967
0001b0 15 19 cc 3d 9c 82 7c be ca ba 81 be 1f 0d 24 3e
       0.099657215 -0.24659199 -0.2533782 0.1602063
0001c0 8e 48 c1 3d bf 83 c6 bd 4a c9 12 3e f7 5b bb bc
       0.09437667 -0.09693097 0.14334598 -0.022871
0001d0 0e bf 67 be 99 53 31 3d 00 a8 78 3d 78 b0 0b 3f
       -0.22631475 0.043292616 0.060707092 0.54566145
0001e0 31 80 f0 bc 25 98 04 3f 98 72 e0 3e ca 81 d3 3e
       -0.029358001 0.51794654 0.43837428 0.4130996
0001f0 0f 08 cb 3e 16 09 65 3e 7e fd 43 be c6 23 7e be
       0.39654586 0.22366747 -0.19139668 -0.24818334
000200 43 ce ff bc 54 d5 9f 3e a6 a9 4e be fa a5 ab bd
       -0.031226283 0.31217444 -0.20181903 -0.08381267
000210 a8 80 00 bd ad ac fb bc d4 40 1a 3e 46 a2 fc 3d
       -0.031372696 -0.030721987 0.15063792 0.12335639
000220 b4 a0 d2 be 5f e5 53 3f 20 31 c0 3e f6 ce 65 3e
       -0.41138232 0.8277187 0.3753748 0.2244223
000230 42 e5 10 3c 65 f0 ad 3e 5a 35 9f be b1 8c 45 3b
       0.008843722 0.3397247 -0.31095392 0.0030143673
000240 7c 4d 49 be 8a 1e 82 3e 38 93 c4 3d 00 de 89 be
       -0.19658464 0.25413924 0.09598392 -0.26927185
000250 7c 90 d5 bd ca f5 6f be d4 24 4a be b8 8e 2d 3e
       -0.10427949 -0.23433605 -0.19740611 0.16948974
000260 05 f6 82 3d 16 4c 9e be 74 07 a9 bd f9 80 bd 3e
       0.06394581 -0.30917424 -0.08253375 0.3701246
000270 f7 6e 8d 3e 40 7d ae bd 7e 47 7b be 36 a7 66 bd
       0.27623722 -0.08519983 -0.24538991 -0.05631181
000280 e1 51 1b bd 54 a2 db be f3 56 d9 3e 55 38 f4 3d
       -0.037919883 -0.42897284 0.4244915 0.11924807
000290 8e a5 8f ba b7 c3 a6 3d 9b aa c0 be 7e 28 9c be
       -0.0010959373 0.081427984 -0.37630162 -0.30499643
0002a0 6e 66 a9 bd 23 74 2f bd 7e a5 20 be 6a 4f 1c 3e
       -0.0827149 -0.042835366 -0.1568813 0.15264669
0002b0 ce 3f af 3e fe 49 e0 be 5e 1f d0 3e 64 5e 0c 3f
       0.34228367 -0.43806452 0.4064893 0.5483153
0002c0 c8 4f 42 3e d4 90 85 3d 7e 13 9c be 32 a5 8f 3c
       0.18975747 0.065217644 -0.3048362 0.017534826
0002d0 d1 30 76 be 0f 7a 87 bd c8 92 e5 bb 54 45 ac be
       -0.2404206 -0.06615078 -0.007006023 -0.33646643
0002e0 bb 48 4e bd 57 c9 21 3d 85 52 82 bc 4e 39 eb bd
       -0.05036233 0.039498653 -0.015908489 -0.114855394
0002f0 42 5a a8 bd a2 9b 08 bf 79 27 3f 3e c6 19 98 bd
       -0.0822034 -0.53362477 0.18667401 -0.07426791
000300 8d f5 da bd 27 97 1f bd 92 1b 8b 3d 94 d4 55 3e
       -0.10691366 -0.03896251 0.06792368 0.20881873
000310 e6 98 0d 3e e7 f6 e3 bc 54 6c 18 be 9e fa d5 3d
       0.13827857 -0.027827693 -0.14885074 0.10448192
000320 e2 f0 55 3e 28 c0 a2 be 1c d8 94 be 77 ae e1 bd
       0.20892671 -0.3178723 -0.29071128 -0.11019605
000330 60 49 32 3e d6 8b d7 3c e2 8d c2 be 7f b5 09 3e
       0.17410803 0.026311796 -0.37998873 0.13448142
000340 7a 72 5a 3e 21 65 41 3e 4c 72 c0 3e 88 03 f8 3b
       0.21332732 0.18886234 0.37587202 0.0075687803
000350 c5 b9 65 be 5f b1 33 3e 03 98 c5 be c1 5e f9 bd
       -0.22434147 0.1754813 -0.38592538 -0.12176276
000360 0d 4c 53 3e 35 12 5c 3d eb 67 f8 bd ba cc 2a be
       0.2063448 0.0537283 -0.12129196 -0.1667966
000370 ab 35 2b be 41 e5 14 3e 4c 12 ee be 74 18 bb bd
       -0.16719691 0.14540578 -0.46498334 -0.091355234
000380 62 2d 64 3e 97 1a 9b 3d b6 84 01 3f dd e8 b6 3e
       0.22282937 0.07573431 0.50593126 0.35724536
000390 c4 4b 79 3e be 30 02 be 41 0e 5c 3d 7b 58 3d bd
       0.24345309 -0.12713906 0.05372453 -0.04622696
0003a0 a7 aa b7 bd 3c b0 19 3d 01 42 d0 3d 0d 8f 87 be
       -0.08968096 0.037521586 0.10168839 -0.26476327
0003b0 0a 93 a4 bd 4d 19 31 bd cf 71 8d be fb 21 32 bd
       -0.08035858 -0.04323702 -0.27625892 -0.043489438
0003c0 7d 53 e6 3e f0 23 ac 3e e1 44 4c bd 8f ed 10 3f
       0.44985572 0.33621168 -0.049870376 0.56612486
0003d0 68 cd 3e 3d 45 3c 36 bd b5 c1 ce 3e d9 50 64 be
       0.04658261 -0.04449107 0.40382162 -0.22296466
0003e0 cd 99 74 3d 40 55 16 3e 31 f1 84 3d 5f 91 a4 3e
       0.05971699 0.14680958 0.06491316 0.3214216
0003f0 6e fb a8 3c d2 82 cc bc 29 22 04 3e 89 bc a1 be
       0.020627704 -0.024964724 0.12903656 -0.31589153

layers.0.bias f4 [128]
000000 b8 1f b8 3e c0 ff d2 bb 6e 9c de be 00 57 9f bc
       0.359617 -0.006439179 -0.4347872 -0.019450665
000010 d3 e1 e5 3d 89 47 07 3f 94 e1 9c 3e f3 66 c7 3e
       0.11224713 0.5284353 0.30640852 0.38945732
000020 40 d9 6e be 39 06 52 3e 3f c3 8c 3e 6b 6c 96 be
       -0.23325062 0.20510186 0.2749271 -0.2937959
000030 c0 fa 0d 3f d9 3d b3 3e 0e eb 5d 3e 9d 61 ba 3e
       0.5546074 0.35008124 0.21671697 0.36402598
000040 9d a7 87 3e 53 23 7b 3d 86 ce 8a 3e 5e c3 ba be
       0.26495066 0.061312985 0.2711069 -0.36477178
000050 4a 8b f0 3e 05 a5 97 3e b5 6b ed bd 7a 75 43 bc
       0.4698127 0.29618087 -0.11592809 -0.011929864
000060 1a 52 23 be cb 12 cd 3b d1 ff a1 3e 99 57 73 3c
       -0.15949288 0.006258344 0.31640485 0.014852428
000070 f7 b1 3b 3e 54 7f 6e be 63 44 c6 3e 10 a0 e1 3d
       0.18329607 -0.2329076 0.3872405 0.110168576
000080 be 5f 84 3e b5 4e 7a 3e d8 ee c7 3e 89 10 6a be
       0.25854295 0.24444087 0.3904941 -0.2285787
000090 7c 27 cf 3e d4 8f 0c 3f 8a 4d ea bc 80 dc 50 bd
       0.40459812 0.54906964 -0.028601427 -0.050991535
0000a0 e5 64 b8 3e fb a1 bc 3e 0a d7 fa 3c dc 10 ff 3e
       0.36014476 0.3684233 0.030620117 0.4981755
0000b0 97 56 3d 3e d3 e7 a6 3c bf 9e 3d 3d ea 89 34 3d
       0.18490063 0.020374214 0.04629397 0.044076838
0000c0 b9 5d 1b 3f f8 d3 85 3e 0a 75 a1 3e dc 6a d3 bd
       0.60689884 0.26138282 0.31534606 -0.10323116
0000d0 55 a6 20 3e db 36 85 be d9 11 fd 3d ff 67 41 3f
       0.1568845 -0.26018414 0.1235692 0.7554931
0000e0 12 0e 19 3f f1 b1 de 3e 20 f4 0e 3e ac 07 0e 3d
       0.59787095 0.43495134 0.13960314 0.034675285
0000f0 55 77 6b 3e 8e d0 2a 3d 4e 17 53 be d3 a2 25 3d
       0.2299474 0.0417028 -0.20614359 0.040438484
000100 42 25 9c be 88 4e 41 3e eb 67 07 3f d5 69 35 3e
       -0.30497175 0.18877614 0.5289294 0.17716153
000110 ae f8 10 3e 59 6a ad bd 0f 63 b2 3e d5 ea aa 3e
       0.14157364 -0.0846755 0.348412 0.33382288
000120 ee e9 24 bd b2 92 75 3e b3 6f 53 be b8 85 ba 3e
       -0.040262155 0.23981741 -0.20648079 0.36430144
000130 4d 77 ff 3e 8c 7b 49 3e 7f ee 17 3e 36 72 3e 3e
       0.49895707 0.19676036 0.14837073 0.18598256
000140 7b 9f a6 3e b6 ed 86 bc 0a a3 1e 3e 97 be ff 3e
       0.3254355 -0.016470771 0.15491882 0.49950096
000150 24 85 e7 3e ab d5 ad 3c 09 1d e1 be 18 25 49 3e
       0.45218766 0.021220049 -0.43967465 0.19643056
000160 9b aa 9f 3e 1e 14 53 3e 3c a0 94 3e b4 c4 96 bd
       0.3118485 0.20613143 0.290285 -0.07361737
000170 8e b1 58 be 73 ac e9 3e d7 3e 6f 3e 1d fd 0e 3f
       -0.21161482 0.4563938 0.23363815 0.5585497
000180 59 c3 8d bc e3 ab 8e bd f7 93 a1 bd 36 34 6b 3e
       -0.017305063 -0.069663785 -0.0788955 0.22969136
000190 1d fd 78 3e 9c 9e c2 3e b7 b6 85 3e d4 07 14 3f
       0.24315305 0.38011634 0.26115963 0.57824445
0001a0 c1 7b e1 3e 0f dc 14 3b d8 0d ee 3e 11 62 19 3e
       0.4403973 0.0022714173 0.46494937 0.14978816
0001b0 eb 28 e3 3e 8f 4f f0 3d e5 d1 08 3f 45 86 93 3e
       0.44367155 0.117339246 0.53445274 0.28813377
0001c0 20 80 2c be 3a 14 ae 3d 2c 73 00 3f 5b 62 a8 3e
       -0.16845751 0.08499952 0.5017574 0.3288754
0001d0 f5 7f d7 3e 38 22 9a bd fb cc 11 3d b7 8f 01 3e
       0.4208981 -0.07526058 0.035595875 0.12652479
0001e0 25 18 90 3d 1b a8 14 3f 00 f8 d9 3c 4e 5b 15 3f
       0.07035855 0.5806901 0.026607513 0.58342445
0001f0 37 5c a7 3e 35 8b 13 3e c0 d7 1b 3e b8 cb 80 be
       0.32687542 0.14408572 0.15219021 -0.25155425

layers.1.weight f4 [128, 128]
000000 8d cd 0a 3e 67 0c 1b be 4a 75 bd b9 97 fd 0f be
       0.13554974 -0.1514145 -0.00036136276 -0.1406158
000010 59 a0 20 bc 7f cc bc bb 77 b4 13 3d bb cb 01 3d
       -0.009803855 -0.0057616825 0.036060777 0.031688433
000020 a4 5a ec 3d 40 ac 3a 3d 0d 5a 23 3d 9a db 0a be
       0.11540726 0.045574427 0.0398808 -0.13560334
000030 fe 01 1b 3c 08 4f 07 3e e1 77 02 3d c9 bf 85 bd
       0.009460924 0.13213742 0.031852607 -0.06530721
000040 fe 5b 13 bd e8 1c 70 3d d0 d2 0b bd 36 be 01 3e
       -0.035976402 0.058621317 -0.034136593 0.12670216
000050 b1 77 06 bd 42 d5 83 bc a5 b1 20 3d 2f 42 52 bd
       -0.03282899 -0.0160929 0.039231915 -0.05133265
000060 3d 6c eb bc 51 07 39 3e 76 b3 b0 3d 98 c1 08 bd
       -0.028738135 0.18069197 0.086279795 -0.03338775
000070 2c dd 3e 3d f9 0d 09 3c 19 51 b4 3b 49 74 ec 3d
       0.046597645 0.008365148 0.0055028317 0.11545617
000080 c1 1f 77 bd aa 03 16 bd ee 16 c0 3d da d0 fe bc
       -0.060333017 -0.036624588 0.093793735 -0.031105448
000090 19 03 0e bd c1 e5 23 bd ab 96 a3 3c da c7 02 3e
       -0.034670923 -0.040014032 0.019969305 0.1277155
0000a0 c9 37 0d bd c7 45 65 bd 34 25 04 be 3c 7c 66 3d
       -0.03447703 -0.055974748 -0.12904817 0.056270823
0000b0 cc ae 93 3d 3e bf 88 bd 4d cf 8b 3d 99 0b 33 3d
       0.07211074 -0.066771016 0.06826649 0.043712232
0000c0 10 47 5e 3b d7 28 8a bb 9f 9c 9f 3c e3 7a 0f 3b
       0.0033916868 -0.0042162943 0.019483862 0.0021893315
0000d0 55 ca 89 bc 31 78 a2 3b 9f 10 47 3d 81 08 a7 bd
       -0.016820112 0.0049581756 0.048599835 -0.08155919
0000e0 43 67 97 3d 11 3f ab bd 87 2d af 3d 89 4d c3 bd
       0.073927425 -0.08361638 0.085536055 -0.09536273
0000f0 64 ac e9 3d 90 8b c5 3d 53 60 1a 3d 2d dd 3d 3d
       0.11409834 0.0964576 0.03768952 0.046353508
000100 a5 e5 c5 bb 18 88 d3 bd 4e 6b 98 3d 46 9d a8 3d
       -0.0060393387 -0.10328692 0.07442342 0.082331225
000110 82 06 55 3d 27 76 d1 bd 3b 8d a1 3d 29 89 7d bd
       0.05200816 -0.10227614 0.07888266 -0.061898384
000120 e8 e8 c7 bd cb 44 83 3c b6 fc f8 bd 76 48 bb bd
       -0.0976122 0.016024014 -0.12157576 -0.0914468
000130 e4 8a b8 3d 92 da ac 3c 05 32 7b bb e9 fe b0 3c
       0.09010866 0.021100316 -0.0038329375 0.021605926
000140 83 99 35 3d a6 4b ea bc b9 bf 0a 3e 34 12 ac 3d
       0.044335853 -0.028600525 0.13549699 0.084019095
000150 49 44 26 3e b8 b9 02 3d fb 84 4a 3c 89 5e 94 3d
       0.16236986 0.031915396 0.012360807 0.07244594
000160 00 e7 83 3d 9b 97 31 3d 84 90 f9 3d 62 c9 f0 bc
       0.06440544 0.043357473 0.12185767 -0.029392902
000170 e9 c3 40 3d d7 1f c9 bc 65 ca 8d 3b 6f 8f 27 3d
       0.047061834 -0.024551315 0.004327106 0.040908273
000180 8b 04 9e 3b 01 3d 74 bd d3 cc 26 be b3 86 9b 3c
       0.004822319 -0.05962849 -0.16289072 0.018985128
000190 25 7e 88 3c 33 cb 2c bd 52 5f b6 3d 97 6e a0 3d
       0.016661713 -0.042185973 0.089049 0.07833593
0001a0 a5 f2 1c 3e 99 3a f4 3d 07 6e f1 3d 1f 6a 34 3d
       0.15326937 0.11925239 0.11788564 0.044046517
0001b0 2e 72 26 3d ee 31 a7 3d 4f 9f cf 3d e2 58 2d bc
       0.040636234 0.0816382 0.101378076 -0.010580273
0001c0 aa d3 0a 3e 11 04 0a 3e fe 05 9c bd 38 75 94 bd
       0.13557306 0.13478114 -0.076183304 -0.0724892
0001d0 d6 e4 18 3e 09 3e 7f b9 3b 0b b5 bc 95 f3 c5 3b
       0.14931044 -0.00024341805 -0.022100082 0.006041
0001e0 1d 08 f2 3c 5c ab bf bc a9 f9 83 3c 77 3e 7c 3e
       0.029544884 -0.02339714 0.016110258 0.24633203
0001f0 e3 2e 1a 3e d5 09 87 bc bb 9f 61 3c c0 be 0a bd
       0.15056948 -0.01648418 0.013770993 -0.03387332
000200 61 d4 a1 3d 62 4a dd bc ae 45 3d be 5a 9f 4e 3c
       0.07901836 -0.027013008 -0.18483612 0.012611235
000210 19 3e 40 3b 8e 06 02 be 0c 14 62 be 95 bb 06 be
       0.0029333888 -0.12697813 -0.2207796 -0.13157494
000220 20 3c 45 bc d8 56 a2 bd 78 6c 36 3d a7 49 1e be
       -0.012038261 -0.079267204 0.044537038 -0.15457784
000230 a3 42 c0 bd c0 dd 01 bd ce db 23 bd 21 50 8b 3d
       -0.0938771 -0.031705618 -0.040004544 0.06802393
000240 21 4d 77 bd c1 e9 90 3d 3d ee 76 be 43 a6 7d 3c
       -0.06037629 0.07075835 -0.24114318 0.015481534
000250 b4 3d de bd f0 2e 21 bd b2 6c e0 3d 7a 8e fd bd
       -0.10851613 -0.039351404 0.10958232 -0.12380691
000260 19 30 03 3d d2 42 a6 bd 98 b3 3b bd 8b 97 b8 3d
       0.03202829 -0.08118214 -0.04582557 0.090132795
000270 88 0b bd 3d 6b 68 49 bd 44 4f bc 3c 73 10 aa bd
       0.09230715 -0.049171846 0.022987016 -0.08303919
000280 ff 3d 4b 3e 1c 69 cb bd b7 2a 28 be e3 40 53 bc
       0.19847868 -0.099321574 -0.16422544 -0.012893888
000290 a4 c4 88 be 34 89 47 3d 84 a8 05 3d 1b 13 dd 3d
       -0.26712525 0.04871483 0.032631412 0.1079466
0002a0 f8 2c f2 bb 46 d3 1b be aa b1 82 3d 5d d1 4d bd
       -0.0073906146 -0.15217313 0.06381543 -0.050248493
0002b0 7f d3 1f ba 3d 6f 8a be 45 1f 8a bb b8 9e da 3d
       -0.0006096884 -0.27037993 -0.0042151534 0.106748044
0002c0 22 84 e9 3c 43 bc 02 3d b6 6d d6 3d 82 60 2e 3c
       0.028505389 0.03191782 0.104701445 0.010643126
0002d0 30 26 68 3d e6 2a 2c 3d c7 67 93 3d 7c a3 32 be
       0.056677043 0.0420331 0.07197528 -0.17445177
0002e0 8a 3f b0 3d 44 a8 1a 3d 26 f6 d2 bc 71 d9 16 3d
       0.08605869 0.037758127 -0.025752138 0.036828462
0002f0 f6 30 92 3d 9d ea ca bd 31 a9 73 3d a5 76 c4 3d
       0.07138245 -0.0990803 0.059487525 0.09592942
000300 57 50 3d bd a0 d0 80 be f6 0f 34 be ab ca 6d 3d
       -0.046219196 -0.25159168 -0.17584214 0.058054607
000310 dc 4c c4 3d 90 19 2d bd 2e d2 01 3e a9 97 43 be
       0.09584972 -0.042260706 0.12677833 -0.19100823
000320 8a 93 8d 3d 58 69 aa 3d 5c 3c d7 bc 50 14 bc bd
       0.069129065 0.08320874 -0.026273899 -0.09183562
000330 a3 7a 8e bd fd 5c a1 3a c7 65 10 3e 26 b9 29 bd
       -0.06956985 0.0012311038 0.14101325 -0.041436337
000340 ed 7c 4f 3d 9b e8 c7 bd 9e ae 81 bd b5 8d 3d 3d
       0.050656248 -0.09761163 -0.06332134 0.04627772
000350 af 41 87 bd f4 0c 13 3e 23 55 8b be b2 9e 14 bd
       -0.06604325 0.1436041 -0.27213392 -0.036284156
000360 3d 8d af bd a8 65 7c 3c 71 3d 64 bd a5 40 90 bd
       -0.08571861 0.015405096 -0.055722658 -0.0704358
000370 1c a7 c4 bd e2 57 d0 bd 2a 5b a9 bb 87 25 b7 3d
       -0.09602186 -0.10173012 -0.0051683383 0.08942705
000380 f3 a6 df bd 05 2b cf 3c 0b 4d 56 3c de 4d f0 3c
       -0.10920515 0.025289068 0.013079892 0.029334005
000390 98 d3 99 bb fa ff 21 bd 43 bc c8 3d 1d f8 18 bc
       -0.0046944134 -0.03955076 0.09801533 -0.009336499
0003a0 80 f0 ca 3c c4 34 e8 3d fa 00 3f be 0f 16 cf 3d
       0.024772882 0.11338189 -0.18652716 0.10111629
0003b0 2c f0 74 3d b1 a7 08 3c 11 c5 01 be 08 4d ff 3d
       0.05979936 0.008340762 -0.12672831 0.124658644
0003c0 c1 1c 5c bc f2 3a fc bd 0c 1f 91 bd 82 8f b8 bd
       -0.01343459 -0.123159304 -0.07086 -0.09011747
0003d0 f6 88 8e 3b 14 09 0a be b5 27 28 be cc d4 db bd
       0.004349823 -0.13480026 -0.16421397 -0.10733947
0003e0 c4 6b 1f 3e 37 91 b1 bd 92 9c 52 be d0 33 33 be
       0.15568453 -0.08670276 -0.2056754 -0.17500234
0003f0 45 13 1a bd 75 99 ca bd 51 b6 d9 3b 56 cd d8 bd
       -0.037616033 -0.09892551 0.0066440483 -0.1058604
