Homework9/9_gym-DDPG/results/DDPG_HalfCheetah-v5_4500-eps0.1-t32-l0.0001-sNone.pth (torch, 195808 bytes, 13 tensors)

layers.0.weight f4 [128, 23]
0	0xbeea0a59	-0.4571102
1	0x3e847295	0.2586867
2	0xbec12ce4	-0.3772956
3	0x3e1096b2	0.14119986
4	0x3d521501	0.051289562
5	0xbdfd40f9	-0.12365908
6	0x3e87d6f1	0.26531175
7	0xbdbcf2d6	-0.09226005
8	0x3e66c9d3	0.22537927
9	0x3eca57d9	0.39520147
10	0x3e0deb49	0.13859285
11	0x3d705edc	0.058684215
12	0xbc86cff9	-0.016456591
13	0xbc6c61c9	-0.014427611
14	0xbdf83236	-0.12118952
15	0xbd7d33aa	-0.06181685
16	0xbc7cc95f	-0.01542887
17	0x3e542b36	0.20719609
18	0x3e960063	0.2929717
19	0x3d8673dd	0.06565068
20	0x3d063f8c	0.032775447
21	0xbefd888e	-0.49518245
22	0xbe1d3618	-0.15352666
23	0xbd72ce80	-0.059278965
24	0x3eb8f245	0.36122337
25	0xbe28d330	-0.16486812
26	0x3f13a3f8	0.5767207
27	0x3d5a731f	0.053332444
28	0xbecf7192	-0.40516335
29	0xbe9a35f4	-0.30119288
30	0xbd188e2c	-0.03724496
31	0xbeb2ae68	-0.34898686
32	0xbda05243	-0.0782819
33	0xbccb9b1e	-0.02485424
34	0xbd7f75ea	-0.06236831
35	0xbcf19a40	-0.029492497
36	0x3bfe3ff5	0.007759089
37	0xbca3c3bf	-0.0199908
38	0xbba2cb26	-0.004968065
39	0x3bf31bd8	0.0074190907
40	0x3dc3599e	0.095385775
41	0xbdb0b714	-0.086286694
42	0x3cabe059	0.020981
43	0x3e0efb2f	0.13963006
44	0x3d96d916	0.073656246
45	0x3d0a2623	0.033727776
46	0x3ebb624b	0.3659843
47	0x3da3c24b	0.07996043
48	0xbdc1f7a1	-0.094710596
49	0xbf0d601b	-0.5522477
50	0xbe02ca18	-0.12772405
51	0x3f23b181	0.63942724
52	0xbe805744	-0.25066578
53	0x3d752e9c	0.059858903
54	0x3e075cbd	0.1321897
55	0x3ecbc1e5	0.39796367
56	0x3f29c326	0.663134
57	0x3c966991	0.018360885
58	0x3c99a284	0.018754251
59	0x3bbff04d	0.0058575035
60	0x3de6ab66	0.112631604
61	0x3db96ae2	0.090535894
62	0xbc19dcd8	-0.009391032
63	0x3c05d716	0.008168956
64	0x3df43389	0.11923892
65	0x3d1aa4a3	0.037754666
66	0xbe991ee2	-0.29906374
67	0x3e02d2cf	0.1277573
68	0xbd865462	-0.065590635
69	0x3de08508	0.10962874
70	0x3dfdb7a0	0.12388539
71	0x3e4a5bb5	0.19761546
72	0x3ed50d4e	0.41611713
73	0xbd69ade6	-0.057050608
74	0x3e11be6a	0.14232793
75	0xbd508100	-0.050904274
76	0x3e014d42	0.12627128
77	0xbdd97362	-0.10617711
78	0xbebe3ff6	-0.37158173
79	0x3ef5fe35	0.48045507
80	0x3d80b577	0.06284612
81	0x3d9302fc	0.071783036
82	0x3c90602b	0.017623981
83	0x3dbba062	0.0916145
84	0x3d456e07	0.048200633
85	0xbc6bce41	-0.0143924365
86	0x3dfe6194	0.12420955
87	0x3e812068	0.25220037
88	0x3d9fc57d	0.0780134
89	0x3e883e9f	0.26610276
90	0xbd86e66a	-0.06586917
91	0xbcf5a47b	-0.029985657
92	0xbe66604b	-0.2249767
93	0x3cdb7ff5	0.026794413
94	0x3f1b5a49	0.6068464
95	0x3f02a34b	0.51030415
96	0x3e0c12ec	0.13679093
97	0xbeb96ea7	-0.36217234
98	0x3c2121aa	0.009834686
99	0x3e37ccda	0.17949238
100	0xbe24a70f	-0.16079353
101	0x3e5ced53	0.21574907
102	0xbeb9dba6	-0.3630039
103	0xbcae5fef	-0.02128598
104	0xbdd464a9	-0.10370762
105	0x3c81eecf	0.015860943
106	0x3d38ea8e	0.045145564
107	0xbd952bce	-0.07283746
108	0xbd8b01e4	-0.0678747
109	0x3e6cd4c8	0.23128045
110	0x3bd565ea	0.0065123932
111	0x3d726ce5	0.05918588
112	0x3e7be8a3	0.24600463
113	0xbd60a9f8	-0.054849595
114	0xbd2de0fc	-0.04245089
115	0xbf3b1ae4	-0.73087907
116	0xbe7a37d2	-0.24435356
117	0xbec4b3c9	-0.38418415
118	0x3e27ed70	0.16399169
119	0x3cf5ab2e	0.029988851
120	0x3dbcad47	0.092127375
121	0xbb356415	-0.0027678062
122	0xbe16b579	-0.14717664
123	0x3e05f78d	0.13082714
124	0xbd2ec5d7	-0.042669144
125	0xbe2d4594	-0.16921073
126	0x3cb85f0f	0.022506265
127	0xbd2170e4	-0.0394143
128	0xbc9ddad0	-0.019269377
129	0xbd346ee0	-0.04405105
130	0xbcda1ac9	-0.0266241
131	0x3c45bb99	0.012068653
132	0x3bbcc2a2	0.0057605067
133	0x3cf1056b	0.029421529
134	0x3e0c19ec	0.13681763
135	0xbea67099	-0.3250778
136	0x3e1b3ce0	0.1515994
137	0x3e44ca87	0.19217883
138	0x3e080cb2	0.13286093
139	0xbeb7323f	-0.35780522
140	0xbe54423a	-0.20728388
141	0xbe4a3966	-0.19748458
142	0xbe39578c	-0.18099803
143	0x3d30b11e	0.043137662
144	0xbe98b326	-0.2982418
145	0x3d0d16eb	0.034445684
146	0x3eb59175	0.35462537
147	0x3d1d2664	0.03836669
148	0x3dc30cb0	0.09523904
149	0x3d01d14e	0.03169375
150	0x3d6e0024	0.058105603
151	0xbbf49d29	-0.007465024
152	0x3cb6ec6e	0.022329535
153	0xbc2a7a57	-0.010405145
154	0x3caf51c9	0.021401303
155	0xbe04e483	-0.12977795
156	0x3baa058a	0.0051886486
157	0x3ce9e168	0.028549865
158	0x3cc5c669	0.02414246
159	0xbdf99f2f	-0.12188565
160	0x3dc213e9	0.09476454
161	0xbe800e69	-0.25010994
162	0xbe95a7f9	-0.29229715
163	0x3e21cd24	0.15800911
164	0x3deeb87c	0.11656281
165	0x3eaef366	0.34170073
166	0xbe9ec7da	-0.3101185
167	0xbe4a8888	-0.19778645
168	0x3e4ded60	0.20110083
169	0x3e27f2b1	0.16401173
170	0xbe9908af	-0.29889438
171	0xbe46244c	-0.19349784
172	0x3be43072	0.006963783
173	0x3d33dca7	0.043911602
174	0xba9bf646	-0.0011898957
175	0x3d0b934a	0.034076013
176	0x3d9fd489	0.0780421
177	0x3b2b08c2	0.002609775
178	0xbe29ece2	-0.1659427
179	0x3e5f0ab3	0.21781425
180	0xbe0882cf	-0.1333115
181	0x3e8623ae	0.26199096
182	0x3ea93850	0.33050776
183	0xbe1b3022	-0.1515508
184	0x3e7b909b	0.24566881
185	0xbc60b03e	-0.013713894
186	0xbeaae954	-0.3338114
187	0x3e479cf1	0.19493462
188	0xbde3dcee	-0.11126123
189	0xbeba3036	-0.36364907
190	0xbe1770e2	-0.14789155
191	0xbd87deb1	-0.06634272
192	0xbda6599a	-0.08122559
193	0xbd9a6c2d	-0.07540164
194	0x3e1811f5	0.148506
195	0x3d890890	0.06691086
196	0x3b407b8d	0.0029370517
197	0x3d036d79	0.032086823
198	0x3d8c68dc	0.06855938
199	0x3c476948	0.012171097
200	0x3c6cabb1	0.014445231
201	0xbecf137e	-0.4044456
202	0xbea04cc1	-0.3130856
203	0x3e17a838	0.14810264
204	0x3ebe3009	0.37146023
205	0x3c6de9b4	0.014521051
206	0xbe7b5cfa	-0.24547186
207	0x3e94bd8b	0.2905086
208	0x3dde0c40	0.1084218
209	0x3da30959	0.07960767
210	0x3a4aaa48	0.00077310624
211	0xbd60c3c0	-0.05487418
212	0xbeb8b7fa	-0.36077863
213	0xbc7d1993	-0.015447992
214	0xbe2875f2	-0.16451243
215	0xbf001054	-0.50024915
216	0xbe7f6fe1	-0.24945022
217	0xbdb98d00	-0.09060097
218	0x3d89101a	0.06692524
219	0xbce9cabf	-0.02853906
220	0x3b91f65b	0.0044544167
221	0xbd770b34	-0.06031342
222	0xbd6892c0	-0.056780577
223	0xbb867a8d	-0.0041039647
224	0xbcc420dd	-0.023941452
225	0x3e1fcb1a	0.15604821
226	0x3d8b25af	0.06794297
227	0x3df664df	0.120309584
228	0xbe028cc8	-0.12749016
229	0x3df222b2	0.11823024
230	0xbe299c01	-0.16563417
231	0x3eac0afd	0.33602133
232	0x3e303eee	0.17211506
233	0xbed62e84	-0.41832364
234	0xbeb57e61	-0.35447982
235	0x3e38d520	0.1805005
236	0x3f02d29b	0.5110261
237	0x3e78d3fa	0.24299613
238	0xbe0cf49c	-0.13765186
239	0x3dc91e3c	0.0982022
240	0xbd69613c	-0.056977496
241	0xbd21858c	-0.039434
242	0xbda97a17	-0.0827524
243	0xbd5bad27	-0.053631928
244	0xbc8e3b67	-0.01736231
245	0xbcc9998a	-0.024609346
246	0xbce2beb7	-0.02767883
247	0x3dd9d298	0.10635871
248	0x3d5a38bd	0.053276766
249	0xbd9bc7cc	-0.076064676
250	0x3e87232b	0.2639402
251	0x3ca38d9a	0.019964982
252	0x3e6dcb82	0.23222163
253	0x3cbdde88	0.0231774
254	0xbe6557d9	-0.22396792
255	0xbf336fcb	-0.7009246

layers.0.bias f4 [128]
0	0x3f1025fa	0.5630795
1	0xbe8df4e8	-0.2772591
2	0x3ec816bd	0.39079848
3	0x3d03b560	0.032155395
4	0x3d1fb272	0.038988538
5	0x3eae6bb0	0.34066534
6	0x3e8eb1c0	0.27869987
7	0x3ea9b15f	0.33143136
8	0xbed710eb	-0.42005095
9	0xbd6288d1	-0.05530626
10	0x3f0725ae	0.5279187
11	0xbe9c35b1	-0.30509713
12	0x3e542051	0.20715453
13	0x3e479c4e	0.1949322
14	0x3dd15ac3	0.102223895
15	0xbe41a85e	-0.18911883
16	0x3cbe6cc2	0.02324522
17	0x3ee83f3c	0.45360744
18	0xbef2dc5e	-0.47433752
19	0xbe6c3aea	-0.23069349
20	0x3e23911b	0.15973322
21	0xbd856ed8	-0.065152824
22	0x3f184b47	0.59489864
23	0xbe531192	-0.20612171
24	0x3eadfc45	0.3398153
25	0x3d75f651	0.06004936
26	0x3e32a538	0.17445838
27	0x3dda949f	0.106728785
28	0xbf045fcf	-0.5170869
29	0x3ef1dc72	0.472385
30	0x3e9370b7	0.28796932
31	0xbe091b89	-0.1338941
32	0x3e235ae0	0.15952635
33	0xbe1c594d	-0.1526844
34	0x3e75c778	0.24001873
35	0xbe15704f	-0.14593624
36	0x3d81deac	0.063412994
37	0x3e1bca93	0.15213995
38	0xbb94b025	-0.0045375996
39	0xbe7967ed	-0.24356051
40	0xbe8616b7	-0.26189205
41	0xbedaec6a	-0.42758495
42	0xbddf7ac2	-0.10912086
43	0x3e81c3e8	0.25344777
44	0xbd8bded0	-0.068296075
45	0xbf03b37d	-0.5144575
46	0x3e86409e	0.26221174
47	0xbeb4e3e1	-0.35330108
48	0x3d4a93a9	0.049457226
49	0x3e01a7d3	0.12661676
50	0x3e8b36d9	0.27190283
51	0x3e31abf2	0.17350748
52	0xbe5a5c1f	-0.21324204
53	0xbe4f1aa2	-0.20225003
54	0x3dc3c29a	0.09558602
55	0xbec3b3b6	-0.38223046
56	0x3ec06d03	0.3758317
57	0x3d7d1441	0.061786894
58	0xbd603d6b	-0.054746073
59	0x3e317885	0.17331131
60	0x3e73633c	0.23768324
61	0x3ec615d2	0.38688523
62	0x3ea22ed6	0.31676358
63	0xbccb98dc	-0.024853162
64	0x3e8c60af	0.27417514
65	0xbe784ba4	-0.24247605
66	0x3e308664	0.17238766
67	0xbcfc8183	-0.030823475
68	0xbcbc3b2a	-0.02297743
69	0xbe98d890	-0.29852724
70	0xbed0e515	-0.40799776
71	0x3e08666a	0.13320318
72	0xbe4b1dae	-0.1983554
73	0x3e2749a6	0.16336688
74	0x3ebe8a9f	0.37215135
75	0x3ec90737	0.39263317
76	0x3edc77d0	0.4306016
77	0x3e6563a9	0.22401299
78	0xbdbd8168	-0.09253198
79	0x3eb33f00	0.35009003
80	0xbe9b9857	-0.30389664
81	0x3e660aef	0.22465108
82	0xbebd973a	-0.3702944
83	0xbb34915f	-0.0027552468
84	0x3e363f83	0.17797665
85	0xbeea2490	-0.4573102
86	0x3eb80b73	0.35946235
87	0xbe10ab5e	-0.14127871
88	0xbe48e14a	-0.19617191
89	0xbe4dd6d9	-0.20101489
90	0xbe02ecae	-0.12785599
91	0x3e5acdfe	0.21367642
92	0x3e550a53	0.2080472
93	0x3e009136	0.12555394
94	0x3e3bf00d	0.18353291
95	0x3dbfc445	0.09363607
96	0x3f00e9b3	0.50356597
97	0xbe147d5d	-0.14500947
98	0xbeee96c7	-0.4659941
99	0xbc909a45	-0.017651686
100	0x3e994309	0.29933956
101	0x3e569fca	0.20959392
102	0x3dd4f90b	0.10399064
103	0x3ee9c9b9	0.45661715
104	0xbeb09692	-0.34489876
105	0x3e6bb8d2	0.23019722
106	0x3edc0c69	0.42978218
107	0xbc352d41	-0.011058153
108	0xbe5cac08	-0.2155
109	0xbf16f441	-0.5896645
110	0x3ed2a3dc	0.4114064
111	0xbee0bd14	-0.43894255
112	0x3d6ecebb	0.058302622
113	0x3e588c39	0.2114724
114	0x3e23c9dc	0.15994972
115	0x3df405f2	0.119151965
116	0x3eba6adb	0.3640965
117	0x3dcbfd4d	0.09960423
118	0x3f03e83c	0.51526237
119	0xbe32ef5f	-0.17474125
120	0xbed6bdb7	-0.41941616
121	0x3e05b8c2	0.13058761
122	0x3dae7c13	0.08519759
123	0x3e1c9c46	0.15293989
124	0x3e86d5be	0.26334947
125	0xbe9dd3d2	-0.3082567
126	0xbe9b2435	-0.3030106
127	0xbf261170	-0.6487036

layers.1.weight f4 [128, 128]
0	0xbdd59486	-0.10428719
1	0xbd573bde	-0.05254733
2	0x3c72735d	0.014798013
3	0xbca6f42b	-0.0203801
4	0x3d6f94c9	0.058491502
5	0x3dc60403	0.09668734
6	0x3c2eef2a	0.010677138
7	0x3da3140e	0.079628095
8	0xbcf304a0	-0.029665291
9	0xbdcc6e59	-0.09981985
10	0x3d92066c	0.07130131
11	0x3d60cd7c	0.054883465
12	0x3de689fa	0.11256786
13	0x3d3aa8f4	0.045571283
14	0xbdbfd3db	-0.0936658
15	0x3b9568d5	0.004559616
16	0x3d872071	0.065979846
17	0xbb81fa39	-0.0039665964
18	0xbb639d6f	-0.003473129
19	0x3de947d8	0.11390656
20	0x3da2092f	0.07911908
21	0x3dedf114	0.11618248
22	0x3d7e4125	0.062073845
23	0x3d925283	0.07144644
24	0xbd9f4a93	-0.07777896
25	0x3d4f7062	0.050644286
26	0x3e3019ba	0.17197314
27	0x3d0ea822	0.034828313
28	0xbca67140	-0.020317674
29	0xbd110b90	-0.035411417
30	0xbc9cefc1	-0.019157292
31	0xbbeba33c	-0.00719109
32	0x3db38dbc	0.08767268
33	0xbda6ed62	-0.08150746
34	0x3b269b0f	0.0025422012
35	0xbd349ad7	-0.04409298
36	0xbca61aaf	-0.020276396
37	0x3b02c061	0.0019951093
38	0xbc6fd7d8	-0.0146388635
39	0xbaf800da	-0.0018921152
40	0xbdfac30d	-0.12244234
41	0x3bcc4827	0.006234187
42	0x3d515c40	0.051113367
43	0x3d20aa01	0.03922463
44	0xbd8d4b17	-0.06899088
45	0x3d086492	0.033299036
46	0xbaed4e93	-0.0018105082
47	0x3db8166a	0.0898865
48	0x3ceb206a	0.02870198
49	0x3c5ae6fb	0.013360734
50	0xbe84d05f	-0.25940225
51	0x3d46357b	0.048390847
52	0xbe1b88db	-0.15188925
53	0xbe1e9c83	-0.15489392
54	0xbde3a50d	-0.11115465
55	0x3a33b32d	0.00068550074
56	0xbdaed5b3	-0.08536854
57	0x3daca1f1	0.08429325
58	0xbd0495e9	-0.032369528
59	0x3cc5547a	0.024088133
60	0xbe6f90dd	-0.23395105
61	0x3db1cb4c	0.08681354
62	0x3d7bb74f	0.061454114
63	0xbe81cb95	-0.25350633
64	0x3d10a279	0.035311196
65	0x3db25107	0.08706861
66	0x3dc91896	0.098191425
67	0xbe04cc4e	-0.12968561
68	0xbc9859c1	-0.018597485
69	0x3d9499df	0.07255911
70	0x3bfa989a	0.007647586
71	0xbd75efbc	-0.06004308
72	0x3e234406	0.15943918
73	0xbd829246	-0.06375556
74	0x3ccee3d1	0.025255116
75	0x3cbc433b	0.022981277
76	0xbd82e878	-0.06391996
77	0x3e0930cc	0.13397521
78	0xbd027b94	-0.031856135
79	0x3d39a3d4	0.045322254
80	0xbdcac6a8	-0.09901172
81	0xbd8db828	-0.06919891
82	0xbc7f779d	-0.015592483
83	0xbdfa77d9	-0.122298904
84	0x3d5d2f63	0.05400027
85	0xbb893736	-0.00418749
86	0xbdb65459	-0.08902807
87	0xbd5e7720	-0.054312825
88	0x3d405ca8	0.046963364
89	0xbc8ef1fd	-0.017449373
90	0xbd0d56b7	-0.034506526
91	0xbd807d0d	-0.062738515
92	0xbcbf25ca	-0.023333449
93	0x3d40878c	0.047004268
94	0x3da61e53	0.08111253
95	0xbd9a7fc5	-0.07543901
96	0xbe12b24f	-0.14325832
97	0xbd7d37e0	-0.061820865
98	0x3ddd5f2a	0.10809167
99	0x3caa5086	0.02079035
100	0x3d8b7914	0.06810203
101	0xbcab4e14	-0.020911254
102	0x3d318c66	0.043346785
103	0x3e01e5d9	0.12685336
104	0xbc3d60f9	-0.011558765
105	0x3cf6b80f	0.030117063
106	0x3c51ca79	0.012804621
107	0x3d7b24d6	0.061314426
108	0xbca58b81	-0.020208122
109	0x3d4348cd	0.04767685
110	0xbd28a3f1	-0.04117197
111	0xbcc5d9c5	-0.024151692
112	0x3d9acec8	0.07558972
113	0x3db12f05	0.086515464
114	0x3e220db0	0.15825534
115	0x3d91ea9c	0.07124826
116	0x3dcc731d	0.099828936
117	0xbc1d96f9	-0.009618514
118	0x3b983c8f	0.004645891
119	0x3d2722fd	0.04080485
120	0x3da8bbea	0.08238967
121	0xbd849350	-0.0647341
122	0xbe09abf7	-0.13444506
123	0x3de2b546	0.110697314
124	0x3e0f9f97	0.14025722
125	0xbdbc19af	-0.09184586
126	0xbc2f646c	-0.010705095
127	0x3d9c6247	0.076359324
128	0xbd451625	-0.04811682
129	0x3d31b59b	0.043386083
130	0xbd011266	-0.031511687
131	0x3d490cbd	0.049084414
132	0xbcb8da69	-0.022565084
133	0xbd33865b	-0.043829303
134	0xbe0743f7	-0.1320952
135	0xbd834a7a	-0.0641069
136	0xbda38c14	-0.07985702
137	0x3d409100	0.047013283
138	0x3c88df48	0.016708031
139	0xbd3330a6	-0.043747567
140	0xbc2077ee	-0.0097942185
141	0xbd19f657	-0.037588444
142	0xbc8e4511	-0.017366918
143	0xbddbb369	-0.10727579
144	0xbdc201ce	-0.094730005
145	0x3a9a2c38	0.0011762446
146	0xbc3aec3b	-0.011408861
147	0x3e0eef88	0.13958561
148	0xbdf1805e	-0.11792062
149	0xbcd7e209	-0.0263529
150	0xbe865de8	-0.2624352
151	0xbdd51cb6	-0.10405867
152	0xbe02b8d8	-0.12765825
153	0x3e0aba27	0.13547574
154	0x3d862e85	0.06551842
155	0xbe93732e	-0.28798813
156	0x3e1e4afe	0.15458295
157	0xbd5d58db	-0.054039817
158	0x3d880ff8	0.06643671
159	0xbd33e91a	-0.043923475
160	0xbdedf450	-0.116188645
161	0x3dd9cde3	0.10634973
162	0xbd8744ca	-0.06604917
163	0x3d9f9589	0.077921934
164	0x3c882245	0.016617903
165	0x3c819760	0.015819252
166	0x3e5b0dbf	0.21391962
167	0xbadd369d	-0.0016877238
168	0x3d46d539	0.04854319
169	0xbc14a76a	-0.009073118
170	0x3d4c7778	0.04991862
171	0xbda6a2d8	-0.08136529
172	0xbc257622	-0.010098966
173	0xbc8f054b	-0.017458579
174	0x3d368fbb	0.044570666
175	0x3e10251f	0.1407666
176	0xbd8fa0e4	-0.07013109
177	0xbd085b49	-0.03329018
178	0xbdbc9a7f	-0.09209155
179	0xbc93cf9c	-0.018043332
180	0xbd81cfd4	-0.06338468
181	0x3e640484	0.22267348
182	0x3d43b47f	0.047779556
183	0x3c2385df	0.009980648
184	0x3d87846e	0.06617056
185	0xbdf4281e	-0.11921714
186	0x3da6389a	0.08116265
187	0xbe2a8073	-0.16650562
188	0xbe507c43	-0.20359902
189	0xbc8f0c8e	-0.017462041
190	0xbc4a3901	-0.012342692
191	0x3df0612a	0.117372826
192	0xbd70a5e1	-0.058751944
193	0xba957169	-0.0011401597
194	0x3d4317c5	0.04763009
195	0xbd8ab4e4	-0.067727834
196	0x3da3a59e	0.07990573
197	0x3d7e4a52	0.062082596
198	0x3c8785a8	0.016543224
199	0x3cf9f688	0.030513063
200	0x3e004f44	0.12530237
201	0x3c9cd013	0.019142186
202	0xbd399968	-0.045312315
203	0xbdc10619	-0.09424991
204	0x3c177828	0.009244956
205	0xbc838d21	-0.016058506
206	0xbd9eb65b	-0.07749625
207	0x3a042e4a	0.0005042298
208	0xbcb35933	-0.02189312
209	0x3d6b9e31	0.05752391
210	0x3e91d97a	0.28486234
211	0x3ce3138a	0.027719278
212	0x3d0eb911	0.03484446
213	0x3da7b829	0.08189423
214	0xbd763b75	-0.060115296
215	0xbc996709	-0.018725889
216	0x3dfc8340	0.123297215
217	0xbd24fd8d	-0.040280867
218	0x3d14745d	0.036243785
219	0x3d37d3c7	0.0448797
220	0x3c3d263e	0.011544762
221	0xbdc2763b	-0.09495207
222	0xbd86ef7f	-0.06588649
223	0x3e08d0cb	0.13360898
224	0xbe5ab041	-0.21356298
225	0x3e4e7502	0.20161822
226	0x3de01ed0	0.10943377
227	0xbceeb3f2	-0.029138539
228	0x3d90c3ff	0.07068633
229	0x3dd696d3	0.10477986
230	0xbd0e9f52	-0.03481991
231	0xbdd4e75f	-0.10395693
232	0xbcf11305	-0.029428015
233	0xbcce87bf	-0.025211213
234	0xbdac13d5	-0.0840222
235	0xbd947ac0	-0.07249975
236	0xbc2f2209	-0.010689267
237	0xbd50cb60	-0.050975204
238	0xbdb934e8	-0.09043294
239	0x3dd58a35	0.104267515
240	0xbdc1bd29	-0.094599076
241	0xbde71c8b	-0.11284741
242	0x3e10dabc	0.1414594
243	0x3d37ff1b	0.044921022
244	0x3d5f5471	0.05452389
245	0x3c95b28b	0.018273612
246	0xbb8df2f2	-0.00433194
247	0xbd83c584	-0.064341575
248	0xbcd08629	-0.025454598
249	0x3d952415	0.07282273
250	0x3dbe3d06	0.09288983
251	0xbc054cc9	-0.008135983
252	0x3d2bf108	0.041977912
253	0xbccd0aed	-0.025029624
254	0x3d8ed9b9	0.06975121
255	0x3e729ca3	0.23692565

layers.1.bias f4 [128]
0	0x3e440a1b	0.1914448
1	0xbdff93ca	-0.124793604
2	0x3d96e6fb	0.07368275
3	0xbdcd50e8	-0.10025197
4	0x3d01f257	0.031725254
5	0x3d2b8f6b	0.04188482
6	0xbe0d2d07	-0.13786708
7	0xbbb3a34b	-0.0054821125
8	0x3d74bdfb	0.059751492
9	0xbdb44591	-0.08802331
10	0xbe267a53	-0.162576
11	0x3d4a4777	0.04938456
12	0x3db2c7d1	0.08729518
13	0xbeabef85	-0.33581176
14	0xbe6ad37b	-0.22932236
15	0x3e23f248	0.16010392
16	0x3dddeba9	0.10835964
17	0xbd8461fc	-0.064640015
18	0xbe21dbe6	-0.15806541
19	0xbe25aafb	-0.16178505
20	0xbe31fd15	-0.173817
21	0x3e20da8c	0.15708369
22	0x3dada2bd	0.084783055
23	0xbe58a346	-0.21156034
24	0x3d4703ce	0.048587613
25	0x3e03f08e	0.12884733
26	0xbcb8a90c	-0.022541545
27	0x3db0f0fc	0.08639714
28	0x3dec1167	0.11526757
29	0xbd1f3709	-0.038870845
30	0x3dc58f32	0.09646453
31	0x3d8ec440	0.069710255
32	0xbd79e634	-0.061010554
33	0xbeb9d3e7	-0.3629448
34	0x3e1eac91	0.15495516
35	0x3e549227	0.20758878
36	0x3c8ea41a	0.017412234
37	0xbe000b5d	-0.12504335
38	0x3e652d50	0.22380567
39	0xbd11dac6	-0.03560903
40	0xbc8e954f	-0.01740518
41	0xbdfd6b84	-0.123740226
42	0x3dc1c3b8	0.094611585
43	0xbd946640	-0.07246065
44	0x3dde84d0	0.10865176
45	0x3df710a3	0.1206372
46	0x3e17052c	0.14748067
47	0x3e08d69d	0.13363118
48	0x3e1c1cb0	0.15245318
49	0x3df030cf	0.117280595
50	0xbb98ab07	-0.00465906
51	0xbe09999e	-0.13437507
52	0xbe3ed5ef	-0.18636297
53	0x3d9d35d4	0.076762825
54	0x3e17e02e	0.14831612
55	0xbd1dd0a4	-0.038529053
56	0x3dfdb7f2	0.123886004
57	0xbd31c1f4	-0.04339786
58	0xbcdca089	-0.026932018
59	0x3d3ae77d	0.04563092
60	0xbe16ce5d	-0.14727159
61	0xbdae38a5	-0.08506898
62	0xbddcc80f	-0.10780346
63	0x3d66ad28	0.05631748
64	0x3e3e2047	0.18567
65	0x3dd24383	0.10266783
66	0xbe5a0d9d	-0.21294256
67	0x3d3a92da	0.045550205
68	0x3e12aec3	0.14324479
69	0xbe1559fe	-0.1458511
70	0x3c613296	0.013744971
71	0x3e325fc5	0.17419346
72	0x3d10bea6	0.035338067
73	0x3d147a2e	0.036249332
74	0xbdea7ab2	-0.114491835
75	0x3d2d23a7	0.04227033
76	0x3dc93932	0.09825362
77	0x3dad3aca	0.08458479
78	0x3d5ffbc3	0.054683458
79	0xbdc7c6f3	-0.097547434
80	0x3c97ad60	0.018515289
81	0x3dca9f88	0.098937094
82	0x3d9af76c	0.07566723
83	0xbe2179c5	-0.15769108
84	0xbd72db89	-0.059291396
85	0xbde98940	-0.114031315
86	0xbda8ee8c	-0.08248624
87	0xbdb3460d	-0.087535955
88	0x3d3ab421	0.04558194
89	0x3d3379bf	0.043817278
90	0x3d98feda	0.07470484
91	0x3dafeda0	0.08590245
92	0x3d576051	0.05258209
93	0xbd12f30a	-0.03587631
94	0x3e380ce9	0.17973675
95	0xbe0bdb5a	-0.13657895
96	0x3e9ee1e0	0.31031704
97	0xbd59f57c	-0.053212628
98	0xbe856bff	-0.26058957
99	0xbe78a0b3	-0.24280052
100	0x3b0433f1	0.002017256
101	0xbe1910fb	-0.14947884
102	0xbcb4b96a	-0.022061069
103	0xbe1cc232	-0.15308455
104	0x3e082a99	0.132975
105	0x3d7267fc	0.0591812
106	0xbb7cdba0	-0.0038583055
107	0x3e69e22d	0.22840185
108	0xbe1df906	-0.15427026
109	0x3e253c7f	0.16136359
110	0x3d1c264d	0.038122464
111	0xbe011d8e	-0.1260893
112	0xbe05b273	-0.13056354
113	0xbd4fc437	-0.050724234
114	0xbdb956ed	-0.09049783
115	0xbe0fae3e	-0.14031312
116	0xbe1b789e	-0.1518273
117	0xbd8d7cf8	-0.069086015
118	0x3e18d9ec	0.1492688
119	0x3dab630a	0.083684996
120	0xbd30a4ba	-0.043125845
121	0xbe114758	-0.14187372
122	0x3e000242	0.12500861
123	0x3cd53083	0.026024109
124	0xbe1e8f97	-0.15484463
125	0x3d012725	0.03153147
126	0x3e5f4626	0.21804103
127	0xbe54bbe9	-0.20774807

layers.2.weight f4 [64, 128]
0	0xbd84d1f3	-0.06485357
1	0xbe0fcc6b	-0.14042823
2	0xbe867eed	-0.26268712
3	0xbd0e8220	-0.034792066
4	0x3e565f5f	0.20934819
5	0x3d012fdd	0.031539787
6	0xbdab65c5	-0.083690204
7	0x3b14168f	0.0022596454
8	0x3c848370	0.016175956
9	0x3c86ba31	0.016446205
10	0xbcb0c035	-0.021576026
11	0xbd9c3b21	-0.076284654
12	0x3e9c6897	0.30548546
13	0x3d893452	0.066994324
14	0x3e37d2e6	0.17951545
15	0x3cbd7791	0.023128303
16	0xbdeb33ea	-0.11484511
17	0xbe21d68e	-0.15804502
18	0x3dab8eb9	0.083768316
19	0xbd9caa55	-0.07649676
20	0x3c1dc79c	0.00963011
21	0xbd91f4b8	-0.071267545
22	0xbdfd045e	-0.123543486
23	0xbeb926bf	-0.36162373
24	0x3e5d0fea	0.21588102
25	0xbcf97d29	-0.030455189
26	0xbdef7e40	-0.11694002
27	0xbd901d3f	-0.07036828
28	0xbe645ed3	-0.22301798
29	0x3e21b3d8	0.15791261
30	0xbe5bcd81	-0.21465112
31	0x3d52a949	0.051430974
32	0xbbae8e8b	-0.005327051
33	0x3e2cd466	0.16877899
34	0xbe1f1117	-0.15533863
35	0xbeaa0503	-0.3320695
36	0x3ec3c10a	0.38233215
37	0xbe289fcf	-0.16467212
38	0x3d017fb7	0.03161594
39	0x3de1cc04	0.11025241
40	0x3e02d24f	0.12775539
41	0x3d8ad6a0	0.06779218
42	0xbd37ad2e	-0.04484289
43	0xbd172cb0	-0.03690785
44	0xbe5fed0a	-0.21867767
45	0xbdb2865c	-0.08717033
46	0x3da2b1a7	0.07944041
47	0xbe7f8ac5	-0.2495528
48	0xbca7f525	-0.020502636
49	0xbc97b61c	-0.018519454
50	0xbbffc220	-0.007805124
51	0x3db383ce	0.08765374
52	0xbdc15f38	-0.0944199
53	0xbe12d91d	-0.14340635
54	0xbda62004	-0.08111575
55	0x3e01e227	0.12683927
56	0xbdfc4c9e	-0.12319301
57	0x3df75449	0.12076623
58	0xbe11fe9d	-0.14257284
59	0xbe210d06	-0.15727624
60	0xbd816a32	-0.06319083
61	0xbde316f6	-0.11088364
62	0x3e37b644	0.17940623
63	0x3dbc442c	0.0919269
64	0x3e3bf8bb	0.18356602
65	0xbe18cad8	-0.14921129
66	0x3e306b49	0.17228426
67	0xbd015819	-0.031578157
68	0x3db151bc	0.08658168
69	0xbbed82cf	-0.0072482596
70	0x3d65d1c0	0.056108236
71	0xbd487b4f	-0.04894572
72	0xbd9e0ba5	-0.07717065
73	0xbe46cf6f	-0.19415067
74	0xbdac7611	-0.08420957
75	0xbd9d4a6a	-0.07680209
76	0xbd410e10	-0.04713255
77	0x3cf3832b	0.029725632
78	0x3e4bde73	0.19909076
79	0xbdcbdec8	-0.099546015
80	0x3d22963f	0.039694067
81	0x3c99762c	0.018733107
82	0xbcec7bdc	-0.028867655
83	0xbe41acc1	-0.18913557
84	0x39cf697f	0.00039560717
85	0xbe2489bd	-0.16068168
86	0x3d4da50c	0.05020623
87	0xbd28d65d	-0.041220058
88	0x3e1ff835	0.15622027
89	0x3c6555b3	0.013997483
90	0xbdb637e6	-0.088973805
91	0xbd836915	-0.06416527
92	0x3dc2c9bc	0.09511134
93	0x3e361905	0.17782982
94	0x3e212bf6	0.15739426
95	0x3cf37835	0.029720405
96	0xbe9891b3	-0.2979866
97	0xbe5ae681	-0.21376993
98	0xbd60a02e	-0.05484026
99	0x3e333223	0.17499594
100	0x3dc270ad	0.094941474
101	0xbe0193f8	-0.12654102
102	0xbdcc7121	-0.09982515
103	0x3e37cbc2	0.17948821
104	0xbdbc521b	-0.09195348
105	0x3d71524c	0.058916375
106	0x3d2895da	0.041158535
107	0x3e065e0e	0.13121817
108	0xbd275ba4	-0.04085888
109	0xbe069c33	-0.13145523
110	0xbceebc09	-0.029142397
111	0x3e387f4f	0.18017314
112	0xbbada3ea	-0.005299081
113	0xbc521909	-0.012823352
114	0xbc49b748	-0.012311764
115	0x3e0ddcea	0.13853803
116	0x3cf9d747	0.03049816
117	0x3e81402c	0.25244272
118	0xbde1495b	-0.110003196
119	0x3dd3e512	0.10346426
120	0x3e209e04	0.15685278
121	0x3dfe4807	0.12416082
122	0x3e234a56	0.15946326
123	0x3d8fbc67	0.07018357
124	0xbe537571	-0.20650269
125	0xbc2c46c5	-0.01051492
126	0xbd94a06b	-0.0725716
127	0x3d282e68	0.04105988
128	0xbe28e13a	-0.16492167
129	0x3d0bf22d	0.034166504
130	0xbd2600f0	-0.040528238
131	0x3df07c0b	0.11742409
132	0x3c50d62b	0.012746374
133	0xbe2f1c30	-0.17100596
134	0xbd1e3ef3	-0.03863425
135	0xbe16ba0f	-0.14719413
136	0xbd676be1	-0.056499366
137	0xbd721531	-0.05910224
138	0xbd990c7d	-0.07473085
139	0xbd86450c	-0.065561384
140	0x3dc61672	0.0967225
141	0x3e2ee52e	0.17079613
142	0x3d26d93b	0.04073451
143	0xbcdeb646	-0.027186524
144	0x3e00a3e3	0.12562518
145	0x3d69d454	0.057087258
146	0xbc98f7be	-0.01867282
147	0xbd1877c4	-0.037223592
148	0x3c0cd6e9	0.00859616
149	0x3daf3fbe	0.0855708
150	0xbe029df8	-0.12755573
151	0xbdf4732d	-0.119360305
152	0x3ddaabb3	0.1067728
153	0xbb8016f4	-0.003908986
154	0x3c28855b	0.010285701
155	0xbd468b40	-0.048472643
156	0xbc680d2f	-0.014163299
157	0xbdd7d92d	-0.1053947
158	0xbda05b01	-0.078298576
159	0x3e421685	0.18953903
160	0xbcef42cc	-0.029206656
161	0x3e52e133	0.20593719
162	0xbca79b7b	-0.020459881
163	0xbe114128	-0.14185011
164	0x3a9c2953	0.0011914171
165	0x3dff74c4	0.12473443
166	0xbdd4371c	-0.10362074
167	0x3d89fd27	0.06737738
168	0x3c283765	0.010267113
169	0xbdbb3367	-0.091406636
170	0xbe2d3bc2	-0.16917327
171	0xbcb18321	-0.021668972
172	0xbd9e307b	-0.07724091
173	0xbe2b7878	-0.16745174
174	0xbd93704e	-0.07199155
175	0xbd33dae1	-0.04390991
176	0x3a59970c	0.0008300401
177	0xbc69fb29	-0.014281073
178	0xbc49436a	-0.012284139
179	0xbb90948b	-0.004412239
180	0x3de1fe15	0.110347904
181	0xbdc9734a	-0.09836443
182	0xbe2659a5	-0.16245134
183	0x3d2137a8	0.03935972
184	0xbe417523	-0.1889234
185	0x3e17613c	0.14783186
186	0xbdc61bc2	-0.09673263
187	0xbd888fdc	-0.06668064
188	0xbd05efdb	-0.032699447
189	0x3d92896b	0.07155117
190	0xbc95649e	-0.018236455
191	0xbe0e9b1e	-0.1392636
192	0xbc9f35ca	-0.019434828
193	0xbdbaf2c3	-0.091283344
194	0x3d87a80e	0.06623851
195	0xbd8587ec	-0.06520066
196	0xbd64c616	-0.055852972
197	0x3df13fc5	0.11779741
198	0x3b9f816f	0.0048677246
199	0xbd87b3cc	-0.066260904
200	0x3d976e4a	0.07394083
201	0x3cd1e7f6	0.025623303
202	0x3d25fcbb	0.040524226
203	0xbd4c265e	-0.049841277
204	0xbd1bc3c5	-0.038028497
205	0xbe2d3c02	-0.16917422
206	0x3dc06aef	0.09395396
207	0x3df07c63	0.11742475
208	0x3db712f7	0.08939164
209	0x3d759688	0.05995801
210	0xbd96e0f6	-0.07367127
211	0xbdf05e5a	-0.11736746
212	0xbc24e13c	-0.010063466
213	0x3d730a83	0.059336197
214	0x3e119740	0.14217854
215	0xbdba92ab	-0.09110006
216	0x3d2669fc	0.04062842
217	0xbcc09f3b	-0.023513427
218	0x3db41877	0.08793729
219	0xbdeec2ef	-0.116582744
220	0xbd861839	-0.06547589
221	0xbe15f29d	-0.14643331
222	0x3d2cd443	0.042194616
223	0x3dc8e4e0	0.098092794
224	0xbe0436fd	-0.12911601
225	0x3cabd766	0.020976733
226	0x3e7958bd	0.24350257
227	0xbb33b9fe	-0.0027424092
228	0x3d27f179	0.04100177
229	0x3d85c1e3	0.065311216
230	0xbe12c0da	-0.1433138
231	0x3e1b8015	0.15185578
232	0x3c9c7e6c	0.019103251
233	0xbb65cad0	-0.0035063513
234	0xbd1265e7	-0.035741713
235	0x3d18b343	0.037280332
236	0x3dd6cdb5	0.10488454
237	0xbd0716db	-0.03298078
238	0x3c999cca	0.01875152
239	0xbcc6dfef	-0.024276702
240	0xbe2a1750	-0.16610456
241	0x3df7a9c6	0.120929286
242	0x3d1bd3e5	0.038043875
243	0x3d3901d7	0.04516777
244	0x3da8ef2e	0.08248745
245	0xbcc5dc24	-0.024152823
246	0xbe11d1b5	-0.14240153
247	0xbd56f3e3	-0.052478682
248	0x3d43186c	0.047630712
249	0x3e177ded	0.1479413
250	0x3d25b8c8	0.040459424
251	0x3da0a304	0.07843593
252	0xbd9d916c	-0.07693753
253	0x3c89b0d8	0.016807958
254	0x3d89abea	0.06722243
255	0xbd872f69	-0.0660084

layers.2.bias f4 [64]
0	0xbd50689c	-0.050881013
1	0xbe1e9090	-0.15484834
2	0xbc9154a3	-0.017740553
3	0xbe0fcf3e	-0.140439
4	0xbd299cdc	-0.04140936
5	0xbc250b8f	-0.010073557
6	0xbde5cdbc	-0.11220881
7	0xbd958fde	-0.07302831
8	0x3e76a91f	0.24087952
9	0xbc47fa87	-0.0122057265
10	0x3c99169b	0.018687537
11	0x3de5a84e	0.11213742
12	0x3e5b5ea4	0.21422821
13	0xbe794c97	-0.24345623
14	0x3b858a15	0.0040752986
15	0x3ca2b490	0.01986149
16	0x3d7ebe49	0.06219319
17	0xbcdda390	-0.027055532
18	0x3d3b297b	0.045693856
19	0x3dfadba8	0.12248927
20	0xbd01e3b6	-0.031711303
21	0x3dc3e71a	0.095655635
22	0x3e0f2e1c	0.13982433
23	0x3b8d14ca	0.0043054568
24	0xbdc6d14b	-0.09707888
25	0xbdb8ebeb	-0.09029373
26	0x3d09ae3e	0.033613436
27	0xbb908aed	-0.0044110925
28	0x3e4d81e1	0.20069076
29	0x3aaafdc2	0.0013045596
30	0x3e1e010e	0.1543009
31	0xbe4d2b70	-0.20036101
32	0xbada07c7	-0.0016634398
33	0xbe037473	-0.1283739
34	0xbd40ff37	-0.04711839
35	0xbe84f640	-0.25969124
36	0xbe04a144	-0.12952143
37	0x3d8394c8	0.06424862
38	0xbd3d9407	-0.046283748
39	0xbe6025f3	-0.21889476
40	0x3e46c739	0.19411935
41	0x3b39eb80	0.0028369129
42	0x3c898fb9	0.016792165
43	0x3b4a637b	0.003088205
44	0x3cb9d559	0.02268474
45	0xbc50e3b8	-0.012749605
46	0x3da2aee2	0.079435125
47	0xbd87ca22	-0.06630351
48	0xbb4d48ac	-0.0031323833
49	0x3e4d1978	0.20029247
50	0xbd2c0d4f	-0.04200488
51	0xbd3c1ce8	-0.045926005
52	0xbd765a28	-0.060144573
53	0x3aaff419	0.0013424187
54	0xbe12667a	-0.14296904
55	0x3d57d74d	0.05269556
56	0xbdaf0b83	-0.085471176
57	0x3ccb85af	0.024844019
58	0x3d4bd7e7	0.049766447
59	0x3e025d14	0.12730819
60	0x3dd87893	0.10569873
61	0xbd241594	-0.04005964
62	0xbd97296f	-0.0738095
63	0xbd24160d	-0.04006009

readout.weight f4 [1, 64]
0	0xbebb52c4	-0.36586583
1	0xbedd0a19	-0.43171766
2	0xbea50616	-0.32231206
3	0xbf0b0859	-0.5430961
4	0xbef13909	-0.47113827
5	0x3f02063c	0.5079076
6	0xbea996ee	-0.33122963
7	0x3f01326a	0.5046755
8	0x3ed953a1	0.42446616
9	0x3edc89f9	0.43074015
10	0x3f10f093	0.5661709
11	0xbf1f30af	-0.6218366
12	0x3ed06d74	0.40708506
13	0xbecdbdce	-0.40183872
14	0x3eecd5cc	0.46256864
15	0x3ea40bee	0.32040352
16	0xbef598a4	-0.47968018
17	0xbece5def	-0.4030604
18	0xbeb6c451	-0.35696653
19	0x3f1681b1	0.58791643
20	0xbedd724b	-0.4325126
21	0x3ef04629	0.46928528
22	0x3eac4d12	0.3365255
23	0xbecedfa2	-0.40404993
24	0xbf122b35	-0.5709718
25	0xbec23a29	-0.37934998
26	0x3edcf26e	0.4315371
27	0xbecd0dd8	-0.40049624
28	0x3f180817	0.59387344
29	0xbee5b8af	-0.44867465
30	0x3eea15fe	0.45719904
31	0xbf00b833	-0.50281066
32	0x3eaabaec	0.33345735
33	0xbf08edb3	-0.534877
34	0x3f052cad	0.52021295
35	0xbe7b32a6	-0.2453104
36	0xbf47b16a	-0.7800509
37	0xbf05248f	-0.5200891
38	0xbefdb3d7	-0.4955127
39	0xbf1ff7ea	-0.6248766
40	0x3f543f1e	0.8290881
41	0xbee1739c	-0.44033515
42	0xbedd0e73	-0.43175086
43	0xbf092d46	-0.53584707
44	0xbf095a21	-0.5365315
45	0x3f09e705	0.5386813
46	0x3f0a94f3	0.5413353
47	0x3ee837fa	0.45355207
48	0xbf0f9fb6	-0.56103075
49	0x3ed3d9fc	0.41377246
50	0xbef16655	-0.47148386
51	0x3ee16f6b	0.44030318
52	0x3f13a0ef	0.5766744
53	0xbf0c609b	-0.5483491
54	0xbf16c0eb	-0.5888812
55	0x3e4ebfef	0.20190404
56	0xbf156afc	-0.5836637
57	0x3ecfa6a6	0.4055683
58	0x3f089c62	0.5336362
59	0xbec93afc	-0.39302814
60	0xbf0ad9fa	-0.54238856
61	0xbec241fa	-0.3794096
62	0x3ed83531	0.42228082
63	0xbec82ff8	-0.39099097

layers.0.weight f4 [128, 17]
0	0xbc99a646	-0.018756043
1	0x3efa2cda	0.48862344
2	0x3f15c226	0.5849937
3	0xbbbc6877	-0.005749758
4	0x3eb5e0ef	0.35523173
5	0xbea0985f	-0.3136625
6	0xbec0cbd8	-0.3765552
7	0xbc50e11d	-0.012748984
8	0x3ebe0ba3	0.37118253
9	0xbe6ee2dd	-0.23328729
10	0xbc951f9d	-0.018203551
11	0xbc857495	-0.016290942
12	0x3e3b1b04	0.18272024
13	0x3def4641	0.11683322
14	0xbd357d36	-0.044308864
15	0x3c1fe3c1	0.009758891
16	0xbd862fad	-0.06552062
17	0xbe09a2a2	-0.13440946
18	0x3e9274e3	0.28604802
19	0x3e1130bd	0.14178748
20	0xbefee0b8	-0.49780822
21	0x3d5d294c	0.053994462
22	0xbf0563ef	-0.5210561
23	0xbec26f2c	-0.37975442
24	0xbe339cbc	-0.17540258
25	0xbe3d62af	-0.18494676
26	0x3e819c11	0.25314382
27	0xbe995b23	-0.29952344
28	0xbc90fb5d	-0.017697984
29	0x3dd79019	0.10525531
30	0xbdccd8f3	-0.10002317
31	0xbe08408f	-0.13305877
32	0xbdfdc92b	-0.12391885
33	0xbcd527fd	-0.026020044
34	0x3def0fd0	0.11672938
35	0x3e9a719a	0.30164796
36	0x3e8d9655	0.27653757
37	0xbd84ea72	-0.064900294
38	0xbedfdaa4	-0.43721497
39	0x3e0a6dcf	0.13518451
40	0xbd21602d	-0.03939836
41	0x3ea4cd79	0.32188013
42	0x3cbc8567	0.02301283
43	0x3ea63f73	0.32470283
44	0xbd75eb6a	-0.06003896
45	0x3d245ff3	0.040130567
46	0xbe72ae72	-0.23699358
47	0xbbc7166f	-0.0060756723
48	0x3de76e63	0.113003515
49	0x3d4ab818	0.04949197
50	0x3d0f0afb	0.03492258
51	0x3ed688f3	0.4190136
52	0x3ec0f6f5	0.37688413
53	0x3f24c28c	0.64359355
54	0xbdd1c025	-0.10241727
55	0x3ca9acd1	0.020712288
56	0xbea0c157	-0.31397507
57	0xbd63f8f0	-0.055657327
58	0xbe9398b4	-0.2882744
59	0x3f162326	0.5864738
60	0x3f18ee5a	0.59738696
61	0x3d969fd3	0.07354703
62	0xbd2bbf0c	-0.041930243
63	0xbe7ff7a3	-0.2499681
64	0xbd1285ff	-0.03577232
65	0xbd634820	-0.055488706
66	0xbe291c03	-0.16514592
67	0x3cd00e04	0.025397308
68	0xbf226ec7	-0.6345028
69	0xbf0aef54	-0.54271436
70	0x3d8bf92b	0.068346344
71	0x3de22fb7	0.11044257
72	0x3e85b7c2	0.2611676
73	0xbe8e0c49	-0.27743748
74	0xbef7aba4	-0.4837314
75	0xbef2175c	-0.47283447
76	0x3c87c6ed	0.016574347
77	0xbe0e11c3	-0.13873963
78	0xbd7eb10d	-0.062180568
79	0x3d3e0a31	0.046396438
80	0xbc3441b4	-0.011001993
81	0x3cc9cafa	0.02463292
82	0xbec14367	-0.37746736
83	0xbe583acb	-0.21116178
84	0xbcfebb65	-0.031095216
85	0xbeb54f12	-0.35411888
86	0x3eb5691e	0.3543176
87	0xbe1ed219	-0.15509833
88	0x3f4fd13e	0.81178653
89	0x3c621a78	0.013800256
90	0x3e372bcd	0.17887802
91	0xbe753b30	-0.2394836
92	0xbe2495bb	-0.16072743
93	0x3e305271	0.17218949
94	0xbd66a3e0	-0.056308627
95	0xbdc846af	-0.09779107
96	0xbcf95b88	-0.030439153
97	0xbdc5c0e9	-0.09655935
98	0xbc9a981f	-0.018871365
99	0x3d4c31ba	0.04985211
100	0x3cbce1cf	0.023056893
101	0xbd3eca6a	-0.046579756
102	0xbe650e39	-0.22368707
103	0x3e9bef06	0.30455798
104	0xbf0c3cef	-0.5478048
105	0x3e0915bb	0.13387196
106	0x3cd8e493	0.02647618
107	0xbe96a7f4	-0.29425013
108	0xbebb1a7c	-0.36543643
109	0xbeec01be	-0.4609508
110	0xbe92aeb6	-0.2864892
111	0x3e6c7bef	0.23094152
112	0x3b878567	0.004135776
113	0xbbeb5c91	-0.0071826656
114	0x3d36ddc1	0.044645075
115	0xbb2c9b8c	-0.002633783
116	0xbe2c6fd3	-0.16839533
117	0xbcf00ef7	-0.02930401
118	0xbd33e2d2	-0.043917485
119	0x3f67fc7b	0.9061963
120	0xbe474c82	-0.19462779
121	0x3f057aa8	0.52140284
122	0x3d2926cf	0.041296776
123	0x3e1a41fa	0.1506423
124	0x3f4cdbba	0.80022776
125	0x3f44c669	0.7686525
126	0x3e6e403e	0.23266694
127	0xbf30bffb	-0.6904294
128	0xbe8b73e9	-0.2723687
129	0x3e4b87fb	0.19876091
130	0xbe10e653	-0.14150362
131	0x3cc5f119	0.024162816
132	0xbcc8a11a	-0.024490882
133	0x3cf2ad06	0.02962352
134	0x3d3ab365	0.04558124
135	0x3d3d04cb	0.04614715
136	0xbee5bd4a	-0.4487098
137	0x3f2da355	0.6782735
138	0x3f1d8d8f	0.61544126
139	0xbe902b1d	-0.28157893
140	0xbd260b7a	-0.04053829
141	0x3eee928f	0.4659619
142	0x3d4d5ef8	0.050139397
143	0x3e258574	0.1616419
144	0xbe84c2c0	-0.25929832
145	0x3e67d189	0.22638525
146	0x3d54dd15	0.051968653
147	0xbe429b87	-0.19004641
148	0xbb5de2d3	-0.0033857122
149	0xbe02cbac	-0.12773007
150	0xbe649c97	-0.2232536
151	0x3d5a286d	0.05326121
152	0xbd9c67cd	-0.07636986
153	0xbea45d00	-0.32102203
154	0xbcf483f7	-0.029848082
155	0x3f2d53f7	0.67706245
156	0x3f2abc41	0.666935
157	0x3d29d714	0.04146488
158	0xbf194152	-0.59865296
159	0xbe682fcd	-0.22674485
160	0xbec9138d	-0.3927273
161	0xbef14a87	-0.47127172
162	0x3f272991	0.652978
163	0x3e24ff95	0.16113122
164	0xbd8e73ba	-0.06955667
165	0x3d8cc8fd	0.06874273
166	0xbde92842	-0.11384632
167	0xbeb582c6	-0.35451335
168	0xbdb4655e	-0.08808397
169	0xbbf7bd5a	-0.0075604143
170	0xbe132fb4	-0.14373666
171	0x3e0fba98	0.14036024
172	0x3f823eb1	1.0175382
173	0xbef715c1	-0.48258784
174	0x3e99ea0c	0.30061376
175	0x3efdbe75	0.4955937
176	0x3ee4efc0	0.44714165
177	0x3c43a72c	0.011941712
178	0xbf06885d	-0.52551824
179	0xbefd659c	-0.49491584
180	0xbdf8d53c	-0.12150046
181	0xbd958dda	-0.07302447
182	0x3dc692e5	0.09695987
183	0xbd4c9fcc	-0.04995708
184	0xbd0819a9	-0.033227596
185	0xbc26ccc5	-0.010180657
186	0xbdae55df	-0.08512472
187	0x3d4d4d9b	0.05012284
188	0xbe8cc464	-0.27493584
189	0xbf1bdf42	-0.6088754
190	0x3c9ed4e0	0.019388616
191	0x3c50ce10	0.012744442
192	0xbe6d94cd	-0.23201294
193	0x3cb090fd	0.02155351
194	0xbd9969b6	-0.07490866
195	0x3e7286ea	0.23684278
196	0x3e5feb42	0.21867087
197	0x3d3a0df9	0.04542348
198	0xbe4618d2	-0.19345406
199	0x3b8b238a	0.00424618
200	0x3d92bcc8	0.071649134
201	0xbe78524e	-0.24250147
202	0xbda106e2	-0.07862641
203	0xbe4aecf0	-0.19816947
204	0x3e3291b1	0.1743839
205	0x3d5d96b6	0.054098807
206	0xbed0332b	-0.40664038
207	0x3ee79f47	0.45238706
208	0x3e622a67	0.22086488
209	0x3dbabd23	0.09118106
210	0xbd967676	-0.073468134
211	0xbe11f869	-0.14254917
212	0xbe2ad83d	-0.16684051
213	0xbe1d0630	-0.15334392
214	0xbe9fe65d	-0.3123044
215	0xbdbde57a	-0.09272285
216	0x3db85826	0.09001188
217	0x3dacbb47	0.08434158
218	0xbe29b5d7	-0.16573273
219	0xbe084b21	-0.1330991
220	0xbda262ca	-0.07928999
221	0x3f08c90d	0.5343178
222	0xbdf8e202	-0.121524826
223	0xbf6850a0	-0.90748024
224	0xbcc80d31	-0.024420353
225	0x3e433210	0.19062066
226	0x3f23ac4b	0.63934773
227	0x3e097878	0.13424861
228	0xbe03d124	-0.1287275
229	0xbe8a87b1	-0.2705665
230	0xbec1b572	-0.37833744
231	0xbee8e226	-0.45485038
232	0x3b4c9eab	0.0031222503
233	0xbca32dd0	-0.019919306
234	0xbc06f300	-0.008236647
235	0xbde1d281	-0.110264786
236	0xbde92931	-0.1138481
237	0x3b9843c3	0.0046467497
238	0xbf29a388	-0.66265154
239	0xbe035003	-0.12823491
240	0xbd88bc1a	-0.066765025
241	0x3ed3f4ee	0.41397804
242	0xbd9fbd81	-0.07799817
243	0x3f3fbc3f	0.74896616
244	0xbe210867	-0.15725861
245	0xbe3f398b	-0.18674295
246	0x3d5bdfac	0.053680107
247	0xbf4e57b4	-0.80602574
248	0xbe6ffaf9	-0.23435582
249	0x3e0cd65e	0.1375365
250	0x3de75381	0.11295224
251	0x3e3523a0	0.17689371
252	0x3c47a42f	0.0121851405
253	0xbd9791dd	-0.07400868
254	0xbd40fb9a	-0.047114946
255	0xbe39b55e	-0.18135592

layers.0.bias f4 [128]
0	0x3e871733	0.26384887
1	0xbdbf6b79	-0.09346671
2	0xbeae9fcb	-0.34106287
3	0x3e1c0573	0.15236454
4	0x3e140050	0.14453244
5	0x3efaa7ff	0.48956296
6	0x3e5350c4	0.20636278
7	0x3f3d6f00	0.739975
8	0xbed4a884	-0.41534817
9	0x3cd972e4	0.026544042
10	0x3e947fd6	0.2900378
11	0xbee9e532	-0.45682675
12	0x3f0fb67a	0.5613781
13	0x3f80d471	1.0064832
14	0x3e094443	0.13404946
15	0x3ea46c59	0.32113913
16	0x3e2d3f18	0.169186
17	0x3e54ff17	0.20800434
18	0x3eb9cee0	0.36290646
19	0xbe87d4bc	-0.2652949
20	0x3f1a8b0a	0.60368407
21	0x3e92f3db	0.28701672
22	0xbe09b908	-0.1344949
23	0x3dcaf63f	0.09910249
24	0xbe3948a0	-0.1809411
25	0x3f06532e	0.5247067
26	0x3f707e1f	0.93942446
27	0xbe458712	-0.19289806
28	0x3ef8c8d5	0.48590723
29	0xbdbbd945	-0.091723
30	0x3ee2013b	0.44141564
31	0xbd661f54	-0.05618222
32	0x3e13ec28	0.14445555
33	0x3ecf5605	0.40495315
34	0x3ebfc393	0.374539
35	0xbe0ee7df	-0.1395564
36	0x3f2dbb22	0.67863667
37	0x3f141fda	0.578611
38	0x3e9e3694	0.30901015
39	0xbdb941ca	-0.090457514
40	0x3ea14ddb	0.31504712
41	0x3ea0059e	0.31254286
42	0x3eecbaed	0.46236363
43	0x3f017d3b	0.5058171
44	0x3df70408	0.12061316
45	0x3e051538	0.12996376
46	0x3d05561c	0.032552823
47	0xbd04bc0e	-0.032405905
48	0x3ee5527b	0.4478949
49	0x3c2f21be	0.010689197
50	0x3dd15c1e	0.10222648
51	0xbc2a8793	-0.0104083
52	0x3e4e03d0	0.20118642
53	0xbebe2271	-0.37135652
54	0x3ea99a97	0.33125755
55	0x3f6c359d	0.9226931
56	0x3ee894d9	0.45426062
57	0x3e4c02e6	0.1992298
58	0x3ed9b10f	0.42517897
59	0x3e1e4a73	0.15458088
60	0x3e1c8895	0.15286477
61	0xbe14731f	-0.1449704
62	0xbebab247	-0.3646414
63	0x3d1eb66a	0.038748182
64	0xbe9faa59	-0.31184652
65	0x3f04f8e5	0.5194228
66	0x3ec54958	0.3853252
67	0x3ef3e707	0.47637197
68	0x3cfe592d	0.031048382
69	0x3f170a32	0.5899993
70	0x3e19b53f	0.15010546
71	0x3f7177d5	0.94323474
72	0xbd93def2	-0.07220258
73	0x3e2da907	0.1695901
74	0xbe610248	-0.21973526
75	0x3f218e21	0.63107497
76	0x3eefcd2e	0.46836227
77	0x3eefa034	0.46801913
78	0x3d94f615	0.07273499
79	0x3ef073dc	0.46963394
80	0x3e9309d3	0.28718433
81	0xbdafcbba	-0.0858378
82	0x3ea0ca2c	0.31404245
83	0x3eb256c1	0.34831813
84	0x3ec2e0ea	0.3806222
85	0x3c83ebaf	0.016103594
86	0xbf0b409c	-0.5439546
87	0xbdcea8f5	-0.1009082
88	0x3eec946b	0.46206984
89	0x3e7d2ce5	0.24724157
90	0x3f72083e	0.94543827
91	0x3d59dc41	0.053188566
92	0xbed7bc8f	-0.42136046
93	0x3ef4e482	0.47830588
94	0x3e55ae59	0.2086729
95	0x3e95384a	0.29144508
96	0x3ead6326	0.33864707
97	0x3e12d050	0.14337277
98	0xbde59573	-0.11210146
99	0x3e36dd9f	0.17857979
100	0x3e2cd976	0.1687983
101	0x3eadf7cd	0.3397812
102	0x3e1e0239	0.15430535
103	0x3ecf4ec0	0.4048977
104	0x3f6a7716	0.9158796
105	0x3e0b435e	0.13599917
106	0x3ed6dfec	0.41967714
107	0x3e15c6f8	0.14626682
108	0x3ee0acb0	0.4388175
109	0xbaeb3008	-0.0017943392
110	0x3f14ecec	0.58174014
111	0x3da31e90	0.07964814
112	0xbe1f84e3	-0.15578036
113	0x3ec7753c	0.3895663
114	0x3f0f7c7f	0.5604934
115	0x3ed2bb64	0.41158593
116	0x3f82d2a5	1.0220534
117	0x3e4cd4d1	0.20003058
118	0x3e9e466a	0.30913097
119	0x3e4ac347	0.19801055
120	0x3e3ab3bb	0.18232624
121	0x3f80b399	1.0054809
122	0x3c4f98f4	0.012670744
123	0x3f5ec914	0.8702557
124	0x3e45ae2d	0.19304724
125	0x3e89a419	0.2688301
126	0x3db7e7b6	0.08979742
127	0xbe98971f	-0.29802796

layers.1.weight f4 [128, 128]
0	0x3daaedb4	0.083461195
1	0xbe28cce5	-0.16484411
2	0xbde3357f	-0.11094188
3	0xbe1c17e9	-0.15243496
4	0x3d55f505	0.052235622
5	0xbc12db57	-0.0089634275
6	0x3d96f054	0.07370058
7	0xbd7f8bb5	-0.062389094
8	0x3dd8cf19	0.10586376
9	0x3d26cae4	0.040720835
10	0x3d3eaa0f	0.0465489
11	0xbd968be7	-0.07350903
12	0x3c8ed514	0.017435588
13	0x3da9b474	0.08286372
14	0x3c0773c5	0.008267348
15	0x3ab9fd74	0.0014189915
16	0xbd191bf0	-0.03738016
17	0xbc880116	-0.01660208
18	0xbc65cf14	-0.014026422
19	0x3de9e2ae	0.11420189
20	0x3ca106e7	0.019656612
21	0xba2b8d35	-0.0006544174
22	0xbdcd9f00	-0.100400925
23	0xbc1cd2ec	-0.009571772
24	0x3cb622cc	0.02223339
25	0x3e0097fc	0.12557977
26	0x3e205679	0.15657987
27	0xbd2decf1	-0.042462293
28	0x3c9c0c76	0.01904891
29	0x3d146b80	0.036235332
30	0x3c2ec1ad	0.010666293
31	0x3d920d94	0.07131496
32	0xbcb4a5a0	-0.022051632
33	0xbd01d661	-0.03169859
34	0xbdd2dae9	-0.1029566
35	0x3d275ed6	0.040861927
36	0xbc9b6c42	-0.01897252
37	0x3bcbdcbb	0.0062213815
38	0x3dbad470	0.091225505
39	0x3e09f36d	0.13471766
40	0xbd0ad965	-0.03389873
41	0xbdf2619e	-0.11835025
42	0xbdc1344b	-0.09433802
43	0x3d4634e9	0.048390303
44	0x3d11c972	0.035592504
45	0xbd5e5564	-0.054280654
46	0x3dab3ed8	0.08361596
47	0x3d58e7d5	0.052955467
48	0xbc4e8fbf	-0.012607514
49	0xbc893403	-0.016748434
50	0xbc4519a7	-0.012030042
51	0x3c95d099	0.018287944
52	0x3b87e019	0.0041465876
53	0x3c46063e	0.012086449
54	0x3d2467c6	0.04013803
55	0xbcab9e54	-0.02094952
56	0x3c633484	0.013867501
57	0xbddcdf95	-0.107848324
58	0x3d5a5656	0.053304993
59	0xbd830abe	-0.06398533
60	0x3e045763	0.1292396
61	0x3ddfeb80	0.1093359
62	0xbcf2f8da	-0.029659677
63	0x3d52b469	0.051441584
64	0x3d396516	0.04526242
65	0x3c33f6ab	0.010984103
66	0x3d238cf7	0.039929356
67	0x3d575e96	0.05258044
68	0x3b994f38	0.004678633
69	0xbd8dd042	-0.06924488
70	0x3deab2e9	0.11459906
71	0xbe2873b0	-0.16450381
72	0xbe0a56f6	-0.13509735
73	0x3c9b187d	0.018932575
74	0xbdbe18cf	-0.092820756
75	0xbcc63bf9	-0.024198519
76	0x3e72e9da	0.2372202
77	0xbdaa7691	-0.08323396
78	0x3d262d08	0.04057029
79	0x3e33b102	0.17547992
80	0x3d4eeb52	0.050517388
81	0xbd156564	-0.036473647
82	0x3e14bb94	0.1452468
83	0x3dd801bc	0.10547206
84	0x3e798c28	0.24369872
85	0xbc917d39	-0.017759906
86	0xbc7e178e	-0.015508546
87	0x3d974d25	0.07387761
88	0xbb993f4b	-0.0046767346
89	0xbcd3b4f0	-0.025843114
90	0xbbfdbca1	-0.0077434336
91	0xbe101236	-0.14069447
92	0x3d82353f	0.06357812
93	0xbcb4bd06	-0.02206279
94	0x3d58b4b8	0.05290672
95	0x3b49aed4	0.0030774372
96	0xbd0fec5e	-0.035137527
97	0xbd98e0cf	-0.07464754
98	0xbe393cbe	-0.18089578
99	0x3d381627	0.044943
100	0x3cd42e43	0.025900966
101	0xbdcec6f2	-0.100965396
102	0x3da9a16d	0.08282743
103	0x3daf1fac	0.08550963
104	0x3ef82bc4	0.4847089
105	0x3d42fd5b	0.0476049
106	0x3de8ab55	0.11360804
107	0xbce1acb8	-0.027548179
108	0xbdd2c42a	-0.102913216
109	0x3d2f0862	0.042732604
110	0x3ddde6c1	0.108350284
111	0xbd8bf21c	-0.06833288
112	0x3dc283e5	0.09497813
113	0x3e74b4d3	0.23897104
114	0xbcd11974	-0.025524832
115	0xbd11179c	-0.035422906
116	0x3d411339	0.047137473
117	0xbcc0997e	-0.02351069
118	0xbe11c713	-0.14236097
119	0x3b982743	0.0046433522
120	0xbabb3a49	-0.0014284338
121	0x3dc46b14	0.09590736
122	0x3d094574	0.0335135
123	0x3ed87652	0.4227777
124	0x3e3c32cd	0.18378754
125	0xbd82dffb	-0.06390377
126	0xbc633191	-0.013866798
127	0x3c8083aa	0.015687782
128	0x3d1fd461	0.0390209
129	0xbd3693e4	-0.044574633
130	0xbe08ef88	-0.13372624
131	0x3b8c0004	0.004272463
132	0xbd60f951	-0.054925267
133	0xbdce8cd3	-0.10085454
134	0xbe5f062f	-0.21779703
135	0xbc974490	-0.01846531
136	0x3c273322	0.010205062
137	0x3d33401b	0.043762308
138	0x3dc45f70	0.09588516
139	0x3cf7d43c	0.030252568
140	0xbd389815	-0.04506691
141	0xbeb79229	-0.358537
142	0xbd71236f	-0.058871683
143	0x3e308742	0.17239097
144	0xbd17a236	-0.03701993
145	0xbddfbf9c	-0.109252185
146	0xbe946406	-0.28982562
147	0x3d2124da	0.039341785
148	0xbc35d34a	-0.0110977385
149	0xbd8118b0	-0.06303537
150	0x3dfc4d06	0.123193786
151	0xbdc4fde7	-0.096187405
152	0x3e5b6c17	0.21427952
153	0xbd85cac5	-0.06532816
154	0xbcb6df07	-0.022323145
155	0x3da1a763	0.078932546
156	0x3de006a4	0.109387666
157	0xbe20cd2c	-0.15703267
158	0xbdaeef4c	-0.08541736
159	0x3d811a9b	0.06303903
160	0x3e219281	0.15778543
161	0xbe5c588b	-0.21518151
162	0xbef2cd09	-0.47422054
163	0x3ba34d25	0.0049835616
164	0xbe24ab77	-0.16081034
165	0x3db180c2	0.08667137
166	0x3c81ad58	0.015829727
167	0x3d85d2a8	0.0653432
168	0xbdff32cc	-0.124608606
169	0xbdda3007	-0.10653692
170	0x3dbd816a	0.092531994
171	0xbe03cdc5	-0.12871464
172	0xbd261b9a	-0.040553667
173	0xbd8a625a	-0.0675704
174	0x3d9bea26	0.0761302
175	0x3db648a0	0.08900571
176	0x3ccac9d0	0.024754435
177	0x3de27fff	0.110595696
178	0x3e060021	0.13085987
179	0xbd46902a	-0.04847733
180	0x3dea7578	0.11448187
181	0xbe199216	-0.14997134
182	0xbd78361b	-0.060598474
183	0x3cd17cd8	0.025572225
184	0x3ddb1ecf	0.10699236
185	0xbda04e98	-0.078274906
186	0x3ce262b0	0.027634948
187	0xbcca5d29	-0.024702625
188	0x3c8cc20d	0.017182374
189	0xbdccfab4	-0.10008755
190	0x3d3a49ef	0.045480665
191	0x3da32adc	0.07967159
192	0xbe4b9fe1	-0.19885208
193	0xbce58dd2	-0.028021727
194	0xbdc494a6	-0.09598665
195	0xbcbca332	-0.023027036
196	0x3dff4b79	0.12465567
197	0x3d934ce5	0.07192401
198	0x3dd361fa	0.10321422
199	0xbe6129b4	-0.21988565
200	0x3d1c77e4	0.038200274
201	0x3d838baa	0.06423123
202	0x3cdc6d4e	0.02690759
203	0xbbe6911f	-0.0070363428
204	0x3c9b3009	0.018943803
205	0xbd6bb8dc	-0.057549343
206	0x3e6c24d9	0.23060931
207	0xbced4679	-0.028964268
208	0x3e9921e3	0.29908666
209	0xbdb54d2a	-0.088526085
210	0x3e76cadf	0.24100827
211	0x3e9d8fae	0.3077368
212	0x3cadea1e	0.0212298
213	0x3d9fb467	0.07798081
214	0xbd5a1984	-0.05324699
215	0x3e9d8bc7	0.30770704
216	0x3dba491c	0.09095976
217	0x3d831abf	0.06401586
218	0xbc8895d1	-0.016673
219	0xbde0caf1	-0.10976208
220	0xbda1bad3	-0.07896962
221	0xbd85fcd7	-0.06542366
222	0x3dca8a72	0.098896876
223	0x3e848e93	0.25890025
224	0xbdf5a1a2	-0.1199372
225	0x3db509bc	0.08839747
226	0xbb22f3a5	-0.0024864462
227	0xbd651f40	-0.055938005
228	0xbe2d919a	-0.16950074
229	0x3d4e3c91	0.05035073
230	0x3e11d909	0.14242949
231	0x3cf632fc	0.030053608
232	0x3e913454	0.28360236
233	0x3df115c1	0.11771727
234	0xbe6d9f54	-0.2320531
235	0x3daeffd7	0.08544891
236	0xbbf5c7ce	-0.007500625
237	0xbd9c037b	-0.07617851
238	0x3d8acac2	0.06776954
239	0x3e127d06	0.14305505
240	0xbd84990f	-0.06474506
241	0xbe336185	-0.1751767
242	0x3e321952	0.17392471
243	0xbde3d254	-0.11124101
244	0x3e972a84	0.29524624
245	0xbe366bd6	-0.17814574
246	0xbd7ee05c	-0.062225685
247	0xbe8409bc	-0.25788677
248	0xbda28d3c	-0.079370946
249	0xbe9304a8	-0.2871449
250	0xbe36b496	-0.17842326
251	0x3d82d8a7	0.063889794
252	0xbc49962d	-0.012303871
253	0x3e023893	0.12716894
254	0x3c90609e	0.017624196
255	0xbd1688ea	-0.036751665
